weights/Adam.model.weights.pt (torch, 219383 bytes, 42 tensors)

weight f4 [16, 3, 1, 1]
0.037500877 0.13299371 0.05649221 0.23446935 0.47841397 -0.36225462 0.009990983 -0.0793897
-0.39239207 0.34113652 0.28547215 0.27290317 -0.09811407 0.38257626 -0.37615904 0.45520735
0.35646164 0.39617974 0.3706699 0.27020824 -0.4537156 0.00032166805 0.18028387 0.0417511
-0.18936023 -0.09474918 0.002608422 -0.14205357 -0.14639126 0.09279575 0.18461457 0.020062562
-0.47092047 -0.1494861 0.37878835 -0.3530341 -0.41532856 0.37580216 -0.16779086 -0.13853152
0.3934193 -0.1409646 -0.3466633 0.26687142 -0.27218568 -0.23962313 -0.3044733 0.20880972
00000000: 859a 193d 812f 083e 6064 673d bc18 703e
00000010: adf2 f43e 7079 b9be 38b1 233c 1197 a2bd
00000020: 9de7 c8be 72a9 ae3e 6829 923e f7b9 8b3e
00000030: 08f0 c8bd 09e1 c33e eb97 c0be f010 e93e
00000040: 2482 b63e 12d8 ca3e 72c8 bd3e bc58 8a3e
00000050: 694d e8be 8ea5 a839 569c 383e 3403 2b3d
00000060: a6e7 41be dc0b c2bd 0ff2 2a3b 7e76 11be
00000070: 97e7 15be b30b be3d 9a0b 3d3e 3e5a a43c
00000080: 7d1c f1be e212 19be 8cf0 c13e e3c0 b4be
00000090: f2a5 d4be 2469 c03e 5ed1 2bbe 35db 0dbe
000000a0: 416e c93e 0659 10be da7d b1be 5fa3 883e
000000b0: ec5b 8bbe c45f 75be ede3 9bbe 37d2 553e

bias f4 [16]
-0.0699187 3.1558666e-05 -0.26721808 0.1421824 0.09687064 -0.061623465 -0.17007038 -6.9618943e-07
-0.3566711 -0.17728834 -0.41845295 0.11249356 -0.023718758 0.17420508 0.03655519 3.973221e-06
00000000: 8931 8fbd dc5d 0438 cfd0 88be 4398 113e
00000010: 1d64 c63d e368 7cbd ee26 2ebe c6e1 3ab5
00000020: 989d b6be 138b 35be 773f d6be 0663 e63d
00000030: d74d c2bc d162 323e e5ba 153d b551 8536

weight f4 [16]
0.9211266 0.91145444 0.96506125 0.93307686 0.908294 0.945651 0.9478884 0.9395232
0.9231753 0.9565957 0.95688856 0.94178784 0.92259264 0.97623265 0.90750325 0.89324725
00000000: f4ce 6b3f 1455 693f 410e 773f 20de 6e3f
00000010: f585 683f 2f16 723f d0a8 723f 9884 703f
00000020: 3755 6c3f 75e3 743f a6f6 743f 0219 713f
00000030: 082f 6c3f 62ea 793f 2252 683f daab 643f

bias f4 [16]
0.0060943747 -0.014085665 0.0016010198 -0.0053512547 -0.010350412 -0.006097275 0.0065617864 -0.001743842
0.008197188 -0.003173742 0.005137175 0.023028294 0.016584158 0.062243763 -0.007852777 -0.011918863
00000000: 52b3 c73b 90c7 66bc 4fd9 d13a 9459 afbb
00000010: c694 29bc a6cb c7bb 4104 d73b a191 e4ba
00000020: 804d 063c 8efe 4fbb bf55 a83b d5a5 bc3c
00000030: 80db 873c 51f3 7e3d efa8 00bc 5647 43bc

running_mean f4 [16]
18.694052 32.606293 -35.67091 74.43496 -5.3178234 99.16774 20.106886 18.402376
-25.068533 -18.309011 -18.40783 -8.257027 -18.240988 9.089719 -29.145906 -30.4142
00000000: 6b8d 9541 d86c 0242 03af 0ec2 b3de 9442
00000010: 9c2b aac0 e255 c642 e7da a041 1138 9341
00000020: 5b8c c8c1 db78 92c1 3c43 93c1 c81c 04c1
00000030: 8bed 91c1 7d6f 1141 d12a e9c1 4850 f3c1

running_var f4 [16]
215.31882 731.0207 755.8453 3402.9312 30.640722 6064.932 355.0779 205.98433
389.68262 217.35834 215.46893 52.313164 229.5754 50.63663 540.60455 618.31195
00000000: 9e51 5743 53c1 3644 19f6 3c44 e6ae 5445
00000010: 3320 f541 7587 bd45 f989 b143 fdfb 4d43
00000020: 60d7 c243 bc5b 5943 0c78 5743 ae40 5142
00000030: 4d93 6543 e98b 4a42 b126 0744 f793 1a44

weight f4 [16, 3, 3, 3]
-0.077116214 0.09963267 0.09448781 -0.13272582 -0.010985097 -0.13155195 0.13713464 0.09236917
-0.0114859175 -0.026656983 0.045421943 0.06666599 0.03717793 0.027607739 0.17207244 -0.11058896
0.029251464 -0.06293141 -0.07166609 0.078297615 0.03586183 -0.06605052 0.0023398271 0.04196531
0.0022074373 -0.15101139 -0.10370354 0.16505852 0.16892712 0.113541335 -0.060306996 0.15647496
0.19246212 -0.09296304 -0.10938329 -0.14341354 -0.022245394 0.1633437 -0.10232509 -0.012327816
-0.06750052 -0.093489274 -0.044325657 0.17952813 -0.06377472 -0.10203165 0.14314875 -0.08214052
0.09082606 -0.09136945 0.12996165 -0.14498109 -0.13771774 -0.016959008 0.07838204 0.11011895
-0.050659094 0.12154931 -0.020256756 0.055711642 0.16474104 0.12762727 -0.09525062 -0.054927394
-0.06207437 -0.13668096 -0.0037533846 -0.1231025 -0.01770622 0.12065417 0.1008704 -0.1974508
0.091081634 0.11146059 -0.15102848 -0.13854803 0.063451715 -0.06048648 0.17072298 -0.1174951
0.08996691 0.06266259 -0.09662298 0.11773752 0.15049471 0.1272882 -0.17264645 -0.13291183
0.12193546 0.17421693 -0.0047218893 -0.035199426 -0.09498607 -0.09418646 0.14482224 0.059366416
-0.090876445 -0.053018928 -0.19940555 -0.09276793 0.014270825 0.025554808 -0.03996474 -0.0013356291
0.12588905 -0.16052848 -0.048588227 0.058696356 -0.123631395 -0.16785762 0.1429559 -0.16462934
-0.071908675 -0.11727659 -0.16978379 0.12406615 0.04019588 0.017712124 -0.030021854 -0.0072791455
0.15564492 0.035331193 -0.033958014 -0.08854036 0.16687943 0.16493072 -0.010702943 -0.071662635
-0.08452504 0.15881963 -0.18571986 0.17571624 0.06405241 0.08878148 -0.17427221 0.16807598
0.16613992 -0.14370154 -0.04261292 -0.070088804 -0.17021254 0.12102169 -0.15277159 -0.016957406
0.09931805 0.16752593 0.13916661 0.037705928 0.016361056 0.06492617 0.11564634 -0.11517119
-0.030696537 -0.15231636 0.116136774 -0.13490516 0.021807559 -0.17414 0.021700595 0.15542206
0.004401285 -0.027614519 -0.025487479 0.03165308 0.12208758 0.010996443 0.07170215 -0.049819853
-0.07904343 0.1078198 0.16502616 0.03364785 -0.07818586 0.09052603 0.018548686 -0.12541577
-0.063075416 0.15884106 -0.036104005 0.041311946 -0.012099105 -0.17349368 -0.078834 0.1542406
-0.14769483 -0.15636206 -0.12928638 -0.08905547 -0.051864788 -0.13019241 -0.039295945 -0.058486447
0.025159044 0.00016816947 -0.045397423 -0.023428947 -0.0645499 -0.06410734 0.16597328 0.07535112
0.09712879 -0.14781804 -0.053224973 -0.1350242 0.035617534 0.045174465 0.07600024 0.12438503
0.023316445 0.07569845 0.16311595 -0.060851604 -0.15458933 0.0130497785 -0.020569539 -0.1466133
0.10520778 0.12908946 0.030458106 -0.029488325 -0.07355991 -0.06970154 0.09926054 -0.043525435
-0.11131089 0.043955386 -0.13110307 0.030128956 0.017723233 -0.02321077 -0.06495842 -0.08519381
0.013896283 0.0045660944 -0.06843347 -0.043496948 0.01776291 0.09014307 -0.030851379 0.039203104
-0.02874974 -0.03413707 -0.012883176 -0.044338845 -0.12063666 0.02888135 -0.04508152 0.017618416
-0.037059546 0.04130079 0.15994473 0.10269911 -0.1132607 -0.039813906 -0.05457775 0.0049896436
00000000: 1bef 9dbd 370c cc3d d382 c13d 47e9 07be
00000010: d6fa 33bc 8eb5 06be 066d 0c3e 0c2c bd3d
00000020: 6e2f 3cbc bf5f dabc 5c0c 3a3d 2e88 883d
00000030: e347 183d a029 e23c c233 303e 777c e2bd
00000040: c4a0 ef3c 2fe2 80bd acc5 92bd 805a a03d
00000050: dbe3 123d 7f45 87bd c957 193b d1e3 2b3d
00000060: a7aa 103b bba2 1abe 8662 d4bd 1a05 293e
00000070: 3bfb 2c3e 5c88 e83d 7804 77bd f93a 203e
00000080: ca14 453e 6863 bebd 5904 e0bd 00db 12be
00000090: f93b b6bc 9243 273e d18f d1bd 9cfa 49bc
000000a0: b63d 8abd 4e77 bfbd d28e 35bd 39d6 373e
000000b0: 529c 82bd f8f5 d0bd 9695 123e 4a39 a8bd
000000c0: 0303 ba3d e81f bbbd ab14 053e ec75 14be
000000d0: e105 0dbe 9eed 8abc c386 a03d 0b86 e13d
000000e0: e97f 4fbd d8ee f83d 7ff1 a5bc e431 643d
000000f0: e0b1 283e b9b0 023e c212 c3bd 8cfb 60bd
00000100: b241 7ebd 18f6 0bbe 58fb 75bb 2a1d fcbd
00000110: a20c 91bc 8919 f73d 2495 ce3d 8b30 4abe
00000120: 0289 ba3d 7345 e43d 36a7 1abe 89df 0dbe
00000130: f9f2 813d acc0 77bd 01d2 2e3e 45a1 f0bd
00000140: 9240 b83d 3e55 803d 45e2 c5bd 5e20 f13d
00000150: 491b 1a3e d757 023e 3bca 30be 0a1a 08be
00000160: 4cb9 f93d ec65 323e 14ba 9abb 462d 10bd
00000170: 0f88 c2bd d5e4 c0bd 484c 143e 332a 733d
00000180: 6e1d babd 602a 59bd f830 4cbe 1dfd bdbd
00000190: 2ed0 693c 5158 d13c 11b2 23bd 4710 afba
000001a0: 0fe9 003e 9461 24be 7304 47bd 976b 703d
000001b0: 7532 fdbd dee2 2bbe 0863 123e 9894 28be
000001c0: db44 93bd b52e f0bd cddb 2dbe 6516 fe3d
000001d0: 6fa4 243d 0419 913c 64f0 f5bc e685 eebb
000001e0: 6261 1f3e 71b7 103d 8f17 0bbd a654 b5bd
000001f0: 71e2 2a3e 99e3 283e 665b 2fbc dcc3 92bd
00000200: 771b adbd 9da1 223e 592d 3ebe f5ee 333e
00000210: e92d 833d 11d3 b53d 6a74 32be 1c1c 2c3e
00000220: 9520 2a3e 7f26 13be e38a 2ebd b88a 8fbd
00000230: 324c 2ebe 38da f73d 2870 1cbe 42ea 8abc
00000240: 4367 cb3d eb8b 2b3e b181 0e3e 8871 1a3d
00000250: 9f07 863c 03f8 843d fdd7 ec3d dfde ebbd
00000260: 4e77 fbbc d2f8 1bbe 1ed9 ed3d 9424 0abe
00000270: c4a5 b23c c251 32be 72c5 b13c f626 1f3e
00000280: a838 903b d837 e2bc 1ecb d0bc a9a6 013d
00000290: 0e09 fa3d 6d2a 343c 94d8 923d e70f 4cbd
000002a0: 86e1 a1bd a1d0 dc3d 9efc 283e 54d2 093d
000002b0: e81f a0bd b665 b93d 6af3 973c fe6c 00be
000002c0: af2d 81bd 3ba7 223e cbe1 13bd b736 293d
000002d0: 533b 46bc 54a8 31be b873 a1bd 3ff1 1d3e
000002e0: 503d 17be 601d 20be a663 04be b762 b6bd
000002f0: 2c70 54bd 2951 05be c9f4 20bd 7c8f 6fbd
00000300: 571a ce3c a656 3039 a6f2 39bd 10ee bfbc
00000310: bd32 84bd b64a 83bd e6f4 293e b051 9a3d
00000320: 76eb c63d 9d5d 17be 6e02 5abd c943 0abe
00000330: b1e3 113d dc08 393d 04a6 9b3d 94bd fe3d
00000340: 2102 bf3c ca07 9b3d de07 273e 883f 79bd
00000350: aa4c 1ebe bdce 553c 7381 a8bc cc21 16be
00000360: 2d77 d73d 0730 043e 4783 f93c 8091 f1bc
00000370: 94a6 96bd aebf 8ebd 1c49 cb3d ba47 32bd
00000380: f7f6 e3bd 900a 343d e23f 06be 00d1 f63c
00000390: 5030 913c 8324 bebc ec08 85bd 187a aebd
000003a0: 3cad 633c 2d9f 953b d926 8cbd db29 32bd
000003b0: 8683 913c ee9c b83d 08bc fcbc 6f93 203d
000003c0: 9384 ebbc 50d3 0bbd f513 53bc a69c 35bd
000003d0: 5a10 f7bd 9598 ec3c 66a7 38bd 7f54 903c
000003e0: c0cb 17bd 042b 293d 8dc8 233e e953 d23d
000003f0: 3af5 e7bd e813 23bd eb8c 5fbd 2a80 a33b

bias f4 [16]
0.03364337 0.0007278334 -9.773902e-06 -0.0110823475 -2.2021268e-06 -0.051942445 5.8153266e-05 -5.4363267e-07
4.531242e-05 3.7750058e-06 0.017119758 -5.7743487e-06 -1.1440703e-07 -0.027703047 0.07197016 0.00013556944
00000000: a1cd 093d 13cc 3e3a 97fa 23b7 bc92 35bc
00000010: 40c8 13b6 9ac1 54bd 98e9 7338 27ee 11b5
00000020: d70d 3e38 1b56 7d36 bc3e 8c3c 47c1 c1b6
00000030: eeaf f5b3 80f1 e2bc 1765 933d a527 0e39

weight f4 [16]
0.88721466 0.87989706 0.9439037 0.9485223 0.87940097 0.91228473 0.96898353 0.9001496
0.89012337 0.9046481 0.8945706 0.9026688 0.91800344 0.9362448 0.9318291 0.947946
00000000: 8020 633f ef40 613f aca3 713f 5cd2 723f
00000010: 6c20 613f 7e8b 693f 4e0f 783f 3470 663f
00000020: 20df 633f 0597 673f 9402 653f 4d15 673f
00000030: 4602 6b3f bdad 6f3f 5a8c 6e3f 97ac 723f

bias f4 [16]
-0.0013415986 -0.010210696 0.010516365 0.007311684 0.016102571 0.023673002 0.013546279 0.013394359
-0.0141830295 0.00012211321 -0.0067517096 0.0022234307 -0.0030666816 -0.003138536 -0.014370149 0.005589213
00000000: 94d8 afba c34a 27bc d54c 2c3c da96 ef3b
00000010: 8ae9 833c e2ed c13c 36f1 5d3c 0374 5b3c
00000020: f05f 68bc 840b 0039 723d ddbb fab6 113b
00000030: 61fa 48bb e5af 4dbb c670 6bbc b825 b73b

running_mean f4 [16]
6.1631474 13.56733 15.840093 -7.6789794 -16.708155 11.894887 -14.140293 -22.012655
-12.405579 -15.821323 -15.573056 -17.571833 35.460346 -34.724934 34.692566 -16.016457
00000000: 8138 c540 c913 5941 0571 7d41 33ba f5c0
00000010: 4daa 85c1 7551 3e41 a43e 62c1 eb19 b0c1
00000020: 407d 46c1 2424 7dc1 3d2b 79c1 1d93 8cc1
00000030: 65d7 0d42 55e6 0ac2 30c5 0a42 b421 80c1

running_var f4 [16]
71.79929 247.32892 271.95932 70.42088 254.55197 175.26321 200.26195 377.79047
115.16003 193.61674 180.57326 271.82047 867.8449 806.70966 768.33264 222.55074
00000000: 3d99 8f42 3454 7743 cbfa 8743 7ed7 8c42
00000010: 4e8d 7e43 6243 2f43 0f43 4843 2ee5 bc43
00000020: ef51 e642 e39d 4143 c192 3443 05e9 8743
00000030: 13f6 5844 6bad 4944 4a15 4044 fd8c 5e43

weight f4 [16, 3, 5, 5]
0.0073768487 0.07506678 0.072572924 0.041077044 -0.10321931 -0.025686326 0.059525337 -0.036631696
-0.0726496 -0.041333612 0.04552563 0.006883134 0.029581292 -0.088192455 0.08366824 0.10439757
-0.09124177 -0.005272071 -0.009042075 0.1045456 0.013478608 -0.04715318 -0.083627366 -0.079646625
0.09778154 0.009491743 0.088724 0.0027927572 -0.046222176 -0.06359156 0.09621462 -0.041900672
-0.07810799 0.04093755 -0.057780724 0.053482853 0.06582779 0.07317158 0.049264643 0.039384197
-0.02982839 0.04228785 -0.018310778 0.032310814 4.4127595e-05 -0.038198717 0.07107797 -0.06839441
0.041863654 -0.036043216 0.060336296 0.058444384 0.059857175 -0.009878301 -0.078187704 0.059615172
-0.03913107 -0.038334683 0.019577552 -0.09303158 0.02006205 -0.10450625 -0.052537724 -0.103871964
-0.03394255 -0.09078284 0.0057366174 -0.009499853 0.08455733 -0.092401944 0.08021933 0.048505776
0.058692053 -0.0061709187 -0.031879265 0.033982757 -0.0067410404 -0.04951748 0.050209824 0.07255672
-0.06269629 0.053965945 -0.029571172 -0.056360546 0.065788865 -0.015828371 -0.028725583 -0.054298345
-0.071106404 -0.031072859 -0.016484408 0.005634774 -0.03699132 -0.06286052 0.020378549 -0.07751474
0.02971359 0.047180936 -0.04524485 -0.07689739 -0.04491587 0.035250437 -0.010255912 0.026971888
0.0057036467 -0.04419286 0.044462416 0.044742707 0.0033121435 -0.046902016 0.031877436 0.03340895
0.003077029 -0.037210263 0.025602942 0.004803088 0.01902082 0.029727682 0.0054479567 -0.009668003
-0.05337639 -0.052757952 0.01710377 -0.04351998 0.023992736 0.012871465 0.036667973 -0.018250408
0.028155642 0.029082505 -0.029817974 -0.046413004 0.00701864 -0.01959175 -0.0105189625 -0.059136134
0.056720562 -0.021749 0.0023004978 0.05004603 -0.03107866 0.015152161 -0.005219734 0.030257342
-0.048535228 -0.04788217 0.024911026 -0.019470135 0.022607744 0.021809688 -0.06595318 0.0440276
-0.031119255 -0.05093012 0.02622274 -0.070581995 0.022903427 -0.016761709 0.043202046 -0.0023699224
0.025352538 0.009149374 -0.048568297 -0.009016985 -0.077537864 0.015940093 -0.0029116801 -0.020082965
-0.0011076652 0.030044546 -0.069592334 -0.06021848 0.049225483 0.04577006 0.056641694 -0.03568553
0.031968977 0.0028188322 -0.04372784 0.06350051 0.044595543 0.014254122 0.028443648 0.024979895
-0.054414358 0.06529898 0.005136367 -0.036554832 0.0274147 -0.068259135 0.022998158 0.04807283
0.048953377 0.02100204 -0.023850787 0.05775469 0.034357745 0.037507318 0.033492442 -0.027250182
-0.07762351 -0.0414036 -0.003177081 -0.007861401 0.060128048 0.046800524 0.051158123 -0.016986052
0.0059736203 -0.011116096 0.01114034 -0.005038342 -0.023925938 -0.022989152 0.022333339 -0.0055048587
-0.020954728 0.028389135 0.051787365 0.01891804 0.061794978 -0.008197445 -1.2426895e-05 0.048203416
0.011672894 0.08478779 0.08569557 -0.054775055 -0.06987653 -0.0034785813 0.04033566 0.06376872
-0.02814973 -0.07086681 -0.08369674 0.00968168 0.09088191 -0.092302956 -0.013567132 -0.067844324
-0.044827696 0.034118388 0.035173357 0.049525302 0.051325947 0.016605973 -0.06717314 -0.0067654657
-0.0056505436 -0.020778148 -0.05157524 0.0049995906 -0.06757892 -0.08782771 0.08932213 -0.034956135
00000000: 7eb9 f13b 9dbc 993d 1da1 943d 6740 283d
00000010: a564 d3bd 216c d2bc d7d0 733d 1e0b 16bd
00000020: 50c9 94bd 6f4d 29bd 1579 3a3d ea8b e13b
00000030: 7754 f23c 3f9e b4bd 415a ab3d 65ce d53d
00000040: f7dc babd 56c1 acbb 3625 14bc 011c d63d
00000050: 61d5 5c3c b123 41bd d344 abbd c51d a3bd
00000060: b041 c83d 4183 1b3c eeb4 b53d b106 373b
00000070: 7753 3dbd 4b3c 82bd 2c0c c53d 0aa0 2bbd
00000080: 15f7 9fbd 22ae 273d 7bab 6cbd d610 5b3d
00000090: b8d0 863d fbda 953d b9c9 493d 5351 213d
000000a0: ab5a f4bc 0636 2d3d 7c00 96bc 5858 043d
000000b0: a515 3938 4276 1cbd 5491 913d 5e12 8cbd
000000c0: 3979 2b3d 0da2 13bd 3123 773d 6163 6f3d
000000d0: cc2c 753d 99d8 21bc e020 a0bd 0a2f 743d
000000e0: e747 20bd d404 1dbd 1a61 a03c 5787 bebd
000000f0: 2b59 a43c 5f07 d6bd cc31 57bd d3ba d4bd
00000100: 5807 0bbd 5bec b9bd 3cfa bb3b 45a5 1bbc
00000110: 652c ad3d 3b3d bdbd 084a a43d fead 463d
00000120: 1467 703d 6b35 cabb d593 02bd 8131 0b3d
00000130: f2e3 dcbb d7d2 4abd d1a8 4d3d 9e98 943d
00000140: ea66 80bd 650b 5d3d 3e3f f2bc 51da 66bd
00000150: 50bc 863d 80aa 81bc ea51 ebbc f167 5ebd
00000160: 3ca0 91bd 828c febc 4f0a 87bc e9a3 b83b
00000170: 3684 17bd 04bd 80bd eaf0 a63c 0cc0 9ebd
00000180: ea69 f33c cc40 413d aa52 39bd 617c 9dbd
00000190: b4f9 37bd c362 103d 6a08 28bc 26f4 dc3c
000001a0: a8e5 ba3b 9303 35bd 391e 363d 2144 373d
000001b0: 8c10 593b 541c 40bd ea91 023d d3d7 083d
000001c0: fba7 493b ca69 18bd 43bd d13c 3963 9d3b
000001d0: 8dd1 9b3c 7887 f33c c684 b23b 8b66 1ebc
000001e0: 34a1 5abd b918 58bd 351d 8c3c 0242 32bd
000001f0: 6a8c c43c d6e2 523c 2831 163d e181 95bc
00000200: a9a6 e63c 6f3e ee3c d344 f4bc 901b 3ebd
00000210: 9ffc e53b e17e a0bc ba57 2cbc bb38 72bd
00000220: d253 683d f52a b2bc f3c3 163b 11fd 4c3d
00000230: ad98 febc c540 783c 4d0a abbb 3fde f73c
00000240: e0cc 46bd 1820 44bd 3512 cc3c d57f 9fbc
00000250: e033 b93c 3baa b23c 7612 87bd 4956 343d
00000260: cfed febc 1a9c 50bd 12d1 d63c 4b8d 90bd
00000270: f89f bb3c da4f 89bc a1f4 303d b350 1bbb
00000280: 20b0 cf3c 42e7 153c 8def 46bd fabb 13bc
00000290: 2ccc 9ebd cc94 823c e3d1 3ebb 0885 a4bc
000002a0: 142f 91ba fb1f f63c 6d86 8ebd a7a7 76bd
000002b0: a9a0 493d 6379 3b3d 1f01 683d fe2a 12bd
000002c0: e7f1 023d 28bc 383b f71b 33bd 8e0c 823d
000002d0: d1a9 363d 1f8a 693c a702 e93c a3a2 cc3c
000002e0: 97e1 5ebd 79bb 853d f84e a83b 85ba 15bd
000002f0: cb94 e03c 72cb 8bbd a266 bc3c 04e8 443d
00000300: 5683 483d 780c ac3c ba62 c3bc 2f90 6c3d
00000310: b5ba 0c3d 46a1 193d 5f2f 093d c63b dfbc
00000320: 13f9 9ebd d296 29bd 9336 50bb 1bcd 00bc
00000330: d448 763d e8b1 3f3d 2e8b 513d 5526 8bbc
00000340: 5cbe c33b 4920 36bc f985 363c ad18 a5bb
00000350: 5400 c4bc bf53 bcbc 68f4 b63c 1a62 b4bb
00000360: 40a9 abbc 5590 e83c fd1e 543d 01fa 9a3c
00000370: bb1c 7d3d 944e 06bc 1c7d 50b7 f270 453d
00000380: aa3f 3f3c 39a5 ad3d 2981 af3d cf5b 60bd
00000390: 6d1b 8fbd e9f8 63bb 0137 253d 2d99 823d
000003a0: 439a e6bc 9e22 91bd 3269 abbd e99f 1e3c
000003b0: 4b20 ba3d 5509 bdbd ad48 5ebc f7f1 8abd
000003c0: 3f9d 37bd b9bf 0b3d f011 103d 0bdb 4a3d
000003d0: 283b 523d 4009 883c 1292 89bd d7b0 ddbb
000003e0: 3228 b9bb ef36 aabc 8f40 53bd 9bd3 a33b
000003f0: d166 8abd 04df b3bd 85ee b63d 2a2e 0fbd

bias f4 [16]
5.255549e-05 -9.76714e-06 -2.1023583e-05 2.0549469e-05 -1.1482692e-06 -0.00016867074 1.0196032e-05 -8.132328e-05
4.8964215e-05 -7.7077486e-05 -7.006524e-07 0.011836505 0.0043111998 -4.6437954e-06 0.002595132 -0.00019223925
00000000: 076f 5c38 8cdd 23b7 cd5b b0b7 a661 ac37
00000010: 3b1e 9ab5 35dd 30b9 a00f 2b37 1a8c aab8
00000020: ed5e 4d38 a9a4 a1b8 7714 3cb5 e6ed 413c
00000030: f744 8d3b e6d1 9bb6 1713 2a3b d593 49b9

weight f4 [16]
0.88811016 0.90602165 0.8775065 0.94858664 0.89089304 0.9126698 0.89333165 0.9088173
0.8928307 0.91727453 0.8998092 0.8932401 0.8953214 0.8968309 0.87660015 0.94484085
00000000: 305b 633f 09f1 673f 44a4 603f 93d6 723f
00000010: 9111 643f baa4 693f 62b1 643f 40a8 683f
00000020: 8e90 643f 81d2 6a3f e559 663f 62ab 643f
00000030: c933 653f b696 653f de68 603f 17e1 713f

bias f4 [16]
-0.019951962 0.00013013907 -0.018230885 -0.004458426 0.0019965845 -0.00689821 0.0026493322 0.006832883
-0.0021370864 0.0054280213 0.010790435 0.004988565 -0.00948052 0.007549478 -0.002188463 -0.0019103022
00000000: 4c72 a3bc f175 0839 f058 95bc fd17 92bb
00000010: 21d9 023b 610a e2bb 6ba0 2d3b 61e6 df3b
00000020: 5c0e 0cbb 8bdd b13b 5dca 303c 1e77 a33b
00000030: 2f54 1bbc 9d61 f73b 516c 0fbb 1b63 faba

running_mean f4 [16]
1.2281842 -23.832079 29.282398 -44.80675 -39.51915 36.240845 -16.95142 37.630013
31.163597 -43.42273 35.03506 15.44944 -48.238464 5.1296635 -48.012722 45.061325
00000000: 2435 9d3f 19a8 bec1 5a42 ea41 1d3a 33c2
00000010: 9c13 1ec2 a0f6 1042 829c 87c1 2285 1642
00000020: 0c4f f941 e0b0 2dc2 e723 0c42 e830 7741
00000030: 30f4 40c2 3426 a440 070d 40c2 cc3e 3442

running_var f4 [16]
195.54149 450.02066 596.7616 1299.3541 1046.3691 912.9069 325.7632 920.3811
623.7961 1148.444 789.70624 275.79044 1483.8735 354.11475 1445.3462 1328.3735
00000000: 9f8a 4343 a502 e143 be30 1544 556b a244
00000010: d0cb 8244 0b3a 6444 b1e1 a243 6418 6644
00000020: f3f2 1b44 358e 8f44 336d 4544 2de5 8943
00000030: f47b b944 b00e b143 14ab b444 f40b a644

weight f4 [96, 48, 1, 1]
-0.051189642 -0.06511632 0.075983174 0.11450542 -0.053974938 0.06788812 0.07868761 -0.060688645
0.055204507 0.030404516 -0.016306246 -0.011256387 0.109041445 -0.047663167 0.0035332113 -0.008720511
0.05842677 0.034207847 0.08325359 0.1056742 -0.031841245 0.021666069 -0.047358952 0.10494144
-0.025258884 -0.06409935 -0.080466844 -0.02892432 0.06431113 -0.078553416 0.015609135 0.074893855
0.010041886 -0.026053077 0.050367553 -0.059334613 0.0038678315 0.13484426 -0.04965533 -0.02686263
-0.010204223 -0.029113045 0.027104877 0.009507668 0.08488825 0.031811688 0.06416051 -0.079178594
0.0014264958 -0.14226976 0.014684035 0.028667873 -0.017392423 -0.019667838 0.10702579 0.10177335
-0.0049511604 0.07494731 0.062235795 0.06723618 -0.087482415 -0.09656888 0.055943266 -0.08323929
-0.02840538 -0.08921253 0.021923194 -0.06484105 0.048745714 -0.1280348 0.07804026 -0.031845644
0.083471015 -0.096171185 0.12432931 0.062873885 -0.13223234 -0.083916865 -0.07928596 -0.049703766
0.01924599 0.11918693 -0.07419348 0.07057816 0.04799095 0.100979745 -0.07212464 0.03463464
-0.086473 -0.036333926 -0.123676024 0.10257588 -0.027842417 -0.11803979 -0.09945187 0.10710081
0.07576358 -0.09420236 -0.025087614 0.040217765 -0.024036467 0.11989637 -0.085258394 0.12218248
0.047879033 0.009610306 -0.117629595 0.00051316497 0.014922298 0.063589096 0.10780882 0.09584432
0.08749605 0.11100103 -0.057362795 -0.029894207 -0.078179106 0.01875345 -0.11807159 0.09261411
0.10477294 -0.12872659 -0.03108902 0.018708397 0.014418066 -0.06635588 0.11013925 0.009831941
0.073339276 0.059933387 0.12718675 0.11060923 0.015407436 -0.057565626 -0.043886825 -0.04036103
0.01706879 -0.07425454 0.037478164 0.012015002 -0.07022359 -0.026046062 0.0482736 -0.12501705
-0.0025457486 0.057647552 0.018232891 0.063496254 -0.022197096 0.0050421176 -0.02930047 -0.101408
-0.09981482 -0.07866048 -0.105080545 -0.0776162 0.069740355 -0.0454098 -0.022084048 0.07411416
0.043558873 0.0046433127 -0.013405995 -0.030709036 0.0746446 -0.050224144 -0.06846413 -0.05303032
-0.11456343 -0.054132752 0.12138247 0.07658378 -0.083784 0.06573382 -0.11530345 0.009926252
0.08656725 0.075254455 0.10648938 0.11568718 0.13164365 -0.04815419 -0.07921651 -0.1190708
0.0039624195 0.11613092 0.10166887 -0.080860496 -0.06514521 -0.08026864 0.03799686 -0.10407774
-0.014118139 0.029240148 -0.018493447 -0.046273936 -0.05592711 -0.0055185813 0.032249592 -0.040091004
-0.042635757 0.016622873 -0.040964518 -0.025075922 0.0050153276 0.08343021 -0.056935415 -0.043755986
0.046591472 0.033478417 0.0010984268 -0.08565787 0.017018067 0.062475223 0.029392583 0.030269269
-0.008607083 0.0359233 -0.06617174 0.031512324 -0.020362005 -0.013640833 -0.02573431 0.056022417
0.020843405 -0.029915063 0.06544628 -0.053478625 -0.027221968 -0.012833317 -0.048280198 -0.019976454
-0.07831091 -0.04189913 -0.0063748024 -0.053786144 0.060460772 0.044580318 -0.04169934 0.03765586
-0.09387845 0.07203404 -0.10941087 -0.0062658223 0.12125332 0.08202167 -0.031105625 -0.007612231
-0.088262014 0.062517114 0.035694104 0.10343447 -0.13336611 -0.00036505415 0.041520692 -0.10291126
00000000: 3bac 51bd b55b 85bd 119d 9b3d d181 ea3d
00000010: d314 5dbd ed08 8b3d f826 a13d a894 78bd
00000020: 1f1e 623d e412 f93c ad94 85bc b66c 38bc
00000030: 1f51 df3d 743a 43bd 738d 673b 79e0 0ebc
00000040: e950 6f3d 871d 0c3d dc80 aa3d b76b d83d
00000050: f76b 02bd 0a7d b13c 76fb 41bd 8aeb d63d
00000060: b8eb cebc 8546 83bd cdcb a4bd b2f2 ecbc
00000070: 8eb5 833d 9de0 a0bd 75bd 7f3c f361 993d
00000080: b986 243c 436d d5bc 354e 4e3d da08 73bd
00000090: 727b 7d3b 9d14 0a3e 6363 4bbd 050f dcbc
000000a0: 9d2f 27bc 7b7e eebc 0c0b de3c 0dc6 1b3c
000000b0: e4d9 ad3d f94c 023d 9666 833d 6328 a2bd
000000c0: 42f9 ba3a 2aaf 11be 4f95 703c e3d8 ea3c
000000d0: 8e7a 8ebc 721e a1bc 5630 db3d 8c6e d03d
000000e0: 583d a2bb fa7d 993d f6ea 7e3d 1fb3 893d
000000f0: fb29 b3bd e8c5 c5bd c424 653d 5c79 aabd
00000100: 66b2 e8bc 0fb5 b6bd 4598 b33c 62cb 84bd
00000110: 96a9 473d 8e1b 03be 92d3 9f3d 9470 02bd
00000120: daf2 aa3d 66f5 c4bd 5ea0 fe3d 06c4 803d
00000130: ea67 07be 9bdc abbd ad60 a2bd 2d96 4bbd
00000140: c4a9 9d3c 4718 f43d c0f2 97bd 488b 903d
00000150: 2992 443d 78ce ce3d 15b6 93bd 0ddd 0d3d
00000160: c218 b1bd e2d2 14bd db49 fdbd 4e13 d23d
00000170: c815 e4bc d8be f1bd 6cad cbbd ab57 db3d
00000180: f029 9b3d 2bed c0bd 8a84 cdbc 62bb 243d
00000190: 20e8 c4bc 3a8c f53d f49b aebd cf3a fa3d
000001a0: ce1c 443d 8b74 1d3c c9e7 f0bd eb85 063a
000001b0: a77c 743c 003b 823d dfca dc3d 074a c43d
000001c0: 2131 b33d 8254 e33d 40f5 6abd b2e4 f4bc
000001d0: 5e1c a0bd d6a0 993c 85cf f1bd 77ac bd3d
000001e0: 3293 d63d e7d0 03be 67ae febc 5a42 993c
000001f0: c039 6c3c 97e5 87bd b090 e13d 2616 213c
00000200: e732 963d b67c 753d 3e3d 023e 1887 e23d
00000210: 786f 7c3c efc9 6bbd acc2 33bd 9b51 25bd
00000220: d9d3 8b3c c412 98bd b482 193d 92da 443c
00000230: 63d1 8fbd 8d5e d5bc 8aba 453d 7804 00be
00000240: 93d6 26bb d71f 6c3d 255d 953c 530a 823d
00000250: afd6 b5bc 5938 a53b 8a07 f0bc ffae cfbd
00000260: b66b ccbd bf18 a1bd 7834 d7bd 3ef5 9ebd
00000270: 08d4 8e3d a0ff 39bd 9be9 b4bc 2ac9 973d
00000280: ca6a 323d ee26 983b d2a4 5bbc 8491 fbbc
00000290: 45df 983d d5b7 4dbd ec36 8cbd 5236 59bd
000002a0: 3ba0 eabd 4eba 5dbd 5f97 f83d f5d7 9c3d
000002b0: f296 abbd 749f 863d 3724 ecbd b8a1 223c
000002c0: 2c4a b13d 021f 9a3d 1b17 da3d 66ed ec3d
000002d0: 98cd 063e 543d 45bd 443c a2bd 64db f3bd
000002e0: 2fd7 813b 0cd6 ed3d c537 d03d 309a a5bd
000002f0: da6a 85bd e263 a4bd 98a2 1b3d b626 d5bd
00000300: c44f 67bc 0989 ef3c 927f 97bc bd89 3dbd
00000310: d313 65bd 37d5 b4bb 2618 043d 7736 24bd
00000320: d5a2 2ebd b12c 883c 69ca 27bd 056c cdbc
00000330: 9e57 a43b 75dd aa3d 1c35 69bd 7a39 33bd
00000340: b3d6 3e3d aa20 093d 16f9 8f3a 656d afbd
00000350: 7969 8b3c 05e6 7f3d b7c8 f03c 42f7 f73c
00000360: b904 0dbc 4f24 133d 0d85 87bd 1113 013d
00000370: 38ce a6bc cd7d 5fbc c2d0 d2bc c377 653d
00000380: cabf aa3c 6f10 f5bc b308 863d 670c 5bbd
00000390: 9b00 dfbc d542 52bc 75c1 45bd a9a5 a3bc
000003a0: 7861 a0bd 6c9e 2bbd b8e3 d0bb dc4e 5cbd
000003b0: b7a5 773d da99 363d edcc 2abd 083d 1a3d
000003c0: 5843 c0bd 9586 933d ce12 e0bd 8751 cdbb
000003d0: a953 f83d fafa a73d 39d1 febc 0670 f9bb
000003e0: b7c2 b4bd f908 803d fb33 123d 74d5 d33d
000003f0: 2091 08be bd64 bfb9 9a11 2a3d 24c3 d2bd

bias f4 [96]
1.51241e-07 -2.0764028e-05 2.1664166e-05 2.460992e-06 2.1373142e-05 -0.026169091 -0.022785168 1.5879606e-06
0.0019845653 2.9625883e-06 -0.0046492927 -0.00010799865 -0.015684897 -0.008404089 -0.012208309 -5.2105006e-06
0.011484796 6.322335e-05 -7.6402124e-05 -2.4027846e-05 7.60365e-05 -9.5517635e-06 -0.0002135426 0.02520624
0.00014556164 -0.0031474489 9.793035e-07 9.419664e-05 0.008047584 -0.0027903975 4.359979e-05 1.206424e-05
-1.8065723e-05 4.4062035e-05 0.01118836 0.0006016886 -0.0005643163 0.0021693374 2.7645447e-05 -2.056156e-06
0.020437304 4.7756214e-07 0.020961542 0.03445233 3.9383067e-06 0.0009369887 -1.4821293e-05 1.7557491e-05
-8.411779e-05 -1.7248501e-06 5.0033294e-05 -0.0016051013 4.2237763e-05 3.387549e-05 0.0034433256 -6.370644e-07
-9.593281e-06 -1.9087549e-05 -5.903602e-08 -1.4739592e-06 -0.02086841 -2.3742796e-05 -1.1819142e-05 0.00302832
0.0083444575 -1.513426e-07 -2.342054e-05 2.2413124e-06 -1.7876184e-05 -0.008408183 1.172531e-05 4.280729e-05
-0.0047564944 -0.00020972424 0.0015850442 0.0149395 -0.014282386 1.8636103e-05 -2.5685442e-05 0.010308366
-0.028199226 0.0134231085 -0.011385025 -1.7379649e-05 0.00021280228 0.0002728808 -0.017016938 -3.509076e-06
0.01752431 5.3030345e-07 1.7557143e-06 -6.560842e-07 -5.4573394e-07 0.031139739 0.0005374751 -0.008869172
00000000: cf64 2234 692e aeb7 71bb b537 8527 2536
00000010: 794a b337 9060 d6bc f6a7 babc e921 d535
00000020: 7b0f 023b e1d0 4636 1859 98bb 557d e2b8
00000030: 9d7d 80bc 4eb1 09bc 5c05 48bc dcd5 aeb6
00000040: ba2a 3c3c c796 8438 143a a0b8 688f c9b7
00000050: c975 9f38 8340 20b7 68ea 5fb9 517d ce3c
00000060: e8a1 1839 6e45 4ebb 9d70 8335 708b c538
00000070: 04da 033c 1adf 36bb ebde 3638 8467 4a37
00000080: d88b 97b7 40cf 3838 624f 373c a3ba 1d3a
00000090: a0ee 13ba 712b 0e3b 25e8 e737 7efc 09b6
000000a0: 226c a73c d231 0035 8ab7 ab3c e31d 0d3d
000000b0: cc25 8436 3fa0 753a f8a8 78b7 6d48 9337
000000c0: 6568 b0b8 6681 e7b5 d7da 5138 4362 d2ba
000000d0: 7428 3138 8815 0e38 6ba9 613b bb02 2bb5
000000e0: d4f2 20b7 331e a0b7 ca8e 7db3 dad4 c5b5
000000f0: 3af4 aabc 442b c7b7 d44a 46b7 c776 463b
00000100: 31b7 083c bd80 22b4 3a77 c4b7 7469 1636
00000110: d0f4 95b7 7ac2 09bc d3b7 4437 fa8b 3338
00000120: 5edc 9bbb 6ce9 5bb9 42c1 cf3a cec4 743c
00000130: ab00 6abc ba54 9c37 1177 d7b7 6ce4 283c
00000140: 1002 e7bc 99ec 5b3c 4288 3abc 83ca 91b7
00000150: ad23 5f39 7111 8f39 1b67 8bbc 777d 6bb6
00000160: 248f 8f3c 2d5a 0e35 e2a5 eb35 c31d 30b5
00000170: 8d7e 12b5 c418 ff3c 58e5 0c3a 0150 11bc

weight f4 [96]
0.8554499 0.86101556 0.8961543 0.85206926 0.8481244 0.85532224 0.8674677 0.8625764
0.9178808 0.86751753 0.8827281 0.85052156 0.884226 0.8802597 0.8797237 0.8886606
0.8605826 0.8933466 0.8536402 0.8507965 0.85519755 0.8506988 0.86202955 0.8565057
0.9172953 0.8714433 0.87325865 0.85572016 0.90354645 0.8523197 0.86337614 0.84550554
0.8912596 0.87840545 0.89215875 0.85138935 0.88289124 0.8499801 0.87704027 0.8717395
0.8491385 0.88537383 0.88284177 0.853605 0.8607238 0.89909637 0.873918 0.88384145
0.8632721 0.8660369 0.86399657 0.8526605 0.8630462 0.88952845 0.9007648 0.86625814
0.8949517 0.8670529 0.8961214 0.86027753 0.864624 0.8581231 0.85836935 0.874971
0.8619752 0.8506425 0.8782282 0.86346394 0.85296434 0.8890101 0.8801779 0.87626094
0.85868657 0.8495039 0.86051536 0.8579302 0.8584913 0.8713983 0.8582181 0.88020456
0.8814976 0.88777184 0.87872195 0.87613654 0.8808224 0.85990375 0.85283226 0.8572817
0.8684381 0.8897596 0.8500098 0.85843146 0.86658275 0.88602906 0.8783406 0.8582975
00000000: c4fe 5a3f 846b 5c3f 5e6a 653f 3621 5a3f
00000010: ae1e 593f 66f6 5a3f 5d12 5e3f cfd1 5c3f
00000020: 3cfa 6a3f a115 5e3f 78fa 613f c8bb 593f
00000030: a35c 623f b358 613f 9335 613f 437f 633f
00000040: 244f 5c3f 5db2 643f 2a88 5a3f cdcd 593f
00000050: 3aee 5a3f 66c7 593f f8ad 5c3f f543 5b3f
00000060: ddd3 6a3f e816 5f3f e18d 5f3f 7a10 5b3f
00000070: d24e 673f a031 5a3f 3806 5d3f 0d73 583f
00000080: 9729 643f 2edf 603f 8464 643f a7f4 593f
00000090: 2905 623f 4c98 593f b685 603f 522a 5f3f
000000a0: 2461 593f dca7 623f eb01 623f db85 5a3f
000000b0: 6558 5c3f 2e2b 663f 17b9 5f3f 6f43 623f
000000c0: 66ff 5c3f 98b4 5d3f e12e 5d3f f547 5a3f
000000d0: 99f0 5c3f 23b8 633f 8698 663f 18c3 5d3f
000000e0: 8e1b 653f 2ef7 5d3f 3668 653f 263b 5c3f
000000f0: 0058 5d3f f5ad 5b3f 18be 5b3f 19fe 5f3f
00000100: 68aa 5c3f b5c3 593f 90d3 603f f90b 5d3f
00000110: df5b 5a3f 2a96 633f 5753 613f a352 603f
00000120: e2d2 5b3f 1679 593f bc4a 5c3f 50a1 5b3f
00000130: 16c6 5b3f f613 5f3f 2eb4 5b3f 1655 613f
00000140: d4a9 613f 0445 633f ecf3 603f 7c4a 603f
00000150: 947d 613f a722 5c3f 3753 5a3f d076 5b3f
00000160: f651 5e3f 49c7 633f 3e9a 593f 2ac2 5b3f
00000170: 5ed8 5d3f cdd2 623f eeda 603f 63b9 5b3f

bias f4 [96]
-0.025022037 -0.0021932088 0.009320114 -0.0067172474 -0.010319242 -0.0035424836 -0.0029739165 -0.008267081
0.01308611 0.004725795 -0.01474489 -0.0046056896 0.0067471243 0.0013156413 0.0032237424 0.018098673
-0.005698101 -0.011959348 0.00094816805 -0.0075682453 -0.015223524 0.010375967 -0.018337639 -0.010726931
-0.008596953 0.015871366 -0.0025683914 0.013774865 -0.0041887485 -0.021526698 -0.003912604 -0.008524394
0.005431311 0.0003401653 0.02431676 -0.004109262 0.012187785 -0.0014027437 -0.010020979 0.015605673
-0.0029818488 -0.0030240535 0.019079177 -0.011415237 -0.004718666 0.0028078614 0.0021144203 -0.010648077
-0.0033190097 0.002887234 -0.008752974 -0.0056911265 0.0022958168 0.012535558 -0.006230929 -0.010858348
0.003895162 0.0017325325 -0.009100576 0.0047124107 -0.0016174304 -0.009916857 -0.0014350904 -0.0070247925
0.009743904 8.687033e-05 -0.0070172576 -0.023168575 -0.011519415 -0.021431725 2.4407547e-05 -0.01647797
0.003096719 -0.026712049 0.0046484806 0.009815169 -0.007651415 -0.00019800865 -0.011072144 -0.0089250645
-0.0011850903 0.014489008 -0.0013218995 0.02071119 0.0045961686 -0.004364308 -0.006928435 -0.00618284
-0.00070403214 -0.0041215327 -0.0058535775 -0.01832788 -0.0118772015 0.017500127 0.0032999127 0.0015526743
00000000: 04fb ccbc f0bb 0fbb 64b3 183c 5b1c dcbb
00000010: 0a12 29bc 0329 68bb 0ae6 42bb a772 07bc
00000020: 2067 563c d7da 9a3b 8d94 71bc 53eb 96bb
00000030: fb16 dd3b 9971 ac3a 6c45 533b ab43 943c
00000040: 23b7 babb 24f1 43bc 7b8e 783a 0bff f7bb
00000050: 166c 79bc f6ff 293c d138 96bc 02c0 2fbc
00000060: 3cda 0cbc ab04 823c 7552 28bb f9af 613c
00000070: c541 89bb c258 b0bc 4d35 80bb e6a9 0bbc
00000080: 24f9 b13b 3758 b239 f133 c73c fda6 86bb
00000090: 46af 473c 45dc b7ba 082f 24bc f0ae 7f3c
000000a0: 1f6b 43bb 332f 46bb ef4b 9c3c f906 3bbc
000000b0: 0a9f 9abb 1904 383b 1692 0a3b 4675 2ebc
000000c0: be83 59bb c037 3d3b a268 0fbc a17c babb
000000d0: 6a75 163b f161 4d3c d22c ccbb 36e7 31bc
000000e0: f945 7f3b 2516 e33a 951a 15bc 916a 9a3b
000000f0: f5ff d3ba 507a 22bc a519 bcba 3b30 e6bb
00000100: e5a4 1f3c 272e b638 06f1 e5bb 06cc bdbc
00000110: eebb 3cbc 9691 afbc cfbe cc37 cffc 86bc
00000120: 53f2 4a3b 3ad3 dabc 4852 983b cdcf 203c
00000130: b9b8 fabb 8ba0 4fb9 f067 35bc 6f3a 12bc
00000140: 0855 9bba 4e63 6d3c 9643 adba 83aa a93c
00000150: 759b 963b 7802 8fbb ed07 e3bb 6c99 cabb
00000160: cc8e 38ba ec0d 87bb 5ecf bfbb 5a24 96bc
00000170: 9898 42bc 6d5c 8f3c 5943 583b 1b83 cb3a

running_mean f4 [96]
0.19775876 -0.11054197 0.17378524 -0.108738974 -0.092303224 -0.09082018 -0.11719322 0.0029833212
-0.05467565 -0.236679 0.076422684 -0.1438598 -0.14036185 -0.03218272 0.19643794 -0.09344305
0.38545814 0.28161994 0.06274681 0.04045766 -0.43249348 -0.12306088 0.30156532 0.44708058
0.07310702 0.25399747 0.09510986 -0.09155375 -0.057110008 0.084849484 0.18805024 0.09847229
0.27465633 -0.084058 -0.20458998 0.04418581 -0.09315247 -0.22800727 0.055920023 0.0029671509
0.087812014 0.1288404 0.3346162 0.13668998 0.09185933 0.056327984 0.066416554 0.20935406
0.046681434 -0.18786761 0.12123127 0.36368474 -0.41675663 -0.13886996 0.2223611 -0.024682788
0.2285865 -0.16095895 0.21135268 0.076403074 -0.030280355 0.10452596 -0.04954089 0.15818022
-0.04722073 -0.101287305 0.203382 0.1295123 0.21733499 -0.21034282 0.050692387 0.073604554
-0.14699008 0.32040662 0.18430543 -0.56039685 -0.29010287 -0.027859613 -0.06474342 0.072217345
-0.024101006 0.078563586 0.1063513 -0.07911666 -0.13099532 0.08346456 -0.2308696 -0.23243414
-0.0374712 0.40445024 -0.061984777 -0.066928916 -0.04474513 -0.04562409 -0.011477368 0.14169464
00000000: 4681 4a3e d463 e2bd c2f4 313e 8ab2 debd
00000010: 7909 bdbd eeff b9bd 0003 f0bd d383 433b
00000020: 93f3 5fbd fb5b 72be 7f83 9c3d fc4f 13be
00000030: 04bb 0fbe 07d2 03bd 0727 493e 125f bfbd
00000040: c55a c53e 7d30 903e 6681 803d eeb6 253d
00000050: c96f ddbe 5807 fcbd c566 9a3e bfe7 e43e
00000060: 22b9 953d f50b 823e f5c8 c23d 8880 bbbd
00000070: 2fec 69bd 91c5 ad3d 3e90 403e d7ab c93d
00000080: c19f 8c3e 9a26 acbd 0980 51be 2efc 343d
00000090: b9c6 bebd bd7a 69be 650c 653d 8874 423b
000000a0: c9d6 b33d bdee 033e d152 ab3e 75f8 0b3e
000000b0: bf20 bc3d 2cb8 663d 6705 883d e960 563e
000000c0: 0835 3f3d 5e60 40be 1a48 f83d e334 ba3e
000000d0: 2061 d5be ed33 0ebe a1b2 633e 8f33 cabc
000000e0: 9412 6a3e 6cd2 24be d66c 583e 3779 9c3d
000000f0: 820e f8bc b511 d63d 63eb 4abd fff9 213e
00000100: 866a 41bd b86f cfbd 5f43 503e df9e 043e
00000110: 108d 5e3e 1c64 57be d2a2 4f3d fcbd 963d
00000120: 9184 16be 560c a43e 90ba 3c3e 2b76 0fbf
00000130: 5d88 94be d839 e4bc 3398 84bd b0e6 933d
00000140: 796f c5bc f2e5 a03d b6ce d93d ea07 a2bd
00000150: a323 06be 78ef aa3d 1569 6cbe 3703 6ebe
00000160: 677b 19bd 1a14 cf3e c0e3 7dbd 0712 89bd
00000170: ab46 37bd 53e0 3abd 920b 3cbc 6618 113e

running_var f4 [96]
0.03562019 0.084622 0.08332581 0.09326764 0.052121095 0.08732665 0.027514597 0.04956838
0.038614932 0.05324234 0.050757438 0.036372297 0.045874286 0.08623338 0.122252405 0.087164246
0.05934236 0.061897673 0.14968725 0.033080354 0.09742837 0.02741318 0.039054167 0.05882671
0.028068436 0.1332154 0.04196621 0.029884359 0.055419877 0.13437395 0.042965125 0.030279031
0.03496567 0.12835145 0.06949766 0.027209561 0.02809977 0.12480577 0.029707981 0.011734384
0.021555481 0.019336322 0.08716424 0.05552856 0.04389447 0.037720215 0.021813476 0.04061304
0.02922436 0.034960333 0.018060751 0.07437985 0.060205046 0.01960604 0.03917921 0.053679746
0.038574293 0.097416215 0.038455382 0.059612006 0.11359169 0.022558607 0.20207228 0.01407882
0.041964564 0.04524271 0.059244975 0.036484152 0.061888706 0.023629349 0.01903302 0.040055964
0.030980395 0.05067267 0.021132348 0.15681961 0.02856571 0.08237347 0.13358594 0.042612534
0.053341683 0.10713879 0.06697525 0.023117831 0.08819355 0.07174038 0.13932094 0.024804138
0.056931887 0.04487659 0.040180348 0.061737433 0.06010882 0.057443798 0.091039 0.08391887
00000000: 7ae6 113d 4d4e ad3d b9a6 aa3d 1b03 bf3d
00000010: ee7c 553d 51d8 b23d 4b66 e13c 3708 4b3d
00000020: b12a 1e3d a414 5a3d 08e7 4f3d 1efb 143d
00000030: ade6 3b3d 209b b03d 785f fa3d 2b83 b23d
00000040: f910 733d 6a88 7d3d 9d47 193e 447f 073d
00000050: 8688 c73d 9b91 e03c 43f7 1f3d 47f4 703d
00000060: c7ef e53c 9e69 083e c3e4 2b3d 0bd0 f43c
00000070: f4ff 623d 5399 093e 33fc 2f3d bb0b f83c
00000080: 2a38 0f3d 906e 033e ca54 8e3d 96e6 de3c
00000090: 7d31 e63c 2b9a ff3d 275e f33c 9341 403c
000000a0: 1f95 b03c 3567 9e3c 2a83 b23d ea71 633d
000000b0: b0ca 333d 8380 1a3d 2db2 b23c dc59 263d
000000c0: ed67 ef3c 9132 0f3d 24f4 933c 7654 983d
000000d0: 9199 763d d99c a03c 617a 203d 4bdf 5b3d
000000e0: 1400 1e3d 2782 c73d 6483 1d3d b82b 743d
000000f0: c3a2 e83d d4cc b83c 09ec 4e3e daaa 663c
00000100: 09e3 2b3d 6b50 393d dcaa 723d 6870 153d
00000110: 037f 7d3d 5692 c13c 23eb 9b3c b911 243d
00000120: 99ca fd3c 258e 4f3d bf1d ad3c 5295 203e
00000130: a302 ea3c 6cb3 a83d c1ca 083e 7b8a 2e3d
00000140: cf7c 5a3d 956b db3d 522a 893d 9b61 bd3c
00000150: d29e b43d 9fec 923d 26aa 0e3e 0c32 cb3c
00000160: 6931 693d 84d0 373d 2694 243d 64e0 7c3d
00000170: ab34 763d 304a 6b3d a872 ba3d a8dd ab3d

weight f4 [48, 96, 3, 3]
0.008077134 0.030014977 0.0022848686 0.022118626 -0.01688595 4.9905622e-05 0.012616765 0.001376262
-0.015254506 0.008536797 -0.002497422 0.011724041 0.014781513 0.019158967 -0.00083231396 0.0026398515
-0.012478412 0.019971058 0.02029263 -0.007448987 -0.018859873 0.0055581196 0.014886733 0.019744048
0.005824428 -0.0070939925 -0.004038328 0.017434236 -0.012582148 0.016131256 -0.016480481 0.0077042263
-0.004180656 -0.008851481 0.016400265 4.341388e-05 0.030299665 0.012716076 -0.0025338347 0.01760732
0.01274915 0.025988188 0.01716315 0.0039599463 0.013683439 0.015232254 0.00081966486 0.018305816
0.013436147 0.00029682554 0.011439422 0.0034091168 -0.0021480995 0.020288756 0.014731534 0.00570902
0.016383 0.014814887 0.019390061 0.012658919 0.00063487206 -0.0047603804 0.0076699234 -0.0006702599
-0.004866243 0.007701092 0.0028853999 -0.0022403467 -0.0014338525 0.007312437 0.01666922 -0.0016654285
-0.009807922 0.016838925 0.019025134 -0.007886644 0.009943537 0.02078942 0.017412245 0.0044572516
0.021987915 -0.012928768 -0.0001037555 -0.016892923 0.018857533 0.0015381435 -0.012138203 0.023714973
0.004578885 -0.003447844 -0.014533769 -0.009158405 -0.002229119 0.010276101 0.00644385 -0.0011298744
0.01589663 -0.023231985 -0.006731123 -0.0055878484 0.011352186 0.0041518724 -0.013017635 -0.012989814
0.011585306 0.011633277 -0.0011603809 0.0028677082 0.018811114 0.029509371 0.0049340753 0.0006101554
0.026894787 0.015387437 0.025339173 0.026395435 0.0272114 -0.012172029 -0.01613404 -0.0032518317
-0.016450772 -0.024284862 -0.02266187 0.0055919024 -0.029711165 -0.006809492 -0.015106951 0.0054878127
0.012818593 -0.003809489 0.014773402 0.0070552565 0.016558763 0.011290486 0.013450649 -0.0014686133
-0.0064291256 0.0067142434 0.007419669 0.024215134 -0.0032518625 0.029919302 -0.004113994 0.016169172
-0.017602492 0.00995944 0.006604724 0.023726223 -0.014858761 -0.010600912 -0.017506342 -0.021387419
0.007835421 0.027115883 0.014177672 0.007724949 0.01824193 -0.023407606 0.016338894 0.021506846
-0.009672992 -0.023539238 -0.010319782 0.019046802 0.003960958 0.01494505 -0.013723548 0.013579035
0.019208431 -0.0063398336 -0.005213473 -0.014675389 -0.0065177726 -0.023288058 -0.015723454 0.007277264
0.0023078115 -0.014325859 -0.019152822 -0.011653606 -0.013539056 0.0060767373 0.009291554 0.00289447
0.0038318639 0.014235464 -0.003347597 0.005254105 0.009023334 -0.009565029 0.012065014 0.004836913
-0.004241673 0.01879241 -0.0031018883 0.00028904932 0.012865184 0.011951519 0.023197424 0.002222838
0.019460611 0.016439497 0.016305763 0.0061016013 -0.020185187 0.0119940145 -0.0024607098 -0.019193364
0.00269413 0.002272674 -0.013661034 -0.007043355 -0.023874091 0.0093450155 -0.0056140386 -0.0029404778
0.012175176 -0.0076135485 -0.0058872313 -0.021088988 0.023561629 -0.015863732 0.015173099 -0.028212868
0.01386592 0.0050606034 -0.017675899 -0.0064820396 0.005635197 -0.00081645255 -0.013398093 0.0066498714
0.013160196 0.0046589863 0.005622633 0.0081939995 -0.006610288 0.018863678 0.010026219 0.0031152766
-0.0049982397 0.015781062 -0.01155043 0.017448211 0.022022104 0.011183129 0.0030113102 0.022293678
0.008732906 0.022800997 0.012293584 0.00715955 -0.010051243 -0.016264161 -0.0143300425 0.0015016347
00000000: f555 043c f8e1 f53c bcbd 153b 1f32 b53c
00000010: 6754 8abc c151 5138 8cb6 4e3c b163 b43a
00000020: 09ee 79bc ecdd 0b3c caab 23bb 3116 403c
00000030: 292e 723c 44f3 9c3c a52f 5aba 5c01 2d3b
00000040: 4172 4cbc 589a a33c bb3c a63c a216 f4bb
00000050: 0580 9abc e320 b63b 7ce7 733c 45be a13c
00000060: d8da be3b b974 e8bb f353 84bb 3ed2 8e3c
00000070: 5b25 4ebc b225 843c 1302 87bc bc73 fc3b
00000080: e2fd 88bb cd05 11bc d959 863c 4c17 3638
00000090: 0137 f83c 1757 503c b10e 26bb 3a3d 903c
000000a0: d0e1 503c 2ee5 d43c bc99 8c3c 70c2 813b
000000b0: 8130 603c b490 793c c7de 563a 14f6 953c
000000c0: 4923 5c3c 409f 9b39 6a6c 3b3c 7d6b 5f3b
000000d0: 21c7 0cbb 9b34 a63c 885c 713c bb12 bb3b
000000e0: a435 863c 24ba 723c e8d7 9e3c 5b67 4f3c
000000f0: 8b6d 263a f7fc 9bbb fb53 fb3b 61b4 2fba
00000100: 0175 9fbb 7159 fc3b fa18 3d3b c8d2 12bb
00000110: 1bf0 bbba 2b9d ef3b e38d 883c 824a daba
00000120: 68b1 20bc c9f1 893c 99da 9b3c fc36 01bc
00000130: 38ea 223c 934e aa3c 20a4 8e3c 230e 923b
00000140: 0020 b43c 2fd3 53bc 4f97 d9b8 0763 8abc
00000150: 1d7b 9a3c 889b c93a 50df 46bc e745 c23c
00000160: 790a 963b 39f5 61bb 0c1f 6ebc 220d 16bc
00000170: 6916 12bb 175d 283c ef26 d33b 4b18 94ba
00000180: a639 823c 0151 bebc c190 dcbb 451a b7bb
00000190: 85fe 393c 6e0c 883b eb47 55bc 3bd3 54bc
000001a0: 4cd0 3d3c 8099 3e3c ec17 98ba 29f0 3b3b
000001b0: c419 9a3c a3bd f13c 06ae a13b d6f2 1f3a
000001c0: 7552 dc3c 971b 7c3c 1994 cf3c 3d3b d83c
000001d0: 71ea de3c 316d 47bc 892b 84bc af1c 55bb
000001e0: c5c3 86bc 0cf1 c6bc 63a5 b9bc 473c b73b
000001f0: d464 f3bc 2922 dfbb 2583 77bc 1cd3 b33b
00000200: 1305 523c 9fa8 79bb 240c 723c c82f e73b
00000210: 3ea6 873c bbfb 383c 1c60 5c3c 7c7e c0ba
00000220: 6aab d2bb 2803 dc3b b220 f33b d15e c63c
00000230: 331d 55bb 5319 f53c afce 86bb 3675 843c
00000240: 1a33 90bc eb2c 233c 716c d83b 7f5d c23c
00000250: 2972 73bc 73af 2dbc 7669 8fbc ab34 afbc
00000260: 2360 003c 2122 de3c 7749 683c 9221 fd3b
00000270: 1a70 953c 4fc1 bfbc 25d9 853c 202f b03c
00000280: 787b 1ebc 5cd5 c0bc 4e14 29bc 0a08 9c3c
00000290: edca 813b 15dc 743c bbd8 60bc 9a7a 5e3c
000002a0: 005b 9d3c 61be cfbb c8d5 aabb 0b71 70bc
000002b0: 0a93 d5bb 99c6 bebc 79ce 80bc 1d76 ee3b
000002c0: a73e 173b 02b7 6abc 61e6 9cbc c4ee 3ebc
000002d0: ebd2 5dbc 5e1f c73b 9a3b 183c 26b1 3d3b
000002e0: 0220 7b3b dd3b 693c 5c63 5bbb a12a ac3b
000002f0: 9bd6 133c a4b6 1cbc 56ac 453c f87e 9e3b
00000300: bbfd 8abb 8af2 993c 0d49 4bbb 8b8b 9739
00000310: 7ec8 523c 4ed0 433c 8608 be3c 09ad 113b
00000320: dc6b 9f3c 20ac 863c aa93 853c f1ef c73b
00000330: 685b a5bc 8b82 443c dc43 21bb 673b 9dbc
00000340: 0090 303b 25f1 143b 88d2 5fbc f2cb e6bb
00000350: 9993 c3bc d61b 193c f8f5 b7bb 08b5 40bb
00000360: 647a 473c 137b f9bb ade9 c0bb d0c2 acbc
00000370: 5104 c13c a8f4 81bc 9798 783c ac1e e7bc
00000380: e22d 633c 6bd3 a53b 0ccd 90bc 4a67 d4bb
00000390: 75a7 b83b 3407 56ba ad83 5bbc 2ae7 d93b
000003a0: dd9d 573c 69aa 983b 103e b83b 2040 063c
000003b0: 1d9b d8bb 0088 9a3c 0345 243c ab29 4c3b
000003c0: 46c8 a3bb 4947 813c 043e 3dbc 8def 8e3c
000003d0: b367 b43c 7139 373c 6759 453b 3ba1 b63c
000003e0: 7614 0f3c 28c9 ba3c 076b 493c a99a ea3b
000003f0: f8ad 24bc 6b3c 85bc 8ec8 6abc 80d2 c43a

bias f4 [48]
9.071095e-07 2.4993918e-07 -1.5096799e-05 -1.0268397e-05 -1.1764379e-06 -6.0381063e-07 -1.6426106e-06 2.581435e-06
5.194589e-06 4.766846e-06 -5.2046116e-06 -1.6831489e-06 1.0699696e-06 -2.0287733e-07 -6.3326297e-07 -1.0938134e-06
-9.108716e-06 -5.951573e-06 9.696074e-07 5.182906e-06 4.762623e-08 -4.3841474e-06 -3.5803826e-08 -9.113227e-06
1.2928781e-07 9.3401695e-06 -3.0698448e-07 -2.7505178e-07 9.116516e-06 -2.6169525e-06 -7.054672e-06 7.6200645e-06
-7.1213856e-07 -1.2664168e-06 1.3312065e-06 7.627684e-07 6.589722e-08 -1.3882594e-05 -1.0673597e-06 3.7555185e-07
5.0468424e-07 2.1090611e-06 1.4128768e-05 -8.9641037e-07 1.3944851e-06 7.600555e-06 9.64316e-06 1.3188848e-06
00000000: 1780 7335 612f 8634 4248 7db7 6e46 2cb7
00000010: 19e6 9db5 8d15 22b5 ac77 dcb5 b73c 2d36
00000020: 2e4d ae36 e5f2 9f36 46a3 aeb6 8ee8 e1b5
00000030: e09b 8f35 7fd6 59b4 80fd 29b5 24cf 92b5
00000040: a3d1 18b7 9fb3 c7b6 7523 8235 d3e8 ad36
00000050: 988d 4c33 8a1b 93b6 b9c6 19b3 03e5 18b7
00000060: 5dd2 0a34 b9b3 1c37 a0cf a4b4 d4aa 93b4
00000070: 23f3 1837 e79e 2fb6 2cb7 ecb6 dbaf ff36
00000080: ca29 3fb5 c0f9 a9b5 e8ab b235 0cc1 4c35
00000090: 6183 8d33 4ae9 68b7 3342 8fb5 749f c934
000000a0: a379 0735 6589 0d36 990a 6d37 daa0 70b5
000000b0: 252a bb35 4508 ff36 0fc9 2137 8904 b135

weight f4 [48]
0.88296443 0.9220286 0.8878558 0.8819458 0.87682486 0.8744148 0.9181409 0.8738383
0.8984525 0.9013516 0.8781608 0.93198043 0.8810693 0.9061553 0.85585976 0.8660676
0.89672434 0.8729154 0.85044 0.8631898 0.8755231 0.8787795 0.8770521 0.8767372
0.913619 0.850305 0.8785414 0.89457583 0.9375485 0.9345124 0.9370333 0.96131957
0.9332295 0.91896075 0.90896004 0.90933126 0.89271545 0.8668313 0.8684468 0.8879578
0.8783509 0.91000986 0.89260894 0.9387399 0.9038726 0.9380163 0.8640018 0.91404873
00000000: f509 623f 110a 6c3f 854a 633f 33c7 613f
00000010: 9877 603f a6d9 5f3f 480b 6b3f deb3 5f3f
00000020: fc00 663f fabe 663f 25cf 603f 4596 6e3f
00000030: c28d 613f cbf9 673f a019 5b3f 9bb6 5d3f
00000040: ba8f 653f 6277 5f3f 70b6 593f 02fa 5c3f
00000050: 4822 603f b1f7 603f 7d86 603f d971 603f
00000060: efe2 693f 97ad 593f 17e8 603f ec02 653f
00000070: 2e03 703f 343c 6f3f 6ae1 6f3f 0a19 763f
00000080: 21e8 6e3f 0341 6b3f 9bb1 683f efc9 683f
00000090: 0089 643f a8e8 5d3f 8852 5e3f 3451 633f
000000a0: 9bdb 603f 68f6 683f 0582 643f 4251 703f
000000b0: 3264 673f d621 703f 392f 5d3f 19ff 693f

bias f4 [48]
0.0065384726 -0.0058345716 -0.005279025 0.0031200298 -0.0020397485 -0.005040075 -0.0060287667 0.0045298054
-0.0015511519 -0.009783988 -0.02450221 -0.0038515923 0.0011409315 0.014041971 -0.0072631096 -0.004299882
-0.0063175242 0.007379163 -0.012436884 0.00058798527 0.0014198322 0.00220649 -0.0048112506 -0.009535734
-0.005613346 -0.01417037 0.014465186 0.0067481 0.014049837 -0.010732871 -0.004124886 0.0012256779
-0.001142555 -0.006704078 -0.0053371275 0.0048586903 -0.014527118 0.0017466543 -0.0015780602 0.002827144
-0.0020527418 0.0061098384 -0.007786115 -0.0049533513 -0.0014009562 -0.0066600167 0.005159792 0.009530176
00000000: af40 d63b ef2f bfbb acfb acbb 6a79 4c3b
00000010: 4dad 05bb 3727 a5bb f68c c5bb c36e 943b
00000020: 0550 cbba 054d 20bc dcb8 c8bc ff6a 7cbb
00000030: 4f8b 953a 4c10 663c 61ff edbb 06e6 8cbb
00000040: 3c03 cfbb e8cc f13b 13c4 4bbc 0623 1a3a
00000050: aa19 ba3a c29a 103b b2a7 9dbb c43b 1cbc
00000060: 29f0 b7bb d72a 68bc 63ff 6c3c 2a1f dd3b
00000070: 4a31 663c ecd8 2fbc 0d2a 87bb eda6 a03a
00000080: c9c1 95ba e2ad dbbb 12e3 aebb a635 9f3b
00000090: 2603 6ebc feef e43a ead6 ceba 9b47 393b
000000a0: 4b87 06bb 0a35 c83b ab22 ffbb b94f a2bb
000000b0: 4aa0 b7ba 453c dabb 7913 a93b 7524 1c3c

running_mean f4 [48]
0.99919146 1.6339486 -1.302993 -0.32463413 1.4803225 1.4282025 -0.7354239 0.28952867
-0.6088596 0.868369 0.21096705 -0.14374624 -1.4405769 -0.5281799 -0.047280543 -0.47356153
-0.21535006 -1.5126443 -0.8485487 0.3040307 -0.6393081 -0.7833159 -0.45229563 -0.9629692
-0.40205684 -1.168379 -0.24819857 1.4534705 -1.0290378 -0.8852343 -0.32339895 -0.58787477
-0.3533223 1.6204296 1.0245397 0.056992088 -0.77155733 0.38008815 0.50668424 -1.0199388
0.83187413 -1.104171 -0.6610296 0.2660878 0.11482728 -0.6926606 -1.0697491 0.21547519
00000000: 03cb 7f3f 3a25 d13f 7ac8 a6bf 7236 a6be
00000010: 357b bd3f 57cf b63f be44 3cbf 1a3d 943e
00000020: 39de 1bbf 6e4d 5e3f bf07 583e 3732 13be
00000030: d364 b8bf cc36 07bf 3ea9 41bd a876 f2be
00000040: ba84 5cbe 549e c1bf 7d3a 59bf e9a9 9b3e
00000050: b2a9 23bf 6487 48bf 4b93 e7be 2685 76bf
00000060: 65da cdbe 718d 95bf c427 7ebe 520b ba3f
00000070: 83b7 83bf b79e 62bf 8c94 a5be f67e 16bf
00000080: a9e6 b4be 3d6a cf3f 1e24 833f 8970 693d
00000090: c884 45bf ea9a c23e 0fb6 013f 5b8d 82bf
000000a0: b4f5 543f 7a55 8dbf 3c39 29bf a93c 883e
000000b0: 912a eb3d 3552 31bf 8aed 88bf 87a5 5c3e

running_var f4 [48]
0.92551535 4.1440616 2.621616 1.3505682 1.8883243 1.1910383 2.38341 1.7178755
2.0974727 0.9358451 0.5335323 0.74713916 0.9451408 0.9848761 2.0211945 1.6030201
1.2728317 1.1808738 1.7709872 2.113384 2.0459218 1.3916764 1.0015541 1.7787737
1.356685 1.0096139 0.37445977 0.9703497 1.1694001 1.5980303 3.0015805 3.0192251
1.0069433 1.1174462 0.5769979 2.3588288 1.7722361 0.6254714 1.0043914 0.9812073
1.3993342 1.017658 0.6960076 1.5896902 0.72805977 1.6818371 1.8141339 1.7114193
00000000: 93ee 6c3f 279c 8440 8ec8 2740 6bdf ac3f
00000010: 9cb4 f13f f173 983f ca89 1840 58e3 db3f
00000020: fe3c 0640 8b93 6f3f 9395 083f 8344 3f3f
00000030: bff4 713f d720 7c3f 405b 0140 c32f cd3f
00000040: 26ec a23f df26 973f b5af e23f af41 0740
00000050: 62f0 0240 7422 b23f ed32 803f dbae e33f
00000060: dba7 ad3f 073b 813f 31b9 bf3e d768 783f
00000070: e7ae 953f 428c cc3f e519 4040 fc3a 4140
00000080: 85e3 803f 7a08 8f3f 22b6 133f 0df7 1640
00000090: a2d8 e23f e51e 203f e68f 803f 6730 7b3f
000000a0: 621d b33f 9e42 823f 8e2d 323f f87a cb3f
000000b0: 2062 3a3f 7046 d73f 8a35 e83f ca0f db3f
