weights/Adam.model.weights.pt (torch, 218905 bytes, 42 tensors)

weight f4 [16, 3, 1, 1]
0	0x3cefd8f4	0.029278256
1	0x3dfcf98f	0.12352287
2	0x3d863fa3	0.065551065
3	0x3e696d95	0.22795708
4	0x3eef747c	0.46768558
5	0xbebc0465	-0.36722103
6	0x3bc15c6f	0.0059009115
7	0xbd94ce09	-0.072658606
8	0xbec34d47	-0.38144895
9	0x3ea90b7b	0.3301657
10	0x3e8ce1ea	0.2751611
11	0x3e8a3aca	0.26997977
12	0xbdbcaba3	-0.092124246
13	0x3ec6a9e3	0.38801488
14	0xbebd6307	-0.36989614
15	0x3ee41e1f	0.4455423
16	0x3eb11030	0.34582663
17	0x3ec5a46e	0.38602012
18	0x3ebd1558	0.36930346
19	0x3e891bf1	0.2677913
20	0xbee741f3	-0.45167503
21	0xbc175570	-0.0092366785
22	0x3e2da713	0.16958265
23	0x3d52c117	0.051453676
24	0xbe371be7	-0.17881738
25	0xbdb19268	-0.08670503
26	0x3b722406	0.0036947741
27	0xbe0a6ad5	-0.13517316
28	0xbe1794c1	-0.14802839
29	0x3db57386	0.08859925
30	0x3e3a35e2	0.18184617
31	0x3cb346f4	0.021884419
32	0xbeee32ca	-0.46523124
33	0xbe144d68	-0.14482653
34	0x3ec2dad3	0.38057575
35	0xbeb22298	-0.34792018
36	0xbed60efc	-0.41808307
37	0x3ebc8947	0.36823484
38	0xbe2e387c	-0.17013735
39	0xbe0a5302	-0.13508227
40	0x3ecb2374	0.39675486
41	0xbe0a6343	-0.13514428
42	0xbeabfa44	-0.33589375
43	0x3e83d80e	0.25750774
44	0xbe85e5c5	-0.26151863
45	0xbe6bcc19	-0.23027076
46	0xbe96550c	-0.2936176
47	0x3e50689e	0.20352408

bias f4 [16]
0	0xbd712902	-0.058877
1	0x3748acd8	1.1961172e-05
2	0xbe8319ea	-0.25605708
3	0x3e0633c3	0.13105683
4	0x3dafae97	0.08578222
5	0xbd4f477f	-0.050605293
6	0xbe22bf1b	-0.15893213
7	0xb743e9ea	-1.1677368e-05
8	0xbeb0e568	-0.34550023
9	0xbe2a2290	-0.16614747
10	0xbed086b4	-0.4072777
11	0x3dcfa4ed	0.10138879
12	0xbc564fec	-0.013080578
13	0x3e26faa4	0.1630655
14	0x3cd26832	0.02568445
15	0x36afe904	5.242533e-06

weight f4 [16]
0	0x3f6af28b	0.9177634
1	0x3f679231	0.90457445
2	0x3f749a25	0.95547706
3	0x3f6c59c9	0.923245
4	0x3f65e007	0.89794964
5	0x3f6f90d6	0.9358038
6	0x3f708109	0.9394689
7	0x3f6e9836	0.93201005
8	0x3f69a24f	0.9126329
9	0x3f73a6e3	0.95176524
10	0x3f7276d2	0.94712555
11	0x3f6e96c9	0.9319883
12	0x3f696a67	0.9117798
13	0x3f7778ce	0.9666871
14	0x3f66122d	0.89871484
15	0x3f6207b0	0.8829298

bias f4 [16]
0	0x3b82ddba	0.003993717
1	0xbc244cc2	-0.010028066
2	0x3924895e	0.00015691432
3	0xbc10e81d	-0.008844403
4	0xbba890c6	-0.0051442115
5	0xbc293160	-0.010326713
6	0x3b7be5ae	0.003843646
7	0xbc1be148	-0.00951416
8	0x3c4b8788	0.01242245
9	0xba04156a	-0.00050385913
10	0x3c141805	0.00903893
11	0x3c980ae2	0.018559877
12	0x3cb833b8	0.022485599
13	0x3d610a1b	0.054941278
14	0xbb33f5b4	-0.0027459683
15	0xbc5d72cc	-0.013516139

running_mean f4 [16]
0	0x41977332	18.931248
1	0x420a7180	34.61084
2	0xc20f8950	-35.884094
3	0x4296dfdf	75.43725
4	0xbf9faa93	-1.247393
5	0x42c9ba9c	100.86447
6	0x41b10ea7	22.132154
7	0x4195e8d7	18.738691
8	0xc1bf977d	-23.948969
9	0xc1968e64	-18.819527
10	0xc193015b	-18.375662
11	0xc09fc591	-4.992867
12	0xc183cdeb	-16.475546
13	0x4160e046	14.054754
14	0xc1d35fad	-26.421717
15	0xc1fbc197	-31.469526

running_var f4 [16]
0	0x42cfe838	103.95355
1	0x43ab6750	342.80713
2	0x43c4e00b	393.75034
3	0x44d8baf9	1733.8429
4	0x4199ff26	19.249584
5	0x45434918	3124.5684
6	0x43316ffc	177.43744
7	0x42c107bb	96.5151
8	0x432f1b9e	175.10788
9	0x42d05b90	104.17883
10	0x42e9b3a5	116.85087
11	0x4204f409	33.238316
12	0x430f1b67	143.10704
13	0x4226df37	41.717983
14	0x438af9e6	277.95233
15	0x4392c939	293.57205

weight f4 [16, 3, 3, 3]
0	0xbd9b97c7	-0.075973086
1	0x3dcf04f9	0.1010837
2	0x3dc850e5	0.097810544
3	0xbe061104	-0.13092428
4	0xbc03a209	-0.008034238
5	0xbe02c6dd	-0.12771173
6	0x3e0e5b22	0.13901952
7	0x3dc3becf	0.09557878
8	0xbbf07910	-0.0073386505
9	0xbced4129	-0.028961735
10	0x3d2f3b1c	0.04278098
11	0x3d876d49	0.06612641
12	0x3d0e2270	0.03470081
13	0x3cd663e5	0.02617068
14	0x3e2d87cf	0.16946338
15	0xbde33ed0	-0.11095965
16	0x3ceaad73	0.02864716
17	0xbd7d43dd	-0.061832298
18	0xbd906104	-0.07049754
19	0x3da25b20	0.07927537
20	0x3d1cc83e	0.038276903
21	0xbd848496	-0.06470601
22	0x3ba67d82	0.0050808797
23	0x3d3447c0	0.04401374
24	0x3b8926e2	0.0041855434
25	0xbe170f96	-0.1475204
26	0xbdcd6216	-0.10028474
27	0x3e2a1a7d	0.16611667
28	0x3e2d58c1	0.16928388
29	0x3ded28a8	0.1158002
30	0xbd6c4c96	-0.057690226
31	0x3e20b818	0.15695226
32	0x3e461ea7	0.1934763
33	0xbdb83874	-0.089951426
34	0xbdd91ad3	-0.106008194
35	0xbe0f3933	-0.13986664
36	0xbcac020d	-0.020997072
37	0x3e255e0b	0.16149156
38	0xbdcc099f	-0.099627726
39	0xbc3a58f3	-0.011373746
40	0xbd887ff9	-0.06665034
41	0xbdbb779a	-0.091536716
42	0xbd2ec610	-0.042669356
43	0x3e37c570	0.1794641
44	0xbd7d2871	-0.061806146
45	0xbdcaed3c	-0.0990853
46	0x3e12fd18	0.1435436
47	0xbda145e0	-0.07874656
48	0x3dbc0397	0.09180372
49	0xbdb6a72a	-0.08918603
50	0x3e064f5b	0.13116209
51	0xbe119411	-0.14216639
52	0xbe09a27c	-0.13440889
53	0xbc6e4bfd	-0.014544484
54	0x3d971612	0.073772565
55	0x3dd73696	0.10508458
56	0xbd62311a	-0.05522261
57	0x3deedcb5	0.1166319
58	0xbccb6dd0	-0.024832636
59	0x3d4ff2fa	0.05076883
60	0x3e2337d0	0.1593926
61	0x3dfab7d4	0.12242094
62	0xbdcc88b9	-0.09987015
63	0xbd70cc5b	-0.05878864
64	0xbd87f17e	-0.06637858
65	0xbe103561	-0.14082862
66	0xbc021d82	-0.0079416055
67	0xbe021858	-0.12704599
68	0xbcb6bd42	-0.022307042
69	0x3decd74c	0.11564502
70	0x3dc44b94	0.09584728
71	0xbe4e5dd8	-0.20152986
72	0x3dae8462	0.08521344
73	0x3dd7d6c9	0.10539014
74	0xbe1ff146	-0.15619382
75	0xbe131522	-0.1436353
76	0x3d6c4592	0.057683535
77	0xbd8707a3	-0.065932535
78	0x3e283845	0.16427715
79	0xbdfbafc7	-0.12289386
80	0x3dac1880	0.084031105
81	0x3d67b3f2	0.056568094
82	0xbdd27f4e	-0.10278188
83	0x3de38d73	0.11110964
84	0x3e136a6c	0.14396065
85	0x3df6c2f7	0.12048905
86	0xbe36bb47	-0.17844878
87	0xbe0e7e96	-0.13915476
88	0x3deb41fa	0.114871934
89	0x3e2b1df8	0.16710651
90	0xbc188fa4	-0.00931159
91	0xbd23964a	-0.03993825
92	0xbdc7e2cd	-0.09760056
93	0xbdcaaf17	-0.09896677
94	0x3e0eb0f2	0.13934687
95	0x3d63b2b2	0.05559034
96	0xbdc605e2	-0.09669091
97	0xbd7010ab	-0.058609646
98	0xbe4fed5d	-0.2030539
99	0xbdca9d77	-0.09893315
100	0x3be6ff97	0.0070495117
101	0x3c9ca51b	0.019121697
102	0xbd3f4175	-0.046693284
103	0xbc03ec24	-0.008051906
104	0x3df4c1b9	0.11951012
105	0xbe2b2219	-0.16712226
106	0xbd63a827	-0.055580284
107	0x3d545afb	0.05184458
108	0xbe023e99	-0.12719192
109	0xbe2d00ef	-0.16894887
110	0x3e103a05	0.14084633
111	0xbe2b2cbd	-0.16716285
112	0xbd97a55f	-0.07404589
113	0xbdebe64e	-0.115185365
114	0xbe2cd9a1	-0.16879894
115	0x3df4f235	0.1196026
116	0x3d257303	0.040392887
117	0x3c60760c	0.01370002
118	0xbd04fce9	-0.032467756
119	0xbc072d97	-0.008250616
120	0x3e19cf1e	0.15020415
121	0x3d036d9a	0.032086946
122	0xbd0b0185	-0.033936996
123	0xbdb5ca39	-0.088764615
124	0x3e25d2e9	0.16193737
125	0x3e26a8a7	0.16275273
126	0xbc563af4	-0.013075579
127	0xbd92992f	-0.07158124
128	0xbda8e343	-0.08246472
129	0x3e1d4f45	0.1536227
130	0xbe3d3361	-0.18476631
131	0x3e32b5f6	0.17452225
132	0x3d7ed4d3	0.062214684
133	0x3dad914e	0.0847498
134	0xbe2e6771	-0.17031647
135	0x3e2f031e	0.17091033
136	0x3e2c5389	0.16828741
137	0xbe0ea77a	-0.13931075
138	0xbd1d7ee8	-0.038451105
139	0xbd87f530	-0.06638563
140	0xbe29df85	-0.16589172
141	0x3dff2858	0.12458867
142	0xbe17c731	-0.14822079
143	0xbc576da7	-0.013148702
144	0x3dd16f6f	0.102263324
145	0x3e2cf7ca	0.16891399
146	0x3e11108c	0.14166468
147	0x3d2817c8	0.041038305
148	0x3c9ac4e5	0.018892715
149	0x3d8a01dc	0.06738636
150	0x3df38633	0.11890831
151	0xbde35aa2	-0.11101271
152	0xbce0049d	-0.02734595
153	0xbe159304	-0.14606863
154	0x3df6b7f0	0.12046802
155	0xbe042a90	-0.12906861
156	0x3cd997df	0.026561676
157	0xbe2d1186	-0.16901216
158	0x3cd5b2b7	0.026086194
159	0x3e238cdd	0.15971704
160	0x3c13a80f	0.009012236
161	0xbcbcd3f4	-0.023050286
162	0xbcb1a144	-0.021683343
163	0x3d0fde05	0.035123844
164	0x3dff6c4c	0.12471828
165	0x3c52a2e5	0.01285622
166	0x3d941af1	0.07231701
167	0xbd44ada1	-0.048017148
168	0xbd9f886b	-0.077896915
169	0x3ddc8cc6	0.10769038
170	0x3e27d854	0.16391116
171	0x3d250ca9	0.040295277
172	0xbd9130bf	-0.07089376
173	0x3dc8cdd2	0.09804882
174	0x3ccad442	0.024759416
175	0xbdf28105	-0.11841015
176	0xbd640016	-0.055664144
177	0x3e273ff6	0.16332993
178	0xbcf232d8	-0.02956526
179	0x3d433a71	0.047663156
180	0xbbe535c9	-0.006994937
181	0xbe2a82fb	-0.16651528
182	0xbd9698cc	-0.073533624
183	0x3e1ea454	0.15492374
184	0xbe133c3f	-0.14378451
185	0xbe1c0f8b	-0.15240304
186	0xbe01aa63	-0.12662654
187	0xbdb25345	-0.08707289
188	0xbd57218b	-0.052522223
189	0xbe0869bf	-0.13321589
190	0xbd3466cd	-0.04404335
191	0xbd82e42e	-0.06391178
192	0x3ca9b771	0.020717354
193	0xbbb1b052	-0.0054226303
194	0xbd4f2f61	-0.050582293
195	0xbce52495	-0.027971545
196	0xbd8c29a1	-0.068438776
197	0xbd8cdcef	-0.06878077
198	0x3e238fa1	0.15972759
199	0x3d8dd330	0.069250464
200	0x3db88ad9	0.09010858
201	0xbe1b608f	-0.15173553
202	0xbd6ff6a2	-0.058584817
203	0xbe0f0e17	-0.13970219
204	0x3cf2aa28	0.029622152
205	0x3d20dc11	0.03927237
206	0x3d8e5271	0.06949318
207	0x3df38798	0.11891097
208	0x3c99177f	0.018687962
209	0x3d903397	0.0704109
210	0x3e212123	0.15735297
211	0xbd8479ed	-0.06468568
212	0xbe1fcb92	-0.15605
213	0x3c096499	0.008385801
214	0xbcc3d2be	-0.0239042
215	0xbe17483d	-0.1477365
216	0x3dd40293	0.103520535
217	0x3dff4a25	0.12465314
218	0x3cda15d3	0.026621735
219	0xbcea3f2e	-0.02859458
220	0xbd90ce6d	-0.070706226
221	0xbd8dd512	-0.069254056
222	0x3dc9872a	0.098402336
223	0xbd2a7894	-0.0416189
224	0xbdd75249	-0.105137415
225	0x3d2bcce2	0.04194344
226	0xbe067361	-0.13129951
227	0x3cd11b12	0.025525603
228	0x3c8aa6ec	0.016925298
229	0xbcbcda60	-0.023053348
230	0xbd8922a5	-0.06696061
231	0xbdaa1b87	-0.08306032
232	0x3c5bec23	0.013422999
233	0x3bc0a334	0.0058788303
234	0xbd911ea7	-0.070859246
235	0xbd3c05be	-0.045903914
236	0x3c54663b	0.012963827
237	0x3dae93cd	0.085242845
238	0xbcff3107	-0.031151308
239	0x3d0a6e19	0.033796404
240	0xbcf2c464	-0.029634662
241	0xbd0c5645	-0.03426196
242	0xbc1c8d78	-0.009555213
243	0xbd4499d9	-0.047998283
244	0xbdfae09c	-0.12249872
245	0x3cc39117	0.023872895
246	0xbd4699f1	-0.048486654
247	0x3c5ed37d	0.013600227
248	0xbd26a458	-0.040684074
249	0x3d16cc26	0.036815785
250	0x3e1ea00f	0.15490745
251	0x3dc85353	0.09781518
252	0xbde6be0d	-0.11266718
253	0xbd2b886c	-0.04187815
254	0xbd691fae	-0.056914978
255	0x3af59624	0.0018736762

bias f4 [16]
0	0x3cbad4a2	0.02280647
1	0x37990f90	1.8246268e-05
2	0xb808f307	-3.2651264e-05
3	0xbad678c4	-0.0016362895
4	0x361749cd	2.254371e-06
5	0xbd27c848	-0.040962487
6	0x37225550	9.675816e-06
7	0xb61cf9c7	-2.33912e-06
8	0xb66e89d4	-3.554499e-06
9	0xb5d46a24	-1.5826122e-06
10	0x3bdebc20	0.0067973286
11	0x3780f987	1.5374984e-05
12	0xb6aa95a5	-5.0838157e-06
13	0xbc8af7f5	-0.016963938
14	0x3d798aeb	0.060923498
15	0xb667f263	-3.456277e-06

weight f4 [16]
0	0x3f60676e	0.8765782
1	0x3f5e70fa	0.8689114
2	0x3f6f2d92	0.9342891
3	0x3f70479a	0.93859255
4	0x3f5e6f97	0.8688902
5	0x3f6703b3	0.9024002
6	0x3f756f48	0.95872927
7	0x3f642b81	0.8912888
8	0x3f60fd97	0.8788695
9	0x3f64bc97	0.89350265
10	0x3f625a81	0.8841935
11	0x3f646242	0.8921243
12	0x3f682c0f	0.9069223
13	0x3f6cf4e2	0.9256116
14	0x3f6be438	0.9214511
15	0x3f701733	0.937854

bias f4 [16]
0	0xbabaa9ee	-0.0014241317
1	0xbc58e030	-0.013237044
2	0x3bdb92ff	0.006700873
3	0x3a9866a4	0.0011627269
4	0x3cc32a23	0.023823803
5	0x3ca9c8c0	0.020725608
6	0x3c65823d	0.014008102
7	0x3c7c65a1	0.01540509
8	0xbbe88563	-0.007095979
9	0xbbaef234	-0.0053389315
10	0xbc5068c9	-0.012720295
11	0x3b2e8799	0.0026631115
12	0xbbcccfed	-0.0062503726
13	0xbb0a6b9a	-0.0021121264
14	0xbbf9aaa7	-0.0076192203
15	0x3904c4ec	0.0001266186

running_mean f4 [16]
0	0x40b6cccc	5.7124996
1	0x417cad21	15.792268
2	0x40444825	3.0669034
3	0xc1bfc0d3	-23.969152
4	0xc1842c4c	-16.52163
5	0x41dcaad8	27.58342
6	0xc1242e99	-10.261376
7	0xc1f216e5	-30.261179
8	0xc1b2d3ca	-22.353413
9	0xc1fa22dc	-31.267021
10	0xc1dc823d	-27.563593
11	0xc1b6c62a	-22.84676
12	0x421b2470	38.785583
13	0xc20de1dd	-35.47057
14	0x4227986c	41.89885
15	0xc1bab368	-23.3376

running_var f4 [16]
0	0x429dc9b0	78.89392
1	0x43882497	272.28586
2	0x436fa0db	239.62834
3	0x43345b13	180.35576
4	0x4359e66c	217.90009
5	0x439e495c	316.57312
6	0x42d20bf2	105.02333
7	0x43c48ec5	393.1154
8	0x431ced72	156.92752
9	0x439f236c	318.27673
10	0x433cc7b7	188.78014
11	0x4334f54f	180.95824
12	0x43ee1ecc	476.2406
13	0x43b0cf9e	353.622
14	0x4401d04e	519.25476
15	0x4381cb09	259.5862

weight f4 [16, 3, 5, 5]
0	0x3c063f0c	0.0081937425
1	0x3d977e5d	0.07397149
2	0x3d91738a	0.071021155
3	0x3d268c11	0.04066092
4	0xbdcca083	-0.09991553
5	0xbcc45105	-0.023964414
6	0x3d6b263e	0.057409517
7	0xbd18aa61	-0.03727186
8	0xbd935502	-0.07193948
9	0xbd19f702	-0.03758908
10	0x3d40e6cc	0.047095105
11	0x3bd840cc	0.0065995213
12	0x3cf2c435	0.029634574
13	0xbdacc809	-0.08436591
14	0x3db374a3	0.08762481
15	0x3ddb04c4	0.10694268
16	0xbdb3c2ea	-0.08777411
17	0xbb0438aa	-0.0020175376
18	0xbb990141	-0.004669339
19	0x3ddf00a3	0.10888793
20	0x3c83015f	0.015991865
21	0xbd36128d	-0.044451285
22	0xbda2e534	-0.07953873
23	0xbd996205	-0.07489399
24	0x3dd001f0	0.101566195
25	0x3c02cabc	0.007982906
26	0x3dae7d27	0.08519965
27	0x3a21d36c	0.0006173167
28	0xbd40b8d2	-0.04705126
29	0xbd8119da	-0.06303759
30	0x3dbe5e06	0.09295277
31	0xbd354ba0	-0.044261575
32	0xbda39b0c	-0.07988557
33	0x3d1b0618	0.03784761
34	0xbd66d4f7	-0.056355443
35	0x3d56a169	0.052400026
36	0x3d7eb972	0.062188573
37	0x3d8feb11	0.07027257
38	0x3d47e8d1	0.048806015
39	0x3d27d22d	0.040971924
40	0xbcd9daee	-0.026593652
41	0x3d2cea8e	0.042215876
42	0xbc88e0e3	-0.016708797
43	0x3d0bcdef	0.03413194
44	0x3b5f7185	0.0034094763
45	0xbd1466e0	-0.03623092
46	0x3d8efaca	0.06981428
47	0xbd869b17	-0.0657255
48	0x3d311f19	0.043242548
49	0xbd05370e	-0.032523207
50	0x3d6d861f	0.057989236
51	0x3d648737	0.055793013
52	0x3d66b186	0.056321643
53	0xbc353937	-0.011061004
54	0xbd9b6754	-0.07588068
55	0x3d6b80e0	0.05749595
56	0xbd28b5ab	-0.041188877
57	0xbd27a5ac	-0.04092948
58	0x3c8896a9	0.016673403
59	0xbdb69ac9	-0.08916242
60	0x3ca808cb	0.020512005
61	0xbdd371e0	-0.10324454
62	0xbd55c844	-0.05219294
63	0xbdccebe1	-0.10005928
64	0xbce8670a	-0.028369445
65	0xbdafd1df	-0.085849516
66	0x3be6a8d9	0.007039171
67	0xbbdea4d3	-0.006794551
68	0x3db2a046	0.08721976
69	0xbdaf7356	-0.085669205
70	0x3da2d1c0	0.07950163
71	0x3d4285ae	0.047490768
72	0x3d75080d	0.05982213
73	0xbb105c56	-0.0022027693
74	0xbcd7aed6	-0.026328485
75	0x3cdf5974	0.027264334
76	0xbc62f99c	-0.013853457
77	0xbd61af6e	-0.055098943
78	0x3d361b6b	0.04445974
79	0x3d8a3970	0.067492366
80	0xbd8ac4bb	-0.067758046
81	0x3d3b24b6	0.045689307
82	0xbd0f3f91	-0.03497273
83	0xbd6faaef	-0.058512624
84	0x3d7a91ad	0.061174084
85	0xbcb21da1	-0.021742644
86	0xbd0a685b	-0.033790927
87	0xbd7574c6	-0.059925817
88	0xbd8e0344	-0.069342166
89	0xbcfff856	-0.031246345
90	0xbc95754e	-0.018244412
91	0x3b936b53	0.004498878
92	0xbd0c7ab9	-0.034296725
93	0xbd6ab051	-0.057297055
94	0x3cc57843	0.024105197
95	0xbd8b3b13	-0.06798377
96	0x3d01f539	0.031728003
97	0x3d401ca1	0.046902303
98	0xbd232a10	-0.039835036
99	0xbd8ec947	-0.06971984
100	0xbd46dae6	-0.0485486
101	0x3ce27e09	0.027647989
102	0xbc8e35a7	-0.017359568
103	0x3caa2e04	0.020773895
104	0x3af1daea	0.0018452082
105	0xbd465f38	-0.04843065
106	0x3d151a75	0.036402185
107	0x3d15843c	0.03650306
108	0xbb1277df	-0.002234928
109	0xbd47c92e	-0.048775844
110	0x3cd2a5e3	0.025713867
111	0x3cd9e437	0.02659808
112	0xbb909047	-0.0044117304
113	0xbd144c90	-0.03620583
114	0x3cb4b962	0.022061054
115	0x3b1de740	0.0024094135
116	0x3c84a42e	0.016191568
117	0x3cd63516	0.02614836
118	0x3c143465	0.009045695
119	0xbb8af21b	-0.004240287
120	0xbd48e56e	-0.049046926
121	0xbd41c9ff	-0.04731178
122	0x3c8d3f96	0.017242234
123	0xbd192ade	-0.037394397
124	0x3ce7c858	0.028293774
125	0x3c079937	0.008276275
126	0x3cef9803	0.02924729
127	0xbcbe9be8	-0.023267701
128	0x3cb7ed28	0.022451952
129	0x3ccd42f7	0.025056345
130	0xbd04b3f8	-0.032398194
131	0xbd4ddff6	-0.050262414
132	0x3a74861b	0.00093278446
133	0xbcab40c8	-0.020904914
134	0xbc45908b	-0.0120583875
135	0xbd7082c9	-0.058718476
136	0x3d4b9964	0.04970683
137	0xbcdcdca1	-0.026960673
138	0x3b77594b	0.0037742432
139	0x3d43f39d	0.04783975
140	0xbcec3abf	-0.028836606
141	0x3c7bc029	0.015365639
142	0xbb264923	-0.0025373183
143	0x3d084be7	0.03327551
144	0xbd29252f	-0.041295227
145	0xbd2a2142	-0.041535623
146	0x3cdebb96	0.027189057
147	0xbc7dfbaf	-0.015501901
148	0x3cd5cb6d	0.026097978
149	0x3cdbbf08	0.02682449
150	0xbd877989	-0.06614978
151	0x3d297877	0.04137465
152	0xbce64436	-0.028108697
153	0xbd3e6928	-0.046487004
154	0x3ce6f47b	0.02819275
155	0xbd961b3b	-0.073294125
156	0x3ca6b1df	0.020348487
157	0xbc5ebb58	-0.013594471
158	0x3d3d0013	0.04614265
159	0x3a5cf6f3	0.0008429132
160	0x3c9b2335	0.018937686
161	0x3b9d3bb4	0.004798377
162	0xbd48540e	-0.048908286
163	0xbbd01f2e	-0.006351373
164	0xbd9762ed	-0.073919155
165	0x3c2002c1	0.009766282
166	0xbc1a913e	-0.0094340425
167	0xbcd36646	-0.025805604
168	0xbb6c2957	-0.0036035383
169	0x3ce819d7	0.028332634
170	0xbd9696c9	-0.07352979
171	0xbd8784fd	-0.066171624
172	0x3d2c978d	0.042136718
173	0x3d274f8e	0.040847354
174	0x3d560f7c	0.05226086
175	0xbd09d93c	-0.033654436
176	0x3d04c1a8	0.032411247
177	0x3c0085f7	0.00784444
178	0xbd1753b1	-0.03694505
179	0x3d8a19cd	0.06743202
180	0x3d299b82	0.04140807
181	0x3c7c3a06	0.015394693
182	0x3d0887ee	0.033332758
183	0x3d00b483	0.03142215
184	0xbd44deaf	-0.04806393
185	0x3d751b4a	0.059840478
186	0x3b8562ba	0.004070607
187	0xbd095163	-0.033524882
188	0x3d0808dd	0.033211578
189	0xbd7dfc5a	-0.06200824
190	0x3c916ec1	0.017753007
191	0x3d25559c	0.040364847
192	0x3d2e52d7	0.04255947
193	0x3ca68985	0.020329246
194	0xbca92dc7	-0.020651711
195	0x3d5015ce	0.050802045
196	0x3cd0dc1a	0.025495578
197	0x3ce948f8	0.028477177
198	0x3ce850f8	0.028358921
199	0xbce98122	-0.028503958
200	0xbd8e22eb	-0.06940254
201	0xbd062118	-0.032746404
202	0x3bcab195	0.00618572
203	0x3a9ad9e2	0.0011814202
204	0x3d8a8db6	0.067653105
205	0x3d59be2d	0.05315988
206	0x3d7403fd	0.059574116
207	0xbbee2b82	-0.00726837
208	0x3c7cddbe	0.015433727
209	0xbb3855c6	-0.0028127297
210	0x3c8d83e1	0.017274799
211	0x3b6f1d1c	0.0036485856
212	0xbc764b57	-0.015032611
213	0xbc5e32b8	-0.013561897
214	0x3cf7ad54	0.030234016
215	0x3aaa733d	0.0013004314
216	0xbc5cc4ca	-0.013474653
217	0x3d108ba5	0.035289425
218	0x3d74b47d	0.05974244
219	0x3cd4b0dd	0.025963241
220	0x3d84c78d	0.06483374
221	0xbba7cbd7	-0.005120735
222	0x3b6b0f73	0.0035867363
223	0x3d504379	0.050845597
224	0x3c829b22	0.015943114
225	0x3db761e0	0.08954215
226	0x3db5e8ce	0.088822946
227	0xbd4fc69a	-0.05072651
228	0xbd84c4d0	-0.064828515
229	0x3a165436	0.00057345943
230	0x3d393fe2	0.04522694
231	0x3d88fddf	0.06689047
232	0xbcc9649a	-0.024584103
233	0xbd87038e	-0.06592475
234	0xbda158f9	-0.07878298
235	0x3c7a51e3	0.015278312
236	0x3dc1ec5e	0.094689116
237	0xbdb3e6d8	-0.08784264
238	0xbc16b86f	-0.009199246
239	0xbd80ba70	-0.0628556
240	0xbd1e1954	-0.038598374
241	0x3d1e3079	0.038620446
242	0x3d20a950	0.03922397
243	0x3d5ae25b	0.053438526
244	0x3d5f0a98	0.054453462
245	0x3cb83855	0.022487799
246	0xbd7e1c1b	-0.062038522
247	0xbb3fbeb0	-0.0029257946
248	0xbaaacf98	-0.0013031838
249	0xbc87a96d	-0.01656028
250	0xbd3b2959	-0.04569373
251	0x3c117ea8	0.008880295
252	0xbd81962f	-0.06327473
253	0xbda8d89a	-0.082444385
254	0x3dbd46b3	0.092420004
255	0xbcf04ba1	-0.029332938

bias f4 [16]
0	0xb4b06c40	-3.2861317e-07
1	0xb2735de0	-1.4165806e-08
2	0x37dea3d2	2.6540747e-05
3	0x34db0a04	4.0799216e-07
4	0xb65b7ece	-3.2707353e-06
5	0xb726d538	-9.944015e-06
6	0xb6a08cc6	-4.7847598e-06
7	0x3645e4eb	2.9488535e-06
8	0x36daf4db	6.525411e-06
9	0xb360ab20	-5.23097e-08
10	0x377f066a	1.5200678e-05
11	0x3b10509e	0.0022020708
12	0x374b5e8f	1.2121759e-05
13	0x371d77fd	9.385866e-06
14	0x35921ff9	1.0887153e-06
15	0x35727b1e	9.0331184e-07

weight f4 [16]
0	0x3f60e2d3	0.87846106
1	0x3f64f912	0.8944255
2	0x3f5e5d58	0.8686118
3	0x3f7021da	0.93801653
4	0x3f6140c4	0.8798945
5	0x3f66f199	0.902124
6	0x3f621407	0.8831181
7	0x3f660283	0.8984758
8	0x3f61d2b7	0.8821215
9	0x3f685d34	0.90767217
10	0x3f638a64	0.8888304
11	0x3f62973e	0.8851203
12	0x3f62bc40	0.88568497
13	0x3f64d6fd	0.89390546
14	0x3f5d9333	0.86552733
15	0x3f6f47e2	0.9346906

bias f4 [16]
0	0xbcae82e0	-0.02130264
1	0x3bacc864	0.005272912
2	0xbca953fc	-0.02066993
3	0xbbf8137e	-0.007570683
4	0xbb70876b	-0.003670181
5	0xbc163935	-0.009168913
6	0x3b1c59a3	0.0023857139
7	0x3b867c87	0.0041042003
8	0x3b15b3d5	0.0022842784
9	0x3bfd2f63	0.007726596
10	0x3c032870	0.0080052465
11	0xbb521ae0	-0.0032059476
12	0xbb01d446	-0.0019810363
13	0x3ac8397d	0.0015275922
14	0x3b844b0d	0.004037267
15	0xbbc70850	-0.006073989

running_mean f4 [16]
0	0x412cea28	10.807167
1	0xc222f096	-40.734947
2	0x422300ba	40.75071
3	0xc1860805	-16.753916
4	0xc1459731	-12.349412
5	0x4180ec48	16.115372
6	0xc18dd9a8	-17.731277
7	0x424e43e9	51.56632
8	0x42319b73	44.401806
9	0xc2557f3c	-53.374252
10	0x41dcc7bc	27.597527
11	0x421d0f63	39.265026
12	0xc2722b44	-60.54225
13	0x4207ec6b	33.980877
14	0xc2561a08	-53.52542
15	0x428dcc90	70.899536

running_var f4 [16]
0	0x43914852	290.565
1	0x43fe74ca	508.9124
2	0x43df6eb8	446.865
3	0x43718695	241.52571
4	0x434e29d8	206.16345
5	0x4377d8f1	247.84743
6	0x43b10ee6	354.1164
7	0x445857f4	865.37427
8	0x441ec4e0	635.0762
9	0x4444e801	787.62506
10	0x439793a0	303.15332
11	0x4410a04f	578.5048
12	0x448ac0dd	1110.027
13	0x44351260	724.2871
14	0x4443f1cb	783.778
15	0x44bf6ef8	1531.4678

weight f4 [96, 48, 1, 1]
0	0xbd5e0eff	-0.05421352
1	0xbd83f11c	-0.06442472
2	0x3d8b5bae	0.06804596
3	0x3ddeea1f	0.10884499
4	0xbd50a106	-0.050934814
5	0x3d80b56c	0.062846035
6	0x3d9fedf1	0.078090556
7	0xbd822ece	-0.063565835
8	0x3d4338b0	0.047661483
9	0x3cc1fe8b	0.023680946
10	0xbcae7754	-0.021297134
11	0xbc4d29b8	-0.012522154
12	0x3dce468d	0.1007205
13	0xbd4c4d82	-0.049878605
14	0xba6dd86a	-0.0009073081
15	0xbc5aa1e8	-0.0133442655
16	0x3d74b62f	0.059744056
17	0x3d20a169	0.039216433
18	0x3dad49aa	0.08461316
19	0x3dd01b43	0.1016145
20	0xbcf25d8b	-0.02958562
21	0x3caf6ac6	0.021413218
22	0xbd56018a	-0.05224756
23	0x3dc43d7e	0.09582041
24	0xbd0003c9	-0.03125361
25	0xbd7e7700	-0.062125206
26	0xbda38e79	-0.07986159
27	0xbcedeed7	-0.029044552
28	0x3d83183e	0.06401108
29	0xbd997dea	-0.07494719
30	0x3c3ccaa1	0.01152292
31	0x3d960409	0.073249884
32	0x3c16a0d7	0.009193621
33	0xbccafe2a	-0.024779398
34	0x3d3cd095	0.046097357
35	0xbd7a14e1	-0.061055068
36	0x3aa5a491	0.0012637546
37	0x3e038164	0.12842327
38	0xbd48d02b	-0.04902665
39	0xbd0368d8	-0.03208241
40	0xbc737150	-0.014858559
41	0xbd00bd54	-0.031430557
42	0x3cb5297f	0.022114513
43	0x3bb20351	0.0054325243
44	0x3da1903a	0.07888837
45	0x3cdaaf59	0.02669494
46	0x3d63c14f	0.055604275
47	0xbda540f5	-0.0806903
48	0x3ab2c703	0.0013639632
49	0xbe072d2d	-0.13200827
50	0x3c41a654	0.011819441
51	0x3cc78f72	0.024360392
52	0xbc719e1a	-0.014747167
53	0xbc905806	-0.017620098
54	0x3dcd6fa7	0.100310616
55	0x3dbe0e85	0.09280113
56	0xbbbb23dc	-0.005711062
57	0x3d9551e8	0.07291013
58	0x3d698b54	0.05701764
59	0x3d88aadd	0.066732146
60	0xbdaacb19	-0.08339519
61	0xbdb48fb8	-0.08816475
62	0x3d5ed695	0.05440386
63	0xbda92efd	-0.082609154
64	0xbcc60852	-0.02417389
65	0xbda8fe36	-0.08251612
66	0x3c962884	0.018329866
67	0xbd8dc5bf	-0.06922483
68	0x3d58119b	0.052751165
69	0xbdf39ac1	-0.11894751
70	0x3d946ec8	0.07247692
71	0xbcf852c7	-0.030312909
72	0x3da24d9c	0.07924959
73	0xbdc80ebe	-0.09768437
74	0x3df55e74	0.11980906
75	0x3d7f3cde	0.062313907
76	0xbdfab827	-0.122421555
77	0xbdac6ca5	-0.0841916
78	0xbd909e9f	-0.070615046
79	0xbd5766ff	-0.05258846
80	0x3cd0b218	0.025475547
81	0x3dedbb20	0.11607957
82	0xbd85f36b	-0.06540569
83	0x3d86a526	0.06574468
84	0x3d32e29f	0.043673154
85	0x3dc5acf7	0.09652131
86	0xbd958091	-0.07299913
87	0x3d03aa9d	0.03214513
88	0xbda05616	-0.078289196
89	0xbd1ee560	-0.038792968
90	0xbdead475	-0.11466304
91	0x3dd36c4b	0.103233896
92	0xbcf7018d	-0.030152107
93	0xbde3eca0	-0.11129117
94	0xbdcbf3ce	-0.099586114
95	0x3dceac9b	0.10091516
96	0x3da046bb	0.07825991
97	0xbdbb3d89	-0.09142596
98	0xbc9a8a10	-0.018864661
99	0x3d31356f	0.04326385
100	0xbca4fcdf	-0.02014011
101	0x3df79d40	0.1209054
102	0xbdb565ec	-0.08857331
103	0x3dfd6adf	0.123739
104	0x3d42b588	0.047536403
105	0x3c2ad42f	0.010426565
106	0xbddca610	-0.107738614
107	0x3b3684e7	0.0027850212
108	0x3c6d849a	0.014496947
109	0x3d84b99a	0.06480713
110	0x3dd6b49e	0.10483669
111	0x3dbfbb91	0.09361947
112	0x3da49fdd	0.08038304
113	0x3dd020ed	0.1016253
114	0xbd543f45	-0.05181815
115	0xbcd300b6	-0.025757175
116	0xbd9165dc	-0.07099506
117	0x3cd34628	0.025790289
118	0xbdde15b0	-0.1084398
119	0x3db590c4	0.088655025
120	0x3dd2b3b5	0.10288183
121	0xbdf4d6b8	-0.11955017
122	0xbcd2c09a	-0.025726605
123	0x3c8cbed5	0.01718084
124	0x3c984fab	0.018592676
125	0xbd82894a	-0.06373842
126	0x3deac259	0.1146285
127	0x3c7c6eab	0.015407245
128	0x3d8e90aa	0.06961186
129	0x3d6cb18b	0.057786506
130	0x3e0798bc	0.13241857
131	0x3ddcc146	0.107790515
132	0x3c614cfe	0.0137512665
133	0xbd51e6ec	-0.051245615
134	0xbd167da7	-0.036740925
135	0xbd060c50	-0.032726586
136	0x3cbc063d	0.022952193
137	0xbd8703f1	-0.06592549
138	0x3d34966f	0.044088777
139	0x3c98b091	0.01863888
140	0xbd7fdbd5	-0.062465508
141	0xbc92fb59	-0.017942118
142	0x3d42f2b4	0.04759474
143	0xbdf24662	-0.11829831
144	0xbc0156e1	-0.007894249
145	0x3d48c6e3	0.0490178
146	0x3c9d138c	0.01917436
147	0x3d655d45	0.055997152
148	0xbcd9f2bb	-0.026605
149	0xb9a6bb06	-0.0003180133
150	0xbd0f1bd5	-0.034938652
151	0xbdcddfb7	-0.10052436
152	0xbdbfaa42	-0.09358646
153	0xbd9452c3	-0.07242348
154	0xbdcb700c	-0.099334806
155	0xbd9e9e46	-0.07745032
156	0x3d839dc3	0.06426575
157	0xbd5495ad	-0.051900554
158	0xbcac3d40	-0.0210253
159	0x3d95f5f0	0.073222995
160	0x3d1892e8	0.037249476
161	0xbaebbbb8	-0.0017985022
162	0xbc12a527	-0.008950508
163	0xbcc31e5e	-0.023818191
164	0x3d8fd922	0.07023837
165	0xbd51e6c3	-0.051245462
166	0xbd80acab	-0.06282934
167	0xbd4e751e	-0.05040466
168	0xbddcced9	-0.107816406
169	0xbd4446ed	-0.047919203
170	0x3df4274e	0.11921559
171	0x3d99007a	0.07470794
172	0xbda48d7c	-0.080347985
173	0x3d862d99	0.06551666
174	0xbde2311a	-0.11044522
175	0x3c5516d7	0.013005934
176	0x3da932e7	0.08261662
177	0x3d8f0a54	0.06984392
178	0x3dcd1d79	0.10015387
179	0x3ddec4ef	0.10877406
180	0x3dfa2b92	0.12215342
181	0xbd29e8a4	-0.04148163
182	0xbd935d75	-0.0719556
183	0xbde0fdc5	-0.10985903
184	0x3b8d2d31	0.0043083658
185	0x3de5b173	0.112154864
186	0x3dc40e86	0.095730826
187	0xbd9e96bc	-0.07743594
188	0xbd7b9880	-0.061424732
189	0xbd964c49	-0.07338769
190	0x3d15a3fa	0.036533333
191	0xbdc94487	-0.09827524
192	0xbc48fd73	-0.012267458
193	0x3d019b03	0.03164197
194	0xbc17b7cf	-0.009260132
195	0xbd323fa3	-0.04351772
196	0xbd7e5a2f	-0.062097725
197	0xbb5f5155	-0.0034075577
198	0x3d19eee2	0.037581332
199	0xbd1c508f	-0.038162764
200	0xbd05e0ee	-0.032685213
201	0x3cc377de	0.023860868
202	0xbd0a2996	-0.033731066
203	0xbcf5e18b	-0.030014774
204	0x3af1b674	0.0018441216
205	0x3da22ba4	0.0791848
206	0xbd4cf6c3	-0.050040018
207	0xbd0afbca	-0.03393153
208	0x3d5efff7	0.054443326
209	0x3d21a015	0.039459307
210	0x3b9c70ad	0.004774174
211	0xbd9b047a	-0.07569213
212	0x3c425649	0.011861392
213	0x3d7119fc	0.05886267
214	0x3ce2eea7	0.027701689
215	0x3cd72a0a	0.026265163
216	0xbb0ac644	-0.0021175304
217	0x3d16c7e4	0.036811724
218	0xbd6390ea	-0.055558123
219	0x3d04ddd0	0.0324381
220	0xbc8370c8	-0.01604499
221	0xbba7b06f	-0.005117468
222	0xbcc3b693	-0.02389077
223	0x3d5a0b1c	0.05323325
224	0x3c61cf31	0.013782308
225	0xbcc832d8	-0.024438307
226	0x3d87b306	0.06625943
227	0xbd3ed093	-0.04658563
228	0xbd09b511	-0.033619944
229	0xbc3ec038	-0.011642508
230	0xbd1e2b42	-0.038615473
231	0xbc90d089	-0.017677562
232	0xbd99fd64	-0.075190336
233	0xbd0d995f	-0.034570094
234	0xbbe90d29	-0.0071121645
235	0xbd4e10f1	-0.050309125
236	0x3d734851	0.05939514
237	0x3d3d927a	0.04628227
238	0xbd1c7561	-0.03819788
239	0x3d293846	0.041313432
240	0xbdae23fd	-0.08502958
241	0x3da04e29	0.07827408
242	0xbddd827a	-0.10815902
243	0x3923c127	0.00015616846
244	0x3e025c78	0.12730587
245	0x3dab12d7	0.08353203
246	0xbcbe13aa	-0.023202736
247	0xb8c07534	-9.177104e-05
248	0xbdb4ce50	-0.088284135
249	0x3d69f890	0.057121813
250	0x3d027cd4	0.031857327
251	0x3ddee45b	0.10883399
252	0xbe01ee26	-0.12688503
253	0x3c0d6c03	0.008631709
254	0x3d20845c	0.039188728
255	0xbdd2c871	-0.102921374

bias f4 [96]
0	0x38b45396	8.598638e-05
1	0x38019041	3.0890344e-05
2	0x3917f754	0.00014492619
3	0xb7d3c9b8	-2.5247093e-05
4	0xb92ff265	-0.000167796
5	0xbc7d5001	-0.015460969
6	0xbc4796b7	-0.012181929
7	0x378757d0	1.6134145e-05
8	0xb89db6cb	-7.520391e-05
9	0x3486a8a0	2.5082136e-07
10	0x374cf1ae	1.2215618e-05
11	0x38a54eb8	7.8824756e-05
12	0xbbb3da2d	-0.005488655
13	0xb81d9057	-3.7566144e-05
14	0xbb235764	-0.0024923915
15	0xb50acf80	-5.171096e-07
16	0x3afe086d	0.0019381173
17	0x3895b594	7.138695e-05
18	0xba00240c	-0.0004888184
19	0xb79a831d	-1.8419285e-05
20	0x3848a565	4.783775e-05
21	0xb963bfbd	-0.00021719835
22	0x388b3b31	6.639062e-05
23	0x3c6e157d	0.01453149
24	0x38b66563	8.697321e-05
25	0xb7cb86a3	-2.426218e-05
26	0x393f7686	0.00018259333
27	0x38da2349	0.000104016224
28	0xb8567e0a	-5.113896e-05
29	0x37cdd156	2.4535384e-05
30	0xb8b81321	-8.777367e-05
31	0x37b44824	2.1491265e-05
32	0x38fdad87	0.00012096302
33	0x36e4c3f2	6.8177405e-06
34	0x3ae319e0	0.0017326437
35	0x37cd686e	2.4486533e-05
36	0xb9264ee5	-0.00015860384
37	0x384f2188	4.9383874e-05
38	0xb8ac83e4	-8.226166e-05
39	0x397e7f0e	0.00024270659
40	0x3c230d9c	0.009951975
41	0xb8d421c4	-0.00010115237
42	0x3c2ac335	0.010422518
43	0x3cc15fe8	0.023605302
44	0x388c0969	6.677473e-05
45	0x380a5664	3.298222e-05
46	0xb7cc762c	-2.4373723e-05
47	0x382081e8	3.8267957e-05
48	0xb7b73b55	-2.1842929e-05
49	0x393bdb65	0.0001791544
50	0xb97e4d52	-0.00024252132
51	0xb8f4da6c	-0.00011675511
52	0x37aac9ca	2.0359545e-05
53	0x39589c55	0.00020657603
54	0xb711c600	-8.688774e-06
55	0x39ca8540	0.0003862772
56	0x3901f04f	0.0001239192
57	0x36a1b466	4.819175e-06
58	0x382a9959	4.0673975e-05
59	0x374a38ae	1.2053335e-05
60	0xbc295698	-0.010335587
61	0xb91a01c0	-0.00014687236
62	0xb88b5348	-6.643549e-05
63	0xb70f73ae	-8.550398e-06
64	0x38fc60b4	0.00012034309
65	0x3760679d	1.3375565e-05
66	0x38b45f9c	8.6008775e-05
67	0x38ffc140	0.00012195343
68	0x36cfd696	6.194062e-06
69	0xb8cf6c8d	-9.890748e-05
70	0x3934b247	0.00017232551
71	0xb89d01cf	-7.48668e-05
72	0xb7444454	-1.1698419e-05
73	0xb8160070	-3.5763194e-05
74	0x37c2713b	2.317933e-05
75	0x3b9dcfc9	0.0048160297
76	0xbb8a3a82	-0.0042184005
77	0xb81e13f1	-3.7688707e-05
78	0xb7cd512f	-2.4475708e-05
79	0x3a83b1dd	0.0010047514
80	0xbc8ef061	-0.017448606
81	0x3b657664	0.0035013193
82	0xbaf39e6e	-0.0018586644
83	0xb69262e0	-4.3626496e-06
84	0xb7cda1b1	-2.4513198e-05
85	0x37894318	1.6362916e-05
86	0xbbdb9791	-0.0067014177
87	0xb91cb99a	-0.00014946461
88	0x3beab9c1	0.007163257
89	0xb7842aeb	-1.5755611e-05
90	0xb8b0c1ce	-8.428433e-05
91	0xb79c200a	-1.8611569e-05
92	0xb88cb941	-6.7102264e-05
93	0x3ca69d59	0.020338701
94	0x38ce3799	9.833201e-05
95	0xb9a39cbf	-0.00031206568

weight f4 [96]
0	0x3f5837f3	0.8446037
1	0x3f598dcb	0.84981984
2	0x3f62b7b9	0.8856159
3	0x3f576454	0.84137464
4	0x3f5645d8	0.83700323
5	0x3f581bf7	0.8441767
6	0x3f5b3eee	0.856429
7	0x3f59fc44	0.8515055
8	0x3f68a386	0.90874517
9	0x3f5b3863	0.85632914
10	0x3f5f2c42	0.8717691
11	0x3f56e346	0.8394054
12	0x3f5f9a86	0.8734516
13	0x3f5e80e4	0.8691542
14	0x3f5e74c9	0.8689695
15	0x3f60b08d	0.87769395
16	0x3f597c02	0.84954846
17	0x3f61ef3d	0.88255674
18	0x3f57dfb4	0.8432572
19	0x3f56fbd6	0.8397802
20	0x3f580cab	0.8439433
21	0x3f57407a	0.8408276
22	0x3f59c5e0	0.8506756
23	0x3f585f69	0.84520584
24	0x3f67fa1d	0.9061602
25	0x3f5c875f	0.8614406
26	0x3f5ccc1f	0.86248964
27	0x3f5857da	0.8450905
28	0x3f6477e3	0.8924543
29	0x3f57561f	0.84115785
30	0x3f5a3e38	0.8525119
31	0x3f55935b	0.8342797
32	0x3f6150ff	0.88014215
33	0x3f5e2a17	0.86782974
34	0x3f61ab8c	0.88152385
35	0x3f571a6f	0.8402471
36	0x3f5fa393	0.8735897
37	0x3f56a753	0.83849066
38	0x3f5dc85e	0.8663386
39	0x3f5c4012	0.86035264
40	0x3f56c39a	0.83892214
41	0x3f5fd5a7	0.8743538
42	0x3f5f61b2	0.87258446
43	0x3f57b96b	0.842673
44	0x3f597b4c	0.8495376
45	0x3f6361d8	0.8882117
46	0x3f5cddfd	0.8627623
47	0x3f5f5bc6	0.8724941
48	0x3f5a39ed	0.8524464
49	0x3f5ad055	0.8547414
50	0x3f5a5d17	0.85298294
51	0x3f576374	0.8413613
52	0x3f5a234d	0.85210115
53	0x3f610197	0.8789305
54	0x3f63d3d6	0.8899511
55	0x3f5aea93	0.8551418
56	0x3f6247d2	0.8839084
57	0x3f5b1c64	0.85590196
58	0x3f6297ae	0.88512695
59	0x3f59628d	0.84916
60	0x3f5a6ec5	0.8532527
61	0x3f58dbe1	0.8471051
62	0x3f58db7e	0.8470992
63	0x3f5d1b90	0.8637018
64	0x3f59d792	0.8509456
65	0x3f56e180	0.83937836
66	0x3f5de81c	0.86682296
67	0x3f5a4189	0.8525625
68	0x3f577d2c	0.8417537
69	0x3f60dad3	0.878339
70	0x3f5f9dec	0.87350345
71	0x3f5d8706	0.86534154
72	0x3f596a19	0.8492752
73	0x3f569f9d	0.838373
74	0x3f597a20	0.8495197
75	0x3f58c2d7	0.846723
76	0x3f58e146	0.8471874
77	0x3f5c3d35	0.86030895
78	0x3f58c5c7	0.84676784
79	0x3f5e8529	0.86921936
80	0x3f5eb58b	0.8699576
81	0x3f60653e	0.87654483
82	0x3f5e1453	0.8674976
83	0x3f5d81de	0.86526287
84	0x3f5ebd34	0.8700745
85	0x3f593f6b	0.84862393
86	0x3f5766aa	0.8414103
87	0x3f58b109	0.84645134
88	0x3f5c2d54	0.86006665
89	0x3f60fc59	0.8788505
90	0x3f56c830	0.8389921
91	0x3f58dd77	0.8471293
92	0x3f5afffc	0.8554685
93	0x3f601466	0.87531126
94	0x3f5df089	0.8669515
95	0x3f58d887	0.84705395

bias f4 [96]
0	0xbc8177eb	-0.015804252
1	0x3c02faad	0.007994336
2	0x3b077236	0.002066744
3	0xbb3b922f	-0.0028621068
4	0xbc01513a	-0.007892901
5	0xbbd239d6	-0.006415586
6	0xbb86e561	-0.0041166996
7	0xbba13641	-0.0049197976
8	0x3bddb998	0.0067665093
9	0x3b04a1da	0.0020238073
10	0xbc8f3841	-0.017482879
11	0xbb9effe0	-0.00485228
12	0x3c008172	0.007843362
13	0x3c0ae172	0.008476602
14	0x3ad2014a	0.0016022113
15	0x3c4edd1b	0.012625958
16	0xbc03814a	-0.00802643
17	0xbc97a720	-0.018512309
18	0x3ba8ec5d	0.00515513
19	0xbc13c9cb	-0.009020279
20	0xbc7ec7be	-0.015550552
21	0x3b9ca388	0.0047802366
22	0xbca0a74e	-0.019611027
23	0xbc39e3eb	-0.011345844
24	0xbc0e44b6	-0.008683374
25	0x3c219836	0.00986295
26	0xbbf1c3f2	-0.007378095
27	0x3c153c8d	0.009108675
28	0xbb09ac1d	-0.0021007129
29	0xbc67bbcc	-0.014143895
30	0xbb9bed3f	-0.0047585065
31	0xbc215935	-0.009847929
32	0xbaa0524d	-0.0012231559
33	0xbb4625c5	-0.0030234915
34	0x3cac9b95	0.021070281
35	0x397ac490	0.00023915083
36	0x3bab2549	0.0052229506
37	0x3aedbd26	0.0018138036
38	0xbc88f94e	-0.01672044
39	0x3c3cff99	0.011535549
40	0xbc476c93	-0.012171882
41	0xbb87e438	-0.004147079
42	0x3c495c34	0.012290049
43	0xbc8f4678	-0.017489657
44	0xbbcb79f9	-0.0062096086
45	0xbb920bbd	-0.0044569657
46	0x3bc540d2	0.00601969
47	0xbbf592fb	-0.007494328
48	0xba6bf1d1	-0.0009000572
49	0xba8fe76c	-0.0010979003
50	0xbc31709f	-0.010830074
51	0xbacb70f3	-0.0015521332
52	0x3ae2391b	0.001725945
53	0x3bfabb44	0.0076517183
54	0xbc24589f	-0.010030895
55	0xbc7b012f	-0.015320106
56	0x3c1876d9	0.009305679
57	0xbb40f858	-0.00294449
58	0xbc33b4d2	-0.010968404
59	0xbaf3ef7a	-0.0018610798
60	0x3ba42df0	0.005010359
61	0xbb685069	-0.0035448319
62	0x3b9aa4d1	0.0047193547
63	0xbbe95aa1	-0.0071213995
64	0x3bb17570	0.005415611
65	0xbae6b10e	-0.0017600374
66	0xbaaeee77	-0.0013346215
67	0xbccca423	-0.02498061
68	0xbc7be6ce	-0.015374852
69	0xbcbcdc28	-0.023054197
70	0xbbf5382c	-0.007483503
71	0xbca016f0	-0.019542187
72	0x39c6eefc	0.0003794356
73	0xbcb01501	-0.02149439
74	0x3a83a833	0.0010044634
75	0x3c732c2e	0.014842076
76	0xbb0ed706	-0.0021795644
77	0x3a428db0	0.0007421626
78	0xbba16a94	-0.004926035
79	0xbbe055c8	-0.0068461634
80	0xbbc7dd2a	-0.006099363
81	0x3c155e1b	0.009116675
82	0xb94fbdfd	-0.00019811834
83	0x3c7d86e8	0.015474059
84	0x3c34c1d3	0.011032539
85	0xbbecbd8b	-0.0072247437
86	0xba6aef0e	-0.00089620135
87	0xbbae5fe7	-0.005321491
88	0x39f1e7a8	0.000461397
89	0xbbcfb184	-0.0063383
90	0xbbdb165a	-0.006686014
91	0xbca6db83	-0.020368343
92	0xbc7318cd	-0.014837456
93	0x3c721cf3	0.01477741
94	0x3be5096e	0.0069896495
95	0x3a118150	0.000555058

running_mean f4 [96]
0	0x3e204245	0.1565028
1	0xbde4cd3d	-0.111719586
2	0x3e5826f9	0.21108617
3	0xbe033ef4	-0.12816983
4	0xbd82ad84	-0.06380752
5	0xbd831b41	-0.06401683
6	0xbce4893d	-0.027897472
7	0x3bc49290	0.005998917
8	0xbcfb6f59	-0.030692743
9	0xbe5b1550	-0.21394849
10	0x3d22bb61	0.03972948
11	0xbe00138e	-0.1250746
12	0xbdf94df1	-0.12173069
13	0xbd4d08a2	-0.05005706
14	0x3e1b8e45	0.1519099
15	0xbd15bfa9	-0.036559734
16	0x3ea82779	0.32842615
17	0x3e7a97b2	0.2447193
18	0x3d90063d	0.0703244
19	0xbcd474cb	-0.025934597
20	0xbec6f780	-0.38860703
21	0xbde35023	-0.11099269
22	0x3e8ed97c	0.27900302
23	0x3eccd37e	0.40005106
24	0x3dbd8014	0.092529446
25	0x3e74370d	0.23849125
26	0x3e13a920	0.14419985
27	0xbd9d8bd6	-0.07692687
28	0xbcca462d	-0.024691666
29	0x3d927d8b	0.07152852
30	0x3e2c9642	0.16854194
31	0x3dadc237	0.08484309
32	0x3e9269c0	0.28596306
33	0xbd6b7de7	-0.057493117
34	0xbe51f168	-0.20502245
35	0xbce6ab52	-0.028157864
36	0xbae19bfa	-0.0017212622
37	0xbe451ee2	-0.19250062
38	0x3d43fd58	0.04784903
39	0x3d7cb521	0.061696175
40	0x3de5ea31	0.11226309
41	0x3dfa13fd	0.12210844
42	0x3e9a33e8	0.30117726
43	0x3d92680f	0.07148754
44	0x3d36137a	0.044452168
45	0x3cb2a541	0.021807315
46	0x3d4a30cf	0.049362954
47	0x3e774e2e	0.24150917
48	0xbd0a30a8	-0.03373781
49	0xbe04a44b	-0.12953298
50	0x3e1373a8	0.14399588
51	0x3eaf0d37	0.3418977
52	0xbed19555	-0.40934244
53	0xbe2335a5	-0.15938433
54	0x3e41856e	0.18898556
55	0x3d08c285	0.033388633
56	0x3e101eee	0.14074299
57	0xbe168194	-0.14697868
58	0x3e33209b	0.17492907
59	0x3d714c11	0.058910433
60	0xbd5357c2	-0.051597364
61	0x3d902e62	0.07040097
62	0xbd7a4f75	-0.061110932
63	0x3e030d50	0.12798047
64	0xbd45fc73	-0.048336457
65	0xbd98658f	-0.07441246
66	0x3e2aa2da	0.16663685
67	0x3e1b8e46	0.15190992
68	0x3e445614	0.19173461
69	0xbe6bb819	-0.23019446
70	0x3ddf8582	0.109141365
71	0x3d975d17	0.07390802
72	0xbdff9b43	-0.12480786
73	0x3e8e242a	0.27761966
74	0x3e274dbd	0.16338249
75	0xbf07e2da	-0.53080523
76	0xbe773d64	-0.24144512
77	0xbda1ce6f	-0.07900702
78	0xbd52098d	-0.05127864
79	0x3d2e2838	0.042518824
80	0x3d491235	0.04908963
81	0x3dd486bd	0.10377262
82	0x3dd7ffc2	0.10546829
83	0xbd7fb968	-0.062432677
84	0xbde7fee1	-0.11327911
85	0x3dc10f06	0.094266936
86	0xbe4003ce	-0.18751451
87	0xbe59683f	-0.21231173
88	0xbc087285	-0.008328085
89	0x3eca04f4	0.39456904
90	0xbd29c85b	-0.04145084
91	0x3cd1f328	0.025628641
92	0xbd2c9420	-0.04213345
93	0xbd869d7c	-0.065730065
94	0xbd6a17aa	-0.057151474
95	0x3def7df2	0.11693944

running_var f4 [96]
0	0x3c963e26	0.018340182
1	0x3d692d81	0.05692816
2	0x3ddd51a1	0.10806585
3	0x3dc5903d	0.09646652
4	0x3ce49977	0.027905209
5	0x3d10442a	0.035221256
6	0x3c86a723	0.016437119
7	0x3d40623d	0.046968687
8	0x3d87e705	0.0663586
9	0x3d7b3584	0.061330333
10	0x3cdf2a9e	0.027242001
11	0x3d02c9d7	0.03193077
12	0x3da4de86	0.080502555
13	0x3df64cbd	0.120263554
14	0x3db5d710	0.088789105
15	0x3d9c173a	0.076216176
16	0x3d8259ca	0.06364782
17	0x3da101d8	0.0786168
18	0x3d673994	0.056451395
19	0x3c7df457	0.01550015
20	0x3d77f1fd	0.060533512
21	0x3d061c99	0.032742117
22	0x3d1f33e3	0.038867842
23	0x3d6dd278	0.058062047
24	0x3d0c676b	0.034278315
25	0x3e3015b8	0.17195785
26	0x3d4c1220	0.049821973
27	0x3d61356d	0.05498259
28	0x3ce0832c	0.027406298
29	0x3da7308f	0.08163559
30	0x3d85a503	0.06525614
31	0x3c9582ba	0.018250812
32	0x3d4e3000	0.050338745
33	0x3e3b317b	0.18280594
34	0x3e02f9fd	0.12790675
35	0x3cb3f4de	0.021967348
36	0x3d14dd85	0.03634407
37	0x3d4e182c	0.05031602
38	0x3d208c73	0.039196443
39	0x3c8d1572	0.01722214
40	0x3d1cd070	0.03828472
41	0x3cca39fc	0.024685852
42	0x3dd70e35	0.10500757
43	0x3ca72029	0.020401077
44	0x3d3a77cf	0.045524415
45	0x3d3593fb	0.04433058
46	0x3cd21c61	0.025648298
47	0x3d279b4e	0.040919594
48	0x3c91fd5f	0.017821012
49	0x3d6b8bb5	0.057506282
50	0x3cdf5262	0.027260963
51	0x3e0d74ba	0.13814059
52	0x3d1d4179	0.038392518
53	0x3d35d3a3	0.044391286
54	0x3d890496	0.06690328
55	0x3ccc3072	0.024925444
56	0x3d15a0fc	0.03653048
57	0x3dabf1ad	0.08395705
58	0x3cf99632	0.030467127
59	0x3d3649ba	0.044503905
60	0x3d884304	0.06653407
61	0x3c55ea50	0.013056353
62	0x3e067a1b	0.13132517
63	0x3d03697b	0.032083016
64	0x3d81f3b3	0.0634531
65	0x3d6f3b9d	0.05840646
66	0x3da98423	0.08277156
67	0x3d1c3a20	0.03814137
68	0x3d90557a	0.07047553
69	0x3d04c7b0	0.032417
70	0x3cfe7b0f	0.031064538
71	0x3d2b8dda	0.041883327
72	0x3d4ba386	0.049716495
73	0x3d7ec948	0.062203676
74	0x3d2a46fd	0.041571606
75	0x3d9c8265	0.07642058
76	0x3d1d3213	0.038377833
77	0x3d6d38eb	0.05791561
78	0x3df29fe8	0.11846906
79	0x3d7d4081	0.061829094
80	0x3d647fca	0.05578593
81	0x3dd8af95	0.105803646
82	0x3d9ae449	0.07563073
83	0x3d54424f	0.05182105
84	0x3dc5a106	0.096498534
85	0x3d6628f1	0.05619139
86	0x3dc31906	0.09526257
87	0x3cb6f867	0.022335244
88	0x3d67b827	0.056572106
89	0x3d89f3f1	0.06735981
90	0x3d4671dd	0.048448432
91	0x3d3aab2d	0.045573402
92	0x3d59c453	0.053165745
93	0x3dba9503	0.09110453
94	0x3d759132	0.059952922
95	0x3dad57a3	0.08463981

weight f4 [48, 96, 3, 3]
0	0x3bcb7246	0.006208691
1	0x3cbbc41f	0.022920666
2	0xbb219286	-0.0024653985
3	0x3c9fea0a	0.019520778
4	0xbc95863e	-0.018252488
5	0xbb048a1c	-0.0020223921
6	0x3c426112	0.011863964
7	0x3a935c43	0.0011242706
8	0xbc693192	-0.01423301
9	0x3bdeca82	0.006799043
10	0xba904a97	-0.0011008558
11	0x3bf71af5	0.0075410553
12	0x3c786e8b	0.015163074
13	0x3ca8a71d	0.020587498
14	0xba2980f7	-0.00064660556
15	0x3bab51be	0.0052282503
16	0xbc081b38	-0.008307271
17	0x3c9eb0b4	0.019371368
18	0x3c7ef8d0	0.015562251
19	0xbc200f31	-0.009769247
20	0xbc8c8b82	-0.017156366
21	0x366b57a0	3.5068733e-06
22	0x3c2968a6	0.010339892
23	0x3c89f252	0.01683918
24	0x3b2126be	0.0024589743
25	0xbc2671d5	-0.010158976
26	0xbc18ce3c	-0.009326514
27	0x3c9e974a	0.01935925
28	0xbbd83dde	-0.006599172
29	0x3c8fbe2e	0.01754674
30	0xbc28b4ba	-0.010296995
31	0x3c46e404	0.012139324
32	0xb9caf773	-0.00038712806
33	0xbb2b86ec	-0.002617295
34	0x3ca834d4	0.020533003
35	0x3b23c73e	0.0024990584
36	0x3cda69d5	0.026661793
37	0x3c2b42e0	0.010452956
38	0xbb13b1f6	-0.0022536493
39	0x3ca03124	0.019554682
40	0x3c792dea	0.015208701
41	0x3ccc4b67	0.024938298
42	0x3c6cd9c0	0.0144562125
43	0x3b65988d	0.0035033554
44	0x3c55d483	0.013051155
45	0x3c2cdf4b	0.010551284
46	0xbb2a5978	-0.002599327
47	0x3c5b6ade	0.013392178
48	0x3c267116	0.010158798
49	0xba7fdbc5	-0.0009760226
50	0x3c1fcab5	0.009752919
51	0x3a831d93	0.0010003321
52	0xbb4d69d1	-0.003134359
53	0x3c9d4c8e	0.019201543
54	0x3be10ce2	0.006867991
55	0xbab02819	-0.0013439684
56	0x3c197b14	0.009367723
57	0x3c3057f9	0.010763162
58	0x3c7f6a34	0.015589286
59	0x3c182b68	0.009287693
60	0xbadcf6fe	-0.0016858277
61	0xbb57696b	-0.003286923
62	0x3c25abbf	0.010111748
63	0xbbd52cd3	-0.0065055876
64	0xbc33d546	-0.010976141
65	0x3b20a700	0.0024513602
66	0xbb35a870	-0.0027718805
67	0xbbe898c1	-0.007098288
68	0xbbb0007c	-0.0053711515
69	0x3b568cc5	0.0032737714
70	0x3c5f465e	0.013627617
71	0xbb55c20a	-0.0032616877
72	0xbb2e260b	-0.0026572968
73	0x3ca8b3d6	0.020593565
74	0x3cd6b092	0.026207242
75	0xbb85fcdf	-0.0040889825
76	0x3c3faae6	0.01169846
77	0x3cd23a3d	0.025662536
78	0x3c82d120	0.01596886
79	0x3b337c3c	0.0027387282
80	0x3caa5b12	0.020795379
81	0xbbc51ec5	-0.006015631
82	0x3bc911f4	0.0061361734
83	0xbc034d63	-0.008014056
84	0x3ca2adda	0.01985829
85	0x3b99113c	0.004671244
86	0xbbe321f6	-0.0069315387
87	0x3cba29b5	0.022724966
88	0x3b9f75c4	0.0048663337
89	0xbbbe9f76	-0.005817349
90	0xbc49d9ee	-0.012320025
91	0xbbf101c2	-0.007354946
92	0xbb51dd98	-0.003202295
93	0x3c011653	0.007878858
94	0x3bc7273e	0.006077676
95	0x3aee3e38	0.0018176502
96	0x3c5e7d92	0.013579743
97	0xbc9db58d	-0.01925161
98	0xbb8cb6b4	-0.004294241
99	0xbbe6feac	-0.007049402
100	0x3c0a7dcc	0.008452844
101	0x3a9f640b	0.0012160552
102	0xbbe912bf	-0.0071128304
103	0xbbfac60b	-0.007653003
104	0x3c41bf9b	0.011825467
105	0x3c49e40c	0.012322437
106	0x3b060fa2	0.0020456095
107	0x3b26b0b7	0.002543492
108	0x3c936d54	0.017996468
109	0x3cdb2cac	0.0267547
110	0x3ba82a0f	0.005131967
111	0x3b16170f	0.0022901928
112	0x3ccf0155	0.02526919
113	0x3c912bd2	0.01772109
114	0x3cc43a3b	0.023953548
115	0x3cc5573a	0.024089444
116	0x3ccd5514	0.025064982
117	0xbc3a67bf	-0.011377274
118	0xbc7c3726	-0.015394008
119	0xbb692e77	-0.0035580674
120	0xbc591f55	-0.013252099
121	0xbca7504a	-0.020424027
122	0xbc9ce6eb	-0.019153079
123	0x3bb674fb	0.0055681444
124	0xbcdab42a	-0.026697237
125	0xbba4c2f0	-0.005028121
126	0xbc70c479	-0.01469528
127	0x3b651c75	0.0034959589
128	0x3c1ff4b4	0.009762932
129	0xbb554d57	-0.003254732
130	0x3c6e329d	0.014538434
131	0x3c18d430	0.009327933
132	0x3ca87b17	0.020566506
133	0x3c922478	0.017839655
134	0x3c9d8349	0.01922764
135	0xbb7c5a3d	-0.0038505935
136	0xbc057eb5	-0.008147885
137	0x3b8f99c1	0.0043823426
138	0x3b9f800a	0.0048675584
139	0x3ca4c6e1	0.020114364
140	0xbb79217a	-0.0038014338
141	0x3ccd8ec5	0.025092492
142	0xbbab540b	-0.0052285246
143	0x3c4e8d7c	0.012606975
144	0xbc800f24	-0.01563222
145	0x3bd98c50	0.006639041
146	0x3b536228	0.003225455
147	0x3ca42cab	0.02004083
148	0xbc635e6e	-0.013877494
149	0xbc0b0420	-0.00848487
150	0xbc869f48	-0.016433373
151	0xbc9a6658	-0.01884763
152	0x3c14e3d6	0.009087523
153	0x3cc27eb7	0.023742063
154	0x3c3a7bad	0.011382026
155	0x3b0fd8c7	0.0021949278
156	0x3c986dc7	0.018607033
157	0xbc9b66fe	-0.018970009
158	0x3c7a5251	0.015278415
159	0x3cc02061	0.02345294
160	0xbb2295c8	-0.0024808515
161	0xbc883fc7	-0.016631974
162	0xbc35f436	-0.011105588
163	0x3c899883	0.016796356
164	0x3b86f132	0.004118108
165	0x3c34ef4f	0.011043384
166	0xbc3b8d2e	-0.011447234
167	0x3c6c448a	0.014420638
168	0x3c914e26	0.01773746
169	0xbb55eb66	-0.003264153
170	0xbb36e6af	-0.0027908494
171	0xbc0b65bf	-0.008508145
172	0xbb7b5705	-0.0038351428
173	0xbce4edfd	-0.027945513
174	0xbbed68ca	-0.007245158
175	0x3c339a1a	0.010962034
176	0xb88fe710	-6.86181e-05
177	0xbbc69269	-0.006059934
178	0xbc1aa94d	-0.0094397785
179	0xbac6363f	-0.0015122368
180	0xbc488b46	-0.012240237
181	0x3bb37923	0.005477087
182	0x3be0642a	0.006847878
183	0x3aa48337	0.0012551312
184	0x3b6829a6	0.0035425215
185	0x3c50fe7b	0.012755985
186	0xbbaef0e5	-0.0053387755
187	0x3b84e4d3	0.0040555983
188	0x3c1f39fd	0.009718415
189	0xbbdb0964	-0.006684469
190	0x3c45f836	0.012083104
191	0x3b9e9267	0.00483923
192	0xba8d0be9	-0.0010760996
193	0x3cab5ff6	0.020919781
194	0x3b4af276	0.0030967272
195	0x3bc065a7	0.005871493
196	0x3c95117f	0.01819682
197	0x3c93dcbc	0.01804959
198	0x3c993daf	0.01870617
199	0xbb28db8b	-0.0025765623
200	0x3c5b1333	0.013371277
201	0x3c4ddbd6	0.01256462
202	0x3c291f96	0.010322472
203	0x3a342839	0.0006872449
204	0xbc9bc331	-0.019013973
205	0x3c0540d3	0.008133131
206	0xbbdea046	-0.0067940084
207	0xbc709224	-0.01468328
208	0x3b9f9e00	0.00487113
209	0x3bb5fde2	0.005553947
210	0xbc2d5854	-0.010580141
211	0xbb5d267c	-0.0033744862
212	0xbc84936b	-0.016183576
213	0x3c0ab3ea	0.008465746
214	0xbbd7e4f9	-0.006588575
215	0xbaba336c	-0.0014205999
216	0x3c3722fd	0.011177775
217	0xbbd3397a	-0.0064460607
218	0xbb992fba	-0.004674879
219	0xbc90131b	-0.017587235
220	0x3cc96cc3	0.024587994
221	0xbc5bd13c	-0.013416585
222	0x3c861d17	0.016371293
223	0xbcc0fa91	-0.02355698
224	0x3c649dfa	0.01395368
225	0x3be57b27	0.0070032063
226	0xbc58ecdc	-0.013240065
227	0xbb7bfc01	-0.0038449767
228	0x3be68f11	0.007036098
229	0x3af59505	0.0018736428
230	0xbbfd1e43	-0.0077245547
231	0x3c1ed90d	0.009695304
232	0x3c88a750	0.016681343
233	0x3c389c63	0.011267754
234	0x3bd9f707	0.0066517624
235	0x3c198b3d	0.009371576
236	0xbb400da7	-0.0029305012
237	0x3c9e33a7	0.01931174
238	0x3c52c0c8	0.012863345
239	0x3c156634	0.009118605
240	0xbbc3d48a	-0.0059762644
241	0x3c47827a	0.012177104
242	0xbc3bd974	-0.011465419
243	0x3c630be4	0.013857815
244	0x3c96c628	0.018405035
245	0x3c068579	0.008210533
246	0x3be75e1e	0.00706078
247	0x3ce8203e	0.028335687
248	0x3c7effd7	0.015563927
249	0x3ccde507	0.025133623
250	0x3c861cde	0.016371187
251	0x3c4f103a	0.012638146
252	0xbc2e96de	-0.010656087
253	0xbc852008	-0.016250625
254	0xbc8c6c33	-0.017141437
255	0xbae4521f	-0.0017419494

bias f4 [48]
0	0x36271662	2.4897968e-06
1	0x37b0be65	2.1069494e-05
2	0xb7846f81	-1.578755e-05
3	0xb7075c09	-8.068056e-06
4	0x364710a8	2.9663006e-06
5	0x369af858	4.6184687e-06
6	0x3495ba8c	2.7889143e-07
7	0x37a3da7a	1.953285e-05
8	0xb7d94a72	-2.5903082e-05
9	0x36a3edd8	4.885467e-06
10	0x38bd5381	9.027776e-05
11	0xb884bbe7	-6.32925e-05
12	0xb7f0348b	-2.8634697e-05
13	0x359d5547	1.172223e-06
14	0x36226090	2.4196088e-06
15	0x37089590	8.141054e-06
16	0x383e9422	4.543749e-05
17	0xb809526e	-3.2740114e-05
18	0x3729a3b5	1.0111301e-05
19	0xb5a43a2f	-1.2235886e-06
20	0x35179b4e	5.647788e-07
21	0xb580f666	-9.608455e-07
22	0xb66b5ca3	-3.507165e-06
23	0xb72308e8	-9.717631e-06
24	0x35ae3c7d	1.2981615e-06
25	0x373cf48f	1.1262614e-05
26	0xb766893e	-1.37410225e-05
27	0xb6e634c8	-6.8606787e-06
28	0x3430da38	1.6470665e-07
29	0xb5a4f8cc	-1.2291362e-06
30	0xb6ae8185	-5.200682e-06
31	0xb637fe68	-2.741721e-06
32	0xb6b9e016	-5.5395167e-06
33	0xb6afb87e	-5.236884e-06
34	0xb6d13302	-6.2346235e-06
35	0xb7a9db7e	-2.0248579e-05
36	0x3767e5d5	1.3822185e-05
37	0x3625be64	2.4697738e-06
38	0xb5ed17af	-1.7664769e-06
39	0xb685edf0	-3.9914084e-06
40	0x368efec2	4.2615875e-06
41	0x3618e577	2.278333e-06
42	0xb6d2b8fa	-6.280022e-06
43	0x3798b4ae	1.8203948e-05
44	0x370d77a8	8.432115e-06
45	0x34e6daba	4.2999983e-07
46	0xb5624046	-8.428509e-07
47	0xb78308ba	-1.562048e-05

weight f4 [48]
0	0x3f5f114c	0.8713577
1	0x3f692baa	0.9108225
2	0x3f61cc9b	0.8820283
3	0x3f606bb8	0.87664366
4	0x3f5ef8e0	0.87098503
5	0x3f5d0f51	0.86351496
6	0x3f68c084	0.90918756
7	0x3f5d3a99	0.8641754
8	0x3f646709	0.8921972
9	0x3f6499dd	0.89297277
10	0x3f5e2b93	0.8678524
11	0x3f6ca294	0.92435575
12	0x3f5f1938	0.87147856
13	0x3f655b32	0.8959228
14	0x3f58c4f8	0.8467555
15	0x3f5ac643	0.85458773
16	0x3f64255f	0.89119524
17	0x3f5caa4a	0.8619734
18	0x3f574b5d	0.8409937
19	0x3f5a477a	0.85265315
20	0x3f5d6e66	0.8649658
21	0x3f5e1cfc	0.86762977
22	0x3f5da912	0.86586106
23	0x3f5da565	0.865805
24	0x3f68f7a1	0.9100285
25	0x3f56c653	0.8389637
26	0x3f5e0014	0.8671887
27	0x3f6392af	0.88895696
28	0x3f6db8fe	0.928604
29	0x3f6cf252	0.9255725
30	0x3f6d83c7	0.927792
31	0x3f73e267	0.9526734
32	0x3f6dfcda	0.92963946
33	0x3f6a9a72	0.91641915
34	0x3f678967	0.90444034
35	0x3f6619ed	0.8988331
36	0x3f61e465	0.8823913
37	0x3f5aff57	0.8554587
38	0x3f5b76e8	0.8572831
39	0x3f6082a9	0.8769937
40	0x3f5f03c0	0.871151
41	0x3f668b83	0.9005663
42	0x3f61bf67	0.8818268
43	0x3f6d6f88	0.9274831
44	0x3f65195f	0.8949184
45	0x3f6daf99	0.92846066
46	0x3f5bd531	0.8587218
47	0x3f681978	0.9066386
