weights/Adam.model.weights.pt (torch, 219383 bytes, 42 tensors)

weight f4 [16, 3, 1, 1]
000000 cc eb f3 3c 0a 10 e5 3d f7 03 8d 3d 82 70 67 3e
       0.029775523 0.111847 0.06885522 0.22601512
000010 c9 84 ea 3e f5 2d b3 be e3 b8 d5 3b f5 b5 96 bd
       0.45804432 -0.34996 0.0065222844 -0.07358924
000020 82 f1 89 be db 3c 82 3e ff e7 5d 3e 01 81 5a 3e
       -0.26942068 0.25437054 0.2167053 0.21338274
000030 b9 e9 b2 bd 54 07 c7 3e 31 f1 bb be 86 a0 ad 3e
       -0.08735985 0.38872778 -0.36707452 0.33911532
000040 2a 0c 6e 3e e4 4d 92 3e 8b 2f ba 3e 9a e3 84 3e
       0.23246828 0.2857505 0.36364397 0.25954896
000050 0e f6 e8 be 2d 7e bb bc dc 6e 22 3e 74 a2 35 3d
       -0.45500225 -0.022887314 0.15862602 0.04434438
000060 58 6c 09 be 24 36 a2 bd 40 97 bf 3c f5 86 e1 bd
       -0.13420236 -0.07920483 0.023387551 -0.11012069
000070 29 c7 06 be 20 77 ce 3d 8e 43 29 3e 3b 0b 20 3b
       -0.13161911 0.10081315 0.16529676 0.0024420756
000080 f8 3b e2 be 52 bb 06 be cf cc c5 3e 5d d6 ae be
       -0.44186378 -0.13157395 0.3863282 -0.3414792
000090 1d 99 cb be a3 3b bb 3e f8 1a 29 be 7f 93 0c be
       -0.39765254 0.36568937 -0.16514194 -0.1372814
0000a0 9b 64 c3 3e fd d0 1c be fe 66 9a be ef 3b 78 3e
       0.38162693 -0.15314098 -0.30156702 0.24241613
0000b0 fa 2e 7d be 28 52 33 be 20 35 82 be bb 25 50 3e
       -0.24724951 -0.17511809 -0.25431156 0.20326893

bias f4 [16]
000000 eb c9 0f b9 2c 98 42 35 ed be f4 bd d6 dc ae 3c
       -0.00013712763 7.249207e-07 -0.11950479 0.021345537
000010 1a 3a 41 3b 90 36 b9 b7 a4 63 21 bd 9e f2 3f 35
       0.0029484094 -2.2079126e-05 -0.039401665 7.15061e-07
000020 5d 1b 4f be c9 bd 36 bd ca c2 85 be d4 e7 f0 3b
       -0.20225282 -0.044614587 -0.26125175 0.007351855
000030 59 d2 93 34 68 87 2d 3d 2c a9 06 b4 53 50 d6 35
       2.7533932e-07 0.04236546 -1.2541267e-07 1.596762e-06

weight f4 [16]
000000 e1 8b 68 3f e1 5a 64 3f d3 0c 68 3f 26 bd 63 3f
       0.9083844 0.8920117 0.9064457 0.8896049
000010 6a b1 5c 3f 13 25 64 3f 37 e0 6e 3f f7 e7 6a 3f
       0.8620821 0.8911907 0.93310875 0.917602
000020 4e a0 56 3f 10 c0 6a 3f 5a b2 61 3f e2 7b 60 3f
       0.83838356 0.91699314 0.8816277 0.8768903
000030 f6 1a 5e 3f 7c 95 6d 3f 65 81 58 3f 4b 0d 56 3f
       0.8675989 0.9280622 0.8457244 0.83614033

bias f4 [16]
000000 8e c4 9a 3a 7a fa 3b bc 2b 7c 31 3b de 27 92 bc
       0.0011807845 -0.0114732925 0.0027082067 -0.017841276
000010 d7 4c 32 3d 77 c2 07 bc 15 f6 14 3c e4 fb 2f bc
       0.04353031 -0.00828611 0.009091874 -0.010741208
000020 7e fa 19 bb a0 b5 b2 3b 83 a3 9b 3c ef f2 19 3d
       -0.0023495252 0.0054537803 0.018998867 0.037585195
000030 6f 46 c1 3c 98 0e 83 3d a2 de 18 bc a4 c2 ae bc
       0.023593156 0.06399268 -0.009330424 -0.021333046

running_mean f4 [16]
000000 72 f7 8f 41 c9 7a 09 42 e1 25 d7 c1 ee 75 69 42
       17.995823 34.369907 -26.893496 58.365166
000010 db 67 25 bf bf 8b 91 42 f3 42 a3 41 81 a6 7b 41
       -0.64611596 72.77294 20.40769 15.72815
000020 c8 ef 8a c1 a0 6e 5e c1 8b 93 9b c1 bf 6f 34 c0
       -17.36708 -13.902008 -19.447042 -2.8193204
000030 d7 1f 67 c1 23 6b 2c 41 14 d0 bb c1 fc 5b b6 c1
       -14.445273 10.776156 -23.4766 -22.794914

running_var f4 [16]
000000 c8 09 c4 42 0b 06 af 43 b8 43 65 43 63 2a 87 44
       98.019104 350.0472 229.26453 1081.3246
000010 92 4b 87 41 f0 34 d4 44 b5 07 1c 43 9c 18 8c 42
       16.9119 1697.6543 156.0301 70.048065
000020 48 0b be 42 25 86 6d 42 41 ab 04 43 63 78 b4 41
       95.02203 59.381 132.66896 22.558783
000030 29 f6 ea 42 7b 54 cd 41 2e a2 62 43 2d 60 1e 43
       117.48078 25.66625 226.63351 158.37569

weight f4 [16, 3, 3, 3]
000000 e0 28 9a bd 49 19 cf 3d ef 43 c5 3d 05 db 03 be
       -0.075273275 0.10112245 0.09632098 -0.12876518
000010 fe 70 93 bb 3f 4d 00 be 8c 87 12 3e 0f c3 ce 3d
       -0.0044995537 -0.12529467 0.1430952 0.10095798
000020 25 d3 4d bb 0f c3 f7 bc 54 ac 2a 3d 2b a7 80 3d
       -0.003140637 -0.030244378 0.04166825 0.06281885
000030 c8 f4 0e 3d 82 5a ef 3c 93 e1 2d 3e 3f ae dd bd
       0.03490141 0.029217962 0.16980581 -0.108242504
000040 5f 43 05 3d 3c 8f 73 bd 91 8b 98 bd 0e 47 9c 3d
       0.032534953 -0.05946277 -0.07448495 0.0763074
000050 2a ca 08 3d 10 c4 88 bd e0 17 df 3b 33 65 30 3d
       0.033395924 -0.06678021 0.006808266 0.04306526
000060 ab 9f 7e 3b 85 cc 14 be 29 48 cd bd a9 c2 29 3e
       0.0038852494 -0.14531143 -0.10023529 0.16578163
000070 3f e4 2c 3e 89 9c ec 3d 7a 55 60 bd 30 19 23 3e
       0.16883944 0.11553294 -0.054769017 0.15927577
000080 eb 06 48 3e 6c f6 b0 bd e0 9f cd bd fc 5a 0a be
       0.19533889 -0.08640751 -0.10040259 -0.1351127
000090 3a 28 c0 bc 82 ea 20 3e 88 ae d3 bd a7 9e 3c bc
       -0.023456682 0.15714458 -0.103360236 -0.011512435
0000a0 f5 84 87 bd c5 73 bd bd 6a a0 2d bd 75 87 38 3e
       -0.066171564 -0.09250597 -0.04238931 0.18020423
0000b0 68 66 7d bd b7 ec cd bd 96 7b 0f 3e e7 ec a9 bd
       -0.06186524 -0.100549154 0.14011988 -0.08297139
0000c0 7c ae ba 3d 4c 43 b5 bd a0 58 03 3e 3a b1 11 be
       0.091153115 -0.088507265 0.12826777 -0.14227763
0000d0 1b f6 07 be fd 1b 84 bc 51 86 9d 3d 1f b5 e0 3d
       -0.13277476 -0.016126627 0.076916344 0.10972046
0000e0 66 c7 4a bd ec 84 f5 3d 41 16 9a bc 0a ed 67 3d
       -0.049506567 0.119882435 -0.01880944 0.056622542
0000f0 35 20 25 3e 64 e5 02 3e 0d bf bf bd ad 2d 68 bd
       0.16125567 0.12782818 -0.09362612 -0.056684185
000100 6c 04 7d bd a6 6c 0c be 17 5d 9f bb 85 c9 f6 bd
       -0.061771795 -0.13713321 -0.004863392 -0.120501556
000110 f6 56 94 bc c6 50 ee 3d 42 43 ce 3d b8 92 49 be
       -0.018107872 0.116365 0.10071422 -0.19684875
000120 ee 3a af 3d b2 47 dd 3d 57 a5 1d be 77 60 0e be
       0.08556162 0.108046904 -0.15395103 -0.13903986
000130 a2 23 82 3d 67 01 7f bd d9 fa 28 3e 7f c3 ed bd
       0.06354453 -0.062257197 0.16501941 -0.116095535
000140 6c 8c af 3d 8e bc 34 3d fb 1e d8 bd 30 48 ea 3d
       0.08571705 0.044125132 -0.10552784 0.1143955
000150 cc 86 df 3d 3e 5a dc 3d 36 66 2c be e3 2f 20 be
       0.10914382 0.107594 -0.16835865 -0.15643267
000160 d1 13 d2 3d 95 e1 28 3e 92 52 9f bb fd 7a 1f bd
       0.10257686 0.16492303 -0.004862138 -0.03893565
000170 4a a2 b3 bd d3 25 fc bd 32 96 01 3e a8 53 75 3d
       -0.087711886 -0.12311902 0.12654951 0.059894234
000180 d3 cc dc bd 7e 63 89 bd 0c 3b 4c be 4e 29 a3 bd
       -0.107812546 -0.0670843 -0.199444 -0.079668626
000190 4d bf f7 3b d7 20 c7 3c 17 82 86 bd 20 56 22 bc
       0.0075606466 0.024307651 -0.065677814 -0.009908229
0001a0 0a 54 02 3e 1f d8 14 be 8b d4 54 bd f0 91 6b 3d
       0.12727371 -0.14535569 -0.05196051 0.057512224
0001b0 39 5d 01 be 5a cc 2b be 19 41 1a 3e 94 00 2c be
       -0.12633218 -0.16777173 0.15063895 -0.16797096
0001c0 b8 07 91 bd c9 92 bc bd 9e b2 27 be 1b 3e db 3d
       -0.0708155 -0.092076845 -0.16376731 0.10705205
0001d0 71 0a 5d 3d 40 1b 88 3c 1a 2e 0c bd fd 1c 88 3a
       0.053965036 0.016614556 -0.034223653 0.0010384616
0001e0 94 24 17 3e af 23 08 3d 73 e7 7e bc 3d 39 ab bd
       0.14760047 0.033237156 -0.0155581115 -0.08360527
0001f0 50 39 19 3e 1d b6 31 3e 8b 53 2a bb ea 67 8e bd
       0.14963269 0.17354627 -0.0025989737 -0.06953414
000200 09 6b 93 bd 4d b7 1f 3e 9d 0e 35 be 96 3b 42 3e
       -0.0719815 0.15597267 -0.17681356 0.18968043
000210 05 15 84 3d e1 42 94 3d 9d b2 1b be 64 ef 1c 3e
       0.06449322 0.07239319 -0.15204854 0.15325695
000220 b0 eb 1b 3e 2f e3 16 be 98 ae 0b bd 38 1a 88 bd
       0.15226626 -0.14735101 -0.034102052 -0.06645626
000230 fc e8 20 be 16 ae e4 3d 09 3f 18 be a2 27 fd bb
       -0.15713876 0.11166017 -0.14867796 -0.007725672
000240 d8 40 ce 3d 01 a7 21 3e b0 22 06 3e 8f b3 5f 3d
       0.10070962 0.15786363 0.1309917 0.0546146
000250 00 36 97 3c 0f 9a 99 3d a9 ae ec 3d 17 74 e1 bd
       0.018458366 0.075000875 0.11556751 -0.110084705
000260 78 da 8e bc 7b 1e 04 be b3 90 f6 3d 72 a7 01 be
       -0.017438158 -0.12902252 0.12039318 -0.12661532
000270 5b 0a 2f 3d aa ab 27 be 33 60 0d 3d ae c0 24 3e
       0.042734485 -0.16374078 0.03451557 0.16089126
000280 58 99 cf 3b 30 51 5a bc 0a 5d 6d bc 6e cf 37 3d
       0.0063354187 -0.013325021 -0.014487514 0.044875555
000290 95 9d 07 3e 0e 56 8d 3c 96 50 a2 3d 73 ae 26 bd
       0.13243707 0.017252948 0.07925527 -0.04069371
0002a0 5c 5a 92 bd a9 2b f1 3d 88 82 31 3e 43 20 3b 3d
       -0.07146141 0.11775906 0.1733495 0.045685064
0002b0 7c f4 7b bd 3a 9a d6 3d 3c 53 e5 3c 30 08 e4 bd
       -0.061512455 0.10478635 0.02799379 -0.11134374
0002c0 55 03 4d bd 34 10 2b 3e cd 51 a5 bc f8 46 64 3d
       -0.050052006 0.167054 -0.020180607 0.055731744
0002d0 f3 8f ee 3a 24 40 1e be 82 4a 82 bd 01 94 23 3e
       0.0018200859 -0.15454155 -0.063618675 0.15974428
0002e0 00 70 0a be d3 15 15 be 49 71 f3 bd 56 83 9a bd
       -0.13519287 -0.14559107 -0.11886842 -0.075445816
0002f0 40 68 30 bd f8 d3 12 be e9 19 4d bd b0 c1 3f bd
       -0.04306817 -0.14338672 -0.050073538 -0.046815574
000300 e7 93 cf 3a 18 de 05 3b e5 54 07 3c fb da 46 bd
       0.0015836925 0.0020426568 0.0082599865 -0.04854868
000310 0b f8 67 bd 05 7b c4 bc 41 d7 0f 3e 96 45 6c 3d
       -0.056633037 -0.023984442 0.14046957 0.05768355
000320 20 ec bf 3d 9a fd 1b be 87 5b 63 bd 50 ae e7 bd
       0.09371209 -0.1523346 -0.05550721 -0.11312544
000330 6f af 85 3c 03 96 13 3d a2 24 9f 3d d7 10 eb 3d
       0.016319005 0.036031734 0.07770659 0.11477821
000340 44 d3 55 3c 1a ed 8e 3d 98 8f 1d 3e d5 02 7e bd
       0.013050858 0.06978817 0.15386808 -0.06201442
000350 1c 58 11 be 77 fd 0c 3c c9 3e c8 bc 9c 3b 0e be
       -0.14193767 0.008605353 -0.024444 -0.13889927
000360 f1 16 e5 3d c7 19 0b 3e 26 1e b2 3c 97 78 ba bc
       0.11186016 0.13584052 0.021742892 -0.02276258
000370 33 2e 6e bd 29 1c 99 bd 6c 3d dc 3d 8e 05 0a bd
       -0.058149528 -0.07476074 0.10753903 -0.033696704
000380 c6 d8 da bd bf a1 52 3d c5 f0 e5 bd 95 4d ae 3c
       -0.106858775 0.051423784 -0.11227564 0.021277228
000390 11 04 af 3c 5c 63 9e bb f4 97 98 bd 5f e7 91 bd
       0.021364244 -0.004833622 -0.07450858 -0.07124209
0003a0 d2 cc d4 3c 5d 02 82 3a 44 ea 88 bd 59 77 f4 bc
       0.025976572 0.0009918917 -0.066853076 -0.029842066
0003b0 42 c4 fa 3b ce c8 a1 3d e1 80 8a bc 96 de b4 3c
       0.0076527903 0.078996286 -0.016907157 0.022078793
0003c0 00 87 ed bc 1c 90 de bc 02 8f 7f bc 3c 65 71 bd
       -0.028995037 -0.027168326 -0.015598061 -0.058934435
0003d0 e8 f5 e4 bd 29 1e 39 3c f1 27 6b bd c2 38 cd 3a
       -0.111797154 0.011298695 -0.057411138 0.0015657174
0003e0 c8 21 3f bd 42 a0 14 3c 79 6a 0a 3e 56 47 a8 3d
       -0.046663076 0.009071412 0.13517179 0.08216731
0003f0 71 a0 de bd 10 78 c0 bc 49 e3 45 bd be d1 1b bc
       -0.108704455 -0.02349475 -0.04831246 -0.009510456

bias f4 [16]
000000 64 f4 8a 32 b6 3e f9 34 08 cf 90 34 03 2f 83 b5
       1.617645e-08 4.6425492e-07 2.6972725e-07 -9.773943e-07
000010 15 c0 a4 b5 2f 56 3d b5 61 f8 09 b5 8a fa 64 b5
       -1.2274855e-06 -7.05334e-07 -5.1397916e-07 -8.53012e-07
000020 2e 81 05 b4 4a 9e 2b 35 37 89 ba b3 82 58 20 b5
       -1.2433586e-07 6.3932805e-07 -8.686259e-08 -5.973344e-07
000030 21 98 c6 b3 31 fa f0 33 ea 37 4d 39 3a b4 fb b5
       -9.2477656e-08 1.12213804e-07 0.00019571153 -1.875341e-06

weight f4 [16]
000000 a2 3a 5a 3f b4 f6 59 3f af 3a 65 3f 20 19 69 3f
       0.85245717 0.85142064 0.8954267 0.9105396
000010 14 ee 54 3f 95 9e 5e 3f ca af 68 3f 71 c2 55 3f
       0.8317578 0.86960727 0.9089323 0.8349982
000020 a1 f8 58 3f 8b f6 5b 3f a7 cb 52 3f ae a0 54 3f
       0.8475438 0.8592307 0.82342 0.8305768
000030 e5 3e 5f 3f 6f ea 64 3f db 14 63 3f aa 67 64 3f
       0.87205344 0.8942022 0.887037 0.8922068

bias f4 [16]
000000 7f dc 93 3c 84 b4 c6 3a 80 20 60 3c 00 a4 a7 3b
       0.018049477 0.0015159999 0.013679624 0.005115986
000010 ad 6e 18 3d a7 9e ad 3c 9e 8b 11 3d 6e f8 22 3d
       0.037214924 0.021193815 0.03553354 0.039787702
000020 e7 ca da 39 70 27 40 3b 05 54 84 bc f5 b1 69 bb
       0.00041731374 0.0029320382 -0.016153345 -0.003565905
000030 54 72 75 bc 9c 94 69 3c b8 cb 51 3b 96 c5 07 3b
       -0.014980871 0.014256623 0.0032012295 0.0020717136

running_mean f4 [16]
000000 30 fb f3 40 bc d2 81 41 b5 99 37 41 0f 46 fc c1
       7.6244125 16.227898 11.475026 -31.534208
000010 1e 96 ba c0 10 ab ea 41 5e 8c 01 41 e1 05 b5 c1
       -5.830825 29.333527 8.096769 -22.62787
000020 91 94 3c c1 8c 19 3b c2 4a 52 f0 c1 17 20 cd c1
       -11.786271 -46.77495 -30.04018 -25.640669
000030 48 f4 1b 42 e6 1e b1 c1 f7 8c 7a 41 e1 3a 7f c1
       38.988556 -22.140087 15.659415 -15.951875

running_var f4 [16]
000000 c4 63 a2 42 58 75 85 43 f3 21 8e 43 3f d2 98 43
       81.194855 266.91675 284.26523 305.64255
000010 c9 62 00 43 c8 56 a6 43 cc 3b b5 42 90 71 5e 43
       128.38588 332.67798 90.61679 222.4436
000020 26 82 90 42 01 52 25 44 88 f8 6b 43 c0 e3 50 43
       72.254196 661.2813 235.97083 208.88965
000030 a8 4b e5 43 95 fb 25 43 4c 89 a3 42 0a fc 3d 43
       458.59106 165.98274 81.76816 189.98453

weight f4 [16, 3, 5, 5]
000000 79 8c 29 3c dd e8 a0 3d ad ed 99 3d c1 39 42 3d
       0.010348433 0.07856915 0.07516036 0.04741836
000010 fa 32 b7 bd e6 3b b1 bc 51 0e 82 3d 8c 28 02 bd
       -0.0894527 -0.021635007 0.06350387 -0.03177695
000020 fd 25 85 bd 2e 9e f6 bc 0a 82 5a 3d 70 a8 65 3c
       -0.06501386 -0.030104723 0.05334667 0.014017209
000030 8a 56 1a 3d 1b 6c 9c bd bc 28 c3 3d 31 5a ec 3d
       0.037680186 -0.07637807 0.09529254 0.1154064
000040 a2 b6 9b bd ea 7d 99 3b 13 bd 4e 3b b0 5c e8 3d
       -0.07603194 0.0046841996 0.0031545802 0.11345804
000050 b9 32 fc 3c 74 1d 0f bd 36 88 94 bd 7a 57 89 bd
       0.030785905 -0.034940198 -0.07252543 -0.06706138
000060 95 73 db 3d b7 ca f8 3b bb 1a b4 3d f0 97 79 3b
       0.10715405 0.007592525 0.08794161 0.0038084947
000070 72 54 29 bd f1 db 60 bd c1 db b7 3d e2 53 1e bd
       -0.0413403 -0.054897252 0.089774616 -0.038654216
000080 3a d4 9c bd 7f c1 26 3d bf 25 53 bd b7 3e 5f 3d
       -0.076576665 0.040711876 -0.05154967 0.05450317
000090 70 3e 86 3d e6 77 99 3d 15 19 54 3d 91 79 39 3d
       0.06554878 0.07493572 0.051781733 0.04528195
0000a0 0b ae 93 bc 8b b2 4b 3d 48 cd 4a bc fc 11 17 3d
       -0.018027326 0.04973082 -0.012378044 0.036882386
0000b0 07 9c 9a 3b 34 b1 ad bc cb 46 9b 3d 77 8f 7c bd
       0.004718307 -0.021202661 0.07581862 -0.061660256
0000c0 6c 79 3d 3d d8 87 ec bc 3c 0d 5f 3d 73 b3 6e 3d
       0.046258375 -0.02887337 0.05445598 0.058276605
0000d0 91 37 72 3d cb b3 d8 bb 29 34 8d bd 95 6c 57 3d
       0.059135024 -0.00661323 -0.068947144 0.052593786
0000e0 00 3d 16 bd f5 bf 1d bd f9 96 9a 3c ac 50 ae bd
       -0.036679268 -0.038513143 0.018870817 -0.08511481
0000f0 7d ff a2 3c 58 e4 ca bd 06 8e 3e bd 7a c2 c5 bd
       0.019897217 -0.09906834 -0.046522163 -0.09656234
000100 68 fc c0 bc 4f d3 a1 bd 9e ea 6d 3c 94 a9 16 bb
       -0.023557857 -0.07901632 0.014521269 -0.002298926
000110 29 cf b6 3d d7 ce a8 bd 22 01 ba 3d 73 b8 61 3d
       0.089262314 -0.082425766 0.09082247 0.055107545
000120 17 14 82 3d 4d 09 26 3b 24 09 ab bc 33 c7 07 3d
       0.06351488 0.0025335134 -0.020878382 0.033148956
000130 60 54 1a bd 2f 5f 81 bd 97 60 05 3d 22 f4 3a 3d
       -0.037678123 -0.06316983 0.03256282 0.04564298
000140 55 4f 6a bd e1 d9 6d 3c 5f cb 24 bd 9b 1c 65 bd
       -0.057204563 0.014517278 -0.040233012 -0.055935483
000150 ae 25 49 3d 16 49 3d bd c1 c9 1f bd bd 4d 70 bd
       0.0491082 -0.04621228 -0.039010767 -0.058667887
000160 13 cd 7a bd 9b 88 12 bd c9 19 b2 bc f2 57 83 3b
       -0.06123073 -0.03577481 -0.021740811 0.0040082866
000170 20 f9 19 bd 30 4c 7e bd f0 8d 96 3c bb 04 42 bd
       -0.0375911 -0.062084377 0.018378228 -0.047367793
000180 c5 9a ce 3c ff 21 ff 3c d9 68 30 bd 83 a5 66 bd
       0.025220284 0.03114414 -0.04306874 -0.056310188
000190 66 47 fa bc 04 92 02 3c 28 82 a3 bc 8d 87 9c 3c
       -0.030551624 0.007969383 -0.019959524 0.019107604
0001a0 a8 c4 bd ba b2 30 0c bd 86 97 62 3c 00 ae 04 3d
       -0.0014478164 -0.034226127 0.013830071 0.0323925
0001b0 9d 45 1b 3c 5b b3 0e bd 29 94 77 3c 48 77 af 3c
       0.009477046 -0.034839015 0.015111008 0.021419182
0001c0 9c f2 89 ba 64 c4 4b bc 97 b3 ed 3c 66 f5 bf 3b
       -0.0010524574 -0.01243696 0.0290163 0.005858111
0001d0 a3 4b 9e 3c 2b a5 d3 3c c3 f3 ad 3c fd b5 32 3c
       0.019323176 0.025835594 0.021234399 0.010907647
0001e0 0d 89 ed bc 4c fb 1f bd a8 7d 79 3c bc ab a8 bc
       -0.028996015 -0.039058015 0.015227713 -0.020589702
0001f0 3b 96 3f 3d 8d 08 d6 3c 4d d3 ac 3b 22 ff d9 bc
       0.04677413 0.026127124 0.0052742125 -0.026610915
000200 c9 a2 db 3c f6 f3 bb 3c a5 5b 32 bc e3 d7 84 bd
       0.02681102 0.022943478 -0.010886108 -0.064864896
000210 cc 49 74 3b 53 d3 df bb 76 cf 65 bb 48 24 15 bd
       0.0037275432 -0.0068306117 -0.0035066283 -0.036411554
000220 0a 2d 3b 3d f5 62 88 bc f8 04 b0 3c da 09 4a 3d
       0.04569725 -0.016648749 0.021486744 0.0493258
000230 6e 83 87 ba 38 d1 bf 3c 00 78 59 b9 c5 6f 24 3d
       -0.0010338852 0.023415193 -0.00020739436 0.040145654
000240 4d db c3 bc 60 55 1b bb ae 9e 0d 3d 90 ed 1b bc
       -0.023908282 -0.002370201 0.034575157 -0.0095170885
000250 d4 92 1a 3d be da 4b 3d 92 76 93 bd d8 78 0e 3d
       0.037737682 0.049769156 -0.0720035 0.034783214
000260 90 64 fd bc f2 38 3e bd 19 1a 62 3c 80 0a af bd
       -0.030931741 -0.046441026 0.0138001675 -0.085469246
000270 20 17 fa 3b 82 4a b6 bc cc 16 2a 3d 89 7c 1d bc
       0.0076321512 -0.022252325 0.041525647 -0.009612211
000280 6f 3f e4 3b 8a 16 2e bb 83 2a 67 bd 9c a7 fc bb
       0.0069655697 -0.0026563727 -0.056437027 -0.0077104103
000290 f3 54 9e bd 78 72 19 3b b3 c4 9e bc d5 c2 11 bd
       -0.077310465 0.0023414176 -0.019380903 -0.035586197
0002a0 c2 2e 0a bc 1f 7d ba 3c d0 1c aa bd 96 4f a2 bd
       -0.0084339995 0.02276474 -0.08306277 -0.07925336
0002b0 ea a4 bf 3c 38 a5 d1 3c 2b 64 11 3d 27 93 05 bd
       0.023394067 0.025591478 0.03549592 -0.03261104
0002c0 fc c5 fd 3c 5c 76 1f 3c 4e 2b fe bc 37 e8 5f 3d
       0.030978195 0.009732809 -0.031026509 0.054664817
0002d0 87 ab 10 3d df 4c f0 3b 17 19 f8 3c 2d 7d 10 3d
       0.03531983 0.0073333825 0.030285401 0.035275627
0002e0 4f 1b 58 bd a2 a1 5d 3d b2 68 07 3b f5 0b 16 bd
       -0.05276042 0.054109223 0.0020661769 -0.036632497
0002f0 09 a4 24 3d f8 2e 6f bd 0b b6 93 3c e8 dc 13 3d
       0.0401955 -0.058394402 0.01803114 0.036099344
000300 6f 85 1c 3d 27 09 d6 3c 0b b7 8b bc 1d 28 35 3d
       0.03821319 0.026127411 -0.017055055 0.044227708
000310 8e 11 77 3c 41 91 61 3c a0 df 9e 3c c4 b3 1a bd
       0.015079869 0.013767541 0.019393742 -0.037769094
000320 a9 80 7a bd 61 fd f9 bc d2 d4 19 3c c0 b6 0b 3c
       -0.061157856 -0.030516328 0.009389119 0.008527458
000330 c3 08 69 3d 9d b1 63 3d e8 13 62 3d b9 78 e4 bb
       0.05689312 0.055589307 0.055194765 -0.006972399
000340 82 3d c2 3c 8d fe 8e bb 70 9f a2 3c 30 75 a8 3b
       0.02371097 -0.004363841 0.019851416 0.005140923
000350 60 65 89 bc 1b 0d 4d ba 81 62 13 3d a4 c1 14 3c
       -0.016771972 -0.0007822082 0.035982613 0.009079371
000360 db 45 53 bc ea 62 0d 3d f2 81 91 3d 13 6c 06 3d
       -0.012895073 0.03451816 0.07104863 0.03281791
000370 6e fe 7c 3d 91 1a 51 bc 28 3d f0 bb b4 96 39 3d
       0.06176608 -0.012762682 -0.007331509 0.045309737
000380 32 cf 09 3c 6d 53 ac 3d 19 bf 9a 3d 7a f1 53 bd
       0.008411216 0.0841435 0.0755598 -0.051743962
000390 a3 30 ab bd de 3e d8 bc 5f d3 18 3d 95 e0 5b 3d
       -0.08358886 -0.026397165 0.037310954 0.053680975
0003a0 05 3b dc bc 3e 5a a8 bd 04 0d ba bd 15 f7 9d 3c
       -0.026883611 -0.08220337 -0.09084514 0.019282857
0003b0 8b 3b ac 3d d7 67 ac bd 1b 80 a5 bc dd 67 7e bd
       0.084097944 -0.084182434 -0.020202687 -0.06211077
0003c0 d4 70 15 bd f2 83 f1 3c f1 19 12 3d 1c ef 1b 3d
       -0.036484554 0.029481862 0.03566927 0.03806983
0003d0 2c 01 2b 3d ed 3d d5 3c 10 a6 5a bd 35 03 0e bb
       0.041749164 0.026030505 -0.053381026 -0.0021669392
0003e0 cf 0b 36 bc cf d0 ea bc 1f 25 39 bd 7d dc 1a 3a
       -0.011111214 -0.02866402 -0.045201417 0.0005907489
0003f0 29 11 7f bd 84 36 c5 bd 7a bd 7a 3d 1f de 06 bd
       -0.062272225 -0.09629539 0.061215855 -0.032926675

bias f4 [16]
000000 e7 c1 7e 34 30 08 05 35 f0 de cb 33 54 3c f9 b3
       2.3726135e-07 4.9558275e-07 9.493476e-08 -1.160594e-07
000010 65 d5 95 b3 cb f8 0c b3 db 8a 60 35 b8 b6 86 b4
       -6.9771694e-08 -3.2822566e-08 8.3648564e-07 -2.509239e-07
000020 e8 4e 4c b4 11 d9 27 35 15 74 61 32 ac 72 87 32
       -1.9027686e-07 6.252822e-07 1.3123118e-08 1.5768215e-08
000030 f1 e8 92 b4 c2 f7 6a b4 70 f7 57 b5 8d a8 8a b4
       -2.7364106e-07 -2.1883082e-07 -8.045381e-07 -2.582714e-07

weight f4 [16]
000000 72 3d 59 3f 67 f2 55 3f 1f 90 5a 3f aa e5 60 3f
       0.84859383 0.83573 0.8537616 0.8785044
000010 a0 c1 4f 3f b8 b9 5f 3f 25 a8 46 3f d9 60 5c 3f
       0.81154823 0.8739276 0.7760032 0.8608528
000020 72 4c 5f 3f 73 09 5f 3f bc 3c 5d 3f 24 b7 53 3f
       0.8722602 0.87123793 0.864208 0.82701325
000030 e7 b0 53 3f 0b 83 5e 3f 64 bc 51 3f 70 98 67 3f
       0.82691807 0.86918706 0.81928086 0.90466976

bias f4 [16]
000000 d4 37 8c bc 0a 59 b3 3c c6 df 13 bd 98 66 87 ba
       -0.017116465 0.021893043 -0.03610208 -0.0010330258
000010 b4 1b 80 bc 71 1b c3 bb 2f f3 35 bc 0b 16 3e bb
       -0.01563821 -0.005954199 -0.011105343 -0.0029004838
000020 09 4e 7f bb bd d8 84 3c 4e 9f 46 bb 61 16 14 3b
       -0.0038956425 0.01621663 -0.0030307355 0.0022596347
000030 f0 92 d4 3a 15 59 ae bc a8 f7 09 3c ef f0 11 bc
       0.0016218107 -0.021282712 0.008420862 -0.008907541

running_mean f4 [16]
000000 7a 38 35 42 c4 38 bf c1 89 d8 63 41 2e 51 3c c2
       45.305153 -23.902718 14.240365 -47.079277
000010 aa 0b fa c1 94 1a d6 41 b4 00 6f c0 23 b9 c7 41
       -31.255695 26.762978 -3.734418 24.965399
000020 67 87 43 42 ec 5f 8b c2 a2 93 b9 41 b6 9f 92 42
       48.88223 -69.68735 23.197086 73.311935
000030 e0 fd 5b c2 82 a8 03 42 03 e1 77 c2 f9 3d 7d 42
       -54.997925 32.91456 -61.969738 63.31052

running_var f4 [16]
000000 b3 13 3a 44 35 d7 71 43 a8 a1 d3 42 4e ff 34 44
       744.3078 241.84065 105.815735 723.98914
000010 a5 90 e9 43 34 ca b6 43 18 e1 af 43 1d 4f 79 43
       467.13004 365.5797 351.75854 249.30904
000020 d8 c4 33 44 be ce a4 44 8b 0c 7d 43 da 7b c2 44
       719.0757 1318.4607 253.049 1555.8704
000030 93 9f 65 44 bc 8d 23 44 ef 65 7f 44 f2 b4 9d 44
       918.49335 654.2146 1021.5927 1261.6545

weight f4 [96, 48, 1, 1]
000000 eb e6 60 bd 22 ea 8a bd fd 8d 83 3d 1f 90 d8 3d
       -0.05490772 -0.067829385 0.064235665 0.10574364
000010 90 2f 62 bd 39 9b 77 3d 89 fe 8e 3d 57 8c 83 bd
       -0.05522114 0.060450766 0.069821425 -0.06423252
000020 e0 de 29 3d f7 93 94 3c db 67 9b bc 23 11 91 bc
       0.041472316 0.018136961 -0.01897042 -0.017708367
000030 68 fa b2 3d 63 20 57 bd 06 55 c6 bb 3d 34 8f bc
       0.087391675 -0.05252112 -0.006052616 -0.017480964
000040 85 79 79 3d 93 49 55 3d 08 09 ab 3d 46 a2 cf 3d
       0.060906906 0.05207212 0.08351332 0.10138373
000050 1d ce 10 bd d1 49 c9 3c 84 bd bb bc 60 89 b5 3d
       -0.035352815 0.024571331 -0.022917517 0.08864093
000060 c3 f5 12 bd 73 c3 87 bd 6c eb ac bd 25 2e 01 bd
       -0.035878908 -0.06629076 -0.08443341 -0.031538147
000070 ee ce 82 3d 11 77 95 bd 59 2e 2b 3c d9 72 8c 3d
       0.06387125 -0.07298101 0.010448062 0.06857843
000080 bc af 89 ba d4 f0 be bc 1e 53 32 3d 8d d7 77 bd
       -0.0010504643 -0.023308195 0.043536298 -0.0605083
000090 a0 cb 99 bb 56 a0 f5 3d 0a 85 3d bd 29 3a 11 bd
       -0.0046934634 0.11993472 -0.046269454 -0.035455856
0000a0 d6 c0 72 bc c4 4e 06 bd 9d ab d5 3c 71 b3 21 3c
       -0.0148164835 -0.03278996 0.026082808 0.009869442
0000b0 26 2d 98 3d 31 03 eb 3c 72 02 4b 3d 47 f6 9f bd
       0.074304864 0.028688045 0.04956288 -0.078106456
0000c0 e1 5d 35 3c 8f fd e1 bd a0 32 23 3b aa 38 10 3d
       0.011069746 -0.110346906 0.0024902 0.03521029
0000d0 9c a8 71 bc 7b 35 a5 bb 70 93 ef 3d 02 2e c6 3d
       -0.014749672 -0.0050417758 0.11698043 0.09676744
0000e0 1e 79 6e bc 2c bf 7e 3d c3 a0 3f 3d 0d ae 77 3d
       -0.014555244 0.062194034 0.046784174 0.060468722
0000f0 e9 00 ba bd 8a b6 95 bd 94 5b 35 3d 4f 7f b5 bd
       -0.09082205 -0.07310207 0.04427679 -0.08862173
000100 5b eb 76 bc 8b e6 82 bd 76 bc 1f 3d e1 6e 90 bd
       -0.015070762 -0.06391629 0.03899809 -0.070523985
000110 87 88 27 3c 3c 2e f2 bd 8c 0c 99 3d c2 4d 2c bd
       0.010225422 -0.11825225 0.07473096 -0.042066343
000120 f6 aa 89 3d c5 00 cf bd 59 ee e1 3d c1 60 40 3d
       0.06722061 -0.10107569 0.11031789 0.04696727
000130 37 ed e8 bd e2 74 ba bd 3b af 91 bd c3 21 30 bd
       -0.1137337 -0.09104325 -0.07113501 -0.043000948
000140 b4 6d 90 3c 5b 0f d4 3d c9 4d 9d bd 6d f0 5a 3d
       0.017630436 0.10354491 -0.07680852 0.053451944
000150 29 03 11 3d 71 21 c5 3d bb 96 74 bd 72 1a 79 3c
       0.035403404 0.09625519 -0.05971406 0.015204059
000160 52 9f 7e bd 1e 9f 2c bd 1a 88 02 be 6e 24 e2 3d
       -0.06216366 -0.042143933 -0.12747231 0.11042105
000170 4b f7 0f bd a3 53 c4 bd 23 b3 d1 bd 56 9f ce 3d
       -0.035147946 -0.09586265 -0.10239246 0.10088985
000180 2e d0 85 3d 38 b1 bf bd 3d 70 98 bc 10 09 03 3d
       0.06533848 -0.09359974 -0.018608207 0.031991065
000190 04 45 6e bc 26 2d db 3d f7 20 b0 bd 84 e8 de 3d
       -0.014542822 0.10701971 -0.086000375 0.108841926
0001a0 6f 5a 33 3d be a6 18 3c e7 50 c8 bd 01 a9 11 3b
       0.043787416 0.009317098 -0.09781056 0.0022225978
0001b0 3b 42 79 3c a0 8f 6e 3d e7 63 c6 3d 2b 5b b4 3d
       0.0152135445 0.05824244 0.096870236 0.088064514
0001c0 df 20 a6 3d 3e a8 d4 3d a9 a1 88 bd 28 c2 06 bd
       0.081117384 0.10383652 -0.06671459 -0.032900006
0001d0 59 c0 84 bd c6 0c f1 3c 43 5d d5 bd 47 36 a7 3d
       -0.06482 0.029425036 -0.10418179 0.081646495
0001e0 89 be c6 3d a9 5b df bd 21 35 a9 bc 18 0a 40 3c
       0.097043104 -0.10906155 -0.020655217 0.011721157
0001f0 65 52 90 3c 7c 42 86 bd 79 3a e6 3d fb b3 19 bc
       0.017617414 -0.0655565 0.112416215 -0.00938129
000200 5d 8b 7e 3d 71 0a 6c 3d 48 3d 04 3e a4 8e b3 3d
       0.062144626 0.057627145 0.12914002 0.08767441
000210 5d c8 cd 3b e0 a2 63 bd 59 47 30 bd b5 b0 04 bd
       0.0062799887 -0.05557525 -0.043036792 -0.032395083
000220 3e 48 6b 3c 27 e4 75 bd 3f 08 f7 3c 4a ca 47 3c
       0.014360486 -0.060032036 0.0301553 0.012194226
000230 ee 0e 87 bd 56 16 db bc 04 2c 34 3d 73 cf 01 be
       -0.065946445 -0.026744049 0.04398729 -0.12676792
000240 2b bd 10 bc ac 49 2a 3d 0f 75 91 3c 4a 0e 36 3d
       -0.008834164 0.041574165 0.017756013 0.04444722
000250 c9 3d 8f bc 77 20 0f bb 6c c9 af bc 9a 86 ad bd
       -0.017485516 -0.002183942 -0.02145835 -0.08472939
000260 ae ad b2 bd 6d e8 8a bd 24 0f c2 bd 12 5f 91 bd
       -0.08724533 -0.06782613 -0.09475544 -0.07098211
000270 cb e0 54 3d c1 fc 0d bd 3e 4b ac bc 3e 4a 89 3d
       0.05197219 -0.034664873 -0.021031972 0.06703614
000280 59 24 b1 3c 3a eb e7 bb 54 41 24 bc c4 87 d6 bc
       0.021623777 -0.0070776017 -0.010025341 -0.026187785
000290 d4 4b 93 3d 1b d3 36 bd 3f ef 38 bd 51 8e 33 bd
       0.071921974 -0.04463492 -0.045150038 -0.043836895
0002a0 ce e9 d0 bd 17 bf 42 bd 9f 99 e2 3d 9c c0 8e 3d
       -0.10200845 -0.04754552 0.11064457 0.06970331
0002b0 80 4c 80 bd 10 ce 70 3d 42 b2 be bd cb 0a 1d 3c
       -0.06264591 0.058790267 -0.09311344 0.009585093
0002c0 ed d5 93 3d 7d 70 7c 3d 53 04 c7 3d 40 43 c2 3d
       0.072185375 0.061630715 0.09717622 0.09485483
0002d0 54 6d eb 3d 26 70 09 bd bc 12 66 bd e3 7c ae bd
       0.11495462 -0.03355422 -0.05617021 -0.08519914
0002e0 cb 54 1b 3c 43 d1 da 3d e6 2f aa 3d 2b 18 7a bd
       0.009480665 0.10684445 0.08309917 -0.061058205
0002f0 c4 dd 6d bd 06 91 79 bd 57 2f 0d 3d b7 74 ac bd
       -0.05807282 -0.06092932 0.034468975 -0.08420699
000300 bf f7 94 bc ee de fe 3c 3f 3b 43 3a c1 34 46 bd
       -0.01818454 0.03111216 0.0007447488 -0.048390154
000310 07 a9 71 bd 3b 50 0e bc 91 00 3a 3d f7 5f 35 bd
       -0.058999088 -0.008686121 0.045410696 -0.044280972
000320 e0 93 c7 bc 5e 2e e1 3c b3 48 da bc 80 b4 f9 bc
       -0.024362504 0.02748793 -0.026645994 -0.030481577
000330 2a b0 32 3b bb 10 8f 3d f1 c3 28 bd a6 c9 ea bc
       0.0027265646 0.06985613 -0.04120249 -0.028660607
000340 85 18 4b 3d cf 82 ca 3c 3f 8b 93 3c 28 b4 9a bd
       0.04958393 0.024720578 0.018010734 -0.07553893
000350 f3 a6 4b 3c b0 5a 72 3d 1f 6a 36 3d 49 92 06 3d
       0.0124299405 0.059168518 0.0445348 0.032854352
000360 9f ef 60 bb 15 f3 27 3d a1 a8 49 bd 5f 73 05 3d
       -0.0034322513 0.041003305 -0.049233083 0.03258073
000370 a1 a3 42 bc 14 a3 03 bc 81 a2 f4 bc df 1e 67 3d
       -0.0118798325 -0.008034486 -0.029862644 0.056425925
000380 ba f7 4c 3c 44 0a 3c bc 82 cb 54 3d aa b7 2c bd
       0.0125102345 -0.011477057 0.051951893 -0.042167343
000390 b9 7f 17 bd 89 05 61 bc 5a d0 da bc e8 3c b2 bc
       -0.03698704 -0.01373423 -0.026710678 -0.021757558
0003a0 bd 9a 9e bd fd 34 db bc 55 9c 6a bc 6b 83 57 bd
       -0.07744358 -0.026758665 -0.014319499 -0.052615564
0003b0 3c 4a 89 3d ba ed 2c 3d 49 f8 02 bd ee 54 15 3d
       0.06703612 0.0422189 -0.031975064 0.03645795
0003c0 f0 a5 85 bd 5e 89 9f 3d 05 53 ce bd 88 3d 08 3c
       -0.06525791 0.077898726 -0.100744285 0.008315451
0003d0 6b 3c 04 3e 78 d0 a8 3d ff bf 92 bc 12 a1 6b 3c
       0.12913673 0.08242887 -0.017913816 0.014381664
0003e0 f0 3f a8 bd 9f a6 58 3d af eb 08 3d a2 db dd 3d
       -0.0821532 0.052893277 0.03342789 0.10832907
0003f0 81 18 e8 bd 2c da cf 3c 14 cf 21 3d 53 fd c9 bd
       -0.11332799 0.025372587 0.039504126 -0.09862771

bias f4 [96]
000000 eb ee 6a b6 c7 e8 22 b6 bc e9 54 36 8e 98 ae b6
       -3.5007786e-06 -2.4275375e-06 3.1726513e-06 -5.203364e-06
000010 10 28 06 38 36 40 b0 b4 a5 b2 1b b4 21 d8 a0 36
       3.19854e-05 -3.2829274e-07 -1.450049e-07 4.7935323e-06
000020 ed ee 46 b7 69 0c 90 b5 86 44 02 36 69 c0 b3 36
       -1.1857349e-05 -1.0732448e-06 1.9411395e-06 5.357015e-06
000030 f1 1e fa b4 02 81 a2 b5 30 c2 24 b2 ef 86 83 36
       -4.6588642e-07 -1.2107487e-06 -9.5902095e-09 3.9198126e-06
000040 06 f2 69 36 fa 8b 1f b6 1a d0 30 37 08 d3 17 36
       3.4860582e-06 -2.3774323e-06 1.053887e-05 2.262359e-06
000050 51 3c 8b b5 f8 15 f8 35 a3 35 74 37 d1 c2 1f b3
       -1.0373861e-06 1.8483834e-06 1.4556022e-05 -3.7197257e-08
000060 0f 1d b5 b5 ba 65 34 34 55 40 c2 b5 ce c4 3f b4
       -1.3494008e-06 1.6800814e-07 -1.447285e-06 -1.7859858e-07
000070 41 d9 b2 b5 dc 10 53 b6 bc 0e e7 36 b5 c9 2e b5
       -1.3325263e-06 -3.1451264e-06 6.886052e-06 -6.5113574e-07
000080 2e 28 18 b7 76 9f 38 36 fb 01 5d 34 e3 28 87 36
       -9.069261e-06 2.7510955e-06 2.058295e-07 4.0280734e-06
000090 59 ce a5 37 2b 1c a0 35 5f 74 84 b6 5c dd 53 35
       1.976562e-05 1.1929127e-06 -3.947454e-06 7.8925746e-07
0000a0 d8 4e 49 35 76 e0 a8 36 f9 a2 b5 35 6d 0e 4c b2
       7.499307e-07 5.032921e-06 1.3532982e-06 -1.1877643e-08
0000b0 86 df b0 b6 42 86 02 b7 e4 b4 d2 b5 0c a2 94 35
       -5.2712303e-06 -7.779863e-06 -1.5698865e-06 1.1074021e-06
0000c0 63 cf ed b6 93 94 52 b7 f5 2a b7 b6 3c 97 db 34
       -7.0872934e-06 -1.2551568e-05 -5.458826e-06 4.0901966e-07
0000d0 fc dc 93 b7 02 84 af b6 6e 97 57 36 37 3e e8 b7
       -1.762667e-05 -5.230774e-06 3.212564e-06 -2.7685526e-05
0000e0 83 ac 2b 37 91 1d 94 b6 c5 cd 85 37 0c 28 18 35
       1.023256e-05 -4.4141857e-06 1.5950654e-05 5.668269e-07
0000f0 2e 62 2f b4 d2 73 09 b7 bd da d5 35 83 e3 2b b7
       -1.6333863e-07 -8.192803e-06 1.5933398e-06 -1.0245366e-05
000100 1a f3 76 36 40 10 94 36 db 53 a2 b3 91 4b 8e b6
       3.679836e-06 4.4126355e-06 -7.558966e-08 -4.240727e-06
000110 60 ee 35 35 56 d6 e2 b5 1f d3 72 36 82 4e a8 36
       6.7774636e-07 -1.6900692e-06 3.6183699e-06 5.0159297e-06
000120 59 fa 98 36 8e 0c e7 b3 65 b0 c1 b6 4b 53 e2 b5
       4.5590973e-06 -1.07590594e-07 -5.7723832e-06 -1.6862554e-06
000130 67 49 87 34 15 c5 eb b6 1a d0 8c 35 8b c7 d4 33
       2.5199117e-07 -7.026489e-06 1.0491378e-06 9.908316e-08
000140 c1 2e 48 34 c7 37 26 b6 7c 13 8c b5 ed 68 d0 b6
       1.864346e-07 -2.4768394e-06 -1.0436484e-06 -6.211098e-06
000150 4c 05 d9 b5 b2 74 95 36 b7 09 0c b5 62 c8 c0 36
       -1.6169301e-06 4.454131e-06 -5.21682e-07 5.7453735e-06
000160 e6 0e 6b b5 61 c1 8b b6 db ea f3 b6 9c c9 50 36
       -8.7566e-07 -4.165035e-06 -7.269305e-06 3.1111767e-06
000170 cd b2 ae 36 af ca 92 b4 c5 4a 81 36 37 0d 6e b6
       5.2064192e-06 -2.734209e-07 3.853204e-06 -3.5472456e-06

weight f4 [96]
000000 d4 1e 47 3f 2b ec 49 3f e3 41 59 3f 7c 2f 42 3f
       0.77781415 0.7887599 0.8486616 0.75853705
000010 ee 06 47 3f 1d 15 3b 3f 23 c6 44 3f 22 34 46 3f
       0.7774495 0.7307909 0.7686483 0.774233
000020 3d 8b 4e 3f f8 bd 46 3f cd 8c 4b 3f 7e 4d 38 3f
       0.8068121 0.7763362 0.7951172 0.71993244
000030 44 69 45 3f 66 e9 48 3f 8a 00 4d 3f 26 25 4e 3f
       0.7711375 0.7848114 0.8007895 0.80525434
000040 c0 8a 44 3f 6d 31 46 3f 22 24 53 3f 8b 16 42 3f
       0.76774216 0.7741917 0.8247701 0.7581565
000050 e6 c2 45 3f 17 55 3d 3f c0 90 51 3f f6 80 3f 3f
       0.77250516 0.7395796 0.81861496 0.74806154
000060 b4 d9 4d 3f 7c 20 53 3f cb f6 4e 3f 34 34 45 3f
       0.80410314 0.8247144 0.80845326 0.7703278
000070 17 09 55 3f 85 25 3e 3f d3 00 50 3f 28 1c 44 3f
       0.83216995 0.74276 0.8125126 0.76605463
000080 d4 d9 56 3f 0f 1b 50 3f 1c 7d 4c 3f 35 ca 3f 3f
       0.8392613 0.8129129 0.798784 0.7491792
000090 ad 14 55 3f a5 d8 3e 3f b4 1d 42 3f 2e c3 3e 3f
       0.83234674 0.74549323 0.75826573 0.7451657
0000a0 9d d3 4b 3f 19 67 4c 3f 85 a4 52 3f 98 5f 43 3f
       0.7961977 0.79844815 0.82282287 0.7631774
0000b0 96 3a 3b 3f e1 00 44 3f 16 2f 4b 3f e1 de 4a 3f
       0.7313627 0.7656384 0.7936872 0.79246336
0000c0 3a b8 48 3f 52 83 45 3f 7f 32 41 3f 1b 9b 4e 3f
       0.7840611 0.77153504 0.75467676 0.8070542
0000d0 cc ca 4b 3f 84 30 42 3f 1e 96 49 3f 84 81 54 3f
       0.7960632 0.7585528 0.78744686 0.83010125
0000e0 2e f6 54 3f 6f 8e 3a 3f 12 3e 4b 3f 77 13 40 3f
       0.8318814 0.72873586 0.79391587 0.750297
0000f0 a3 22 3e 3f fc a4 4d 3f 23 6f 45 3f 41 0a 4a 3f
       0.742716 0.8032987 0.77122706 0.78921896
000100 cd de 45 3f 64 1d 47 3f 2b 57 41 3f 43 5c 43 3f
       0.7729309 0.7777922 0.7552363 0.76312655
000110 9b f7 37 3f 9c de 45 3f 01 e7 57 3f c4 ec 49 3f
       0.7186219 0.772928 0.8433686 0.788769
000120 af 5c 4b 3f 8b 42 44 3f b3 9a 39 3f 66 21 4e 3f
       0.794383 0.76664037 0.7250168 0.8051971
000130 e0 c6 48 3f 21 ee 3c 3f e7 8f 3d 3f ef 07 53 3f
       0.7842846 0.73800856 0.740477 0.8243398
000140 b9 eb 41 3f 98 f9 50 3f 4c d4 3e 3f 47 72 52 3f
       0.7575031 0.8163085 0.7454269 0.82205623
000150 87 89 40 3f e2 72 45 3f e1 b2 45 3f 9f 9e 50 3f
       0.7520985 0.7712842 0.7722607 0.81492037
000160 70 30 4f 3f bb 54 4a 3f d7 9e 3f 3f 8a 45 4d 3f
       0.80933285 0.7903554 0.74851745 0.80184233
000170 de ab 3d 3f 74 a2 51 3f fc bb 4b 3f 16 6e 47 3f
       0.74090374 0.8188851 0.79583716 0.7790235

bias f4 [96]
000000 cf 11 63 bc be 63 5e 3c dd b1 46 bc fb d5 66 bb
       -0.013859226 0.013573585 -0.012127367 -0.0035222757
000010 ea 91 de bb 31 2b 7c 3c 1b 13 0c bc 42 d1 4f 3b
       -0.0067922967 0.015391157 -0.008549477 0.003171042
000020 ca a2 9d ba c4 ef d4 3b ed 44 c6 bc 06 fa 77 bb
       -0.0012026664 0.006498309 -0.024202788 -0.0037838235
000030 b0 f8 7b 3c 28 aa 44 3c 3b 4d 3e 3b 29 a4 4e 3b
       0.015379116 0.012003459 0.0029037732 0.0031530953
000040 ba 1f 7d bc 5b 80 95 bc 72 a6 92 bc 70 be 95 bc
       -0.015449459 -0.018249681 -0.017901633 -0.018279284
000050 34 ba 6d bc ec d0 a3 3b f9 e4 ed bc a5 80 a1 bc
       -0.014509726 0.0049992707 -0.029039847 -0.019714663
000060 bf 35 1a bb 1a fb 6a 3c ba 14 79 bc 5f 08 32 3c
       -0.002353057 0.014342094 -0.0152026955 0.010866254
000070 e4 0c b1 bc fe 39 91 bc ea e9 ad bc 01 12 74 bc
       -0.021612592 -0.017727848 -0.021229703 -0.014896871
000080 70 6d 0f bc 0e 7d 0a bc a8 89 5f 3c 7c 17 3d ba
       -0.008754119 -0.008452667 0.01364366 -0.0007213277
000090 9b 65 c9 bc 41 bc 7c bb 42 3d 42 bd f9 6b eb 3b
       -0.024584582 -0.0038564357 -0.0474217 0.007184502
0000a0 d1 f3 a5 bc 1f aa 20 3c 18 e1 e3 3b f0 aa 2f bc
       -0.020257862 0.009806185 0.0069543235 -0.010721907
0000b0 13 d7 a4 bc e7 11 12 bc 77 20 41 3c ab 34 5d bc
       -0.020122087 -0.008915401 0.011787525 -0.013501327
0000c0 56 b9 3f bc f1 24 ae bc 88 ad 87 bc f3 8f 8c bc
       -0.011701902 -0.02125785 -0.016562238 -0.017158484
0000d0 91 cb 8a bb a9 20 22 3a 4d fd 85 bc ca 4d 32 bd
       -0.004235693 0.00061846763 -0.016356135 -0.043531217
0000e0 c1 45 0d 3c c5 b0 ad bb 36 0e 2a bc ee b9 29 bc
       0.008622588 -0.0053006136 -0.010379365 -0.0103592705
0000f0 1a e5 22 bc 14 db 9c 3b 0a 62 8a b8 cf c2 71 3b
       -0.009942317 0.0047868583 -6.598614e-05 0.0036889797
000100 6e 18 e4 bb a5 f1 c1 bb 49 e4 0d bb 8e a2 0b bd
       -0.00696092 -0.005918699 -0.002165096 -0.03409057
000110 dc d1 7c bc 2b fe 35 bc e0 90 3b bd 69 8c 47 bd
       -0.015430894 -0.011107962 -0.04579246 -0.04871789
000120 97 a5 c0 bb 45 e5 e2 bc 79 d4 13 3b e1 53 bf 3c
       -0.005879115 -0.027697215 0.0022557063 0.023355426
000130 e4 3e 83 3b 86 a7 6a bb 6e 56 ee bb 98 b9 84 bb
       0.0040053 -0.0035805418 -0.007273487 -0.004050445
000140 59 17 68 bc 0d a0 c6 b9 1b e7 48 bc 0e 9d 5f 3c
       -0.014165723 -0.0003788475 -0.012262131 0.013648285
000150 0b 2d 2c 3a 3b 7a 08 bc 7b 18 c1 bb 65 79 bc bb
       0.0006567991 -0.008329923 -0.005892811 -0.005751776
000160 e8 eb 7f bc 55 f4 26 bc b3 25 45 3c 80 c6 b0 bc
       -0.015620209 -0.010190089 0.012032914 -0.021579027
000170 c6 2a 2c bc e5 37 41 3c d7 e8 94 3b 7e 0f ea bb
       -0.010508245 0.011793111 0.0045443582 -0.00714296

running_mean f4 [96]
000000 c6 8c 02 3e 4d 20 f6 bd 41 26 0f 3e 71 12 a5 bd
       0.12749013 -0.1201788 0.13979436 -0.08060158
000010 3c cb f8 bc c8 95 42 bd 4a 8b 50 3d 02 7c 99 bd
       -0.030370347 -0.047506124 0.050914086 -0.07494356
000020 1b 74 73 3d 4c 9f 77 be 68 0e 7b 3d 06 88 f1 bd
       0.0594369 -0.2418186 0.061293036 -0.117935225
000030 fe 0b 19 be 6e f4 4f bd 86 13 12 3e 45 aa 4f bc
       -0.14945981 -0.050770216 0.1426526 -0.012674873
000040 98 fd 5e 3e cb 06 22 3e 6e 0d a8 3d 29 e2 85 bd
       0.21776426 0.15822904 0.082056865 -0.06537277
000050 b5 72 bd be 6c ee b8 bd 65 8d 6a 3e f7 c0 b1 3e
       -0.37001577 -0.0902985 0.229055 0.34717533
000060 79 f8 66 3d b7 db 64 3e 14 25 96 3d 6f 23 d5 3c
       0.056389306 0.2234944 0.07331291 0.026017873
000070 3a d8 dd bc e0 12 15 3d 0e 72 ba 3d 50 b6 92 3d
       -0.027080644 0.036394954 0.091037855 0.071636796
000080 f8 64 84 3e d8 12 03 3b 57 96 04 be c8 7f dc bd
       0.25858283 0.0020000245 -0.12947975 -0.1076656
000090 a1 da fe 3b 7f 73 20 be ba 98 62 bb c4 a4 87 3d
       0.0077775274 -0.15669058 -0.0034575895 0.066232234
0000a0 1c 89 93 3d 40 c4 85 3d 7a d2 84 3e d0 57 8f 3d
       0.07203886 0.06531572 0.2594183 0.06999171
0000b0 0f 63 28 3d 81 9b 48 3d b6 6f a0 bc f0 07 81 3e
       0.041110095 0.048976425 -0.019584518 0.25201368
0000c0 1d 00 b8 bc ef 15 f9 bd 08 12 09 3e b1 18 b7 3e
       -0.022460992 -0.121623866 0.13385785 0.35761026
0000d0 93 de e2 be 6c 44 21 be 8c 41 48 3e c1 bd 3c bc
       -0.44310436 -0.15748757 0.19556254 -0.01151985
0000e0 f3 55 14 3e d9 78 de bd 3e 6e cd 3d af 7b f3 3c
       0.14485912 -0.108628936 0.10030793 0.029722063
0000f0 00 8b fa ba 63 1a be 3c 02 d9 92 bd fd 14 af bc
       -0.0019114912 0.023205942 -0.07170297 -0.021372313
000100 ed 76 66 bd d4 1c e4 bd 4d 4b 90 3d ef e0 10 3e
       -0.05626576 -0.11138311 0.070456125 0.14148305
000110 61 5b bd 3d 94 4d 6e be 14 38 95 3d ca b7 cf 3d
       0.09245945 -0.23271781 0.07286087 0.10142477
000120 47 43 20 be 16 2b 8e 3e 63 4b a2 3d fa 84 0b bf
       -0.15650664 0.27767247 0.07924535 -0.5449978
000130 b7 1d 50 be 8b a8 e8 bc 39 c8 31 3b a9 58 4a 3d
       -0.20323835 -0.02840068 0.0027127399 0.04940096
000140 1d bb 66 3d c4 47 88 3d 9d 7a 9f 3d d3 d3 03 bd
       0.05633079 0.06654313 0.077870585 -0.032184433
000150 1f b6 19 bd 70 02 23 bd 4c 7e 36 be 65 39 75 be
       -0.0375272 -0.039797246 -0.17821616 -0.23947676
000160 ab d4 8c 3c 87 d7 a7 3e e3 bf 04 bd 75 4b 0e 3c
       0.017191252 0.32781622 -0.03240956 0.008684983
000170 c7 72 99 bd c7 9d 0e be 3a a2 c7 bd 5e b5 a5 3d
       -0.07492595 -0.13927375 -0.09747739 0.08091234

running_var f4 [96]
000000 be d8 92 3c 56 c5 d0 3c 88 62 7e 3d 6c 28 a7 3d
       0.017925616 0.025484722 0.062105685 0.08162007
000010 c5 68 6f 3c 85 f2 e6 3c 4d 53 0b 3c ff 2a 3c 3d
       0.014612381 0.028191814 0.008503747 0.04593944
000020 da f0 3e 3d 73 63 8c 3d 41 37 e2 3c 88 e9 d2 3c
       0.046616413 0.06854906 0.027614238 0.025746122
000030 03 1b 8b 3d 63 98 d9 3d e0 e6 37 3d 53 e5 83 3d
       0.067922615 0.106247686 0.044897914 0.064402245
000040 2c a6 d6 3c bf a9 94 3d 8e 2d a7 3d a6 d2 5a 3c
       0.026202284 0.07258939 0.08162986 0.013355887
000050 ba a7 23 3d fd 9a e4 3c 80 d6 0e 3d b2 11 35 3d
       0.03995488 0.027905935 0.034872532 0.04420633
000060 df 80 fc 3c 7e 4c 98 3d 01 08 87 3d 14 77 1c 3d
       0.03082317 0.07436465 0.065933235 0.0381995
000070 06 dc f8 3c 7c 6c 2b 3d af 5a e8 3c 91 d1 26 3c
       0.030378353 0.041851506 0.028363554 0.0101818
000080 de 05 79 3d 21 34 d8 3d 70 ae 10 3d b0 69 7b 3c
       0.06079661 0.10556818 0.035322607 0.015345022
000090 a2 eb 4c 3d 84 2d 96 3d c4 72 1a 3d 84 a2 43 3c
       0.050029404 0.073329 0.037707105 0.011940602
0000a0 e4 a6 41 3d a6 49 ee 3c 83 f6 3e 3d 5e 33 64 3b
       0.0472783 0.029087853 0.04662181 0.0034820656
0000b0 48 61 95 3c 73 4b d4 3c ac 18 27 3d f3 19 2e 3d
       0.018234864 0.025914883 0.040795013 0.042505216
0000c0 f9 62 09 3c 7b 7a 0c 3d 98 04 b9 3c 34 cb 16 3e
       0.008385413 0.034296494 0.022585198 0.14725953
0000d0 89 dc 1e 3d ef 72 31 3d 60 ab 49 3d 36 6f 47 3c
       0.038784537 0.0433225 0.0492357 0.012172511
0000e0 3d 9d ca 3c 93 f5 38 3d 72 ba 6d 3c 7a 93 9a 3c
       0.02473318 0.045156073 0.014509784 0.01886915
0000f0 3d ac 10 3d 6b 0c 8e 3c 19 c8 6f 3d 11 b2 2c 3d
       0.03532051 0.017339906 0.058540437 0.042162005
000100 78 b0 11 3d 38 06 55 3d 25 ed a5 3d a2 2b db 3c
       0.035568684 0.052007884 0.08101872 0.026754204
000110 16 78 9f 3c 54 eb 14 3d d8 fd 18 3d 29 d8 0a 3d
       0.019466441 0.03635724 0.03735146 0.033897553
000120 0d 88 7c 3d c8 78 5b 3d cb 60 c6 3c fb 04 4e 3d
       0.061653186 0.053581983 0.024216076 0.05029772
000130 7c 9c cd 3c 79 24 ab 3c 26 a1 a1 3c 4f 9f 8e 3d
       0.025099032 0.020891415 0.019730162 0.069639795
000140 0f ba 33 3d ce a4 44 3d c4 32 24 3d 5c 0c 2b 3d
       0.04387861 0.048008732 0.040087476 0.041759834
000150 a7 fe 7f 3d c3 25 39 3d 65 20 33 3d 2f 6f 14 3d
       0.062498715 0.045202028 0.043732066 0.036238845
000160 ff d2 38 3d 2b 8f 2e 3d 34 b0 01 3d 9a b2 2c 3d
       0.045123097 0.042617004 0.03166218 0.042162515
000170 18 11 b1 3c 29 29 b3 3d c4 af 1f 3d e2 00 80 3d
       0.021614596 0.08748085 0.038985983 0.062501684

weight f4 [48, 96, 3, 3]
000000 4c de 16 3a 84 27 66 3c 3c 90 cb bb 46 a2 4c 3c
       0.0005755171 0.014047507 -0.0062122624 0.012489861
000010 82 ec ee bc 97 99 77 bb ce e4 c5 3b 2b 77 26 bc
       -0.02916551 -0.0037780756 0.0060392385 -0.010160248
000020 91 78 82 bc f6 02 c3 3b fa cd 81 3c 2c 0b af 3c
       -0.015926631 0.0059512807 0.015845288 0.021367632
000030 62 28 83 3c b3 80 d0 3c d8 d0 dc 3b 40 19 6e 3b
       0.016010467 0.025451994 0.0067387633 0.0036330968
000040 6f 99 a4 bb 0f 21 40 3c 80 8a 8c 3c ec b6 c2 bb
       -0.0050231735 0.011726632 0.017155886 -0.005942216
000050 5a 9a c5 bc 7b f6 2f ba 5e 12 5a 3c f6 ab af 3b
       -0.024121452 -0.00067124487 0.013310043 0.0053610755
000060 9d 71 39 39 3c 9d b6 bb a3 52 8c bc 79 81 ad 3c
       0.00017685299 -0.005572943 -0.017129248 0.021179901
000070 43 ae 34 bb f9 a1 a5 3c 64 74 6b bb 1b 9a 61 3c
       -0.0027569688 0.020218836 -0.0035927529 0.013769652
000080 61 02 5b 3b 11 85 58 bb 71 1f 7f 3c 49 73 a7 b8
       0.0033418166 -0.0033038298 0.015571461 -7.984654e-05
000090 5d 68 88 3c 89 9e 08 bc b4 0a 88 bc 91 87 50 3c
       0.016651327 -0.008338579 -0.016606666 0.012727634
0000a0 ea 58 1a 3b e6 00 8b 3c af 40 5e 3c 76 b3 98 ba
       0.0023551532 0.016968202 0.013565226 -0.0011650163
0000b0 02 0a 24 3c 29 b0 ba 3c 89 0f c6 3b 42 73 80 3c
       0.010012152 0.022789078 0.0060443324 0.01567996
0000c0 5b 0d 15 3c 8a 84 29 bb 69 3a 1c 3c 2e 31 24 bc
       0.0090974225 -0.0025866353 0.00953541 -0.010021491
0000d0 58 18 73 bc 54 36 25 3c d2 f0 46 3c c7 76 88 ba
       -0.014837347 0.010083754 0.012142377 -0.0010411375
0000e0 96 62 a2 3b 84 8c 70 3c 31 a7 55 3c f0 94 78 3b
       0.0049556 0.014681939 0.01304035 0.003793057
0000f0 c2 e5 34 bb 32 75 08 bc 8c 08 77 3b 4e 81 02 3a
       -0.0027602767 -0.008328723 0.0037694303 0.00049783743
000100 f3 0f 14 bc 80 e6 96 3a c0 75 4c 3a 23 72 88 bb
       -0.009037006 0.0011512786 0.00077995285 -0.004163997
000110 28 a3 89 bb b7 99 74 3b 59 ab 20 3c 53 3a 29 bb
       -0.004200358 0.0037323066 0.009806477 -0.0025822117
000120 e5 97 8e 3b e3 8a 2c 3c 9b 02 75 3c b8 f7 ef 3a
       0.0043516033 0.01053116 0.0149542345 0.0018308079
000130 8f cb 79 3b 26 3a fd 3b 82 38 98 3c a7 0a bc ba
       0.0038115715 0.007727879 0.018581633 -0.0014346436
000140 27 35 36 3c 28 92 05 3b 4a bb 2c 3c 4a 64 5f bb
       0.011121071 0.0020381305 0.0105427 -0.0034086877
000150 ce a8 a4 3c 23 0e 94 3b 1a 0c 0c bc d4 24 99 3c
       0.020100024 0.004518287 -0.008547807 0.018694319
000160 2f 50 ab 3b fe 17 27 bb 6c a4 ca 3b 67 7a fb 3b
       0.0052280645 -0.0025496478 0.0061841514 0.0076745036
000170 78 f1 b3 3b 35 3a ae 3c 4d 55 b1 3c 0a 2b 41 3c
       0.005491432 0.02126799 0.02164712 0.0117900465
000180 23 64 af 3c 33 25 4f bb 8e 9d 09 3c 65 ff 35 bc
       0.021410054 -0.0031607866 0.00839938 -0.011108254
000190 35 6d 1e 3b 22 be 9a bb b8 99 6a bc e3 b3 24 bc
       0.002417398 -0.0047223726 -0.014318876 -0.010052654
0001a0 e8 51 0e b9 67 2d 80 3b 23 24 79 bb 93 85 82 bc
       -0.00013572688 0.0039116624 -0.0038015924 -0.015932834
0001b0 31 c4 bf 3c a9 70 9b 3c 42 4c 9b ba 35 32 14 3c
       0.023408981 0.018974619 -0.0011848288 0.009045173
0001c0 30 40 84 3c 2e 7c 07 3c 35 34 de 3c 9c ca 88 3c
       0.016143888 0.008269353 0.027124504 0.016698174
0001d0 86 83 82 3c b0 9d 2d bc 92 24 87 bc b7 ba 11 bc
       0.015931856 -0.010596678 -0.01649693 -0.008894614
0001e0 88 cb 85 bc 5b c0 bd bc ff 13 95 bc 97 58 ae bb
       -0.016332403 -0.023163011 -0.018198011 -0.0053206193
0001f0 f7 3f 03 bd 8d 52 ec bb ff e8 77 bb a8 d6 13 3c
       -0.032043424 -0.0072119893 -0.0037828085 0.009023346
000200 33 d7 5a 3c b5 b0 b9 3a 75 f6 88 3c 50 13 10 3c
       0.013356972 0.0014167043 0.016719082 0.008793667
000210 47 29 a9 3c d8 72 8a 3c 02 93 5c 3c 2d 83 a1 bb
       0.020649565 0.016900465 0.013462784 -0.0049289674
000220 42 9b 1b bc 4e eb a7 ba 85 2c e2 39 58 09 69 3c
       -0.009497466 -0.0012811215 0.0004313925 0.014223419
000230 b8 be 26 bc d7 34 91 3c 52 ef ce bb 16 ef 0c 3c
       -0.010177307 0.017725391 -0.0063151503 0.008601924
000240 5d 21 4a bc 6f 47 d9 3b e4 e6 20 39 a9 91 9a 3c
       -0.012337056 0.00663083 0.00015344803 0.018868284
000250 e2 0a 5d bc 95 b9 30 bc 8b a3 b5 bc eb c2 b9 bc
       -0.013491364 -0.010786434 -0.02217271 -0.022675952
000260 14 de 9f 3b b6 17 d7 3c ad 1c 59 3c ed 5e 66 3b
       0.0048787687 0.026256423 0.013251466 0.0035151795
000270 72 75 b8 3c 6c 22 93 bc 03 bb d3 3b ea 23 87 3c
       0.02251694 -0.01796075 0.0064615025 0.016496617
000280 cb 16 24 bc e9 66 da bc 49 53 98 3b 43 b2 dd 3c
       -0.0100152 -0.0266604 0.0046486002 0.02706254
000290 93 59 13 3c 87 39 dd 3c f4 f2 c8 3b 62 96 85 3c
       0.008993524 0.02700497 0.006132478 0.01630706
0002a0 0a 56 fd 3c 2d 5c 3f 3c 68 52 76 ba 21 c2 85 bc
       0.030924816 0.011679691 -0.0009396435 -0.01632792
0002b0 5d 53 91 bb 9d 67 d0 bc 05 67 5c bc 48 94 16 3c
       -0.0044349865 -0.025440032 -0.013452296 0.009190626
0002c0 52 6d 08 3c 93 cc a2 bb e6 86 33 bc 27 2b 9f 3b
       0.008326845 -0.004968235 -0.010957455 0.004857439
0002d0 c5 32 6b bc 80 de 86 3a 9d 5a 3a 3b 73 25 b8 3a
       -0.014355366 0.0010289699 0.0028435357 0.0014049247
0002e0 8e fe 75 3a ec f3 19 3c 3c eb 58 b8 d1 9b 81 3b
       0.000938394 0.009396534 -5.1717492e-05 0.0039553423
0002f0 2b 93 e3 3b 0b f3 e9 bb 24 66 8c 3b c4 c4 d0 bb
       0.006945034 -0.0071395687 0.004284637 -0.0063711125
000300 26 b3 dc b9 25 83 13 3c 84 68 4b bc dc 71 e5 3b
       -0.00042095146 0.009003435 -0.012415055 0.0070020985
000310 f7 16 45 3c 86 13 90 3b 17 87 e0 3c a7 66 4b 3b
       0.012029401 0.0043968586 0.027408166 0.0031036527
000320 8f 50 09 3c c7 6b c1 3c 6f 91 92 3c 7d 18 3d 3a
       0.008381023 0.023610963 0.017891614 0.0007213427
000330 9e 27 e5 bb 9e 3d 49 3c ed 4e 97 bb 71 5b 2c bb
       -0.006993248 0.012282757 -0.004617563 -0.002629962
000340 a3 84 05 3c d0 b4 14 3b e8 28 f2 b9 57 00 cd ba
       0.008149299 0.002269078 -0.00046188314 -0.001564036
000350 bf 2e 99 bc 41 16 77 3c 1b 25 db bb f3 af 97 bb
       -0.018699048 0.015080989 -0.006687773 -0.004629129
000360 6d 75 86 3a ff 4a f0 bb c6 96 b1 3b c7 5c a9 bc
       0.0010258384 -0.007333159 0.005419585 -0.020674122
000370 0c 71 a7 3c 7e 06 80 bb 39 da 82 3a 20 41 c0 bc
       0.020439647 -0.003907024 0.0009983248 -0.023468554
000380 b9 89 90 3c b9 65 1e 3c 80 00 1c bc 49 c1 64 ba
       0.017643796 0.009667807 -0.009521604 -0.00087263115
000390 19 31 49 3c d7 ed a2 3b 37 8c 57 bb e1 4f 69 3c
       0.012279772 0.0049722004 -0.003288997 0.014240236
0003a0 c5 18 83 3c ed 67 43 3c ee 1f b2 3b ef de b0 3b
       0.016003022 0.011926633 0.005435935 0.0053976695
0003b0 28 34 db bb 0b d7 85 3c df 0e 05 3b 91 1f 21 bb
       -0.006689567 0.016337892 0.0020303053 -0.0024585465
0003c0 9e f5 e4 ba 99 92 05 3c ae c5 83 bc b7 66 66 3c
       -0.0017468219 0.008152627 -0.016085472 0.014062575
0003d0 58 ff 6b 3c 85 d6 07 3b 9b 1b 13 3b 6e 08 9c 3c
       0.01440414 0.002072723 0.0022446874 0.019046988
0003e0 d8 c0 2e 3c eb 2b 66 3c a7 b8 14 3c 71 56 a9 3b
       0.010666095 0.014048557 0.009077228 0.0051677753
0003f0 bc 42 d5 bb 4e af 13 bc ad 18 66 bc 58 70 aa 3b
       -0.0065081995 -0.009013964 -0.014043969 0.0052013807
