weights/Adam.model.weights.pt (torch, 219383 bytes, 42 tensors)

weight f4 [16, 3, 1, 1]
00000000: 9f99 b6bd 5594 f43c 657b 523e 9443 8f3d
00000010: 5f50 543e bac4 b8be 1df4 263e 2d86 0e3e
00000020: cd1c ba3d 1701 4bbe 6a96 1cbd 959e 163e
00000030: 3340 25be 4e6d 9b3e 685d 97be 60fc e5b9
00000040: 8a2a 75ba a4e0 17bb d68e a33e c999 343e
00000050: f4d9 04bf 53b0 03be a4f1 033e bb38 333e
00000060: 1b96 0dbd d493 eabb 4f0e 57bd d455 07be
00000070: fdf2 4dbd 4d8a 8b3d 8705 ae3d 0187 cabd
00000080: 9b58 55be 430c 46be 38f3 883e b9c9 16be
00000090: 4d11 fdbd e5b6 a93d 376b 12bd 684e 3bbe
000000a0: c66d d43e c876 c4bd 7d9f 80bc e251 743d
000000b0: 5c98 65bb 04a0 163b 1119 833c ccb9 4c3d
-0.0891602 0.029855886 0.20554884 0.069953114 0.20733784 -0.3608759 0.1630406 0.13918371
0.090875246 -0.19824634 -0.038229384 0.14708932 -0.16137771 0.3035683 -0.2956345 -0.00043866318
-0.0009352347 -0.0023174668 0.31944913 0.1763679 -0.5189507 -0.12860231 0.12885147 0.1750211
-0.03456698 -0.0071587358 -0.05250388 -0.13216335 -0.05028056 0.06813488 0.08497148 -0.09889031
-0.20834582 -0.19340615 0.2674806 -0.14725389 -0.123568155 0.082868375 -0.03574678 -0.18291628
0.4149 -0.09592968 -0.01570105 0.059648402 -0.003503344 0.002298356 0.016003164 0.049981877

bias f4 [16]
00000000: 21bf d333 cfc1 af35 6985 f62f f83e 6234
00000010: c0ac ce36 576f 292f a3db 4ab7 1fbd 4fb6
00000020: a623 fd33 19ac 2fb2 8d9e 4034 9321 89b7
00000030: 467f c0b9 114a 36b5 dcad a4b2 4f5a 2f2e
9.860219e-08 1.3094922e-06 4.4841933e-10 2.1070798e-07 6.159389e-06 1.5410016e-10 -1.2091276e-05 -3.0955487e-06
1.1787715e-07 -1.0225471e-08 1.7939074e-07 -1.6347307e-05 -0.0003671592 -6.7908064e-07 -1.9171175e-08 3.9870603e-11

weight f4 [16]
00000000: 4313 383e 30ba 943d 13bb 493d 9792 333e
00000010: 7517 5a3e 5334 f43a 56e8 9a3e 4bed 853e
00000020: f56a 823d f5ac 0d3d 5222 5f3e 9c18 dd3d
00000030: c013 713e 0e56 9a3e f08f 773b 0a32 c13b
0.17976098 0.07262075 0.049250674 0.17536388 0.2129801 0.0018631316 0.30255383 0.26157603
0.06368057 0.034588773 0.21790436 0.107957095 0.2354269 0.3014378 0.0037775002 0.0058958577

bias f4 [16]
00000000: dcd3 32be 30ef 8f3d 7349 a9bd c1b7 eebd
00000010: f7f7 283e 5a77 96bb ac21 8f3e 8c44 6fbd
00000020: e6bc 073c baa5 c1bd f60e ebbd 4537 3c3e
00000030: 5c6b 163d f827 5f3e 1c0a 61bd 479b 06bd
-0.1746363 0.07028043 -0.082659625 -0.11656142 0.16500841 -0.0045918645 0.27955377 -0.05841498
0.008284783 -0.09455438 -0.11477463 0.18380459 0.03672348 0.2179259 -0.05494128 -0.032862928

running_mean f4 [16]
00000000: 2a09 2941 9b1b 12c0 fff6 0d42 c9e8 1dc1
00000010: c294 d7c0 db22 b7be 232d 6340 7af4 f440
00000020: fbc4 e0c0 e786 32c1 75be 8fc1 be45 3bc0
00000030: caca b0c0 7693 5041 e397 7840 8eea b740
10.564737 -2.282935 35.491207 -9.869332 -6.736909 -0.3576878 3.54963 7.6548433
-7.0240455 -11.157935 -17.967997 -2.9261317 -5.5247545 13.036001 3.8842704 5.747382

running_var f4 [16]
00000000: c986 1642 be49 8341 49ef c643 267c 1a42
00000010: aadc 1f42 3c62 283d 0957 1542 cb31 f941
00000020: 39e4 8341 c337 2942 7cc7 c542 db4b 6741
00000030: 44e1 7241 8c6c 1b42 70d7 7940 651f 2841
37.631626 16.411007 397.86942 38.62124 39.965492 0.04110931 37.334995 31.149313
16.486437 42.304455 98.88962 14.456019 15.1799965 38.856003 3.9037743 10.507665

weight f4 [16, 3, 3, 3]
00000000: 9f50 323c 4880 a03b 443b c63c 3cb7 323c
00000010: a895 193c 7a37 953c a8f6 a93c f338 df3b
00000020: 57f4 8f3c b306 543c 131c c43b 3b77 c03c
00000030: 7575 6b3c 1dfb 373c 0c40 c03c 58ea 503c
00000040: 85c3 b13b b6c5 743c 064a 403c 0ea0 a73b
00000050: 9a6e 723c 6d5a 3b3c 463e 063c c7a2 473c
00000060: 099f 4a3c 0b6f ff39 a43d fd3b a64d 2f3c
00000070: 5410 733d 28a1 063d 96af 3d3c c404 453d
00000080: df2a e43c 71c8 d23b d94a 0a3d fab9 173c
00000090: c2cb ea3a 0581 3d3d 0379 083d b3b5 48bb
000000a0: 8374 923c 3c3d c73c 09ef c63a 0460 df3c
000000b0: b17d 9d3c b45a b8bc a2a0 f63c 837e da3c
000000c0: 32ff d4bc 290a a5ba 1359 873c 3cfe b3bc
000000d0: bbb1 063c cdfd 2b3c 5772 f23d 243c 063e
000000e0: d4e7 a23d e16d 0a3d 440f 543c 5e62 44bc
000000f0: ccec 183e b495 f33d 0c30 c33d 5750 be3c
00000100: 9ee8 a23d 3f76 66bc c68f 6e3c b371 853d
00000110: 0a15 94bd 31e4 8f3d 3b7e af3d 2c78 a1bc
00000120: bf3b ae3b 3d1b 633d 3712 8cbd 2a96 32bc
00000130: 8f5a 793d ebf6 f6bd ce71 7b3d 7afb 473d
00000140: f22c 7abd eb30 9c3d 2dba bdbc eab3 2c3e
00000150: a601 d13d caca ab3d a76e 0b3b 708b 113c
00000160: 1ea4 873d ff24 373e 3cb9 59bc 5bf9 bebc
00000170: b6c0 a1bc cdc7 79bd 9587 e13d 8413 973d
00000180: 8ad2 09bd c1e0 89bd 5638 f2bd c699 35bd
00000190: 5261 e0bc de19 b33b 6577 bbbc fc2e d1bb
000001a0: e7de 5e3d a3cc 4fbd a620 e6bd c826 44bd
000001b0: 8b0f 2bbe 642b 1dbe 8132 023e 76a0 45be
000001c0: 84fc a4bd 08a9 f53c 5ec6 3fbe ab79 dd3c
000001d0: 0b60 053e d845 5dbd 0184 96bd 77e2 f13c
000001e0: aeed 823c 2944 83bd b36b 213d cb19 a8bd
000001f0: 1ac4 743d 0c3f 453e 0837 a53c 1fa4 89bc
00000200: 0f37 3e3b c8e8 e43d eccf bfbd 9ef2 433e
00000210: 514d 9e3d 462a cb3d 4329 ca3d 72e4 a33d
00000220: 3a36 feba 2dc4 cdbc 6bf6 313e 65ca 83bd
00000230: f02c aebd 2a04 7b3d b024 b3bd 3b79 bbbc
00000240: 8406 893d b7d7 15bc 60df a1bb 49d5 313e
00000250: ec63 8abd 27fc 61bd 6f42 913d f4f9 78bd
00000260: 00c2 2e3c 0242 4c3d 0327 52ba 9580 54bc
00000270: 3a92 3f3e 3591 37bd b441 66bd d521 203d
00000280: cfdc 92bd aca1 fa3b 8320 be3c d7b1 25bd
00000290: 67e9 c83d 62b2 12bd cebb e8bc cfca bb3d
000002a0: dbe4 8cbb f377 ccbd f8d6 ea3d 75ba a53a
000002b0: 51ae 60bd 543c 773d 29d8 e7bc cdd9 eebb
000002c0: 8c02 593d 091f d4bc e51f 0ebe bc88 e63c
000002d0: d2e4 2d3d dd86 43bd c0aa 7f3b 7a15 ae3c
000002e0: aa9b df3b bb63 fdbb 9bbc a13a f179 0fbe
000002f0: cdfb fabc 2ecb 04bb 1fdc 7b3c baa8 d2bb
00000300: 1125 27bd dded 10bd 52c0 24bc 6001 b9bd
00000310: 073b f3bc b451 923d dfac 1b3e ba77 903d
00000320: 5a04 b03d 5f81 81bd 6517 00bd 523e 9fbc
00000330: 09d6 213d 86e6 903d d8a0 303e d6c0 f23d
00000340: 5e5b 4b3c 772c 1c3d 41b1 793d 5005 c7bd
00000350: cb05 bebd e525 113d 1648 873a 6906 b83b
00000360: 8d05 323d 345c c23c 4138 7a3d 78f0 113d
00000370: 97ed 0b3d fa53 813d 65a5 c73c 5474 463c
00000380: 1a5c 453d c3a8 323d 10e9 c03c a900 613d
00000390: 7ab6 253d 97be 113d 66ae 613d 053e cc3c
000003a0: 5abd 013c 9522 023d 9fe2 643d da38 e43c
000003b0: d99f 2c3d 50ce 5f3d 942b 253d 3fff 253d
000003c0: 5d66 1d3d 7e1a 553c faa0 903c a96a de3d
000003d0: ac7c 2e3e f883 393e 69d1 cf3c b2d1 8f3d
000003e0: 2c70 8e3e 2bde 043e b424 453e 12f6 a43e
000003f0: f942 263c 807d a43d a9b6 24bc e3bd c6bc
0.010883479 0.004898105 0.024198182 0.010907944 0.00937406 0.01821493 0.020747498 0.006812209
0.017572565 0.01294105 0.005984792 0.023494354 0.014371266 0.011229304 0.02346804 0.012751184
0.005424919 0.014939716 0.011736399 0.0051155156 0.014796877 0.011435133 0.008193558 0.012184805
0.0123670185 0.00048720124 0.0077282954 0.010699665 0.059341744 0.032868534 0.0115775075 0.048100248
0.027852474 0.006432586 0.033762787 0.009260649 0.0017913508 0.04626562 0.03331853 -0.003062588
0.017877823 0.024321191 0.0015177439 0.027267464 0.019224973 -0.022504188 0.030105893 0.026671654
-0.026000593 -0.0012591529 0.016521966 -0.021971814 0.008221085 0.010497523 0.11838215 0.1310888
0.07954374 0.033796195 0.012943093 -0.011986343 0.14934081 0.11893788 0.095306486 0.023231668
0.079545245 -0.014066278 0.014560645 0.06515827 -0.072305754 0.07025946 0.085689984 -0.019710623
0.005317181 0.0554459 -0.06839412 -0.01090006 0.06087738 -0.120588146 0.06138783 0.04882381
-0.06107802 0.07626518 -0.023160065 0.16865507 0.102053925 0.08388288 0.002127567 0.008883342
0.066231 0.17885207 -0.013288792 -0.023312261 -0.019745212 -0.06098156 0.11012188 0.07376769
-0.03364805 -0.067323215 -0.118271515 -0.044336103 -0.027390156 0.00546573 -0.02288408 -0.006383775
0.054411795 -0.050732266 -0.11236696 -0.047888547 -0.16705148 -0.15348583 0.12714578 -0.19299492
-0.08055976 0.029987827 -0.18728015 0.027035555 0.13024919 -0.054021686 -0.073493965 0.029526932
0.015982475 -0.06409485 0.03940935 -0.082080446 0.05975733 0.19262332 0.020167843 -0.016801892
0.0029024517 0.11177212 -0.0936583 0.1913552 0.07729591 0.099201724 0.09871151 0.08002557
-0.0019394823 -0.025117958 0.17379157 -0.06435088 -0.08504665 0.061283268 -0.08747232 -0.022884956
0.06690696 -0.009145669 -0.0049399585 0.17366518 -0.0675734 -0.05517211 0.07092749 -0.06078525
0.01066637 0.049867637 -0.00080166775 -0.0129701095 0.18708125 -0.044816215 -0.056215003 0.039094765
-0.07171022 0.0076486673 0.023208862 -0.040452804 0.09810143 -0.03581465 -0.028409865 0.09169542
-0.0042997426 -0.09983816 0.11466783 0.001264407 -0.05485374 0.060360268 -0.028301315 -0.0072891475
0.052980945 -0.025893705 -0.13879354 0.028141372 0.04245455 -0.047736038 0.0039011687 0.021250475
0.0068239765 -0.007732836 0.0012339534 -0.1401136 -0.030637646 -0.0020262706 0.015372305 -0.006428805
-0.040806834 -0.035383094 -0.010055618 -0.090334654 -0.029691232 0.0714449 0.15202664 0.07054086
0.0859458 -0.06323504 -0.03127231 -0.019438896 0.03951076 0.07075219 0.17248857 0.11853187
0.01241192 0.038128342 0.060960058 -0.0971781 -0.09278449 0.03543653 0.0010321166 0.0056159985
0.043462325 0.023725607 0.061088804 0.03562972 0.03416213 0.063148454 0.024370858 0.012112696
0.048183538 0.043617975 0.023548633 0.05493227 0.040457226 0.03558215 0.05509796 0.024931917
0.00791868 0.03177126 0.055880185 0.02785914 0.04214463 0.054640114 0.040324762 0.040526625
0.0384277 0.0130068045 0.017654885 0.108601876 0.17039746 0.18116748 0.02536841 0.07022418
0.27819955 0.12975375 0.19252282 0.32218987 0.010147803 0.0803175 -0.010053315 -0.024260467

bias f4 [16]
00000000: d212 2a29 d038 84b2 da1d 07b2 74fc 5734
00000010: b5b5 01b5 ce54 74b5 a0de 3eb2 87bc c4b3
00000020: d679 f932 ae01 1834 c86e 9b34 c75c 41af
00000030: c32c 43b5 ca8d ad33 596f 9ab2 9af5 312f
3.7763907e-14 -1.5392658e-08 -7.864822e-09 2.0115277e-07 -4.8320663e-07 -9.102049e-07 -1.1110075e-08 -9.161254e-08
2.904282e-08 1.4156714e-07 2.8951604e-07 -1.7586209e-10 -7.27083e-07 8.0817316e-08 -1.7978595e-08 1.6185311e-10

weight f4 [16]
00000000: 0716 79bb bd37 363c dc26 233e d1d2 7e3e
00000010: e658 933e d574 7d3e 2bc7 0f3e 73b5 393e
00000020: 8fe1 813d 5a1e 753e a25d 183e a509 6039
00000030: 4222 e73d e451 093d f2b8 be3e 2eb5 b73b
-0.0038007514 0.0111216875 0.15932792 0.24885108 0.28778762 0.24751599 0.1404082 0.18135624
0.0634185 0.2393736 0.14879468 0.00021365898 0.11285831 0.033525363 0.37250477 0.005606315

bias f4 [16]
00000000: 7c4a 4abc 5f07 88bd 5d88 abbd ebcd 45be
00000010: fd2f 99bc a497 97bd 0df5 6fbd 940c 413e
00000020: 5262 9fbd 962f f33d 740c a7bd 764d e2ba
00000030: 8457 063c 7341 97bc faa9 1fbe cfad a6bc
-0.01234686 -0.06642031 -0.083756186 -0.19316833 -0.01869964 -0.0740197 -0.058583308 0.18852454
-0.07782425 0.11874311 -0.08156672 -0.0017265517 0.008199576 -0.018463826 -0.15592185 -0.02034655

running_mean f4 [16]
00000000: 0251 f641 fef0 2742 9d1d b942 d653 e341
00000010: c89d a440 1408 7f41 5770 95c1 ae3e 0e42
00000020: 1107 a442 abd7 2143 2d00 c240 db25 0cbe
00000030: 39cb 8ec2 4841 b7c0 c8cc 0242 a099 a1c1
30.789555 41.985344 92.55784 28.415936 5.1442604 15.939472 -18.679853 35.56121
82.0138 161.84245 6.0625215 -0.13686316 -71.39692 -5.726719 32.69998 -20.200012

running_var f4 [16]
00000000: 8061 8743 4788 0444 e107 2745 22bc b043
00000010: 8736 b643 3bdc b843 74db 5843 2386 ae43
00000020: ffa7 fb44 8a3f 1b46 4066 8543 ef18 ca3b
00000030: 9420 c744 a76f 2541 6d86 c943 0b98 f342
270.76172 530.12933 2672.4924 353.4698 364.426 369.72055 216.85724 349.04794
2013.2499 9935.885 266.79883 0.006167523 1593.0181 10.339759 403.0502 121.79696

weight f4 [16, 3, 5, 5]
00000000: c3e1 b0bd f1ed b43c bcc6 9f3b f8df c2bc
00000010: c02d 2dbd 32d4 3e3d 5fb9 adbd 080b 21bd
00000020: 8d4d 413d c33c 1c3d 6464 db3d fcaa bdbe
00000030: a390 a83d 3d65 1a3e 67a7 613d 9671 4c3c
00000040: 5b3d 1ebe ec28 99bc 52ad be3d 10aa 8a3d
00000050: 0bf8 a7bd 803a 063d 7e01 193d 4b15 2abd
00000060: cf80 8dbd 22ed ae3d ea92 183e cacd 123e
00000070: 3191 393d 376d de3c 4a77 0b3e 0e87 7ebc
00000080: 5c61 9f3c 713a df3c 52a2 48bb 9846 1e3e
00000090: 8211 61be 75c8 f33d 641c c5bc b8dc 60bd
000000a0: 09f9 bf3d 6684 14bd f702 1fbd 8d0e a5bc
000000b0: a006 8ebc 35d4 ce3c 8c3b 303e 2f5e 023e
000000c0: 0ff5 573d 0d27 993a 9fb4 cbbd 0a0a af3c
000000d0: d72a 95bd 369f 1bbe aa64 4ebe 6c18 7ebd
000000e0: 5faa 0fbd d26c 5ebd 9308 4bbc 6111 d8bc
000000f0: a06d a2bc c427 8dbd 3497 a23d 0638 453d
00000100: 3622 8e3d 7a77 d1bc fdb5 ea3c 8753 90bd
00000110: 1230 4d3c 3a84 353d 2e1d 0ebe 4778 283d
00000120: 8586 8ebd f9f5 04be dd85 0bbe cd5c 49bd
00000130: cb63 4fbd d37f f2bd 190c 4ebd 8ba2 90bc
00000140: f7da 2e3d 93a2 3abd abe9 01be 8448 90bd
00000150: 20b3 24bd 0912 8e3d f588 e1bc 0e6f c5bd
00000160: 2a5d 80bc 039f 923d be82 f43b c3d3 5dbd
00000170: 3baf cbbd b485 56bc 9fa8 b23d ef6c a7bc
00000180: a169 34bc 4518 6fbd 37c4 95bd 0935 b83b
00000190: dc0d 8bbd 39b4 45bd aa73 e6bd 6d94 8ebd
000001a0: ea29 80bd 585c 1e3d 3024 b1bc 8f13 bebd
000001b0: 4a28 8cbd 9139 88bd 2f96 943d 9d3e 413b
000001c0: c9ad 8fbd 3c70 b83c 3d8e 813d 5591 963c
000001d0: f257 87bc 06ab 6bbd 0e0e aa3b 2f91 533d
000001e0: 572f fbbc 62f6 70bc 2abf 7bbd 88bb c1bd
000001f0: 29d8 57bd de8a c9bc 0117 f5bb de1a 99bd
00000200: da8b 16bd f30f dfbc 2b68 cf3c 4f46 48bc
00000210: 5585 90bd e81c 76bd ed3d 14bd 2600 ff3c
00000220: bb76 8bbc 1521 95bd d695 613c 468a ce3d
00000230: ae4a f5bb 3224 03bd 3323 73bd fb3f 29b9
00000240: c4a1 b53d 25a9 abbc 3fac e1bb 7421 23bd
00000250: a014 a2bd 7509 84bc 23f1 65bd 8979 f3bc
00000260: 715c 0fbd d2d9 25bc dacf 7dbc 0261 1ebd
00000270: de90 873b b292 e3bc 1f5c 9dbb 33d5 b4bc
00000280: ca48 b6bc 06d7 393c d613 f0bc 7a41 1fbc
00000290: 1d56 91bc 9581 1ebd 5bc3 d0bb 2eb1 bbbc
000002a0: aded dcbb d558 dcbb 5161 2ebd d944 27bd
000002b0: 6bc0 e9bc f63e c3bc 6481 dfbc 0ea6 c5bc
000002c0: ae1e 22bc 5a4e 87bc fbaf 5e3a 79d9 11bc
000002d0: 26c0 e3ba 211b 5a3c 26ee 4fbc 79c3 ab3b
000002e0: a722 39bc ebb4 d939 f208 573c f6b5 a2bc
000002f0: 8639 f73a 42ff 15bc ee7c 44bc 8bf8 043c
00000300: af35 51bb 22d8 e73a 619c 81bb b6ac 39bc
00000310: 6ea7 8abc 2484 1abc cce6 38bc f27f 94bc
00000320: 9031 9bbc a0bf 70bc ce35 8bbc 9667 25bb
00000330: 2b87 1ebc 9ce5 8a3b 9d8b 083c 0dad 64bc
00000340: 03b1 773b f54c e5bb 21e5 b5bb d865 033a
00000350: 33d8 9ebc 79a6 2539 b122 3fbb 6d24 9abc
00000360: 22bf 1bbb da0e 9dbb 0b7f 1a3b 4dda 0a3b
00000370: d372 a7bc 1008 e6bc 1644 8abc 194a 47bc
00000380: a1e1 81bc 4f2c 5d3e 5081 283e b936 0b3e
00000390: 7ef0 dc3d 7f44 db3d 8694 103e f4f3 aa3d
000003a0: 02da 953d 0eb0 543d 4f19 4d3d 7758 0c3e
000003b0: 33e7 043d af93 79bc 4860 f7bc 7215 98bc
000003c0: 3e3e dd3d 85d5 8d3d 8a93 003c 7697 183d
000003d0: d57a af3d 2eb4 b53d f0bd d83d c30c df3d
000003e0: f082 923d d6dc 5b3d 4f87 b63d ffbc 963d
000003f0: 7e86 683c abac 51bc 6947 07bc 855b 673d
-0.08636811 0.022086116 0.004875986 -0.023788437 -0.04227996 0.046589084 -0.08482622 -0.03931716
0.0471931 0.038143884 0.10712507 -0.37044513 0.08230712 0.15077682 0.055091288 0.012478253
-0.15453093 -0.01869627 0.09310402 0.06770718 -0.08201607 0.032770634 0.03735494 -0.041524213
-0.06909334 0.08541323 0.14899793 0.14336315 0.04530448 0.027151687 0.13619724 -0.015535129
0.019455604 0.027249547 -0.0030614329 0.15456617 -0.21979335 0.119034685 -0.02406139 -0.054897994
0.093736716 -0.036259077 -0.038821187 -0.02014854 -0.017337143 0.025247673 0.17210215 0.1273124
0.05272394 0.0011684612 -0.0994656 0.021367092 -0.07283562 -0.15197453 -0.20155588 -0.06203501
-0.035074588 -0.054302998 -0.012392181 -0.026375474 -0.019827664 -0.0689235 0.07938996 0.04814913
0.06940119 -0.025569666 0.028651232 -0.070471816 0.012523668 0.044315554 -0.13878319 0.04113033
-0.06959251 -0.12984456 -0.13625284 -0.049160767 -0.05063228 -0.11840787 -0.050304506 -0.017655632
0.04268929 -0.0455652 -0.12686794 -0.07045081 -0.04020989 0.06937034 -0.027531127 -0.096403226
-0.015669424 0.07159235 0.0074618747 -0.05415703 -0.09945532 -0.013093401 0.08723568 -0.020437686
-0.011011512 -0.058372755 -0.07312816 0.0056215567 -0.06789753 -0.048267577 -0.1125253 -0.06961904
-0.062579945 0.038662285 -0.0216237 -0.09281074 -0.06843622 -0.06651605 0.07255208 0.0029486783
-0.07015569 0.022514455 0.06325958 0.018379847 -0.016521428 -0.057536148 0.0051896637 0.05165213
-0.030662222 -0.01470718 -0.061461605 -0.09459597 -0.05269638 -0.02460235 -0.007479549 -0.07475828
-0.036754467 -0.027229285 0.025318226 -0.012223794 -0.07056681 -0.06008616 -0.03619187 0.031128
-0.017024389 -0.072817005 0.013768634 0.10084967 -0.007485709 -0.03201694 -0.05935974 -0.0001614093
0.08868745 -0.020954678 -0.0068869884 -0.039826825 -0.0791409 -0.01611779 -0.05613817 -0.029721038
-0.03500027 -0.010122733 -0.01549145 -0.038666733 0.0041371426 -0.02777991 -0.0048022415 -0.022074318
-0.022251505 0.0113427695 -0.029306334 -0.009720201 -0.017741257 -0.038697798 -0.0063709444 -0.022911634
-0.0067422003 -0.006724457 -0.042573277 -0.040837143 -0.028534135 -0.023833733 -0.027283378 -0.024127033
-0.00989501 -0.016516853 0.0008494851 -0.008901947 -0.001737599 0.013312132 -0.012691056 0.005241808
-0.011299766 0.0004152426 0.013124691 -0.019862156 0.0018861748 -0.0091550965 -0.011992676 0.008115898
-0.0031922867 0.0017688314 -0.0039554094 -0.011332681 -0.01692554 -0.009430919 -0.011285495 -0.018127415
-0.018944532 -0.014694124 -0.01699343 -0.0025238744 -0.009675781 0.0042387974 0.008334068 -0.013957274
0.0037794716 -0.0069976994 -0.005550996 0.00050124293 -0.019390201 0.00015797642 -0.0029164965 -0.018816197
-0.0023765047 -0.00479303 0.0023574259 0.0021187246 -0.020440495 -0.028080016 -0.016878169 -0.012163662
-0.015854659 0.21598934 0.16455579 0.13595094 0.10788058 0.10706424 0.14119157 0.083473116
0.07316972 0.05192571 0.050072964 0.13705622 0.03244705 -0.015232964 -0.030197278 -0.018564913
0.108028874 0.06925491 0.007847676 0.03725382 0.0856835 0.08872257 0.10583103 0.10891106
0.071538806 0.053677402 0.08912527 0.07360267 0.014192222 -0.012797515 -0.008256772 0.056483764

bias f4 [16]
00000000: 9488 7135 1202 01b4 7b35 07b1 9e98 99b4
00000010: c1f2 b9b4 5f20 5423 f8a3 10b5 e950 4232
00000020: e880 8f32 c11f 4832 2325 bcb5 4d9b ba35
00000030: 1f26 e62d 1e14 8030 5a2c 562d 9510 7435
8.9978244e-07 -1.2014814e-07 -1.9675486e-09 -2.8609514e-07 -3.4635562e-07 1.1499398e-17 -5.3882786e-07 1.1310683e-08
1.670601e-08 1.1648752e-08 -1.40179e-06 1.3903278e-06 2.6164902e-11 9.318943e-10 1.217434e-11 9.0921213e-07

weight f4 [16]
00000000: 41c2 983e 06cc c33d 9250 8f3c fbc5 923e
00000010: e37b 2a3e d474 d5b7 0520 453e a6e7 7f3d
00000020: 13f8 8e3e d009 eb3c 27b8 473e cab0 853e
00000030: 09bb 87ba 949e 6e3c ec34 093d 1e9c 653e
0.29835704 0.09560399 0.017494474 0.28666672 0.16648822 -2.5445981e-05 0.19250496 0.062476777
0.2792364 0.028691202 0.19503842 0.26111442 -0.0010355423 0.014564175 0.033497736 0.22422835

bias f4 [16]
00000000: 016e 95bd ac4c 6bbb f835 4fbd f2cf 1d3c
00000010: 21fc c3bd 4606 43ba c0cc a13c d88e f0bd
00000020: 15dc 41bc 1f23 93bc 1cff e03d 3c3b 4abe
00000030: 368e 32bb d96c 77bd f963 9cbd 4787 d33d
-0.07296372 -0.0035903854 -0.050588578 0.009632098 -0.09569574 -0.00074395945 0.019750953 -0.11745995
-0.011832257 -0.017961083 0.10986158 -0.19749159 -0.002724541 -0.06040654 -0.07636256 0.103285365

running_mean f4 [16]
00000000: 3278 03c2 a122 35c3 63cb a1c2 ca28 f642
00000010: 02a8 fdc0 e5b4 6a3e 61ce 93c2 3420 38c1
00000020: 8042 dd42 46b7 d8c1 6738 dc3f c5d1 adc2
00000030: c723 a23e 88b7 ca42 dfd2 b9c1 a106 6fc2
-32.86738 -181.13527 -80.89724 123.079666 -7.926759 0.22920568 -73.90308 -11.507862
110.62988 -27.089489 1.7204713 -86.909706 0.3166792 101.35846 -23.227964 -59.756474

running_var f4 [16]
00000000: 57c7 5144 2c02 0d46 c1a5 d344 4e9b a245
00000010: b97a 0744 955f 803c 1a6f fb44 f40d 2343
00000020: 5f07 7645 be88 3a43 ab18 6344 4e00 3545
00000030: 77c1 153d 7041 1f45 8b3c 6743 7ccc 0345
839.1147 9024.543 1693.1798 5203.413 541.91754 0.015670577 2011.4719 163.0545
3936.4607 186.53415 908.38544 2896.019 0.036561456 2548.0898 231.2365 2108.7803

weight f4 [96, 48, 1, 1]
00000000: 8b8f f2b4 f96e 92b3 26e3 c037 65f5 c7b3
00000010: 9d75 a134 7d13 fd32 5b69 68b6 ce69 cb33
00000020: ab43 4037 8d68 c4b6 d843 c534 cdc0 e037
00000030: e22b 0d36 6099 41ad 61e0 3333 ae62 a9b6
00000040: 2f48 4438 ce14 1437 b03d 8b36 565f 58b3
00000050: b011 1cac 718b 1537 304b ae35 c845 42b0
00000060: 1295 f2b7 5cff a8b7 a909 0db7 36af 48ab
00000070: 0f2d 5f35 5ee2 cab7 6fa4 33b5 540a 7d35
00000080: 7607 67b5 f075 6f2d f184 dd32 df57 98af
00000090: 6774 ec30 ba25 0339 90f2 afb6 9953 0eb5
000000a0: 8cff a8b3 afd8 0438 b214 6338 8c72 3d36
000000b0: d573 f236 445b 6434 3b16 0a36 c961 8ab1
000000c0: d9e8 9eb9 9c35 8638 5a31 47b5 7382 02b9
000000d0: 30ad 4a37 9b3c b636 6bfb 653a 5f62 1038
000000e0: 32c6 8e37 1179 c233 953a a338 60fb 77b8
000000f0: 8e9c bd35 966d 7eb9 3fe7 f233 a291 6434
00000100: 3499 9331 2cd8 4b36 a6df 30b8 0e3f 2e39
00000110: d855 d638 2b32 8cb8 1b5e 0038 71ff e6b8
00000120: 1a8b 6237 ab26 2139 5474 5736 9363 9036
00000130: f34f c9b7 44d4 b436 eee4 c5ba f4c7 8a32
00000140: 0772 43b8 e53b b438 4c8f fa38 870b 23b9
00000150: ca7e 91b7 bdcc 1ab3 16c8 22b7 7c83 1239
00000160: 26fd 1c39 b82b c3b5 0e0a ea37 b2a7 97b8
00000170: 49a5 d4b4 d44f 58b7 1f6d 8c36 dc7e 393a
00000180: 05dc 0e3b ab07 bbbb af04 82bb 0fed 80ba
00000190: 4639 183a 165f 503c 297d 0dbc 3d29 dc3c
000001a0: bd0a 943b d607 a7bb 1857 26bc 2495 1b3c
000001b0: 082d 2d3b d01b c83b 8630 033c aa55 1e3c
000001c0: df48 c13c 545d 5f3c 1446 04bc 2b04 83bb
000001d0: 3f34 d23a 7406 983a 468b 18bc f5c5 853b
000001e0: c8f4 973c d5a5 c9bc 280a 19bc f57c 8d3b
000001f0: 2c6a fe3b 53fb b2bc fe94 0d3d 993f 1abb
00000200: c941 973b 8ce6 fc3b 33bd c13c c94c fc3a
00000210: 6efc d5bb e3f5 cfbb 5f25 d7bb 5356 953b
00000220: 90af 6dbb b095 72bc 8522 2a3c 0c74 d13a
00000230: b513 3abc 6909 d83b 4957 8db9 9661 ffbb
00000240: 377b d7ba 4e1e 8b3b a2dd 9db9 017b f9ba
00000250: 3341 a6ba 12f3 c937 c89e 173c f6ee 9cbb
00000260: 75c1 f4b8 ab6e 5f39 48e7 e8b8 4b09 b8b8
00000270: 576c 77ba 08d0 4ebc 676a 11b9 8c9f 5637
00000280: 24b3 0239 7bf6 b036 0fab 153b f262 833b
00000290: 06ed 08bc 4780 bfb9 0fe6 b7b9 36e3 c2bb
000002a0: a5ac 8b3a fc4d 123b e71c de39 ecc5 88b7
000002b0: dc36 ccba 606a 3ab9 3a24 edbb 2051 b332
000002c0: c452 f53a bfb3 403b 90d2 dd3a 2e4b 773c
000002d0: 9e6e 2fba 2099 a7ad 48fc af39 ffd1 8b3b
000002e0: ff50 1eba bc8a cf39 1370 473b 1493 243b
000002f0: d834 a437 8717 5b3a 440b 9b3a 3980 573b
00000300: 13e3 6638 2579 1ab7 0dd3 b139 0571 c936
00000310: 1e78 28b9 eb98 9333 346a 91b8 787a 303a
00000320: 4b63 8639 bdaf 4c39 c2ea 56b8 e478 9ab8
00000330: aea2 4639 960f d1b7 1406 0234 0cf0 4b39
00000340: ea85 0a3a dcff 1bb9 825e 6b34 0e2b c2b3
00000350: edda fc38 d627 d739 4189 cc3a 7747 81b5
00000360: 6f67 ab39 bf13 fab7 21a3 6735 9b84 99ae
00000370: 954a e1b7 8836 a536 44cb 72ba c367 ef38
00000380: f9be 0639 41e3 c936 56e6 eb35 b32a 6c36
00000390: 263e 9fb4 6914 49ba 27f1 1f39 17a4 4ab6
000003a0: 01ac 08b8 1083 06ba 133d 49ba a228 10b9
000003b0: 5c82 b5b3 d39e e7ba 00d8 0931 9c7e fc37
000003c0: c46f 6eb7 6e42 0c37 18db 0030 65b3 cfb6
000003d0: e73b 3f33 3e4d 0f36 061c aa38 d472 ab2e
000003e0: 2fab 20b3 3d19 0eb5 57fe 302f 5430 2636
000003f0: b3f9 bfb6 69b1 9e32 7cce 4034 ff29 8fb3
-4.5180454e-07 -6.8188406e-08 2.2993958e-05 -9.3112966e-08 3.0074162e-07 2.9461939e-08 -3.463202e-06 9.47217e-08
1.1459847e-05 -5.8534265e-06 3.6743472e-07 2.679266e-05 2.103618e-06 -1.1004836e-11 4.1880757e-08 -5.0480803e-06
4.6797268e-05 8.826331e-06 4.149704e-06 -5.0378127e-08 -2.2178752e-12 8.913558e-06 1.2985893e-06 -7.0675954e-10
-2.8918064e-05 -2.0146072e-05 -8.406504e-06 -7.129743e-13 8.313954e-07 -2.4185687e-05 -6.692198e-07 9.4264874e-07
-8.6065063e-07 1.36117645e-11 2.578824e-08 -2.7711075e-10 1.7204344e-09 0.00012507188 -5.2436444e-06 -5.302077e-07
-7.869593e-08 3.1673055e-05 5.414029e-05 2.822987e-06 7.2256466e-06 2.1267357e-07 2.0576542e-06 -4.0274455e-09
-0.00030309593 6.3996034e-05 -7.4205093e-07 -0.00012446362 1.2080462e-05 5.431078e-06 0.0008773121 3.442389e-05
1.7020011e-05 9.055851e-08 7.7833574e-05 -5.91235e-05 1.4127161e-06 -0.00024264152 1.13110666e-07 2.1287136e-07
4.2956803e-09 3.0375186e-06 -4.216996e-05 0.00016617423 0.00010220305 -6.685065e-05 3.060522e-05 -0.00011014834
1.3503037e-05 0.00015368561 3.2105208e-06 4.3031264e-06 -2.3998296e-05 5.389129e-06 -0.0015098134 1.6156243e-08
-4.659782e-05 8.594225e-05 0.0001194762 -0.00015549186 -1.7344388e-05 -3.6042128e-08 -9.702539e-06 0.00013972627
0.00014971624 -1.4541356e-06 2.7899656e-05 -7.231477e-05 -3.9608338e-07 -1.289319e-05 4.1850285e-06 0.00070760935
0.0021798622 -0.005707701 -0.0039678435 -0.0009836274 0.0005806874 0.012717983 -0.008635798 0.026875133
0.0045178817 -0.0050973697 -0.010152601 0.009496007 0.0026424546 0.006106831 0.008007174 0.009663979
0.023594318 0.013633091 -0.008073349 -0.0039982996 0.0016037299 0.0011598603 -0.009310549 0.004082436
0.018549338 -0.024615208 -0.0093408 0.0043178746 0.0077641215 -0.021848356 0.03456592 -0.0023536442
0.0046159965 0.007717913 0.023649788 0.0019248958 -0.006530336 -0.0063464507 -0.0065657343 0.00455741
-0.0036267973 -0.014806196 0.010384207 0.0015980019 -0.011357238 0.0065929187 -0.00026958648 -0.0077936156
-0.0016439919 0.004245556 -0.00030110503 -0.001903385 -0.0012684226 2.4074256e-05 0.009254165 -0.0047892286
-0.00011670861 0.00021308164 -0.000111057016 -8.775535e-05 -0.0009438446 -0.012622841 -0.00013867916 1.2792541e-05
0.00012464501 5.273903e-06 0.0022837555 0.004009598 -0.008357292 -0.00036525933 -0.00035075887 -0.005947496
0.001065631 0.0022324314 0.00042364674 -1.6304628e-05 -0.0015580314 -0.0001777797 -0.0072369846 2.0875234e-08
0.0018716683 0.0029404012 0.0016923714 0.015093608 -0.00066922035 -1.9053703e-11 0.00033566565 0.004266977
-0.0006039291 0.00039585482 0.0030431792 0.002511208 1.957493e-05 0.0008357693 0.0011828919 0.0032882823
5.5047753e-05 -9.207321e-06 0.00033917316 6.003424e-06 -0.00016066476 6.8730365e-08 -6.933921e-05 0.00067321165
0.0002563245 0.00019520424 -5.124021e-05 -7.36581e-05 0.00018943354 -2.4922e-05 1.2109405e-07 0.00019449013
0.0005284237 -0.00014877267 2.1920462e-07 -9.0416606e-08 0.000120570745 0.00041037676 0.001560487 -9.632048e-07
0.00032692726 -2.9811517e-05 8.629159e-07 -6.98119e-11 -2.685682e-05 4.9237315e-06 -0.00092618563 0.00011415735
0.00012850379 6.0167226e-06 1.7575901e-06 3.5191595e-06 -2.9661277e-07 -0.0007670583 0.00015253258 -3.0195858e-06
-3.2585118e-05 -0.0005131224 -0.0007676642 -0.00013748047 -8.4521815e-08 -0.0017671235 2.0058906e-09 3.0099698e-05
-1.4211928e-05 8.360117e-06 4.687748e-10 -6.189965e-06 4.4525134e-08 2.1353621e-06 8.1114515e-05 7.796577e-11
-3.7408594e-08 -5.293585e-07 1.6097466e-10 2.4764058e-06 -5.7213124e-06 1.8474298e-08 1.7956512e-07 -6.6665955e-08

bias f4 [96]
00000000: 6954 2926 598b aeb0 2f77 1b30 cb75 0232
00000010: 2480 ffa9 d3aa c127 b92d 8cb1 7643 1ead
00000020: 30d1 ec2c 234f a92a 62ac 0533 02a6 1fb8
00000030: b9fd 9a38 40ce d92a add8 0c38 34e0 30b2
00000040: 7629 a9a7 510a 9a25 0a94 24b8 e1e6 35b4
00000050: 9614 e82c 675d 43a4 65c6 9039 f47c 1e29
00000060: 0016 a630 9f2b a6b8 b9f0 e92f 10c0 f9a6
00000070: 9b10 6a32 2d0a 7d38 5f81 4e37 a297 9d34
00000080: 180d 9bb8 be13 30b8 e2be 4526 1c83 b62d
00000090: 73b2 3db4 4826 baa5 36cd 042b 64c9 a738
000000a0: 33c1 b5b8 4dd8 762c c3fc e938 b52a 2b2a
000000b0: 054f 9daa c581 872f cb95 3930 7e0a 3cae
000000c0: aa62 54a3 293f 95ac 2c7d 22ab dfe7 a8b8
000000d0: 766e d2b9 b60d c5a8 3bfc 8b34 4f9b 0c37
000000e0: a254 b9a2 e32a f038 dfb9 2836 581d 05af
000000f0: cfec efa7 4885 0f26 2e0a 61b3 f9fd b5b8
00000100: 1669 1d38 cfb7 9aa9 c4df 5938 a2d5 31a9
00000110: 4ece d522 1fb8 c7ac f6f5 d8b2 9fe4 b42e
00000120: 6fe2 ca2c 8568 a327 b45e 8336 1132 f3a9
00000130: d711 6a2a 5b6f bd29 b26a 9022 c2fe 2da3
00000140: d3ee f1b0 be2f 3937 aa92 ef39 5752 feab
00000150: a20c 9db2 1be7 1ca6 9489 a6b9 69fc 353a
00000160: 39d7 0e39 5b04 442c e4d7 f221 9fe8 4936
00000170: 3fc4 73b9 2c19 0ba2 f1e3 4528 e625 52a2
5.874805e-16 -1.2699771e-09 5.655804e-10 7.593779e-09 -1.1346504e-13 5.375347e-15 -4.0797343e-09 -8.9962395e-12
6.730748e-12 3.0075343e-13 3.1123257e-08 -3.806316e-05 7.390552e-05 3.8690058e-13 3.3580396e-05 -1.0295526e-08
-4.6951875e-15 2.6721732e-16 -3.923852e-05 -1.6940932e-07 6.596122e-12 -4.2363e-17 0.00027613636 3.5191427e-14
1.2084342e-09 -7.923622e-05 4.2553497e-10 -1.7329904e-15 1.3624368e-08 6.0329377e-05 1.2308678e-05 2.9353856e-07
-7.393415e-05 -4.1980056e-05 6.86068e-16 2.0749229e-11 -1.7666916e-07 -3.2291797e-16 4.718061e-13 8.0006925e-05
-8.666739e-05 3.5078774e-12 0.00011157386 1.5202668e-13 -2.7943633e-13 2.4648564e-10 6.7515477e-10 -4.275557e-11
-1.1513436e-17 -4.241847e-12 -5.772767e-13 -8.0540536e-05 -0.0004013662 -2.187734e-14 2.607429e-07 8.380811e-06
-5.023396e-18 0.0001145208 2.5142142e-06 -1.2106705e-10 -6.6592574e-15 4.979372e-16 -5.2396153e-08 -8.678059e-05
3.7529586e-05 -6.8708595e-14 5.194523e-05 -3.9487192e-14 5.79522e-18 -5.6763617e-12 -2.525756e-08 8.2260636e-11
5.7663245e-12 4.535491e-15 3.915129e-06 -1.0800053e-13 2.0789564e-13 8.412603e-14 3.9144246e-18 -9.432296e-18
-1.7602936e-09 1.1037975e-05 0.00045694906 -1.8070639e-12 -1.828295e-08 -5.443658e-16 -0.0003176449 0.0006942214
0.00013622352 2.7855693e-12 1.6455704e-18 3.0086737e-06 -0.00023247393 -1.8851339e-18 1.0985124e-14 -2.848037e-18

weight f4 [96]
00000000: 5ac1 6031 427f 0b3b 24c8 c7ba 280b f93b
00000010: 2cf3 da37 7726 c134 e623 36b9 3335 c6ba
00000020: 46d9 3339 fc1f 0dba 16d6 203b f51d 5a3e
00000030: d41e 483e 4e2b dc38 a093 383d dc5d 97bc
00000040: 1d7d 0432 10c2 02ae e017 183e 4800 43ba
00000050: 3c8c b03a 724d 20af e165 793e 1864 b433
00000060: 3a87 c7b7 77ba 2f3e 584d 3b3b ccfa 9eba
00000070: 4a57 ec39 5ddf a63d 3536 e43d d330 d13b
00000080: 350b 703e f10a 443e cfbc bdb0 b667 223a
00000090: 6869 343c 8de1 c130 6188 9136 d293 aa3d
000000a0: b0e3 513e 0b99 3538 f980 5b3d 5926 9339
000000b0: ee35 aa36 f381 3538 0ce7 bc3b 09d5 d5b9
000000c0: 4558 22b0 d72e 7238 3fae 9c38 9c44 5d3e
000000d0: 0800 8d3e 02a9 80b4 2a82 023c 7616 233d
000000e0: 25af 6231 4bb1 703e d53e 223e febe 5839
000000f0: 1bf4 6235 5819 d233 5a4a 9e3b 22f6 7d3e
00000100: 8ddd 553e 9a37 16b9 78a6 d23d 595e a133
00000110: 080d 7029 4950 6138 8cff 2e3b 2787 68b8
00000120: 1265 85b8 6ee7 a0b5 d108 d13c 28c8 9ab8
00000130: 2300 5139 7599 ce38 0f16 f1b4 a1bc 1933
00000140: b720 113b 6107 b53d b91f bc3e 160a fa36
00000150: 6a8b 88bb 58ca f5b4 d7b2 903e afa8 f53d
00000160: aef0 563e 7e7e fd38 78d0 942e f3d7 c73d
00000170: 3757 353e c039 1730 d33e 6237 05cc 1c2a
3.2706198e-09 0.0021285568 -0.0015242142 0.007600207 2.610086e-05 3.5977038e-07 -0.00017370246 -0.0015122056
0.00017151711 -0.0005383489 0.0024541668 0.2130049 0.1954301 0.000104984836 0.04506266 -0.018477373
7.711859e-09 -2.973094e-11 0.14852858 -0.00074387016 0.0013469527 -1.457943e-10 0.2435527 8.40011e-08
-2.3785618e-05 0.17160974 0.0028580036 -0.0012129187 0.00045078463 0.08148072 0.11143152 0.006383994
0.23441775 0.19144799 -1.3805223e-09 0.00061952637 0.011011459 1.4106704e-09 4.3372133e-06 0.08328976
0.20497012 4.3296295e-05 0.053589795 0.00028066596 5.072673e-06 4.3274787e-05 0.0057648476 -0.0004078525
-5.9060695e-10 5.774092e-05 7.4711155e-05 0.21608204 0.27539086 -2.3964827e-07 0.007965604 0.039816342
3.2986887e-09 0.23505132 0.15844281 0.00020670515 8.454678e-07 9.783497e-08 0.0048306407 0.24800923
0.20885296 -0.00014325828 0.10285658 7.5143085e-08 5.3302008e-14 5.371895e-05 0.002670261 -5.543898e-05
-6.36076e-05 -1.1988284e-06 0.0255169 -7.380574e-05 0.00019931844 9.851429e-05 -4.4905798e-07 3.5794645e-08
0.0022144744 0.08839298 0.36742952 7.4517548e-06 -0.00416701 -4.578203e-07 0.28261444 0.119950645
0.2099025 0.00012087541 6.767292e-11 0.09757986 0.17709051 5.501555e-10 1.3485277e-05 1.3926367e-13

bias f4 [96]
00000000: 3ad3 9132 fff4 35ba f799 8dbb d79e e6bc
00000010: 5cec f4b8 0e7e b0b2 0994 ebba 47ed 3abc
00000020: d41b b0b9 bcab e0ba 5457 35bb 3ba9 29be
00000030: 5a45 0d3e 39aa 22b8 21a8 0abd 7a92 86bd
00000040: 0455 1ab3 d394 6133 b464 fdbd 1b2e a6bd
00000050: 9f56 34bb 74dc 4d31 f2bd 0bbe ac2a a1b5
00000060: e013 2439 edfb 7fbe 003e 8bbb c38e 8aba
00000070: 18d7 1fbc 61c8 2cbe c374 2bbe 3b4f 18bc
00000080: f9e0 8bbe 2f3c 86be 1104 0032 5b4a 9fb8
00000090: a02a 25bd 1713 f530 cbc4 25b8 d140 7dbc
000000a0: dd2f e7bd 6b7b 34b9 ca8e a1bd 04eb 53b9
000000b0: fddb 06b3 e605 c037 fd76 2fbc 2f6e b1bb
000000c0: 3dc2 8630 688a 67b9 a856 35b6 3ab6 2dbe
000000d0: b64d 7dbe 23ce 1533 3fc9 45bd b34c 7abd
000000e0: 5591 a6b3 e898 b8bc fc68 20be cb5d 73b8
000000f0: 3091 78b6 2774 29b6 ff6d 5abb 7559 1cbe
00000100: db76 58be 6318 f1b8 ca88 47be 10d7 d133
00000110: 3839 9527 8f74 5ab8 6e85 0fbc d010 fcb9
00000120: 3d8f e0b8 c5e2 86b5 fcb7 1cbe 9872 e4b7
00000130: 9905 a4b9 11e2 44b7 4504 6bb3 722a 7b30
00000140: cac6 18bd d334 e1bc a727 a1be 2887 b3b6
00000150: 2166 e1bb d474 9ab5 e3d7 5bbd f0f4 0bbe
00000160: d289 18be 866b 8cb7 4801 b82e be29 9ebc
00000170: b72c 21be 0149 dcac c629 f9b6 9c6b 8dad
1.6976276e-08 -0.00069411093 -0.0043213326 -0.028151913 -0.00011678852 -2.054642e-08 -0.0017973195 -0.01140911
-0.0003359007 -0.0017141025 -0.002767046 -0.16568463 0.13795987 -3.8782342e-05 -0.033851746 -0.06570907
-3.593324e-08 5.252225e-08 -0.12372723 -0.08114263 -0.002751745 2.995674e-09 -0.13646677 -1.2007854e-06
0.00015647663 -0.24998446 -0.0042493343 -0.0010571111 -0.009755872 -0.16873313 -0.1674376 -0.009296234
-0.27320078 -0.2621779 7.451505e-09 -7.5955606e-05 -0.040323853 1.7831522e-09 -3.9522343e-05 -0.015457348
-0.11288426 -0.00017212114 -0.07888563 -0.00020210078 -3.1399384e-08 2.289093e-05 -0.010709521 -0.0054147462
9.804989e-10 -0.00022081437 -2.7021542e-06 -0.16964045 -0.24736676 3.4879246e-08 -0.048287626 -0.061108302
-7.756413e-08 -0.022533849 -0.15665048 -5.8023066e-05 -3.703939e-06 -2.5250572e-06 -0.0033329723 -0.152685
-0.2113909 -0.00011496318 -0.19485775 9.7714405e-08 4.1417844e-15 -5.2083804e-05 -0.008759839 -0.00048077712
-0.000107078326 -1.0049777e-06 -0.1530456 -2.723308e-05 -0.00031284688 -1.1735146e-05 -5.4719084e-08 9.1373586e-10
-0.037298955 -0.027491009 -0.31475565 -5.35035e-06 -0.00687863 -1.1507896e-06 -0.053672682 -0.13667655
-0.14896324 -1.673937e-05 8.367579e-11 -0.019307014 -0.15739714 -6.260881e-12 -7.4256413e-06 -1.6077632e-11

running_mean f4 [96]
00000000: 67b3 0f37 6dc4 7739 fa23 273b 8d1b 61b9
00000010: 0fa0 51b8 15c7 0038 0a75 733a 0250 8d3a
00000020: 27de 933a 75f0 a3ba 89e6 2e3a 3b0c 25bd
00000030: 4bf5 653d 1f53 5c38 a4d6 c2bc 425d bd3b
00000040: b8bf 8cb6 9506 172f 35cc 9bbc cf2c 7e3b
00000050: 8271 c539 ce8e 6733 e09f 0cbe 3a1c cd3a
00000060: d5e2 fcb9 7bdc eabd 8d9c fbba baff 04b8
00000070: 9f9f 03bb 615d 203b 0d39 be3c 2013 5d3a
00000080: c136 8d3d aa8c 303e 43c3 6337 1d82 d5b6
00000090: 98c0 16bc ba5f 8036 b730 d439 22df 8a3c
000000a0: ec24 cfba 1fd7 c8b7 30bf a53c 66ff d7b9
000000b0: 02f4 24b7 84c4 7836 da14 dabb 2e71 8c3a
000000c0: 76ea ccb8 a3df 56ba a1b5 ecb8 2140 56bd
000000d0: c852 82bd 8807 64b7 616f 9cbc b826 e7bc
000000e0: e17f 71ba 1735 d23d 01ce 293c 94a0 e339
000000f0: 719f a8ba 21d4 d9b3 bddd b63a 6a49 b93c
00000100: bf38 bdbd 90c1 8038 a805 5a3d b08c 20b0
00000110: 30ee 4fb0 43a8 49b7 a345 823b de7f 003c
00000120: 514a 80ba c31e 903b efbb 7d3d 5c8c 4837
00000130: a98a 993a af81 62b9 f25d 2b33 f27c a3b4
00000140: cb7c 17bb e447 a6bb 603d 1abe 68ad 2339
00000150: a48a ba3b df22 1cba 342e 75bc c1c5 47bb
00000160: 7ca9 dbbd fb9d 8637 4984 0caf 0a25 8b3c
00000170: fcd5 663c 99a5 04b1 8544 d5b9 c344 98b2
8.565235e-06 0.0002362893 0.0025503621 -0.00021467936 -4.997855e-05 3.0702988e-05 0.00092871545 0.001078129
0.0011281417 -0.0012507575 0.00066719257 -0.040294867 0.056142133 5.25295e-05 -0.02378399 0.0057789395
-4.194644e-06 1.3735708e-10 -0.019018272 0.0038784032 0.00037659338 5.391376e-08 -0.13732862 0.0015648671
-0.0004823419 -0.114678346 -0.0019196436 -3.1709416e-05 -0.0020084155 0.002446972 0.023220563 0.0008433331
0.06895209 0.17241159 1.3575717e-05 -6.363042e-06 -0.009201191 3.8258413e-06 0.00040472086 0.016952101
-0.001580385 -2.3942031e-05 0.020232767 -0.00041198282 -9.831974e-06 3.7069267e-06 -0.0066553177 0.0010714883
-9.77115e-05 -0.00081967766 -0.00011287188 -0.05230725 -0.063634455 -1.35916125e-05 -0.019096078 -0.028216705
-0.0009212476 0.10264032 0.010364057 0.00043416454 -0.00128649 -1.0143436e-07 0.0013951581 0.022618014
-0.09239339 6.1395695e-05 0.05322805 -5.840759e-10 -7.5644646e-10 -1.201971e-05 0.0039755865 0.007842986
-0.0009787773 0.0043981983 0.061946806 1.1953609e-05 0.0011714298 -0.0002160135 3.9899483e-08 -3.0452026e-07
-0.0023115154 -0.005074488 -0.15062475 0.0001560949 0.005692797 -0.0005956124 -0.014964629 -0.003048286
-0.10725686 1.604761e-05 -1.2779923e-10 0.016985435 0.014089104 -1.930266e-09 -0.00040677577 -1.7726398e-08

running_var f4 [96]
00000000: d233 0a2f 30d5 9634 f886 0839 3e8e 0a38
00000010: eb08 7e33 097c 7230 5316 5837 185c 4037
00000020: 21be 3137 252a c635 d1cb dd35 ea0b 5d3b
00000030: 62a4 a03b 7764 4b33 929f 3539 03dd 1f39
00000040: 6fde 822f 5bef a21f 2c2d fe3b fda8 233a
00000050: 805e a633 8ea4 8a28 df80 af3b fdb1 8636
00000060: a1a0 2b35 fdcf 873b 308d 0036 8935 2631
00000070: 72dd b237 d118 ea3a 0dfd ef3a cbb1 0c37
00000080: de58 d23b e944 023c 24c8 0f2f e904 0331
00000090: ef34 d439 777e 6b2e 6f0a 1537 9679 053b
000000a0: 98df 293c dfec de31 c765 bf3a 918b 9834
000000b0: 171e 102f 6425 312e 0b93 7338 d76c 1236
000000c0: 7aa3 e833 950d 0f35 6ad1 3032 cff1 c13b
000000d0: fa13 d03b 8b3d 2f2f 2fe7 243a 7ec2 813a
000000e0: 76ba 5835 d49b d83b 9601 163c 22dd d833
000000f0: ee7a 6f38 a61b c82a 00d6 7035 e0f6 ec3b
00000100: 0109 eb3b a7ac 9530 28cc c23a 1834 4228
00000110: 58fd 9622 8e6a 1a32 cff7 3439 3df2 4c38
00000120: ff5e 8435 0818 8637 bab0 883c 7014 1d31
00000130: 580d 6435 bac2 f533 1d74 6028 bd84 892c
00000140: 7bdf 4338 6ba6 cb39 2685 dd3b b604 a333
00000150: 6d07 1238 eb85 1e39 1278 f73b 9b3f ef3a
00000160: b1b2 9c3b 203a 8232 c220 ba20 75dc f43a
00000170: 4009 683b 06b8 b124 7e55 bc33 b802 8527
1.2569437e-10 2.8094792e-07 0.0001302025 3.3034237e-05 5.9147094e-08 8.821535e-10 1.2879801e-05 1.1465534e-05
1.059429e-05 1.4764415e-06 1.6525102e-06 0.0033729025 0.0049024085 4.7355993e-08 0.0001732095 0.00015245755
2.380491e-10 6.900565e-20 0.0077568498 0.0006243138 7.747167e-08 1.5392442e-14 0.005355939 4.0142318e-06
6.393621e-07 0.004144667 1.9155668e-06 2.418661e-09 2.1322372e-05 0.0017860179 0.0018309668 8.386046e-06
0.006419285 0.007951 1.3076878e-10 1.90658e-09 0.0004047523 5.3545137e-11 8.883521e-06 0.002036666
0.01036825 6.4879795e-09 0.0014602476 2.8413754e-07 1.3107414e-10 4.027835e-11 5.807266e-05 2.1819048e-06
1.0833078e-07 5.3291416e-07 1.0292164e-08 0.0059187184 0.0063500376 1.5938022e-10 0.00062905526 0.0009899882
8.0737607e-07 0.006610373 0.009155652 1.00985076e-07 5.7096528e-05 3.5546322e-13 8.971838e-07 0.007231578
0.007172704 1.0890248e-09 0.0014861869 1.0780459e-14 4.092582e-18 8.9882075e-09 0.00017258454 4.8862992e-05
9.862414e-07 1.5985235e-05 0.016685832 2.2858124e-09 8.4956037e-07 1.1444122e-07 1.2459676e-14 3.908511e-12
4.6699755e-05 0.00038843168 0.0067602573 7.591136e-08 3.481603e-05 0.00015117943 0.0075521553 0.0018253209
0.004782044 1.5160424e-08 3.1531303e-19 0.0018681424 0.0035405904 7.707326e-17 8.769983e-08 3.6917863e-15

weight f4 [48, 96, 3, 3]
00000000: ac09 3828 1b24 4628 44aa 4627 27e9 05a9
00000010: 611c ab28 932b de26 2911 fda7 502b 0c28
00000020: c9d3 d028 f78b d0a8 7d34 7ca9 21b3 7629
00000030: 2c31 ef29 6238 2da9 aef6 9429 271c a029
00000040: 2042 cba9 affa 43a8 bd7a b2a9 f159 152a
00000050: 94aa bc29 d59a 20aa 6f95 1028 6580 ada9
00000060: 8366 2b2a 9d18 c629 5e82 cfa7 0746 72aa
00000070: 5236 18aa 5bbd aca8 bd00 03aa 3895 8a2a
00000080: 02d4 9f28 c731 a9a9 983e 6c29 7313 6b28
00000090: 5a42 f0a9 e4be 32a9 2e77 9f29 1a65 3329
000000a0: 841f 50aa 69d0 202a c50c 30a9 fa2f cfa9
000000b0: 2017 6ea9 2d98 4f27 295c 1a29 a05d 6728
000000c0: 808c 57a9 89b0 04a9 31a0 e8a8 8cde 8d28
000000d0: cb4d c128 10d5 33a8 dbf5 a228 2f39 aea8
000000e0: 469f c228 31ba 182a 00c5 a729 3334 4829
000000f0: b727 e029 56bd 02aa 8a01 1c28 7f40 8ca9
00000100: 391b e529 3a9d 39aa 1160 f426 5686 04aa
00000110: aa42 4ea9 dae4 92a9 656e 022a d9a9 5628
00000120: 48f8 f6a9 7720 b129 da8a 5729 d980 0ea9
00000130: 29a5 b6a9 c7be 052a 57a8 01aa bb23 a3a9
00000140: dfc3 a929 adea 3229 36a3 48a9 f31c 43a9
00000150: 954f 37a8 7d52 9ea8 739e 3729 8183 92a8
00000160: 6349 6ea9 77a3 1f28 6729 7ca9 415f b0a9
00000170: 514c 40a8 8047 90a9 7635 bda9 6e71 5aa7
00000180: 05ba 00a9 4525 66a9 765d 8527 6730 02ab
00000190: 988a a82a 8f3e 462b 34f4 09ab b559 9eab
000001a0: d2f9 6baa 00c1 b9a8 3790 9d2b 8673 802b
000001b0: 5df0 aa29 343e 082a fcc0 54aa 550d 3a2a
000001c0: 5097 492a af1f 8da8 a773 2a2a d9a5 452a
000001d0: 4d23 ab29 4d90 aaa9 a09c 17a9 4aff d6a8
000001e0: 7689 f5a7 7c85 8729 b225 c228 0f03 84a9
000001f0: 51bc 8929 334f 5da7 2374 822a 6251 a12a
00000200: a9c6 8329 4ecd 44aa 53c8 47aa 40f4 9ea9
00000210: 15ff 93aa 50f0 e3aa b9d1 88a9 c08e 60a9
00000220: 99c2 ada9 3506 76a8 5d7a c4a9 3f31 5528
00000230: f65d ac28 3b83 17aa 77de 6228 fdad ed28
00000240: 8556 1428 d4f4 6828 70e4 0228 b6eb 7928
00000250: a480 9b28 e943 f527 1d1d 7028 e846 d727
00000260: 0be2 57a7 efda 3826 858a 1a25 fec6 91a5
00000270: c3c2 4ea6 be91 7ca6 1567 eaa4 9db1 c4a5
00000280: f354 7fa6 f31f 3f26 e0f7 6029 babd 97a8
00000290: aa00 9b29 25e1 4a28 7318 cfa9 a0d9 c729
000002a0: 48e5 9ca7 ab48 17a9 5a95 5829 6fba ac29
000002b0: c1e9 2ba9 53f0 6429 93d1 a92a 2478 a92a
000002c0: 8b45 f129 6d80 9329 5b4c cea8 f05f 48a9
000002d0: 23bd 17aa 8a0f b8a9 0d1a 0329 c7f7 90a9
000002e0: daf0 d029 cd5a aba9 bcce 71a9 6c90 dfa9
000002f0: 7f1c ab28 981c eda7 20df f927 a546 3f27
00000300: 06f5 ea27 13b8 fea7 55fc b4a7 3f7a 33a6
00000310: 9272 73a7 99a6 90a7 b8f7 f7a9 2ea4 eca9
00000320: ef43 3a29 23ca 8ca9 b6da e8a9 f84d aaa9
00000330: 395b 4929 7373 e028 82d4 31aa c962 2026
00000340: 8f65 29a6 04df e5a6 1340 70a6 1192 9125
00000350: db60 2ba5 f7e8 17a6 5b78 4626 0e11 0626
00000360: 6c7e 70a8 8766 a428 ad65 27a8 5f95 1029
00000370: e331 ef27 33d5 afa7 0d64 0d28 838a 14a9
00000380: f955 b7a8 3525 81aa 8f22 e9a8 227f 2529
00000390: 2c57 a6aa ead2 a329 0b07 ffa8 a9ff 4729
000003a0: dfd1 a828 d90f 91a8 feb8 64aa d0e0 9329
000003b0: 6fde 0f2a 5dcf 81aa e7d4 4829 ba89 8f29
000003c0: b956 54aa 073a f929 5f34 1d2a f0fe 93aa
000003d0: 88eb 4c2a a70b db29 c283 aaaa 9d47 35aa
000003e0: 6c40 30a8 276f 42aa ac22 11a9 82ce dea7
000003f0: 6984 972a 4352 cca6 2dfd 02aa 8103 3b2a
1.0216149e-14 1.0999037e-14 2.757032e-15 -2.973416e-14 1.8997121e-14 1.5416155e-15 -7.024021e-15 7.780953e-15
2.3184486e-14 -2.3153339e-14 -5.6000767e-14 5.4778342e-14 1.0622262e-13 -3.846262e-14 6.6153124e-14 7.110311e-14
-9.026482e-14 -1.0879033e-14 -7.9260796e-14 1.3265063e-13 8.378468e-14 -1.4264573e-13 8.026009e-15 -7.705016e-14
1.5223417e-13 8.797236e-14 -5.7595386e-15 -2.1518213e-13 -1.3519158e-13 -1.9177956e-14 -1.1635393e-13 2.4617266e-13
1.774449e-14 -7.5137426e-14 5.2456818e-14 1.3049338e-14 -1.0669651e-13 -3.968951e-14 7.081693e-14 3.9833676e-14
-1.8485045e-13 1.4283162e-13 -3.9090926e-14 -9.200969e-14 -5.2866674e-14 2.8809515e-15 3.4274805e-14 1.2843378e-14
-4.7861454e-14 -2.9463008e-14 -2.5826646e-14 1.5750659e-14 2.1461042e-14 -9.982697e-15 1.8092236e-14 -1.934268e-14
2.16074e-14 1.356491e-13 7.450464e-14 4.4454197e-14 9.954488e-14 -1.1612009e-13 8.660073e-15 -6.228437e-14
1.0174365e-13 -1.648585e-13 1.695694e-15 -1.1770562e-13 -4.579901e-14 -6.523402e-14 1.158462e-13 1.1916216e-14
-1.09676645e-13 7.866011e-14 4.7860025e-14 -3.164209e-14 -8.1110743e-14 1.1878962e-13 -1.1515906e-13 -7.2448524e-14
7.539086e-14 3.972749e-14 -4.4550484e-14 -4.3323807e-14 -1.0175797e-14 -1.7577297e-14 4.0771595e-14 -1.6266287e-14
-5.291027e-14 8.861719e-15 -5.599115e-14 -7.832494e-14 -1.06746895e-14 -6.407288e-14 -8.40256e-14 -3.0315068e-15
-2.8583056e-14 -5.1102585e-14 3.7016246e-15 -4.625245e-13 2.9938964e-13 7.043055e-13 -4.901108e-13 -1.1251474e-12
-2.0958867e-13 -2.0622826e-14 1.1195549e-12 9.127011e-13 7.591213e-14 1.2100808e-13 -1.8896337e-13 1.6524744e-13
1.7904883e-13 -1.5667885e-14 1.5139158e-13 1.7554655e-13 7.600049e-14 -7.574549e-14 -3.3664586e-14 -2.3869487e-14
-6.8150196e-15 6.01836e-14 2.1554674e-14 -5.862508e-14 6.11669e-14 -3.0712845e-15 2.3173225e-13 2.8655816e-13
5.852031e-14 -1.7479526e-13 -1.7744252e-13 -7.05898e-14 -2.6289444e-13 -4.049005e-13 -6.075994e-14 -4.9861807e-14
-7.7165006e-14 -1.3657089e-14 -8.725375e-14 1.1834554e-14 1.9136585e-14 -1.3457024e-13 1.25937596e-14 2.6387741e-14
8.234411e-15 1.2931676e-14 7.265984e-15 1.3873388e-14 1.7264246e-14 6.807479e-15 1.3328989e-14 5.9751364e-15
-2.9959782e-15 6.4134534e-16 1.3404303e-16 -2.5288333e-16 -7.173456e-16 -8.762758e-16 -1.0165595e-16 -3.4120936e-16
-8.8586025e-16 6.6309736e-16 4.995299e-14 -1.6846648e-14 6.883498e-14 1.1262073e-14 -9.196888e-14 8.875127e-14
-4.3547285e-15 -3.3591765e-14 4.8091176e-14 7.6706755e-14 -3.8172377e-14 5.0834618e-14 3.0165852e-13 3.0103795e-13
1.0714614e-13 6.55039e-14 -2.2903708e-14 -4.4492134e-14 -1.3477114e-13 -8.173937e-14 2.911044e-14 -6.437867e-14
9.2788367e-14 -7.609677e-14 -5.3692063e-14 -9.9282426e-14 1.8997172e-14 -6.5811716e-15 6.9353296e-15 2.6544871e-15
6.52137e-15 -7.0698736e-15 -5.0233615e-15 -6.2268775e-16 -3.3785133e-15 -4.0148654e-15 -1.1011976e-13 -1.0508986e-13
4.135922e-14 -6.252314e-14 -1.034081e-13 -7.563042e-14 4.471009e-14 2.4919064e-14 -1.5794486e-13 5.564503e-16
-5.877129e-16 -1.5950516e-15 -8.3353564e-16 2.525247e-16 -1.4864702e-16 -5.2704375e-16 6.885816e-16 4.65137e-16
-1.335009e-14 1.8252122e-14 -9.29241e-15 3.2103982e-14 6.6389913e-15 -4.880341e-15 7.848767e-15 -3.298274e-14
-2.0354366e-14 -2.294082e-13 -2.5883184e-14 3.674763e-14 -2.954801e-13 7.275242e-14 -2.8313742e-14 4.4408626e-14
1.8742764e-14 -1.6105107e-14 -2.031465e-13 6.56711e-14 1.2778124e-13 -2.305889e-13 4.4593584e-14 6.3743675e-14
-1.885947e-13 1.10678875e-13 1.3962571e-13 -2.6289344e-13 1.8200556e-13 9.727575e-14 -3.0289492e-13 -1.6100875e-13
-9.783932e-15 -1.7269225e-13 -3.222654e-14 -6.1841274e-15 2.6914866e-13 -1.4177641e-15 -1.1634157e-13 1.6610152e-13

bias f4 [48]
00000000: 4e8b a521 0f9d c7a7 aebf 9f35 bfde 0bb0
00000010: cbed dbac 8fff 1529 267f bc29 b93b fb34
00000020: b6a8 d0b5 ccbd 4da6 c991 ffb5 9c66 8827
00000030: 7f8d 9420 8346 ec26 ca1c 222e c8ae aa25
00000040: 21f6 c42f 327f 8a2a 6e56 8828 23f1 332e
00000050: 05e5 3fa0 dec8 cfb3 5ea9 1e23 f80f 22b8
00000060: 731a 512e 690d 3626 1f77 02ac 94b6 e5ab
00000070: 9e28 22a0 3aa2 a9a6 bfa7 1bac 4e66 cbb0
00000080: 64be ceb3 0c20 8737 79b2 2a2b 7027 d0a0
00000090: 3d02 0237 e3b6 8c28 bcb0 66b5 0ba0 ec21
000000a0: ba21 c436 a871 2d9f bbcc 9437 2848 592b
000000b0: 1bb9 e0b6 0712 942c 2253 a437 c32d 1ab5
1.1217709e-18 -5.540388e-15 1.1902209e-06 -5.0884447e-10 -6.2507547e-12 3.3306308e-14 8.370934e-14 4.6795847e-07
-1.5546309e-06 -7.1380885e-16 -1.904141e-06 3.7858832e-15 2.516581e-19 1.6394902e-15 3.6860105e-11 2.9608735e-16
3.5827077e-10 2.4601984e-13 1.5136516e-14 4.091406e-11 -1.6254105e-19 -9.675726e-08 8.601062e-18 -3.8638682e-05
4.754459e-11 6.316211e-16 -1.8540237e-12 -1.6322104e-12 -1.3735373e-19 -1.1770702e-15 -2.2119943e-12 -1.4799271e-09
-9.6272544e-08 1.6108177e-05 6.0643813e-13 -3.5262668e-19 7.749125e-06 1.5622437e-14 -8.593886e-07 1.6034345e-18
5.8451815e-06 -3.672819e-20 1.773831e-05 7.7194024e-13 -6.6972693e-06 4.2084144e-12 1.9589035e-05 -5.743606e-07

weight f4 [48]
00000000: 7262 10b6 de33 03b8 db04 ab3d 846f 753c
00000010: 9767 28b8 2759 7933 4891 bbb9 5327 ac3d
00000020: 5458 f23d ac9b 03b6 0b40 cc3d 0728 2fb8
00000030: c7dd a230 c1ee ecb5 1266 4a3b 9d06 4f3a
00000040: 60c1 15b8 bb09 2b3a 805e ecb1 e2d5 14b6
00000050: c91c b63b 1911 e93b 0a8a d136 1659 a43e
00000060: 44e4 9bb8 1dc2 0e3b ceef 05b9 54df 4eb9
00000070: 8bde 1834 b1c5 d3b8 6262 4739 2320 96bb
00000080: d6a2 3a3d 7ca9 8c3e 01a8 6b33 660e d23c
00000090: 4b2b 313e 75fa 5bb9 f3b8 743e 4cda 9838
000000a0: b085 853e 545c b0b0 7903 ec3e 8252 15ba
000000b0: be7a 963d 43e6 ecb8 33d1 a03e 861f 563e
-2.1514975e-06 -3.128114e-05 0.083505355 0.014980201 -4.0150797e-05 5.8055914e-08 -0.00035775662 0.08405938
0.118332535 -1.9611134e-06 0.09973153 -4.176053e-05 1.1850084e-09 -1.7652857e-06 0.0030883593 0.0007897409
-3.5704463e-05 0.0006524582 -6.8792474e-09 -2.2178215e-06 0.0055576307 0.007112634 6.2447552e-06 0.32099217
-7.433494e-05 0.002178318 -0.00012773203 -0.00019728887 1.4237064e-07 -0.00010098087 0.0001901477 -0.0045814677
0.04556545 0.27473056 5.4868e-08 0.025641631 0.17301671 -0.0002097877 0.23898678 7.288586e-05
0.26078558 -1.2831927e-09 0.460964 -0.00056961935 0.0734763 -0.000112962465 0.31409606 0.20910463

bias f4 [48]
00000000: d9f7 19b6 01e8 32b9 a02d 3dbd e13f 03bd
00000010: 5989 f7b6 5147 3ab0 a10b 9eb9 18b4 e1bd
00000020: db97 dc3d 1f4e 47b6 5ee5 f3bd a21b 04b8
00000030: 3e74 ee2b ace3 27b5 f9f0 9abc 22fc 0cb9
00000040: 70de 14bb ca3f 9cba 21bd e231 c37b 9a37
00000050: 2248 7ab9 5776 e03b 4381 26b8 d6cd 98be
00000060: 7164 e2b8 2b23 04ba 8b35 0dbb 79d4 21b9
00000070: b3b2 3ab4 4724 75b8 1a8c dbb9 fe8d 17bb
00000080: b275 c4bd ef7f 0cbe 05e3 1935 b398 e2bb
00000090: 99c6 b9bc ced6 b9b7 75bb 0ebe 8176 a6b6
000000a0: bf26 a23e 2020 18b0 942e 4ebe c34d acb9
000000b0: a7a9 46b8 e030 8bba 590b 8ebe 3317 51be
-2.2943043e-06 -0.00017061831 -0.04618609 -0.03204334 -7.377163e-06 -6.776775e-10 -0.00030144773 -0.11020678
0.10771152 -2.9698783e-06 -0.11908983 -3.1496988e-05 1.6943181e-12 -6.2543654e-07 -0.018913733 -0.00013445367
-0.002271559 -0.0011920866 6.598967e-09 1.8415862e-05 -0.0002386873 0.0068500447 -3.969787e-05 -0.2984454
-0.000107952284 -0.0005040641 -0.0021546807 -0.00015433309 -1.738761e-07 -5.8446338e-05 -0.0004187532 -0.0023125405
-0.09592761 -0.13720678 5.73273e-07 -0.006915176 -0.022677707 -2.2153745e-05 -0.13938697 -4.960981e-06
0.31670186 -5.534293e-10 -0.20134956 -0.00032864333 -4.736488e-05 -0.0010619424 -0.27743033 -0.20419006
