weights/Adam.model.weights.pt (torch, 68991 bytes, 10 tensors)

conv1.weight f4 [16, 3, 3, 3]
000000 5c ff 9d bd bf 11 0c 3e e1 ac b7 bd 23 b7 21 be
       -0.077147216 0.13678645 -0.08968521 -0.15792517
000010 a8 49 06 3d 37 d0 26 be 99 af 11 3e f1 54 ce bd
       0.032785088 -0.16290365 0.14227141 -0.10074795
000020 a7 18 55 bc 93 d3 be bd 5b b0 f0 3c 55 2c 95 bd
       -0.013006366 -0.09317698 0.029380968 -0.07283846
000030 e9 69 2f bd 70 ad 03 3e ca e8 01 be ad 64 02 3e
       -0.042825613 0.1285913 -0.12686458 0.12733717
000040 10 bc 3a 3d 7e 4a 10 3e 48 08 1c bd 87 25 d6 bc
       0.045589507 0.14090917 -0.038093835 -0.026140941
000050 20 15 0d bd f1 49 2a 3e 9b ce 0d bd 2f 13 90 3c
       -0.034443974 0.16629769 -0.034620862 0.017587272
000060 c3 58 08 3d 13 fb 15 3e 61 eb b1 3c ab 4c 27 be
       0.033287775 0.14646558 0.021718683 -0.1633784
000070 a2 85 14 be 40 f7 f3 bd 61 bc 26 3e 8d 24 de 3c
       -0.14504102 -0.119123936 0.16282798 0.027117038
000080 62 ba 32 3e 3e c2 81 3d 14 a0 fc 3d cc fd 84 3b
       0.17453912 0.06335877 0.1233522 0.0040585753
000090 0c de 35 be 64 d1 ed 3c c2 f7 27 3e ff 71 f0 3d
       -0.17760485 0.02903051 0.16403106 0.11740493
0000a0 27 f3 1d 3e c8 b6 a8 bc 1d 4b 1b bd e9 18 2f be
       0.15424787 -0.02059497 -0.03791343 -0.17099346
0000b0 a1 68 d1 bd 5c 5c 37 3e ec 16 04 be 3b 58 a3 3d
       -0.102250345 0.17906326 -0.12899369 0.07975813
0000c0 49 d3 3a 3d e6 87 e4 bc be 0c 3d bd bc 68 38 bd
       0.045611653 -0.027896833 -0.04615473 -0.045021757
0000d0 3b 78 c6 bc 54 d4 0f be b5 94 90 bb 9e 2f fe bd
       -0.024227252 -0.1404584 -0.0044122585 -0.12411426
0000e0 a8 2a 02 3e c5 5d e0 bd 51 56 25 3e 7b ec a5 bc
       0.12711585 -0.10955385 0.16146208 -0.020254364
0000f0 af f6 1d 3e 3b cc 2c be fe 44 7f bd e1 da 95 bd
       0.15426134 -0.16874783 -0.062321655 -0.073171385
000100 50 94 ff 3c 59 2e e9 3c 6a f5 41 be 5e c0 36 3e
       0.03119865 0.028464483 -0.18941274 0.1784682
000110 92 96 7b bd 28 69 36 3e 02 2c 87 3d 8a aa 8c bd
       -0.061422892 0.17813551 0.06600191 -0.06868465
000120 d0 f0 01 be cb 89 ae bd f2 96 0c 3e 5d f1 12 be
       -0.12689519 -0.08522376 0.13729456 -0.14349885
000130 23 13 ca 3b fc ae 02 be d0 97 b2 3d e6 0e 31 3e
       0.006166832 -0.12762064 0.08720362 0.1729084
000140 e6 ee c3 3d bc e5 d4 3c 21 7d 1b 3e 1d 2b cf 3d
       0.09567051 0.025988452 0.15184452 0.10115645
000150 c1 54 26 be b8 aa 2b 3e 61 b4 5c 3c 0c e9 d1 bc
       -0.16243269 0.16764343 0.01347074 -0.02562382
000160 5c c2 0e be cf 2e aa bc 53 dc 95 3d fb 20 2c 3e
       -0.1394133 -0.020774273 0.07317414 0.16809456
000170 0a 5a b2 bd 61 86 44 bd 64 a0 de bd 41 16 bf 3d
       -0.0870858 -0.047979716 -0.10870436 0.093304165
000180 95 9c a4 3d 48 d7 05 bd 6b 80 f1 3d 5d b9 79 bd
       0.08037678 -0.03267601 0.11792072 -0.06096779
000190 ae 4a d1 3d dc a5 16 be 9e 28 9a 3d 58 6d 53 3d
       0.10219322 -0.14711708 0.07527278 0.05161795
0001a0 50 a5 d0 bc 93 ee ca 3d 47 82 6c bd cd f3 2f bb
       -0.025469452 0.09908786 -0.05774143 -0.0026848197
0001b0 40 75 32 bb 05 58 0e be 3d 77 b1 bd 48 13 2a 3d
       -0.002723053 -0.13900764 -0.08665321 0.041522294
0001c0 63 07 21 3e 5d 42 d2 3d 2d 18 04 3e 7e e2 e8 3d
       0.15725474 0.10266564 0.12899847 0.11371325
0001d0 f8 57 47 be 8a 7e b2 bd 64 88 e0 bd 6f a4 2e 3e
       -0.19467151 -0.08715542 -0.109635144 0.17054914
0001e0 14 f7 00 3e 5c 92 a7 3d d8 ef 0b 3e 2c 8c 42 be
       0.12594253 0.08182213 0.13665712 -0.18998784
0001f0 81 1a 90 3c ea 35 c3 3d 2f e2 83 bd c7 81 29 3e
       0.017590763 0.09531768 -0.064396255 0.16553412
000200 14 b8 13 3e 43 c5 f5 bd 19 ed 14 bd c0 b6 38 3d
       0.14425689 -0.12000515 -0.036358926 0.04509616
000210 38 b9 0f 3c 69 49 1f bd e5 18 d7 bd 92 4c cf 3d
       0.008772187 -0.03888837 -0.10502795 0.101220265
000220 bc ea 98 bc 58 ce 23 3e 83 9b c7 3d 7a 26 b8 3c
       -0.018666618 0.15996683 0.097464584 0.022479285
000230 5b af ac 3d 38 cc be 3c 4a 91 87 bd 39 8b bc bc
       0.08431884 0.023290738 -0.066195086 -0.023015605
000240 32 d2 b1 bc 2d 08 c2 bd 7a 11 13 be 9d 9b 0f 3e
       -0.021706674 -0.09474216 -0.14362136 0.14024206
000250 a6 09 32 be 0b 63 17 3e fe 2e c3 bd 51 1f ac 3d
       -0.17386493 0.14783876 -0.095304474 0.08404411
000260 fa fb d5 bb 94 8a 9f 3c c3 28 47 be f9 4a 4c bd
       -0.006530282 0.019475259 -0.19449143 -0.049876187
000270 d1 9a dc 3c 25 40 42 bc 8d c5 e7 3d b4 f0 18 be
       0.026929291 -0.011856114 0.11316977 -0.14935571
000280 36 25 92 bd f0 d2 12 3e 02 89 20 bd d1 d8 1e bd
       -0.07136004 0.14338279 -0.03919316 -0.03878099
000290 8d 00 d2 3c c6 9f 7d 3c 5d af c2 bc 99 a0 7b 3c
       0.025635028 0.0154799875 -0.02376526 0.015358114
0002a0 24 a6 75 3d 49 a8 83 3d 59 ea 71 3b 8e 53 cc 3b
       0.059972897 0.06428582 0.0036913364 0.0062355464
0002b0 bc c7 b0 3d 40 d6 1d 3d bc 64 89 bd 7a 9a 6b 3d
       0.08631846 0.038534403 -0.06708667 0.057520367
0002c0 d4 3f c7 3c dd d1 67 ba 98 36 02 3c 84 0d 93 3b
       0.024322428 -0.0008843223 0.0079475865 0.004487695
0002d0 fe d7 18 bd aa 62 48 3c 3c e8 58 3d 3e 50 56 bc
       -0.03731536 0.012230555 0.05295585 -0.013080655
0002e0 c7 20 ba bc b4 9f 3e bd 1f c4 b7 bd 7f 37 cf bc
       -0.022720708 -0.046539024 -0.08972954 -0.025295017
0002f0 14 07 b7 bd b4 1b 94 bd 08 af 17 3e e6 0d 50 3d
       -0.08936897 -0.072318465 0.14812863 0.050794505
000300 db fe b0 bd 80 5a 1b 3d f0 9a 58 bd 8c 64 a5 3d
       -0.0864236 0.037928104 -0.052882135 0.080758184
000310 35 21 44 bd de 8d 0e 3e 00 e8 68 bc 04 86 1d be
       -0.04788323 0.13921306 -0.014215469 -0.15383154
000320 b5 22 b2 3d eb 9e 6e 3d f3 70 be bc 04 06 08 be
       0.08698026 0.058257025 -0.023247218 -0.13283545
000330 98 98 3e bd b1 df 15 3d 83 97 a7 bd 2c 2d c4 3d
       -0.046532243 0.036590282 -0.081831954 0.09578928
000340 5e 3d d7 3d 7c f0 5d 3c 63 27 f6 bd db f8 25 3e
       0.10509752 0.0135461055 -0.12019231 0.16208212
000350 41 c5 56 bd ad ef b4 3c ea e2 e7 bd 58 4d 1d bd
       -0.05243421 0.022086943 -0.11322577 -0.03840384
000360 b1 2d 16 3e a4 92 fd 3c 2a 87 de bd a9 b5 08 bd
       0.14665867 0.030953713 -0.10865624 -0.03337637
000370 8b f4 bb bd c3 25 cb bd 1f 93 35 3d 4b 02 99 bc
       -0.09177502 -0.09919312 0.04432976 -0.018677851
000380 bf 26 99 3d db 8f c2 3d a6 e4 15 be 81 ad 98 3c
       0.07478093 0.095000945 -0.14638004 0.01863742
000390 68 00 2b 3e 4a c1 2d be 6d ac c8 bb 29 a0 6c bd
       0.16699374 -0.16968265 -0.0061240704 -0.057769928
0003a0 14 2b b9 bc 39 fe c4 3d 71 03 15 3d 3e f1 c5 3d
       -0.022603549 0.096188016 0.036380235 0.09665154
0003b0 78 d4 08 3c f3 ec 6c bd e4 13 2c be a7 67 e5 3d
       0.008351438 -0.05784316 -0.16804463 0.11201411
0003c0 39 02 f9 bd 96 62 01 3e f9 6f 6f bc 9e 61 d5 3d
       -0.12158627 0.12635264 -0.014614099 0.104190096
0003d0 f4 96 04 3e e1 09 23 3e 0c 57 ad 3d b2 84 2b be
       0.12948209 0.15921737 0.084638685 -0.16749838
0003e0 ff fe 06 be a4 a5 66 bb e8 07 96 bd 4c 7e 0f be
       -0.13183211 -0.0035193944 -0.07325727 -0.14013022
0003f0 95 95 2d bb d2 f7 44 be bb c7 93 3c da 25 9b 3a
       -0.0026486863 -0.19235161 0.018039575 0.0011836842

conv1.bias f4 [16]
000000 c7 41 19 3b 22 41 2d 3e eb 37 4d be 87 7e 23 3d
       0.0023385154 0.16919377 -0.20040862 0.039915588
000010 c4 ec 5f 3e fc 53 41 be ca 18 b4 3c 60 88 f6 bd
       0.21867663 -0.18879694 0.021984477 -0.1203773
000020 86 55 49 3d 26 63 b5 3d 64 e3 4d 3d aa 04 d2 bc
       0.049153827 0.08856802 0.050265685 -0.02563699
000030 dd a3 8b 3e 98 40 d4 bc e3 5f 61 3e c3 69 f3 3a
       0.27273455 -0.025909707 0.22009234 0.0018570948

convx.weight f4 [16, 3, 5, 5]
000000 cf 00 db bc 58 e8 b3 3d 51 96 d5 bd bf 6e 00 3d
       -0.026733784 0.087845504 -0.10429061 0.031355616
000010 ac 98 b7 3d e0 94 b1 bd 96 7b b2 bd 0c 71 5f bd
       0.08964667 -0.08670974 -0.087149784 -0.05455117
000020 58 cf 57 3d ec 06 4a bd 1f 9e 95 3d 38 49 86 3d
       0.052687973 -0.049323007 0.0730555 0.06556934
000030 d6 93 ab 3d 4a 4a 90 3d b3 e4 98 bd 6d 88 a2 3c
       0.08377807 0.070454195 -0.07465496 0.019840444
000040 7c ad 8d bd c6 72 15 bd f5 2e 42 ba 7e ee be 3d
       -0.06917855 -0.03648641 -0.000740751 0.093228325
000050 ec ab 7f bc 27 7b d4 bd 1e c5 dd 3d 5a 30 84 bd
       -0.015604954 -0.10375052 0.10828613 -0.06454535
000060 e5 f3 38 3d b8 4e e2 3c 7a 0e 93 3d c6 cc 6e 3d
       0.04515447 0.027625427 0.071804956 0.058300756
000070 46 da 45 3c 27 7b fd bc 9a e5 8f 3d b7 44 15 3d
       0.012075966 -0.030942513 0.07026215 0.036442485
000080 a1 06 cc bd d9 55 0a 3d 1d bf bc 3d 99 a2 b5 3a
       -0.09962202 0.033773277 0.092161395 0.0013857662
000090 ec d7 b0 bd 24 9f bd 3d 1f 7b 19 bd 1f b0 29 bd
       -0.08634934 0.09258869 -0.037470933 -0.041427728
0000a0 b6 a9 25 bd 8d a1 86 3d bc 1a 3d bd 2e 44 99 bd
       -0.040445052 0.06573782 -0.046168074 -0.07483707
0000b0 c0 bf c3 3d 4f 65 b3 bd e2 9b e3 3d d5 31 a9 bd
       0.09558058 -0.087595575 0.11113717 -0.08261458
0000c0 9f ed 80 bd 63 77 91 bc 54 17 a3 bd 27 81 ab 3a
       -0.062953226 -0.017757123 -0.07963434 0.0013084755
0000d0 19 d7 21 3d 7d c6 47 bb 38 de 00 bd b9 1f dc 3d
       0.039511774 -0.0030483298 -0.031461924 0.10748238
0000e0 81 38 c0 bd 13 ae cb bd 97 75 af bd 38 c6 8d bc
       -0.09385777 -0.099453114 -0.0856735 -0.017306432
0000f0 75 0c d9 3d 50 72 a5 bb 94 12 7f bd 85 db be bd
       0.10598079 -0.0050490275 -0.062273577 -0.09319214
000100 38 84 07 bd a7 cd c5 bc 18 5b e5 bd f5 c7 72 bd
       -0.033085078 -0.024145914 -0.111990154 -0.059272725
000110 ce 12 48 3d 39 fe d6 3d 9c 7f b2 3c f8 4e 37 3d
       0.04884606 0.10497708 0.021789365 0.044753045
000120 c8 5c f9 bc 3d 01 b1 bd 94 21 c1 3d da 7e 5a bb
       -0.03043975 -0.08642814 0.09430233 -0.003333977
000130 71 28 05 3d 13 4e b8 3d 93 e4 b1 bd 51 c1 a2 bd
       0.03250927 0.089992665 -0.08686175 -0.079470284
000140 8d e2 c0 3d 85 ad f3 3b e4 48 a3 3b 6a 59 97 3d
       0.09418211 0.0074364566 0.0049830545 0.07390101
000150 70 00 9d bd 2b 6c c1 bd 8d b4 c8 3c 8f 4e db bd
       -0.07666099 -0.094444595 0.024500156 -0.10708343
000160 3f 74 b4 bd c6 08 9f bd 6e b4 b2 bc b9 5e a2 3d
       -0.08811235 -0.07765345 -0.021814551 0.07928223
000170 c9 2a 41 3c 22 38 b1 bd 1b a1 9c 3d c5 8a af b9
       0.011789986 -0.086532846 0.07647916 -0.00033481992
000180 64 70 ac bc 3a 20 f1 bb 7d da 1d 3d 59 0c e1 bd
       -0.021049686 -0.007358578 0.038538445 -0.10988683
000190 dc 94 8d 3c b7 e1 ce 3d 0d 51 2a 3d 3e ab 79 3d
       0.017282896 0.101016454 0.041581202 0.060954325
0001a0 dd e3 90 3d a8 fd 7c bd 57 46 e1 bc e8 51 7e 3d
       0.070747115 -0.061765343 -0.027499361 0.06208983
0001b0 83 d5 20 3d 46 60 48 3c 14 07 9d 3d 83 c6 af bd
       0.03926612 0.012229985 0.07667366 -0.08582785
0001c0 52 22 43 bc ab e7 47 3c c4 4c 8f bd 63 1c 9d 3d
       -0.011910038 0.01220123 -0.06997064 0.0767143
0001d0 1a 33 d1 3d 69 87 39 3d 9f 0e e5 3d 42 75 cd bd
       0.10214825 0.045295153 0.111844294 -0.10032131
0001e0 9a b0 07 3d 01 ac eb 3c 64 f3 d2 bd 8d d4 e0 3d
       0.033127405 0.028768541 -0.10300329 0.10978041
0001f0 32 f4 c4 bd 39 d2 aa 3d 25 c1 c4 3d fe 31 91 bd
       -0.09616889 0.08340878 0.09607152 -0.070896134
000200 8d 2c 8d 3d 1d 0e d5 3d 2a b7 9d 3d 3e 69 37 3c
       0.06893263 0.104030825 0.077009514 0.011194525
000210 1b 13 3f bd e1 f4 b9 bd 84 f9 e7 bc 22 a2 57 bd
       -0.04664908 -0.0907991 -0.02831722 -0.052644856
000220 c1 af 78 bd 0b 73 b8 3d 97 f0 7e 3d 8a 67 a3 3d
       -0.060714487 0.09006318 0.062241163 0.07978733
000230 76 e5 83 bd 17 45 ae bd 30 27 38 3d e0 ec 8f bc
       -0.064402506 -0.085092716 0.044959247 -0.017569005
000240 94 f1 1c 3d 24 16 96 3d f9 dd db bd b6 8b 04 bd
       0.038316324 0.07328442 -0.10735697 -0.0323598
000250 9d 49 e7 bd 5b 7a 93 3d 63 8e e8 3b 92 c0 e1 3d
       -0.112933375 0.07201072 0.007097052 0.11023058
000260 ba c4 5c bd 3b 4a d3 3d 61 b1 2e 3d 48 c4 a9 bd
       -0.05389855 0.10316893 0.04264963 -0.08289391
000270 a4 14 c9 3d aa 27 b8 3d c1 db 89 bd fc 08 68 3d
       0.0981839 0.0899194 -0.06731368 0.056649193
000280 d6 28 cb 3d b5 c4 4a bb 19 9c 28 bc 15 71 67 bd
       0.09919898 -0.003094 -0.010291123 -0.056504328
000290 ec a0 d8 bd ee 96 bf bc ae de ff 3c 30 6d 8c 3d
       -0.105775684 -0.023387399 0.031234112 0.06856763
0002a0 2f c6 bb bd 4e 06 99 bd 57 de 5c bd ab 56 a6 bd
       -0.0916866 -0.07471906 -0.053922977 -0.08121999
0002b0 1d 39 66 bd 74 d8 2d bd 48 e3 8b bc 95 b6 85 bc
       -0.05620681 -0.042442754 -0.01707615 -0.016322413
0002c0 0f e2 61 bd e9 bb 17 bd 4b cf 1e bc f7 5f 8d bd
       -0.055147227 -0.03704444 -0.009692977 -0.069030695
0002d0 dc 66 c5 bc e8 9d 76 bd 6d 48 b2 bd 97 55 90 3c
       -0.024096899 -0.060209185 -0.0870522 0.017618937
0002e0 bd 7e 7e bc 4b ec a8 bd 1c ea 13 bd 6b 12 d1 3c
       -0.015533146 -0.08248194 -0.036111936 0.025521478
0002f0 d1 50 e2 bd 96 5f 76 3d db 33 99 bd 5e ad 90 bd
       -0.11050571 0.06014975 -0.07480594 -0.07064317
000300 87 88 bb 3b 16 05 72 bd e7 22 01 3c 83 06 ca 3d
       0.0057230624 -0.05908688 0.0078818565 0.09864523
000310 66 1b d9 3d 12 c9 00 bd 6b 3b ea ba 08 ae dd 3d
       0.10600929 -0.031441756 -0.0017870491 0.108242095
000320 04 1f df 3d 8b 4e d9 3d 1b 20 ce 3d 11 27 90 bd
       0.10894588 0.10610684 0.100647174 -0.07038701
000330 9f 7f 84 3b db a7 16 3d 0d 28 d2 3d e6 d6 d8 3d
       0.004043534 0.036781173 0.10261545 0.105878636
000340 a7 6e d0 3d 84 91 e0 3c 87 36 3b 3d 71 70 ba 3c
       0.10177355 0.027413137 0.0457063 0.022758694
000350 b9 dd fe bc 4e d9 cd bc da 13 50 bd 58 33 96 bc
       -0.031111585 -0.025128033 -0.050800182 -0.01833503
000360 8a 36 80 bc 72 b7 5a 3d 69 3c a4 3d 2f fa e7 ba
       -0.015651006 0.053397603 0.08019335 -0.0017698462
000370 8f 05 f0 3c 78 d3 ca bd 5f 23 4e 3d e8 eb be 3d
       0.029299526 -0.09903616 0.0503267 0.09322339
000380 2c a9 6e bd ff 20 b4 bd 74 1c bf bd 70 f8 9e 3d
       -0.058266804 -0.08795356 -0.09331599 0.077622294
000390 3f a7 87 3d ad 6d 05 3d 01 e1 8f 3d 4a 98 be 3c
       0.066236965 0.032575298 0.07025338 0.023265976
0003a0 06 ef 69 3d 99 79 02 bd 85 c0 66 bc 3c e9 cf bd
       0.057112716 -0.031854246 -0.014083986 -0.10151908
0003b0 8a 43 45 bd 96 38 89 bc 88 6b ce 3d 66 1a 84 bd
       -0.048160113 -0.016750615 0.10079104 -0.064503476
0003c0 c1 82 13 3b c9 66 20 bd fa 49 25 3d 16 69 e0 bc
       0.0022508355 -0.039160524 0.040353753 -0.027393859
0003d0 7d 7d 56 3c c8 e7 ea bc 80 c6 3c ba 3f a8 8f bb
       0.013091442 -0.028674975 -0.00072012097 -0.00438407
0003e0 ad b1 49 3c 11 66 d7 bb 66 3b 45 bd 44 a7 9e bd
       0.012310428 -0.0065734466 -0.04815235 -0.07746747
0003f0 93 98 8f bd d5 f0 c7 bd 4d c5 04 bd fe 07 bc 3d
       -0.07011523 -0.09762732 -0.032414723 0.09181212

convx.bias f4 [16]
000000 38 28 26 3e 2e d6 3d 3e 05 a4 2f be 8c b8 a1 bc
       0.1622628 0.18538734 -0.17152412 -0.01974132
000010 3c d3 2c 3e 16 44 69 b9 ff a9 33 be 2f 8b 13 3d
       0.16877455 -0.00022245976 -0.17545317 0.036021408
000020 1f b4 cc 39 cd 21 46 3e 9a ce 2c 3e 6b 5e b0 3c
       0.00039044113 0.19348831 0.16875687 0.021529397
000030 36 ed e7 bd 32 9e 33 3e 96 a9 ab 3d 02 94 24 3e
       -0.11324541 0.17540815 0.08381955 0.16072085

conv2.weight f4 [32, 32, 3, 3]
000000 e8 51 cf 3c ab 49 b4 bc 34 3f 87 3c ff 4d 8e 3b
       0.02530761 -0.022007784 0.01650963 0.004342794
000010 3e 2d 97 3c e1 2b f4 bc 57 52 36 bd bc 90 90 bc
       0.01845419 -0.02980608 -0.04451212 -0.01764714
000020 0b a1 48 bd 22 81 18 3c f4 b2 e3 bc 36 17 cd 3c
       -0.048981708 0.009308131 -0.027795292 0.025035482
000030 40 52 45 3b 28 59 99 3b cf 13 e6 3c d5 b5 9d bc
       0.003010884 0.0046798177 0.028085617 -0.019251743
000040 bc 73 1e bd 5b 24 18 bc a8 d0 62 bd 6e 66 95 3c
       -0.03868459 -0.009286012 -0.05537477 0.018237319
000050 dd ce b9 bc 94 72 d4 3c b8 5d 80 bc 6a 7b 8c 3c
       -0.022681648 0.025933541 -0.015669689 0.017148692
000060 9a 7c 11 3d e2 f4 03 3d 87 c9 2e 3d 36 dc a3 bc
       0.03551922 0.03221596 0.04267266 -0.020002466
000070 e3 5a 56 bd d0 e4 6b 3b bf 8c 13 bd 12 76 03 3a
       -0.05233277 0.0035994537 -0.036022898 0.0005014847
000080 2f 81 8a 3c 3f 94 9c 3c b5 10 a2 3c 73 49 1e bd
       0.016907303 0.019113658 0.019783357 -0.038644265
000090 3e b1 27 bd 6f 03 eb 3c c1 1f 8d bc ca 12 74 bc
       -0.040940516 0.02868816 -0.017227056 -0.014897058
0000a0 ae b7 47 bd 3e e1 86 bc 58 79 0c 3d 65 51 85 3c
       -0.048759155 -0.016464826 0.03429541 0.016274163
0000b0 c1 5b 49 3c 57 5f 38 3d 0d 4a f6 bc cd 58 32 3c
       0.012289942 0.0450128 -0.030064607 0.01088543
0000c0 56 f0 b7 3b da cb 48 3d 5d d6 b5 3c f5 01 64 bd
       0.005613367 0.049022533 0.022196943 -0.05566593
0000d0 69 b4 d7 bb 8e 8c 3a 3d a7 a9 ea 3c 62 d3 a5 3b
       -0.006582786 0.0455442 0.02864535 0.005060599
0000e0 41 91 8a 3c 5e 4a 8b 3b 40 61 ab bb a4 41 13 3c
       0.016914966 0.0042508086 -0.005230099 0.008987818
0000f0 9a ac 4f bc 8e 9b 19 bc 67 dd a3 bc dd 59 ba bc
       -0.012675429 -0.009375466 -0.020003034 -0.022747928
000100 12 1f 01 3d 45 4f b4 bc 94 a1 76 ba d9 e5 28 3d
       0.03152377 -0.022010455 -0.0009408232 0.041234825
000110 fc 2b ff 3c 99 29 6c 3d 87 fe 15 bd de 3c 25 3c
       0.031148903 0.057656858 -0.03661969 0.010085313
000120 1d 63 d7 3c e7 f6 0e bc 93 46 5a 3c 8f 77 85 3d
       0.026292378 -0.008725858 0.01332249 0.065169446
000130 0d d1 75 3c 0e c6 d7 bc f5 19 35 3d 25 be 64 bc
       0.015003455 -0.026339557 0.044214208 -0.01396135
000140 a0 19 00 3d f1 8b f4 3c 57 3a 09 3c c7 ef ff 3c
       0.031274438 0.029851886 0.008375726 0.031242264
000150 9c 32 19 3c bf 56 64 bb 9b 56 77 bd f5 ef 19 3d
       0.009350445 -0.0034841744 -0.060385328 0.037582356
000160 60 89 81 bd 2e 95 18 3d 6b b9 11 3d 2e 25 3a bd
       -0.0632503 0.037251644 0.03557722 -0.045445614
000170 76 e5 e9 3b 5e d2 75 3d 91 1d 16 bd fa 23 44 3d
       0.0071379496 0.060015075 -0.03664929 0.047885872
000180 98 a4 b4 3c 01 3d 30 3d c0 34 00 bd a4 c7 45 bb
       0.02205114 0.043026928 -0.031300306 -0.003017881
000190 2e c7 9a 3c 89 4c 99 3c 45 44 6c 3b 9d 3e f0 3c
       0.018893804 0.018713253 0.0036051434 0.029326731
0001a0 f2 85 bd bc 0c 6f 8f 3c 46 c1 9d 3c 5e fd 5b 3b
       -0.02313516 0.017509006 0.019257199 0.0033567767
0001b0 f4 28 86 3d cd f4 1c 3d 81 bc 8a bc 38 c0 7f bc
       0.0655078 0.038319398 -0.016935589 -0.015609793
0001c0 a8 8f dd 3c 21 ff 08 bd 93 46 49 bd 08 90 07 3c
       0.02704604 -0.033446435 -0.04913957 0.008274086
0001d0 80 24 fb bc 99 74 9d bb 5e ae 9a 3d 36 9c f4 39
       -0.030657053 -0.0048051593 0.07552789 0.00046655693
0001e0 6e ce 5f bd 49 b4 be 3c 3a 79 81 bd 85 31 44 3c
       -0.054640226 0.023279326 -0.0632195 0.011974697
0001f0 cd 0d 32 3c bc 27 05 bd 28 90 81 b9 11 27 e8 39
       0.010867548 -0.032508597 -0.00024712202 0.00044279595
000200 73 3c 12 3a 8a 9b a7 b9 ff 85 c0 39 4e da fc 39
       0.00055784656 -0.00031968608 0.0003672093 0.00048227835
000210 07 8f ac b8 bc 90 20 3a 1f 7d 3e 3a 50 02 a4 bc
       -8.22824e-05 0.0006125083 0.00072665693 -0.020020634
000220 b5 26 d1 3c 3f 86 92 bb b4 d5 28 3d c8 f2 55 3c
       0.025531152 -0.00447157 0.04121943 0.013058372
000230 57 21 20 3d 3e 6a 4f bc 0d fd bb bc 57 4e 56 bd
       0.039094295 -0.012659607 -0.022947812 -0.052320804
000240 84 c9 cc 3c 63 05 2d bc d6 b1 04 bc 15 0b b4 bc
       0.024998434 -0.010560366 -0.00809904 -0.02197794
000250 91 5b aa bc 9e fd 92 bb 38 d7 12 bc e2 07 25 bd
       -0.020795615 -0.0044858 -0.008962445 -0.04029072
000260 6e 97 42 3d ee cc 1f bc ae d6 61 3d 6c 20 71 3b
       0.047507696 -0.009753449 0.055136375 0.0036793007
000270 7c 4b 0a bd 00 a6 01 bd f4 ad 0b 3d 6a 36 1f bd
       -0.033763394 -0.03165245 0.03410144 -0.038870253
000280 db 22 9c bc 04 bc b0 bb f7 1c 3d 3b d5 74 a2 bc
       -0.01905959 -0.005393507 0.0028856376 -0.0198311
000290 9c 5f 16 3d 92 c8 be 3c e2 0a 72 3d c2 0d 79 bd
       0.036712274 0.023288999 0.05909241 -0.060804136
0002a0 fb 96 27 bd a4 78 54 3d a8 da 50 3d 04 bc 1f 3d
       -0.04091547 0.051872864 0.050989777 0.038997665
0002b0 9b 74 ea 3b 00 21 79 bc 2a 2c 34 bc 04 c5 4d 3d
       0.0071550137 -0.015205622 -0.010996858 0.050236717
0002c0 57 32 f5 3c 67 33 fb bc 28 f2 0a bd b0 6a 06 bd
       0.02993123 -0.030664159 -0.033922344 -0.03281659
0002d0 f7 c4 83 bc 1d 72 04 bd 74 fb cc 3c 8e 0a 31 3c
       -0.016085131 -0.03233539 0.025022246 0.010805739
0002e0 d6 eb c4 3c 1a 52 2b bd 7d ae 7f bc 2d a4 2a 3d
       0.024038237 -0.041826345 -0.015605566 0.041660476
0002f0 60 41 a0 bc 46 04 72 bc 89 62 08 3d c9 78 c2 3c
       -0.019562423 -0.014771527 0.033297095 0.023739235
000300 84 3f 96 bc d1 fb 23 bd df c4 4c 3b e4 64 69 3c
       -0.018340833 -0.040035073 0.0031245274 0.014245246
000310 34 3c a1 bc 17 05 16 3d 5d cc 3b 3d 23 ca ad 3c
       -0.019682027 0.036625948 0.045849193 0.02121455
000320 05 eb 8b ba 8a a1 1d bc 88 d6 23 3d 9b d4 1c 3d
       -0.00106749 -0.009621033 0.039999515 0.038288694
000330 cb 7c ef 3c ce 40 a7 bc d2 4e 08 3d 25 d0 51 bc
       0.02923431 -0.020416643 0.033278294 -0.012805973
000340 eb 8b 29 3c cf 25 5c bd b7 36 b4 bc 93 2c 38 bd
       0.0103483 -0.053746995 -0.021998746 -0.044964384
000350 a1 03 c1 bc 13 53 18 3d a6 0e fb 3c 5e ee 8d bd
       -0.0235613 0.0371886 0.030646633 -0.069302306
000360 a1 ad 5e bd 97 90 0e 3d 3d 0a aa 3c a8 d3 6a bb
       -0.054364804 0.03480586 0.020756835 -0.0035831723
000370 02 d2 cf b9 21 2e 1a 3d 49 9b 39 bd 1b 82 b9 bc
       -0.00039638585 0.03764165 -0.045314107 -0.022645047
000380 ab 9d da 39 70 d2 92 3c 58 d6 7d 3b 4d 5f 02 3d
       0.00041697672 0.01792261 0.0038732495 0.031829167
000390 a1 d5 56 bd 09 7f 1d 3d db 47 59 3c 01 47 40 3d
       -0.052449826 0.03845123 0.013261761 0.046942715
0003a0 a9 0a 78 3b a9 bb 8f bc 11 2d f2 3c f7 29 6b 3b
       0.003784815 -0.017545538 0.029562505 0.0035883167
0003b0 e0 7c 11 3c a3 5f 08 bc 86 3a 86 3c 06 1b 15 3c
       0.00887987 -0.008323583 0.016385328 0.009100681
0003c0 98 32 d3 bb 3e 40 f8 3b e5 72 9c 3c 9f fd 3d bd
       -0.00644524 0.0075760176 0.019097755 -0.04638445
0003d0 71 e0 39 3c e0 7d d7 bb 76 c8 10 3c ef db a4 bc
       0.011345015 -0.0065762848 0.008836856 -0.020124404
0003e0 ef 4d 66 bc df 3f 63 bd e3 e0 42 bd ff 75 57 bb
       -0.014056667 -0.055480834 -0.04757775 -0.0032876728
0003f0 35 b1 d9 3b b2 2a 3c 3d 1c e1 d0 3c 93 4b 65 bd
       0.006643439 0.045939155 0.025497966 -0.055980276

conv2.bias f4 [32]
000000 4a 6a e2 bd 4b cc 2a 3c a2 ae d2 3b a5 ae c7 bd
       -0.11055429 0.010424684 0.0064295093 -0.09750108
000010 d8 06 ea ba 69 5a b8 3d 2f 16 74 3d c0 50 f9 3d
       -0.0017854823 0.09001619 0.05959147 0.12173605
000020 38 22 20 3e a4 0e ac 3d 97 88 e1 bd 22 80 0e be
       0.15638053 0.0840123 -0.110123806 -0.13916066
000030 e8 1c 48 be 8e 24 62 bd 33 ab 38 3e 35 86 9c 3d
       -0.19542277 -0.055210643 0.18034057 0.076427855
000040 d9 b6 b6 bd 99 0e 03 3e e1 a1 40 3e 8b ef fd 3d
       -0.08921594 0.12798537 0.18811752 0.12399205
000050 c8 39 81 3d 51 d8 de 3d 2a 5e 13 3e 5a cb 3a be
       0.06309849 0.10881103 0.1439139 -0.18241635
000060 b8 e7 07 3e e6 6e 29 be 22 18 8d 3d f0 d5 b1 bd
       0.13271987 -0.1654621 0.068893686 -0.086833835
000070 3f 12 e8 bd c4 dc d2 bc 2d 6f 0c 3e 48 08 e2 3d
       -0.11331605 -0.025740035 0.13714285 0.11036736

conv3.weight f4 [16, 32, 3, 3]
000000 04 cd 3d 3d 02 24 18 3d d1 6b 4b bd 27 76 3f 3d
       0.046338096 0.037143715 -0.04966337 0.04674354
000010 4a 75 14 3d 66 5a 5c bc 42 b7 50 bc 09 09 f2 3c
       0.036244668 -0.013449287 -0.012739005 0.029545324
000020 4f e2 42 3b e1 a7 42 3c 5b 9f bc bc 68 91 82 bd
       0.0029736941 0.011880846 -0.023025205 -0.0637539
000030 38 01 5e bd 7d 72 ee bd 77 31 24 bd b9 cb 09 bd
       -0.05420038 -0.11642931 -0.040086236 -0.03364155
000040 c4 7e 96 bd 8b 84 b5 bb 21 a6 38 bd 9d fa 49 3d
       -0.073483974 -0.005539482 -0.045080308 0.04931127
000050 4b a2 45 3b 20 06 10 bd 2a 92 d5 bb d3 46 17 3d
       0.0030156549 -0.03516209 -0.0065176683 0.036932778
000060 b1 5f cb 3c 0f 84 5f 3d cd 4c 38 bd c7 1a 18 bd
       0.024825903 0.0545693 -0.044995118 -0.037134912
000070 9a 1c 6c bc 75 a0 12 3d 12 88 2a bd fb 44 22 bc
       -0.014411116 0.035797555 -0.041633673 -0.009904142
000080 9a 62 73 3d 5a 83 4c 3d 09 7a 74 3d ee ff c3 3c
       0.059420206 0.049929954 0.059686694 0.023925748
000090 d4 f8 04 bc 1b 6c 59 bc 61 67 73 bd d4 81 85 bb
       -0.008115966 -0.013270403 -0.05942476 -0.0040743146
0000a0 d1 73 48 3c 74 df 35 bc 61 55 af bc da 6b 63 bd
       0.012234644 -0.011100639 -0.021403017 -0.055522777
0000b0 ba a4 b8 bc f1 5e 38 3c f8 00 7a bc 5f f2 3b bd
       -0.022539485 0.011253105 -0.01525902 -0.04588544
0000c0 87 f3 08 bd 26 13 0e bd 5f ed 06 bd fc cb 80 bc
       -0.03343537 -0.03468623 -0.03294122 -0.015722267
0000d0 d2 c2 b5 bc 22 cc 5d 3c 5a 3c 0a bd 5f d0 df bc
       -0.022187624 0.013537439 -0.033748962 -0.027321039
0000e0 10 de 9a bc 11 a0 47 bd 00 44 82 bc 90 56 84 bd
       -0.018904716 -0.048736636 -0.015901566 -0.06461823
0000f0 e2 04 12 bd de 59 c9 bc 7d 99 41 3c ba ba b9 bb
       -0.035649188 -0.024578985 0.01181638 -0.0056680115
000100 06 f3 ed 3c be b2 fa 3c bc d4 00 3d d4 4b 75 3d
       0.029046547 0.030602809 0.03145288 0.05988677
000110 ef b0 7f 3c 77 86 fb bc 90 d6 5b 3d 53 77 31 bc
       0.015606149 -0.030703766 0.05367142 -0.010831672
000120 9c 9d 96 bc f9 69 f4 3c 61 ef c0 bc 47 13 22 bd
       -0.0183857 0.029835688 -0.023551645 -0.039569166
000130 03 5c 5f 3b 43 59 bd bc cd e7 0f bd b7 cf 00 bb
       0.0034081943 -0.023113852 -0.03513317 -0.0019655058
000140 00 fd c5 3c 6a 26 a2 3c b5 13 85 3c 56 18 4d bd
       0.024168491 0.019793708 0.016244749 -0.050072037
000150 f7 ae e9 3c 21 8e 3c bd e0 7c f1 3c 23 34 de bb
       0.028525813 -0.046033982 0.02947849 -0.0067811175
000160 40 96 41 bd cc f9 39 3d b6 28 89 bc 77 92 24 bd
       -0.04726243 0.04540424 -0.016743045 -0.040178742
000170 d9 c2 87 bd 15 9b 24 3c 6f 45 f4 bd b7 a2 9a bd
       -0.06628961 0.01004674 -0.11927306 -0.07550567
000180 b2 52 f1 bc 52 1e b7 3b 93 d0 b0 bc 85 3e 1f bd
       -0.029458378 0.0055883313 -0.021583831 -0.038877983
000190 93 ed 18 3d 19 ef c2 3c 6f 63 96 bc 59 8f 30 3d
       0.037335943 0.023795651 -0.01835796 0.043105457
0001a0 94 72 18 3c 06 3a 4d 3d f7 58 3c bd c6 81 fb bc
       0.009304661 0.050104164 -0.04598328 -0.03070153
0001b0 c8 cb 74 bc aa 94 dd 3c e6 1f 3a bd 8f bc 38 3c
       -0.014941163 0.027048428 -0.045440577 0.011275425
0001c0 a5 05 44 bc e7 a2 a1 3c 69 45 a8 bc c0 07 4f 3c
       -0.011964236 0.019730998 -0.02054091 0.012636125
0001d0 e5 d3 49 bb 5d 69 6f bb 4f be 9f bb 45 80 94 3d
       -0.0030796465 -0.0036531307 -0.0048749815 0.07251028
0001e0 fd e2 42 bc 02 57 20 3d 39 52 6f bc f7 4e 87 3d
       -0.011894939 0.039145477 -0.014607006 0.06606858
0001f0 cc 5d 63 3d 47 e8 df 3c ba 3c 1a 3d 70 6d af 3c
       0.055509374 0.027332438 0.03765557 0.021414489
000200 6e 29 00 3c bf b1 54 39 78 55 35 3d da 6a a2 3b
       0.007822378 0.00020284111 0.044270962 0.0049565854
000210 86 ea 5b 3d c8 e5 4c 3d 23 ea a6 bc c4 74 a9 bc
       0.053690456 0.050023824 -0.020375317 -0.020685561
000220 23 44 1d bc fb 02 3c bd e4 f9 82 bc 28 f7 15 bc
       -0.009598765 -0.04590128 -0.015988298 -0.009153165
000230 1d 6b 84 bd 24 62 59 bd 05 0f 63 bd 51 70 a4 bd
       -0.06465743 -0.05307211 -0.055434246 -0.08029235
000240 e8 f8 01 3c ff b2 d3 3b 16 be 89 3d c4 9f 46 3d
       0.007932879 0.006460547 0.06725709 0.048492208
000250 b8 64 d3 3c 30 67 a9 bc e3 e5 26 bc d8 d2 82 3d
       0.025804862 -0.020679086 -0.010186645 0.063878715
000260 76 33 3c 3c 7f 17 1f bd 73 1e da bc 56 d3 60 bc
       0.011486879 -0.038840767 -0.026625847 -0.013722261
000270 af 59 28 bd 9b 17 c3 bc 85 8a e4 3b d8 a2 01 bb
       -0.041101154 -0.023814967 0.0069745206 -0.00197809
000280 2a dd 95 3b b7 8a c1 3c 1f 59 24 bd ee 9a 0d 3d
       0.004573484 0.023625715 -0.040124055 0.03457158
000290 6b 3f 7a bd 76 e4 55 bd 47 ea c1 3c 98 b0 57 bd
       -0.061095636 -0.05221983 0.023671282 -0.052658647
0002a0 9b 07 2b bc 76 61 1c bd 5c b7 ea 3c 78 74 50 bd
       -0.010438825 -0.038178883 0.028651886 -0.050892323
0002b0 bc 77 3f 3c 16 cd 0b bd 79 a0 09 3d ec 73 77 3c
       0.011686262 -0.034131132 0.033600304 0.0151033215
0002c0 b2 7e 6d bd 1c 6b c7 ba 0f a1 4b 3c db 2f 01 3c
       -0.057982154 -0.0015214416 0.012428536 0.007884945
0002d0 89 21 09 3c df 49 3b bd 2d ba 18 bd 51 87 b5 3c
       0.008369812 -0.045724746 -0.037286926 0.02215925
0002e0 c9 8e 32 3d ac 44 45 3a 00 48 3e bd 86 27 0b 3b
       0.0435932 0.00075251865 -0.046455383 0.0021233275
0002f0 16 64 7b bc ff 36 da 3b 4f f9 29 3d 08 86 53 bd
       -0.015343687 0.006659388 0.041497525 -0.051641494
000300 7f f6 13 3d 6a be a3 bc 9d b9 e9 bb 61 08 d0 3c
       0.03612375 -0.019988257 -0.0071327225 0.02539462
000310 82 84 1f bd 67 0f a8 3c ae 53 2f bd c4 c5 f4 3c
       -0.03894473 0.020515157 -0.042804413 0.029879458
000320 56 42 1b bc d4 c1 8a bc c4 cd 19 3c b5 47 eb bb
       -0.009476265 -0.016938128 0.009387437 -0.007180179
000330 2c 2b 8b bc bd 07 a9 bc fa 56 3b bc ab 12 59 3d
       -0.01698836 -0.020633573 -0.011434311 0.05299632
000340 2d f2 d2 bc 8c ea 17 bd 45 e0 ad 3b 09 d2 f0 bc
       -0.025750244 -0.037088916 0.005306276 -0.029397028
000350 d8 e0 ee bc a0 35 0c 3d 72 9c 0f bd c0 eb 11 bd
       -0.029159948 0.03423083 -0.035061307 -0.03562522
000360 de dd 84 3d dc 03 25 3d a5 d0 80 3d 15 89 1f bd
       0.0648763 0.040286884 0.06289796 -0.03894909
000370 07 60 f5 bc 78 ac 65 bd b8 1f eb 3c c7 92 92 bc
       -0.029953016 -0.056072682 0.028701648 -0.017892255
000380 bc 0d 48 bd 1d bc 04 bd bc 53 22 bd 56 7b 92 bd
       -0.048841223 -0.03240596 -0.039630637 -0.07152431
000390 78 72 0f bd 20 50 0a bd 7d a0 9e 3c 9f 0e 24 3d
       -0.035021275 -0.03376782 0.019363636 0.040053006
0003a0 fa 11 58 bd 7f c6 a0 3b d6 c4 98 bc c1 85 2e bd
       -0.05275152 0.004906475 -0.018648546 -0.042608026
0003b0 ad 6e a2 3c 4c a3 54 3c 60 87 42 3d 6a 76 19 3d
       0.019828165 0.012978386 0.047492385 0.037466444
0003c0 8d fc 0b 3d a6 86 2b bd d8 fc d8 3a e6 05 78 bc
       0.034176398 -0.041876458 0.0016554845 -0.015138125
0003d0 66 44 3b bc 3b bd 47 3d a2 2e c1 3c e3 b0 92 3c
       -0.011429882 0.04876445 0.023581807 0.017906612
0003e0 b5 59 00 3d 22 b8 56 3d 65 fc 97 3d 5b 0c 04 3c
       0.03133555 0.052421696 0.07421187 0.008059586
0003f0 18 1d 7c 3c 66 04 2d 3d 88 cf e3 bc 42 3c 35 3c
       0.015387796 0.042240523 -0.02780892 0.01106173

conv3.bias f4 [16]
000000 40 be e4 bd 9b 78 00 be 1f 66 f6 3d 9d 8d df 3c
       -0.111691 -0.12546007 0.12031197 0.027289206
000010 71 6f 8d 3d 95 cb 75 3c 20 a4 2e 3e 59 96 e1 3d
       0.069060214 0.015002151 0.17054796 0.11015005
000020 db 01 55 3d cc 5b d7 bb 64 65 0b be bf 65 00 3e
       0.052003723 -0.0065722223 -0.13612896 0.12538813
000030 b7 99 29 3e 57 f8 db 3d d5 f2 aa 3d 46 04 8e 3d
       0.16562544 0.107407264 0.08347098 0.06934409

conv4.weight f4 [2, 16, 5, 5]
000000 eb a9 31 3c 09 71 2b 3d 96 6e e1 3b d2 e1 3e bb
       0.010843734 0.041855846 0.006879638 -0.0029126299
000010 f5 50 b0 3c 9c bd e0 3c 00 7a a8 bc 47 34 9c 3c
       0.021522978 0.027434163 -0.020565987 0.019067897
000020 4e 8a 32 3d 7f 0b 23 3c 15 6d c8 bb 24 e4 a4 3b
       0.04358893 0.009951471 -0.006116519 0.0050320793
000030 91 fc 34 3c a1 90 fa bc 41 c4 b6 3b 9f 80 44 3d
       0.011046545 -0.030586543 0.0055775945 0.047974225
000040 7d 46 95 bc 27 dd 89 3c ad bb 27 3c 01 9a 7c 3d
       -0.018222088 0.016829086 0.0102376165 0.061670307
000050 d4 a1 86 bc 89 38 b9 3b 82 9a 02 bc 04 07 a9 bb
       -0.016434588 0.0056524915 -0.007971408 -0.005158307
000060 d0 2c f1 ba 09 30 35 3d f3 8f f0 bb e4 cf 82 3c
       -0.0018400196 0.044235263 -0.007341379 0.01596827
000070 ce 49 f5 bc 00 6b 3b 3c 7f 5e c7 3c ba 2f ae 3c
       -0.02994242 0.011439085 0.024337051 0.021262992
000080 36 88 af bc 4a 85 3a 3d 1c 83 03 bd 6b 39 2a bd
       -0.021427255 0.04553727 -0.032107458 -0.041558664
000090 96 dc ec 3b 42 0b 2b 3d 56 00 17 3d 2d 15 3c 3d
       0.0072284443 0.041758783 0.036865555 0.045918632
0000a0 31 1f d9 3c 08 4d 65 3c 4e 09 05 bc 96 81 c2 ba
       0.026504131 0.013995416 -0.008119894 -0.0014839645
0000b0 a1 ce 84 bc 71 6c c7 3b a1 07 33 3d 88 20 c2 3c
       -0.01621181 0.0060859253 0.043708447 0.023697153
0000c0 df f3 5d 3a e9 f4 c2 bc 67 20 bf bc f5 b4 d3 bc
       0.00084668206 -0.023798423 -0.02333088 -0.025843123
0000d0 c3 08 9f 3b 5d ed d3 bb 6b 09 d7 3b 67 93 02 bd
       0.0048533394 -0.006467505 0.006562402 -0.031878855
0000e0 6b 8e 0b bd 4c 88 66 bc ee c5 89 3b 26 33 53 bd
       -0.034071367 -0.014070582 0.0042045033 -0.05156245
0000f0 31 74 43 bc 10 f0 6f bb 62 4f 4e bc b7 21 9f bb
       -0.011929558 -0.0036611594 -0.0125921685 -0.004856314
000100 97 1f 56 bc 09 bc 35 bd 6a 7a b9 bc 7e aa 12 3c
       -0.013069055 -0.044368777 -0.02264138 0.008951781
000110 78 11 ef bc 41 0b 05 bc a1 dd fd bb ba ab c8 bc
       -0.029183134 -0.008120359 -0.0077473675 -0.024495948
000120 da 4a 88 3c 0e da 4c bb 9c 61 31 bd e7 b8 09 3d
       0.016637255 -0.00312579 -0.04330598 0.033623602
000130 79 66 d0 3c c5 8c 22 3d 15 af 2b 3c b6 b8 3f 3d
       0.025439488 0.03968503 0.0104787545 0.046807013
000140 1f fc d2 3c 79 c6 a1 39 ba b6 dc 3b 82 01 11 3c
       0.025754986 0.00030856187 0.00673565 0.008850457
000150 2c f7 34 3d 58 9f 56 3d 5c d9 cb 3c ac 5e 8f 3a
       0.044181034 0.052398056 0.024883918 0.0010938249
000160 c7 f2 0a 3d 0f b0 03 3d 38 de ba 3c 3b d6 a9 3c
       0.033922937 0.032150324 0.02281104 0.020732036
000170 40 ec 39 3d 4b 1a af 3c e9 e4 55 3c ad 27 95 3d
       0.04539132 0.021374842 0.013055065 0.07282958
000180 a7 67 39 3d 78 4d b9 3c a9 02 60 3d 0a 4c 43 3d
       0.045264866 0.022619948 0.054690037 0.04767994
000190 f9 1c db bb 46 af 08 bd 92 ec ab 3a d5 f3 1f 3b
       -0.0066868034 -0.03337028 0.0013116768 0.002440681
0001a0 04 25 24 bd eb 9d 69 bd 8b 31 20 bd d4 50 4a bd
       -0.040074363 -0.057035368 -0.039109748 -0.04939349
0001b0 43 1f 19 bd 47 d1 9c 3c 42 44 13 bd 18 8d 50 3c
       -0.03738333 0.01914276 -0.035953768 0.012728952
0001c0 51 25 3b bd 61 5c bf bc 9a 03 4f 3c c8 e4 16 bd
       -0.045689885 -0.02335948 0.012635136 -0.036839277
0001d0 36 ac 61 bc 9f 6a ca bb 0c 7f 2d bb 6f bb c1 3b
       -0.013773968 -0.006177261 -0.002647343 0.0059122364
0001e0 7e 6b 58 bc 2a cb 48 bd d0 c4 c1 bb 40 3c da bc
       -0.013209222 -0.049021877 -0.0059133545 -0.026640058
0001f0 53 84 a9 bc b4 8d 8c 3c 6c fa 9e 3c 48 3d 4c 3d
       -0.02069298 0.017157413 0.01940652 0.04986313
000200 cb 8b 6d 3d da e4 0c 3d 27 ce 5c 3d 28 67 ce 3c
       0.057994645 0.034397937 0.05390754 0.025195673
000210 e6 8d 72 bc 70 30 d2 3c 40 8c 51 3c 64 44 ba 3c
       -0.014804339 0.025657862 0.012789786 0.02273769
000220 6e 7a e4 3b 51 a7 b5 3c 41 34 1c 3d 49 94 d9 3c
       0.0069726026 0.02217451 0.03813577 0.026559966
000230 6f 9b ad 3d 01 3e 8b 3d 74 ce b3 ba 81 5c 87 3d
       0.08476912 0.06798936 -0.0013718144 0.066094406
000240 48 75 04 3d bb 65 aa 3c 96 07 f3 3c 19 58 fa 3b
       0.03233841 0.020800462 0.029666703 0.0076398966
000250 c2 e3 ce 3a 58 e9 29 3d d9 f1 ce 3c 9c 88 49 ba
       0.001578443 0.0414823 0.025261806 -0.0007687898
000260 e7 93 43 bd d0 18 2a 3d a4 41 dd bc e4 d5 4e ba
       -0.047748473 0.04152757 -0.027008839 -0.00078901486
000270 5b 91 2a bd ee fe d2 3c 2a 24 11 bd 08 29 69 bc
       -0.041642528 0.025756326 -0.03543488 -0.014230974
000280 64 b5 21 bc 69 1c 4f bd d0 f6 a9 bc 99 8d 01 bc
       -0.009869907 -0.050564203 -0.020747572 -0.007907295
000290 7e b7 55 bd 3d 9d 95 3c dd 6a ad bb 86 01 b4 3c
       -0.052176945 0.018263454 -0.00529228 0.021973383
0002a0 b3 7f ca 3c 59 5d 56 bd 4d 19 5f bd d5 3e a0 bc
       0.024719095 -0.052335117 -0.054467488 -0.01956121
0002b0 2c 33 a4 bc 8b c2 5b bd 04 7a 37 3c df c9 13 bd
       -0.020043932 -0.053652328 0.011198524 -0.03608119
0002c0 30 25 02 bc c9 36 d8 bc 66 1e 49 bd 86 82 63 bb
       -0.0079434365 -0.026393311 -0.049101256 -0.003471525
0002d0 5d 04 20 bc 72 85 2d 3d f8 8a 67 bd 76 f3 25 3d
       -0.009766665 0.04236359 -0.056529015 0.040515386
0002e0 17 ba 52 3c d1 61 7c bc b3 30 73 bc aa 1b 18 bd
       0.01286175 -0.015404181 -0.014843154 -0.037135758
0002f0 d7 f5 3e bc a2 61 1f bd bc 22 21 3c 99 cd c9 bc
       -0.0116552925 -0.03891147 0.0098349415 -0.02463417
000300 44 f0 c4 bc a8 6a fb bc 72 49 ab 3c 38 45 b7 bc
       -0.024040349 -0.030690506 0.020909045 -0.022371873
000310 9f a2 bc bc 65 21 06 bd f5 f2 79 bb a0 27 f4 bc
       -0.023026763 -0.03274669 -0.0038139198 -0.02980405
000320 14 6a 10 bd c8 7d 10 bd 01 d0 a5 bc c2 d1 21 bc
       -0.035257414 -0.035276204 -0.020240786 -0.00987667
000330 bb 48 0b 3d 6d cb 0d bd cf d3 5b bc a3 72 41 3a
       0.034004908 -0.03461783 -0.013417198 0.0007379448
000340 40 42 59 3b 7a 9b 3d 3d 93 05 68 bc 9b cf 80 bb
       0.003315106 0.046290852 -0.014161485 -0.0039309985
000350 90 cd de 3c 1d e5 e1 bb 43 d7 4f 3d 0f 76 58 bb
       0.02719763 -0.0068937675 0.0507424 -0.0033029353
000360 a5 19 a2 3b 3f 08 a6 bc a7 d7 fb bb 38 dc eb 3c
       0.0049469047 -0.020267604 -0.00768562 0.028791532
000370 45 f0 ea bc 3c e2 b2 bc a4 a5 1b 3d 17 28 1d 3b
       -0.028679023 -0.021836393 0.037999764 0.0023980194
000380 d4 48 05 3d d0 d4 1e 3b 82 68 94 3b 19 f4 cd 3c
       0.032540157 0.0024235733 0.00452906 0.025140809
000390 bc 69 aa bc 11 ab 07 3c 35 b6 1b 3d 93 92 95 bc
       -0.020802371 0.0082805315 0.038015563 -0.018258369
0003a0 dc ef 68 3c 4b 9f da 3b fb c7 a3 3c 1e a2 b2 3c
       0.014217343 0.0066718212 0.019992819 0.02180582
0003b0 c6 8a 00 bb 36 da 3f 3d 58 f1 83 3b 1e 92 d3 3b
       -0.0019613965 0.04683896 0.004026573 0.0064566275
0003c0 fc c7 ae 3c 41 cb 51 3d 04 76 5c bc ea 7f 0b bd
       0.021335594 0.05121923 -0.0134558715 -0.034057535
0003d0 fe d9 ee 3a 33 8e 16 3d fb f3 be bc aa d3 47 3d
       0.0018222926 0.036756705 -0.023309698 0.048785843
0003e0 01 c2 c0 3c fd 5c 80 3d f6 bd 1f 3d 56 e7 25 3d
       0.023530008 0.06267736 0.03899952 0.040503822
0003f0 6e ee b5 3c 9d 44 8f bc c8 08 8a bc 41 b3 c2 3c
       0.022208419 -0.017488772 -0.01684989 0.023767116

conv4.bias f4 [2]
000000 85 ab a5 bd 95 b2 c0 3d
       -0.080893554 0.09409062
