weights/Adam.model.weights.pt (torch, 218905 bytes, 42 tensors)

weight f4 [16, 3, 1, 1]
000000 15 96 19 3d 3a c4 51 3e c5 d0 d8 3d 19 ae a5 3e
       0.037496645 0.2048501 0.10586695 0.32359388
000010 ed a4 0e 3f bf da d1 be 27 55 59 bc b5 1b a9 bd
       0.55720407 -0.40987203 -0.013264931 -0.08257238
000020 f7 67 03 bf 02 d2 d8 3e be 44 c4 3e 53 a6 b3 3e
       -0.5133051 0.42347723 0.38333696 0.35087833
000030 22 d5 fe bd fc 08 be 3e bb d7 cd be 35 e5 0a 3f
       -0.124429956 0.3711623 -0.40203652 0.5425599
000040 b0 a2 ef 3e ae 7d f6 3e 79 e4 c7 3e 30 18 8d 3e
       0.46803808 0.4814276 0.39041498 0.27557516
000050 89 77 f7 be 11 da 83 3c a2 ad 93 3e c0 c2 7e 3d
       -0.48333386 0.016095193 0.2884341 0.062197447
000060 c4 43 8f be bc 0a ce bd 49 74 91 bc 40 85 7e be
       -0.2798139 -0.10060641 -0.017755644 -0.24855518
000070 4a b0 2f be 33 30 c2 3d 5c 0b 21 3e 04 45 f6 bb
       -0.17157093 0.094818495 0.1572699 -0.0075155515
000080 ca 08 09 bf b6 56 1c be fc 15 c5 3e 75 1f b9 be
       -0.53529036 -0.15267453 0.38493335 -0.36156812
000090 6c c0 03 bf 78 2e d8 3e 0c 03 41 be d8 97 23 be
       -0.5146549 0.42222953 -0.18848819 -0.15975893
0000a0 9c 58 c4 3e 7a 69 13 be c8 e7 e8 be 82 b7 ab 3e
       0.38348854 -0.14395705 -0.45489335 0.33538443
0000b0 89 dd b5 be a4 52 ac be 5a cb ce be 3f 04 90 3e
       -0.3552058 -0.336568 -0.4038952 0.2812824

bias f4 [16]
000000 c2 a5 3a be 38 e0 88 bd 05 54 c8 be a5 de 85 3e
       -0.18227294 -0.06683391 -0.39126602 0.26146427
000010 d4 ae 59 3e 6f c2 30 be 9c ea 94 be 3e 1f a7 3b
       0.21258098 -0.1726167 -0.29085243 0.00510016
000020 de fe f6 be 2b c8 98 be 95 85 0b bf 02 29 6b 3e
       -0.48241323 -0.29840216 -0.54500705 0.22964862
000030 22 e1 fd bd c6 21 97 3e 4a 1b 11 3e f0 27 6b b9
       -0.12396456 0.29517955 0.14170566 -0.00022426224

weight f4 [16]
000000 31 ef 7c 3f 14 59 7d 3f 11 b9 7e 3f 6a 3c 7d 3f
       0.9880248 0.9896405 0.9950114 0.9892031
000010 78 33 7c 3f 51 f3 7c 3f 83 3d 7e 3f e1 ec 7e 3f
       0.98516035 0.9880877 0.9931261 0.995802
000020 b7 ab 7b 3f 2c 92 7d 3f 55 6a 7d 3f 3a 55 7c 3f
       0.9830889 0.99051166 0.98990375 0.98567545
000030 12 86 7d 3f ad 3e 7e 3f 26 c1 7d 3f ec 04 7d 3f
       0.990327 0.99314386 0.99122846 0.98835635

bias f4 [16]
000000 b0 ef ef 3a 7e 39 5e ba 02 fc d0 3a 57 6f 2f 3a
       0.0018305685 -0.0008477195 0.0015944245 0.0006692311
000010 9c 7d 15 ba 2c 12 49 bb a7 ff b1 3a 38 72 de 3a
       -0.0005702616 -0.0030680997 0.0013580219 0.0016971296
000020 2a 8b 43 3a 7b cc ae 39 30 a3 a7 3a e7 f9 1b 3c
       0.0007459397 0.00033340216 0.0012789723 0.009520031
000030 eb 85 8c 3b 8f de 12 3c c9 11 28 3b fc 39 04 3a
       0.004288425 0.008964195 0.0025645366 0.0005044041

running_mean f4 [16]
000000 b8 79 e6 41 45 0c 32 42 8c 32 42 c2 55 c6 c4 42
       28.809433 44.511982 -48.549362 98.38737
000010 ca 70 2f c1 83 11 fc 42 4e 47 a6 41 46 f8 f5 41
       -10.965036 126.0342 20.784817 30.746227
000020 89 44 0f c2 78 7d ef c1 c2 6a e5 c1 7d 28 12 c1
       -35.81693 -29.936264 -28.677128 -9.134885
000030 14 40 cd c1 3a ba e2 40 c4 5c 21 c2 49 3a 2b c2
       -25.656288 7.0852327 -40.34059 -42.80692

running_var f4 [16]
000000 01 eb c6 43 fa 08 86 44 0d 96 88 44 34 b5 90 45
       397.83597 1072.2805 1092.6891 4630.6504
000010 61 b8 90 42 0e 28 ef 45 fe aa a4 43 e8 eb df 43
       72.360115 7653.007 329.33588 447.84302
000020 4f 6b 1c 44 bc a2 e2 43 b4 f6 c3 43 65 36 53 42
       625.6767 453.27136 391.92737 52.80312
000030 17 8b b2 43 4d cc c6 41 bf 2f 4c 44 36 3b 72 44
       357.08664 24.849756 816.74603 968.9252

weight f4 [16, 3, 3, 3]
000000 84 e2 a9 bd 7e 52 e3 3d f8 ab e4 3d 32 88 0f be
       -0.082951576 0.110997185 0.11165613 -0.14016798
000010 15 25 b0 bb 7a 2d 10 be a5 9d 1c 3e 66 f1 da 3d
       -0.0053755143 -0.14079848 0.15294512 0.10690574
000020 c4 10 ef bb 3d bf 06 bd f2 d3 37 3d 6c fd 94 3d
       -0.0072957 -0.032897223 0.04487986 0.07274899
000030 18 99 0c 3d 38 16 e5 3c eb 19 3a 3e be 1d f2 bd
       0.03432569 0.027964696 0.1817395 -0.11822079
000040 88 90 f5 3c 49 78 90 bd 23 bc 85 bd c1 57 c8 3d
       0.029976144 -0.070541926 -0.06530025 0.09782363
000050 c6 2f 68 3d f1 7c 72 bd bd 97 8e 3c 90 f5 6f 3d
       0.056686185 -0.059201185 0.017406339 0.058583796
000060 f5 41 68 3c c7 be 15 be b3 85 c9 bd 79 57 16 3e
       0.014175882 -0.14623557 -0.09839954 0.14681806
000070 b0 2d 18 3e ce 38 b4 3d 79 c0 b5 bd fb 1c 0a 3e
       0.14861178 0.08799897 -0.08874602 0.13487618
000080 28 89 2f 3e ed 4b fb bd 02 2b 0f be 52 57 34 be
       0.17142165 -0.12270341 -0.1398125 -0.17611435
000090 34 e0 15 bd 4a 26 20 3e 8d 88 ff bd e9 3e e5 bc
       -0.03659077 0.15639606 -0.12477217 -0.0279841
0000a0 33 96 b6 bd b4 0c ee bd 43 69 88 bd ae 89 31 3e
       -0.08915367 -0.11623517 -0.06660702 0.17337677
0000b0 b0 f3 ae bd ff c9 01 be fb fc 0c 3e d5 00 dc bd
       -0.085425735 -0.12674712 0.1376838 -0.10742346
0000c0 fb dc a1 3d d6 cc fa bd 98 b9 f5 3d 41 2a 39 be
       0.07903477 -0.122461006 0.1199829 -0.18082525
0000d0 c3 11 31 be c8 3e 34 bd b8 6c 9e 3d 49 19 e9 3d
       -0.17291932 -0.044005185 0.0773558 0.11381776
0000e0 42 d2 67 bd e2 d6 f9 3d 7d d7 84 bc 8e af 58 3d
       -0.056597 0.12199189 -0.016216034 0.052901797
0000f0 58 05 29 3e a1 f0 04 3e be 52 d9 bd a3 95 32 bd
       0.16505945 0.12982418 -0.10611485 -0.043599736
000100 52 63 4e bd 2d 6d 07 be 7c dc 2d 3c 7e af de bd
       -0.050387688 -0.13225241 0.01061165 -0.10873316
000110 45 c1 fe bb 7f 1f 0e 3e b2 fe f4 3d 2d 21 43 be
       -0.0077745044 0.13879202 0.11962642 -0.19055624
000120 c1 93 b0 3d 9a a9 da 3d 64 cd 29 be 3f 09 15 be
       0.08621932 0.1067688 -0.16582257 -0.14554308
000130 60 2e 7e 3d 7e 33 91 bd 11 7a 2f 3e 6e a2 fa bd
       0.062055945 -0.070898995 0.17136408 -0.12238012
000140 12 be aa 3d 06 aa 85 3d 9c e4 bc bd f3 c3 fe 3d
       0.08337034 0.0652657 -0.09223291 0.12439718
000150 68 d7 1b 3e df 3a 09 3e 56 c1 2c be e1 ab 0b be
       0.1521889 0.13401364 -0.16870627 -0.13639785
000160 46 f4 00 3e 9e 32 37 3e 4c c1 f9 3b 5e 81 ae bc
       0.12593183 0.17890403 0.0076219197 -0.021301921
000170 86 4f a7 bd 53 44 a9 bd 55 b8 25 3e ca 57 99 3d
       -0.08169465 -0.08264985 0.16183598 0.074874476
000180 72 42 a5 bd dc c3 1a bd 0d 3b 3e be d6 c2 bf bd
       -0.08069314 -0.037784442 -0.18577214 -0.09363334
000190 b0 38 89 3c 1a 97 e8 3c ff 5e 23 bd 27 0d 63 3b
       0.016750664 0.028392363 -0.039885517 0.003464529
0001a0 33 35 06 3e df 9f 25 be c5 9f 36 bd 19 3e 82 3d
       0.13106231 -0.16174267 -0.04458596 0.063595004
0001b0 4c 98 ff bd 2c 7b 2d be 02 7b 1a 3e 1e c2 29 be
       -0.1248022 -0.16941518 0.15085986 -0.16577956
0001c0 40 c6 8e bd 1d 9b ee bd e1 a5 2e be 98 f3 06 3e
       -0.06971407 -0.11650679 -0.17055465 0.13178861
0001d0 5b ab 36 3d b8 39 ad 3c 6d 20 e0 bc 81 2c b6 bb
       0.04459701 0.021145687 -0.027359212 -0.0055595045
0001e0 cd d1 27 3e 99 0b 23 3d f0 8f 03 bd 32 4b b5 bd
       0.16388626 0.039805982 -0.03211969 -0.08852233
0001f0 2f 05 32 3e 00 e3 2e 3e 98 35 e3 bb ef 53 8e bd
       0.1738479 0.17078781 -0.006933879 -0.06949603
000200 a7 77 ac bd dc 49 2c 3e 35 64 3f be 66 0a 3d 3e
       -0.084212594 0.1682505 -0.1869057 0.18460998
000210 be 0e 90 3d 77 11 c3 3d d1 36 34 be 71 d3 32 3e
       0.07034062 0.095248155 -0.17599036 0.17463471
000220 5e 70 2e 3e e0 d5 1f be af 4c 40 bd 84 de 9d bd
       0.17035052 -0.1560893 -0.04694813 -0.07708457
000230 42 2d 3c be 52 63 f8 3d 59 00 27 be 7d 9b b3 bc
       -0.1837664 0.12128319 -0.16308726 -0.021924729
000240 7d df e2 3d d2 8f 3c 3e bc 8a 19 3e ee c1 1f 3d
       0.11077783 0.18414238 0.14994329 0.039003305
000250 04 a9 7e 3c 02 8f 88 3d 79 c9 eb 3d 68 43 03 be
       0.015543226 0.066679016 0.11513037 -0.12818682
000260 50 2f 1d bd f3 d8 0d be 5e de 17 3e 18 dc f5 bd
       -0.0383752 -0.13852291 0.1483092 -0.1200487
000270 cc df 3e 3d a1 60 28 be 5a 4e 35 3d a2 bc 38 3e
       0.046600148 -0.16443111 0.044264175 0.18040708
000280 65 02 b9 3c fa 8c 50 bc a5 78 de bc 90 47 f2 3c
       0.02258415 -0.012728924 -0.027157137 0.02957514
000290 71 59 f6 3d f3 ee 2a 3c c9 0b 90 3d 23 3e 57 bd
       0.12028778 0.0104329465 0.07033498 -0.052549493
0002a0 ee 6e a5 bd c6 5f da 3d 21 95 28 3e 2c 51 21 3d
       -0.08077799 0.106627986 0.16463138 0.039384052
0002b0 04 f9 97 bd e8 c3 c3 3d ba dc cf 3c 02 f6 f7 bd
       -0.07420543 0.095588505 0.025373805 -0.12107469
0002c0 40 0d 71 bd 8e 83 2a 3e 3e d1 fb bc da da 43 3d
       -0.058850527 0.16651747 -0.030739423 0.047816135
0002d0 53 52 29 bc a2 a2 32 be 09 12 a2 bd f9 ea 22 3e
       -0.010334569 -0.17444852 -0.07913596 0.15909947
0002e0 36 1b 17 be 6e ae 20 be 3c de 02 be 7e c7 b3 bd
       -0.14756474 -0.1569154 -0.12780088 -0.087782845
0002f0 98 f8 4a bd 89 42 1e be 17 77 5b bd 46 28 9b bd
       -0.049553484 -0.15455069 -0.05358037 -0.07576041
000300 db a2 f5 3c e4 56 df bb bf c5 7d bd 47 be 9c bc
       0.029984882 -0.006815778 -0.061956163 -0.0191337
000310 73 d1 8f bd 58 88 a4 bd dc 2f 31 3e 6f 12 91 3d
       -0.07022371 -0.08033818 0.17303413 0.07083594
000320 5d 12 c6 3d 9e 34 35 be f8 9b 9d bd 9c d2 30 be
       0.09671471 -0.17695853 -0.07695764 -0.17267841
000330 eb 93 f3 3c b3 e2 25 3d ea 6b 95 3d 6d 30 08 3e
       0.029733619 0.0404994 0.072959736 0.13299723
000340 a4 3a ae 3c 84 5e a3 3d e0 4d 35 3e b5 02 94 bd
       0.021268196 0.07977012 0.17705488 -0.07227079
000350 02 56 34 be 99 e0 5e 3c 81 c3 c3 bc 64 93 2c be
       -0.17610934 0.013603353 -0.023896934 -0.168531
000360 7d 6e d4 3d 54 1f 17 3e 26 05 79 3b 92 b4 8c bd
       0.103726365 0.14758044 0.0037997453 -0.068703786
000370 9d 76 fb bd 8f c9 fa bd 03 11 d5 3d 33 6e af bd
       -0.12278483 -0.122454755 0.10403635 -0.08565941
000380 c9 8b 2c be b0 31 78 3d 2c 0e 2e be fb e5 45 3d
       -0.16850199 0.06059426 -0.16997594 0.04831503
000390 8a d0 f5 3c 74 a1 a3 bc 9d f0 b5 bd f0 3f fe bd
       0.030006666 -0.019974448 -0.08883784 -0.12414539
0003a0 c1 e4 24 3d 56 4c ee 3c 8c 7c 00 be 1e b9 b0 bd
       0.04025722 0.029089134 -0.12547511 -0.08629058
0003b0 60 71 d9 3b 01 22 0e 3e 34 e0 b2 bd 77 7c a2 3d
       0.00663583 0.13880159 -0.087341696 0.07933896
0003c0 95 7b c1 bd 8e 17 ee bd 39 cf a4 bd 00 34 86 bd
       -0.094473995 -0.116255865 -0.08047337 -0.06552887
0003d0 81 41 18 be 8c 43 80 3c ae 4c 89 bd 30 19 4a 3b
       -0.14868738 0.015657209 -0.067040786 0.0030837767
0003e0 b6 35 69 bd ed 20 e1 3c f1 0c 21 3e 31 4d be 3d
       -0.05693599 0.02748152 0.15727593 0.09292067
0003f0 9c 59 0f be 7f 72 4b bd 89 de 90 bd 8f 19 3f bb
       -0.13999027 -0.04966974 -0.07073695 -0.0029159521

bias f4 [16]
000000 56 28 0d 3e df 1e 97 3d 4b 5a a9 bc 9c 3f d3 bd
       0.13784918 0.07378935 -0.020672938 -0.10314867
000010 07 26 d9 39 ea ea 24 be b9 e7 ac 39 e7 0f 9d 3a
       0.00041417798 -0.16105238 0.00032979043 0.0011982889
000020 76 98 2a 3d 70 e9 a8 b8 b2 f9 e8 3d 28 3d 0d b8
       0.041649304 -8.0543454e-05 0.113757506 -3.3673976e-05
000030 82 be 0b 38 8f d0 04 be 28 10 3d 3e 1b ba 84 bd
       3.3317607e-05 -0.12970184 0.18463194 -0.06480809

weight f4 [16]
000000 a7 29 7a 3f 20 96 7a 3f 3f 3a 7d 3f 96 aa 7d 3f
       0.97719806 0.9788532 0.98917 0.9908842
000010 1a 66 7a 3f d8 e3 7a 3f 9b 19 7d 3f 78 c5 7b 3f
       0.97812045 0.9800391 0.98867196 0.9834819
000020 8c a8 7b 3f 01 4b 7d 3f 6c b7 7c 3f f8 7f 7a 3f
       0.9830406 0.9894257 0.9871738 0.97851515
000030 51 a7 7c 3f bf e9 7b 3f 05 05 7c 3f 86 e1 7b 3f
       0.98692805 0.98403543 0.9844516 0.98390996

bias f4 [16]
000000 55 4c 18 bb e5 fe 8c bb 46 a6 95 3b d6 93 59 ba
       -0.0023238857 -0.0043028467 0.0045669405 -0.00082999223
000010 7b 43 40 bb e1 87 37 3a 57 51 21 3b ea 10 98 3a
       -0.0029337096 0.00070011435 0.0024615133 0.001160172
000020 96 4a 96 bb 4a 2d 95 39 fb 97 93 ba 23 16 a3 38
       -0.004586528 0.00028453238 -0.0011260504 7.776569e-05
000030 aa c0 fb 39 84 43 00 3b d5 3b 15 bb 62 85 e3 b9
       0.00048017997 0.0019571492 -0.0022771258 -0.00043396192

running_mean f4 [16]
000000 e9 98 6b 41 37 c3 10 c2 cc 5d b0 41 2b 13 d3 40
       14.724832 -36.19064 22.0458 6.59609
000010 4b 2e 16 c1 e8 95 d9 41 45 a7 6b c1 dd 80 23 c2
       -9.386302 27.198196 -14.728337 -40.875843
000020 36 28 80 c2 64 8d 65 c2 1c a0 9b c2 3a 64 c5 c0
       -64.07854 -57.388077 -77.81271 -6.1684847
000030 7b 7b 0b 42 14 b9 97 c2 15 fc 67 c2 da 65 44 c1
       34.870586 -75.86148 -57.996174 -12.274866

running_var f4 [16]
000000 dc 5a 13 43 ef 9f 33 44 53 fc bd 43 1e 0c a1 42
       147.35492 718.49896 379.97128 80.52367
000010 b4 4b fb 42 1d 08 dc 43 c9 09 40 43 68 c8 62 44
       125.64786 440.0634 192.03822 907.13135
000020 21 af f4 44 bd b2 c5 44 00 44 35 45 b2 3c b6 42
       1957.4728 1581.5856 2900.25 91.118546
000030 50 33 27 44 49 fa 31 45 7d 24 cc 44 b6 a7 18 43
       668.80176 2847.6428 1633.1403 152.65512

weight f4 [16, 3, 5, 5]
000000 0b c5 9f 3b 81 95 94 3d 1e 1c 92 3d 33 2a 28 3d
       0.0048757843 0.07255078 0.07134269 0.04105587
000010 e9 5f de bd 31 0b d8 bc ea aa 7a 3d 92 1c 10 bd
       -0.10858137 -0.026372524 0.061198153 -0.035183497
000020 a6 a4 93 bd 11 99 27 bd 6e 7c 4a 3d d8 0e 14 3c
       -0.072091386 -0.04091746 0.04943507 0.009036742
000030 38 12 f8 3c f4 77 b2 bd e9 48 b3 3d 43 79 e5 3d
       0.030282125 -0.087142855 0.08754141 0.112047695
000040 58 2e bb bd 07 03 55 bb 63 95 09 bc 02 de db 3d
       -0.09139699 -0.0032503025 -0.008397433 0.10735704
000050 ef 49 9e 3c e0 e9 3f bd 2b f9 ac bd 21 03 a5 bd
       0.019322364 -0.0468539 -0.084459625 -0.080572374
000060 cf ee cb 3d b9 02 97 3a 2b e4 a8 3d 7c a2 70 bb
       0.099576585 0.0011521197 0.082466446 -0.0036717942
000070 62 c5 53 bd 62 c6 92 bd 0b 92 c2 3d d8 50 41 bd
       -0.05170191 -0.07166745 0.09500512 -0.04719624
000080 33 7a a4 bd f4 b5 2f 3d 0d fd 79 bd 40 7c 57 3d
       -0.0803112 0.042898133 -0.061032344 0.05260873
000090 0d 42 87 3d 7b 8b 94 3d 12 40 55 3d e0 2e 1f 3d
       0.06604395 0.07253166 0.052063055 0.038863063
0000a0 81 3a 00 bd ca 71 29 3d 59 e1 a8 bc e0 2b f8 3c
       -0.031305794 0.041368283 -0.020615267 0.030294359
0000b0 09 37 9e bb cf 7a 22 bd d3 48 8e 3d a4 8e 98 bd
       -0.004828338 -0.0396679 0.06947484 -0.074490815
0000c0 e5 72 20 3d f3 3b 35 bd 7e d9 84 3d 2c 0f 80 3d
       0.039172072 -0.044246625 0.06486796 0.06252894
0000d0 39 4d 8a 3d e5 c7 67 bb 39 b8 9d bd d9 9b 8c 3d
       0.0675301 -0.003536695 -0.07701153 0.06865663
0000e0 fd 85 07 bd dc 36 e9 bc d7 fd ff 3c af 09 b4 bd
       -0.033086766 -0.028468542 0.03124897 -0.087909095
0000f0 69 b1 ee 3c b1 8a cb bd 27 8b 3c bd f5 73 c3 bd
       0.02913733 -0.09938563 -0.046031144 -0.095436014
000100 56 5a d6 bc 63 c0 aa bd 00 00 77 3c b8 95 ec 39
       -0.026166122 -0.08337476 0.015075684 0.00045124977
000110 f7 e6 c4 3d 00 f1 b5 bd 6a bc c0 3d 8a 65 72 3d
       0.096143655 -0.08883858 0.09410937 0.059178866
000120 20 a1 8e 3d 19 97 13 3b 2a 57 e2 bc 83 50 29 3d
       0.06964326 0.002252048 -0.027629454 0.041336548
000130 96 b8 63 bc a2 bd 89 bd 66 34 8b 3d 2c 14 c7 3d
       -0.013898989 -0.06725623 0.067971036 0.09720644
000140 b4 63 c5 bd 61 63 9f 3d 19 25 48 bd 93 e0 a4 bd
       -0.096381575 0.07782627 -0.048863504 -0.08050647
000150 3f b2 c3 3d 32 97 d1 bc 19 1f 52 bd 5e 09 b8 bd
       0.09555482 -0.02558479 -0.05129919 -0.08986162
000160 8b 8e d7 bd 42 8a 61 bd 48 6c 7b bc 56 95 a8 3c
       -0.10525235 -0.055063494 -0.0153456405 0.020579021
000170 6a 67 48 bd e4 76 b4 bd 33 4d 62 3d a8 6e da bd
       -0.04892675 -0.08811739 0.055249404 -0.10665637
000180 a8 18 8d 3d 59 48 bc 3d 78 10 5c bd 65 c8 d2 bd
       0.068894684 0.09193487 -0.053726643 -0.102921285
000190 0b 1a 9b bd fd 2f 11 3d 34 44 d2 bc 89 8c d1 3c
       -0.07573327 0.035446156 -0.025667287 0.025579708
0001a0 fd bd 32 bc ad 2f 9a bd d8 7a 64 3d 57 67 4f 3d
       -0.010909555 -0.07528625 0.055781215 0.050635662
0001b0 81 26 2e bc b6 2a c3 bd de fc 23 3d df f3 1a 3d
       -0.010629297 -0.09529631 0.040036075 0.03783023
0001c0 11 fe 66 bc 30 14 af bd 8b 79 b0 3c 5f d5 d1 ba
       -0.01409866 -0.08548772 0.021542331 -0.0016009024
0001d0 26 51 d3 3c ca b4 9a 3d 2f ee 16 3c 28 6c 1b bd
       0.02579553 0.07554014 0.009212061 -0.037944943
0001e0 c3 2a bb bd 49 7c d1 bd f0 6e 05 3d c0 7f ad bd
       -0.091390155 -0.10228784 0.0325765 -0.08471632
0001f0 00 1f 5f 3d cd 92 87 3b af 96 21 3d 6c 8c 1d bd
       0.054472923 0.004137373 0.039450344 -0.038463995
000200 69 8f d6 3c 99 90 cb 3c 22 1a 58 bd eb 81 9e bd
       0.02619143 0.024849223 -0.052759297 -0.07739624
000210 6d 06 f7 bb 18 7b 55 bd 57 06 35 bd a5 75 c7 bd
       -0.007538608 -0.052119344 -0.0441955 -0.09739236
000220 b5 79 a4 3d 7a 68 68 bd e8 fe 9b bc 8c b9 98 3d
       0.08031026 -0.05674026 -0.019042447 0.07457265
000230 74 9a 62 bd d1 5c b0 3c e0 a1 95 bc 4e 16 99 3d
       -0.05532308 0.021528633 -0.018265665 0.074749574
000240 9b f0 cb bd b0 f4 a0 bd 29 b3 3e 3d 7b d2 3a bd
       -0.09958001 -0.078591704 0.04655758 -0.045610886
000250 6f e3 2f 3d cc 30 32 3d f3 3b a7 bd 4f cd 91 3d
       0.042941507 0.043503568 -0.08165731 0.07119238
000260 45 95 f3 bc 94 bc 6b bd f1 5a 50 3d 97 34 be bd
       -0.029734263 -0.05755289 0.05086798 -0.092873745
000270 67 1d 31 3d 52 36 21 bc ca e1 93 3d 12 94 7e 3c
       0.04324093 -0.009839611 0.072208 0.015538232
000280 fb 0a 22 3d dc 22 cf 3c a9 d8 3f bd 1f 7c 0c 3c
       0.039561253 0.025285177 -0.046837483 0.008574515
000290 af 7a a1 bd 91 e4 f6 3c 58 3a 4c 3c 7e 64 81 bc
       -0.07884728 0.030138286 0.012465082 -0.015794989
0002a0 80 65 48 3c 7a 31 59 3d 12 35 b0 bd ce 49 87 bd
       0.012231231 0.0530257 -0.08603872 -0.06605874
0002b0 78 69 9d 3d bf dc 8e 3d 10 02 b6 3d 23 3d 80 bd
       0.07686132 0.06975698 0.08887112 -0.06261661
0002c0 6d 33 22 3d 6e 7c 0d bc e4 49 a3 bd 85 1e bc 3d
       0.039599825 -0.008635623 -0.07973078 0.09185509
0002d0 4c 42 68 3d 0d 19 3e 3c 38 c5 18 3d a8 53 11 3d
       0.05670385 0.011602652 0.037297457 0.03548017
0002e0 63 89 a8 bd f4 6b bb 3d 12 66 b5 bb 94 3d 8e bd
       -0.082293294 0.0915145 -0.0055358494 -0.06945339
0002f0 a4 b6 5b 3d af f3 da bd bc ea 50 3c 90 34 aa 3d
       0.053640977 -0.1069101 0.012751278 0.08310807
000300 82 5f be 3d 68 a4 dd 3c 13 39 72 bd 57 c3 aa 3d
       0.092955604 0.027055934 -0.05913646 0.08338039
000310 1b 31 83 3d 7b 83 95 3d c7 ba 29 3d c4 bb ae bd
       0.064058505 0.073004685 0.04143789 -0.08531907
000320 cf 0d e4 bd 43 81 7e bd 6f 2f a9 bb 2a 4d 8d bc
       -0.11135446 -0.062134992 -0.005163125 -0.017248709
000330 3a f2 d4 3d ff 1d 7b 3d 20 ff 98 3d d2 12 ca bc
       0.103977636 0.061307903 0.07470536 -0.024667177
000340 c3 63 8e 3c 3b af 00 bc d9 c1 2f 3c 8f ff d3 bb
       0.017381554 -0.007854278 0.010727369 -0.006469674
000350 38 e8 f5 bc 9b f1 cf bc a9 aa 7c 3d ec e8 52 bc
       -0.030017957 -0.025383761 0.06168619 -0.012872916
000360 d6 07 e3 bc e0 64 38 3d 25 f2 bf 3d 11 f1 4e 3d
       -0.027713697 0.045018077 0.09372357 0.050522868
000370 f4 aa ae 3d bb 9b 75 bc 7a ae 0d bc 14 95 92 3d
       0.085287005 -0.014990742 -0.0086475555 0.07157341
000380 e7 cc e6 3c a9 56 b1 3d f2 fa b7 3d 51 54 7e bd
       0.028173877 0.08659107 0.08983411 -0.06209213
000390 3e 44 ad bd f3 70 f2 bb 6a 4b 10 3d 82 a3 82 3d
       -0.08460282 -0.0073987185 0.03522817 0.06378843
0003a0 28 0e 15 bd d7 a1 b8 bd c9 ad d6 bd d8 c2 5e b7
       -0.036390454 -0.090152435 -0.10482366 -1.3277597e-05
0003b0 33 a8 bf 3d 3e 88 dd bd c1 53 af bc 69 12 b3 bd
       0.09358253 -0.10817002 -0.021402242 -0.08743746
0003c0 69 fc 7a bd 49 09 f7 3c 88 1e 16 3d 2a d1 60 3d
       -0.061275873 0.030155795 0.03665021 0.054886974
0003d0 ac e9 6b 3d 41 b0 04 3c 2a 80 b8 bd 8e 25 a2 bc
       0.057595894 0.008098663 -0.0900882 -0.019793298
0003e0 48 45 84 bc 41 26 16 bd 63 cd 5a bd 56 17 22 3c
       -0.016146317 -0.036657576 -0.05341853 0.009893259
0003f0 3f 03 8b bd bd d1 c0 bd 02 dc d0 3d d5 4a 12 bd
       -0.067877285 -0.094150044 0.10198213 -0.035715897

bias f4 [16]
000000 9d 47 58 bd b9 fb 12 38 18 d7 f2 bc ec d8 53 bd
       -0.05280267 3.5043548e-05 -0.02964358 -0.051720545
000010 21 f2 fd 3c 8e 49 69 3d 87 28 38 38 d7 a1 3b bd
       0.030999245 0.056954913 4.3906763e-05 -0.04580864
000020 d2 07 2b 3d 02 87 5b 3d df 65 5f 38 2d 2a d6 3d
       0.041755505 0.05359555 5.3262218e-05 0.10457263
000030 9a d3 b3 3d 8a 3b 50 3b 45 ad a8 3d 08 2a 6e 3d
       0.08780594 0.003177377 0.082361735 0.058145553

weight f4 [16]
000000 d4 2a 7c 3f 39 3e 7a 3f 0d 23 7d 3f c6 c7 7c 3f
       0.9850285 0.97751194 0.9888161 0.9874233
000010 37 8a 7c 3f 01 05 7c 3f 5f 9a 7a 3f 0a 0b 7c 3f
       0.986484 0.98445135 0.978918 0.98454344
000020 45 46 7a 3f 6e 35 7a 3f f6 70 7c 3f 56 d2 7b 3f
       0.9776347 0.9773778 0.98609865 0.9836782
000030 87 4b 7b 3f b1 36 7b 3f 9b 18 7b 3f bc 08 7e 3f
       0.9816212 0.9813033 0.9808442 0.9923208

bias f4 [16]
000000 b2 d2 26 bb d9 5e 32 3a 3d 1b 9c 3a bb 78 0f bb
       -0.0025455174 0.00068042945 0.0011909973 -0.002189203
000010 e4 58 2e ba e7 ed 86 ba cd 71 81 bb 75 3d 97 b9
       -0.0006650819 -0.0010294289 -0.0039503337 -0.00028846753
000020 82 86 07 bb 55 d9 b3 ba 58 f1 9c 38 37 7a 6d 3b
       -0.0020679538 -0.0013721386 7.4836134e-05 0.0036236176
000030 d4 4a 09 3b cb 28 8a bb fc bd 31 b9 c3 f3 06 3a
       0.0020949142 -0.0042162887 -0.0001695081 0.00051480177

running_mean f4 [16]
000000 49 60 92 41 2b 3f a0 c2 11 a1 80 42 1f a5 87 c2
       18.297014 -80.123375 64.31458 -67.8225
000010 00 0e 43 c2 c0 80 88 42 3b 65 76 c1 d1 9f 5f 42
       -48.76367 68.251465 -15.399714 55.90607
000020 19 c7 63 c1 3d ed 03 c1 73 1c db 41 37 e7 ab 40
       -14.236108 -8.2454195 27.388891 5.3719745
000030 4e 19 a5 c1 12 c0 af c0 dc 27 7a c2 9c 5a 57 42
       -20.637356 -5.492196 -62.538925 53.838486

running_var f4 [16]
000000 27 81 ac 43 f5 3f 3d 45 c7 71 fc 44 55 92 0d 45
       345.009 3027.9973 2019.5555 2265.1458
000010 66 ab 97 44 09 63 0e 45 3d 82 93 43 56 6a cf 44
       1213.3562 2278.1897 295.0175 1659.323
000020 7e a2 46 43 b1 2f e4 42 b7 17 d4 43 6f dd 2d 43
       198.63474 114.09315 424.18527 173.86497
000030 84 9d ba 43 bd 92 c6 43 57 53 f2 44 5e 9a b7 44
       373.2306 397.1464 1938.6044 1468.824

weight f4 [96, 48, 1, 1]
000000 08 c0 8f bd ff 48 ca bd ab de c1 3d 8d 94 09 3e
       -0.07019049 -0.09877204 0.09466299 0.13435574
000010 cd c6 b9 bd 45 a5 98 3d 57 7c af 3d b7 a2 a1 bd
       -0.09071121 0.07453398 0.08568638 -0.078923635
000020 72 30 6e 3d 6f d7 98 3c 86 f8 00 bd a0 bc 0b bd
       0.05815167 0.018657414 -0.03148701 -0.034115434
000030 ff 26 0d 3e 0e bf 42 bd f9 82 74 bc 86 e0 20 bd
       0.13784407 -0.047545485 -0.014923804 -0.039276622
000040 c0 47 89 3d be c0 55 3d 73 0c be 3d f2 61 f0 3d
       0.06703138 0.052185766 0.09279718 0.117374316
000050 90 33 3c bd 27 0b d4 3c 1a 0d 91 bd 38 c1 06 3e
       -0.04594761 0.025884224 -0.07082577 0.13159645
000060 8d 8c 77 bd f5 6e ca bd b4 10 06 be cc 86 a9 bd
       -0.060436774 -0.098844446 -0.13092309 -0.082776636
000070 c5 86 86 3d be 12 07 be 4c c9 1e bc df c1 02 3e
       0.06568674 -0.13190743 -0.009691548 0.12769268
000080 19 1d 8a 3c 98 19 82 bd 4c 71 46 3d 6c f2 f3 bd
       0.016859578 -0.06352538 0.048447892 -0.11911473
000090 04 26 9a bc 0c 90 10 3e e1 81 bf bd f1 d5 4e bd
       -0.018816955 0.1411745 -0.09350944 -0.050497
0000a0 e1 5a 2c bd 6d 82 52 bd 06 6a d1 3c b6 ab 1e 3c
       -0.042078856 -0.051393915 0.025563251 0.009684494
0000b0 5e 55 f0 3d 73 73 14 3d f1 30 9f 3d 64 ac 0b be
       0.117350325 0.036242913 0.07773007 -0.1363998
0000c0 fc b8 9f 3c d6 25 13 be e6 b7 09 3b a0 aa 46 3d
       0.019497387 -0.14369902 0.0021014153 0.048502564
0000d0 86 2c 19 bd cc 39 e0 bb d5 e2 08 3e 9c 72 0a 3e
       -0.037395976 -0.0068428274 0.1336778 0.13520283
0000e0 22 ec bd bc 81 5f 8d 3d 4c c3 65 3d a2 03 78 3d
       -0.023183886 0.069029815 0.056094453 0.06055034
0000f0 ed d0 f4 bd 53 32 ac bd d0 4a 3b 3d 93 00 eb bd
       -0.11953912 -0.08408036 0.045725644 -0.11474719
000100 a7 b9 a9 bc ad ef 00 be c9 f4 f3 3c 4d 3f c2 bd
       -0.020718409 -0.12591429 0.029779809 -0.0948473
000110 ee c6 40 3d 0d 5c 0b be ed a1 99 3d 14 f1 6c bd
       0.047064714 -0.13609333 0.07501588 -0.057847098
000120 07 5b a4 3d 06 d7 fe bd 51 01 04 3e 90 4e 36 3d
       0.080251746 -0.12443356 0.12891127 0.044508517
000130 35 49 04 be 97 8c ea bd 43 39 e7 bd b8 aa 92 bd
       -0.12918551 -0.11452597 -0.11290219 -0.07161468
000140 4b 9f fa 3c 23 6c 00 3e 50 38 7b bd 20 ab 70 3d
       0.030593535 0.12541251 -0.061333 0.058756948
000150 89 44 ff 3c c8 71 ff 3d 8f bb e3 bd 95 d6 56 3d
       0.03116061 0.12472874 -0.11119758 0.052450735
000160 c3 85 cc bd c4 d6 20 bd f5 3c 09 be 41 46 07 3e
       -0.099864505 -0.039267316 -0.1340216 0.13210393
000170 54 0b 34 bd dc e9 fd bd aa 1d 09 be 84 09 fd 3d
       -0.043956116 -0.12398121 -0.13390222 0.123553306
000180 10 9a ae 3d a7 3a c9 bd bb ad d4 bc cb a0 41 3d
       0.08525479 -0.0982564 -0.025961747 0.047272485
000190 21 ea a8 bc be 79 08 3e bf 12 b4 bd cc 6a 0a 3e
       -0.020619454 0.13327691 -0.08792638 0.13517302
0001a0 13 8d 57 3d 18 b4 3f 3c 41 ba fc bd 97 ed 79 3b
       0.052624773 0.011700653 -0.123402126 0.0038136
0001b0 6f ad 87 3c 21 98 90 3d 39 0e ef 3d f0 5d d8 3d
       0.016562192 0.07060266 0.11672635 0.10564792
0001c0 7e 75 c9 3d 46 90 03 3e 73 96 67 bd a5 18 cc bc
       0.09836863 0.12848005 -0.056539964 -0.024914095
0001d0 4e cb a4 bd cf f3 a8 3c 6d 4c f0 bd b0 2f d1 3d
       -0.0804659 0.02062407 -0.11733327 0.10214174
0001e0 6c 31 ea 3d 90 3c 09 be 83 ac 06 bd b7 3e d6 3c
       0.11435208 -0.13402009 -0.032879364 0.026152952
0001f0 15 2e ba 3c ef 2e 90 bd fb b5 f8 3d 90 29 9f 3c
       0.022727052 -0.07040202 0.12144085 0.019428998
000200 c9 fe a8 3d da aa 89 3d 7b 1c 13 3e 67 ff fd 3d
       0.082517214 0.067220405 0.14366333 0.1240223
000210 12 c8 a2 3c 06 69 63 bd f6 3b 3d bd d4 ef 22 bd
       0.019870792 -0.05552008 -0.04619976 -0.0397795
000220 de 00 05 3d 42 73 b8 bd 8f 26 32 3d a1 89 eb 3c
       0.03247153 -0.09006359 0.043493804 0.02875215
000230 ca 4a af bd 02 22 e2 bc 66 3a 59 3d 37 ac 06 be
       -0.08559187 -0.027604107 0.05303421 -0.13151632
000240 27 7b 53 3b 43 82 92 3d c0 71 87 3c 08 f2 a4 3d
       0.003226945 0.07153752 0.016533732 0.08053976
000250 8f 1b b0 bc 6a 8d 4b 3c 01 8a 00 bd 44 17 e6 bd
       -0.021497516 0.012423852 -0.03138161 -0.11234906
000260 8c c6 e4 bd ce 4f b5 bd 58 e5 e6 bd 0e c0 aa bd
       -0.11170682 -0.08853112 -0.112742126 -0.08337413
000270 55 54 8e 3d 47 6f 50 bd ca fc e9 bc 99 d0 9c 3d
       0.06949679 -0.050887372 -0.028562922 0.07656974
000280 20 3d 64 3d 6a 55 ba 3b 6b 73 89 bb 64 4e 89 bc
       0.055722356 0.0056864517 -0.004194667 -0.016761012
000290 05 34 af 3d f6 d7 5e bd ce 35 90 bd 1c 7c 74 bd
       0.08554844 -0.054405175 -0.070415124 -0.059688672
0002a0 31 a5 00 be c3 7c 77 bd e3 9f 00 3e 48 8f bb 3d
       -0.12563016 -0.060421716 0.12560992 0.09158188
0002b0 b5 d4 bf bd 69 98 88 3d b7 3e 03 be 73 a9 6c 3c
       -0.093667425 0.06669695 -0.12816893 0.014444697
0002c0 6a 03 bf 3d 60 03 9f 3d 3b da 05 3e 9e 8f 01 3e
       0.09326823 0.077643156 0.1307153 0.12652442
0002d0 42 78 10 3e f5 38 41 bd 61 80 b9 bd 95 4c 07 be
       0.14108375 -0.04717346 -0.090576895 -0.13212807
0002e0 11 bf 59 3c 88 d1 07 3e 5a 82 f9 3d 0d 15 c1 bd
       0.013290183 0.13263524 0.12183066 -0.09427843
0002f0 99 2d a1 bd c2 19 e6 bd 1a 7a 14 3d 4d 7a e5 bd
       -0.07870025 -0.11235382 0.036249258 -0.11204968
000300 e4 b0 23 3c c9 5f b6 3d f0 94 ef 3b 56 a8 3b bd
       0.0099909045 0.08904988 0.007311456 -0.045814835
000310 85 a9 f0 bd 2a d9 1a 3d 64 2a 84 3d 12 6c 60 bd
       -0.11751083 0.03780476 0.06453398 -0.054790564
000320 ca 6d 8a bd 8f 0c b3 3d 1d a8 4c bd b5 49 7f bd
       -0.06759222 0.0874263 -0.049965013 -0.062326152
000330 0b bb 4b 3d f8 df e9 3d 31 84 f8 bd 8d c2 8b bd
       0.049738925 0.11419672 -0.121345885 -0.06824217
000340 fa 40 ed 3d b5 ee b9 3d 92 a8 84 3c d9 ca a4 bd
       0.11584659 0.09078733 0.016193662 -0.080465026
000350 39 2f d4 3b 18 3c dd 3d d6 11 b5 3d 37 8e dd 3d
       0.006475356 0.108024776 0.088412926 0.10818141
000360 b1 3c 23 3d 5f 1b d7 3d ae 69 07 be 5b 85 b4 3d
       0.0398528 0.105032675 -0.13223907 0.08814498
000370 ec a6 46 3b 75 62 b5 3c 4d 0c b9 3b 2e 85 f0 3d
       0.0030311896 0.022141675 0.0056472183 0.11744152
000380 69 07 5e 3d 9b 6d 3a bd 21 cd 04 3e d4 88 ba bd
       0.054206286 -0.045514684 0.12968875 -0.09108129
000390 96 5d 43 bd 5b 2f 11 3d 4a b9 70 bd 8c ad b8 3b
       -0.047696672 0.035445552 -0.058770455 0.005635923
0003a0 31 5f 05 be 53 bd 8a bd 46 d4 94 3b 53 db fe bd
       -0.13024594 -0.06774392 0.0045419065 -0.124441765
0003b0 12 78 c9 3d 3a e1 81 3d 8a 1e bf bd 7c 0b cb 3d
       0.09837355 0.06341787 -0.09331997 0.099143
0003c0 47 1e de bd 1b ac b1 3d 48 11 ea bd 3f 79 05 bc
       -0.10845619 0.08675405 -0.114290774 -0.008146583
0003d0 01 32 10 3e 15 95 ca 3d a9 32 30 bd 3b 96 3a bb
       0.14081575 0.098917164 -0.043017063 -0.0028470892
0003e0 7b 52 ba bd c4 dd 94 3d 91 1a 23 3d 8a 6f f4 3d
       -0.09097763 0.07268861 0.039820258 0.11935337
0003f0 8c 4d 0c be c0 17 96 3c f8 62 58 3d c4 2b e1 bd
       -0.13701457 0.018321872 0.05282876 -0.10994676

bias f4 [96]
000000 44 30 8a b9 9c 54 c3 3c 27 5c f2 3c 6b f2 20 3d
       -0.00026357372 0.023844056 0.029584957 0.039293688
000010 ec 69 b9 bc 5b 95 02 be 8c 0b fb bd 1e 17 1e b9
       -0.022633515 -0.12752287 -0.12258062 -0.00015076666
000020 00 e9 a3 3d ec 5c 1d bc 08 c4 b5 bd 6f ac 8c bd
       0.080034256 -0.009604674 -0.088752806 -0.068688266
000030 c5 19 e4 bd b7 30 c8 bd 25 94 d7 bd 09 22 2e bc
       -0.11137728 -0.097749166 -0.10526303 -0.010628232
000040 4b d0 d4 3d 06 d9 2e 3d b9 7c 3f bd 50 b8 4c bd
       0.10391291 0.04268744 -0.046749804 -0.04998046
000050 75 b5 3f 3d 1f 50 f9 bc c2 0f 76 3d 08 2a 01 3e
       0.04680391 -0.030433713 0.06007362 0.1261369
000060 c5 34 84 bd 81 8d ac bd b1 3d ad 3a c6 e7 5d bd
       -0.064553775 -0.08425427 0.0013217238 -0.054176114
000070 36 9e c6 3d 16 17 aa bd 1b 62 0b bd e3 08 a8 3c
       0.09698145 -0.083051845 -0.034029108 0.02051205
000080 98 a7 a0 bc df 9d 13 bd be a9 d3 3d d6 69 95 3d
       -0.019611165 -0.03603923 0.1033511 0.07295577
000090 86 e1 94 bd dc 69 a5 3d 4f cd ed 3c fe 4b 47 3b
       -0.07269578 0.08076832 0.029028563 0.0030410285
0000a0 15 c1 f3 3d e2 c1 40 3c 98 67 f5 3d 45 43 0e 3e
       0.11902062 0.011764975 0.119826496 0.13892849
0000b0 d2 a3 17 3c 32 b6 99 3d 38 85 23 bd c3 18 a3 3c
       0.009255366 0.07505454 -0.03992197 0.019909268
0000c0 c2 08 87 3d 08 e1 cf bc 41 90 47 3d 8c 96 a0 bd
       0.06593467 -0.025375858 0.048721556 -0.078412145
0000d0 52 83 88 bd 32 91 07 bd e9 81 ae 3d 21 6f f9 39
       -0.06665672 -0.033097453 0.08520872 0.00047575778
0000e0 a1 a7 ca 3c bc 87 b7 3c f8 85 95 bc 1b 11 1b bb
       0.024738135 0.02240359 -0.018252358 -0.0023661319
0000f0 8f 1c f5 bd 54 3d c0 3c 2c 64 8f 3c 67 c0 ab 3d
       -0.11968338 0.023466744 0.01750382 0.08386307
000100 de ed c7 3d c4 ce 2a 39 85 bf da bc 7b a2 1c 39
       0.097621664 0.0001628949 -0.026702652 0.00014937848
000110 a8 d1 a0 bc cb 35 c8 bd c6 63 40 39 96 25 49 3d
       -0.019631222 -0.09775885 0.00018347715 0.04910811
000120 87 5e b6 bd c8 c4 73 3d 33 67 a0 3d d8 81 e1 3d
       -0.089047484 0.059513837 0.07832184 0.11011094
000130 e7 2e df bd af 4e 24 3d 1c 6b 54 3d 31 2c d0 3d
       -0.10897618 0.0401141 0.05185996 0.10164679
000140 55 87 05 be 0f 16 dc 3d e4 6c d4 bd f7 8b 1c 3d
       -0.13039906 0.10746395 -0.10372332 0.03821942
000150 6e f4 8e 3d 13 1d 90 3d 8a a1 e8 bd 6e 8e fe 3c
       0.06980215 0.070367955 -0.11358936 0.031073775
000160 c0 53 ea 3d 50 ff 29 bb 75 e0 f5 bb d3 f0 fd 3c
       0.11441755 -0.0025939532 -0.007503564 0.030998623
000170 1c 69 a5 38 4b b1 09 3e 1e 7c 94 3d 50 33 ca bd
       7.887391e-05 0.13446538 0.07250236 -0.09873068

weight f4 [96]
000000 42 b0 7a 3f 31 90 7a 3f 63 0a 7b 3f ee 42 79 3f
       0.979252 0.9787627 0.98062724 0.9736775
000010 a7 83 78 3f 37 a1 78 3f 30 72 79 3f 18 56 7a 3f
       0.97075886 0.97120994 0.9743986 0.9778762
000020 e4 69 7d 3f 66 9f 7a 3f 38 b4 7a 3f 1e db 78 3f
       0.989897 0.9789947 0.9793124 0.97209346
000030 1d 93 7a 3f 01 00 79 3f 70 c5 79 3f be b4 7b 3f
       0.9788073 0.9726563 0.9756689 0.98322666
000040 c6 38 79 3f 00 22 7b 3f 5a 46 79 3f 16 bd 79 3f
       0.97352254 0.98098755 0.9737297 0.9755415
000050 42 c5 79 3f ca 53 79 3f 7b 66 7a 3f b9 d6 79 3f
       0.97566617 0.97393477 0.9781262 0.97593266
000060 2b 49 7c 3f e7 52 79 3f 39 2d 79 3f b3 a0 78 3f
       0.98549145 0.97392124 0.9733463 0.9712021
000070 78 ef 79 3f 46 9a 7a 3f a3 62 7a 3f c7 03 79 3f
       0.97631025 0.9789165 0.9780676 0.9727139
000080 24 69 7c 3f 72 28 79 3f f7 fb 7a 3f bd 19 7a 3f
       0.9859793 0.9732734 0.9804072 0.97695524
000090 2a c8 7b 3f 64 f6 78 3f 21 db 79 3f e1 1c 7a 3f
       0.983523 0.9725096 0.9759999 0.97700316
0000a0 d6 39 79 3f 81 b8 79 3f 4a ca 79 3f 98 38 79 3f
       0.97353876 0.97547156 0.97574294 0.9735198
0000b0 58 3e 7b 3f 78 20 7a 3f 12 68 7b 3f 00 01 7a 3f
       0.98142004 0.97705793 0.98205674 0.97657776
0000c0 73 ae 7b 3f 40 31 79 3f 7c 4f 79 3f 55 ec 79 3f
       0.98313063 0.97340775 0.9738691 0.9762624
0000d0 40 d2 79 3f 70 b1 7a 3f 57 04 7b 3f ed 81 7a 3f
       0.9758644 0.97927 0.980535 0.978545
0000e0 b8 fc 79 3f 0d 68 7a 3f 1e 38 7c 3f 3c 57 7a 3f
       0.97651243 0.9781502 0.9852313 0.9778936
0000f0 fb 5d 79 3f 1c ad 79 3f 94 f0 7a 3f 49 d6 79 3f
       0.9740903 0.9752977 0.98023343 0.975926
000100 99 9f 7a 3f 10 43 79 3f 1f d0 7a 3f 62 a0 7a 3f
       0.97899777 0.97367954 0.9797382 0.97900975
000110 c6 b4 79 3f 07 ce 79 3f 47 2d 7c 3f aa b7 7a 3f
       0.97541463 0.9758 0.9850659 0.979365
000120 59 32 79 3f 9f ef 78 3f 63 7b 79 3f 6b fd 79 3f
       0.9734245 0.9724063 0.974539 0.9765231
000130 e8 bb 78 3f c5 d4 7a 3f 69 3d 7a 3f 96 d3 7a 3f
       0.9716172 0.9798091 0.97749954 0.97979105
000140 0e 44 7a 3f c6 24 79 3f ac 9b 7a 3f d7 e3 7a 3f
       0.97760093 0.97321737 0.97893786 0.98003906
000150 ff 30 7a 3f f2 0c 7a 3f 60 54 7a 3f 81 ec 78 3f
       0.9773101 0.97676 0.97784996 0.97235876
000160 39 4d 79 3f e1 37 7b 3f 57 08 79 3f 87 eb 7a 3f
       0.9738346 0.9813214 0.9727835 0.98015636
000170 18 5d 7a 3f 5c c4 7a 3f d7 86 7b 3f ce fc 78 3f
       0.977983 0.9795587 0.98252624 0.9726075

bias f4 [96]
000000 8f 2b f3 ba 23 36 0e 3b 02 16 08 39 d1 0e e4 39
       -0.001855241 0.0021699748 0.00012978169 0.00043498588
000010 bc 6a 5d bb ad d9 2e 38 b0 ac 03 bb a6 30 ac ba
       -0.0033785542 4.168756e-05 -0.0020091943 -0.0013137057
000020 b6 d6 33 3a 1d e8 72 ba 84 0c b7 ba d7 8c 5d 3a
       0.00068603025 -0.0009266155 -0.0013965522 0.0008451468
000030 dc 06 df 39 73 36 c0 3a 7e 7e 55 b9 35 2e 2c 3b
       0.00042538985 0.0014664665 -0.00020360385 0.0026272659
000040 87 f9 90 bb 27 73 b6 bb 9a e5 99 b9 2a 04 9c b9
       -0.004424277 -0.0055679264 -0.000293535 -0.0002975774
000050 19 c9 f1 ba 58 e2 03 ba c6 6d e2 b9 ca a2 c2 ba
       -0.0018446773 -0.0005030981 -0.00043187867 -0.001484954
000060 78 fe 67 ba 53 73 de 3a 2c 07 c5 ba 59 c5 81 b9
       -0.00088498695 0.0016971625 -0.0015032045 -0.00024751833
000070 79 2c ad b9 34 9c 95 ba 69 b8 98 b9 4a 19 49 ba
       -0.00033030266 -0.001141435 -0.00029129095 -0.000767131
000080 d0 4b 81 38 72 d1 e2 ba 69 25 84 3a b1 b2 a2 ba
       6.1653205e-05 -0.0017304851 0.001008195 -0.0012412873
000090 93 97 a7 3a 58 81 06 bb d9 1d 5b ba ce d0 8e 39
       0.0012786262 -0.0020523872 -0.00083586347 0.00027239922
0000a0 8a 38 02 ba be 42 ca 38 6d f8 f7 b9 b1 e8 c9 b9
       -0.00049675314 9.644542e-05 -0.00047296603 -0.00038511076
0000b0 82 b5 8c ba c5 12 6c ba 6b 55 dd 39 94 d4 a6 bb
       -0.0010735246 -0.00090054824 0.00042216046 -0.0050912593
0000c0 fe 35 2a ba 62 1d 60 ba d6 68 2f bb b3 44 24 ba
       -0.0006493031 -0.00085493 -0.0026765368 -0.00062663405
0000d0 b4 23 7f ba 2d ae 2b ba b5 8a e1 ba 34 f0 ef b9
       -0.0009732798 -0.00065490865 -0.0017207476 -0.00045764598
0000e0 f3 67 28 ba a0 19 1e bb c6 cf 0d 3a ce 0b 52 b9
       -0.0006424181 -0.002412416 0.0005409684 -0.00020031558
0000f0 f5 79 c2 3a 54 72 e8 ba a0 cf 1b bb 17 36 6c ba
       0.0014837371 -0.0017734268 -0.0023774877 -0.00090107456
000100 77 30 d8 ba 20 46 ed 3a 19 22 c9 39 e4 4f 5e ba
       -0.0016493936 0.0018102564 0.00038363112 -0.00084805326
000110 b8 05 f1 ba ab 7f f9 ba ec e2 d8 b9 2d 6a be ba
       -0.0018388545 -0.001903524 -0.000413678 -0.0014527492
000120 a5 7a c4 b9 ee 4f d7 ba a1 b0 0c 3a 37 9f 74 b9
       -0.0003747541 -0.0016427019 0.0005366896 -0.00023328965
000130 23 98 a1 ba 3f 67 03 b9 d0 ca 9f b8 4e 8e 75 ba
       -0.0012328665 -0.00012531596 -7.6194876e-05 -0.00093672134
000140 db 99 0e 3a 7b cd a4 b9 94 cb e0 ba 29 f7 07 3b
       0.00054397964 -0.00031433612 -0.0017150515 0.0020746684
000150 1a c3 0f ba 47 1e 83 3a ae 43 5d ba 34 62 c7 ba
       -0.00054840895 0.001000353 -0.0008440566 -0.0015211762
000160 b3 3e 29 39 08 d3 48 3a 75 79 70 39 68 0b 78 ba
       0.00016140453 0.00076608406 0.0002293343 -0.0009462149
000170 66 40 f4 b9 de 4b a5 3a b3 df f3 3a 9a ba b4 39
       -0.00046587287 0.0012611111 0.0018606096 0.00034471304

running_mean f4 [96]
000000 a3 ff 49 3b 42 21 51 be 47 f4 a0 3e 3e cb 72 bd
       0.0030822537 -0.20422843 0.3143637 -0.059275858
000010 cb 62 10 3e e3 73 53 be d4 b0 3c be 4b 3f 86 3d
       0.14100187 -0.20649676 -0.1842683 0.06555041
000020 8f 70 bd 3d 26 7c b3 be 7a e9 22 3e 5c 95 86 be
       0.092499845 -0.35055655 0.15909377 -0.26285827
000030 a1 70 65 be e6 7f ed bd 6b 94 0e 3e 7e 3f c4 bd
       -0.22406246 -0.1159666 0.13923804 -0.09582423
000040 28 58 e8 3e 79 5e 8d 3e 12 9e 4c 3d 77 e4 db bc
       0.45379758 0.2761114 0.049955435 -0.026842339
000050 82 be 49 bf d6 1c 60 be 66 7f ca 3e 40 e9 1a 3f
       -0.78806317 -0.21886 0.39550322 0.6051216
000060 94 93 16 be 0b 57 29 3e 0f ad 3a 3e cc 1b 40 be
       -0.14704734 0.1653711 0.18230079 -0.18760604
000070 7b d4 91 3d b8 dc be bc f8 cc 3b 3e 4c 3a 8f 3e
       0.071206056 -0.023298606 0.18339908 0.27974164
000080 a1 3d a0 3e 33 0c dc bd 7a ad 54 be f8 ba c1 3d
       0.3129702 -0.10744514 -0.20769301 0.094594896
000090 24 af 8d be 02 31 84 be 6b 06 a2 3d 08 f7 59 bd
       -0.27672684 -0.2581864 0.079113804 -0.053214103
0000a0 c8 a9 72 3e 58 cf 16 3e ac 24 f7 3e f1 15 a9 3e
       0.23697579 0.14727533 0.48270166 0.33024552
0000b0 70 65 dd 3d 97 fa fc 3d 53 2d 27 bd cb 92 76 3e
       0.10810363 0.12352484 -0.04081471 0.24079435
0000c0 76 78 b0 3d 66 69 26 be c9 b3 6a 3e fe 8c a4 3e
       0.08616726 -0.16251144 0.22920145 0.32138819
0000d0 a9 ff 28 bf 3a 85 68 be b3 23 80 3e 37 72 08 be
       -0.66015106 -0.22707072 0.25027236 -0.1332482
0000e0 2f d5 89 3e 8d fa be be 80 ce 8d 3d c8 a9 2e 3e
       0.2692046 -0.3730053 0.069241524 0.17056954
0000f0 7c c8 02 be 08 35 cc 3e 10 04 07 be cf fc b9 3e
       -0.12771791 0.3988421 -0.13185143 0.3632569
000100 78 dc 63 3c eb a7 ba bd d8 e2 65 3e bd ff 20 3e
       0.013907544 -0.09114059 0.22449815 0.15722556
000110 6b 95 63 3e 5d 1b 08 bf 1c 5d 1d be 6b 37 0d 3e
       0.22224967 -0.53166753 -0.1536755 0.13790672
000120 bb 62 3b be f9 5e b8 3e 11 62 c3 3e 33 3d 11 bf
       -0.18299381 0.36009958 0.38160756 -0.5673401
000130 14 d2 d1 be 8f 1b 0e bd 2b 8e a1 bd 57 3d cb 3d
       -0.4098059 -0.03469425 -0.078884445 0.09923809
000140 20 3b 26 bd e6 98 6d 3e c4 4c 49 bc 2d d1 18 be
       -0.04058373 0.23202857 -0.012286369 -0.14923544
000150 3a f7 55 be f2 a9 37 3e 70 2d c0 be 84 1c 8a be
       -0.2089509 0.17935923 -0.37534666 -0.2697488
000160 7d 22 01 3d fc 9a a9 3e 58 16 17 bc 1b 95 c8 3d
       0.03152703 0.33126056 -0.009221636 0.097940646
000170 47 61 05 bd 91 ed 74 3c f1 92 a7 3d 46 de 84 3d
       -0.032563474 0.014949218 0.08182324 0.06487708

running_var f4 [96]
000000 17 f3 ff 3d f1 c1 a8 3d 8a d5 ad 3d 3b 34 03 3d
       0.124975376 0.082401164 0.08487995 0.032032233
000010 ae cf 64 3e 3a d6 44 3d 31 a7 07 3e ba 98 cf 3d
       0.22344849 0.048055865 0.13247372 0.10136552
000020 ad e4 8a 3d b7 e2 f7 3d 41 f5 0b 3e 3a 4d 01 3e
       0.06781898 0.12103789 0.13667776 0.12627116
000030 ed c9 c0 3d 99 97 05 3e 43 5c 5f 3d 4b c4 6f 3d
       0.09413514 0.13046111 0.054531347 0.05853681
000040 0e 44 8b 3d 41 4a cf 3d aa e3 67 3d b9 1e 28 3e
       0.0680009 0.10121585 0.0566136 0.1641797
000050 1f d3 68 3e dd f9 91 3d da 21 6f 3d 9c 61 b0 3d
       0.22736786 0.07127736 0.058381893 0.086123675
000060 cb 7a 8d 3d 6f 01 7f 3d 8e 28 10 3d 77 b0 ff 3c
       0.069081865 0.062257227 0.035194926 0.031212075
000070 3f 82 a3 3d a3 9d 46 3e 82 c3 8b 3d b8 4e 79 3e
       0.07983827 0.19396071 0.068243995 0.24346435
000080 27 ee c5 3d a6 b9 41 3d ae 49 38 3d b1 6a 9e 3d
       0.096645646 0.04729619 0.04499214 0.077351935
000090 85 30 54 3d 4d 2c ff 3d 54 18 c7 3d af c5 0b 3e
       0.051804084 0.124596216 0.09721437 0.13649629
0000a0 e7 4d e4 3d 68 0a 18 3d b0 94 d5 3d a3 dc 30 3e
       0.11147671 0.0371193 0.104287505 0.17271666
0000b0 45 d6 ac 3d aa cc 2e 3d 1e fa a1 3d 20 b3 6d 3d
       0.08439306 0.04267565 0.07909034 0.058032155
0000c0 3c 67 ea 3e e5 c1 7f 3d 16 9a b0 3d 6a 65 1a 3e
       0.45781887 0.06244077 0.086231396 0.15077749
0000d0 9a e9 ef 3d 3e 5e 2c 3d 0e f9 68 3d 91 4e 03 3e
       0.11714478 0.042082064 0.056878142 0.1282294
0000e0 b2 65 a7 3d bf e0 f7 3d 80 6e cb 3d f6 32 e8 3d
       0.08173694 0.12103414 0.099331856 0.11337845
0000f0 c4 58 b5 3c d0 bb 8f 3e a9 04 ee 3c 5b 71 51 3d
       0.022137053 0.28072977 0.029054957 0.051133495
000100 a2 fb 13 3d 94 aa 70 3d e5 24 a9 3d 96 2f 74 3d
       0.036128648 0.058756426 0.0825899 0.059615694
000110 10 49 33 3d af e5 93 3d 83 7b 06 3e 4d e3 f7 3d
       0.04377085 0.07221543 0.13133053 0.12103901
000120 c3 df 8c 3d 96 14 54 3d 21 3a 38 3d 21 d1 3f 3e
       0.06878617 0.051777445 0.04497731 0.1873212
000130 88 99 d4 3d 75 0f 13 3e b3 24 35 3d e5 65 ee 3d
       0.10380846 0.14361365 0.044224452 0.116405286
000140 58 5b 0a 3d 67 e2 1d 3d 98 f8 5a 3d 39 a9 95 3d
       0.03377852 0.038545992 0.053459734 0.07307667
000150 ba 56 99 3d a5 10 23 3d 44 97 09 3e c0 d0 06 3e
       0.07487245 0.039810795 0.1343661 0.1316557
000160 b1 e3 38 3d 60 75 85 3d 58 a6 8b 3d 32 6c 65 3d
       0.04513902 0.06516528 0.06818837 0.056011386
000170 47 70 82 3d 9a f6 fa 3d 13 d4 55 3d 8e 8c 15 3d
       0.063690715 0.12254067 0.052204203 0.036510997

weight f4 [48, 96, 3, 3]
000000 61 a7 b5 ba 4d 8b 0a 3d 41 36 5b bb 0d ab c0 3c
       -0.0013859087 0.033824254 -0.0033449086 0.023519063
000010 61 61 f5 bc d5 e7 73 bb 02 36 6f 3c a7 f7 55 ba
       -0.02995366 -0.003721704 0.014600279 -0.0008162208
000020 35 ad bb bc f2 78 af 3a d6 89 77 bc 89 90 3d 3c
       -0.02290974 0.0013387485 -0.015108546 0.011570104
000030 9e 41 8b 3c 6b 36 ce 3c aa 40 8d bb b7 f6 be 3a
       0.016999062 0.025172433 -0.004310687 0.0014569376
000040 90 11 b8 bc b5 62 07 3d 61 a4 fd 3c ec 80 2b bc
       -0.022469312 0.03305312 0.030962171 -0.010467749
000050 b6 34 da bc 45 60 88 3a 87 e1 70 3c 60 cc ad 3c
       -0.026636463 0.0010404667 0.014702207 0.021215618
000060 bb ed 4c bb ef a4 d3 bc 31 ad 8a bc d5 d1 d3 3c
       -0.0031269628 -0.025835482 -0.016928287 0.025856892
000070 e7 de dc bc d4 e1 9e 3c e2 10 03 bd 5f bb aa 3b
       -0.026961757 0.019394793 -0.031998523 0.0052103247
000080 88 98 63 bc cf cd c0 bc ea b0 89 3c 05 61 3b bc
       -0.013891347 -0.023535637 0.016807992 -0.0114367055
000090 f6 43 12 3d 04 6a b2 3b 1c c3 6c bc 84 f1 4b 3c
       0.035709344 0.005444767 -0.014450815 0.0124477185
0000a0 6b 10 a4 3b f3 fb ef 3c 23 2a 47 3c 9f 97 45 bc
       0.00500684 0.029294943 0.012156042 -0.012060075
0000b0 7d 0e 0a 3c 0f f5 a4 3c 77 9c 40 bc 01 a3 98 3c
       0.008426306 0.020136384 -0.011756054 0.018632414
0000c0 91 f3 26 3c ed f0 8a bc 1c ef aa 3b e5 ee 75 bc
       0.010189907 -0.016960585 0.0052164923 -0.01501057
0000d0 99 e1 d4 bc e4 26 b0 3c f5 ae 69 3c 7c 89 f5 ba
       -0.02598648 0.02150292 0.014262904 -0.001873299
0000e0 e2 a3 ae 3c 6b bf 90 3c f8 79 ea 3c 99 00 9d 3c
       0.02131838 0.0176694 0.028622612 0.019165324
0000f0 49 fc ec bb dd 3d 7c bc 5a 47 49 3c 77 75 db bc
       -0.007232223 -0.015395609 0.012285078 -0.02678941
000100 ed 4a d6 bc 05 2e b4 bb 0b a2 a9 bc 78 c7 cf bc
       -0.026158774 -0.00549865 -0.02070715 -0.025363669
000110 ab dc a7 bc b7 b6 58 bc 15 3d e3 3a 6d 3c 9e bc
       -0.020490965 -0.013227156 0.001733693 -0.019315923
000120 02 30 d0 bc e2 f7 98 3c eb ca 90 3c 0c c4 aa bc
       -0.025413517 0.018672887 0.017674884 -0.020845436
000130 5c c5 32 3b 87 bc 9d 3c b0 6b e7 3b 23 5b 81 bc
       0.002727828 0.019254936 0.007062398 -0.015790528
000140 c3 d1 9b 3c b5 fb b5 bc 0f 29 22 bb 05 91 e7 bc
       0.01902092 -0.02221475 -0.002474371 -0.028267393
000150 09 db ac 3c 6f 5e 06 bb 22 86 a8 bc 9e 79 b3 3c
       0.021100538 -0.0020503064 -0.020571772 0.021908578
000160 0c e6 86 bb fb b3 52 bc dd 85 1f bc aa d4 0b bb
       -0.004116779 -0.0128602935 -0.009736505 -0.0021336474
000170 83 16 df 3b 16 51 e4 3c 22 65 ab 3c d2 da e6 3b
       0.0068081035 0.027870696 0.020922247 0.0070451284
000180 ad 85 10 3d 58 ad d3 bc 80 d6 21 bb 6e 55 17 bc
       0.035283733 -0.025839493 -0.0024694502 -0.009236677
000190 77 a9 c5 3c f9 e5 5a 3c eb 38 a8 bc 91 9c c0 bc
       0.024128659 0.013360494 -0.020534953 -0.023512157
0001a0 a6 3e d8 3c d4 c5 04 3d 42 06 c0 3b 76 6e 80 3c
       0.02639706 0.032415226 0.005860121 0.015677672
0001b0 80 85 15 bb 57 3a bc 3c 9f 2e ce bc f3 dc 00 bd
       -0.0022815168 0.022977037 -0.025168715 -0.031460714
0001c0 51 b2 93 3c 2e 11 f2 ba af 69 df 3b 01 ef 1d 3c
       0.018029364 -0.0018468255 0.0068180184 0.0096395025
0001d0 46 2a 8d 3c 37 da 13 bc 8c be 68 bc 03 46 8f 3b
       0.017232072 -0.009024194 -0.014205586 0.0043723597
0001e0 c4 f6 40 bc 9b 96 b0 bc 27 c0 9c bc a9 14 c2 3c
       -0.0117775835 -0.02155619 -0.019134594 0.023691492
0001f0 7d 84 d7 bc 1e 7d 0e 3c d9 8c 68 bc d7 eb 83 3c
       -0.026308293 0.008696822 -0.014193737 0.016103668
000200 38 c9 d0 3c 19 af 4c 3b 36 c3 ed 3c c5 16 8b 3c
       0.025486574 0.0031232296 0.029023748 0.01697863
000210 18 56 00 3d 0d 03 b4 3c 29 87 cf 3c fc 75 a1 bb
       0.031332105 0.021974111 0.025333004 -0.004927395
000220 99 39 5c bc 95 43 c4 3b 42 25 ab 3b 3f e5 e7 3c
       -0.013441467 0.0059895017 0.0052229473 0.028307555
000230 ef 1c 1e bc 29 98 0a 3d 8e d5 71 bc 3e ea 83 3c
       -0.009650453 0.033836517 -0.014760388 0.016102906
000240 e9 ec d8 bc 53 b2 8b 3c bd 33 64 3c 54 0e 13 3d
       -0.026480155 0.017052805 0.013928351 0.035902336
000250 71 3f 9d bc 75 7f 37 bc 0d 28 b4 bc 8d ce ea bc
       -0.01919529 -0.011199822 -0.021991754 -0.028662944
000260 cf 7c 88 3c 95 8d f8 3c 18 32 88 3c 80 61 46 3c
       0.016661076 0.03034095 0.016625449 0.012108207
000270 d6 b6 c1 3c 21 45 e8 bc 11 b5 d5 3c e6 44 08 3d
       0.023646753 -0.028353276 0.026087316 0.03326883
000280 c2 49 d0 bb ac 75 c1 bc b0 34 a9 bc 68 b2 9a 3c
       -0.006356449 -0.02361568 -0.020655006 0.018883899
000290 e5 2b 2b bb 86 07 39 3c c5 e1 e4 bc 89 c9 25 3c
       -0.0026118692 0.011293298 -0.027939687 0.0101188505
0002a0 d0 1c 74 3c 8d 19 9f bc 74 81 89 bc de 85 69 bc
       0.014899448 -0.019421363 -0.01678536 -0.014253108
0002b0 1f 66 6b ba d8 d8 ef bc 74 13 4f bc 3e af ce 3c
       -0.0008979756 -0.029278204 -0.012638915 0.025230046
0002c0 49 f3 84 3c 9a b7 24 bc f6 c4 8e bc 2f 6c df bb
       0.016229289 -0.01005354 -0.017427903 -0.0068183164
0002d0 e8 9a d1 bc 43 13 1f 3c 10 b0 83 3c 71 92 00 3c
       -0.02558656 0.009709182 0.016075164 0.007847414
0002e0 0d 88 05 3c 4d 82 db 3c d5 6d db ba f4 96 60 3c
       0.008150113 0.02679553 -0.0016741107 0.013707865
0002f0 a0 f6 8d 3c b1 8e aa bc 41 07 6e 3c d3 2d e9 3b
       0.017329514 -0.020819994 0.014528097 0.0071160584
000300 74 7c 8b bc 06 c7 a2 3c aa 76 85 bc 28 83 22 bc
       -0.017027117 0.019870292 -0.016291935 -0.009918965
000310 ec a3 db 3b dd 53 92 3b 35 fd fc 3c b9 d5 f0 b8
       0.0067028906 0.0044655637 0.030882457 -0.00011483901
000320 c7 db 08 3d 03 2e de 3c b1 63 fd 3c 11 23 4e 3c
       0.03341272 0.02712155 0.030931326 0.012581603
000330 11 67 d5 bc cf 34 cc 3c 04 fe 2e bb 69 f4 da bc
       -0.026050122 0.024927525 -0.0026701698 -0.026727872
000340 5a 44 88 3c 30 fe 6f 3c 95 57 39 bc 74 f0 bd 3b
       0.016634155 0.014648005 -0.011312385 0.0057964865
000350 f1 0e f1 bc 75 8c fc 3c a0 be 83 3b c8 0f 18 3c
       -0.02942607 0.030828694 0.004020527 0.009281106
000360 c5 58 04 3c 25 1a 75 bc a3 09 29 bc 89 45 f3 bc
       0.008077805 -0.014959847 -0.010317239 -0.029696243
000370 d9 8d ef 3c 4e c6 70 bc 3c 2b c5 3c 17 bd e1 bc
       0.029242443 -0.014695717 0.024068467 -0.027555985
000380 05 b2 e3 3c a8 45 35 3c 02 f4 c2 bc ec 36 08 bc
       0.027794847 0.011063971 -0.023797993 -0.008313876
000390 be 84 74 3c 41 2d 9f 3b 6b 25 91 bc 90 b5 8c 3c
       0.014924226 0.0048576896 -0.017718038 0.01717642
0003a0 68 51 e9 3c 63 d7 61 3c 40 be 9d bb f7 87 51 3b
       0.0284812 0.013784262 -0.0048139393 0.003197191
0003b0 5c e9 ba bc c9 b6 c8 3c b7 6d 38 3c f2 f2 fb ba
       -0.022816353 0.024501221 0.011256627 -0.0019222184
0003c0 da a8 79 bc 95 71 e4 3c 37 19 cd bc 13 93 a7 3c
       -0.015238011 0.027886191 -0.025036437 0.020455873
0003d0 5e 9d c7 3c cb 59 37 3c fa d3 12 bc a7 b9 8b 3c
       0.02436703 0.011190842 -0.008961672 0.0170563
0003e0 36 2e 7d 39 2e 8f c1 3c 43 40 b1 3b c9 d1 3e bb
       0.00024145175 0.023627844 0.005409272 -0.002911674
0003f0 f1 88 6c bc be 60 e7 bc 34 21 bf bc d7 0a 46 3c
       -0.014436946 -0.028244372 -0.023331262 0.012087545
