weights/Adam.model.weights.pt (torch, 218905 bytes, 42 tensors)

weight f4 [16, 3, 1, 1]
0	0x3d14a539	0.03629038
1	0x3e06a3af	0.13148378
2	0x3d6da09e	0.058014505
3	0x3e718f23	0.23589759
4	0x3ef42f77	0.47692463
5	0xbeb8c69e	-0.36089033
6	0x3c2c7a1d	0.010527161
7	0xbd9fc715	-0.07801644
8	0xbec86091	-0.39136174
9	0x3eade920	0.33966923
10	0x3e916101	0.2839432
11	0x3e8bc420	0.2729807
12	0xbdc5c554	-0.09656778
13	0x3ec4a648	0.38408113
14	0xbebfd2e2	-0.37465578
15	0x3ee923ee	0.45535225
16	0x3eb601be	0.35548204
17	0x3eca0efb	0.39464554
18	0x3ebe9786	0.37224978
19	0x3e8b25de	0.27177328
20	0xbee77ce2	-0.45212466
21	0xba5f5c56	-0.0008520534
22	0x3e36f73b	0.17867748
23	0x3d318ca8	0.04334703
24	0xbe4077d4	-0.18795711
25	0xbdc109ec	-0.094257206
26	0x3abf0758	0.0014574332
27	0xbe10683b	-0.14102261
28	0xbe1754fb	-0.14778511
29	0x3dbb8480	0.09156132
30	0x3e3dfc0a	0.18553177
31	0x3cae3b16	0.021268409
32	0xbef0899d	-0.4697999
33	0xbe1915ed	-0.1494977
34	0x3ec1a61e	0.3782205
35	0xbeb4e310	-0.35329485
36	0xbed55ca7	-0.4167225
37	0x3ebf9e26	0.37425345
38	0xbe2ae820	-0.16690111
39	0xbe0e0842	-0.13870338
40	0x3ec9d1ef	0.3941798
41	0xbe0ec69c	-0.13942951
42	0xbeb0c356	-0.3452403
43	0x3e880bcf	0.2657151
44	0xbe8a906c	-0.2706331
45	0xbe743786	-0.23849306
46	0xbe9b1913	-0.30292568
47	0x3e56f23c	0.20990843

bias f4 [16]
0	0xbd8bebae	-0.06832062
1	0x361284e0	2.1833039e-06
2	0xbe87ff29	-0.2656186
3	0x3e0ff511	0.14058329
4	0x3dc31df6	0.09527199
5	0xbd75dd63	-0.060025584
6	0xbe2c83b3	-0.16847114
7	0xb6e85e15	-6.9250914e-06
8	0xbeb5cbef	-0.3550715
9	0xbe33e7d4	-0.17568904
10	0xbed56dcc	-0.4168533
11	0x3de31cc4	0.11089471
12	0xbcb53e45	-0.022124419
13	0x3e30bf92	0.17260578
14	0x3d0f30f5	0.0349588
15	0xb72a0dd6	-1.0136011e-05

weight f4 [16]
0	0x3f6bf8eb	0.92176694
1	0x3f69a83f	0.9127235
2	0x3f76a578	0.96346235
3	0x3f6e7b35	0.9315675
4	0x3f684bcc	0.90740657
5	0x3f71ae04	0.9440615
6	0x3f726e11	0.946992
7	0x3f703e79	0.93845326
8	0x3f6c0ca6	0.922068
9	0x3f749008	0.95532274
10	0x3f7493f8	0.9553828
11	0x3f70b526	0.9402641
12	0x3f6bd6c3	0.92124575
13	0x3f79a68c	0.97519755
14	0x3f686c42	0.9079019
15	0x3f64474e	0.891713

bias f4 [16]
0	0x3bb6ed55	0.0055824914
1	0xbc4dc23a	-0.012558514
2	0x3a6d6619	0.0009056046
3	0xbbd5ce5a	-0.006524843
4	0xbc22fef8	-0.009948485
5	0xbbc69ea5	-0.0060613924
6	0x3bd40a5f	0.006470963
7	0xbb4aaf40	-0.003092721
8	0x3c1b5f7e	0.009483216
9	0xbb9621f1	-0.004581683
10	0x3bbf10f6	0.0058308793
11	0x3cb071d7	0.021538658
12	0x3c942b93	0.018087184
13	0x3d798561	0.060918216
14	0xbbcf47ef	-0.006325714
15	0xbc41f5eb	-0.011838417

running_mean f4 [16]
0	0x4198be75	19.092997
1	0x420c27e3	35.03895
2	0xc20f62eb	-35.8466
3	0x4296673f	75.20165
4	0xc03c4766	-2.9418578
5	0x42c8c821	100.39088
6	0x41acb0d0	21.586334
7	0x41980ff1	19.007784
8	0xc1c73db1	-24.905123
9	0xc1941553	-18.510412
10	0xc190b6a9	-18.08919
11	0xc0c56968	-6.169117
12	0xc17b2392	-15.696184
13	0x41412dfe	12.073729
14	0xc1d7ebaa	-26.99007
15	0xc1fc9d44	-31.57679

running_var f4 [16]
0	0x4302a686	130.65048
1	0x43da1845	436.1896
2	0x43ef0dd8	478.10815
3	0x4502e9ac	2094.6045
4	0x41c51558	24.635422
5	0x456aef2c	3758.9482
6	0x434dc153	205.75517
7	0x42f87493	124.227684
8	0x4365d17d	229.81831
9	0x42f9a154	124.815094
10	0x430aa7cb	138.65544
11	0x42227dbc	40.622787
12	0x43112989	145.16225
13	0x421b3fd2	38.812325
14	0x43a74251	334.5181
15	0x43b6344f	364.40866

weight f4 [16, 3, 3, 3]
0	0xbd9fb5be	-0.077983364
1	0x3dcb04aa	0.09912999
2	0x3dc12460	0.09430766
3	0xbe08e2d3	-0.13367777
4	0xbc414ef3	-0.011798608
5	0xbe07598b	-0.13217752
6	0x3e0b59a1	0.1360841
7	0x3dbb207f	0.091370575
8	0xbc4b3f76	-0.012405267
9	0xbce3ad61	-0.027792634
10	0x3d35be61	0.044371013
11	0x3d86f4d3	0.06589665
12	0x3d132b26	0.03592982
13	0x3cd8029f	0.026368437
14	0x3e2ee136	0.17078099
15	0xbde4eaed	-0.11177621
16	0x3ce54889	0.027988689
17	0xbd836619	-0.06415958
18	0xbd91b12d	-0.07113872
19	0x3da1f7d7	0.079086
20	0x3d17239a	0.036899187
21	0xbd8690ba	-0.06570573
22	0x3b3fd4bc	0.0029271087
23	0x3d2e69d0	0.04258138
24	0x3b259419	0.0025265275
25	0xbe1a2320	-0.15052462
26	0xbdd36a4c	-0.10323009
27	0x3e277ddd	0.16356607
28	0x3e2b78fb	0.16745369
29	0x3de59811	0.11210645
30	0xbd7d10f5	-0.06178375
31	0x3e1ebc64	0.15501553
32	0x3e4399e4	0.19101673
33	0xbdc164d9	-0.09443063
34	0xbde2f425	-0.11081723
35	0xbe144dc1	-0.14482786
36	0xbcc285d1	-0.02374545
37	0x3e25baa1	0.16184475
38	0xbdd4820b	-0.10376366
39	0xbc629129	-0.013828554
40	0xbd8d3ec0	-0.06896734
41	0xbdc26f41	-0.09493876
42	0xbd3ba97b	-0.045815926
43	0x3e3652a1	0.17804958
44	0xbd859366	-0.06522255
45	0xbdd3e259	-0.10345907
46	0x3e112478	0.14174068
47	0xbdaaf0e9	-0.08346731
48	0x3db7040b	0.08936318
49	0xbdbdf519	-0.09275264
50	0x3e03a4de	0.1285586
51	0xbe15f00c	-0.14642352
52	0xbe0e7361	-0.13911201
53	0xbc965f1b	-0.018355897
54	0x3da1c7ea	0.07899459
55	0x3de2b511	0.11069692
56	0xbd4ccaa2	-0.049997933
57	0x3dfa075c	0.12208435
58	0xbca0d2f7	-0.019631846
59	0x3d66bcfe	0.05633258
60	0x3e2924e1	0.16517974
61	0x3e0339ae	0.12814972
62	0xbdc1c970	-0.09462249
63	0xbd5fa805	-0.054603595
64	0xbd7cc978	-0.061715573
65	0xbe0b796c	-0.13620538
66	0xbb65c2d1	-0.0035058747
67	0xbdfb4ca4	-0.122704774
68	0xbc8da950	-0.017292649
69	0x3df7429e	0.12073253
70	0x3dcf032b	0.10108026
71	0xbe49c360	-0.19703436
72	0x3db98ddf	0.09060263
73	0x3de35987	0.1110106
74	0xbe1ad3fa	-0.15119925
75	0xbe0e4f82	-0.13897517
76	0x3d811699	0.06303138
77	0xbd78a89d	-0.060707677
78	0x3e2e22b1	0.17005421
79	0xbdf17a19	-0.117908664
80	0x3db79411	0.08963788
81	0x3d816f99	0.06320114
82	0xbdc549df	-0.096332304
83	0x3df11042	0.11770679
84	0x3e1aa252	0.15100983
85	0x3e02a41a	0.12757912
86	0xbe30c3ae	-0.17262146
87	0xbe07c549	-0.13258852
88	0x3df9f0bb	0.12204119
89	0x3e323400	0.17402649
90	0xbb8557b2	-0.004069292
91	0xbd0e9bcf	-0.03481656
92	0xbdc23846	-0.094833896
93	0xbdbf7e66	-0.093502805
94	0x3e14b8d8	0.14523637
95	0x3d739a6c	0.05947344
96	0xbdb943a7	-0.09046107
97	0xbd580baf	-0.052745517
98	0xbe4c27e3	-0.1993709
99	0xbdbe1f54	-0.09283319
100	0x3c620da4	0.0137971975
101	0x3cc9aa4b	0.024617335
102	0xbd23c1bf	-0.039979693
103	0xbad5daa7	-0.0016315774
104	0x3dfff397	0.12497633
105	0xbe24c02e	-0.16088936
106	0xbd48e55e	-0.049046867
107	0x3d6c5fd8	0.05770859
108	0xbdfb6795	-0.12275616
109	0xbe2a70ce	-0.16644594
110	0x3e13d9ca	0.14438549
111	0xbe278520	-0.16359377
112	0xbd9075b1	-0.07053698
113	0xbded2f70	-0.115813136
114	0xbe2c6828	-0.16836607
115	0x3e006e50	0.12542081
116	0x3d2ab0db	0.04167257
117	0x3c968d11	0.018377813
118	0xbceb4370	-0.02871868
119	0xbbc04cad	-0.0058685155
120	0x3e200709	0.15627684
121	0x3d15cca1	0.036572102
122	0xbd056798	-0.032569498
123	0xbdb2a8d7	-0.0872361
124	0x3e2c22f4	0.16810209
125	0x3e2a54ed	0.16633959
126	0xbc1d7226	-0.009609735
127	0xbd8fa879	-0.070145555
128	0xbda9f7b5	-0.082991995
129	0x3e2390de	0.15973231
130	0xbe3ca590	-0.18422532
131	0x3e357598	0.1772064
132	0x3d860517	0.065439396
133	0x3db8bc3b	0.09020277
134	0xbe30df7a	-0.1727275
135	0x3e2b0569	0.16701283
136	0x3e29067d	0.16506381
137	0xbe1425b4	-0.14467508
138	0xbd3321ff	-0.043733593
139	0xbd91e0e6	-0.07122974
140	0xbe2f724a	-0.17133442
141	0x3df56c11	0.11983503
142	0xbe1d9eff	-0.15392683
143	0xbc9497ae	-0.018138733
144	0x3dc9483b	0.0982823
145	0x3e2a6ab3	0.16642265
146	0x3e0d6eef	0.13811849
147	0x3d159cae	0.036526375
148	0x3c784bb8	0.0151547715
149	0x3d827ef1	0.063718684
150	0x3dea5395	0.11441723
151	0xbdee5050	-0.11636412
152	0xbd02b2f1	-0.031908933
153	0xbe1ba6d9	-0.15200366
154	0x3deda916	0.11604516
155	0xbe0a14ed	-0.13484545
156	0x3cadf35b	0.021234205
157	0xbe32d1af	-0.174628
158	0x3cabe087	0.020981086
159	0x3e1e469d	0.15456624
160	0x3b6abbba	0.003581746
161	0xbce91bb7	-0.028455598
162	0xbcc78003	-0.024353033
163	0x3d064465	0.03278007
164	0x3dfc1018	0.12307757
165	0x3c46faab	0.012144725
166	0x3d951abd	0.072804905
167	0xbd47d7d1	-0.048789803
168	0xbd9f8b17	-0.07790201
169	0x3ddef6c0	0.108869076
170	0x3e29c7ac	0.16580075
171	0x3d0f37d0	0.034965336
172	0xbd9d76e0	-0.07688689
173	0x3dbc0850	0.09181273
174	0x3ca31dee	0.019911733
175	0xbdfe29cc	-0.12410316
176	0xbd7d0570	-0.061772764
177	0x3e240453	0.16017275
178	0xbd0e70e8	-0.034775645
179	0x3d2e7e5f	0.042600986
180	0xbc365d50	-0.011130646
181	0xbe306f42	-0.17229941
182	0xbd9ffb45	-0.07811598
183	0x3e1e5384	0.15461546
184	0xbe1607b7	-0.1465138
185	0xbe1f1d38	-0.1553849
186	0xbe03752f	-0.1283767
187	0xbdb46362	-0.08808018
188	0xbd564a8a	-0.05231718
189	0xbe05659c	-0.13027042
190	0xbd22fb80	-0.03979063
191	0xbd728c75	-0.05921598
192	0x3ccbc2f2	0.02487323
193	0xba2a27a1	-0.00064908905
194	0xbd3cba8b	-0.04607634
195	0xbcc8d8ed	-0.0245175
196	0xbd8663fd	-0.0656204
197	0xbd859c5d	-0.065239646
198	0x3e28f646	0.16500196
199	0x3d9860a0	0.07440305
200	0x3dc4241d	0.095772006
201	0xbe17de0f	-0.14830802
202	0xbd5d740b	-0.054065745
203	0xbe0b0593	-0.13576345
204	0x3d0bfa32	0.03417415
205	0x3d343f46	0.044005655
206	0x3d993a98	0.07481879
207	0x3dff4b04	0.1246548
208	0x3cc50d86	0.0240543
209	0x3d9c8de6	0.076442525
210	0x3e274ef3	0.1633871
211	0xbd758358	-0.059939712
212	0xbe1d413f	-0.1535692
213	0x3c596847	0.013269491
214	0xbca20ce8	-0.019781545
215	0xbe151e52	-0.14562348
216	0x3dd873d5	0.10568968
217	0x3e02cdf0	0.12773871
218	0x3cf1a2c9	0.029496567
219	0xbce6afb7	-0.02815996
220	0xbd9426a0	-0.0723393
221	0xbd8df013	-0.06930556
222	0x3dcdff63	0.10058477
223	0xbd2cbe49	-0.042173658
224	0xbde10b0c	-0.10988435
225	0x3d341fbd	0.04397558
226	0xbe079a94	-0.1324256
227	0x3ced0142	0.028931264
228	0x3c9a9446	0.01886953
229	0xbcbf5c0d	-0.023359323
230	0xbd860924	-0.06544712
231	0xbdabc022	-0.08386256
232	0x3c76c342	0.0150612015
233	0x3bbecf09	0.0058230204
234	0xbd8d18c7	-0.068894915
235	0xbd37271a	-0.044715025
236	0x3c8870f6	0.016655426
237	0x3db81588	0.08988482
238	0xbd01e8c4	-0.031716123
239	0x3d1c811d	0.03820907
240	0xbce515f7	-0.027964575
241	0xbd0b5f55	-0.034026463
242	0xbc556a63	-0.013025853
243	0xbd317e58	-0.04333338
244	0xbdf6459c	-0.12024996
245	0x3ce8348d	0.02834537
246	0xbd34596f	-0.044030603
247	0x3c94a827	0.018146588
248	0xbd185b08	-0.03719619
249	0x3d2cef7c	0.042220578
250	0x3e242d74	0.16032964
251	0x3dd285ef	0.10279452
252	0xbde5a21f	-0.11212563
253	0xbd215e15	-0.039396364
254	0xbd6070b7	-0.054794993
255	0x3bc6bc30	0.006064914

bias f4 [16]
0	0x3d034420	0.03204739
1	0xb9772889	-0.00023570856
2	0xb88a0af3	-6.582392e-05
3	0xbc1b910c	-0.009495031
4	0x3775ba76	1.4646552e-05
5	0xbd4e3688	-0.050344974
6	0x3787c650	1.61856e-05
7	0x371c9818	9.333737e-06
8	0x360600c0	1.9967993e-06
9	0xb7199775	-9.1547745e-06
10	0x3c7e67ec	0.015527707
11	0x37386eba	1.0993035e-05
12	0xb745fa63	-1.1800413e-05
13	0xbcd5e017	-0.02610783
14	0x3d901f2f	0.07037198
15	0xb820993f	-3.8289694e-05

weight f4 [16]
0	0x3f62c8f4	0.8858788
1	0x3f60ddce	0.8783845
2	0x3f717152	0.9431354
3	0x3f726ddd	0.9469889
4	0x3f60b9fa	0.8778378
5	0x3f694a6f	0.911292
6	0x3f77ada2	0.9674932
7	0x3f66967c	0.9007337
8	0x3f637c87	0.8886189
9	0x3f673325	0.90312415
10	0x3f649d79	0.89302784
11	0x3f66b1c0	0.90114975
12	0x3f6a9b3b	0.9164311
13	0x3f6f4c4d	0.934758
14	0x3f6e2789	0.93029076
15	0x3f72454e	0.94637

bias f4 [16]
0	0xbb261fec	-0.0025348617
1	0xbc3eb416	-0.0116396155
2	0x3c40cc70	0.011767492
3	0x3bbba69e	0.0057266494
4	0x3c85b8f1	0.016323538
5	0x3cb67d48	0.022276536
6	0x3c6d9eca	0.01450319
7	0x3c6fcf4a	0.014636824
8	0xbc7aa4ca	-0.015298078
9	0xbaa0a1de	-0.0012255271
10	0xbc017ef3	-0.007903802
11	0x3af9bdd4	0.0019053766
12	0xbacdb773	-0.0015694931
13	0xbb8d38ed	-0.0043097646
14	0xbc5191d4	-0.012791116
15	0x3b96a968	0.0045978315

running_mean f4 [16]
0	0x406045e3	3.5042655
1	0x412db86e	10.857527
2	0x41688a7d	14.533811
3	0xc12805b6	-10.501394
4	0xc140d6db	-12.052455
5	0x4182fc7a	16.37328
6	0xc17c3f5f	-15.765471
7	0xc19e4652	-19.784336
8	0xc1916b09	-18.177263
9	0xc1aea25d	-21.829279
10	0xc1a5e426	-20.7364
11	0xc1995f56	-19.17155
12	0x420be484	34.97316
13	0xc204dd05	-33.21584
14	0x42178f0c	37.889694
15	0xc1947705	-18.558115

running_var f4 [16]
0	0x428fdf14	71.9357
1	0x436099d7	224.60094
2	0x4399f1af	307.88815
3	0x42a9b25f	84.84838
4	0x432df266	173.94687
5	0x4350c435	208.76643
6	0x4322a2da	162.63614
7	0x437d88c7	253.53429
8	0x430228a1	130.1587
9	0x43522346	210.13779
10	0x43058f51	133.55983
11	0x4325abfd	165.67183
12	0x43f7ab7d	495.33975
13	0x43c8936a	401.15167
14	0x4403d517	527.3295
15	0x435c8377	220.51353

weight f4 [16, 3, 5, 5]
0	0x3bc99669	0.0061519635
1	0x3d97132a	0.07376702
2	0x3d91bf8b	0.07116612
3	0x3d22da90	0.03975922
4	0xbdd5a29c	-0.10431406
5	0xbcdc4bf6	-0.02689169
6	0x3d6e04a1	0.058109883
7	0xbd1bfb13	-0.03808124
8	0xbd97938c	-0.07401189
9	0xbd2e226b	-0.042513292
10	0x3d352b24	0.044230595
11	0x3bb2a170	0.0054513738
12	0x3ce69b49	0.028150218
13	0xbdb75193	-0.08951106
14	0x3da8fb64	0.08251074
15	0x3dd2fd30	0.10302198
16	0xbdbdbe0a	-0.09264763
17	0xbbdb34dc	-0.006689651
18	0xbc294ce9	-0.010333278
19	0x3dd3d467	0.10343247
20	0x3c46cfac	0.012134474
21	0xbd46df52	-0.04855282
22	0xbdae25f0	-0.0850333
23	0xbda5c146	-0.080935046
24	0x3dc5e2fd	0.09662435
25	0x3c0568fe	0.008142708
26	0x3db2cd1e	0.08730529
27	0x3aad10ab	0.001320382
28	0xbd430361	-0.047610644
29	0xbd84d4bc	-0.06485888
30	0x3dc22f6d	0.09481702
31	0xbd31a0be	-0.043366186
32	0xbda30a5b	-0.079609595
33	0x3d21b233	0.039476585
34	0xbd7208c4	-0.05909039
35	0x3d554705	0.052069683
36	0x3d83b9e6	0.06431942
37	0x3d92c496	0.07166402
38	0x3d43ddd1	0.047818962
39	0x3d1c0dc7	0.038099077
40	0xbd000fc3	-0.03126503
41	0x3d27143f	0.040790793
42	0xbca24413	-0.019807851
43	0x3cfd18d8	0.030895635
44	0xba963ecd	-0.0011462808
45	0xbd2244a9	-0.03961626
46	0x3d8e8827	0.06959563
47	0xbd8f1e3d	-0.06988189
48	0x3d25a312	0.04043872
49	0xbd187a4c	-0.037226006
50	0x3d75a410	0.059970915
51	0x3d6dc337	0.0580475
52	0x3d703e5f	0.05865323
53	0xbc321e56	-0.01087149
54	0xbd9fcf1d	-0.078031756
55	0x3d72be57	0.059263553
56	0xbd233fbe	-0.03985571
57	0xbd2274ff	-0.039662357
58	0x3c95eabc	0.018300407
59	0xbdbeeaa8	-0.09322101
60	0x3ca0e3ea	0.019639928
61	0xbdd7856a	-0.105234936
62	0xbd5bcd4c	-0.053662583
63	0xbdd6909c	-0.10476801
64	0xbd09e8da	-0.03366933
65	0xbdbaeec3	-0.091275714
66	0x3b91bf9c	0.0044478904
67	0xbc2ee020	-0.010673553
68	0x3dab3492	0.08359636
69	0xbdbbc76c	-0.09168896
70	0x3da1b0b1	0.07895029
71	0x3d4127bf	0.047157045
72	0x3d6af861	0.05736578
73	0xbbe7e98e	-0.0070774024
74	0xbd00d492	-0.031452723
75	0x3d051bd2	0.032497235
76	0xbc03a9e9	-0.008036115
77	0xbd4dccea	-0.05024425
78	0x3d4ef9b8	0.05053112
79	0x3d9565d2	0.07294811
80	0xbd8335d9	-0.06406755
81	0x3d57e7f6	0.05271145
82	0xbced5003	-0.028968817
83	0xbd621bff	-0.05520248
84	0x3d88671f	0.06660294
85	0xbc8d82b3	-0.017274236
86	0xbcf2353a	-0.029566396
87	0xbd60688a	-0.054787196
88	0xbd8ee051	-0.06976379
89	0xbcf43446	-0.029810082
90	0xbc92a014	-0.017898597
91	0x3bb3b9c6	0.0054847924
92	0xbd12afe6	-0.03581228
93	0xbd7b6386	-0.06137421
94	0x3cb24fc0	0.021766543
95	0xbd9cecde	-0.07662366
96	0x3cfb808c	0.030700944
97	0x3d46cbc4	0.04853417
98	0xbd33599a	-0.043786623
99	0xbd9a8f39	-0.07546849
100	0xbd3e4b6d	-0.04645865
101	0x3d0a25c0	0.033727407
102	0xbc3e8efc	-0.01163077
103	0x3cd8aac6	0.026448619
104	0x3bb8fcfe	0.0056453934
105	0xbd3b4fc9	-0.045730386
106	0x3d2ff940	0.042962313
107	0x3d329195	0.04359587
108	0x3b5db251	0.0033828209
109	0xbd3de1d4	-0.046357945
110	0x3cf83aa6	0.030301403
111	0x3d02df7f	0.031951424
112	0x3aea4a53	0.0017874934
113	0xbd1526b9	-0.036413882
114	0x3cd6d1ec	0.026223145
115	0x3b54fe7d	0.003250032
116	0x3c909919	0.017651128
117	0x3cf16f43	0.029471999
118	0x3bd65654	0.006541053
119	0xbc0d32e3	-0.008618089
120	0xbd5e42a9	-0.05426279
121	0xbd57179f	-0.05251276
122	0x3c937944	0.01800216
123	0xbd2d5f48	-0.042327195
124	0x3cccec37	0.02501498
125	0x3c39e881	0.011346937
126	0x3d104b97	0.035228338
127	0xbc9efa85	-0.019406566
128	0x3ce26f9c	0.02764111
129	0x3cef5a23	0.029217785
130	0xbd003bed	-0.03130715
131	0xbd430de4	-0.04762067
132	0x3bcee415	0.0063138106
133	0xbc99db76	-0.018781405
134	0xbc1f086b	-0.009706597
135	0xbd787670	-0.060659826
136	0x3d62d490	0.055378497
137	0xbcba7a53	-0.022763407
138	0x3b56f063	0.003279709
139	0x3d50e1c0	0.050996542
140	0xbd055be7	-0.032558348
141	0x3c67260e	0.014108194
142	0xbb9c0c18	-0.004762184
143	0x3d0150a1	0.031571034
144	0xbd413d9c	-0.047177896
145	0xbd46fdc4	-0.048581854
146	0x3ccae3fe	0.024766918
147	0xbc94c65a	-0.018160988
148	0x3cc3aec4	0.023887046
149	0x3cbcf153	0.023064291
150	0xbd84443e	-0.06458329
151	0x3d39aed3	0.04533274
152	0xbcf34009	-0.02969362
153	0xbd4a953d	-0.04945873
154	0x3ce2b336	0.027673345
155	0xbd8dc5cf	-0.069224946
156	0x3cc6a099	0.0242465
157	0xbc7afbbf	-0.01531881
158	0x3d36ea62	0.04465712
159	0xba6732e7	-0.0008819536
160	0x3cd9fce6	0.02660985
161	0x3c2bbe0c	0.010482322
162	0xbd40fbe2	-0.047115214
163	0xbbf6c54c	-0.007530844
164	0xbd9bc068	-0.07605058
165	0x3c8cbd84	0.017180212
166	0xbad47e5d	-0.0016211976
167	0xbc992bb8	-0.018697605
168	0x39b79500	0.00035015494
169	0x3d00ff25	0.031493325
170	0xbd8be627	-0.068310075
171	0xbd717f0c	-0.058959052
172	0x3d4ea164	0.050446883
173	0x3d41034a	0.047122277
174	0x3d6dd69a	0.058065988
175	0xbd0cbb24	-0.03435816
176	0x3d0844a5	0.03326859
177	0x3b8ae806	0.004239085
178	0xbd2d1f6e	-0.0422663
179	0x3d84f425	0.064918794
180	0x3d3bd789	0.045859847
181	0x3c7f62d6	0.015587529
182	0x3cf4c5ab	0.029879412
183	0x3cd8b029	0.026451187
184	0xbd58ceed	-0.052931715
185	0x3d8807dd	0.06642125
186	0x3bd2cc2d	0.006433031
187	0xbd0feaf8	-0.035136193
188	0x3cec9bae	0.028882828
189	0xbd88c543	-0.0667825
190	0x3cc57b21	0.024106564
191	0x3d49b8dc	0.04924856
192	0x3d4dd1b7	0.050248828
193	0x3cb80091	0.022461208
194	0xbcb75d02	-0.022383217
195	0x3d70fe62	0.05883635
196	0x3d113324	0.035449162
197	0x3d1e4afb	0.038645726
198	0x3d0eeb97	0.034892645
199	0xbcd33e5a	-0.025786567
200	0xbd9c187c	-0.076218575
201	0xbd23bd7d	-0.039975632
202	0xbadeda78	-0.0017002365
203	0xbbd0adc4	-0.0063683707
204	0x3d7c56ae	0.0616061
205	0x3d4565a5	0.04819264
206	0x3d5767d0	0.052589238
207	0xbc7dbc98	-0.015486859
208	0x3bf56d16	0.0074898107
209	0xbc1d6e2e	-0.009608788
210	0x3c4c9235	0.01248603
211	0xbb6cfd6a	-0.0036161789
212	0xbcb7e655	-0.022448698
213	0xbcafecff	-0.021475313
214	0x3cc33eec	0.023833714
215	0xbb897f39	-0.0041960743
216	0xbca02bf8	-0.019552216
217	0x3cf48f70	0.029853553
218	0x3d5a4de4	0.05329694
219	0x3ca7528e	0.020425107
220	0x3d812d2c	0.06307444
221	0xbbe0323c	-0.006841926
222	0x3abbc509	0.0014325689
223	0x3d4b90af	0.049698528
224	0x3c580785	0.013185387
225	0x3db0a0da	0.0862443
226	0x3db27685	0.08714012
227	0xbd5a8835	-0.053352553
228	0xbd8c298b	-0.06843861
229	0xbb036c6d	-0.002005364
230	0x3d2b1d23	0.041775834
231	0x3d85797e	0.065173134
232	0xbcdba33d	-0.026811237
233	0xbd8e6d15	-0.069543995
234	0xbda882b6	-0.08228056
235	0x3c361193	0.011112588
236	0x3dbce8f6	0.09224121
237	0xbdba3ff9	-0.09094233
238	0xbc4a249b	-0.012337829
239	0xbd88761d	-0.06663153
240	0xbd31c9bf	-0.04340529
241	0x3d114e0f	0.035474833
242	0x3d1567a8	0.036475807
243	0x3d4e46d4	0.050360516
244	0x3d54d093	0.051956724
245	0x3c934392	0.017976556
246	0xbd86c004	-0.06579593
247	0xbbb592b6	-0.005541171
248	0xbb9b90e9	-0.0047474992
249	0xbca1d238	-0.01975356
250	0xbd4cf0b5	-0.050034244
251	0x3bd5ddd0	0.0065266863
252	0xbd87440b	-0.06604775
253	0xbdb0ab81	-0.08626462
254	0x3dba23d4	0.09088865
255	0xbd08ec1d	-0.0334283

bias f4 [16]
0	0x37a7746c	1.9962165e-05
1	0xb59bf390	-1.1619286e-06
2	0x37647d60	1.361905e-05
3	0xb71a2775	-9.188302e-06
4	0xb758dbb9	-1.2925761e-05
5	0x3754db8a	1.26873e-05
6	0x378129e4	1.5397505e-05
7	0xb71d83fc	-9.388659e-06
8	0x3799969d	1.8309156e-05
9	0xb7a1fa1e	-1.9309166e-05
10	0xb74aa75e	-1.2079106e-05
11	0x3c27e81b	0.010248209
12	0x3b342989	0.0027490577
13	0xb74c8160	-1.218947e-05
14	0x3a8c354e	0.0010697038
15	0xb76046a6	-1.336789e-05

weight f4 [16]
0	0x3f633da5	0.8876594
1	0x3f678d46	0.9044994
2	0x3f6084a1	0.87702376
3	0x3f726f21	0.9470082
4	0x3f63aae0	0.8893261
5	0x3f6952d0	0.91141987
6	0x3f644ef0	0.8918295
7	0x3f683fe7	0.9072251
8	0x3f642950	0.8912554
9	0x3f6a7482	0.91584027
10	0x3f65f925	0.8983329
11	0x3f64a335	0.89311534
12	0x3f64f457	0.89435333
13	0x3f65f3b0	0.8982496
14	0x3f60063b	0.87509507
15	0x3f717989	0.9432607

bias f4 [16]
0	0xbca7c4e1	-0.020479621
1	0x3977f245	0.00023646008
2	0xbc8b6690	-0.017016679
3	0xbba7ffad	-0.0051269145
4	0x3b4ff4f4	0.0031731697
5	0xbbb5bd5b	-0.0055462546
6	0x3a96696d	0.0011475511
7	0x3bfda9be	0.007741182
8	0xba73e5d1	-0.00093039597
9	0x3b9a6c66	0.004712629
10	0x3c391079	0.011295431
11	0x3b667d9e	0.0035170089
12	0xbc03c26f	-0.008041962
13	0x3c117562	0.008878084
14	0xbaa8b9af	-0.0012872721
15	0xbab21b2c	-0.001358842

running_mean f4 [16]
0	0x4046f4fe	3.1087031
1	0xc1e5b97e	-28.715572
2	0x42008e93	32.139233
3	0xc22bc2dd	-42.940296
4	0xc20b5d62	-34.841194
5	0x41d33ac5	26.403696
6	0xc199b412	-19.212925
7	0x4214b96d	37.18108
8	0x4205d508	33.45804
9	0xc2266662	-41.599983
10	0x42266700	41.600586
11	0x41648d54	14.284504
12	0xc23b03c9	-46.753696
13	0x413bf4f8	11.747307
14	0xc220a9bf	-40.165768
15	0x42281090	42.016174

running_var f4 [16]
0	0x4386e4f1	269.7886
1	0x43b6d1f6	365.64032
2	0x43c5427c	394.5194
3	0x44319405	710.3128
4	0x440f817c	574.0232
5	0x43d7e868	431.81567
6	0x43ad96a8	347.177
7	0x4419ad03	614.7033
8	0x43f16f11	482.8677
9	0x4426e2d9	667.5445
10	0x4414ef68	595.7407
11	0x43875de5	270.73355
12	0x44687254	929.7864
13	0x44044a2a	529.1588
14	0x4422c7f0	651.124
15	0x44483794	800.8684

weight f4 [96, 48, 1, 1]
0	0xbd5283ba	-0.051395155
1	0xbd83c3ea	-0.06433852
2	0x3d9900db	0.07470866
3	0x3de9dd0f	0.11419117
4	0xbd615335	-0.055010993
5	0x3d8a765c	0.067608565
6	0x3da3f117	0.080049686
7	0xbd79a034	-0.060943797
8	0x3d5ce3cf	0.053928193
9	0x3ceeb207	0.029137624
10	0xbc8fc7f5	-0.017551402
11	0xbc4c2e6f	-0.0124622425
12	0x3ddca036	0.10772745
13	0xbd46147f	-0.04835939
14	0x3b152a3d	0.0022760772
15	0xbc2360c5	-0.009971802
16	0x3d69a79a	0.057044603
17	0x3d09ee84	0.03367473
18	0x3dad9bea	0.08477004
19	0x3dd5770d	0.10423098
20	0xbd07e46e	-0.033176832
21	0x3cb1b4b6	0.021692615
22	0xbd471222	-0.048601277
23	0x3dd4424e	0.10364209
24	0xbcd90d2b	-0.026495537
25	0xbd85e82d	-0.06538425
26	0xbda74444	-0.081673175
27	0xbcf767f6	-0.03020094
28	0x3d860eac	0.06545767
29	0xbda378e2	-0.07982041
30	0x3c8060e9	0.01567121
31	0x3d96876d	0.07350049
32	0x3c3dad7b	0.0115770055
33	0xbcdfa3c4	-0.02729977
34	0x3d4cf351	0.050036732
35	0xbd77ce42	-0.060499437
36	0x3b31c60f	0.0027126109
37	0x3e0b5b61	0.13609077
38	0xbd511ac9	-0.051050935
39	0xbcdbcf9a	-0.02683239
40	0xbc2e7caa	-0.010649839
41	0xbcf9217a	-0.03041147
42	0x3cdbf404	0.026849754
43	0x3c03f1cc	0.008053254
44	0x3dab098e	0.08351432
45	0x3cf85fea	0.030319173
46	0x3d80c24f	0.062870614
47	0xbda148bd	-0.07875202
48	0x3a98df21	0.0011663177
49	0xbe106aa0	-0.14103174
50	0x3c575a91	0.013144151
51	0x3ce4e61a	0.027941752
52	0xbc849253	-0.016183054
53	0xbca24186	-0.019806635
54	0x3dda6e3b	0.10665556
55	0x3dce27c3	0.10066178
56	0xbbcd92ef	-0.0062736194
57	0x3d96c070	0.07360923
58	0x3d7b811c	0.061402425
59	0x3d8aac70	0.06771171
60	0xbdb505da	-0.08839007
61	0xbdc2ad6f	-0.09505736
62	0x3d5f8079	0.05456588
63	0xbdacfbc7	-0.0844646
64	0xbce877ac	-0.028377376
65	0xbdb60b27	-0.08888846
66	0x3cb090e7	0.02155347
67	0xbd87fd3d	-0.06640098
68	0x3d43989a	0.047752954
69	0xbe01839a	-0.12647858
70	0x3d9f4bbd	0.07778118
71	0xbd070d15	-0.03297146
72	0x3da7fafc	0.08202168
73	0xbdc80fee	-0.09768663
74	0x3dfb9f59	0.122862525
75	0x3d7c8c92	0.061657496
76	0xbe062afe	-0.13102338
77	0xbdae8215	-0.08520905
78	0xbda0c323	-0.078497194
79	0xbd522fc7	-0.051315095
80	0x3ca98e16	0.020697635
81	0x3df14318	0.11780375
82	0xbd960a7c	-0.073262185
83	0x3d8dba76	0.0692033
84	0x3d3ea1cd	0.046541024
85	0x3dcf23a0	0.10114217
86	0xbd96ad5d	-0.07357285
87	0x3d0e371b	0.03472052
88	0xbdb165cb	-0.086619936
89	0xbd1b11e0	-0.037858844
90	0xbdfa527b	-0.12222763
91	0x3dd09fe1	0.101867445
92	0xbcf0f236	-0.02941237
93	0xbdf32354	-0.11871973
94	0xbdce70ee	-0.100801334
95	0x3ddb62f2	0.10712232
96	0x3d99dba4	0.07512596
97	0xbdc1f333	-0.09470215
98	0xbcc31136	-0.023811918
99	0x3d229676	0.039694272
100	0xbcc1f006	-0.023674022
101	0x3df40ee3	0.11916902
102	0xbdb05e33	-0.08611717
103	0x3df8ad4b	0.12142428
104	0x3d4889b2	0.04895944
105	0x3c2fb551	0.010724382
106	0xbdedd295	-0.11612431
107	0x3aa75f01	0.0012769402
108	0x3c81d0c0	0.01584661
109	0x3d802486	0.06256966
110	0x3ddeab85	0.108725585
111	0x3dc65e5d	0.09685967
112	0x3db47230	0.08810842
113	0x3de10e3b	0.10989042
114	0xbd659e19	-0.056058977
115	0xbce86a8e	-0.028371122
116	0xbd9d694d	-0.076861
117	0x3c9fd489	0.019510524
118	0xbdee93f2	-0.11649312
119	0x3dbf909a	0.093537524
120	0x3dd8d97f	0.10588359
121	0xbe024e59	-0.127252
122	0xbcf4909d	-0.029854113
123	0x3ca1706d	0.01970693
124	0x3c634fc1	0.013873995
125	0xbd857540	-0.06516504
126	0x3de03f1e	0.10949539
127	0x3c3a1d9a	0.011359597
128	0x3d99137b	0.07474419
129	0x3d790d0e	0.060803466
130	0x3e0252a7	0.12726842
131	0x3de4d660	0.11173701
132	0x3c85f436	0.0163518
133	0xbd68c7e4	-0.056831256
134	0xbd2dc483	-0.042423736
135	0xbd223d8d	-0.03960948
136	0x3c8f4e13	0.017493283
137	0xbd9549d3	-0.072894715
138	0x3d1c6bf8	0.038188905
139	0x3c5d19f4	0.013494957
140	0xbd8cd937	-0.06877368
141	0xbcc85c14	-0.024457969
142	0x3d49dd76	0.049283467
143	0xbdfec832	-0.12440528
144	0xbad26db0	-0.0016054418
145	0x3d6a74e9	0.0572404
146	0x3c8bf8f3	0.017086482
147	0x3d831718	0.06400889
148	0xbcbfc919	-0.02341132
149	0x3bc3ab90	0.0059713796
150	0xbcf04597	-0.029330058
151	0xbdcd1c04	-0.10015109
152	0xbdccc842	-0.09999134
153	0xbda08a13	-0.078388356
154	0xbdd96eac	-0.10616812
155	0xbda1448f	-0.07874405
156	0x3d8c639d	0.06854937
157	0xbd381195	-0.044938643
158	0xbcbd046f	-0.023073403
159	0x3d96b795	0.07359234
160	0x3d359d67	0.044339564
161	0x3badab94	0.0052999947
162	0xbc4653a5	-0.012104903
163	0xbcf64f27	-0.03006704
164	0x3d98c0a3	0.074586175
165	0xbd4838a3	-0.048882138
166	0xbd8e903a	-0.06961103
167	0xbd5ba3c2	-0.05362297
168	0xbdeadd17	-0.11467951
169	0xbd5f5271	-0.05452198
170	0x3df6c132	0.12048568
171	0x3d9e6fa5	0.07736138
172	0xbda8da26	-0.082447335
173	0x3d862132	0.065493
174	0xbde9612e	-0.11395489
175	0x3c1893e8	0.009312607
176	0x3db398bc	0.08769366
177	0x3d974bdb	0.07387515
178	0x3ddbe16a	0.10736354
179	0x3deb9190	0.11502373
180	0x3e05452a	0.13014665
181	0xbd408bcd	-0.047008324
182	0xbda03925	-0.078233995
183	0xbdf0e215	-0.11761872
184	0x3baea43b	0.0053296364
185	0x3deb12f1	0.11478222
186	0x3dd264bf	0.10273122
187	0xbda2971b	-0.07938977
188	0xbd87bf61	-0.066282995
189	0xbda13b9a	-0.07872696
190	0x3d16d3dd	0.036823142
191	0xbdd234e0	-0.10263991
192	0xbc505378	-0.012715213
193	0x3cfba5f5	0.030718783
194	0xbc8ec8e7	-0.017429782
195	0xbd379a63	-0.04482497
196	0xbd6aa65b	-0.057287555
197	0xbb85c8fd	-0.0040827976
198	0x3d08f58c	0.033437297
199	0xbd1e8dca	-0.03870944
200	0xbd2a60e7	-0.04159632
201	0x3c8e57ac	0.01737579
202	0xbd27b985	-0.04094841
203	0xbcd89467	-0.026437951
204	0x3b82e190	0.0039941743
205	0x3dac13c6	0.08402209
206	0xbd671f34	-0.056426242
207	0xbd2eef42	-0.042708643
208	0x3d41e69d	0.04733907
209	0x3d0f1f57	0.034941997
210	0x3b233a68	0.002490664
211	0xbdac6a46	-0.084187075
212	0x3c8c3e8a	0.017119665
213	0x3d81fabb	0.06346651
214	0x3cee9e5b	0.029128244
215	0x3cf59e08	0.029982582
216	0xbbfcfe98	-0.0077207796
217	0x3d1608c8	0.03662947
218	0xbd850579	-0.064951845
219	0x3d033de8	0.03204146
220	0xbc9acc7a	-0.01889633
221	0xbc52b058	-0.012859426
222	0xbcc71d3b	-0.02430593
223	0x3d66694a	0.056252755
224	0x3cafde1e	0.021468218
225	0xbcf4a94e	-0.029865887
226	0x3d88c053	0.06677308
227	0xbd574ce5	-0.052563567
228	0xbce8128d	-0.028329158
229	0xbc3a7dcb	-0.01138253
230	0xbd4076d5	-0.046988327
231	0xbc97d318	-0.018533275
232	0xbd9d63b3	-0.07685032
233	0xbd28b54b	-0.04118852
234	0xbba612a6	-0.005068141
235	0xbd565ad9	-0.052332733
236	0x3d76bcce	0.060238652
237	0x3d3b9937	0.045800414
238	0xbd2e2224	-0.042513028
239	0x3d204441	0.039127592
240	0xbdbec5e2	-0.09315087
241	0x3d965f7a	0.073424295
242	0xbde2f337	-0.11081546
243	0xbbd10aa3	-0.006379442
244	0x3dfb6e69	0.122769184
245	0x3da669cf	0.0812565
246	0xbcf2c6bb	-0.029635778
247	0xbbf08e2c	-0.007341167
248	0xbdb7d87e	-0.089768395
249	0x3d79bf6a	0.060973562
250	0x3d12894b	0.035775464
251	0x3dd6c057	0.10485905
252	0xbe08ac55	-0.1334699
253	0x3a9b78e8	0.0011861594
254	0x3d23c384	0.03998138
255	0xbdd5cd5e	-0.10439561

bias f4 [96]
0	0x38389db3	4.4015887e-05
1	0x37cb0a98	2.4204419e-05
2	0xb893ae4e	-7.041973e-05
3	0x38a0f7be	7.67554e-05
4	0x38c9c9ae	9.621993e-05
5	0xbcc94f62	-0.024573985
6	0xbcad9949	-0.021191256
7	0xb7995758	-1.8279694e-05
8	0x3a04f383	0.00050716865
9	0xb91189d8	-0.00013879628
10	0xbb4a1d83	-0.0030840344
11	0xb8ae560e	-8.3129955e-05
12	0xbc66e569	-0.014092782
13	0xbbdf9c79	-0.006824073
14	0xbc2dfe76	-0.01061975
15	0xb869297e	-5.559017e-05
16	0x3c222660	0.009896845
17	0x38d4f1a8	0.0001015396
18	0xb8562d58	-5.1063806e-05
19	0xb8b0231f	-8.398876e-05
20	0xb7f7a36a	-2.952079e-05
21	0xb92bd3fd	-0.00016386803
22	0xb7046cdc	-7.893159e-06
23	0x3cc16cfa	0.023611534
24	0x37c41bb6	2.3377925e-05
25	0xbad21c9e	-0.0016030257
26	0xb860f173	-5.363063e-05
27	0x34972810	2.815509e-07
28	0x3bd3e22d	0.0064661712
29	0xbaa4ac7e	-0.0012563614
30	0x39471f8f	0.00018989875
31	0xb83158c3	-4.2282754e-05
32	0x37fc222e	3.0056657e-05
33	0x38d9370e	0.00010357621
34	0x3c1d5ea6	0.0096050855
35	0xb9449d32	-0.00018750576
36	0x3981c23b	0.0002474951
37	0x3a30400d	0.00067234115
38	0xb8fb19c5	-0.000119734126
39	0x38f3aadc	0.00011618968
40	0x3c9a5f5f	0.018844305
41	0xb7dd4191	-2.6375785e-05
42	0x3c9ea942	0.019367818
43	0x3d069423	0.032856118
44	0x383bf6fd	4.48143e-05
45	0xb987f6f0	-0.0002593319
46	0x3849d28a	4.8118214e-05
47	0x387d0ff9	6.0334776e-05
48	0x38573aad	5.131464e-05
49	0x38814aac	6.165108e-05
50	0xb824a3d2	-3.9253217e-05
51	0xb92a7955	-0.00016257663
52	0xb832c321	-4.2620235e-05
53	0x38c459c5	9.362729e-05
54	0x3af8593f	0.0018947496
55	0xb88b32aa	-6.6374734e-05
56	0xb8b427ee	-8.590506e-05
57	0x391a1cff	0.00014697386
58	0x37cfce64	2.4772431e-05
59	0xb79ba182	-1.8552648e-05
60	0xbc9de67e	-0.019274946
61	0x389ed827	7.5742886e-05
62	0x37ea2460	2.7911912e-05
63	0x3ac35802	0.0014903548
64	0x3bdda76d	0.0067643435
65	0xb8e6a5be	-0.000109981265
66	0x38ae4e2b	8.3115265e-05
67	0xb79bf2f4	-1.8590574e-05
68	0xb6aef590	-5.2141913e-06
69	0xbbdfb341	-0.0068267887
70	0xb881b5d2	-6.185066e-05
71	0x3803fddc	3.146926e-05
72	0xbb52079b	-0.003204799
73	0xb91d5d92	-0.00015007544
74	0x3911067e	0.00013830696
75	0x3c5ab350	0.0133484155
76	0xbc4ff11d	-0.012691763
77	0x37fa3818	2.9828443e-05
78	0x3754ff2c	1.26955965e-05
79	0x3c0edacf	0.00871916
80	0xbcd9ef79	-0.026603447
81	0x3c41dd7d	0.011832592
82	0xbc2085c9	-0.009797522
83	0x394594b4	0.0001884278
84	0x38dddcd2	0.00010579232
85	0x38cc318d	9.7367076e-05
86	0xbc7cb83e	-0.015424786
87	0xb848d818	-4.788497e-05
88	0x3c82816e	0.015930858
89	0x382c0376	4.101122e-05
90	0xb797186e	-1.8011979e-05
91	0xb8874390	-6.449886e-05
92	0x351d1c20	5.8527985e-07
93	0x3cf20608	0.029543892
94	0xb8dfe989	-0.00010676968
95	0xbbeeba97	-0.007285427

weight f4 [96]
0	0x3f5a9811	0.85388285
1	0x3f5c0361	0.85942656
2	0x3f6508b2	0.89466393
3	0x3f59e0a4	0.851084
4	0x3f58b5d3	0.8465244
5	0x3f5a8ed9	0.8537422
6	0x3f5daaaa	0.8658854
7	0x3f5c6a2f	0.86099523
8	0x3f6b0557	0.9180502
9	0x3f5dac42	0.8659097
10	0x3f6191f4	0.8811333
11	0x3f5952d3	0.84892005
12	0x3f61f552	0.88264954
13	0x3f610402	0.8789674
14	0x3f60cff2	0.878173
15	0x3f631919	0.8871017
16	0x3f5beb4c	0.8590591
17	0x3f644ec6	0.891827
18	0x3f5a4ede	0.8527659
19	0x3f5965ba	0.8492085
20	0x3f5a8680	0.8536148
21	0x3f59aa5f	0.8502559
22	0x3f5c4863	0.86047953
23	0x3f5adca0	0.854929
24	0x3f6a6d40	0.9157295
25	0x3f5eb144	0.86989236
26	0x3f5f4ee7	0.8722977
27	0x3f5aaacb	0.8541686
28	0x3f66e751	0.9019671
29	0x3f59c7be	0.8507041
30	0x3f5c9eb2	0.8617965
31	0x3f5809d5	0.8439
32	0x3f63c290	0.88968754
33	0x3f607880	0.8768387
34	0x3f63fda1	0.8905888
35	0x3f598c1f	0.8497943
36	0x3f62239e	0.883356
37	0x3f593090	0.84839725
38	0x3f601f11	0.87547404
39	0x3f5ec408	0.8701787
40	0x3f590b06	0.84782445
41	0x3f623e71	0.8837653
42	0x3f619c41	0.8812905
43	0x3f5a1dbb	0.85201615
44	0x3f5bf05f	0.8591365
45	0x3f65c508	0.8975377
46	0x3f5f5170	0.8723364
47	0x3f61de56	0.8822988
48	0x3f5c9699	0.86167294
49	0x3f5d4b64	0.8644316
50	0x3f5ce8ff	0.86293024
51	0x3f59e088	0.8510823
52	0x3f5c8a5b	0.86148614
53	0x3f634e1c	0.8879106
54	0x3f66343a	0.8992344
55	0x3f5d58b8	0.864635
56	0x3f64b37f	0.8933639
57	0x3f5d904c	0.86548305
58	0x3f6500c1	0.89454275
59	0x3f5bd3a1	0.85869795
60	0x3f5cf55e	0.863119
61	0x3f5b460b	0.8565375
62	0x3f5b6646	0.8570293
63	0x3f5f9718	0.87339926
64	0x3f5c452c	0.8604305
65	0x3f595abf	0.8490409
66	0x3f606bcb	0.8766448
67	0x3f5ca6f1	0.8619223
68	0x3f59f49f	0.8513889
69	0x3f633173	0.8874733
70	0x3f61822b	0.88089246
71	0x3f5fe9a0	0.8746586
72	0x3f5bd385	0.8586963
73	0x3f591314	0.84794736
74	0x3f5be131	0.8589049
75	0x3f5b38c3	0.85633487
76	0x3f5b6077	0.8569407
77	0x3f5eac26	0.8698143
78	0x3f5b5550	0.8567705
79	0x3f60ee5d	0.87863714
80	0x3f6142e4	0.8799269
81	0x3f62dd22	0.8861867
82	0x3f608f5d	0.87718755
83	0x3f5fe162	0.8745328
84	0x3f613d43	0.879841
85	0x3f5bbaf6	0.85832155
86	0x3f59ed07	0.851273
87	0x3f5b0e49	0.8556867
88	0x3f5e906f	0.8693914
89	0x3f63640d	0.8882454
90	0x3f593312	0.8484355
91	0x3f5b5958	0.856832
92	0x3f5d6f8d	0.8649834
93	0x3f6269df	0.88442796
94	0x3f607324	0.8767569
95	0x3f5b5290	0.85672855

bias f4 [96]
0	0xbcc354b2	-0.023844097
1	0xba374d42	-0.00069924083
2	0x3c19e243	0.009392324
3	0xbbac1eab	-0.0052526793
4	0xbc3bd7fe	-0.011465071
5	0xbb9b83ba	-0.0047459276
6	0xbb876938	-0.004132416
7	0xbc125c93	-0.008933204
8	0x3c472ac1	0.012156189
9	0x3b6246fc	0.0034527173
10	0xbc8511da	-0.016243864
11	0xbbc87734	-0.0061177257
12	0x3bd7874e	0.006577409
13	0x3b2c7039	0.0026312007
14	0x3b001e44	0.001954929
15	0x3c87ca76	0.016576033
16	0xbbe3e597	-0.0069548595
17	0xbc58bc5b	-0.013228501
18	0x3b20fa53	0.0024563267
19	0xbc1488b8	-0.009065799
20	0xbc85f283	-0.01635099
21	0x3c373f05	0.011184459
22	0xbc89b1c8	-0.016808406
23	0xbc47d9fe	-0.0121979695
24	0xbc0b57b4	-0.008504797
25	0x3c6b49c8	0.014360853
26	0xbab46e8c	-0.0013765856
27	0x3c4978d0	0.01229687
28	0xbb430148	-0.0029755402
29	0xbca72bec	-0.020406686
30	0xbb23566b	-0.0024923335
31	0xbbfbb568	-0.0076815374
32	0x3b9d0490	0.0047918037
33	0xba783e9d	-0.00094697793
34	0x3cbc1482	0.022958998
35	0xbb51882a	-0.003197203
36	0x3c5630ff	0.013073205
37	0x38989076	7.274833e-05
38	0xbc32baf8	-0.010908835
39	0x3c71faab	0.014769237
40	0xbb8f5093	-0.004373619
41	0xbb8b0427	-0.0042424384
42	0x3c901938	0.01759015
43	0xbc523932	-0.012831019
44	0xbbcb6ff7	-0.0062084156
45	0x3abbd1f6	0.0014329541
46	0x3af9af78	0.0019049486
47	0xbc15703d	-0.009120998
48	0xbb374f89	-0.002797099
49	0x3ad733e8	0.0016418668
50	0xbbfc187f	-0.00769335
51	0xbb90027c	-0.0043948274
52	0x3b4d9f85	0.0031375599
53	0x3c34f75f	0.011045306
54	0xbbd910e2	-0.006624327
55	0xbc278796	-0.010225197
56	0x3b80449e	0.00391443
57	0x3b23a52e	0.002497028
58	0xbc0b5ca4	-0.008505974
59	0x3b52dd6e	0.003217544
60	0xb91949c4	-0.00014618697
61	0xbc14e12c	-0.009086888
62	0x365a72e0	3.2551397e-06
63	0xbbce21ef	-0.0062906663
64	0x3c16d643	0.009206357
65	0x3a2e2d4c	0.0006644323
66	0xbbbcc376	-0.0057606054
67	0xbcb4689d	-0.02202254
68	0xbc54ff28	-0.013000287
69	0xbcb12a69	-0.021626668
70	0x3a7a5b98	0.00095503917
71	0xbc825c99	-0.015913295
72	0x3b6af3fe	0.0035850997
73	0xbcce771e	-0.025203284
74	0x3bc02439	0.005863693
75	0x3c2f5df2	0.010703551
76	0xbbcafd4c	-0.006194746
77	0xbaa5a223	-0.0012636821
78	0xbc1d01a0	-0.009582907
79	0xbc16eb09	-0.00921131
80	0xbb26ddd4	-0.002546181
81	0x3c6804d1	0.014161305
82	0xbb340e86	-0.0027474477
83	0x3c9d40da	0.019195963
84	0x3bbfbf3f	0.0058516557
85	0xbb5ffe9b	-0.0034178856
86	0xbbb71871	-0.0055876304
87	0xbbf4f857	-0.0074758935
88	0x3a235c72	0.0006231732
89	0xbbb6121c	-0.005556358
90	0xbbe5d73a	-0.0070141824
91	0xbc9c22f6	-0.01905964
92	0xbc58823a	-0.013214642
93	0x3c84863d	0.016177291
94	0x3b541316	0.003236001
95	0x391b3ad2	0.00014803864

running_mean f4 [96]
0	0x3e4b57b2	0.19857672
1	0xbde6bd01	-0.112665184
2	0x3e2c168b	0.16805474
3	0xbdf4715d	-0.11935685
4	0xbdca5da4	-0.09881142
5	0xbdbfb789	-0.093611784
6	0xbdaa862a	-0.08326371
7	0x3babf4b9	0.005247679
8	0xbd6b3684	-0.057425037
9	0xbe6a524d	-0.22882958
10	0x3d455df0	0.04818529
11	0xbe05570a	-0.13021484
12	0xbe07aebf	-0.13250254
13	0xbd0f4483	-0.034977447
14	0x3e39c284	0.18140608
15	0xbdb5a3a7	-0.08869105
16	0x3ec06e3e	0.37584108
17	0x3e8895b0	0.26676702
18	0x3d80669a	0.0626957
19	0x3cbc49d4	0.022984423
20	0xbed1385f	-0.4086332
21	0xbdee7f7c	-0.116454095
22	0x3e901ef1	0.28148606
23	0x3edcba88	0.43111062
24	0x3dab4d31	0.083643325
25	0x3e7686a5	0.240748
26	0x3dcfbe41	0.1014371
27	0xbdaea873	-0.08528223
28	0xbd4c29b6	-0.049844466
29	0x3dbd5309	0.09244353
30	0x3e34b789	0.17648138
31	0x3dc66640	0.096874714
32	0x3e8a7234	0.27040255
33	0xbd9b8ca8	-0.075951874
34	0xbe4de561	-0.20107032
35	0x3cfd621a	0.030930568
36	0xbd99dd77	-0.07512944
37	0xbe608c8d	-0.21928616
38	0x3d3211d9	0.043474052
39	0x3c633811	0.013868348
40	0x3da08aa3	0.07838943
41	0x3e007cd8	0.12547624
42	0x3ea6e237	0.32594463
43	0x3ddde998	0.1083557
44	0x3db07ca4	0.08617523
45	0x3d40fb76	0.04711481
46	0x3d808bfb	0.06276699
47	0x3e545598	0.20735776
48	0x3cf1972d	0.029491032
49	0xbe32d7ef	-0.17465185
50	0x3df338ef	0.118760936
51	0x3eb37ead	0.35057583
52	0xbed183c4	-0.40920842
53	0xbe123209	-0.142769
54	0x3e5d5949	0.21616091
55	0xbd05c1d5	-0.032655556
56	0x3e5b38f6	0.21408448
57	0xbe1bf9b4	-0.15231973
58	0x3e58d29b	0.2117409
59	0x3d7384d7	0.059452858
60	0xbd01321f	-0.03154194
61	0x3dc6ec43	0.09713032
62	0xbd5e9913	-0.0543452
63	0x3e177cb7	0.14793669
64	0xbd1c1b5d	-0.038112033
65	0xbdc15013	-0.09439101
66	0x3e3b208c	0.18274134
67	0x3e054cde	0.13017604
68	0x3e540b89	0.20707525
69	0xbe5a4475	-0.21315177
70	0x3d7f3928	0.062310368
71	0x3d9ce88d	0.07661543
72	0xbe11fcc3	-0.14256577
73	0x3e9ff6d0	0.3124299
74	0x3e3372d4	0.17524272
75	0xbf0bf114	-0.5466473
76	0xbe8f7590	-0.2801938
77	0xbd0ba488	-0.034092456
78	0xbd80bb29	-0.06285698
79	0x3d81877f	0.06324672
80	0xbbe9cf69	-0.007135321
81	0x3da808a2	0.082047716
82	0x3ddc6a97	0.10762518
83	0xbdaaaeba	-0.08334108
84	0xbdf791d7	-0.120883636
85	0x3da29c56	0.07939975
86	0xbe5ab61b	-0.2135853
87	0xbe69b62b	-0.22823398
88	0xbcc5e693	-0.024157798
89	0x3ecf7891	0.40521672
90	0xbd7ac406	-0.0612221
91	0xbd55c37b	-0.052188378
92	0xbd33f1c5	-0.04393174
93	0xbd71fdd6	-0.059079967
94	0xbc9028ed	-0.01759764
95	0x3e0113d0	0.12605214

running_var f4 [96]
0	0x3ce99970	0.028515548
1	0x3d9a311f	0.075289
2	0x3dbc0456	0.091805145
3	0x3db82ea0	0.08993268
4	0x3d260c1e	0.0405389
5	0x3d6ffdcd	0.058591653
6	0x3ccb1302	0.024789337
7	0x3d746429	0.059665833
8	0x3d8f1bac	0.069877
9	0x3d88df26	0.06683187
10	0x3d47ea3a	0.04880736
11	0x3d1c57bd	0.03816961
12	0x3d89d09f	0.067292444
13	0x3dae8f30	0.085234046
14	0x3de7e71d	0.11323378
15	0x3d87a5d1	0.06623424
16	0x3d80285d	0.06257699
17	0x3d99e78e	0.07514869
18	0x3df75ad7	0.12077873
19	0x3cf68c30	0.030096143
20	0x3d904e4d	0.07046185
21	0x3d1d4caf	0.03840321
22	0x3d1e655e	0.03867089
23	0x3d884f6e	0.06655775
24	0x3d06d73a	0.0329201
25	0x3e11f376	0.14253029
26	0x3d1f92ed	0.03895848
27	0x3d3472f3	0.044054937
28	0x3d3630d1	0.04448015
29	0x3ddbc3ad	0.107306816
30	0x3d543c88	0.05181554
31	0x3cf57034	0.02996073
32	0x3d3e2422	0.046421178
33	0x3e105b91	0.1409743
34	0x3d8c9f69	0.068663426
35	0x3cdab57c	0.026697867
36	0x3ced0f28	0.028937891
37	0x3d8d6460	0.06903911
38	0x3d33868a	0.04382948
39	0x3c97785f	0.018490015
40	0x3d122bc3	0.035686266
41	0x3d01336d	0.031543184
42	0x3daa0f71	0.083037265
43	0x3d2e835d	0.042605747
44	0x3d1b90a0	0.037979722
45	0x3d6f636c	0.058444425
46	0x3cc61e09	0.024184244
47	0x3d2f0fdd	0.042739738
48	0x3ce935b6	0.028467994
49	0x3d0de05c	0.034637794
50	0x3ccd7db8	0.025084361
51	0x3dccab55	0.099936165
52	0x3d38bfff	0.045104977
53	0x3d01ec8b	0.031719726
54	0x3d51672a	0.051123776
55	0x3d630d4e	0.05543261
56	0x3d12deee	0.035857134
57	0x3d9a8bf3	0.075462244
58	0x3d0053df	0.031329986
59	0x3d3d9a58	0.04628977
60	0x3da71fd5	0.08160368
61	0x3cb9b46d	0.022669042
62	0x3e208e5e	0.15679309
63	0x3cc7a833	0.024372196
64	0x3d53751e	0.051625364
65	0x3d48b644	0.049001947
66	0x3d907816	0.070541546
67	0x3d170849	0.036873136
68	0x3da7a238	0.08185238
69	0x3d025264	0.031816855
70	0x3ccd9c9e	0.025099095
71	0x3d5872f3	0.052844
72	0x3d075a13	0.033044886
73	0x3d70add5	0.05875953
74	0x3cf6c67c	0.030123942
75	0x3de64260	0.11243129
76	0x3d0418ff	0.0322504
77	0x3db7d8d1	0.08976901
78	0x3db1abac	0.08675322
79	0x3d7b8da8	0.06141439
80	0x3d581dec	0.05276291
81	0x3de54143	0.11194088
82	0x3d889be1	0.066703565
83	0x3d2a4e99	0.041578863
84	0x3d9941e8	0.07483274
85	0x3d93764d	0.072002985
86	0x3ddedb66	0.10881691
87	0x3ce51e6b	0.027968606
88	0x3d84c854	0.06483522
89	0x3d2f7ef5	0.042845685
90	0x3d61c72f	0.055121597
91	0x3d848928	0.06471473
92	0x3d7166f1	0.058936063
93	0x3d8eae99	0.069668956
94	0x3da05327	0.0782836
95	0x3ddd70ff	0.10812568

weight f4 [48, 96, 3, 3]
0	0x3bd35027	0.006448764
1	0x3ce878fa	0.028377999
2	0x3a2ca972	0.00065865286
3	0x3ca7c9b9	0.020481931
4	0xbc97a413	-0.018510854
5	0xbacf9b8c	-0.0015839203
6	0x3c33d95d	0.010977116
7	0xb9868780	-0.00025659427
8	0xbc8a591c	-0.016888194
9	0x3c23f8cf	0.010008051
10	0xba8ceb8b	-0.001075135
11	0x3c539a8c	0.012915265
12	0x3c863881	0.016384365
13	0x3ca9b02d	0.02071389
14	0x3a2683eb	0.0006352055
15	0x3b8bce18	0.0042665116
16	0xbc32310a	-0.01087595
17	0x3cb01d57	0.021498365
18	0x3c9ad383	0.018899685
19	0xbc0f78ac	-0.008756798
20	0xbca307eb	-0.019901237
21	0x3b87203b	0.004123715
22	0x3c5d8ce9	0.013522365
23	0x3c98493a	0.018589605
24	0x3b8bfb1d	0.0042718784
25	0xbc0e1ed5	-0.008674343
26	0xbbb7b1bd	-0.005605905
27	0x3c9bdc73	0.019026017
28	0xbc3377c9	-0.010953852
29	0x3c915e8e	0.017745283
30	0xbc741654	-0.014897902
31	0x3c18d5e3	0.009328338
32	0xbb27034e	-0.0025484147
33	0xbbedfae2	-0.0072625736
34	0x3c93bb17	0.018033547
35	0x3adb88d2	0.001674915
36	0x3ceeb172	0.029137347
37	0x3c3a3f95	0.011367698
38	0xbb8634c1	-0.004095644
39	0x3c97a6a4	0.018512078
40	0x3c5a2d62	0.013316484
41	0x3cc7faf2	0.024411652
42	0x3c8a9bae	0.016919937
43	0x3b30bd84	0.002696843
44	0x3c469762	0.012121053
45	0x3c85fe49	0.016356604
46	0x3b05e23e	0.002042904
47	0x3c9fa538	0.019487962
48	0x3c72798e	0.014799489
49	0x3ae10b65	0.0017169534
50	0x3c52dbf9	0.012869828
51	0x3ba14635	0.0049216994
52	0xba260c0b	-0.0006334192
53	0x3cb27728	0.021785334
54	0x3c56ca17	0.013109705
55	0x3b85d177	0.004083808
56	0x3c720660	0.014772028
57	0x3c57e17f	0.013176321
58	0x3c9160bd	0.017746324
59	0x3c34c6cb	0.011033724
60	0xba63b143	-0.0008685777
61	0xbbc2ba75	-0.0059426376
62	0x3be7dad7	0.0070756483
63	0xba8b77af	-0.0010640527
64	0xbba9c91b	-0.0051814443
65	0x3bc83465	0.0061097615
66	0x3b066919	0.002050942
67	0xbb5f8160	-0.0034104213
68	0xbb487ae9	-0.0030590838
69	0x3bc4e3a1	0.006008581
70	0x3c767f1e	0.015044956
71	0xbb582bb9	-0.0032985045
72	0xbc0837fb	-0.008314128
73	0x3c967642	0.018366937
74	0x3ca8adcd	0.020590687
75	0xbbcf655f	-0.006329223
76	0x3c3cfbd7	0.011534653
77	0x3cb762a5	0.022385905
78	0x3c978ead	0.01850065
79	0x3bc3543f	0.0059609707
80	0x3cc11805	0.023571024
81	0xbc4c0be8	-0.012454011
82	0x3a3b0f45	0.0007135759
83	0xbc82718c	-0.015923284
84	0x3ca31c85	0.01991106
85	0x3b45e871	0.003019836
86	0xbc33c325	-0.010971819
87	0x3cbfc0b1	0.023407312
88	0x3b98cd62	0.0046631554
89	0xbb82bc8a	-0.0039897608
90	0xbc7f2a6b	-0.015574078
91	0xbc29c43c	-0.010361727
92	0xbb6ace1d	-0.003582842
93	0x3c13b84c	0.009016108
94	0x3ba8e4ca	0.005154227
95	0xbb1fb351	-0.0024368356
96	0x3c71e572	0.014764177
97	0xbcc5812c	-0.024109446
98	0xbbf4e322	-0.0074733654
99	0xbbd78892	-0.0065775597
100	0x3c202b4f	0.009775951
101	0x3b26f23a	0.0025473968
102	0xbc47b12a	-0.012188235
103	0xbc5f9ef5	-0.013648738
104	0x3c23e935	0.010004331
105	0x3c55ddc2	0.013053359
106	0x38a95606	8.074571e-05
107	0x3b1a68a5	0.0023560908
108	0x3ca5d9dc	0.020245485
109	0x3cfe45e7	0.031039191
110	0x3bd499f2	0.0064880783
111	0x3b08cc9e	0.0020873914
112	0x3ce8f15b	0.0284354
113	0x3c8b0e81	0.01697469
114	0x3cda3b56	0.026639622
115	0x3ce3fad0	0.027829558
116	0x3ceb85bb	0.028750291
117	0xbc54985b	-0.0129757775
118	0xbc8d0b6d	-0.017217362
119	0xbb9b0988	-0.004731361
120	0xbc88e654	-0.016711392
121	0xbcc866f1	-0.024463149
122	0xbcbef4a5	-0.023310015
123	0x3bb1a6da	0.0054215016
124	0xbcf264bb	-0.029589048
125	0xbbf1262c	-0.007359287
126	0xbc7ddc10	-0.0154943615
127	0x3bb1a034	0.005420709
128	0x3c55abcf	0.013041451
129	0xbba03982	-0.004889668
130	0x3c638f2d	0.013889116
131	0x3c062001	0.008186341
132	0x3c8b1287	0.016976608
133	0x3c518fd6	0.012790641
134	0x3c75f4c8	0.015011974
135	0xbb44c39b	-0.0030023817
136	0xbc025240	-0.00795418
137	0x3baa8b6a	0.0052046077
138	0x3bc1ffa0	0.0059203655
139	0x3cba19f1	0.022717448
140	0xbb99c291	-0.0046923836
141	0x3ce8a340	0.028398156
142	0xbbb7967e	-0.005602657
143	0x3c70ce91	0.014697687
144	0xbc8d2bc8	-0.01723279
145	0x3c2701b9	0.010193282
146	0x3bd57f41	0.006515414
147	0x3cb5cdad	0.0221928
148	0xbc8024e7	-0.015642596
149	0xbc372551	-0.0111783305
150	0xbc9b9c21	-0.018995347
151	0xbcb7a7b5	-0.022418836
152	0x3bf0a5e4	0.0073439945
153	0x3cde6c85	0.027151356
154	0x3c692d66	0.014232015
155	0x3be7cc5b	0.0070739216
156	0x3c987b4a	0.018613476
157	0xbcb77e7f	-0.022399185
158	0x3c883bf5	0.016630152
159	0x3cbbfec1	0.022948625
160	0xbc065cf0	-0.008200869
161	0xbcb55320	-0.022134364
162	0xbc1c0ddc	-0.009524789
163	0x3ca2e99f	0.01988679
164	0x3bb4cd35	0.0055176266
165	0x3c7589fe	0.014986513
166	0xbc50f0ce	-0.012752725
167	0x3c78b697	0.015180252
168	0x3ca2e818	0.019886062
169	0xbb9e0159	-0.004821938
170	0xbb6b3b7e	-0.0035893614
171	0xbc5f5142	-0.013630213
172	0xbbbb5869	-0.0057173264
173	0xbcbb42c9	-0.022858994
174	0xbc6cd41e	-0.01445487
175	0x3c034742	0.008012595
176	0x3b39e13e	0.0028363015
177	0xbc514178	-0.012771957
178	0xbc900547	-0.017580641
179	0xbc265e85	-0.010154371
180	0xbc43952e	-0.011937423
181	0x3bfbedfd	0.0076882825
182	0x3c32521d	0.010883835
183	0x3b936bbc	0.004498927
184	0x3bb2aef6	0.005452986
185	0x3c81caa7	0.015843702
186	0xbae3e3cc	-0.0017386614
187	0x3be12c3c	0.006871728
188	0x3c2e6bdc	0.010645833
189	0xbc052bd6	-0.008128127
190	0x3c5f4a90	0.013628617
191	0x3bd2e48a	0.0064359354
192	0xbb32d056	-0.0027284822
193	0x3ca71290	0.020394593
194	0xbac3d451	-0.0014940595
195	0x3af86844	0.0018951972
196	0x3c6d365f	0.014478295
197	0x3c5e5a22	0.013571294
198	0x3cb15449	0.021646636
199	0x3a32c2a5	0.00068191654
200	0x3c9308a7	0.017948462
201	0x3c73c386	0.014878159
202	0x3c717c0b	0.014739047
203	0x3b96257f	0.0045821066
204	0xbcb21830	-0.02174005
205	0x3c2ae758	0.010431133
206	0xbb830a41	-0.003999025
207	0xbca067f4	-0.019580819
208	0x3b3781ed	0.0028001026
209	0x3b1bf1a0	0.0023795143
210	0xbc6bb049	-0.014385291
211	0xbbd105f1	-0.006378882
212	0xbcba01c1	-0.022705914
213	0x3c0053ff	0.007832526
214	0xbbe0e382	-0.0068630585
215	0xbb425904	-0.0029655108
216	0x3c2d6221	0.010582478
217	0xbc16f25c	-0.009213056
218	0xbbf5af2f	-0.00749769
219	0xbcb96eac	-0.02263578
220	0x3cb44061	0.022003355
221	0xbc8e9c34	-0.017408468
222	0x3c603a63	0.0136857955
223	0xbcec9879	-0.028881298
224	0x3c523796	0.0128306355
225	0x3ba2be2f	0.0049665193
226	0xbc88fe56	-0.01672284
227	0xbbb67177	-0.0055677253
228	0x3b9df3d5	0.004820327
229	0xba976c91	-0.0011552741
230	0xbc476f38	-0.012172513
231	0x3bd4111a	0.006471765
232	0x3c5cd2d8	0.013478003
233	0x3bcaef07	0.006193045
234	0x3b92860a	0.004471545
235	0x3bf9b404	0.0076203365
236	0xbbccfb32	-0.0062555308
237	0x3c94a074	0.018142916
238	0x3c2f6a90	0.010706559
239	0x3b86de2a	0.0041158395
240	0xbbd69ad9	-0.006549221
241	0x3c699caf	0.014258548
242	0xbc53e326	-0.012932574
243	0x3c865099	0.016395854
244	0x3cab1205	0.020882616
245	0x3c3b84c5	0.011445229
246	0x3b952fa4	0.0045527983
247	0x3cc33d11	0.02383283
248	0x3c2831af	0.010265752
249	0x3cc7bb52	0.024381313
250	0x3c62fecc	0.013854694
251	0x3c0ec6f6	0.008714428
252	0xbc0a66ae	-0.008447332
253	0xbc7038ed	-0.01466201
254	0xbc5101b9	-0.012756758
255	0x3b4c1d12	0.0031145257

bias f4 [48]
0	0x37effcd4	2.8608752e-05
1	0x37ee3496	2.8396298e-05
2	0xb70bcf78	-8.333351e-06
3	0xb84d353a	-4.892538e-05
4	0x370fc534	8.569379e-06
5	0xb7810657	-1.538095e-05
6	0x372a28c1	1.0142278e-05
7	0xb7a982c0	-2.0207255e-05
8	0x37cfc310	2.4767156e-05
9	0x37c147ee	2.3040888e-05
10	0xb8892e87	-6.5413355e-05
11	0xb80d2ee6	-3.3660697e-05
12	0x37011832	7.694633e-06
13	0x37b81c52	2.1947697e-05
14	0x364f3340	3.0875235e-06
15	0xb71140c8	-8.657757e-06
16	0x367bb508	3.7507289e-06
17	0x373257fa	1.063011e-05
18	0x35e5da94	1.7125444e-06
19	0xb7996c10	-1.8289342e-05
20	0xb77fb1ae	-1.5240554e-05
21	0x377c4f76	1.5038871e-05
22	0xb696e6d0	-4.4972185e-06
23	0xb222d800	-9.478754e-09
24	0x37a998e0	2.0217558e-05
25	0x35fc72b0	1.8808842e-06
26	0xb7eeadd9	-2.8452765e-05
27	0x3727b5da	9.996316e-06
28	0x36b1a724	5.294469e-06
29	0x37aecdf2	2.0838317e-05
30	0x36ec5372	7.0430624e-06
31	0x36b04674	5.2534106e-06
32	0x37aff5c8	2.0976076e-05
33	0x3672452c	3.6101073e-06
34	0x3705dbd8	7.978604e-06
35	0x35f54084	1.8272699e-06
36	0xb747acb0	-1.1901531e-05
37	0x35fd9250	1.8892551e-06
38	0xb79e850d	-1.8897024e-05
39	0x381849ba	3.6308287e-05
40	0xb75e20b8	-1.3239849e-05
41	0xb6f62e90	-7.336792e-06
42	0xb6800858	-3.8156686e-06
43	0xb837b633	-4.3800286e-05
44	0x37b42b8e	2.1477954e-05
45	0xb6adec3a	-5.183302e-06
46	0x38543842	5.0597133e-05
47	0xb7ef16f9	-2.8501718e-05

weight f4 [48]
0	0x3f61a65f	0.8814449
1	0x3f6ba2c9	0.92045265
2	0x3f639dd5	0.8891271
3	0x3f622d74	0.88350606
4	0x3f60d1d1	0.87820154
5	0x3f5f9135	0.87330943
6	0x3f6aa1d9	0.9165321
7	0x3f5f69fa	0.8727108
8	0x3f664e51	0.8996325
9	0x3f66b7a7	0.9012398
10	0x3f607f18	0.8769393
11	0x3f6e76f7	0.93150276
12	0x3f619a84	0.881264
13	0x3f679029	0.90454346
14	0x3f5b1d71	0.855918
15	0x3f5d4f91	0.86449534
16	0x3f65ea8c	0.89811015
17	0x3f5f153c	0.87141776
18	0x3f59ad8c	0.85030437
19	0x3f5cb85c	0.8621881
20	0x3f5fb9a4	0.8739264
21	0x3f609491	0.87726694
22	0x3f602156	0.87550867
23	0x3f6038c9	0.8758665
24	0x3f6a2b45	0.91472274
25	0x3f59460b	0.848725
26	0x3f608531	0.87703234
27	0x3f65618f	0.8960199
28	0x3f6f993c	0.9359319
29	0x3f6ed209	0.9328924
30	0x3f6f783b	0.9354283
31	0x3f75b274	0.9597542
32	0x3f6e9c1b	0.9320695
33	0x3f6ba2dc	0.9204538
34	0x3f691342	0.9104501
35	0x3f686983	0.90786
36	0x3f6420de	0.8911265
37	0x3f5d81ec	0.8652637
38	0x3f5dee91	0.8669215
39	0x3f62f26b	0.8865115
40	0x3f610334	0.8789551
41	0x3f688bbe	0.9083823
42	0x3f641b46	0.89104116
43	0x3f6fec96	0.93720376
44	0x3f66ff33	0.90233153
45	0x3f6fbb70	0.9364538
46	0x3f5d972d	0.865588
47	0x3f69a7d1	0.9127169
