weights/Boxhill.model.weights.pt (torch, 219383 bytes, 42 tensors)

weight f4 [16, 3, 1, 1]
000000 2c 65 cb 3e 8c 67 07 bf 3f fb 7e 3e 98 13 03 3e
       0.39725626 -0.52892375 0.2490053 0.12800443
000010 2d 73 ed bd 2b 44 27 3e 79 13 14 3d 80 06 26 3e
       -0.11594234 0.16334598 0.036151383 0.16213417
000020 d4 a8 98 be e6 f0 dc bd 16 7f a0 bc 29 00 25 be
       -0.29816306 -0.10788135 -0.01959185 -0.16113342
000030 82 c6 7c be 05 1f 87 bd 06 d6 70 3e ab 80 53 bd
       -0.246851 -0.065977134 0.23519143 -0.05163638
000040 ee 49 9d 3d 4e 83 26 3e 91 83 c1 bd 8e 74 a0 be
       0.076801166 0.16261026 -0.094489224 -0.31338924
000050 36 ed ca 3e 4d 2b a5 3e 25 e2 57 be c2 6f da be
       0.39634103 0.32259598 -0.21082361 -0.4266339
000060 a2 44 9f be a8 f0 be 3e dc 86 eb bd da a0 59 3e
       -0.3110705 0.3729298 -0.11500332 0.21252766
000070 50 f0 c9 be cf 00 30 3e f3 53 a6 be 2b ec cd bc
       -0.39441156 0.17187808 -0.32485923 -0.025137028
000080 d0 90 09 3e 41 44 53 bd c1 f8 8d be 64 d4 d9 3d
       0.13434148 -0.051578764 -0.27728847 0.106362134
000090 a0 88 6d bd ac f7 a5 3e 8e 43 3f be c0 9a 46 be
       -0.057991624 0.3241552 -0.18678114 -0.1939497
0000a0 35 57 2c be a5 03 00 3e b7 8b e1 bd e8 82 60 3e
       -0.16830142 0.1250139 -0.110129766 0.21924937
0000b0 ae df 18 3d 67 63 8e 3e 46 56 fe 3d 8a fb 34 3e
       0.037322693 0.27810213 0.12418799 0.1767408

bias f4 [16]
000000 93 19 46 35 28 63 ea 36 31 96 87 36 ec 17 b7 b7
       7.3797963e-07 6.9852867e-06 4.040798e-06 -2.182644e-05
000010 61 4b 8e 34 42 3b 10 b5 16 cf 83 b5 5e 1a 76 b8
       2.6504406e-07 -5.373041e-07 -9.82053e-07 -5.8675527e-05
000020 f5 2e e6 36 8c 7f 1b b7 56 e6 79 b7 0a a3 15 b6
       6.8600007e-06 -9.268417e-06 -1.4895186e-05 -2.2297631e-06
000030 81 f2 21 b5 ed b8 1a 35 43 9f db b4 50 c6 d5 b7
       -6.0330063e-07 5.7638573e-07 -4.0907807e-07 -2.5483925e-05

weight f4 [16]
000000 1d 1e 61 3f 16 e7 6c 3f e3 a2 6d 3f 09 1e 59 3f
       0.87936574 0.9254011 0.9282667 0.84811455
000010 aa 73 67 3f 11 f2 63 3f 6f 88 81 3f cc 74 5b 3f
       0.90410864 0.8904124 1.0119761 0.8572509
000020 31 b9 6a 3f 8d 84 6a 3f 49 06 5c 3f d6 38 74 3f
       0.9168883 0.91608506 0.8594709 0.95399225
000030 69 75 5d 3f d4 6f 6e 3f 98 fa 69 3f c5 03 70 3f
       0.8650728 0.93139386 0.91398 0.9375575

bias f4 [16]
000000 6d 30 42 bb 03 63 a9 bc 46 e4 d5 bc 39 b3 49 bc
       -0.0029630915 -0.020677095 -0.026109826 -0.012310796
000010 a1 02 aa 3c 78 88 12 bc 6e 55 c0 3d d1 23 b6 3c
       0.020753207 -0.0089436695 0.093912944 0.022233875
000020 2e 46 68 3d a9 f1 22 3d c7 53 70 bc 87 68 3d bc
       0.056707554 0.039781246 -0.014668412 -0.011560566
000030 64 ef 44 bc e3 c0 22 3c 28 af 99 3c a3 0b fe 3b
       -0.012019966 0.009933683 0.018760279 0.007752852

running_mean f4 [16]
000000 15 21 01 41 d6 93 6e 41 c5 5b e5 c0 43 7b cb c1
       8.070577 14.911093 -7.1674523 -25.435186
000010 99 96 e9 c0 68 a2 81 41 92 3d 17 c0 a6 c3 d6 c1
       -7.2996335 16.2043 -2.363133 -26.845531
000020 e8 3d 64 c0 28 53 22 c0 c9 66 9e c1 33 4d a2 c1
       -3.5662785 -2.5363255 -19.800188 -20.287695
000030 e9 ad 0e 41 43 b7 ae c1 ae 07 53 41 d5 01 4b 42
       8.917459 -21.839483 13.189375 50.75179

running_var f4 [16]
000000 15 a6 52 42 c6 7f c7 42 a4 35 09 42 86 19 86 43
       52.66219 99.74956 34.302383 268.1994
000010 3d 7f d6 41 aa 98 db 42 7a 2c 5c 41 96 cb 9f 43
       26.812128 109.79817 13.760859 319.5905
000020 be 3f 77 41 d6 33 9b 40 46 97 20 43 f0 32 17 43
       15.453062 4.8500776 160.59091 151.19897
000030 fd 4b d3 41 af 2a 37 43 03 e3 82 42 e9 38 82 44
       26.412104 183.16673 65.44338 1041.7784

weight f4 [16, 3, 3, 3]
000000 e3 1e d7 bd a0 ff 04 3e ce 3b c8 3d f0 28 12 bb
       -0.10503938 0.12988138 0.09777032 -0.0022302233
000010 59 5c 44 3c 95 68 a2 3b e2 77 ce bd 29 43 07 3c
       0.011984908 0.004956315 -0.100814596 0.008255758
000020 1e 18 bd bd 78 41 cf 3d 0e e8 7d 3d 91 5b 2d 3d
       -0.092331156 0.10119909 0.061988883 0.042323653
000030 28 eb 2c 3e c6 a1 24 bd 49 9c ca 3c 35 cf 22 3e
       0.1688658 -0.04019334 0.024732726 0.15899356
000040 fa 1d 2b 3e 97 9c d1 3d 59 ce dc bc 27 55 a7 bd
       0.16710654 0.10234945 -0.026953863 -0.081705384
000050 9f e7 58 bd 9b 3c 2e be fb aa fa bd 58 9a 75 bd
       -0.052955266 -0.17015307 -0.12239643 -0.059961647
000060 78 bb 0d 3d 55 0e 91 bd fd 85 8e 3b bc 02 e9 3c
       0.034602612 -0.07082812 0.0043494687 0.028443687
000070 3a 95 d8 3d 93 b2 e5 bd 37 fe 99 3d 18 c9 9b bd
       0.10575338 -0.11215701 0.07519191 -0.07606715
000080 41 62 3a 3e c1 13 d9 3d f3 e4 e3 3d c3 2a 13 3e
       0.18201543 0.10599471 0.11127653 0.14371781
000090 2c 85 5d bd 61 1c 13 be e1 1f 32 be 04 5d 42 bd
       -0.05408208 -0.14366294 -0.17394973 -0.047451988
0000a0 51 a5 3d 3e 21 d0 19 3e 07 e2 c7 bd 70 78 ae bd
       0.18520094 0.15020801 -0.09759908 -0.085190654
0000b0 22 ca ca bd 9f 43 ec 3c f1 86 6a 3c e5 83 0b 3e
       -0.09901835 0.028840838 0.014314399 0.13624533
0000c0 a8 41 32 3d 97 09 38 bd d6 bf a0 bd e2 a4 62 bd
       0.043519646 -0.04493102 -0.0784909 -0.055333026
0000d0 07 74 7e 3b 7a 80 0a be 66 69 38 3d 12 f0 b6 3b
       0.0038826482 -0.13525572 0.04502239 0.005582818
0000e0 08 d7 41 3e 55 82 0b be c8 eb 2e be 0b 7f 42 3e
       0.18929684 -0.13623936 -0.17082131 0.18993776
0000f0 82 51 f3 3c f3 03 c3 bd 76 d5 be bd c1 89 4d 3d
       0.029701952 -0.09522238 -0.09318058 0.0501802
000100 e0 06 fd bb 9b a8 9b 3d fb c9 85 bc a3 91 96 bd
       -0.007721767 0.07600518 -0.016331663 -0.07351997
000110 ea 30 d7 bd 5a 72 eb 3d cb 9c 74 bd d9 c9 16 3e
       -0.105073765 0.1149642 -0.059719842 0.14725436
000120 d2 35 ae bc aa d5 1a be d6 e9 07 bc dd b7 cf bd
       -0.021265898 -0.15120569 -0.008295497 -0.10142491
000130 cf 13 c2 bc cb df 4c 3d 87 11 1c be 12 28 7d 3d
       -0.023691086 0.050018113 -0.15241061 0.061805792
000140 c0 a5 b1 3d 97 f6 04 bd 0c 65 6b 3c 46 b3 e8 bd
       0.086741924 -0.03246173 0.014367353 -0.11362319
000150 6e 77 04 be 19 42 97 bd 7a 5b b4 3d 2d 8d d3 3d
       -0.12936184 -0.07385654 0.0880651 0.103296615
000160 e2 b4 d6 3d a5 6f 58 3d 8e 8b 11 be fd 1d 48 be
       0.104837194 0.052840848 -0.14213392 -0.1954269
000170 3c 46 b2 3d ad 79 06 3e f8 16 1f 3e a5 d9 fd bd
       0.087048024 0.13132353 0.15536106 -0.12395028
000180 b4 04 99 bd 28 81 df bd 87 37 ee bd 95 3d 01 3e
       -0.074716 -0.109133065 -0.11631685 0.12621148
000190 3d c8 0e 3e 54 c7 cb bd fe 5f ce 3d 52 af 24 3e
       0.13943572 -0.09950128 0.10076903 0.16082504
0001a0 1d 4b 73 bd 19 ef dd 3d f6 b2 79 3d 4e 44 ef 3b
       -0.059397805 0.1083662 0.060961686 0.0073018437
0001b0 f5 63 b7 3c 7f f8 13 bd 16 c5 48 3d 5c 16 fb 3d
       0.02238653 -0.036125656 0.04901608 0.12260124
0001c0 c8 8f af 3d d2 22 f0 3d 6b b4 13 3e 7b b5 39 bd
       0.08572346 0.117253914 0.14424293 -0.04533909
0001d0 60 5e f9 ba 73 6f 84 3d d1 12 2b 3d 8b a3 ac 3d
       -0.0019025318 0.0646657 0.04176599 0.08429631
0001e0 21 b2 b0 bc 0b 29 c6 3d 49 91 13 bd b8 c1 4e bd
       -0.021569313 0.09675797 -0.036027227 -0.050477713
0001f0 95 b8 4a bd 46 c5 c2 3c b9 24 03 be 37 a4 8b 3d
       -0.049492437 0.023775708 -0.12806977 0.06818431
000200 5a 6d 53 3d 29 eb 16 be 18 bb 86 3d b9 ab 9c bd
       0.051617958 -0.14738144 0.06578654 -0.07649941
000210 b3 38 1e bd 1b 2a 49 be 05 8c b5 3d 10 3c 6f bb
       -0.03862829 -0.19644968 0.08864597 -0.0036504306
000220 d6 2f 35 3e a6 73 8c 3b a7 35 54 3d ef ff 56 bb
       0.17694029 0.0042862473 0.05180898 -0.0032806357
000230 6c 5e 85 3b 5f 91 03 bb 54 0d 91 bd f6 1f 2f 3e
       0.004070094 -0.0020075662 -0.0708262 0.17102036
000240 a1 e3 00 be e3 d5 21 bd 7c ff af 3d 65 82 2a bd
       -0.12586834 -0.03951062 0.08593652 -0.04162826
000250 ef d8 c4 3d 91 93 c7 bc 41 b0 82 3d ee 01 0e be
       0.09611689 -0.024362357 0.06381274 -0.13867924
000260 af 40 8c bd ed b4 42 bd c3 c5 2b 3e a4 4a da bd
       -0.06848275 -0.047535826 0.16774659 -0.10658768
000270 e2 d3 bf 3d f2 0d 57 bd 1a fb 1b be 66 4f e0 3b
       0.09366585 -0.052503534 -0.15232506 0.0068454025
000280 b8 10 1b 3c 97 b3 a3 3d b9 af 82 3d 42 78 e9 bc
       0.009464435 0.079932384 0.06381173 -0.028499726
000290 b9 15 96 bd ec eb 5c bd cd 21 18 3e 32 4c 2c 3e
       -0.07328362 -0.05393593 0.14856644 0.16825941
0002a0 d4 99 64 bc 69 2a a5 bb cb f9 5d 3d 6b 74 63 3c
       -0.013952691 -0.005040456 0.0541933 0.013882737
0002b0 46 57 ab bd 1f 39 8b 3d d4 86 14 bd 76 a5 a2 bd
       -0.083662555 0.06798004 -0.036261395 -0.079417154
0002c0 60 98 aa bd cf 75 1e 3c d3 ae a2 bd 78 ad eb 3d
       -0.083298445 0.009671642 -0.07943501 0.11507696
0002d0 de 0c 5f bd 98 c1 a9 bd 49 95 e8 3d f7 16 bd 3c
       -0.05445563 -0.08288878 0.11356599 0.02308224
0002e0 51 cc 4e bd 92 fa 12 be 7d 40 ab 3c 45 67 a5 bb
       -0.05048782 -0.14353397 0.020904774 -0.005047711
0002f0 4d 8b 10 be e1 68 17 be e9 05 0d be 61 72 d8 bd
       -0.14115639 -0.14786102 -0.13771786 -0.10568691
000300 8b d5 de 3c 25 25 c8 bb 52 e1 0c be cd 9f 94 bc
       0.027201435 -0.0061079436 -0.13757828 -0.018142605
000310 25 4e 22 3e 9c 7d bd 3d 01 11 cb bb c3 1f d0 3d
       0.15850122 0.09252474 -0.0061970954 0.10162308
000320 11 ee d1 bd 7e 32 43 3d 98 74 27 bc e1 c0 9e 3d
       -0.10250486 0.047655575 -0.010220669 0.077516325
000330 7f b8 1f 3e 5f 3b 8a bc 95 c8 14 be bd da c0 bd
       0.15597723 -0.016874013 -0.14529641 -0.09416721
000340 85 b9 2e 3d dd 75 01 be 1b 18 7f bd b9 b5 c6 bd
       0.042657394 -0.12642618 -0.06227885 -0.097026296
000350 d2 66 b9 3d 6b 38 a7 3d 13 cd dc bc 6c 6c 36 3d
       0.090528145 0.08165058 -0.026953256 0.044536993
000360 82 3d 7b 3d 87 b9 34 bd f7 25 b8 bd b3 2e 89 bc
       0.061337955 -0.044122245 -0.08991616 -0.0167459
000370 5b 1d 03 3e 63 9e 99 3c 32 97 98 3d 2c 16 07 be
       0.12804167 0.018752282 0.07450713 -0.13192052
000380 41 b0 00 3d fa 70 77 3d 7a 8a d9 3d 9e b4 28 be
       0.03141809 0.060410477 0.106221154 -0.1647515
000390 c6 c9 8e 3d 24 1e 02 3e 9b 24 05 be 7a d0 2e 3e
       0.06972079 0.1270681 -0.13002245 0.17071715
0003a0 5f 49 b7 3d 0a 9f 8a 3b 8e 12 eb ba 4b 25 29 be
       0.08949541 0.0042303847 -0.0017934607 -0.16518132
0003b0 3f 2c 3a be 9b c7 2d 3e 6c 2a bd bd dc 6f c0 3d
       -0.18180941 0.16970675 -0.09236607 0.093963355
0003c0 0e e7 9b 3d fe 10 4b bd ce 8a 7c 3d ea 8a 91 3d
       0.076124296 -0.049576752 0.061655812 0.07106574
0003d0 e8 b7 ec bd 96 07 4b bc 6b 4e 85 bd 61 48 0d 3e
       -0.11558515 -0.012391945 -0.06509098 0.13797142
0003e0 25 34 82 3b 0e a6 05 bd f3 d2 96 bd 70 d6 e7 bb
       0.0039735013 -0.032629065 -0.07364454 -0.0070751235
0003f0 fa 2e 1b 3d 6d 2c b9 bc ef 9e 46 bc d8 a1 14 3e
       0.037886597 -0.022604192 -0.012122854 0.14514863

bias f4 [16]
000000 c9 e1 4e 34 0c 76 6a b5 c2 bd b7 b5 72 5b 5e 35
       1.9267385e-07 -8.7343574e-07 -1.3689789e-06 8.2834515e-07
000010 bc 88 38 b5 be 40 aa b4 10 2b c1 31 5c 35 6c b4
       -6.8744316e-07 -3.1712074e-07 5.621935e-09 -2.1998625e-07
000020 6b 91 86 b4 76 5a 6a b5 75 02 6a 35 fb d1 61 b5
       -2.506525e-07 -8.730343e-07 8.717537e-07 -8.4124594e-07
000030 54 52 67 b5 d6 ef 43 b5 0e 3d b0 35 d0 ce f5 34
       -8.617401e-07 -7.299217e-07 1.3130791e-06 4.5785282e-07

weight f4 [16]
000000 c9 a2 5e 3f ca 2a 60 3f d0 e4 66 3f 4c 9f 52 3f
       0.8696714 0.8756529 0.9019289 0.8227432
000010 65 f5 55 3f 22 e7 5c 3f 5d b6 55 3f 8c 55 63 3f
       0.8357757 0.8629018 0.8348139 0.8880241
000020 d8 09 4f 3f 22 78 66 3f c8 cb 6e 3f 63 ce 54 3f
       0.80874395 0.9002706 0.93279696 0.8312742
000030 f1 4d 61 3f 69 03 3f 3f 5f f2 51 3f 98 07 5d 3f
       0.88009554 0.7461458 0.82010454 0.8633971

bias f4 [16]
000000 87 aa e0 bc 2c 09 57 3c e2 b4 57 3c f1 68 98 3b
       -0.027425064 0.013124745 0.013165684 0.004651182
000010 f7 20 17 3c 2c 65 de bc 1d b3 1c bc 5a 6a c6 bb
       0.009224168 -0.027147852 -0.009564188 -0.0060551586
000020 58 60 e9 3a 37 f6 67 3c 95 3d d5 3c 2e 89 f2 ba
       0.0017805202 0.014157823 0.026030341 -0.0018504017
000030 2e f7 a3 3b 5f 06 5c 3d 29 e1 15 3b d8 89 d7 bc
       0.0050038313 0.053717013 0.0022869802 -0.026310846

running_mean f4 [16]
000000 99 a7 a5 41 1c 51 23 41 8c 1a 63 c1 85 2c 4f 41
       20.706835 10.207302 -14.193981 12.948369
000010 ec 09 ed 41 5d 20 18 41 69 e3 a2 c1 fb 33 04 c2
       29.629845 9.507901 -20.36104 -33.050762
000020 9b fe c9 41 86 24 77 42 a6 2a 2c c2 0f d6 13 c2
       25.24932 61.785667 -43.04165 -36.95904
000030 dc c1 62 42 a8 e4 8b 41 f4 28 ed c0 6e 9c 09 42
       56.689316 17.486649 -7.411249 34.402763

running_var f4 [16]
000000 98 62 0a 43 0f 44 bf 42 79 a1 95 43 cd dc 4f 43
       138.38513 95.63293 299.2615 207.8625
000010 27 98 b9 43 d0 a1 94 42 f0 a7 34 43 60 54 14 44
       371.1887 74.31604 180.656 593.31836
000020 47 57 13 44 e5 42 ae 44 c4 3a 1c 44 a9 05 ed 43
       589.3637 1394.0905 624.9182 474.04422
000030 e4 63 92 44 80 96 97 43 09 2b ac 42 dd e5 e9 43
       1171.1216 303.17578 86.08405 467.7958

weight f4 [16, 3, 5, 5]
000000 d5 06 67 3d 9e 9e 17 bc 9d 8f 04 bd 11 69 84 bd
       0.056403 -0.009254126 -0.032363523 -0.06465352
000010 ed 69 b6 bd c1 ac 4d bc cf 4a 29 bd c6 43 cf bd
       -0.089069225 -0.012553395 -0.04133111 -0.10120349
000020 24 81 5a 3d 1d 69 84 bd 7c bb 57 bd 0c 4b aa bd
       0.053345814 -0.06465361 -0.052669033 -0.08315095
000030 3c 5c df 3b c3 78 06 3d c9 b0 ec 3d ee 6b 78 3c
       0.006816415 0.03283001 0.115571566 0.015162451
000040 ba fa d7 3d 82 8e 5d 3a ed c5 80 bd 56 ed ab 3c
       0.10545869 0.0008451716 -0.06287751 0.020987194
000050 60 da 4b 3c 43 46 76 3d 66 47 4a bc aa fe 87 3d
       0.012442201 0.0601256 -0.012346124 0.0664037
000060 61 03 d0 bb 5d fd 26 bd c7 0a 23 bd 60 ef 80 bd
       -0.006348059 -0.04076897 -0.0398052 -0.06295657
000070 ec 81 30 bd 15 30 13 bb 3b ec 92 bd ea 01 9e bd
       -0.043092653 -0.002245908 -0.07173964 -0.07715209
000080 f4 8d 72 3c a3 01 7e 3b 01 37 ce 3c e5 15 e7 bd
       0.014804352 0.00387583 0.025172712 -0.11283473
000090 c3 ae a0 3d c8 d7 d1 3d 52 54 23 bd 91 b5 be 3c
       0.07845833 0.10246235 -0.039875336 0.023279937
0000a0 cd b7 b3 bd 73 6e 22 bd 75 88 ae 3c d0 ab 5e 3b
       -0.087752916 -0.039656114 0.021305302 0.003397692
0000b0 3c a7 e4 3c d1 98 de bd dc 41 81 bd 82 97 45 3d
       0.027911775 -0.10868991 -0.0631139 0.048240192
0000c0 fe 34 b3 3d be 15 87 bd d6 8b f5 3c d0 76 66 3d
       0.08750342 -0.06595944 0.029973906 0.056265652
0000d0 ac f4 2b 3d 57 87 8a 3a bd 79 f4 3d 03 2a c0 3b
       0.041981384 0.0010568899 0.11937282 0.005864383
0000e0 a8 cb da 3c 4b d3 ad 3d 09 19 a6 3d ba 73 93 3b
       0.026708439 0.084875666 0.08110244 0.0044998797
0000f0 d6 63 d0 3c 1f 3e bd 3d 65 e0 02 3c a5 ad 9b bd
       0.02543823 0.09240364 0.00798807 -0.076014794
000100 20 88 2c 3d ab 66 30 bd 02 4a 87 bd 18 c6 8d bd
       0.042122006 -0.04306666 -0.06605913 -0.06922549
000110 e5 7a b0 3d c8 cb c1 3d 63 e8 db bd db e6 9a bd
       0.0861719 0.09462696 -0.107376836 -0.075635634
000120 96 b5 aa bd 56 cf 9a 3c 79 3b 2c bd 54 a3 7d 3d
       -0.08335416 0.018897694 -0.042048905 0.06192334
000130 1c 26 99 bd e1 5d 25 bc 63 2f 11 3d f2 7b b4 bd
       -0.07477972 -0.010093183 0.035445582 -0.08812703
000140 7b ec ce bc 80 69 3a bd 41 da 9b bd c8 b6 76 bd
       -0.025259247 -0.04551077 -0.07609988 -0.060232908
000150 53 48 93 bd 84 88 46 3d 78 b2 35 bd 9b 65 24 bd
       -0.07191529 0.048470035 -0.044359654 -0.04013596
000160 bf fd 69 bd 5b 2d 83 bd 7f 6a 25 bd a4 52 e7 bc
       -0.057126757 -0.06405135 -0.040384766 -0.028237648
000170 9e 5e 10 bd 1d fa d0 bc 98 9c eb bb 3d e4 48 3c
       -0.035246484 -0.025509888 -0.0071902983 0.0122614475
000180 b0 63 b1 bc 06 18 03 bc 25 2d 46 bd 34 0e 97 bd
       -0.02165398 -0.008001333 -0.048382897 -0.07375756
000190 1d 9f 33 bd 72 6a 9a 3d 09 f5 10 3d 52 45 52 3d
       -0.043852914 0.07539834 0.035389934 0.05133564
0001a0 c5 15 8e bc 19 e2 91 3d 69 e4 31 bd ce e9 de bc
       -0.017344365 0.07123203 -0.04343072 -0.027211096
0001b0 09 1b 39 bd 92 29 e9 3b 52 25 e5 bc 32 ea f5 bc
       -0.0451918 0.0071155513 -0.027971897 -0.0300189
0001c0 5e 6c 20 bd e2 fb 67 b8 fe a0 28 bd cc df 03 3c
       -0.039165847 -5.5309276e-05 -0.04116916 0.008048963
0001d0 c4 4f 68 3c 97 36 08 3c 31 56 52 bd 99 9e 4f bd
       0.014179174 0.0083137965 -0.05135173 -0.05068836
0001e0 a4 b4 c5 3c 0f 21 e5 3c de 2b 21 bd ce cf db 3c
       0.024133988 0.027969865 -0.039348476 0.026832487
0001f0 91 de 37 bd ea e7 56 bc e2 41 ac bc bd 30 4a bc
       -0.04488999 -0.013116816 -0.02102751 -0.012340722
000200 15 5f 03 3d f2 f4 53 3b 72 1b 7b bd 89 fa b6 3c
       0.0320731 0.0032342044 -0.06130547 0.022336261
000210 62 24 40 3d b6 ee 80 3d 96 ef 2e 3d c5 73 60 bd
       0.046909697 0.062955305 0.042708956 -0.054797906
000220 e4 d1 5e 3b 36 85 1e bd 92 06 9b 3b 74 2d 3b 3d
       0.0033999616 -0.03870126 0.004731008 0.045697644
000230 a9 b2 b4 bc 84 0b 49 3d 5d 22 16 3d 74 89 0d ba
       -0.022057848 0.049083248 0.036653865 -0.0005399205
000240 64 d9 50 3c 5b a9 a7 bc 60 23 bb bb b7 d0 3d 3c
       0.012747142 -0.020466497 -0.005711004 0.011585406
000250 c4 5b fb bb 90 1c 86 3d ee 17 47 bb bb 36 bc bd
       -0.0076708514 0.065484166 -0.0030379253 -0.091901265
000260 59 a0 e7 3c 53 e5 04 3d f3 b3 af 3c a9 97 6d 3d
       0.028274702 0.032445263 0.021448111 0.058005963
000270 79 87 6b 3d eb a2 4f bd 5c 04 93 bd 11 ee 96 bd
       0.057502244 -0.05069248 -0.07178566 -0.07369626
000280 1a b8 9a 3d 3d 5c 4e 3d 92 10 49 3d f9 85 3e 3d
       0.07554646 0.050380934 0.04908807 0.046514485
000290 d3 7c 91 bc 11 aa a4 bd b7 e6 a9 bd 6b e6 cb bb
       -0.017759716 -0.0804025 -0.082959585 -0.0062225363
0002a0 01 7c 4b bd 63 dc ec 3c e9 53 b3 3d ea 13 b2 3d
       -0.049678806 0.028913682 0.08756239 0.086952046
0002b0 6e 8f d7 3d 62 12 89 bb 75 b9 48 bd 4a d6 91 3c
       0.10525404 -0.0041830996 -0.04900499 0.017802376
0002c0 1c 88 b9 3c 64 1a 75 3d e1 32 8b 3c 18 cb c9 3d
       0.02264791 0.05983962 0.016992034 0.0985319
0002d0 76 7a 4c bd c6 96 7a 3d 4c 97 89 3d 9e 45 2b bc
       -0.049921475 0.061178945 0.06718311 -0.01045361
0002e0 e4 fa 52 3c a9 9e e8 3c 8a b0 e2 3a 99 30 18 3d
       0.0128772 0.028395968 0.0017295044 0.03715572
0002f0 76 27 e4 bb dd 9b fe 3d ea 00 b4 bd b8 37 93 3c
       -0.006962712 0.12432072 -0.08789237 0.017970905
000300 99 ba 27 3d 3d 84 8c bc 3f 89 54 3d 85 8d 7b 3d
       0.040949438 -0.0171529 0.0518887 0.06141426
000310 3f 88 52 3d 93 ea 36 bd 18 dc b2 bc fe 8b ae bd
       0.051399466 -0.0446573 -0.021833465 -0.08522795
000320 2f d2 b4 bd 8c 99 e1 3b 3f 68 b2 3c 3f e6 92 bd
       -0.08829152 0.0068847593 0.021778224 -0.07172822
000330 3a d7 7b bd d3 fd a6 3d be 62 ad 3d d6 04 52 bd
       -0.061484553 0.08153882 0.08466099 -0.051274143
000340 37 7c 9b bc 7a 4a 14 3d cb d9 69 bd 40 cb 94 3d
       -0.018980129 0.03620384 -0.05709247 0.07265329
000350 de 57 00 3d b6 ae 81 bc ff 39 16 bd b3 e2 23 3c
       0.031333797 -0.015830379 -0.036676403 0.01000278
000360 d4 53 4b 3d 6c ee 99 3d db 96 b5 3d f6 c9 cc bc
       0.04964049 0.075161785 0.08866664 -0.024998646
000370 2c 91 32 bd 2d fe 71 3d 96 15 28 bd 0b 18 58 bc
       -0.043595478 0.05908029 -0.04103621 -0.013189326
000380 8a eb e3 3d a6 0f b0 bd 9d 42 dc bb d9 3f a1 bb
       0.1112891 -0.08596735 -0.006721808 -0.0049209413
000390 7a f8 8f 38 02 df 8c 3d 30 97 1c bc 99 da b0 bc
       6.865054e-05 0.06878473 -0.00955753 -0.02158861
0003a0 df ae 96 bc 55 33 9c bd 23 cb bf bb 95 cc e4 3c
       -0.018393932 -0.07626978 -0.005853073 0.027929584
0003b0 4b 7a 2c bd c3 20 7f bd 6f 32 e4 3d 45 a8 14 3d
       -0.042108815 -0.062287103 0.11142432 0.036293287
0003c0 ae 6f 22 3d 42 96 51 3d b1 3c 98 3d 88 e6 a3 3d
       0.039657287 0.051168688 0.07433451 0.08002955
0003d0 9a bc 09 bd af 40 46 3d 21 69 c2 bc 90 71 dd 3b
       -0.03362713 0.04840153 -0.02373177 0.0067579225
0003e0 a5 3d e6 bc fe 01 9a 3c ae f4 de bb d6 ff 96 bc
       -0.028105566 0.018799778 -0.0068040704 -0.018432539
0003f0 28 31 f9 39 d9 a2 34 3c 61 3c a0 bd 0d 51 8d bd
       0.00047529605 0.011025154 -0.07824016 -0.06900225

bias f4 [16]
000000 f1 e1 c2 b3 1d a2 cf b5 43 0c 47 35 d5 00 9e b4
       -9.0749275e-08 -1.5469883e-06 7.415112e-07 -2.94304e-07
000010 b2 81 65 35 6f 43 b5 b4 ae c5 ca 35 ca 51 4e 33
       8.549788e-07 -3.3762942e-07 1.5107705e-06 4.80375e-08
000020 06 c4 7a b5 67 73 57 b5 cf 01 77 b5 a0 2e 57 b5
       -9.341751e-07 -8.0261674e-07 -9.20173e-07 -8.016159e-07
000030 a1 7e bf 35 fc 02 43 b4 7d 35 a3 b4 3f 60 a1 b3
       1.4267463e-06 -1.8161876e-07 -3.0400034e-07 -7.514654e-08

weight f4 [16]
000000 c9 c3 5f 3f 46 b6 57 3f 84 3e 4a 3f 43 13 64 3f
       0.8740812 0.842625 0.7900164 0.8909189
000010 93 f0 56 3f cb e0 6c 3f e4 bf 46 3f 7c b2 59 3f
       0.8396084 0.92530507 0.7763655 0.8503797
000020 a1 f1 4f 3f e7 2b 56 3f 17 9e 58 3f 32 4d 64 3f
       0.8122807 0.8366074 0.84616226 0.8918029
000030 eb 5d 4a 3f dd 3b 54 3f 95 32 62 3f 0f 83 39 3f
       0.7904956 0.82903844 0.8835843 0.72465605

bias f4 [16]
000000 2f 82 1f bd 3d 00 ed bc cd 51 9b bc 18 e6 a3 3c
       -0.038942512 -0.028930778 -0.018959904 0.020007178
000010 93 91 79 bc 5b 5f 0a bd 10 3c 1c 3a 48 bc d3 3c
       -0.0152324615 -0.033782344 0.0005959878 0.025846615
000020 5b 1c da 3c 79 5a b6 3c 35 93 0f 3d e1 52 0c 3d
       0.026624849 0.022259938 0.035052497 0.034258727
000030 4a b8 97 3c 71 1d 59 bc 01 8c c0 bc 3c 28 11 bd
       0.018520493 -0.013251648 -0.023504259 -0.03543876

running_mean f4 [16]
000000 99 c8 bf c1 9c ec 80 c2 da fd 8c 42 1f 75 16 c2
       -23.972948 -64.46213 70.495804 -37.614376
000010 3b 64 63 c2 32 35 e2 c1 f9 5d 6d c1 5c e2 99 c1
       -56.84788 -28.275974 -14.835443 -19.235527
000020 5b e6 38 42 d5 f4 c1 c1 73 5c bf 41 6c fd 34 42
       46.224957 -24.244547 23.920141 45.247482
000030 f8 40 d8 c1 0c dc 23 c2 e4 97 a8 41 f9 45 6a 41
       -27.031723 -40.96489 21.074165 14.642083

running_var f4 [16]
000000 51 f7 16 44 4c ef 99 44 52 ac c2 44 71 62 2b 44
       603.8643 1231.478 1557.385 685.53815
000010 fd 4b a3 44 b0 8c 17 44 bb 8d 0c 44 a7 f5 f1 43
       1306.3746 606.19824 562.21454 483.91916
000020 a2 a5 49 44 a9 5c 32 44 18 1c 81 44 b6 52 5d 44
       806.588 713.4478 1032.8779 885.29236
000030 59 72 56 44 a9 6f 80 44 fb db c4 43 80 cd c1 43
       857.7867 1027.4894 393.7186 387.60547

weight f4 [96, 48, 1, 1]
000000 e5 70 2c bd 26 52 eb bb ab 9f b9 3d c0 9a b9 3d
       -0.042099852 -0.0071814237 0.090636574 0.09062719
000010 1c 80 88 3d 27 4a 34 3d 08 c6 54 bd 8f 16 3f bd
       0.0666506 0.04401603 -0.05194667 -0.046652373
000020 88 c3 a1 3d 48 65 94 3c 1b 5b 13 3e 38 28 eb bd
       0.07898623 0.0181147 0.14390223 -0.114822805
000030 a3 bc 13 bc 89 26 d1 bd 9e 3a 51 bc fd 2e 75 3d
       -0.0090171425 -0.10212428 -0.012770323 0.059859265
000040 69 6e 8f bd ef 84 8c 3d 8c e8 a7 3d a5 ab 8c 3d
       -0.07003481 0.068612926 0.08198652 0.06868676
000050 fa b0 95 3d 36 48 2a bd 0d 7c 89 3d 60 50 e7 bc
       0.07309146 -0.041572772 0.06713114 -0.028236568
000060 cb eb 9f bd 98 5b a1 3c 4b c3 e3 bc 1b d8 f4 bc
       -0.07808646 0.019696996 -0.027803084 -0.029888203
000070 35 73 de bc 24 19 e3 bd f3 c0 93 bd 8d 04 78 bd
       -0.027154544 -0.110887796 -0.072145365 -0.060551215
000080 67 bf e3 bd d9 5b c6 3c c5 28 c2 bd 98 e8 f7 3c
       -0.111204915 0.024213718 -0.094804324 0.030262277
000090 ee e5 83 bd 32 6f d1 bd 48 6a e1 bd e9 32 05 3e
       -0.0644034 -0.10226287 -0.110066 0.13007702
0000a0 92 2b 8d bd 9d 1d 5e bd 1d d6 bd 3d cc 92 8e bc
       -0.06893076 -0.05422746 0.092693545 -0.017403983
0000b0 98 72 78 3d 5a 8c 0e 3a 2f b2 96 ba a0 99 9e 3d
       0.06065616 0.0005437784 -0.0011497195 0.077441454
0000c0 ea a0 55 3d 5a 9f 61 bd 9d ae fd bd 45 81 e3 bd
       0.052155413 -0.05508361 -0.123868205 -0.111086406
0000d0 4e e3 80 bd 71 dc 85 3d 73 b3 50 3d 18 56 fb bd
       -0.06293355 0.065361865 0.050952386 -0.122722805
0000e0 c8 a1 06 3e 08 e4 b1 3d 02 9c 6f 3d e6 81 49 bd
       0.13147652 0.08686072 0.05849839 -0.049196146
0000f0 2b a4 fe 3d f3 0c ed 3d 16 55 03 3c ec 24 ef bd
       0.12433656 0.115747355 0.008015892 -0.11676964
000100 ad ec 51 3d 76 8e 06 bd c1 f4 04 3d b9 6f 69 3d
       0.051251102 -0.032850705 0.032459978 0.056991313
000110 2b 00 b4 3d b1 f1 94 bd e4 e0 24 3d ee b1 ae 3d
       0.087890945 -0.072726615 0.040253535 0.08530031
000120 c3 2b db bd 0b 5e c7 bd 48 4b 06 bd 61 f3 a9 3d
       -0.10701706 -0.09734734 -0.032786638 0.08298374
000130 d9 b0 81 bd 2b e0 96 3c d2 44 50 bd 1b 1f d4 3d
       -0.06332559 0.018417438 -0.050846882 0.103574954
000140 9c 4f a7 3d d1 1f 4f 3d 1c 13 26 3d 79 c9 e8 bd
       0.08169481 0.050567452 0.040545568 -0.11366553
000150 99 74 fb 39 21 01 3f bd ee 81 0e bd 0a 12 9b 3d
       0.00047961323 -0.046631936 -0.03479188 0.075718
000160 b0 ee 99 3d 75 92 91 bd 77 ad a9 bd a0 5c 2d 3d
       0.07516229 -0.071080126 -0.08285039 0.042324662
000170 c8 27 c7 3b cc 4b d9 bc a4 87 d2 bd 52 b9 f3 3b
       0.0060777403 -0.0265254 -0.10279778 0.0074378634
000180 aa fe cb bd 66 60 a5 bd 17 b9 1a 3c b7 b5 d6 3a
       -0.09960683 -0.08075027 0.009443543 0.001638106
000190 96 29 56 bd 3b ec 52 bd a3 ab 19 3e 13 51 19 be
       -0.052285753 -0.05149482 0.1500688 -0.14972334
0001a0 4b eb 68 3d bc c8 49 3c 7b 2a ac bc a6 25 8a 3d
       0.056865018 0.012315925 -0.02101635 0.06745462
0001b0 8f a5 88 bd 9e d6 ac bd a9 3c 8c 3d cd 9c 9c 3d
       -0.06672203 -0.084393725 0.068475075 0.07647095
0001c0 b8 52 8f 3c 8e 99 7f 3c 2f 9b 01 be 15 28 ae bd
       0.017495498 0.015600575 -0.12656854 -0.08503739
0001d0 0c 32 1a 3d 28 38 a3 bd 77 11 af bd 1d fb 77 3d
       0.037645385 -0.07969695 -0.08548253 0.060542215
0001e0 f3 ce ba 3d f7 1f 90 bd 0b 9e ea 3d f7 a2 40 3d
       0.09121504 -0.07037347 0.114559256 0.047030415
0001f0 eb e0 cb 3c 3f 18 96 bd 37 4e 1b bc 65 0c 0f bb
       0.024887523 -0.07328843 -0.009479097 -0.0021827456
000200 b6 03 a6 bd 49 70 5e 3c 80 82 ca bd 81 e7 e7 3d
       -0.081061766 0.013576576 -0.09888172 0.11323453
000210 73 4a 48 3c 0c e8 ef bd ac 2c 25 3d c4 ab 4c 3c
       0.012224781 -0.11714181 0.040325806 0.012492124
000220 77 7d e7 3c 3e b3 8d bd 4b c7 33 bd c7 30 73 3d
       0.028258068 -0.06918953 -0.043891232 0.05937269
000230 2b bc 80 3d b0 f0 f3 3c 60 66 a1 bc b3 8f 69 3a
       0.0628589 0.029777855 -0.019702137 0.00089096575
000240 b4 aa 7f bd 88 7c 2d bd 79 5e d5 bd 4d 49 c6 3d
       -0.062418655 -0.04235509 -0.1041841 0.0968195
000250 8f a8 a0 bd a8 f4 07 3e 13 a4 0b 3e e0 53 a9 3d
       -0.0784465 0.13276923 0.13636808 0.08267951
000260 4f fa 5b 3c 8b 02 01 bd 7b 42 af 3b 2d fa e7 3d
       0.013426377 -0.031496566 0.0053485013 0.11327014
000270 26 25 0e 3d 00 01 ed 3d 68 34 43 bc b1 fa 4e 3d
       0.034703396 0.11572456 -0.01191435 0.050532047
000280 e8 ba 98 3c 15 94 d3 bc 0b 79 7b bc 2c b6 12 bd
       0.018643811 -0.025827447 -0.015348683 -0.035818264
000290 66 94 e2 3d 41 c9 14 3e 66 f5 9f 39 17 8c 15 3d
       0.11063461 0.14529897 0.0003050968 0.036510553
0002a0 f1 2e 2e bd e1 d7 e5 bd ba 09 09 be 60 7f bf 3d
       -0.042525236 -0.11222816 -0.13382617 0.09350467
0002b0 91 cc 72 bd f1 93 8d 3d 63 78 6c bd ca dd af 3c
       -0.05927712 0.06912983 -0.057731997 0.021468062
0002c0 db f9 a3 3d c3 26 5c 3d 5e 59 f1 39 1e 01 24 3d
       0.080066405 0.053747904 0.00046033686 0.040040128
0002d0 d2 cf a0 3b 25 44 8e 3d 16 cd aa bd 7c b5 49 3d
       0.0049075866 0.06946591 -0.08339898 0.049245343
0002e0 6d 78 b8 3d 87 59 64 bd 51 1b bc bd 40 c6 12 3e
       0.090073444 -0.055749442 -0.09184898 0.14333439
0002f0 8f f2 de bd 4b b3 38 3c 88 f4 cd bd 90 6c b2 bd
       -0.10886108 0.0112732155 -0.10056406 -0.08712113
000300 20 30 0e be 87 80 b9 bd 58 ce e8 bd a3 03 82 bd
       -0.13885546 -0.09057718 -0.11367482 -0.0634835
000310 55 84 3d bd ef 73 14 3a bb ac 6f bd ef 74 93 bd
       -0.04626878 0.00056630274 -0.058514338 -0.07200038
000320 8b f5 0d 3e bc a5 05 3e d7 b3 65 bd cd 7f 0a be
       0.13863198 0.13051504 -0.05607971 -0.13525315
000330 e6 b0 50 3c 85 fc 0b 3e 2c c8 a7 bd ba fc 09 3c
       0.012737488 0.13670547 -0.08192477 0.008422071
000340 52 1b 03 3d 02 90 e4 bd 72 74 aa bc 04 29 f3 3d
       0.032008477 -0.1116028 -0.020807479 0.118730575
000350 be f0 84 bd 6d 49 58 3d b8 8b c3 bd f4 eb 0c 3e
       -0.064912304 0.0528044 -0.095481336 0.13761884
000360 80 c7 58 bd 1d 3a 11 3e 6e 88 16 bd e9 c9 e3 3d
       -0.052924633 0.14182325 -0.036751203 0.11122496
000370 45 d0 7c 3d 47 b2 81 3d 33 5c e9 bd 7e 1c c3 bd
       0.06172206 0.06332832 -0.11394539 -0.09526919
000380 ff bc de bc 25 09 8e bc c7 ec 2a bd 8c 35 0c 3e
       -0.02718973 -0.017338345 -0.041729715 0.13692302
000390 b8 43 2a 3d b9 8b 10 be ba 1a 97 3d 36 68 89 3d
       0.041568488 -0.141158 0.073781446 0.0670933
0003a0 ee 01 ea 3c d1 88 0f be 55 1d 90 bd 82 33 87 bd
       0.028565373 -0.14017035 -0.07036845 -0.06601621
0003b0 7d b9 07 be 1f 39 89 3d e4 b1 f0 3d 3c a1 74 3b
       -0.13254352 0.06700348 0.1175268 0.0037327548
0003c0 95 6d 0b 3d 64 31 a0 bd 15 d3 91 3d 45 09 ad 3d
       0.034040052 -0.078219205 0.07120339 0.08449034
0003d0 27 49 11 bd 2a 01 2c bc cd 19 47 3d 9b 08 6e bc
       -0.035470154 -0.010498324 0.04860859 -0.014528419
0003e0 21 fc 69 3d 60 be 1b 3e 35 f3 5d bd 51 75 b8 3d
       0.057125214 0.15209341 -0.05418702 0.09006751
0003f0 11 7f bf 3d 8a 14 72 bd b4 d5 60 3b 5c b4 0c 3d
       0.09350408 -0.05910162 0.0034307064 0.03435169

bias f4 [96]
000000 87 76 bf b4 78 c1 86 36 d1 62 53 b6 0f ec ef b5
       -3.5662762e-07 4.016034e-06 -3.1498969e-06 -1.787559e-06
000010 2b d0 0a b6 28 c4 3c b5 4a 47 44 35 7c 28 06 b5
       -2.0684772e-06 -7.03209e-07 7.311943e-07 -4.99778e-07
000020 17 d3 1c b6 36 03 83 b5 f8 9f 2c b6 39 e5 c3 35
       -2.3368682e-06 -9.761195e-07 -2.5723111e-06 1.4595345e-06
000030 47 2a c2 b6 c9 b7 d4 b3 7c 7f 0b b5 08 88 8e 33
       -5.7865723e-06 -9.9054496e-08 -5.196705e-07 6.637134e-08
000040 b9 d0 78 b4 f4 f4 1b b5 12 7d 83 b6 d4 90 76 b5
       -2.3172733e-07 -5.8098453e-07 -3.9186643e-06 -9.1852894e-07
000050 9c 99 b5 b5 fa 2e 69 b5 e8 81 bb 35 f9 5f 81 36
       -1.3530257e-06 -8.6867624e-07 1.3970393e-06 3.8556723e-06
000060 17 8a c3 35 a3 53 50 35 f4 a1 8f b5 38 bf 3c 33
       1.4568822e-06 7.7607746e-07 -1.0701465e-06 4.3946073e-08
000070 bc da 67 b6 c2 31 59 b5 25 64 3d 35 fa 4d 9a b5
       -3.4549003e-06 -8.0911207e-07 7.0553716e-07 -1.1496588e-06
000080 9c 69 a8 b5 90 cd 99 b3 d1 8f e1 b5 1d df 46 36
       -1.2547712e-06 -7.162009e-08 -1.6805662e-06 2.9634168e-06
000090 2e fc eb 34 85 9e 58 b5 81 6e ab 35 d7 d9 c8 b4
       4.3955646e-07 -8.0696947e-07 1.2772654e-06 -3.7411402e-07
0000a0 df 31 a1 b4 27 ee 0d b6 d5 1a 83 b6 5e 86 18 b6
       -3.0024873e-07 -2.114926e-06 -3.907228e-06 -2.2727977e-06
0000b0 4a 92 ed b5 3c 1b 95 36 e1 ab aa 36 44 5a 70 b3
       -1.7700452e-06 4.4437165e-06 5.086404e-06 -5.596145e-08
0000c0 16 15 27 35 f7 85 d2 35 93 2f a8 b5 72 81 15 36
       6.224303e-07 1.5685208e-06 -1.2530821e-06 2.2278077e-06
0000d0 5a 67 9f 36 87 ee 09 35 af cf 3f b7 7b ca 0a b6
       4.750601e-06 5.138358e-07 -1.1432842e-05 -2.0681462e-06
0000e0 c9 a6 54 36 b4 27 f1 35 a3 f4 00 b5 e9 1a ce b5
       3.1687543e-06 1.7967454e-06 -4.803971e-07 -1.5356028e-06
0000f0 66 c4 03 b6 c2 97 c2 35 dc 4f ac 34 f8 70 47 35
       -1.963484e-06 1.4498294e-06 3.2095602e-07 7.429767e-07
000100 1c e5 c6 35 b5 8c 30 b6 c3 c2 58 36 ed 1f 9c 35
       1.4818829e-06 -2.6307946e-06 3.2299874e-06 1.1632197e-06
000110 82 67 72 36 c4 13 ee 35 8f ba 19 b6 75 61 26 b6
       3.612106e-06 1.7738134e-06 -2.2907368e-06 -2.4792655e-06
000120 0e 4c 47 b5 1e 9d fd b3 d3 34 af 36 ba 69 e0 b5
       -7.424395e-07 -1.180981e-07 5.221556e-06 -1.6720071e-06
000130 b8 37 c8 35 15 39 e7 33 b3 20 e3 b3 28 ad f4 b5
       1.4917377e-06 1.0767159e-07 -1.0576459e-07 -1.8229812e-06
000140 f6 5f 19 34 82 d5 05 b5 1e c2 11 35 d7 5e b9 b4
       1.4284146e-07 -4.9857056e-07 5.4299187e-07 -3.452794e-07
000150 98 a1 3f b6 72 3d 4a 35 48 2d 9d 35 26 d0 c7 b3
       -2.8555278e-06 7.534028e-07 1.171059e-06 -9.3045216e-08
000160 62 3c 3b b6 9e 0d 0f b2 52 46 37 35 dc f6 03 36
       -2.7900319e-06 -8.326792e-09 6.827514e-07 1.9664212e-06
000170 23 f6 57 b3 3f 6c 5b 34 00 06 0e 36 5c ca 4c 36
       -5.028245e-08 2.0435344e-07 2.1163141e-06 3.0516157e-06

weight f4 [96]
000000 f2 6e 38 3f 47 4f 3c 3f eb f0 57 3f 58 54 3d 3f
       0.7204429 0.7355847 0.84351987 0.73956823
000010 d8 1c 51 3f 03 42 48 3f ec 96 35 3f 8a 0d 3a 3f
       0.8168464 0.78225726 0.70933414 0.7267691
000020 2a b5 49 3f 4b cd 42 3f b7 4f 3c 3f 3b e9 25 3f
       0.7879206 0.760945 0.73559135 0.64809006
000030 ba ef 36 3f d7 ff 21 3f 0d da 38 3f dd 36 46 3f
       0.71459544 0.63281006 0.7220772 0.77427465
000040 1a 91 44 3f 88 12 40 3f 87 ae 50 3f 75 35 37 3f
       0.7678391 0.75028276 0.8151631 0.71565944
000050 89 0a 40 3f bb 3e 39 3f 10 6e 2a 3f 0d a7 35 3f
       0.75016075 0.72361344 0.6657419 0.70958024
000060 c6 62 36 3f 9d 15 44 3f d1 47 28 3f 8b bf 37 3f
       0.71244466 0.7659548 0.65734583 0.71776646
000070 63 7c 56 3f cb 0c 2f 3f 9f fc 47 3f 11 07 46 3f
       0.8378355 0.68378896 0.78119844 0.7735453
000080 42 1c 53 3f db 74 38 3f 98 19 4a 3f c8 7c 4d 3f
       0.82464993 0.7205331 0.789453 0.80268526
000090 42 24 4f 3f be 40 5e 3f fd 41 48 3f b6 60 2b 3f
       0.809147 0.8681754 0.7822569 0.66944444
0000a0 46 bc 36 3f 84 5a 42 3f ac c5 38 3f e0 a0 2e 3f
       0.7138103 0.75919366 0.72176623 0.68214226
0000b0 41 fa 28 3f a1 57 45 3f e2 4b 6d 3f 30 7e 2d 3f
       0.6600686 0.77086836 0.92693913 0.6777067
0000c0 af dc 40 3f 00 6e 3b 3f 48 9f 48 3f 63 ef 31 3f
       0.75336736 0.7321472 0.78368044 0.695059
0000d0 8f b2 34 3f 8b c6 55 3f b2 86 60 3f 42 4c 41 3f
       0.7058496 0.8350608 0.8770553 0.75506985
0000e0 06 aa 48 3f 14 53 34 3f 55 20 44 3f c2 d5 22 3f
       0.78384435 0.7043927 0.76611835 0.6360742
0000f0 2b 7e 4f 3f 03 94 3a 3f 27 c3 3a 3f b6 78 3d 3f
       0.8105189 0.728821 0.7295403 0.74012315
000100 e0 ce 3a 3f 06 3b 28 3f 40 e9 35 3f 9c 14 42 3f
       0.72971916 0.6571506 0.71059036 0.758127
000110 e7 51 34 3f 41 84 35 3f 78 85 3b 3f a2 e7 3a 3f
       0.70437473 0.7090493 0.7325053 0.73009694
000120 8c 0f 30 3f 26 9e 53 3f 74 9b 53 3f d0 1f 23 3f
       0.6877372 0.8266319 0.8265908 0.6372042
000130 01 1c 4e 3f 6e 2a 33 3f 66 a9 45 3f 5f 8d 44 3f
       0.8051148 0.6998662 0.77211607 0.76778215
000140 6e 88 36 3f 61 c2 2e 3f c5 75 2d 3f 7c 22 36 3f
       0.71301925 0.6826535 0.6775783 0.7114637
000150 40 48 3c 3f fc 61 46 3f 49 6b 40 3f 4b 4e 37 3f
       0.73547745 0.7749326 0.75163704 0.7160384
000160 7a 97 39 3f 4b c1 2d 3f f7 56 39 3f b2 5c 37 3f
       0.7249676 0.67873067 0.7239832 0.71625817
000170 3b 6a 2c 3f cb a5 56 3f 84 ca 2d 3f a8 c7 4b 3f
       0.67349595 0.8384673 0.6788714 0.79601526

bias f4 [96]
000000 08 12 2b bb 35 5f 8f 3c 9b c1 08 bc c4 a3 cf bb
       -0.0026103277 0.017501453 -0.00834694 -0.006336661
000010 d9 c4 ec 3c fb c8 26 bd 22 c4 3c bc 98 e3 72 bc
       0.028902458 -0.040719014 -0.011521371 -0.01482477
000020 a8 c8 4a bc 64 cb ac bc 72 a7 04 bc 15 ee 9a bc
       -0.012376942 -0.021093078 -0.008096563 -0.018912354
000030 39 69 ab bb 53 db 3b bd a1 26 a5 bc bf 1b 72 bd
       -0.0052310494 -0.04586346 -0.020160021 -0.059108492
000040 54 30 62 bc 02 b7 17 bd 3a d4 f8 ba ce f2 b9 bc
       -0.013805468 -0.037039764 -0.0018984147 -0.022698786
000050 09 be 0a bd a9 93 9c 3c ab c3 e4 bb 9a d1 97 bc
       -0.033872638 0.019113379 -0.0069813333 -0.018532563
000060 92 f9 82 bd e1 d1 8d bc cc 7a e2 bc b2 12 0a bb
       -0.06395258 -0.017311992 -0.027646445 -0.0021068272
000070 78 2c 05 bd 6d 81 b8 3c af 8e 07 bd 33 17 67 bc
       -0.03251311 0.022522653 -0.033095058 -0.014104652
000080 f7 ed 99 bc ad 42 34 bc 5e f5 fd bb a4 e0 0d bd
       -0.018790228 -0.011002225 -0.0077501973 -0.034638062
000090 d6 c7 17 bd 2b bf 9e bc 62 2f b5 bb 7d f0 94 bc
       -0.037055813 -0.019378265 -0.00552933 -0.01818108
0000a0 25 38 e6 bb e1 55 10 3c e4 ce bc bc ad 1d 59 bd
       -0.007025736 0.008809538 -0.023047872 -0.053006817
0000b0 3e d4 72 3c 50 85 6c bc 54 43 dd bc 11 c5 b6 bc
       0.01482111 -0.014436081 -0.027009644 -0.022310765
0000c0 0a c2 8d bc ea 87 1d 3c 30 b9 00 bb e6 88 ef bc
       -0.01730444 0.009614924 -0.001964163 -0.029240083
0000d0 00 44 69 bc 90 6a 01 bb 75 fc de 3a 91 53 ca bc
       -0.014237404 -0.0019747354 0.0017012494 -0.02469805
0000e0 65 48 44 bd 15 6e a5 bb 0d df 28 3c ee ed e8 bb
       -0.047920603 -0.005048523 0.010307086 -0.0071084416
0000f0 4d 2c cf bc 8c f0 28 bd d3 52 ef bc 9f 4d 8f bc
       -0.025289679 -0.04124503 -0.029214298 -0.017493067
000100 6e 56 4e 3c 8d 79 91 bc d5 69 32 bd 62 cc f8 bc
       0.012593849 -0.017758155 -0.04355796 -0.030370895
000110 99 0f d6 bc b0 ca 06 bc 0f fc b7 bc 7f 69 0a 3d
       -0.026130484 -0.008227035 -0.022459058 0.033792015
000120 72 4b 85 bc 74 c9 37 bc 1e 21 9e bb 76 23 ab bc
       -0.016271327 -0.011217464 -0.004825725 -0.020890933
000130 79 f3 82 bc 8f f9 62 3b 03 09 d4 bc c9 10 9b bc
       -0.015985237 0.0034633612 -0.025883203 -0.018928902
000140 53 98 21 bd ca bb 32 bc 37 37 cd 3c db 54 a9 bc
       -0.03945191 -0.01090903 0.025050743 -0.020670345
000150 33 54 41 bc 3a 03 a6 bc cd 90 e4 bc f5 4e 43 bc
       -0.01179986 -0.02026521 -0.027901078 -0.01192068
000160 30 18 0f bb ed fb da 3b ce fa 89 bb aa cf 0e 3b
       -0.0021834485 0.006682864 -0.0042108065 0.0021791258
000170 a5 d1 de bb 0c 84 35 bd 67 8b b3 3c 0e 98 be 3c
       -0.006799894 -0.044315383 0.021917058 0.023265865

running_mean f4 [96]
000000 61 71 80 bd a5 c3 fb 3c 31 ee a9 bd 3c e8 4f 3e
       -0.06271625 0.030732939 -0.082973845 0.20303434
000010 87 80 12 be 5b 34 c8 3e 50 37 a1 be 66 7e ea 3d
       -0.14306842 0.39102444 -0.31487513 0.1144989
000020 39 3e 9e 3d a7 b7 eb 3c 33 5e 82 be 01 ce df bd
       0.07726712 0.028774096 -0.25462493 -0.10927964
000030 b3 b3 1e 3d 00 c4 94 bd e9 2a 18 3d 37 67 06 3f
       0.038745593 -0.072639465 0.037150297 0.52501243
000040 49 55 62 be 78 ed 80 3e e0 b4 16 3e 2b f1 6f 3e
       -0.22102846 0.25181174 0.14717436 0.23431842
000050 78 47 8d 3e e0 7a bf 3d 7e db 12 bd f1 6f 6c 3e
       0.2759359 0.093496084 -0.035853855 0.23089577
000060 75 be 7a 3e 6d 69 e5 bd a8 97 1f bd 25 0b 3e be
       0.24486716 -0.11201749 -0.03896299 -0.18558939
000070 54 47 ac 3e e8 7a 6e 3e 37 45 2a be 41 ac d3 bc
       0.3364817 0.23289073 -0.16627966 -0.025838973
000080 6b cf 40 be e8 f6 e2 bd 3e 58 3d 3d 96 e2 6b bd
       -0.18829124 -0.1108225 0.046226732 -0.057589136
000090 24 ce 54 3e ec ca 24 3d 5d 11 93 3e 22 0b 39 be
       0.20781761 0.040232584 0.28724185 -0.18070653
0000a0 f7 fd 02 3e 5b 7a 74 be f3 6f ed bd 83 6e d8 bb
       0.12792192 -0.238748 -0.11593618 -0.006604971
0000b0 94 b4 fd 3d 58 a8 de 3c a8 1e 26 be 60 8a c1 3d
       0.12387958 0.027179882 -0.16222632 0.09450221
0000c0 18 0a a9 bd e3 00 d7 3d fe fa 1a 3e 8a c9 79 3e
       -0.08253878 0.10498216 0.15134808 0.24393287
0000d0 38 fa 0d 3e 40 4d 45 3b 9e 29 f0 bd 15 92 8f 3e
       0.13864982 0.003010586 -0.11726688 0.2804114
0000e0 fd f2 ab 3e a0 f6 d8 bb 1b ae 2a 3e 89 1e 80 be
       0.33583823 -0.006621197 0.16667978 -0.25023296
0000f0 db b7 c3 3c f0 3e 0a be 64 b4 bc bc af cc 59 bd
       0.02389138 -0.13500571 -0.023035236 -0.053173717
000100 e7 4e d0 3c 16 03 ab bd 3b 7f 64 3e 1c fc a1 3d
       0.025428249 -0.08350198 0.2231416 0.07909414
000110 b4 2e 26 bd 79 c3 42 bd ce ca 9f bd 0a 1d 24 be
       -0.040571883 -0.0475497 -0.07802354 -0.16026703
000120 70 a3 69 3e ce c9 98 be 82 cd cc 3d 77 66 e8 bd
       0.22816253 -0.29841465 0.10000135 -0.113476686
000130 7e 41 a3 3e e2 86 79 bd a6 f2 af bd ba ee f4 bd
       0.31885904 -0.06091965 -0.085912034 -0.11959596
000140 2e f4 c5 3e 84 63 3a 3d 15 bf cf bd da bb 7a bb
       0.38662857 0.04550506 -0.10143868 -0.003825894
000150 4d 83 21 3e e0 f5 b6 3e fa 1f 15 3e f8 51 02 3e
       0.15772744 0.35734463 0.1456298 0.12726581
000160 3f 35 aa bd 8b 63 ee 3d 24 a1 2b be 7e 4c 45 be
       -0.08310937 0.1164008 -0.16760689 -0.1926746
000170 8d ff f9 3c e1 2f 1b be cc 1d 61 be ff 28 a6 3b
       0.030517364 -0.15154983 -0.21984023 0.005070805

running_var f4 [96]
000000 32 4b 14 3d 40 c2 7d 3c 67 78 17 3d 0e d6 28 3d
       0.036204524 0.015488207 0.03698006 0.041219763
000010 3f 74 3a 3d ad 50 2e 3d 13 b7 3c 3d 4e 81 5f 3d
       0.045521017 0.042557407 0.04607303 0.054566674
000020 b7 df e5 3c d5 11 aa 3d 01 3b dd 3c 8f 56 ac 3c
       0.028060777 0.083041824 0.027005674 0.021037368
000030 87 38 f9 3c e6 b5 20 3d 05 cd 1a 3d 3f 5d c7 3d
       0.030422462 0.039235972 0.037793178 0.09734582
000040 8a ff 02 3d ed 2e 21 3d c2 86 9c 3c b2 24 d8 3c
       0.031981982 0.039351393 0.019107226 0.026384685
000050 fa c2 78 3d 8a 0b 12 3d b9 09 74 3c 1f 31 d3 3c
       0.06073282 0.035655536 0.014894896 0.025780259
000060 28 11 2a 3d 12 b4 2a 3d 6f 43 c6 3c d6 60 75 3d
       0.041520268 0.041675635 0.024202077 0.059906803
000070 92 78 e8 3c 71 d3 1a 3d 63 a2 8a 3d dc 46 19 3d
       0.028377805 0.037799302 0.06769254 0.037421092
000080 da 20 66 3d 62 02 78 3d cf d1 50 3d 19 fb dc 3c
       0.056183673 0.060549147 0.05098134 0.026975201
000090 4c 36 8a 3d 1b c2 59 3d 70 e8 20 3d f8 c6 bc 3c
       0.067486376 0.05316363 0.03928417 0.023044094
0000a0 a1 82 43 3d 7d 02 7a 3d 17 00 5c 3d 79 85 fc 3c
       0.047732 0.06103753 0.053711023 0.030825363
0000b0 69 25 27 3d 83 75 df 3c 0e 48 51 3d b4 99 c2 3c
       0.04080716 0.027277714 0.051094107 0.023754932
0000c0 77 f0 05 3d d1 82 1c 3d 52 3e 01 3d dc 6e 33 3d
       0.03270003 0.038210694 0.031553574 0.043806896
0000d0 72 5f 36 3c bd 7d 5b 3d 29 44 ab 3c 1d aa db 3d
       0.011131154 0.05358671 0.020906525 0.10725806
0000e0 05 7e 82 3d 9c 58 dd 3c 2d 8f 17 3d 42 77 f4 3d
       0.063716926 0.027019791 0.037001777 0.11936809
0000f0 c7 2e 33 3d 48 c1 39 3d 54 d1 b2 3d 87 91 b3 3d
       0.043745782 0.045350343 0.087313324 0.087679915
000100 b9 54 79 3d d8 89 1b 3d e0 93 03 3d f2 05 fe 3c
       0.060871813 0.037973255 0.032123446 0.031008694
000110 a2 b9 f9 3c d5 86 03 3d d0 be 0f 3d 20 8a 40 3d
       0.030484024 0.032111008 0.035094082 0.047006726
000120 ee 67 e6 3c b3 57 2b 3d 4c 1d 36 3d 64 c5 ab 3c
       0.02812573 0.041831683 0.044461533 0.020968147
000130 66 43 4e 3d e8 e0 38 3d 25 f4 99 3c 4e d0 a1 3c
       0.050357245 0.045136362 0.018793175 0.019752648
000140 e9 33 99 3d 49 f9 bb 3c bf 29 2b 3d 45 5a 7a 3d
       0.07480604 0.022946017 0.04178786 0.061121244
000150 59 5a c6 3c 40 a0 18 3d 99 38 6f 3d 2c c1 2d 3d
       0.024213003 0.0372622 0.058403585 0.04242055
000160 bf 7d 0c 3d 62 0f 93 3d 4e 88 19 3d 5e f4 3f 3d
       0.03429961 0.071806684 0.037483506 0.046863906
000170 7f d7 dc 3c 76 5a 71 3d 5e 0c 92 3d 2b f4 0d 3d
       0.026958225 0.05892416 0.07131265 0.034656685

weight f4 [48, 96, 3, 3]
000000 68 7b 09 bc 1b f8 a5 bc 1b b6 de ba db 80 b5 3b
       -0.008391239 -0.020259907 -0.0016991528 0.0055390424
000010 fa 28 99 3a 04 fb 48 bc f0 41 23 bc 7b 34 72 bc
       0.0011685186 -0.012266878 -0.009964451 -0.01478302
000020 69 11 c5 bc cd 91 f5 3b f6 2d a3 3b 22 09 55 3b
       -0.024056153 0.0074941874 0.004979844 0.0032506664
000030 b0 ca 36 3b 3b ee 5f bb 22 6f fe bb 7f 6e cc 3c
       0.0027891807 -0.0034169096 -0.007764713 0.024955032
000040 b7 8a 11 3c 7b d3 6d 3c dc 32 17 bb 53 ad 89 3b
       0.00888317 0.014515753 -0.0023071086 0.00420157
000050 ae 70 57 bc 46 2f e1 bb 8e 3a ce 39 a8 e9 a3 bc
       -0.0131494235 -0.0068720905 0.00039335008 -0.020008877
000060 6b 79 42 bc 51 a3 03 bc fc 8f de bb 70 78 3c 3c
       -0.011869769 -0.008034543 -0.0067920666 0.011503324
000070 5d 1b 93 bc a5 84 d9 3b a1 5b 03 3b 2b 60 8e bc
       -0.017957384 0.006638127 0.0020043629 -0.01737984
000080 b7 ad b0 3b 2e a9 83 3c 70 3f b8 bb dc e3 47 bb
       0.005391802 0.016071882 -0.0056227967 -0.0030500805
000090 b0 16 9d bc 33 2e de bb a9 c2 23 bc df 62 ed bc
       -0.019175857 -0.0067804097 -0.009995141 -0.02897781
0000a0 b1 9e bf bc cc cd bc bc 5a bc 4e bb 1f 7e aa 3b
       -0.0233911 -0.02304735 -0.0031545372 0.005203023
0000b0 99 ee 8e bb e6 d5 8e 3c 9f 3c 6d 3c 2a 5f b0 bc
       -0.004361939 0.01743598 0.014479785 -0.021529753
0000c0 b2 e7 6a 3c f7 bc c9 bc 02 43 0a bc bd a1 a4 ba
       0.014337467 -0.024626238 -0.0084388275 -0.0012560409
0000d0 da c2 45 bb aa ac c1 bc 78 71 4c b9 f4 57 37 3a
       -0.0030175955 -0.023641903 -0.00019497226 0.0006994002
0000e0 81 ee ab bc 74 1a 18 3c 12 51 72 bb d7 cb 0a bc
       -0.020987751 0.009283651 -0.0036974591 -0.008471451
0000f0 ad 1f ac 3b 03 4a ec bc 17 8c cb bb 85 28 48 bc
       0.0052527995 -0.028843885 -0.0062117684 -0.012216692
000100 34 36 49 bc d8 7f 8c bc 58 4d ea 3b 4b a0 d6 3b
       -0.012280989 -0.017150804 0.0071503334 0.00654987
000110 e2 84 65 bc 3f 5a ce bc 71 8e 90 bc 37 24 37 bc
       -0.0140087325 -0.025189517 -0.017646046 -0.011178068
000120 51 18 68 bc 97 dc 14 3a c1 c1 87 bb 61 c9 14 3c
       -0.014165954 0.00056786224 -0.0041429703 0.009081216
000130 0c 74 d4 3b b4 e9 a8 b8 33 d4 4c 3c bf 2a 99 3c
       0.0064835604 -8.054395e-05 0.012501764 0.01869714
000140 16 d6 0d 3b 74 e7 6f bc dd 66 a4 bc da e4 0b bc
       0.0021642498 -0.014642585 -0.02006858 -0.008538449
000150 82 1f 43 bb b4 59 1e 3c 37 48 49 bc 95 2f 89 3c
       -0.0029773419 0.009664942 -0.012285284 0.016746322
000160 25 7e 12 bc 38 ef 4e bb 1e ba 64 3b a5 58 a1 bc
       -0.008941208 -0.003157569 0.0034900974 -0.01969559
000170 15 b7 01 bc b7 61 9a bc f9 45 b2 bc 7c da a4 bc
       -0.007917185 -0.018845422 -0.021761881 -0.020123713
000180 80 a5 fb bc 67 84 85 bc 35 a9 d9 bc c5 ff 97 3c
       -0.030718565 -0.016298486 -0.026569942 0.018554578
000190 1c ae 01 3c b0 84 e1 3b eb e2 7d 3c b3 7c b0 3b
       0.007915046 0.0068822727 0.015495996 0.005385959
0001a0 ce 28 98 3c a4 0f b0 3c 4e 5e 9e 3c ea 09 54 3c
       0.018574145 0.021491833 0.019332077 0.012941817
0001b0 65 2b c4 bb ed 07 05 3b 3f 72 de bb 7b b6 fa 3b
       -0.0059866183 0.0020298914 -0.0067885215 0.007651148
0001c0 c4 d4 fa bb 96 c0 bd 3a d6 b3 fb 3b 5a 0b 96 3a
       -0.007654758 0.0014476951 0.00768135 0.0011447475
0001d0 d9 9d d4 bc 9b 88 8c 3c 82 50 8e 3c 11 80 c5 3c
       -0.025954174 0.017154982 0.017372373 0.024108918
0001e0 84 e0 af bb c1 4b de ba 94 f4 b3 3c 79 53 e6 3b
       -0.0053673405 -0.0016959832 0.02196721 0.0070289937
0001f0 23 ed ad 3c 85 9a 27 3c 4b 4c 54 3c a6 e6 50 3c
       0.02123124 0.010229711 0.012957643 0.012750303
000200 0c 3d 0c 3c 7a 7a 49 bc 1c 90 ab 3c 7a df 97 ba
       0.008559477 -0.012297267 0.02094274 -0.0011586987
000210 03 44 8e bc ba 87 1b 3b 19 1c b8 bb 3b 1b e4 3b
       -0.017366415 0.0023732022 -0.005618584 0.006961254
000220 57 3c 2c bb ef 49 8e 3c 40 97 89 bc 10 cb 0b bc
       -0.0026281083 0.017369239 -0.016795754 -0.008532301
000230 de c3 a6 bc e5 f3 e7 37 42 50 b2 3b 29 62 9c 3c
       -0.020357069 2.7650918e-05 0.0054416964 0.019089775
000240 10 03 9a 3b ca 78 c4 bc 92 72 cc bc 47 05 82 bc
       0.004700072 -0.023983378 -0.024956975 -0.015871657
000250 5f 96 f5 bc 26 ba 7c bc b3 6d 0c bc 0b 64 f2 bc
       -0.02997893 -0.015425241 -0.008571076 -0.02958872
000260 0e 97 bb bc b2 f0 1b 3c 29 5b 2c 3c 09 96 8e 3c
       -0.022899177 0.009517835 0.010519781 0.017405527
000270 59 ca db 3c 86 53 ab 3c 90 73 46 3c b3 a7 93 3c
       0.026829885 0.02091385 0.012112513 0.018024301
000280 76 09 1d 3c db a8 d4 3b d6 6e 79 bc d1 d9 82 bc
       0.009584775 0.0064898557 -0.015224179 -0.015973004
000290 11 bf f7 bc 6b b7 77 bc 29 08 f7 bc 16 01 a7 bb
       -0.030242475 -0.015119414 -0.030155258 -0.005096565
0002a0 86 ce 79 bc d3 d1 c7 ba 2e 71 18 bc 64 d4 3a bc
       -0.015246993 -0.0015245028 -0.009304328 -0.011403177
0002b0 fc a0 2b bc c3 a4 a6 ba 24 b2 1b bc eb 3d 97 3b
       -0.010475393 -0.0012713898 -0.009502921 0.0046155355
0002c0 63 5d 47 bc a5 c2 0a bd 39 76 f2 bc 0d ed 06 bd
       -0.012168261 -0.033877034 -0.029597389 -0.032940913
0002d0 cb 5a 20 bb d6 05 59 bc ca 76 77 3a c1 65 f0 3b
       -0.002446818 -0.01324602 0.0009440003 0.0073363488
0002e0 c2 0f 6f bc 06 93 82 3c f5 51 c4 bc 5f c8 92 bc
       -0.014591159 0.015939247 -0.023964861 -0.01791781
0002f0 87 5f 39 bc 63 04 e9 38 65 8e b8 ba 92 9a 5c bb
       -0.011314279 0.00011111123 -0.0014080523 -0.0033661467
000300 74 5e 30 3c 03 60 bf bb 6e b7 6e bb 6c f9 c4 bc
       0.010764707 -0.005840303 -0.003642525 -0.024044715
000310 3b 7f 99 bc 7d b3 8a 3b b0 1a 8e bc 33 af 3f bc
       -0.018737426 0.0042328225 -0.01734671 -0.011699486
000320 77 85 c0 3a d2 3a 81 bc d4 48 53 bc c9 c0 15 3c
       0.0014688213 -0.015775118 -0.012895782 0.009140202
000330 7f 4c 21 bc cc bc b4 bb 9a 6a 78 bb 93 aa 23 3c
       -0.009844898 -0.0055156704 -0.0037905336 0.0099893985
000340 ef 8a 0e bb 3a 9d 2c 3b ab 07 96 3b fe d8 52 3c
       -0.0021750291 0.0026338832 0.004578551 0.012869118
000350 d2 a1 14 3c e3 f8 e1 bb 50 06 58 3c c2 66 1a 3c
       0.009071784 -0.0068961247 0.013185099 0.009423913
000360 18 bd da 3b 23 cb 62 bc 2e 59 47 3c c8 cf 3f 39
       0.0066753738 -0.013842377 0.012167258 0.00018292584
000370 3d 24 d7 ba 70 2a ba 39 a8 c6 33 3c dc a8 70 bc
       -0.0016413998 0.00035508303 0.010972656 -0.014688697
000380 ff 83 51 b8 d5 88 19 bc 30 83 24 3b ce 00 35 3c
       -4.9952414e-05 -0.009371002 0.0025102608 0.011047555
000390 07 b0 ca bb e8 37 1a 3c b0 b8 a8 3c c0 df 9f 3a
       -0.006185535 0.009412743 0.020595878 0.001219742
0003a0 8d 92 c3 bb 17 fe 5b ba a0 db be 3a 0b 4e e6 bb
       -0.005968398 -0.00083920493 0.0014561303 -0.0070283464
0003b0 6c 30 1d bc e4 0a 14 bb 2b f6 19 3a 25 1b 71 bc
       -0.009594064 -0.00225895 0.00058731687 -0.014715944
0003c0 b5 04 cf bb 47 c8 fc bb 31 cd 23 bb a3 cc d4 bb
       -0.0063177 -0.0077143046 -0.002499413 -0.006494121
0003d0 49 d2 90 bb cb 54 5a bc c2 02 ff ba 72 b9 c8 bc
       -0.004419599 -0.01332588 -0.0019455778 -0.02450249
0003e0 fe ff f9 bb 5f a5 61 ba 12 30 8d bb 02 67 09 bc
       -0.0076293936 -0.0008607711 -0.004308709 -0.008386375
0003f0 4a ec 90 bb a3 d8 46 3c 81 de e6 3b 48 91 d9 3c
       -0.004422699 0.012136611 0.0070455675 0.026558533
