weights/Boxhill.model.weights.pt (torch, 80013 bytes, 30 tensors)

weight f4 [16, 3, 3, 3]
00000000: 931f f7bd 7d82 343e 5701 2e3d b6fa a3bd
00000010: 444b 15be 8ff1 ef3c 27b9 d0bd ab83 eb3d
00000020: 32e7 55bd b279 b9bd 458a d53d f923 4cba
00000030: a854 3cbe 9b9a 9abd 6152 3b3e cf97 8f3c
00000040: e627 3e3e 30b8 32bd fed5 343e 1f65 37be
00000050: ed6f d73d 4219 003d 9797 04bd e4a0 6a3d
00000060: df2c 10bd 6d02 f2bc e83d 84bd 6f91 8a3c
00000070: 4688 afbd ebcd a73d 0538 9a3d d0e3 413e
00000080: 8ab8 163e b5fd 36be 268a b4bc ec6d bc3c
00000090: 32f7 ffbd 45c5 9c3c 2d7b bc3d 5975 043e
000000a0: 5967 27be 74c1 06bc bec4 1fbe c168 073e
000000b0: a245 c4bc bf5e dbbd 51a5 9fbd 53a4 2cbe
000000c0: b129 1a3d fcd0 99bb 1f94 1bbe cf60 14be
000000d0: a7c5 3dbe d781 203e 7da7 2bbe 6d46 a03d
000000e0: 5919 29be 0b2f 0fbe 504d b3bd dac9 2a3c
000000f0: 40e5 4a3d e39b d1bd 82d4 0fbc 1cba 1fbe
00000100: f95a 1d3e 07f1 90bd 34bb 18be bb65 193e
00000110: d593 923d 1311 79bd 2990 153e 4929 903c
00000120: dc5b 393e 1393 70bd 319e fd3d b1c1 0abe
00000130: 1251 b6bd a19c a7bd 2dcf c53d eec9 b23b
00000140: cf63 bcbd d4bd fd3d c4c6 7ebd 67e7 113e
00000150: 5cd5 34bd 1c7f a5ba 27c4 1fbe 11e2 333d
00000160: c4e0 cebd 2e8f a53c 9b18 02be fa4e 3cbd
00000170: 570d 233c c406 273e c5ca 8bbb 307f 60bd
00000180: 2181 21bc c634 103e f769 903d aa24 35be
00000190: d128 bc3d aa46 953d a346 aa3d f0b1 0dbe
000001a0: 9afe 023e 6af8 263d 4967 bb3d 78a4 c63a
000001b0: abfb a4bd e95e 463c f9c7 0b3e 5065 233e
000001c0: 3596 263d 8742 30bc db22 98bd a11f d0bc
000001d0: df19 27bc 0a49 3cbe ac8d 01bd a08d acbd
000001e0: f790 d33d fe3d f13d e1c0 aa3d 11bb 74bb
000001f0: 8041 02be 5ec8 84bd 1aa0 b23d 2f95 3a3e
00000200: 63fb df3c 2acb 33be c1ab 0d3c 6872 d23c
00000210: 1a25 303e 8b32 1b3e 38a5 2ebe fdfa 3cbe
00000220: 7118 29be 062c a63d 4789 3c3d 0818 8a3d
00000230: 2eb7 09be 2066 ae3d d9ca bd3d 034d c3bd
00000240: 4434 17be afcf 223e 1322 e3bd e113 e43d
00000250: e4c8 0e3e d685 93bc 707e 3bbe ec5d e6bd
00000260: 17bc fc3d 5ed9 2dbe 3c34 f03d d9b7 32bc
00000270: ccee 84bd a89e 8b3c 8c70 273e ab04 83bd
00000280: 8c34 28bd f27f b43d a6fe 183d fd4e 1cbe
00000290: c4aa 253c 4b09 353e d352 2f3e f1a3 11be
000002a0: 9465 543d ef3d 14be fc45 c4bd b12c 38be
000002b0: 4673 b73c 0894 9dbd 6c32 35bd 77f3 10be
000002c0: 71a2 41bc 38be d13d cdc6 96bd 0339 15bd
000002d0: eab6 113e edd3 2bbe 7179 48bd aedc efbd
000002e0: 5511 efbd a799 073e f798 11bd 3def 59bd
000002f0: 92cd 40be 8562 0fbc 079c 423e 9a42 2abe
00000300: ce3a 49bd e9b9 193e 124f d1bd 7a3e 22be
00000310: fcdd c03d 30ff 8dbd 17b7 1abd f7ea 373e
00000320: afaa 1fbe 9c71 fbbc 891b 66bd 8f15 3c3e
00000330: 3dc2 103c 2927 d53d b318 b8bd e067 3c3e
00000340: fd9c 49bc ff66 163e 5409 023e f150 433e
00000350: 34cf 323e fa11 d13a b47f d1bc 6647 bf3d
00000360: e8aa 8c3c f762 3cbd 0479 6cbd 213f babd
00000370: 4b87 31be ca0b 403e ae9e 07bd 06f2 143e
00000380: f29a a9bb b50c 023e 7c90 1dbe b35c 9c3d
00000390: b29a 30be 6cea 213e 083b 403e b6d1 d63d
000003a0: 9e0e cdbd 0ba5 39bc 5366 3dbe f7ed 8abd
000003b0: 48ae efbd 11ce 9cbc 7bde 5b3d f148 d03d
000003c0: 94c0 5bbd 15fa 063d c98c 003e e51f e5bd
000003d0: f630 6dbc 8442 9ebc a93c 37bd b3d8 373e
000003e0: d088 35be 428a a4bd 7bfa 7ebc 349b c43d
000003f0: 59ee e73d 0081 92bc 1e3f ca3c 1adb 2f3e
-0.12066569 0.17627902 0.042481747 -0.08006804 -0.14579493 0.029289989 -0.10191565 0.11499723
-0.05222244 -0.09056415 0.104267634 -0.0007787343 -0.18391669 -0.0754902 0.18293144 0.017528443
0.18569908 -0.043632686 0.17659757 -0.17909668 0.10519395 0.031274088 -0.03237113 0.057282344
-0.035199042 -0.029542172 -0.0645712 0.016915051 -0.08570914 0.081935726 0.07530216 0.1893456
0.14718834 -0.17870219 -0.02203853 0.023001634 -0.12498321 0.019137034 0.092031814 0.1293539
-0.16348018 -0.008224834 -0.15602395 0.13223554 -0.023958985 -0.10711431 -0.077952035 -0.1685956
0.037637416 -0.0046941023 -0.15193222 -0.14490055 -0.1853243 0.1567453 -0.1676311 0.07825933
-0.16513576 -0.13982789 -0.087549806 0.010424102 0.049535036 -0.10234811 -0.008778693 -0.15598339
0.15366735 -0.07077222 -0.14915162 0.14980213 0.07157103 -0.0608073 0.14605774 0.017597811
0.18101448 -0.05873401 0.12383688 -0.1355045 -0.08902182 -0.081841715 0.09658656 0.005456201
-0.091987245 0.123897225 -0.062201276 0.14248429 -0.044148788 -0.0012626383 -0.1560217 0.043916766
-0.101014644 0.020209875 -0.12704699 -0.045973755 0.009951911 0.16311175 -0.0042661154 -0.054808795
-0.009857447 0.14082631 0.07051461 -0.17689767 0.091874726 0.07288869 0.08314254 -0.13837409
0.12792435 0.04076425 0.091505595 0.0015155217 -0.08055814 0.012107589 0.13650502 0.15956616
0.040670592 -0.010758049 -0.07428523 -0.025405707 -0.010199039 -0.18387237 -0.03162925 -0.0842545
0.10330384 0.11779402 0.0833757 -0.0037342946 -0.12720299 -0.064835295 0.08721943 0.18220972
0.02734155 -0.1755797 0.008646906 0.025689319 0.17201653 0.15156 -0.17055213 -0.1845512
-0.1651323 0.081138656 0.046029355 0.06742865 -0.13448784 0.085155725 0.09267206 -0.09536173
-0.14766032 0.15899538 -0.110904835 0.11136604 0.13943821 -0.018008154 -0.18309951 -0.11248383
0.12340563 -0.1697745 0.11728713 -0.0109080905 -0.064908594 0.017043427 0.16351527 -0.06397375
-0.041065738 0.08813466 0.037352227 -0.15264507 0.0101115145 0.17679326 0.17121439 -0.14222695
0.051854685 -0.14476751 -0.09583661 -0.17985798 0.022393834 -0.0769425 -0.04423754 -0.14155374
-0.011818514 0.102413595 -0.07362137 -0.036431324 0.14229932 -0.16780062 -0.04894394 -0.11712013
-0.11673228 0.13242207 -0.03554627 -0.05320667 -0.18828419 -0.008751516 0.19004832 -0.16626969
-0.049128346 0.15012325 -0.102201596 -0.15844145 0.0941734 -0.06933439 -0.037772264 0.17960726
-0.15592454 -0.030693822 -0.056178603 0.18367599 0.0088353725 0.1040786 -0.08989086 0.18399
-0.012305495 0.14687727 0.12698871 0.19073845 0.17461854 0.0015950792 -0.025573589 0.0933979
0.017171338 -0.045992818 -0.057732597 -0.09094072 -0.17336766 0.18754497 -0.033110313 0.1454545
-0.0051759416 0.1270016 -0.15387148 0.076348685 -0.17246512 0.15812081 0.18772519 0.10489218
-0.10012554 -0.011330853 -0.18496065 -0.067836694 -0.117031634 -0.019141229 0.05367897 0.101701625
-0.053650454 0.03295334 0.12553705 -0.11187724 -0.014477005 -0.019318826 -0.044735584 0.17953758
-0.17727971 -0.08034183 -0.015562649 0.09599915 0.11324758 -0.017883778 0.0246883 0.17173424

bias f4 [16]
00000000: fdc8 fdbc 09a1 7a3d b1da cebd 62e7 203e
00000010: 98d9 10be 218f 0bbe 2b90 71bc 62db bb3d
00000020: 54c0 e13d 36a8 c63c d7e8 e8bd 71fa 49bd
00000030: a256 0a3c aa29 2c3e 8a34 4c3d 5291 d03d
-0.030979628 0.06118873 -0.10100306 0.15713266 -0.14145505 -0.13628818 -0.014743845 0.09172703
0.11023012 0.024250131 -0.11372536 -0.049311105 0.008443506 0.16812769 0.049854793 0.10183968

weight f4 [16]
00000000: e0d1 7f3f 702f 803f ce9c 7f3f f22c 803f
00000010: df2f 803f 050c 803f a8a6 7f3f 7ea9 7f3f
00000020: ae11 803f 63ad 7f3f 8d2e 803f 4e21 803f
00000030: 1e28 803f e327 803f efaa 7f3f e0eb 7f3f
0.9992962 1.0014477 0.9984864 1.0013716 1.0014609 1.0003668 0.9986367 0.99868
1.0005395 0.9987394 1.0014206 1.0010164 1.0012243 1.0012172 0.998702 0.9996929

bias f4 [16]
00000000: 28dd a6ba b36b bc3a 3d5f bdba 16d1 c33a
00000010: 7a88 c53a 6938 573a 29e1 aaba d44e b2ba
00000020: e3db 023a 3c95 beba 4bf0 b83a f28a 4e39
00000030: b9fe ab3a bf95 b23a b0d0 abba ceaa 1339
-0.0012730705 0.0014375359 -0.0014447939 0.0014939632 0.001507058 0.0008210005 -0.0013037074 -0.0013603815
0.0004991872 -0.0014540325 0.0014109699 0.00019697452 0.0013122178 0.001362495 -0.0013108458 0.00014082642

running_mean f4 [16]
00000000: 85db ce3d 7b56 0bc2 9b77 0bc2 fcda a841
00000010: 4d1b 8b41 ea36 78c1 b93e 8ec2 ad86 7642
00000020: f464 0140 f83f 25c1 ee09 b8c1 0a45 59c0
00000030: e128 0ac2 a7d7 e2c1 babe 9042 6cf5 3f41
0.10100464 -34.834454 -34.866802 21.106926 17.38833 -15.513407 -71.122505 61.63152
2.0217867 -10.328117 -23.004848 -3.3948388 -34.53992 -28.355299 72.37251 11.997417

running_var f4 [16]
00000000: 6dd3 ff42 8be7 2a44 02d3 1344 b773 6043
00000010: fcab 5743 4d24 6a43 5cf1 0c45 4577 ed44
00000020: 1ff0 6743 0ccc bc42 0ec4 b743 98f2 d742
00000030: 4cb6 3944 f4bf e643 4088 1445 f47f 5543
127.91294 683.61786 591.297 224.45201 215.67181 234.1418 2255.085 1899.7272
231.93797 94.39853 367.53168 107.973816 742.8484 461.49963 2376.5156 213.49982

weight f4 [16, 3, 5, 5]
00000000: 8b3c ccbd c800 93bd d39c a8bd b9c5 6d3d
00000010: bddf fa3c 6c40 e8bd 69f3 e33c 425c 8cbd
00000020: 1b11 9f3d 33eb e63c a766 cabd 899c 923d
00000030: f915 9ebd 0027 3c3d 3d15 a73d 0c87 a9bc
00000040: 728f 8b3c 78cf ad3d 6792 b8bd 0d56 4d3d
00000050: c985 123d 9cc3 e13d b710 86bd b079 2cbc
00000060: 7aa9 54bd e6f6 873d e483 3dbc 72d4 003d
00000070: bbce a2bd c99b 103d 2137 2e3d 0303 22bc
00000080: 21da e13d 779b b2bd b8be a6bd 7bbb d03d
00000090: 4c1b de3d 17cd ad3d 56e4 33bc 9916 303c
000000a0: f203 6ebd 161c a53d 56bd 94bd 64e3 d1bd
000000b0: 0fd9 9abc 0755 23bd aba5 483c 5561 ac3d
000000c0: f8ac f3bc 70b6 9f3d c723 7bbd 90ed 3ebd
000000d0: 94a0 933d e73a 69bd 1a04 46bd 148a f2bc
000000e0: 9283 493d 7484 1fbd 1754 5fbd 490a d63d
000000f0: 837c b0bd 566e c9bd 74b1 c53d 052c e23d
00000100: 723a a8bd 8776 313d 4879 d6bc d138 a63d
00000110: 1a29 2b3d b2d1 21bc 8a7b 8dbd e9e0 e5bd
00000120: ac12 d3bc a33a a6bc 1653 05bc abac 853d
00000130: 0671 08bd 437d bd3d f5a2 6d3d ddb7 b4bd
00000140: c921 a1bc 5473 073d 6b2d b0bc a5af 843a
00000150: 9f69 9dbd d21b b9bd 0fa1 fc3c 2520 ecbc
00000160: 5ece 9ebd f04a 9abc 561e 993c 9780 953d
00000170: d86b 12bd 1238 8cbd e61a 8d3d f62c 0abd
00000180: 3827 cc3d 7f68 bcbd 63bc ac3d 95bd afbc
00000190: 57dd 8a3d e864 dc3c 5611 55bc 2007 b13d
000001a0: a41b 0f3d 6bd2 b7bb 7558 b1bd 3f4c d5bd
000001b0: 5fdc 9bbd 56b7 9bbd 5af7 bdbd 42a6 b1bc
000001c0: 1939 b0bc 8cd0 bb3d 95f8 033d 96c4 06bc
000001d0: 5d43 fd3b 258a dd3a 6446 afbc aa92 b6bd
000001e0: 778f 473d 79b5 8bbd 4f4e 563d bbcc 373b
000001f0: 71f8 5fbd c796 313d d9f4 033d fdd5 1f3d
00000200: 9df3 733d 11e2 8ebc 6e2b 96bd f374 633d
00000210: 271f 78bd 50b8 5bbb 6b39 ab3d ec81 99bc
00000220: 3671 b83c d8b4 c33d 661e 553d 95b2 e0bb
00000230: 96bb 36bd 8aca edbd 0b24 8abd 8d05 81bd
00000240: 4d5a 573b b911 1fbd 0b26 afbc cc9b dd3d
00000250: a7e5 a63d f2eb 31bc d3f6 b3bd 32a3 1ebd
00000260: 91f3 d9bd e9b5 bbbd 9d19 1abc 7dba 0abd
00000270: 5943 a53d f989 f43c fa01 e4bc 6b85 d53d
00000280: 0203 843d 9d9c b8bd e340 adbd 9918 993d
00000290: 0600 efbb 3187 9c3d a51c f0ba cac7 843d
000002a0: 0091 d4bd 0e72 e9bd 931f c13b eca4 87bd
000002b0: c3d1 a93d d0e5 dfbd ea5c f83c b59c fcbc
000002c0: 23b5 543d ec67 cd3d c169 a2bd d46e e3bd
000002d0: bdbb 3a3d 2919 adbd 17ce ecbd 8239 4a3d
000002e0: 1cef c0bd 45c6 a4bd 6cbd da3c 33b8 48bd
000002f0: aeaf 513d 4b70 b33d 2ed1 833c e76e 01bd
00000300: a8ac 92bd 2b04 efbc f142 603d 3158 e63c
00000310: cc20 e7bd 917c 9fbd 1e1f 433d 14ec ebbd
00000320: a678 9a3d ad71 de3c 898c b3bd 57f0 7fba
00000330: 0f3e cdbd acd9 ae3c 9941 13bd c2c9 84bd
00000340: 57c9 cdbd e22f c9bd 8520 61bd f974 a13d
00000350: 822b 7b3c c5dc 623d 6bb1 c5bd 3a2d 9a3c
00000360: 0bb0 ff3c b7e9 803d ec76 d4bd 66cc a33d
00000370: 2951 febc 9ac9 963d b3ec 7b3d 237c 813d
00000380: aa36 d33c 0fdc c83b 3ef1 4c3d a44d ca3c
00000390: 6def 1f3d 10cf 32bb 3b65 d2bd 7595 e13d
000003a0: 4700 893d 19a1 bbbd 5880 ebbd 2cf8 9ebd
000003b0: 28ef 333d a83f d4bd 40a8 aabd e042 84bc
000003c0: 507f 8bbd 4dfd 7bbd 3397 39bd fb29 0e3c
000003d0: 63f2 70bd 423c c13d e4bd ebbd 90c2 c5bc
000003e0: 5a4b cf3d 73be 813d 194e 8b3d a54b d53b
000003f0: cb25 6d3d 4a5c 073c 8a76 8e3d 7572 21ba
-0.09972485 -0.071778834 -0.08233037 0.05804989 0.030624265 -0.113404125 0.027826028 -0.06853534
0.077669345 0.028188324 -0.09882861 0.07158763 -0.07719035 0.04593563 0.08158348 -0.020694278
0.017036173 0.08486837 -0.09012299 0.050130893 0.03577212 0.11023638 -0.06546157 -0.010527059
-0.051919438 0.06638889 -0.01156709 0.031452604 -0.07949587 0.03530482 0.042533044 -0.009888413
0.11027933 -0.08721059 -0.081418455 0.10192009 0.1084505 0.084863834 -0.0109797325 0.010747575
-0.05810923 0.080619976 -0.072626755 -0.102484494 -0.01890233 -0.03987601 0.01224653 0.08417002
-0.029745564 0.07798469 -0.061313417 -0.046613276 0.07208362 -0.05694094 -0.048343755 -0.029606856
0.04919774 -0.038944677 -0.054523554 0.104511805 -0.08617499 -0.09835498 0.09652987 0.11043552
-0.082142726 0.043325927 -0.026180878 0.081163056 0.041787244 -0.009876655 -0.06908329 -0.11224539
-0.02576574 -0.020291632 -0.008137485 0.065270744 -0.033310913 0.092524074 0.058016736 -0.08824132
-0.01966943 0.03306897 -0.021506032 0.0010123147 -0.07686161 -0.090385094 0.030838517 -0.028823921
-0.07754205 -0.018834561 0.018691223 0.07299917 -0.03574738 -0.06846632 0.06889896 -0.033734284
0.09968418 -0.091996185 0.084343694 -0.021452704 0.067804985 0.026903585 -0.0130046215 0.08643937
0.03493847 -0.0056098006 -0.0865945 -0.104149334 -0.07610392 -0.07603328 -0.09275694 -0.021685723
-0.021511601 0.091706365 0.03221949 -0.008225581 0.0077289776 0.0016902132 -0.02139587 -0.08914693
0.048720803 -0.068217225 0.052320775 0.0028045613 -0.05468029 0.043356683 0.032215927 0.039022435
0.0595585 -0.017441781 -0.07332502 0.055531453 -0.060576584 -0.0033526607 0.08360561 -0.01873871
0.02251492 0.095559776 0.052030943 -0.006857226 -0.04461249 -0.11610897 -0.06745156 -0.06299887
0.003286022 -0.03883526 -0.021380445 0.108207315 0.081492715 -0.010859476 -0.08787312 -0.038729854
-0.1064216 -0.09165556 -0.009405521 -0.033869255 0.08069486 0.029850947 -0.027832974 0.10425838
0.06445886 -0.090142466 -0.08459642 0.07475395 -0.007293704 0.07642973 -0.0018319084 0.06483419
-0.10379219 -0.11398707 0.0058936565 -0.06623253 0.08291962 -0.10932505 0.030317742 -0.030836442
0.051930558 0.10029587 -0.07930327 -0.11105123 0.045589197 -0.084520645 -0.11562746 0.04937125
-0.094206065 -0.080456294 0.026701652 -0.04900379 0.05119293 0.087616526 0.016090956 -0.031599905
-0.07161838 -0.029176792 0.05475134 0.028118225 -0.112855524 -0.07787431 0.047637098 -0.11519638
0.07542543 0.027153814 -0.08767039 -0.00097632915 -0.10021602 0.021344028 -0.03595123 -0.06483795
-0.10048168 -0.09823586 -0.054962654 0.07883639 0.015330197 0.055386323 -0.096529804 0.018820394
0.031211874 0.062945776 -0.10374245 0.0799797 -0.03104456 0.07362671 0.06150503 0.06322505
0.025782902 0.0061297487 0.050034754 0.024695225 0.039046694 -0.0027284063 -0.102732144 0.11014835
0.06689506 -0.09161586 -0.11499089 -0.07762179 0.04392925 -0.10363704 -0.083328724 -0.01614517
-0.06811392 -0.061520863 -0.04531021 0.008677001 -0.058824908 0.094353214 -0.11510828 -0.024140626
0.10121794 0.063351534 0.06802005 0.0065092617 0.05789737 0.0082617495 0.06956203 -0.0006158718

bias f4 [16]
00000000: a2d8 e7bd cc91 78bd e0ba 2fbd e884 253d
00000010: 65e1 ce3d 6f2f d73d 0785 d53d 3293 4b3d
00000020: 78f6 b3bd 9fb1 923d 0def 63bd 33dc 6e3d
00000030: 47b0 713d debd 843d e2de 263d 743a 23bd
-0.11320616 -0.060685918 -0.042902827 0.040409952 0.10101584 0.10507094 0.104257636 0.049700923
-0.087872446 0.07162785 -0.0556479 0.058315467 0.059006 0.06481527 0.0407399 -0.039850667

weight f4 [16]
00000000: ac2a 803f ef2f 803f a707 803f de2a 803f
00000010: ffa8 7f3f fd30 803f 74ab 7f3f bd08 803f
00000020: 80bb 7f3f 4ea1 7f3f 1ea5 7f3f 292e 803f
00000030: 782c 803f 341d 803f 6007 803f 1a2e 803f
1.0013022 1.0014628 1.0002335 1.0013082 0.9986724 1.001495 0.9987099 1.0002667
0.9989548 0.99855506 0.99861324 1.0014087 1.0013571 1.0008912 1.0002251 1.0014069

bias f4 [16]
00000000: 1429 84ba c63c be3a c7a8 a93a ef21 d038
00000010: 8b86 ae3a 5c90 c43a 8337 d2b9 996d 6dba
00000020: 2baa beba 9e6a b2ba 6f73 b6ba 77c0 b73a
00000030: 39be ab3a 7fcc 49ba 0e7d 71ba db86 c23a
-0.0010083043 0.0014513962 0.0012943976 9.9245335e-05 0.0013315243 0.0014996636 -0.0004009568 -0.0009057164
-0.0014546564 -0.0013612097 -0.00139199 0.0014019151 0.0013102955 -0.0007698014 -0.0009212055 0.0014841215

running_mean f4 [16]
00000000: 4a4f 42c1 2ae7 7cc1 07ee 8ac2 ecd4 ddc1
00000010: 667f 89c2 4e36 47c1 c4d9 a041 1758 3ec2
00000020: 8926 3c41 8720 81c0 4ef6 1b42 ffd7 91c1
00000030: 7ee7 cfc1 528a 3340 de19 7cc2 3734 1642
-12.144358 -15.806437 -69.4649 -27.728966 -68.748825 -12.450758 20.10633 -47.586025
11.759408 -4.0352206 38.990532 -18.230467 -25.988033 2.8053174 -63.02526 37.55099

running_var f4 [16]
00000000: cdc7 6043 d332 8f43 471a e744 6bea 1344
00000010: bf9e db44 057b 8743 321a 2744 a53a 7f44
00000020: 5033 1644 d9c1 8243 832a 2d44 1c9d e043
00000030: 24a4 d943 9181 9343 a481 f344 7f2b 4d44
224.78047 286.39706 1848.8212 591.6628 1756.9608 270.9611 668.4093 1020.9163
600.80176 261.51443 692.66425 449.22742 435.28235 295.01224 1948.0513 820.6796

weight f4 [32, 32, 3, 3]
00000000: eb3c 843c 4699 673d 0fea 66bc a55c 13bd
00000010: f5a5 643d 8438 00bd 5b2e 6b3d cd85 fcbc
00000020: 5865 e5bc 463c 43bc 4043 01bd 07e7 ec39
00000030: 1116 cd3c b297 37ba c334 0d3d e991 2dbd
00000040: fd44 2fbd 4ff8 823c f11b 183b 64fa c0bc
00000050: 8748 e2bc 0331 573c 641c d13b a571 69bd
00000060: 2b2f 483d bb62 fc3c bb3e 32bb 19b8 173d
00000070: 54b4 343d ccea 06bd 25fc 3ebc 42c3 4abd
00000080: d471 113b 9cd9 4e3d aa65 5bbd 426e 4ebd
00000090: 9c64 50bd 8abd 33bd 0bb8 583c ede4 97bc
000000a0: 0022 3f3d aebe 743c 6f5b b4bb 05d3 213d
000000b0: 096e 4ebc 5f7a a83b e57a 3cbd 3d7f 96bb
000000c0: f64c 2d3d d03f db3c 7321 3fbd abf9 65ba
000000d0: 7482 833c 1523 103d c9df 263d 0ec1 22bd
000000e0: 25b5 3ab9 faa5 53bd 05c4 9dbc 7459 2a3c
000000f0: 38d1 9abb 1926 97bb b9d4 753d 0f09 febb
00000100: fed4 c3bc fdb5 3fbd 5042 95bc 3a38 0ebb
00000110: ec1c 223d 3ec1 e5bc f32b 4bbc c7d5 c2bc
00000120: 2523 483d 3e3b b5bb 6945 2f3c 4c7e 493d
00000130: dd1b c6ba 8934 1a3c 893d 6d3c 6fdc babc
00000140: e1a7 1dbd 0d53 48bd 4c7c 933c d11f 1fbd
00000150: 80ef 213d 7e9f bd3b 38a7 5dbd efc3 9139
00000160: 927b 60bb 8cb8 2ebd 4c4d 19bd 0cf8 953b
00000170: 60d5 163d 615f 18bc 24cf 0a3d 7c50 8e3c
00000180: b213 b3bb c3f4 143d e7e4 67bd 2902 263d
00000190: 6e5d 32bd 41b2 babc cc51 4cbd 9416 643d
000001a0: bdb6 41bd 28d1 693d 43c8 bcba 29d3 b33b
000001b0: 7cd0 6b3d 21e1 393d 5cb5 bd3c 2bdc 0e3c
000001c0: 56f2 71bc b8b2 87ba b98d 95bc 74a6 e03c
000001d0: aef6 ccbc ca99 353d eadb efbc 8e70 e83c
000001e0: d848 e3bc edc7 193d ff1d ff3c 1417 4e3d
000001f0: 1b7e 50bd 0dba b9bc faee d13c 9f29 e1bc
00000200: ed2e 97bc 6cb9 193d e44d 953c c689 5fbd
00000210: f25e d2bb f854 6ebd 1a67 8a3b b589 04bd
00000220: 34a5 2bbc f18d c93c 0062 163d 1b3e 583d
00000230: 3c36 0fbb d3dc 0bbd 1a18 1f3c 5340 69bd
00000240: fa06 60bd 077d 4bbc b82d 27bd 0648 3a3c
00000250: feb8 2f3c 4bb0 2b3c 56a8 09bd adc4 a33b
00000260: 6d7f 523d ff07 853b b012 29bb 54bd 46bd
00000270: 7208 f73b 0ba9 cfbc c0c1 4cbd e467 f0bc
00000280: 8a86 de3c 5d14 8cbc 0c7f 123d bfae a9bb
00000290: eb03 3ebc 9f51 373c 2cc8 13bd 8fd3 e13b
000002a0: a680 8c3c dc4f 2e3d 9462 873c 21e6 29ba
000002b0: 5e3b 3c3d 9f8f 6abd e93a 633d 7641 fcbc
000002c0: b6f9 05bc 2142 36bd 7a1d c43c 7072 4fbd
000002d0: 50d0 35bd c44b 27bd a49d 33bd 8eea 9f3b
000002e0: 8bb0 8d3c 3443 a2bc 7ddd 733d 7b30 573d
000002f0: 098c 5abd a1d4 10bb 538f 21bd c383 5a3c
00000300: 45dd 033b 7120 d23c abf5 20bd 1bb8 723b
00000310: 9409 fabc e321 303c 1941 183c 8ad4 55bd
00000320: a14b 333c ebe3 9abc 2ae0 74bd 86c6 8dbc
00000330: d2a7 173b bca2 6abd 0ab3 62bd 2e9b 013d
00000340: aa95 813a 02cb dd3b 3c96 26bd 9467 3fbd
00000350: d558 973c 257c 2c3d d842 0abb e637 46bc
00000360: 49c3 d13c 5656 023d 3ba1 493d ec54 0dbd
00000370: f889 eebc 72e7 343d c22d a03c 76a9 103c
00000380: f522 80b9 e27b 483d cb76 113d cb89 883c
00000390: 0143 a8bc 4836 3d3c 8041 aabc 2b37 62bd
000003a0: aff8 21bd b7f9 9ebc 1892 74bd c4ed 75bd
000003b0: faf1 1dbd ff0c 96bb 20ea 0f3d 198e 3f3d
000003c0: a268 26bd b8cc 72bd 258a 45bd 4b4d 0b3d
000003d0: c337 8f3a 3525 413d 9c15 38bb 4a56 64bd
000003e0: d75c 27bd a4e9 e93c d603 aabc 9e6e e3bc
000003f0: 56ce 5dbb 8631 7aba 8e79 d7bc 342f d1bb
0.01614233 0.056542657 -0.01409389 -0.035977025 0.05582233 -0.031303898 0.057417255 -0.03082552
-0.028002426 -0.011916226 -0.031558275 0.00045185557 0.025034936 -0.00070035004 0.034474146 -0.04237548
-0.0427904 0.015987543 0.0023210014 -0.023556896 -0.027622474 0.013134244 0.0063815583 -0.056993145
0.048873108 0.030808797 -0.0027198035 0.037040804 0.044117287 -0.032938763 -0.011656796 -0.04950262
0.002219309 0.050500497 -0.05356375 -0.05039812 -0.0508772 -0.04388193 0.013227473 -0.018541778
0.046663284 0.01493804 -0.005504064 0.039507885 -0.012599477 0.005141541 -0.04601564 -0.0045928047
0.042309724 0.026763827 -0.04666276 -0.000877286 0.016053416 0.035189707 0.040740762 -0.039734893
-0.00017805824 -0.05167196 -0.019258508 0.010397304 -0.004724648 -0.004612696 0.06001732 -0.0077525447
-0.023905274 -0.046804417 -0.018220097 -0.0021700994 0.039578363 -0.028046247 -0.012400615 -0.023783578
0.04886164 -0.005530744 0.010697701 0.04919271 -0.0015114505 0.009411939 0.014480003 -0.022810189
-0.03849018 -0.04890733 0.018003605 -0.038848702 0.039535046 0.005786835 -0.05411455 0.00027802537
-0.003425334 -0.042656466 -0.03742723 0.0045766886 0.036824584 -0.009300084 0.03388895 0.017372362
-0.0054649943 0.036366235 -0.056614783 0.040529404 -0.043546133 -0.022790076 -0.049882695 0.055685595
-0.047293413 0.057084233 -0.0014402944 0.0054878187 0.057571873 0.045380715 0.023157768 0.008719484
-0.01476725 -0.0010352945 -0.018256055 0.027423121 -0.02501997 0.044336118 -0.029279668 0.028373983
-0.027744696 0.03754418 0.031142233 0.050314978 -0.050901514 -0.022671724 0.025626648 -0.027485667
-0.018454993 0.037530348 0.018225618 -0.05457475 -0.00642001 -0.0581865 0.0042237164 -0.03235789
-0.010476399 0.024603816 0.036714554 0.052793603 -0.0021852395 -0.03414614 0.009710336 -0.05694611
-0.054694153 -0.012419946 -0.040815085 0.011369711 0.010725258 0.010479043 -0.033607803 0.004997811
0.051391054 0.004059791 -0.0025798492 -0.0485204 0.0075388486 -0.02534916 -0.049989462 -0.029346414
0.027163763 -0.017099554 0.035765693 -0.005178302 -0.011597614 0.011188894 -0.03607957 0.006891675
0.017151188 0.04255663 0.016526498 -0.000648113 0.045955054 -0.057265874 0.055476103 -0.030792933
-0.0081772115 -0.04449666 0.023939837 -0.050646245 -0.044388115 -0.04084374 -0.04385151 0.004880256
0.017296096 -0.019807436 0.0595374 0.05253647 -0.053356204 -0.0022099393 -0.039443325 0.0133370785
0.00201209 0.025650235 -0.039296787 0.0037036005 -0.030522145 0.010750267 0.009292864 -0.052204646
0.010943324 -0.018907508 -0.059784092 -0.017306577 0.00231408 -0.0572841 -0.055346526 0.03164213
0.0009886522 0.006768585 -0.04067062 -0.04672964 0.018474976 0.04211058 -0.002109697 -0.012098288
0.025605815 0.031820618 0.049226027 -0.034504816 -0.029118523 0.044166036 0.019553069 0.008829465
-0.00024440108 0.04894627 0.03551368 0.016667267 -0.020539762 0.011548586 -0.020783186 -0.055228394
-0.039543804 -0.019406183 -0.05970964 -0.060041204 -0.038560845 -0.004579186 0.03513539 0.046766374
-0.04062713 -0.059277266 -0.048227448 0.03400926 0.0010926652 0.047154624 -0.0028089052 -0.055746354
-0.040860023 0.028553791 -0.020753782 -0.027762707 -0.003384491 -0.0009544123 -0.026303079 -0.006383801

bias f4 [32]
00000000: 5414 093d 4728 65bd 7bd1 53bd e7e7 1c3c
00000010: 6161 313c 5aa4 bc3c f86c ef3c a228 033d
00000020: 59a1 023d c879 853c ac1d 0e3d 093c 77bc
00000030: c2e1 3abd d6c0 4e3d 2c26 1e3d 4848 1b3c
00000040: d574 47bc f53d 66bc 5f2b 493d ff4e f0bb
00000050: 48c1 6abd b874 debc 95bf 563d 4641 b13c
00000060: 5196 0cbd 464c a3bb 8fef 0fbd 829a 88bc
00000070: 3d76 2a3d 4bad 603d e480 463d 4d4b bd3c
0.033466652 -0.055946615 -0.051713448 0.009576774 0.01082644 0.023027588 0.029226765 0.032021172
0.031892154 0.016293421 0.034696266 -0.015089997 -0.045625456 0.05047687 0.038610622 0.009477682
-0.012173851 -0.014052858 0.049113628 -0.007333636 -0.057313234 -0.027155265 0.0524288 0.02163757
-0.03432304 -0.0049834577 -0.03514057 -0.016675238 0.041616667 0.054852765 0.048462763 0.023107195

weight f4 [32]
00000000: ba30 803f c7ac 7f3f 3a9e 7f3f 661d 803f
00000010: b921 803f d611 803f 152e 803f 4b9d 7f3f
00000020: db25 803f d033 803f 5e9e 7f3f 392e 803f
00000030: 46a9 7f3f a92f 803f 779c 7f3f 3bc8 7f3f
00000040: 73ab 7f3f 6f2d 803f f0a8 7f3f 4f2d 803f
00000050: 0231 803f 63a4 7f3f 61c6 7f3f fae2 7f3f
00000060: b629 803f 651f 803f 46bb 7f3f 59a3 7f3f
00000070: 96ac 7f3f ea28 803f 0ca2 7f3f c398 7f3f
1.001487 0.9987301 0.9985081 1.0008972 1.0010291 1.0005443 1.0014063 0.99849385
1.0011553 1.0015812 0.99851024 1.0014106 0.99867666 1.0014545 0.9984812 0.999149
0.99870986 1.0013865 0.99867153 1.0013827 1.0014956 0.9986021 0.9991208 0.99955714
1.0012729 1.0009581 0.9989513 0.99858624 0.9987272 1.0012486 0.9985664 0.9984247

bias f4 [32]
00000000: 4714 c63a 1869 b9ba 1e74 b7ba 42a9 35ba
00000010: 965e 903a b994 b43a 1de6 1d39 af78 98ba
00000020: 8bab ac3a 5231 c63a cf5e c2ba 448c b63a
00000030: f420 92ba ac42 b63a 4f78 bfba b75d a8ba
00000040: 4c3a 10ba d580 ed39 f794 87ba fd10 87b9
00000050: ff76 bf3a 38ee a3ba b62a a8b9 509c dab8
00000060: 9c86 b43a f9bf b13a df30 173a 5c5a a9ba
00000070: b547 9eba a971 b23a 7c03 bcba 075e c8ba
0.0015112244 -0.00141457 -0.0013996398 -0.00069298234 0.0011014517 0.0013777233 0.0001505841 -0.0011632646
0.0013173682 0.00151209 -0.001482928 0.00139273 -0.0011148737 0.0013905368 -0.0014607998 -0.0012845312
-0.0005501851 0.0004530015 -0.0010344078 -0.00025761864 0.0014607607 -0.0012506908 -0.0003207528 -0.000104241655
0.0013773027 0.0013561241 0.0005767475 -0.0012920606 -0.0012075814 0.0013614196 -0.00143443 -0.0015286811

running_mean f4 [32]
00000000: 7b41 91be c69f ad3e f884 31bd 6ed3 553e
00000010: 7fe5 c8be d0aa cc3d ee4f 21be 3fd0 c63e
00000020: 1794 873e 4047 553d 7784 23be 2005 babe
00000030: 3e35 a93d 0abf c33c cd89 a63d ccca 823c
00000040: 319f debd 7b1d 113f d0f4 a93b e764 133e
00000050: 7b4c a03d b704 913c 6a45 92bd 48cb 833e
00000060: 5eb0 263e fa65 7a3c f7b0 473e 7a93 0b3e
00000070: e592 8e3e 3dc3 28bc 4f85 10be 8cdd 063e
-0.2837027 0.3391096 -0.0433397 0.20881435 -0.39237592 0.099935174 -0.15753147 0.38830754
0.2648017 0.052069902 -0.159685 -0.36332035 0.08262108 0.023894805 0.08131752 0.015965842
-0.10870207 0.5668561 0.0051866546 0.1439396 0.078270875 0.017702444 -0.07142146 0.2574103
0.16278216 0.015283102 0.195011 0.13630477 0.27846447 -0.010300455 -0.14113353 0.13170451

running_var f4 [32]
00000000: 72e4 af3e efc9 913e 0b8d 8c3e d0d9 6f3e
00000010: 6c65 8a3e 67c5 823e 3224 8d3e d65b 823e
00000020: 229b 7f3e e42a cd3e 44be 983e 6aaa 943e
00000030: 8957 753e b672 903e a5a6 653e c21b 743e
00000040: 8ccc 803e be75 a83e 03b5 663e af98 8c3e
00000050: ebc4 903e e806 5e3e dc18 993e 9545 893e
00000060: 9fd6 993e ecd9 ac3e d378 8c3e fa27 963e
00000070: 9867 ac3e 72a4 8a3e 3bb4 b53e 05b4 793e
0.34353977 0.28474376 0.27451357 0.23422933 0.27030504 0.2554123 0.27566677 0.2546069
0.24961522 0.40071785 0.2983266 0.29036266 0.23959173 0.28212517 0.22426851 0.23838714
0.25156057 0.3290233 0.22529988 0.27460238 0.28275236 0.21682322 0.2990178 0.268109
0.30046555 0.3376001 0.27435932 0.29327375 0.33672786 0.27078587 0.35489067 0.24385078

weight f4 [16, 32, 3, 3]
00000000: 9024 c23c 9aca 47bc 955d 1dbd bd68 363d
00000010: f540 44bd cc00 fe3c 3dac e8bc bf2c 763c
00000020: 2d49 6bbd 7db0 e13c 7db7 ce3c 6000 c0bb
00000030: b180 41bd 9aa3 24bd eaf7 173d 0beb 53bd
00000040: d9fc 20bd d456 503c fe25 853b 59da 8abb
00000050: 9721 a93c 1bc0 2abd 008f 23bd 508a d9ba
00000060: 43fa e9bc 0222 1fbc e5b2 69bd a7d7 203d
00000070: 9b6a eebc 9693 22bd 9c1e 1ebc e933 52bd
00000080: 46d8 6cbd 974f b83c 4410 29bd d1c2 e1bc
00000090: 3753 003d fb22 0a3d e32d 3e3d 183b 10bd
000000a0: bb1b 4b3b 5ded adbc a337 89bc e1a9 2d3d
000000b0: 4fff 283d 332c 9c3c 8edb 85bc a1c2 1dbd
000000c0: 6440 2dbd 3426 533d 6bcc 173d ebbb bf3c
000000d0: 62ec e7bc e6ec ba3c a106 e53c 6603 ef3a
000000e0: 7340 9a3b 78f9 88bc cea1 2bbd e3e1 353b
000000f0: 361f 33bd 7643 48bc 7cef 0cbd abad 8f3c
00000100: cfc3 4bbd dc79 0b3d c142 763c ee38 58bb
00000110: db6b 653d 7a71 d33c 217e 823b f667 1ebd
00000120: e579 383d ea7f febc 45d7 0e3d b169 7bbc
00000130: 0c12 e9bc 0b86 f0bc 19f5 163d bf21 d1bc
00000140: 4e84 653c 762d bd3c 52b5 633b dd09 b83c
00000150: 1cd8 66bd 3d98 0dbd 318e 003d 56d9 133d
00000160: ba52 5cbd 7214 7ebc e4a8 4e3d 861b 653c
00000170: 8f64 9a3c 5326 623d 3110 493d 5c36 6c3d
00000180: 70b6 40bc dc7c 823c 3769 403d f439 713d
00000190: 0e73 333d 073a c83c 1964 823c 592e a33c
000001a0: 5a4c 333b ba4a 60bd c600 27bd f609 e7bb
000001b0: 61f0 113d 4b31 85bc 0b17 8abc 668f bb3c
000001c0: 5ad0 223c c773 463d f026 0a3d 91c4 5bbc
000001d0: 72cf c4bc ba14 cdbb 35a6 093d 8355 863c
000001e0: 1533 a5bc a399 06bc bfb8 20bc 05e4 3cbc
000001f0: 8fa7 1cbd 1752 ebbc e60a 35bb 6538 1a3d
00000200: 2d87 f0bc 59d5 70bd 558b d5bb ed68 99bc
00000210: 6aaf 573d f1b8 5cbc cc75 1ebd 5cc7 2a3c
00000220: fe20 253d 941b 033d 6b3d 023d 8091 67bb
00000230: faea 663d d72f 0ebd 9f75 383d 366b 1cbd
00000240: 17b1 6ebd 00eb 8f3b 539e d6bb 549d 203d
00000250: 8458 abbc 3280 5a3c 6adf eebc bb3f 47bd
00000260: 87fb 46bd bbf9 953c 56b3 06bd ea8e 16bc
00000270: 13ed 0cbd 2299 583c c0ce 0fbd b57a 673d
00000280: a73a 5cbd 3c97 c53c ac35 75bd 643a 7abc
00000290: dc6e 14bd 026e 31bd 64a6 01bb d0ee a8bc
000002a0: 8a63 02bd d1cf 05bc dd90 443c ca6f 6abd
000002b0: dcab e63c 015c e63c 8df4 0bbd 62b4 353d
000002c0: 015b f73b e122 30bd 538a 1e3d d951 93bc
000002d0: 4989 53bd 1c64 32bd 132c 5a3c 93d0 d53c
000002e0: 0e78 333c 9b2a 2cbd ab36 11bd 3c2d 123d
000002f0: c8fe 6abd 22ac 243d 231c df3c b805 53bd
00000300: 573b 363d f3f8 913c d4f9 743c 3767 473d
00000310: 3168 e6bb aaf5 cfbc b05a f1bc 4787 983c
00000320: b70b de3b 15c8 2cbd 0e93 6a3d c889 c2bc
00000330: 0054 b03c 133a 023d af1e ee3c 1375 393d
00000340: 4c18 eabc 67e9 e83a 44f7 373d ff96 143d
00000350: e4c7 6dbd 5f4a 003d 3281 50bd 95cd 60bd
00000360: c4c7 f43c b5e9 a9bb bdbe a33c 1270 37bd
00000370: 3a24 37bd d810 12bd f1e5 9dbc b784 143d
00000380: 2783 d7bc 92e1 98bc a05f 18bd ea43 20bd
00000390: 18f0 0abd b374 8cbb 8a3e 483d bc21 27bc
000003a0: b962 e5bc 4076 67bd a27d 6d3c 8f8c fc3b
000003b0: 4f97 833c 7b30 523d 3cdc 153d 9fe1 ffbb
000003c0: f588 02bd ed43 1e3d e48a 98bc e6c2 5fbd
000003d0: ab62 db3b 3a9b 5fbd 2e69 3fbc fd7a 013d
000003e0: e695 39bd 03a8 683c 98fd 483d 11e0 ff3c
000003f0: bc7d 92bc 751c 843b 7cbf 0abd 62b6 653b
0.023699075 -0.0121943 -0.038419325 0.04453348 -0.04791351 0.03100624 -0.028402442 0.015025317
-0.057442833 0.027549976 0.025233978 -0.0058594197 -0.04724187 -0.040195085 0.037101664 -0.051737826
-0.039303634 0.012716014 0.004063367 -0.004237455 0.0206459 -0.041687112 -0.039931297 -0.0016597006
-0.028561717 -0.009712698 -0.057055373 0.039268162 -0.029103568 -0.03969153 -0.0096508525 -0.051319037
-0.057823442 0.022498889 -0.041275278 -0.027558716 0.03132936 0.033724766 0.04643048 -0.035212606
0.003099187 -0.021231348 -0.016750162 0.042398337 0.041259106 0.019064045 -0.016340043 -0.03851569
-0.042297736 0.051550105 0.037060183 0.023405036 -0.028310958 0.02281804 0.027957262 0.0018235266
0.00470739 -0.016720518 -0.041902356 0.0027753047 -0.043730937 -0.012223115 -0.034408078 0.017538866
-0.049747285 0.03405176 0.015030564 -0.0032992917 0.056011062 0.025810946 0.003982321 -0.038673364
0.045038123 -0.031066854 0.034873266 -0.015345023 -0.028450988 -0.029360792 0.036854837 -0.025528787
0.014008595 0.023092967 0.0034745527 0.02246564 -0.05635844 -0.034569014 0.031385604 0.03609594
-0.05378983 -0.015507804 0.050454035 0.013983613 0.018846778 0.05521233 0.049087707 0.05766903
-0.0117622465 0.015928678 0.04697534 0.05889316 0.043810897 0.024441732 0.01591687 0.019919561
0.0027358741 -0.054758765 -0.040772222 -0.007050748 0.035629634 -0.016258856 -0.01685669 0.022895526
0.00993737 0.048450258 0.03372854 -0.013413564 -0.024024699 -0.0062585743 0.033605773 0.016398197
-0.02016596 -0.008215341 -0.009809672 -0.0115289735 -0.038245734 -0.028725667 -0.0027624904 0.03765144
-0.029361332 -0.058797214 -0.006516854 -0.01872679 0.052657522 -0.013471828 -0.03868656 0.010423508
0.040314667 0.032008722 0.031796854 -0.0035334527 0.056376435 -0.034713592 0.045034047 -0.03818818
-0.058274355 0.004392028 -0.0065496354 0.03921254 -0.020916231 0.013336228 -0.029159267 -0.048644762
-0.04857972 0.018307557 -0.03288587 -0.009189347 -0.03440578 0.013220103 -0.03510928 0.056513507
-0.053766873 0.024119966 -0.05986564 -0.0152727105 -0.036238536 -0.043317802 -0.0019783014 -0.020621687
-0.03183321 -0.008167223 0.011997429 -0.057235517 0.02815812 0.028120043 -0.03416877 0.04436148
0.0075486903 -0.043002013 0.038706135 -0.017983364 -0.051644597 -0.043552503 0.013316172 0.026100433
0.010953916 -0.04203282 -0.035452526 0.03568767 -0.057371885 0.04020322 0.027235096 -0.051519126
0.044490185 0.017818904 0.014952142 0.048682418 -0.0070314636 -0.025385696 -0.029462188 0.018619193
0.006776299 -0.042183 0.05726915 -0.02374734 0.02152443 0.031793665 0.029067365 0.045277666
-0.028576039 0.0017769755 0.044913545 0.036276814 -0.05805196 0.031320926 -0.05090446 -0.05488356
0.029880412 -0.0051853308 0.019988412 -0.044784613 -0.044712283 -0.035660595 -0.019274684 0.03625938
-0.026307655 -0.018662248 -0.03720057 -0.039127268 -0.033920377 -0.0042863726 0.048887767 -0.010200914
-0.028001176 -0.056509256 0.014495285 0.0077071856 0.01606336 0.051315766 0.036586985 -0.0078088786
-0.031868894 0.038638998 -0.018620916 -0.05462923 0.0066951117 -0.054591395 -0.011682792 0.03161143
-0.04530897 0.014200213 0.04906997 0.031234773 -0.01788222 0.0040317127 -0.03387402 0.0035051336

bias f4 [16]
00000000: 5d51 86bc d5dc c9bc 129c 31bd 5fab 05bd
00000010: 9450 8a3c 6c49 be3a fcc7 3b3d e8b4 2f3d
00000020: e650 65bd 0b53 e53c bbe2 d53c c0c4 39bd
00000030: 8ad8 58bd 4ec1 84bb 4ace 6dbc 3b06 31bd
-0.016396219 -0.024641434 -0.04336173 -0.032634135 0.016884126 0.0014517731 0.045845017 0.042897135
-0.055985354 0.0279937 0.02610909 -0.04535365 -0.052940883 -0.004051364 -0.014514515 -0.043218832

weight f4 [16]
00000000: 351e 803f a81f 803f 7532 803f 702c 803f
00000010: 29a4 7f3f 852f 803f f8a5 7f3f 02d9 7f3f
00000020: d131 803f 7522 803f 142a 803f fe9f 7f3f
00000030: 06a8 7f3f 992c 803f 58a8 7f3f f516 803f
1.0009218 1.0009661 1.0015398 1.0013561 0.99859864 1.0014502 0.99862623 0.999405
1.0015203 1.0010515 1.0012841 0.99853504 0.9986576 1.001361 0.9986625 1.0007006

bias f4 [16]
00000000: d039 a63a 8d46 9a3a 620b 4eba 174c c63a
00000010: 2a13 55ba de67 b93a 0dfd b3ba 6647 ceba
00000020: d0df c73a 5d33 c13a bf57 a73a 13d2 b5ba
00000030: 42e2 97ba 835f c23a 93d4 80ba f019 a53a
0.0012682024 0.0011770293 -0.00078599725 0.0015128878 -0.0008128161 0.0014145335 -0.0013732031 -0.0015737831
0.0015249196 0.0014740039 0.0012767239 -0.0013871811 -0.0011587816 0.001482949 -0.0009828977 0.0012596231

running_mean f4 [16]
00000000: bc34 d2bd 5ac6 d0be c598 9abd 5f72 81be
00000010: 77d4 56bd c8d0 403e 4695 dd3d ada3 bdbd
00000020: 5d7c 0dbf 032b b9be 86f1 913e c485 b43e
00000030: 18c3 5a3e f30d a7be a7c5 80bd 868b b6be
-0.102639645 -0.4077633 -0.0754867 -0.2528257 -0.052448716 0.18829644 0.10819487 -0.09259734
-0.5526789 -0.36165628 0.2850458 0.35258305 0.21363485 -0.3262783 -0.06287699 -0.35653323

running_var f4 [16]
00000000: 4552 993e 6339 aa3e f137 9e3e 9cef af3e
00000010: 5d24 8b3e 9083 913e 66e8 883e 3998 a93e
00000020: cf07 b83e c980 e13e 9c6b a53e e861 b93e
00000030: 1549 b13e dbde a63e d33c 803e b9dc 8e3e
0.2994558 0.33246908 0.30902055 0.34362495 0.2717618 0.28420687 0.26739806 0.3312395
0.35943457 0.44043568 0.32308662 0.3620751 0.3462607 0.325919 0.25046405 0.27902773

weight f4 [2, 16, 5, 5]
00000000: 59d9 c53c 7f18 7cbc fe18 2f3c 51d4 dcbc
00000010: aa96 503a efed 25bc 7023 1fbd 8bff c03c
00000020: b078 86bb ab79 12bd 1468 3eba dcac ff3b
00000030: 2ae8 ebbc 4aa5 31bd 5f99 e53a bf38 91bc
00000040: 2a35 363b b14e e23c b6ac bfbc de27 4bbd
00000050: 17fc 063d c49a 4cbd 9702 92bc 4a96 f1bc
00000060: 7633 063d c07a d2bc c1ff 123b 2dc5 fe39
00000070: cddb ed3b 2b16 323d 2a54 9ebc 7690 9abb
00000080: 6a60 8cbc e23d 3a3d 9e1d cc3c 68cc 3abd
00000090: 990b afbc 445e d23c 8ac8 d53c 484d 26bd
000000a0: 36aa ecbc 8c1f f0bc d7e1 0e3d 0a69 17bd
000000b0: 6128 3e3d 46f9 a23c 0a2a 1cbd e670 023d
000000c0: 821f 34bd 5c60 b3bc 30a5 70ba 108e 363d
000000d0: e3ca 163d 015a 16bd 21d4 fb3c 08d9 1a3d
000000e0: daf8 1d3d d749 22bd aa7a adbc 3ff3 ec3c
000000f0: b7d7 073d c7a9 c0bc e56a 3c3d da1e 8fbc
00000100: 4683 8fbc 5154 2ebd b378 93bb 902b 1a3d
00000110: e1a1 103c bf76 7d3c 2a24 dd3b 8c1a b6bb
00000120: b76c d23c c38b 8fbc 4add 3bbd 4110 d23c
00000130: e2b1 92bc 9373 283d 4999 3fbd ff55 11bd
00000140: 8ae6 3a3c 91d5 0dbd ffda af3c e346 d3bb
00000150: 49e7 70bb 86ea 093d 2835 e83b 95da 413c
00000160: 7b2f e5bc 4d55 22bd c1f0 1ebd d6c1 78bc
00000170: 7e0f ebbc ea0e 02bc 1025 f83c 73b7 153d
00000180: 95e2 14bb 761d 883a 3910 023d b672 ecbc
00000190: 6cb3 4f3c 8df8 a63c 5a48 60bc 9d95 49bc
000001a0: f89e 4f3d c008 3ebc c2ca 97bc 6ad1 c63c
000001b0: 83bb 2ebd accc 44bd ccae 33bd 62ab e7bb
000001c0: e2ba 0b3d e084 e7ba d559 e7bc abbf 413d
000001d0: ae56 b0bb ee66 403d 7be5 de3c eebc f4bc
000001e0: 9ccf fbbc a7f2 aebc e6a7 25bd f8a1 5cbc
000001f0: bfea 03bd 5fef 183d 68ba 8abc 68c1 a3bc
00000200: ca6e 78bc 9884 913c c2a5 96bc cb75 483b
00000210: f375 443d 1475 863c cadf 1fbc 3180 083a
00000220: af03 d23c 163d 0dbc b815 0f3d a782 313d
00000230: 2312 3bbc e980 293d 3cf0 933c d4f4 143c
00000240: d30b 08bd f422 023d 6759 65bb 3463 3bbd
00000250: 5411 2bbd b8c5 3abd 44b1 eebc 4477 d03c
00000260: 9d9b d4bb 5396 c3bc 2800 823c ea02 ac3c
00000270: d106 cb3c d927 e2bc a824 fbbc b278 2e3d
00000280: 6a2e 003d 9a95 23bc aca1 b53a 859c 763c
00000290: a63b 16bd 096a 883c 9946 1cbd c6b3 f8bc
000002a0: cb30 9eba d776 dfbc c0d4 c3bc 73d5 3ebc
000002b0: c3b8 5bbc 582b 91bc 4689 0e3d a9c9 d83c
000002c0: 07f3 073c be86 61bc 4689 9abc 240a 423d
000002d0: b687 b83b a49d 81bb 6225 25bd 45af d5bc
000002e0: a705 f93c 55df 25bd f93f f3bc 8a30 123d
000002f0: ca7b 0cbd bb3d 3e3d fc0a 25bd fd1d dabb
00000300: 3902 b23c 5572 0fbd 6ae1 213d 81b2 3b3d
00000310: 6f27 493d 7596 20bd ab7c 0d3d 2bc6 183b
00000320: 8c1d 033c aa30 ff3c dd74 c9bc 515c de3c
00000330: ccff 10bd 9c3c 05bd b018 173d de2d 1cbd
00000340: 032a c6bc fb9b e7bc 19ec cdbb 7e2f 2cbd
00000350: b21d ed3c ffb4 903c d3cd 08bd 1065 a4bb
00000360: 3f76 59bc b1b7 44bd 5e25 4f3c 5d24 0fbb
00000370: 2c9d 90bb c7f9 4fbd de62 c43c dae9 3b3d
00000380: 7c3f abbc 4fc4 cabc fd0c d33c 9bff 2bbd
00000390: c828 343b 607e febc 1d4b 3b3d cabc f83b
000003a0: bf6d 8f3c 74f1 3fbc cc9f b4bc 4a76 80bc
000003b0: f154 053d c398 283c 2f4d 71bc 0ec7 2abd
000003c0: 810e 263d 4efb 273d 140c 04bd 6b75 023d
000003d0: e939 f43c fd7c 07bd 8180 0abd 03d1 0bbd
000003e0: 9205 1d3c 4a77 1ebc 123d 023d 3a54 493d
000003f0: b7b2 2fbd 8d07 be3c d127 333d e289 393d
0.024151491 -0.0153867 0.010687111 -0.02695671 0.0007957021 -0.010127529 -0.038852155 0.023559352
-0.0041037425 -0.035760563 -0.00072634337 0.007802589 -0.028797228 -0.043370523 0.0017517022 -0.017727254
0.0027802684 0.027625414 -0.023397785 -0.049598567 0.032955255 -0.049952284 -0.0178235 -0.029490609
0.03276392 -0.025693297 0.0022430273 0.00048593563 0.0072588683 0.043478172 -0.019327242 -0.004716928
-0.017135818 0.045469172 0.024916466 -0.045605093 -0.021367835 0.025679715 0.026096601 -0.040601045
-0.028889757 -0.029311918 0.034883346 -0.036965407 0.046425227 0.019894253 -0.03812603 0.03184595
-0.04397536 -0.021896534 -0.00091798883 0.044569075 0.03681458 -0.03670693 0.0307408 0.037804633
0.0385674 -0.0396212 -0.021176655 0.028924583 0.033164706 -0.023518456 0.04600038 -0.017470766
-0.01751865 -0.04256088 -0.0045004725 0.0376392 0.008827657 0.015470206 0.006748696 -0.005557364
0.025686605 -0.017522698 -0.045865335 0.025642516 -0.017907087 0.041125845 -0.046777043 -0.035482403
0.011407504 -0.0346275 0.02146673 -0.0064476593 -0.003675895 0.033670925 0.007086415 0.011831899
-0.027976742 -0.03963213 -0.03880382 -0.015182933 -0.02869391 -0.007938126 0.03029111 0.036551904
-0.0022718061 0.0010384757 0.031753752 -0.028863292 0.012677055 0.02038219 -0.013689125 -0.012303737
0.050688714 -0.011598766 -0.0185293 0.024269778 -0.042659294 -0.048046753 -0.04386787 -0.007069991
0.034113772 -0.0017663501 -0.028241077 0.04730193 -0.005381427 0.04697316 0.027209034 -0.029875245
-0.030738644 -0.02135594 -0.040443324 -0.013466351 -0.032206293 0.037337657 -0.016934589 -0.019989684
-0.015163133 0.017763421 -0.018389586 0.0030587788 0.047964048 0.01641325 -0.009757945 0.000520709
0.025636522 -0.008620521 0.034932822 0.04333749 -0.011417898 0.041382704 0.018058889 0.009091575
-0.0332144 0.031771615 -0.0034995915 -0.045748904 -0.041764572 -0.045598716 -0.029137261 0.025447495
-0.006488277 -0.023875391 0.015869215 0.020997483 0.024783524 -0.027606891 -0.030657127 0.042595573
0.031294264 -0.009984398 0.0013857386 0.015051966 -0.03667798 0.016652124 -0.038153265 -0.03035916
-0.0012068985 -0.027278347 -0.023905158 -0.01164757 -0.01341075 -0.017720863 0.034798883 0.026463347
0.008297688 -0.013765035 -0.018864285 0.047372952 0.0056314124 -0.00395556 -0.040318854 -0.026084552
0.030398203 -0.04049619 -0.02969359 0.03569082 -0.034297742 0.04644559 -0.04029368 -0.006656407
0.021729575 -0.035021145 0.039521612 0.04582453 0.049109872 -0.039205987 0.03454272 0.0023311477
0.00800265 0.031151135 -0.024591858 0.02714363 -0.035400197 -0.032528505 0.03688878 -0.03812968
-0.024189955 -0.02827262 -0.0062842485 -0.04203748 0.028944824 0.01766443 -0.033399414 -0.0050169304
-0.013272821 -0.048026744 0.012643186 -0.0021841743 -0.0044132676 -0.050775316 0.023972925 0.045877315
-0.020904295 -0.02475181 0.02576303 -0.04199181 0.0027490128 -0.03106612 0.04572593 0.007590865
0.017508386 -0.011715282 -0.022048853 -0.015681405 0.03255171 0.0102903275 -0.014727875 -0.04169374
0.040541176 0.041011147 -0.03223808 0.03185026 0.02981277 -0.033078182 -0.033813957 -0.034134876
0.009583848 -0.009671995 0.031796522 0.04915259 -0.042895045 0.02319696 0.043739144 0.04529751

bias f4 [2]
00000000: 6096 a8bc 8fea ddbb
-0.020579517 -0.0067723463

weight f4 [2]
00000000: 13b9 7f3f 0da7 7f3f
0.99891776 0.99864274

bias f4 [2]
00000000: d745 ccba d745 cc3a
-0.0015584779 0.0015584779

running_mean f4 [2]
00000000: eb29 5cbe 7664 4a3e
-0.21500365 0.19764885

running_var f4 [2]
00000000: af64 973e b5b1 bf3e
0.29569003 0.37440267
