weights/Boxhill.model.weights.pt (torch, 45103 bytes, 8 tensors)

conv1.weight f4 [16, 3, 3, 3]
00000000: f0da 1b3e a041 fb3d db0e a0bd 0757 dd3d
00000010: 2eb4 3bbe dfcc 93bd d507 41be d430 f5bd
00000020: b13f ae3b b1ce 49bd 534c 8f3d d563 25be
00000030: 4f2d 073e 5617 983c 685e b2bd 31d6 183d
00000040: f8ae 043e c2fd 0dbc 654d d53c 19ed 993c
00000050: 9f3c 493d bebd 0d3e aaea 3abe 3f93 abbd
00000060: 716a a7bd c745 0cbe eede ed3d bb3f 223e
00000070: 1087 e0bd 0e50 04be 64aa 21be acd0 2b3e
00000080: 4655 a8bd 5c51 cbbd 49e2 31be 735f 8abd
00000090: 239f c03c ebe2 09be 951c 71bd f035 f9bd
000000a0: e57e 423e 174f 0d3e 82bc f03d 0e57 af3d
000000b0: 4848 02be c301 353e 0d6c 28bd 31ab eb3c
000000c0: 1009 923d a3f1 663d a929 163e 0148 e1bd
000000d0: dec1 15bd d534 0ebd b76e c43d d2f5 b63d
000000e0: 80ad 323d c9e4 69bb d302 e3bd 1295 bc3d
000000f0: c78b cdbd 20b4 343e 93e7 2a3e fb10 b6bd
00000100: 895e 07be a77a 2bbd f791 0fbe af83 d93d
00000110: 7f98 8ebd 105d cfbd 03c4 1a3e 234f 16be
00000120: 5a40 0fbd b0a7 9fbc 5cda 913c bc0c 6cbc
00000130: 2f04 c53d ea1d c7bd 3efc 733d f97d c63d
00000140: 6e48 d53c e11b 233e 37a0 ae3d 4f15 213c
00000150: b221 6cbc f8a5 f6bd b1bd 41bc 33f6 153e
00000160: 081f 2cbd d9eb 1abe 2f8f f9bb f715 adbc
00000170: 9cb6 0ebe f873 dd3d 93dc aa3d 2e2b a0bd
00000180: 15f1 9fbd 03ca 15bc 9456 c6bd 2923 343e
00000190: ac13 42bd e3e3 173b c535 c2bd 17e4 f73d
000001a0: 9de5 523d 860d eb3b 52fe d3bd 1664 61bc
000001b0: 719e 42bb e6eb acbd 37d5 72bd 6607 e6bd
000001c0: d328 a4bd c1d2 69bc ce0f e0bc c0ce 8fbd
000001d0: 7161 f4bd 9fd0 2f3e 340a 0d3e ee9d 083d
000001e0: 9a48 a23d 3f3d 94bb 8e8b 0d3e 8766 14bd
000001f0: f6c9 2e3e 0efe 2d3d d1f3 71bd b437 c3bd
00000200: 6455 5bbd 9712 743c d27e 113e e6a9 123d
00000210: 24b3 693d e072 d4bb 39d5 17be 531b 463e
00000220: 7f35 0dbe 8b09 19be 19e8 5dbb ac41 1d3e
00000230: 116b d53c 7754 233e c6a4 59bd aefa 0abe
00000240: 06e8 953d 4638 a5bd 5ac5 c93d 665a 983c
00000250: 9710 d73d 63a2 d63d f9b2 e13d 9ce8 883d
00000260: 1768 073d 5337 10be 22f9 dbbd c5e6 e13d
00000270: 8d21 03be bd52 46bc 8e2c 67bd bc93 a2bd
00000280: 13c2 54be 6216 f53d dc08 9f3d a39e 153e
00000290: 4fac 83bd 8b9f 19bc 31cf d53c 14a6 03bd
000002a0: 89c2 40bd 40cf d83d c18e bc3d 824c 1e3e
000002b0: 0ff9 0dbe 9a7d 943d a5a4 263d aa83 1fbe
000002c0: 92a4 dd3d 54b5 3fbe d6da 4bbe 80a7 9e3c
000002d0: 97ca a0bd f619 0f3e c440 b23d 4f2a a6bd
000002e0: c8d4 00be 45e5 aebc ed26 243e 847a a1bd
000002f0: 3285 013e 2916 b0bd 8e63 c93d ca9b 123e
00000300: 8d17 413d ec80 39be 465e 32bd 2f32 423c
00000310: 1710 b3bd 71d7 a43d d96a 22bc 0ecd 5dbc
00000320: f975 c2bd 379a 2c3e b647 073e 43c9 20be
00000330: d55d 843d c0c7 29be efb2 3abe 8a45 1abe
00000340: ce26 0fbe ad3c 8a3c 96d5 09bd 06fc be3d
00000350: 47a5 1cbe 350f bc3d ef44 c13c 1c89 243e
00000360: 414e c83d c9d4 f03d 1d36 b83d 13c9 bebd
00000370: 2ac1 a0bd 4bf0 163e ac38 1bbd d645 6ebd
00000380: 2fc0 2ebd 631d dd3d 10e8 40bd f5d7 3c3e
00000390: db7e 1abb 505b c03d 73c3 533e c924 87bd
000003a0: 2001 dbbd af70 873d 1589 cc3d 5131 233d
000003b0: 1d65 51be 0a69 01be 01da ef3d 7f60 48be
000003c0: 05b1 85bc 0b7a 44bd 3854 53be 19a5 b73d
000003d0: 072e 9f3d 7433 203e fd66 f0bd b7fe ff3d
000003e0: 7224 cd3c d109 233e 36db 183e 198c 173e
000003f0: b57d 163e cb01 2abe a5e3 35be 3f48 b1bd
0.15220237 0.12268376 -0.078153335 0.10807615 -0.18330452 -0.072168104 -0.18850644 -0.11972204
0.005317651 -0.049269382 0.069969796 -0.16151364 0.13200878 0.018565815 -0.08709413 0.037313644
0.1295737 -0.008666458 0.026037881 0.018789815 0.04913008 0.13841912 -0.1825358 -0.08377694
-0.08174599 -0.13698493 0.11614786 0.15844624 -0.10963261 -0.12921163 -0.15787655 0.16778821
-0.082193896 -0.099276274 -0.17371477 -0.06756487 0.023513382 -0.13465469 -0.05886515 -0.12168491
0.18993719 0.13799702 0.11754705 0.08561526 -0.12722886 0.17676453 -0.04111867 0.028768154
0.07130635 0.056382786 0.1466433 -0.11000062 -0.03656184 -0.034718353 0.0959143 0.08933605
0.043622494 -0.0035689345 -0.11084523 0.092081204 -0.10036426 0.17646837 0.16689901 -0.088899575
-0.13219656 -0.041865017 -0.14020525 0.1062082 -0.0696268 -0.10125172 0.15113835 -0.14678626
-0.03497348 -0.01948914 0.017804317 -0.014407333 0.096199386 -0.097225025 0.05956673 0.09691996
0.026035514 0.15928604 0.08526652 0.0098317405 -0.01441233 -0.12043375 -0.011825011 0.14644699
-0.04202178 -0.15129031 -0.007615946 -0.021128638 -0.13936847 0.10813135 0.083428524 -0.07820736
-0.078096546 -0.009142402 -0.09684482 0.17591538 -0.04738204 0.0023176603 -0.09482912 0.121040516
0.051488508 0.007173243 -0.10351242 -0.0137567725 -0.002969649 -0.084434316 -0.05928537 -0.1123188
-0.08015599 -0.014271439 -0.027351286 -0.07021856 -0.11932648 0.17169426 0.13773423 0.03335374
0.07924004 -0.0045239027 0.13822767 -0.03623059 0.1706923 0.042478614 -0.059070412 -0.09532109
-0.05354823 0.01489701 0.14208534 0.03580656 0.057055607 -0.0064834207 -0.14827432 0.19346361
-0.13789938 -0.14945047 -0.0033860265 0.15357083 0.02605203 0.1595019 -0.053135656 -0.13572189
0.073196456 -0.08067374 0.09852095 0.018597793 0.10501211 0.104801916 0.110204645 0.06684992
0.033058252 -0.14083605 -0.10740878 0.11030344 -0.12805767 -0.012104687 -0.056438975 -0.07938334
-0.20777158 0.1196716 0.07765362 0.14611296 -0.0642935 -0.009376417 0.026099773 -0.032140806
-0.047060523 0.10586405 0.09206916 0.15458873 -0.1386454 0.07250519 0.04068436 -0.1557757
0.10822405 -0.18721515 -0.19907698 0.01936698 -0.07851141 0.13974747 0.08703759 -0.081135385
-0.1258117 -0.021349559 0.16030474 -0.07884696 0.12648466 -0.08597977 0.09833442 0.14317241
0.0471416 -0.18115586 -0.043546937 0.011852785 -0.08743303 0.08048905 -0.00991317 -0.013537658
-0.09495158 0.16855703 0.1321095 -0.15701775 0.064632095 -0.16580105 -0.1823232 -0.1506559
-0.13979647 0.016874636 -0.033650957 0.093254134 -0.15297423 0.09182588 0.02359244 0.16067928
0.09780551 0.117593355 0.08994696 -0.093156956 -0.07849343 0.14740102 -0.037895843 -0.05817207
-0.04266375 0.10796621 -0.047096312 0.18441756 -0.0023574147 0.093924165 0.20680027 -0.06598813
-0.10693574 0.066132896 0.09987084 0.039841954 -0.20448728 -0.12637725 0.11711503 -0.1956806
-0.016319761 -0.04796795 -0.20637596 0.08967037 0.07772451 0.15644628 -0.117383935 0.12499755
0.025041793 0.15921713 0.14927372 0.14799537 0.14696391 -0.16602246 -0.17762621 -0.08656358

conv1.bias f4 [16]
00000000: eba6 803d 3d92 f43d 37f8 f73d fa40 0f3e
00000010: 6796 853d d07c c03d 825a 783d ec5f 9d3d
00000020: 846b a13d 3684 02be 4399 5c3d 6ddb 9dbd
00000030: 97b1 63bd 5642 833d 70e0 d4bb c64d f33d
0.06281837 0.11941955 0.1210789 0.1398963 0.065228276 0.09398806 0.06063319 0.07684311
0.07881835 -0.12745747 0.0538571 -0.07707868 -0.055589285 0.06409137 -0.0064964816 0.118800685

conv2.weight f4 [32, 16, 3, 3]
00000000: 4cbc cabc 44f4 95bd ea1a 073c 69b6 d5bc
00000010: bdb7 97bd c614 19bd 1314 69bd f529 80bd
00000020: 8f04 033d 4224 5bbd e827 9ebd 9965 83bd
00000030: be8b c63b 97e0 34bd 0cce 2fbd 55e9 7ebd
00000040: b97b 733c 0c0f ba3b ed48 60bd c922 2ebd
00000050: e1ea 633d 526f fd3c 778e 023d 3d7f 4ebc
00000060: 405c 663d a476 8f3d ba2d da3c a05b 793c
00000070: ec0c 8e3d 7993 00bd 81f7 50bd 17f5 353d
00000080: d980 323a 76e4 933d b8ec 043b 88bc 96bb
00000090: 3487 72bd f3dd be3c fdaf 933c cfa9 183d
000000a0: d09e 9d3d b83e 1a3d 76f0 2a3d 9892 49bd
000000b0: 0834 8c3d 177c 913d aa13 56bc 229c 363b
000000c0: 33ad 883d 67ee 2ebd 727f 16bc 1aa7 acbc
000000d0: b844 6ebd dab7 083d d4bd 0dbd a46f 43bb
000000e0: a850 a6bd 2260 ca3c b2bb 88bd 974a e43b
000000f0: 6aeb 963d 0548 9fbd bc79 b6bc a48d f53c
00000100: 14dc 8abd c21b 873d 3751 9e3c 5358 b5bc
00000110: 24d7 7fbc d1b2 763d cc06 9bbc 06de e3bb
00000120: 332b 62bd 307c 313d 1894 25bc 9c94 483d
00000130: 8963 92bd 335d dc3c 85f1 84bd f62a 65bd
00000140: 7513 11bd c35b e43c d581 93bc 8fe1 0fbd
00000150: 804e 6cbc 77c4 8cbd abcc 37bd 903d b63c
00000160: 17f6 173d 433b 47bd 3937 fa3b 422c 6bbc
00000170: 6811 2c3c 725b 32bd c879 1e39 3b54 64bd
00000180: b52e a0bd 3acd f73c b949 5fbc c64c 84bc
00000190: 9e61 84bd e528 2bbd bda5 133c 3c7c 13bd
000001a0: 80b4 e2bc cc5f fbbc 628a 79bd 0147 d73b
000001b0: 2711 24bd dce4 29bd 49b6 31bd 015d ec3c
000001c0: 9288 8abc 089a 35bd 8206 89bd ec53 8ebc
000001d0: 6ced 933b 4b8d 70bb 8aa7 bc3c 4df9 803d
000001e0: 6d16 9ebc 2bfd 8fbd 16b8 9b3d f5e9 253a
000001f0: dc3f 843d 0fa2 9fbd 4acf 243d 4c3c 2c3d
00000200: 3c10 163d 3056 c33c b04d 9b3d 7203 8d3d
00000210: 3856 92bd 2aec 9e3d 7c24 39bd ae37 5a3d
00000220: b124 9bbd c8aa 23bd 6054 d6bc 4a92 88bd
00000230: d870 3bbc c878 a3bd 4f52 94bd 968e 8e3d
00000240: c709 833d b2d2 42bc 5cf6 66bd 884a 813c
00000250: 1de0 2e3d 0e4d a039 d09d eebc 52f0 913d
00000260: 151f 763c bbb5 4bbd c81b 693d 0098 9a3d
00000270: 03bb b73c 22ed 213b 376f db3c 7df8 7c3d
00000280: 3b07 a43d 98b4 483c f930 28bd 1257 403d
00000290: b945 123d d98a 7b3d 0adc 033d bb8c 8abd
000002a0: 7159 863d b8da c3bc fb37 3fbd abe1 783d
000002b0: 0e9d b6bc 778d 72bc ed0d a5bd 7169 69bd
000002c0: 17de 12bd e464 25bd 5f77 e83c 2129 c5bc
000002d0: 4676 9bbb 0343 75bd aa3c 6e3d 4aa4 a2bd
000002e0: 5364 79bb 0dd0 413d 9077 9d3d 1151 edba
000002f0: df99 a53c 2cb2 14bd e4bd 593d aadf 90bd
00000300: 374f efbb 714d a1bd 39d2 843c 9fea b7bc
00000310: 7905 ce3b 2022 903d c176 493d 8f57 973d
00000320: 8929 a73d 269a d1bc 8c53 273d c9cf 71bd
00000330: 11c9 803d 75b2 6f3d dc20 e93a 3134 33bd
00000340: 5967 7e3d 99ed 82bd 2dc0 a5bd 3a81 ca3c
00000350: 358e 54bb a8f9 a43c 88c7 ad3c f8e3 fd3b
00000360: 1a73 dcbb 4d35 44bd acd4 ca3c bf12 6abc
00000370: fc5b 3f3d eb34 0d3d e796 86bc 694a 733d
00000380: fb13 00bc bf8e 40bd 5800 e63c c339 86bc
00000390: 0ca1 983d 563a 903d a3b0 c2bb 8d77 6a3c
000003a0: 29da a0bc 12d3 c73c 4414 853d 3835 a3bd
000003b0: 50bf 37bd 6c6d a33d 9808 70bc 967b 4ebd
000003c0: e93d 8ebb 4298 9c3d acb9 1cbd 46fe 97bd
000003d0: 01bd 4dbd 7540 8a3d 729a a1bc f686 273c
000003e0: 52d2 973d c242 823d b9be 683d 9dd1 3cbd
000003f0: a1b9 8a3d ca76 7e3c 70b6 9fbd b92f 78bd
-0.02474799 -0.073219806 0.008246163 -0.026087957 -0.07408092 -0.037373327 -0.05690391 -0.06258003
0.03198677 -0.053501375 -0.07722455 -0.064158626 0.006059139 -0.044159498 -0.04292111 -0.06223424
0.014861041 0.0056780633 -0.054757047 -0.042513642 0.05564392 0.03093687 0.031874146 -0.012603578
0.05624032 0.07005051 0.026633132 0.015219599 0.069360584 -0.03139064 -0.051017288 0.04442319
0.0006809361 0.0722131 0.0020282697 -0.0046001114 -0.05921097 0.023299193 0.018028254 0.037271317
0.07696307 0.03765747 0.041733228 -0.04921207 0.06845862 0.071037464 -0.013066212 0.0027864059
0.0667366 -0.042707827 -0.009185659 -0.021075774 -0.058171004 0.03337846 -0.034604862 -0.0029821182
-0.08120853 0.024704043 -0.06676425 0.0069668996 0.073691204 -0.077774085 -0.022274844 0.029974766
-0.06780258 0.06597091 0.019325836 -0.022136843 -0.015615258 0.060229126 -0.01892414 -0.0069539575
-0.05521698 0.043331325 -0.010106109 0.04896985 -0.07147891 0.02689991 -0.06491379 -0.055949174
-0.035418946 0.027875787 -0.018006245 -0.03512722 -0.014423013 -0.0687341 -0.04487292 0.022246152
0.037099924 -0.0486405 0.0076359776 -0.014353814 0.010502197 -0.04354424 0.00015113421 -0.05574439
-0.07821409 0.030249227 -0.013628417 -0.01614989 -0.064639315 -0.041787047 0.009011683 -0.03600715
-0.02767396 -0.030685328 -0.060922988 0.0065697436 -0.04005542 -0.041478023 -0.04338673 0.028852941
-0.016910825 -0.04433635 -0.066906944 -0.017374001 0.004514387 -0.003670531 0.023029108 0.0629755
-0.019297803 -0.0703071 0.07603471 0.0006329113 0.06457493 -0.07794582 0.04023675 0.04204969
0.036636576 0.023844808 0.07583177 0.06885423 -0.07145351 0.077598885 -0.04520081 0.053275757
-0.07575358 -0.03995779 -0.02616328 -0.066685274 -0.011440478 -0.079820216 -0.072422616 0.0696079
0.06398349 -0.011891054 -0.05638729 0.01578261 0.0426942 0.00030574988 -0.029127985 0.071259156
0.015022059 -0.04973386 0.05691126 0.07548523 0.022428041 0.0024707993 0.02678643 0.061760414
0.080091916 0.012250088 -0.04106233 0.046958037 0.035711024 0.061411712 0.032192267 -0.067651235
0.06560028 -0.023908004 -0.046684247 0.06076209 -0.022291686 -0.014804236 -0.08059297 -0.056985322
-0.035856333 -0.04037942 0.028377233 -0.024067463 -0.004744324 -0.05987836 0.058163323 -0.07941492
-0.0038054183 0.047317553 0.0768882 -0.0018105825 0.020214973 -0.03630273 0.05315961 -0.070739105
-0.0073031443 -0.07876099 0.016213523 -0.022450743 0.0062872735 0.07037759 0.04918552 0.07389747
0.08162219 -0.025586199 0.04085116 -0.05903605 0.062883504 0.0585198 0.0017786282 -0.043750945
0.06211028 -0.063929744 -0.08093295 0.024719823 -0.0032433395 0.020138577 0.021213308 0.0077481233
-0.0067275884 -0.047902394 0.024759613 -0.014286696 0.046718583 0.034474295 -0.016429378 0.059397135
-0.007817264 -0.047011133 0.028076336 -0.016384965 0.07452592 0.07042377 -0.005941467 0.01431073
-0.019635277 0.024392638 0.06498006 -0.07969135 -0.044860184 0.07979855 -0.014650486 -0.05041083
-0.0043408764 0.076462284 -0.038263008 -0.07421546 -0.050229076 0.067505755 -0.019726966 0.010225048
0.07413162 0.06360389 0.056822512 -0.04609834 0.06773687 0.015531251 -0.07798469 -0.060592387

conv2.bias f4 [32]
00000000: febf 84bd f893 75bd 0b79 953d a04b 84bd
00000010: fde6 8f3c d523 e03c 968c 01bc ff85 3a3d
00000020: e932 a83d 04a5 04bd f8c4 5a3d 5511 9bbd
00000030: 75ea 753d 4a72 74bd 6ec6 d9bc 272e 773d
00000040: 2750 98bd b563 a93d ecd6 79bd 804c 4b3d
00000050: 9946 6c3d 7e8e dabb b506 a23c 2829 953d
00000060: eccd 093d 54ef 0fbc 02b8 303d b706 be3c
00000070: 9195 90bd c1c0 38bd bc1b 1c3d f5ee abbc
-0.06481932 -0.059955567 0.07298478 -0.06459737 0.017566198 0.027360836 -0.007907053 0.045537945
0.08212835 -0.032383934 0.0534105 -0.07571665 0.06003805 -0.059679307 -0.026583876 0.06034675
-0.07437163 0.08270971 -0.06099598 0.049633503 0.057684515 -0.0066698184 0.019778589 0.072832406
0.033643648 -0.008785088 0.043144234 0.023196561 -0.070597775 -0.0451057 0.038112387 -0.020987967

conv3.weight f4 [16, 32, 3, 3]
00000000: 5a3a ae3b b511 09bc 9bc4 59bc 0918 d53c
00000010: c03e 29ba 81f5 0fbd 348c de3c bbce 39bc
00000020: f15c a63c 2575 d63a 9b37 46bd 9cd0 b3bc
00000030: 5792 81bd c775 efbb e66f 0c3d 1c19 10bc
00000040: c6de 36bd ee4e 903c 1579 67bd 5d3f 043d
00000050: 3e00 4abd 7d89 f83c 1c69 5b3c aa13 f63c
00000060: a1ce 44bd b0ea 5e3c c8cc 0a3d 3d29 293d
00000070: a2cc bdbc c574 d13c da69 7e3c 8455 57bc
00000080: 3c26 1cbd 035f 103d 5f71 993a 2abe 843b
00000090: 80b1 7a3d 9487 ff3b 5e94 013d 9476 603d
000000a0: c797 58bd fa10 81bb 9d90 503d 407e 723d
000000b0: 96bc 32bd 8837 213d 6f26 ef3c 212a b73c
000000c0: df7f 293d 5f38 4cbd 306e 963c e1cd 043d
000000d0: f916 bab9 4b3c 4b3c ad2f d3bc 0053 0f3b
000000e0: 9771 043d ddd6 d13c b009 213c 3436 073d
000000f0: b5dd 463d 117b 6f3d d4a2 0ebd c864 92bc
00000100: 9c33 453d ea66 233c 8729 9cbc a5bc 43bd
00000110: e347 223d 81e4 65bc 279e 26bd e7fc 54bd
00000120: ed33 17bc 43af 86bc bfc9 763a 91b5 243d
00000130: b561 adbc 99ea 2dbc 16a3 0abb 5cd3 543d
00000140: 74f7 913c 30d9 0e3a bb1d d53c 21f8 963b
00000150: 7031 003d f74f 43bd d9a1 1abd 4c53 14bd
00000160: 8863 0abd 6cb6 1d3d 9226 133d 5284 5d3d
00000170: 11c7 533c bba0 e73c ee91 3ebd b850 6abc
00000180: 020c 743c ea99 0f3b af34 9f3c f17a 17bd
00000190: 94d8 56bc b3ae f7bc 792f 6abd 0085 f83a
000001a0: 3948 40bd e72b 33bd 7919 b2bb f5ae 95bc
000001b0: 195d 74bc e757 2c3d 8048 423b 3c95 55bd
000001c0: 7dc3 4c3b 9d0a 073d cf70 08bd c9dc 26bd
000001d0: 6d72 353d 0f2e bd3c 4d35 2d3d 8070 e13c
000001e0: 9b01 15bd 4ee1 03bd 0554 b5bc d43e 2a3c
000001f0: 8d43 223c be24 7abc c705 4d3c c3bb 2fbc
00000200: 0075 3bbb 8b44 82bd 7860 0dbb 7033 c03c
00000210: fcfc c0bb 353c 8d3b acc7 f53b e58e 43bd
00000220: 064d 533c cb89 36bd 0361 3fbd 5ca0 13bd
00000230: b25f beba e78e b93c 6d0b 8fbd b9b2 afbb
00000240: efa3 973d d5b0 1dbd b828 33bd 39c6 34bc
00000250: 204c c1bc aa05 283c 6414 c7bb e8f2 4dbd
00000260: 4014 863c 5c77 ef3b 6210 47bc 53b0 093d
00000270: 06c4 003d a2db 5ebd b287 5b3d f5bf ecbc
00000280: b4bf e23b 3244 8c3c 4fba 1a3d 13a6 303d
00000290: 4077 42bd 1553 0abd c3f8 973a 589a 613d
000002a0: 0601 6abd a629 ea3c f0a1 3a3d ad57 103d
000002b0: 7440 7e3d 4921 8e3c b556 163d 90e0 f53c
000002c0: ac11 f63c 4b4d 433d 1cb4 56bd eec1 5cbc
000002d0: 07cd 233d ad60 de3c bf7c 12bd 31f9 633d
000002e0: 0c20 3ebd fb4b 2e3d 3dd8 abba 3a5f e3bc
000002f0: 8b41 61bb 4e75 55bc 3316 9cbc f568 113d
00000300: d73f bdbc 3625 c8bc 0de6 c1bc 7148 4e3c
00000310: 67b3 1bbd fed5 67bd 678e 003c 6bd0 733d
00000320: facc 073d c518 b7bc d4cf ce3c a3c5 11bd
00000330: f33d 90bc 575a 203b 8d14 543d a751 84ba
00000340: de52 a53c 1818 8e3a d026 983d c2fe 253d
00000350: e43c 3dbc fc10 2f3d 0607 403d 1b49 9b3c
00000360: ddb0 36bc 951f 963b fdf0 fc3b 36e5 73bc
00000370: 1f2f b73c 02b8 d4bc 7705 373c 6b6f d139
00000380: 2e5b 06bc 6013 863c 6256 7b3c 4ce1 053d
00000390: 0907 6dbd a399 debc 65b4 82bc d3aa 1f3d
000003a0: f644 0f3c 1116 233d 198e 123d 0033 1cbd
000003b0: db2c 4a3d ab93 dcbc 27ed e43c 6d51 94bb
000003c0: 1ae0 bf3b 8619 3bbd 1498 dbbb e7c4 973c
000003d0: a44c e4bc c311 973a 0e5d d13c 893d fd3c
000003e0: 5a69 473b bf05 cd3c 7884 06bd 6cd0 2b3d
000003f0: a43b 13bb d154 433c e4c1 ac3b 2b56 823d
0.0053170146 -0.008366038 -0.013291503 0.026012437 -0.0006456189 -0.03514624 0.027166463 -0.011340792
0.02030799 0.0016361816 -0.048392873 -0.021950059 -0.0632674 -0.0073077413 0.034286402 -0.008795049
-0.044646047 0.017615762 -0.056511957 0.03228699 -0.049316637 0.030338997 0.013391759 0.030038673
-0.04804862 0.013605759 0.0338867 0.041299094 -0.023168866 0.025568375 0.015528167 -0.013142947
-0.0381224 0.03524686 0.0011706761 0.0040509896 0.061204433 0.0077981446 0.031635635 0.054800585
-0.05287912 -0.0039387913 0.050919164 0.059202433 -0.04363688 0.0393596 0.029193131 0.022358956
0.041381713 -0.049858447 0.018363088 0.032422904 -0.000354938 0.012404512 -0.02577957 0.002186954
0.03233489 0.02561515 0.00982897 0.033010677 0.04855128 0.058466975 -0.034823254 -0.017870322
0.04814492 0.009973267 -0.01906277 -0.047787327 0.039619338 -0.01403153 -0.04067817 -0.051999
-0.009228689 -0.016440993 0.0009414218 0.040212218 -0.021164754 -0.0106150145 -0.0021154336 0.05195938
0.01781819 0.00054492336 0.026015153 0.004607216 0.031297147 -0.047683682 -0.037752006 -0.03621225
-0.033786327 0.03850405 0.035925455 0.05408127 0.012925879 0.028274884 -0.04652589 -0.014301471
0.014895441 0.0021911808 0.019434301 -0.03698248 -0.01311316 -0.03023467 -0.05717418 0.0018960536
-0.046943877 -0.04374304 -0.0054351655 -0.018271903 -0.014914774 0.042076018 0.0029645264 -0.052144274
0.003124445 0.032969106 -0.033310708 -0.0407379 0.044298578 0.023093252 0.04228716 0.027519464
-0.036378484 -0.03219729 -0.02213479 0.010390956 0.009903801 -0.015267549 0.012513584 -0.010725918
-0.0028603673 -0.0636073 -0.0021572392 0.023462027 -0.005889533 0.0043101558 0.0075006094 -0.047743697
0.012896782 -0.044565003 -0.046723377 -0.036041602 -0.0014524369 0.022651149 -0.06984601 -0.0053618816
0.07404315 -0.03849872 -0.043740004 -0.011033588 -0.02359587 0.010255257 -0.006075429 -0.05028048
0.016367078 0.00730793 -0.012149902 0.03361542 0.031436943 -0.054408677 0.053596206 -0.028900126
0.0069198254 0.017122362 0.037775334 0.04312713 -0.047477007 -0.03377064 0.0011594523 0.055078834
-0.057129882 0.028584313 0.045564592 0.035239864 0.062073186 0.017349856 0.036703784 0.030014306
0.030037723 0.047681134 -0.05241786 -0.013473971 0.03999045 0.027145708 -0.0357635 0.05565757
-0.04641728 0.04255293 -0.0013110709 -0.027755369 -0.0034371342 -0.013028456 -0.019053554 0.035500485
-0.02310173 -0.024431806 -0.023669267 0.012590514 -0.03801289 -0.056600563 0.007846451 0.059524935
0.033154465 -0.022350678 0.025245585 -0.03558887 -0.017607665 0.002446791 0.05177741 -0.0010095135
0.020181116 0.0010840921 0.07429278 0.04052616 -0.011550162 0.042740807 0.046881698 0.018955758
-0.011150566 0.0045814016 0.0077191577 -0.014886191 0.022361336 -0.025966648 0.0111707365 0.000399466
-0.00820045 0.01636666 0.0153404195 0.032685563 -0.057868037 -0.02717287 -0.01595516 0.03898127
0.008744469 0.039815966 0.035780046 -0.038134575 0.049359184 -0.026925882 0.027945114 -0.0045263083
0.0058555724 -0.045678638 -0.0067014787 0.018526508 -0.027868576 0.0011525679 0.025557067 0.030913131
0.0030427785 0.025027154 -0.032841176 0.041946813 -0.0022465969 0.011922077 0.005272137 0.063640915

conv3.bias f4 [16]
00000000: 8a66 0dbb bc82 03bd 8361 963b ea06 26bc
00000010: e6ac a33d fb61 cf3c c510 d93c 1616 a5bc
00000020: a654 f3bc 1880 5bbd 4133 5a3c 731d 85bd
00000030: 2001 0fbd 9a10 263c d961 5bbd a2ec 2fbd
-0.002157601 -0.0321071 0.004589261 -0.010133484 0.07991962 0.025315275 0.026497254 -0.020152133
-0.02970345 -0.053588957 0.013317884 -0.064997576 -0.034913182 0.010135794 -0.05356011 -0.04295028

conv4.weight f4 [2, 16, 5, 5]
00000000: 847d 84bc c9cd 0abd 0eaf cfbc f05f d33c
00000010: 9978 51bd 3651 08bd bbb8 e7bc 5e07 ff3c
00000020: 365c 9ebc c9ff 2fbc a1fa ecbc 5978 a43c
00000030: 1aa2 efbc a0c3 263c d765 0c3d 183c 53bd
00000040: 9a02 bdbc 0b57 06bd 7e03 65bb a8aa 2cbd
00000050: 8b1b 533c 0ddd ccbc 22c2 253d 2788 5c3c
00000060: e170 b5bb b19e 17bc 8946 82bc 6d48 ea3c
00000070: da0d f63c 9f11 153d 01ad 003d 77ff 87bc
00000080: 05a5 0d3c eaae 823c e8fc 1c3d 1a0b 69bc
00000090: fc35 febc b411 193c 6da7 993c 62b4 cfbc
000000a0: 3989 ee3c 2be2 a3bc e28f 16bd 7235 2dbd
000000b0: a522 f9bc f423 373d f849 553b 84f6 2a3d
000000c0: 1d3f a93a 553b 103d 2da9 bb3a 7a73 503d
000000d0: d0f8 1a3b 5fde 24bc c69b b5bc 9747 8abc
000000e0: 338a 98bc 9617 b03c 80a6 353d 74f1 0d3d
000000f0: 95f5 0abb ff92 b33c e15f 0c3d 1982 183d
00000100: 45b2 a5bc 9418 4e3c 8c2e 8abb cb7d 84bc
00000110: e73e 3fbc 6456 d23b 0a72 2e3c d543 123d
00000120: 0695 d3bc 9bc7 393c 7de0 53bc cad7 0dbb
00000130: a5bd b8bc 6e7b 123c fed6 b63c faa9 203d
00000140: 6b18 43bd 9ea6 c03c ae9b f4bc 65d9 9f3c
00000150: 3dbb 2e3d efdd 01bd 48ea 183b 4630 8abc
00000160: 7623 37bb 8633 e6b9 7842 143d a8c4 35bc
00000170: 8b95 e7bc 7f87 3a3d ee6e 343b b493 733c
00000180: 748e 3ebc fa4c 15bc deec 3fbd 23ed 363c
00000190: 0cc3 17bc 0d9c 813c c5e1 5f3d e9a4 7b3c
000001a0: 3baa 323d 38cb 493d 3080 f5bc acf7 04bd
000001b0: 9a81 383d e349 933c ae63 5f3d 7e53 773c
000001c0: beb1 193d 69fc 45bb 683c 213d c4ed a5bb
000001d0: d250 223d 8685 2b3c 4663 0abd 8d73 afbc
000001e0: d647 fb3c 7141 bc3b 125e 0dbb ace0 a73b
000001f0: 031d ab3a 5ddc 413d 8285 11bd 8ac6 f1bc
00000200: ccef 0abd 8a19 44bd cb98 c33b 70cd e73c
00000210: bc05 8ebb 65e6 c3bb 03ff 913c d700 11bc
00000220: d07e abbc 111c f13b bf3d e73a 96b3 fd3c
00000230: 92ad ce3c b4ae 17bc 5b61 0dbd 303d aebc
00000240: e3cd 433c f431 633c 4a02 17bd 4a20 36bd
00000250: 7bb8 c63c b0e6 453d 0c2a ecb9 ed69 d4bc
00000260: 0df7 2abd 90a9 1f3d 2327 13bd 0647 223d
00000270: 902c 273d 6c60 23bd 5d9d e3bc c209 58bc
00000280: f89c 243d edf0 48bd 683a 32bd 519f 2bbd
00000290: a337 80bc 336e 0dbc efb8 4a3c 9efe b03c
000002a0: 41e5 97bc 60dc fc3c 49f8 d2bc 99c8 e1bb
000002b0: 5e42 cd3c 2e2d e2bc d481 6fbd 3988 86bd
000002c0: 996c f43b 6527 dabb a78b d9bc a28d dbbc
000002d0: c4e5 783b 13eb 3fbb 140e 6fbc 101a a1bc
000002e0: 6a4f db3b 0f6b 58bd e04c 50bc 99d8 0b3d
000002f0: 0601 cfbc 6077 eebc 945a 2dbd aba8 f23c
00000300: 69bb ae3c 0d3a 30bc fc8a e6b9 afc5 14bd
00000310: 5bdf 04bd 96e8 80bd 2508 a53b 7a09 a0bc
00000320: 8de6 c43c 9989 a2bb 4528 3fbd 857b 0abd
00000330: 92b4 25bd 03dd 253d dd52 12bc 0df5 993c
00000340: 8c58 163d 9cb2 1dbd f8d8 1b3d 0f1c 343d
00000350: 556b 1b3c 83f0 d5bb fc45 c13c 6aaa c2bc
00000360: dd8a 263d 8be9 41bd 6bf1 2bbd b3c9 e33c
00000370: 0aa9 38bc c00d 11bd 6cfd f1bc bbce 243b
00000380: bb5d a13c f673 dfbb fc07 26ba 4542 413d
00000390: 41d6 033d d777 a23c c181 423d 52f1 113c
000003a0: 0199 003c de4d abbc 55ff d73c 1c7a 033d
000003b0: 1e09 463d ed5a 2a3c 3f80 9e3b 3441 f6bc
000003c0: 6a98 9cbc 7391 4bbb 05b8 3c3d 364a e3bc
000003d0: c96e 3a3d 6cfb a4bc b30e 223c 8353 233d
000003e0: 031d 0ebd e449 31bd 25f5 1abc 29de 0abd
000003f0: c12e 7ebc 960f f9bb 7492 403c b359 23bd
-0.016173132 -0.03388766 -0.025352027 0.025802583 -0.0511404 -0.033280574 -0.028286329 0.031131443
-0.019331079 -0.010742136 -0.028928103 0.020076917 -0.0292521 0.010178477 0.03427681 -0.05157098
-0.02307253 -0.032797854 -0.0034944708 -0.042154938 0.012884985 -0.025007749 0.040468343 0.013460196
-0.005537138 -0.009254144 -0.015902774 0.028598988 0.030035902 0.036393758 0.03141499 -0.016601307
0.008645301 0.015952546 0.038327128 -0.014223838 -0.031031601 0.0093426 0.018756593 -0.025354568
0.029118167 -0.020005306 -0.03675831 -0.042287298 -0.030412028 0.044712022 0.003254531 0.041739002
0.0012912486 0.035212833 0.0014317386 0.050891377 0.002364684 -0.010062783 -0.022169005 -0.01687984
-0.018620586 0.021495622 0.04434824 0.034654096 -0.0021203507 0.02192068 0.034271125 0.037233446
-0.020226607 0.012579102 -0.0042169746 -0.016173264 -0.011672712 0.00641899 0.010647306 0.03570922
-0.025827896 0.011339094 -0.01293194 -0.0021643513 -0.022551367 0.008940561 0.022319313 0.039224602
-0.04763071 0.02351695 -0.02985939 0.019512841 0.042659033 -0.031705793 0.0023333002 -0.016868722
-0.002794472 -0.00043907407 0.036196202 -0.01109425 -0.02826955 0.045539375 0.002753194 0.014866758
-0.011630643 -0.009112591 -0.046856754 0.011164936 -0.009262811 0.015821481 0.05465867 0.015359142
0.043619376 0.04926607 -0.029968351 -0.03246276 0.045045473 0.017979568 0.05453842 0.01509559
0.037523024 -0.0030210263 0.03936425 -0.0050637443 0.039627858 0.010468846 -0.03378608 -0.021417404
0.030673902 0.005745106 -0.0021570963 0.0051232185 0.0013054911 0.047329295 -0.035527714 -0.029513616
-0.033920094 -0.04787592 0.005969142 0.028296202 -0.0043341797 -0.005978393 0.017821794 -0.008850298
-0.020934492 0.007358082 0.0017642303 0.030969422 0.02522925 -0.009257961 -0.034516674 -0.02126941
0.011950943 0.01386689 -0.036867417 -0.044464387 0.024257889 0.048315704 -0.00045044755 -0.025929416
-0.041739512 0.038980067 -0.035925996 0.039618514 0.040813982 -0.039886877 -0.027784998 -0.01318592
0.04018876 -0.04905789 -0.04351273 -0.041899983 -0.01565153 -0.008632231 0.012373193 0.021605786
-0.018541934 0.030866802 -0.025753157 -0.006890368 0.02505606 -0.027609434 -0.058473423 -0.06568951
0.007459235 -0.006657528 -0.02655585 -0.026800934 0.0037978748 -0.0029284402 -0.014590759 -0.019665748
0.0066928165 -0.052836474 -0.012713641 0.03414211 -0.025269043 -0.029109657 -0.04232271 0.029621443
0.021329599 -0.010756028 -0.0004397257 -0.03632134 -0.03243957 -0.06294362 0.0050363713 -0.019535769
0.024035716 -0.0049602506 -0.046669263 -0.033809204 -0.04045541 0.040493976 -0.008930889 0.018793607
0.03670554 -0.038500413 0.038048714 0.04397207 0.009486039 -0.0065289154 0.023592941 -0.0237629
0.040659774 -0.047341865 -0.04197828 0.027806139 -0.011270771 -0.035413504 -0.029539786 0.0025147635
0.019698014 -0.0068192435 -0.0006333587 0.04718234 0.03218675 0.019832535 0.047487024 0.008907633
0.007848979 -0.020911153 0.026366869 0.032098874 0.04834854 0.010397655 0.0048370655 -0.030060388
-0.019115645 -0.0031062036 0.046073932 -0.027745347 0.04551581 -0.020139419 0.0098912 0.039874565
-0.034695636 -0.04328336 -0.009457861 -0.033903275 -0.015514077 -0.007600735 0.011753667 -0.039880466

conv4.bias f4 [2]
00000000: c543 2c3d e99e 753b
0.042056818 0.003747875
