weights/Boxhill.model.weights.pt (torch, 68991 bytes, 10 tensors)

conv1.weight f4 [16, 3, 3, 3]
00000000: 00b3 e5bd a6c2 003e ec7c 69bc 7c15 05be
00000010: 3794 10be 5f0d 13be aefd b0bd b84a ac3c
00000020: baf4 393d a0f2 1ebe 57ae 4d3d a7b4 263e
00000030: ff95 1abe 6d90 8e3d c468 0e3e 6d1d b8bd
00000040: 11ae 283d 08cb aa3d 7222 f63d c003 35bd
00000050: d14e 3b3d 7d83 263e 4837 3f3e 4802 fbbd
00000060: 0c96 fcbd 2668 ae3d 43bb b53c d2f2 0f3e
00000070: f733 0ebe b1be 2e3d a0ce b0bc 7724 a7bd
00000080: dac6 403e bae7 e13d 76b8 30be 267f 1f3e
00000090: 0f21 32be 2aa0 323e a58c 153e baef 34be
000000a0: 2e3f a8bc 732f a33c 833e 463e bb03 403e
000000b0: 9198 37be 9580 b73d f673 85bd c4fd cfbd
000000c0: 1053 3abe 3f56 a73d 4882 bb3d bcdb 91bd
000000d0: ac85 56bd 4f6c 80bd f578 293e 6982 a93c
000000e0: ac36 49be 52ab 8fbd 1bd6 2abe 7e89 3cbd
000000f0: 7928 b43d 310f 06be 6a32 09be ff4e cabd
00000100: 1fc5 913c b9b1 123d 0409 43bd 723b 323e
00000110: f99f 15be ab99 ea3c 25f7 ed3d 84da b13d
00000120: 6ce8 a0bc 146d 333e a426 d2ba 0726 dd3b
00000130: ae86 b73c b91f 9cbd 1e33 343e 2b7d 09be
00000140: 18fa 053e bc09 373e d087 79bd f0a3 2f3e
00000150: 1e44 86bb 89c9 3dbd 0030 f03b 406b 803d
00000160: 7fc5 1abd 1e15 09be 0e26 103e c5e8 04be
00000170: c83f d4bc 7d01 dd3c cd3d 06be 5758 da3d
00000180: 6303 07be e6c9 8abd eeb8 03be 9bc0 133e
00000190: ca90 26be 2960 98bc e6d9 4a3d f456 363e
000001a0: 4fd5 0e3e 519d 6cbd 11f7 20be 4514 a3ba
000001b0: 2497 913d 9eb4 fbbd a4f1 e93d ecc7 c2bd
000001c0: 149d 153e 81c2 5f3d 140d 09be ee95 963d
000001d0: 8fbc 02be ff77 2fbd 6fda 54bc 5181 fb3d
000001e0: 2c65 69bc 5d00 2dbe 6274 0bbe 4e20 b43c
000001f0: d54f 93bd 83ac dc3d 6aa4 bcbd 2426 05be
00000200: 6118 34bc bceb 3bbe ef25 873d 1a36 3f3e
00000210: 788f e93d 4721 21be 850f 283e 9be6 883d
00000220: 9df5 403e 6b63 14bd 7d70 94bb 6a4d 2b3c
00000230: 714f 263e 6cf6 4abd 3f17 14be 6f2c 003e
00000240: 03c0 2e3e ec14 fdbd bb95 0dbd 1b88 d9bd
00000250: 4147 36be ccdf 1d3e 8daf 33be e0d5 533c
00000260: f3fc a8bd 48d0 383e 9f9b 313e b84a 35bd
00000270: c28c e5bd 75c8 323e be20 4dbd 5c13 39be
00000280: 7cf4 893d 4511 df3c c318 4a3e bad8 173e
00000290: 6d4b 3d3d 1284 aebd c7e2 89bd d0cd 71bd
000002a0: 46b0 c2bd 72ea 9b3d e928 363e d022 66bd
000002b0: 7b7d 873d ddbb 93bd 4614 30bd 0860 d4bd
000002c0: 0a33 e5bd 7d5c 6dbd 2867 c73d 1708 febb
000002d0: d1ba 3b3d c011 243e 31d8 dbbc 20f4 33be
000002e0: 022a dd3d 0e62 0abe a2af 17be 0b50 d0bd
000002f0: 3d24 d83d 1c4d 083e 79ec 2a3e 9961 0abe
00000300: 6bf6 fbbd ead8 14be b825 18be 44bc d0bd
00000310: f6d5 41be 34ee 343e a00a e33c e096 4239
00000320: d3d1 d33d 0679 183e 9f4b 41be be79 0c3e
00000330: 23a0 153e 1564 513d cb14 cc3c 93e7 a4bd
00000340: a14f ab3d f69c 12bc 8e69 783b db23 50bc
00000350: 196f f43d d4cb 9b3d 3b48 b0bc 7e91 11bd
00000360: 4f7b 5e3c 006e c73d 06a5 f13d 23f0 2ebe
00000370: 899a 1c3e e742 8a3d c804 183e f241 443d
00000380: d54f 4ebe 6bdc 0c3e 129f 843d 6fd0 043e
00000390: c8d1 223d cbeb 20be e1cd ed3d ec38 1d3d
000003a0: 3206 31bc 5c44 083d 7a0b 103e 2434 553d
000003b0: cc0c 50be 4ce0 8dbb 880d 293e ff33 02be
000003c0: dc0c 10be 2489 3dbe fe01 9dba 48b2 77bd
000003d0: 716e 1cbe a921 f7bb 76ac 2cbd 2a63 35be
000003e0: 47c7 febc 803d ff3c 5e9f e73d fb44 3d3d
000003f0: 0129 9cbd 6690 213d 75cc c23d 8f13 143d
-0.11215782 0.12574252 -0.014250975 -0.12996477 -0.1411904 -0.1436057 -0.086421356 0.021031722
0.045399405 -0.15522242 0.05021509 0.16279851 -0.15096281 0.06961141 0.13907152 -0.089899875
0.041181628 0.083395064 0.12018289 -0.04419303 0.045729462 0.16261096 0.18673432 -0.122562945
-0.12333307 0.085159585 0.02218402 0.14057472 -0.1388701 0.042662326 -0.021582901 -0.08161252
0.18825856 0.110305265 -0.17257866 0.15575847 -0.17395423 0.1744391 0.14604433 -0.17669573
-0.020537939 0.019920086 0.19359784 0.18751423 -0.17929293 0.08960072 -0.065162584 -0.10155824
-0.18195748 0.08170747 0.091557086 -0.07121989 -0.052373573 -0.06270658 0.16550048 0.020692067
-0.19649762 -0.07015099 -0.16683237 -0.04602956 0.08796782 -0.13091733 -0.13398138 -0.098783486
0.01779419 0.03581402 -0.04761602 0.17405489 -0.14611806 0.028637728 0.11619405 0.08684257
-0.019642077 0.17522079 -0.0016033244 0.006748918 0.022403087 -0.07623238 0.17597625 -0.13426654
0.13083684 0.17874807 -0.060920537 0.17152381 -0.0040974757 -0.046334777 0.007329941 0.06270456
-0.037786003 -0.13386962 0.14077017 -0.1297942 -0.02590932 0.026978249 -0.13109513 0.10661381
-0.13184886 -0.0677679 -0.12863514 0.14428942 -0.1626617 -0.01860054 0.04952421 0.17806607
0.13948558 -0.057767216 -0.15719248 -0.0012441954 0.07108906 -0.12290309 0.114230424 -0.09510788
0.14610702 0.054628853 -0.13383895 0.073528156 -0.12767242 -0.042839047 -0.012991532 0.122805245
-0.014245313 -0.1689467 -0.13618615 0.02198806 -0.07192961 0.107750915 -0.09211047 -0.1300283
-0.0109921405 -0.18351644 0.06599032 0.18672982 0.114043176 -0.1573535 0.1641217 0.066846095
0.18843694 -0.036227625 -0.004530011 0.010455469 0.16241242 -0.049551412 -0.14461993 0.1251695
0.17065434 -0.12357506 -0.034566622 -0.10621663 -0.17800619 0.15417403 -0.17547436 0.01292941
-0.08251371 0.18048203 0.17344521 -0.04426071 -0.11208488 0.17459281 -0.050080054 -0.18073791
0.06736085 0.027229914 0.19736008 0.14828768 0.04621451 -0.08521284 -0.067327075 -0.05903417
-0.09506278 0.07613076 0.17789043 -0.056185544 0.066157304 -0.072135665 -0.042988084 -0.10369879
-0.111913756 -0.05794953 0.09736472 -0.007752429 0.04583246 0.16022396 -0.026836487 -0.17573595
0.10799028 -0.13513967 -0.14813092 -0.10171517 0.10553787 0.13310665 0.1669177 -0.13513793
-0.1230286 -0.14535871 -0.14858139 -0.10192159 -0.18929276 0.17668992 0.027715027 0.00018557487
0.10342755 0.14889917 -0.18876503 0.13718316 0.14611869 0.051120836 0.024912259 -0.08051982
0.083647974 -0.008948555 0.0037904712 -0.012703861 0.11935253 0.076072365 -0.021518817 -0.035539143
0.013579204 0.09737778 0.11799054 -0.17083792 0.15293325 0.06751042 0.14845574 0.047914453
-0.20147641 0.13755958 0.06475653 0.12970136 0.039750844 -0.15714948 0.11611534 0.038384363
-0.0108047 0.033268318 0.14066878 0.05205168 -0.20317382 -0.004329717 0.16509068 -0.12715147
-0.14067405 -0.18509346 -0.0011978743 -0.060472757 -0.15276505 -0.0075418544 -0.04215666 -0.1771361
-0.031100882 0.031157255 0.11309694 0.046208363 -0.076250084 0.03944435 0.09511653 0.036151465

conv1.bias f4 [16]
00000000: 6189 ba3d 7498 7f3e 4a03 5bbe aaaf aa3c
00000010: 7279 553e 911e 7b3b 45dd 473e 0058 ef3d
00000020: 461d 1cbe decd b0be 88d2 e3bd 293a 153e
00000030: 0e23 08be 9b14 203e 564b 813e 7c49 873e
0.09108234 0.249605 -0.21387973 0.020835716 0.20847109 0.003831778 0.19518001 0.116867065
-0.15245542 -0.34532064 -0.1112414 0.14572968 -0.13294622 0.1563286 0.2525279 0.26423252

convx.weight f4 [16, 3, 5, 5]
00000000: aaf5 44bd f9e7 80bc 9d88 c8bd 31a1 0ebc
00000010: 247c 973d cf31 19bc df8a 02bd 8eaa bcbd
00000020: 2674 0fbd f502 f23d a06e 8fbd 2843 a5bc
00000030: a6f6 cb3c fa0a 243d 4ea1 0e3c f86d 7cbd
00000040: c7cc 80bd 100f 5e3d 12d7 c1bd 194f c5bb
00000050: 4c36 babd 8106 c2bd 3ca2 c3bc 2e16 513d
00000060: 82e0 b9bd 6991 02bd 3254 903d a9b6 56bd
00000070: fb66 46bd 5663 cebc 1769 abbd e981 77bb
00000080: aa1e b43d 69d2 98bd 86ee 073e 5a8b af3b
00000090: 190e b83d a92d 82bd 6dc3 803d aadb 50bd
000000a0: bb61 2fbd aafa cd3d 5bb5 abbc 0d78 bd3d
000000b0: e93b d03c dbc8 9cbd b01f 8fbd d9e3 08bd
000000c0: c8a8 8d3d 4757 f63c 7af3 3dbd d28b f53b
000000d0: b9d6 b2bd 9532 c63d 9f8a 0b3e e77c c83d
000000e0: ec85 7d3c 202b 343d 1019 90bd adb9 80bd
000000f0: 26c3 b6ba 883b b0bd 3a22 bb3d b923 d8bd
00000100: 0920 5d3c a1f3 8c3d e276 9bbd 6dcd d7bc
00000110: b1db c63d 7679 d33d dedf 55bc 4a00 ba3d
00000120: c6f3 113d a0cd 213b e096 923d 7d8e 26bd
00000130: 1269 e8bc 16e2 843d 4aff 82bd 2794 25bd
00000140: 801c b53d 41c1 a5bc 21f8 953b e018 e3bd
00000150: 72f1 90bd 15ec 8ebb 4c9b 3a3d 8697 df3d
00000160: df23 a83d 9ead a2bc 32ef d5bd 64e1 72bd
00000170: 6b86 c5bb 27aa d63d 9617 e43d 8959 aebd
00000180: 9e97 613c 2154 48bc 43bc f0bb 9132 8cbd
00000190: ca97 183d 9124 8ebd b80e af3d c1b4 13bc
000001a0: f84f 94bd a951 24bd 4b6d 6c3d 2b3e d3bc
000001b0: 0409 603d a760 f8bc 0d31 f0bc ac8e c13c
000001c0: 3b1b 913d ebb0 de3c c826 5f3d 333d 2cbd
000001d0: e119 7b3d e122 b03d 017a 923d d802 1fbd
000001e0: bf89 df3c ae1b 933b 7821 adbd 8612 99bd
000001f0: 073b fe3d fa30 b53d 36ae 5abd 5603 90bd
00000200: 4509 373d 676d aabd d255 693c 9618 96bd
00000210: 8c9f 923c dcf3 9a3d 5e2d be3d a452 7a3d
00000220: 22ec bbbd 60d9 2b3d 1465 f5bc 024e 183d
00000230: a2ad d4bd 62e5 c73d bec1 00bd 7432 c13c
00000240: 243d bf3d 312c 073b 93e7 cfbd ba2e c3bd
00000250: 785b 91bc 771a c5bd 740d 9f3c 9dd7 123b
00000260: e751 d6bc b58a 88bc 95b5 a8bc 8fb0 443c
00000270: 6899 283c 3d64 0bbd 85ba 2fbd 9586 edbc
00000280: 6592 053c eae0 753c fb54 43bc e570 80bd
00000290: 0add 89bc f6c5 b93c 8c71 003c 2f42 e3bb
000002a0: a8c8 7abd 9932 7fbc 50ca dd3b 681b a1bb
000002b0: 27fd 99bb 9e7a 1bbd a616 6bbc 89bf 4f3c
000002c0: d1ba a8ba 2a11 57bc bb59 2c3d e05f 30bb
000002d0: 4cf7 b43b 027d b2bb e22e d3bc 1bc6 5abc
000002e0: d4a9 b9bb 73b8 d1bb 9af4 203c 1e5b 72bc
000002f0: ae22 01bd 6e53 503c 3675 303b 0bbf 7bbb
00000300: 84b3 383c 1869 05bd 46f1 9b3b e986 3abc
00000310: e660 acbb 8493 e33a faf0 04bb ae5f 883c
00000320: 6e91 a83c 1ed8 bf3b de58 a53c a562 5c3d
00000330: 6e8a 7f3b 7666 ac3c 2fc3 7bbb 6c5f 5cbb
00000340: 23b6 91bb 4f1a 3b3b f46d 9d3b eaa3 0a3c
00000350: 8905 37bb 95be 0dbd 2634 8b3c 387b 1a3c
00000360: 3f52 853c c329 553c bfb9 cabc a48c 1e3c
00000370: ad14 a03c cf4a 4c3c bc09 c33c 0324 5abc
00000380: cf1b ff3b 9af6 993b 568c 513d a798 273d
00000390: e272 c5bc a131 18bd c469 d1bd 1c1e 0d3d
000003a0: a409 34bd ec6e a23c 4480 5b3c 63e0 b6bc
000003b0: 82cd 9ebc 5967 af3d 6ef2 173d 1ad6 04bd
000003c0: 7961 ecba 05ac 40bd b64a f63c a523 753d
000003d0: 6d54 5f3b e5f9 d6bd a720 3f3d f7fb 36bd
000003e0: 8404 ae3d fdcd dabd bdd8 133d 5ade 8e3d
000003f0: 0fed abbc 606c 903d f9d5 b63c 3a14 b63c
-0.048085846 -0.015735613 -0.09791682 -0.008705423 0.07396725 -0.009350254 -0.03187072 -0.09212218
-0.035022877 0.1181697 -0.07003522 -0.020173624 0.024897885 0.04004953 0.00870545 -0.061628312
-0.06289058 0.054213583 -0.094648495 -0.006021392 -0.090923876 -0.09473897 -0.02388107 0.051046543
-0.090760246 -0.031876955 0.07047309 -0.052420292 -0.048438054 -0.025193851 -0.08369654 -0.0037766641
0.08794911 -0.074620076 0.13274583 0.005357188 0.08987064 -0.06356365 0.062872745 -0.050990738
-0.042817812 0.10057576 -0.0209605 0.092514135 0.025419192 -0.07655498 -0.06988466 -0.033420417
0.06916958 0.030070914 -0.046374775 0.0074934745 -0.08732361 0.096776165 0.13627099 0.09789448
0.015473824 0.04398644 -0.0703603 -0.06285415 -0.0013943657 -0.08605105 0.091373876 -0.105536886
0.013496407 0.06882406 -0.075910345 -0.026343072 0.097098716 0.10325901 -0.013053862 0.090820864
0.03563287 0.0024689212 0.07157683 -0.04066323 -0.028370414 0.06488435 -0.06396349 -0.040424492
0.088433266 -0.020233752 0.0045766984 -0.11088729 -0.07077302 -0.0043616393 0.04555826 0.10917573
0.08209967 -0.019858178 -0.104460135 -0.05929698 -0.0060279868 0.10481673 0.11137311 -0.08513171
0.0137690585 -0.012227089 -0.0073466613 -0.06845582 0.037254132 -0.06940568 0.08547729 -0.009015263
-0.07241815 -0.04011694 0.057721417 -0.02578648 0.054696098 -0.030319525 -0.029320264 0.023627602
0.07085272 0.02718397 0.054480344 -0.04205055 0.061303977 0.086004026 0.07152177 -0.03882107
0.027287362 0.0044893837 -0.08453649 -0.07474236 0.12413602 0.08847232 -0.053388797 -0.07031886
0.044686574 -0.08321648 0.014241653 -0.07328908 0.017898344 0.07566044 0.09285997 0.06111397
-0.09175898 0.04195535 -0.029955424 0.03718377 -0.1038468 0.09760548 -0.031434767 0.023583628
0.093378335 0.0020625705 -0.10151591 -0.09530397 -0.017743811 -0.096241884 0.019415595 0.0022406348
-0.026162101 -0.016667703 -0.020594398 0.0120049855 0.010290481 -0.03403114 -0.04290249 -0.028994838
0.008152579 0.015007237 -0.011922116 -0.06271533 -0.016829032 0.022677403 0.007839572 -0.00693538
-0.061226517 -0.015576028 0.0067685023 -0.004916597 -0.0046993676 -0.037958734 -0.0143486615 0.012679943
-0.0012873058 -0.013126651 0.04207776 -0.0026912615 0.005522644 -0.005447031 -0.025779191 -0.013352896
-0.005665997 -0.006400162 0.009823943 -0.014792232 -0.031527214 0.012715204 0.0026925332 -0.003841343
0.011273269 -0.03257093 0.0047589866 -0.011384704 -0.0052605746 0.0017362689 -0.0020285235 0.016647186
0.020577159 0.0058546206 0.020183977 0.053805012 0.0038992423 0.021044951 -0.00384159 -0.0033626212
-0.004446761 0.0028549617 0.004804367 0.008461932 -0.0027926883 -0.03460558 0.01699264 0.009428792
0.01627457 0.013010445 -0.024746774 0.009677086 0.019541109 0.012469008 0.023808353 -0.01331425
0.0077852975 0.0046985867 0.051159225 0.040917065 -0.024102632 -0.037156705 -0.10225251 0.034452543
-0.043954507 0.019828282 0.01339728 -0.022323793 -0.019385103 0.08564634 0.037096433 -0.032430746
-0.001803442 -0.04703905 0.030064922 0.059848446 0.0034077421 -0.10496882 0.046662 -0.044673886
0.08496955 -0.106838204 0.03609537 0.06976004 -0.020987062 0.07051921 0.022318827 0.022226442

convx.bias f4 [16]
00000000: ce5e cb3c f90c d33d 38b9 423e 236d 1c3e
00000010: 86cd ebb7 675e 903c 6110 9e3c d7c6 a53d
00000020: 7309 2cbc e54b 923c 6d5b b13e a438 afbd
00000030: c172 c6bd f542 853d a051 4a3d bee8 5b3c
0.02482548 0.10305209 0.19015968 0.15276007 -2.8109887e-05 0.01762314 0.01929492 0.08094566
-0.0105003 0.017858455 0.34640065 -0.08555725 -0.09689856 0.06506912 0.04939425 0.013422189

conv2.weight f4 [32, 32, 3, 3]
00000000: 6f70 753c 76b6 ab3c 7bc8 553b 77df 5fbc
00000010: d100 3bba f267 473d 1147 fbbc 62c6 043d
00000020: d9df 863d 8f2c c6bc 0f2c 6f3c 5b44 1c3d
00000030: 3d80 a13b afb2 fe3c 713e 923c 2f8a 2bbc
00000040: 425e 103b 1310 913c e534 21bd 29d4 28bd
00000050: 2cf3 b4bb 66ca dc3c e604 d1bc eba0 24bc
00000060: f36c 16bb 2961 063d 351c 83bc 2450 d6bc
00000070: 0303 e33c 20ac 69bc 7aad 01bd 3899 30bc
00000080: 08f3 84bc 5001 40bd 36f5 1ebd b555 f1bc
00000090: 62d4 cfbd 35c4 04bb b048 71bb ab6e 90bd
000000a0: 09e6 c8bc efdb 923c fb3e 40bd ecdf 0fbd
000000b0: bd80 a3bb 935e 7cbc 207b a2bc b6c0 d3bc
000000c0: 0aa7 00ba 0324 00bd 4108 7bbc f211 fb3c
000000d0: de46 743c a336 083d 6af9 f73b 5e2e d0bc
000000e0: 022d 2ebc df14 fb3c e5cd 0ebd cdd4 02bb
000000f0: 4c11 5fbd 7422 09bd 8075 e1bc 0fbe 00bd
00000100: 8c38 c1bc 0b06 813d 6b2a cebc 9790 493d
00000110: bc68 313c 6850 e1bc f2ef 383c 0643 22bd
00000120: f6cf e73c ef4d 53bb 47cb 2e3c 732d 59bd
00000130: 0fb3 47bd 5aab 643c 8c25 86bc 9024 5bbc
00000140: ac07 59bc a2a2 8bbd a4f3 5c3b 5755 023c
00000150: 4da5 2fbd d6b6 84bd b210 c3bb dd02 0bbd
00000160: 2241 49bd 003a 66bb 6130 0fbd 9d44 ad3c
00000170: 1a16 f3bc 1ccc 8d3c 2b99 523d 8d35 01bd
00000180: 8ab0 a4bc bfa4 093d 72cd aabc 7475 08bc
00000190: eb3d e139 f34c 9bbc d58a 14bc 0dde 80bc
000001a0: 1662 97bc b881 ddbb dc48 96bc 6a1c 4dbc
000001b0: 2b6c 01bb c452 1a3d 2d17 08bd 2f26 303d
000001c0: f95d 24bd 5630 87bc bee0 cfbc f3c6 f5bc
000001d0: a2ba a23c 0df7 773d 811f 763d e58f 07bc
000001e0: ce94 cc3d ed45 3e3d d13f 14bc d538 163d
000001f0: 75f1 f2bc d08d d73c d7c6 b8bc 6246 26bd
00000200: 88b9 80bd 47a2 36bc 9368 b0bc 184e 4b3c
00000210: bd1e 2fbd eb3b c4bc 77a6 1d3d bbaf 963b
00000220: 9a0e 633d 709b 2c3b f736 233d a6aa 963c
00000230: 3a7d 15bd ab40 f23c 7c3d 573d c180 ab3c
00000240: c1b6 0e3d d308 3e3d 4698 743d bf33 edbc
00000250: 641a 64bc 0e3e ee3c b208 053c f542 dabc
00000260: 854c 14bd a627 aa3c eadc 36bc f8cf 0ebc
00000270: 5826 083d da2a d3bb 79ac 1d3d 6af3 18bd
00000280: ac6e af3a cd61 dabc 44cf c53c a85c 9b3c
00000290: 153e 8abc 9ed2 5e3c 6ef5 b03c ee02 bdbc
000002a0: 17b7 993c c519 a03c 520f 3bbd 84bf d03c
000002b0: 9d14 0fbd 280e 763c 9fdf 7cbc 0477 303d
000002c0: bcc1 48bd 3137 403d 2cef cb3c 51ad 133d
000002d0: 39f2 b33c 06d6 523a eb35 e33c ae83 c1bc
000002e0: 8dd6 6fbd c2a3 ac3c 2c84 ec3c d680 033c
000002f0: 7fb7 1bbd fd99 48bd e0d1 3ebd e0a4 75bc
00000300: c7f7 fabb 1342 28bd dda3 123c 44ed 3fbc
00000310: 977d 2b3d 4be0 f43c a1fa 9bbc 55c1 cf3b
00000320: aad2 95bc b16e 84bc c0f3 e6bb 78d5 f2bc
00000330: 542b 013d 10f8 8c3c d634 833d f6be 17bc
00000340: f8af 41bd 41ec ba3c 0220 86bd 943f 10bd
00000350: 3502 b4bc ccb9 dcbc 39c7 82bc 1596 9d3b
00000360: 636b f53c df76 543a 8e7c d1bc 9fbf 84bc
00000370: 1bb0 04bb aa49 a63c 5d38 d53c 5a3f 233c
00000380: 7757 133d 2a13 dfbc 1e6e 9e3c 99ce 5dbc
00000390: 4250 1cbd f17d 2a3b ceb1 963c e8d9 ca3c
000003a0: 99a8 0d3c caa3 76bc 1606 04bd 0b4f 2539
000003b0: 2b37 8abb 0f10 e2bc 341c 6c3b d095 e4bb
000003c0: 88e9 01bd 4e9e abbc 9e24 52bb 850e 473c
000003d0: 94dc 4a3d c4cc 10bd 4395 adbc 4fc0 77bc
000003e0: a15a 3a3d 1517 b83c 92e7 6b3d 8fa9 f43c
000003f0: 399b 1fbd 3c32 08bd d27d fc3c a457 c5bc
0.01498042 0.020961028 0.0032620716 -0.013664118 -0.00071336055 0.048683114 -0.030673536 0.032415755
0.06585664 -0.024191169 0.014597907 0.038151126 0.0049286173 0.031091062 0.01785204 -0.010469957
0.0022028838 0.01770786 -0.039357085 -0.041217957 -0.0055221524 0.02695198 -0.025515031 -0.010048131
-0.0022953122 0.032807503 -0.016004661 -0.02616126 0.027711397 -0.014262229 -0.03165958 -0.010778718
-0.016229168 -0.04687625 -0.03880807 -0.029459814 -0.10147931 -0.002025855 -0.0036817007 -0.07052358
-0.024523752 0.017927138 -0.046935063 -0.035125658 -0.004989712 -0.015403408 -0.019834101 -0.025848728
-0.0004907703 -0.031284343 -0.015321792 0.030648205 0.014909474 0.03325523 0.0075675743 -0.025412735
-0.010630848 0.0306496 -0.034864325 -0.0019963265 -0.054459855 -0.033480123 -0.027521849 -0.031431254
-0.023586534 0.06299981 -0.02516671 0.049210157 0.010828193 -0.027504161 0.011287676 -0.0396147
0.028297406 -0.0032242497 0.010668582 -0.05302186 -0.048754748 0.013956869 -0.016375326 -0.013375416
-0.013246458 -0.06818129 0.0033714557 0.007954917 -0.042882252 -0.06480186 -0.005952918 -0.033938278
-0.04913438 -0.0035129786 -0.034958247 0.021150881 -0.029673625 0.017309241 0.051415604 -0.03154521
-0.020103712 0.03360438 -0.020849917 -0.008328784 0.00042961477 -0.01895759 -0.009066303 -0.015730882
-0.018479388 -0.0067598484 -0.018345289 -0.0125189815 -0.001974831 0.037676588 -0.033225227 0.043005165
-0.04012868 -0.01650254 -0.02537572 -0.030002093 0.019864384 0.06053834 0.06008864 -0.008274053
0.0998932 0.046453405 -0.009048418 0.036675293 -0.029656151 0.026312739 -0.022555752 -0.040594466
-0.06285387 -0.011147088 -0.02153424 0.012408756 -0.042753924 -0.023954352 0.03848883 0.0045985854
0.055433847 0.0026337765 0.03984734 0.018391918 -0.03649638 0.029571852 0.05254887 0.020935418
0.034842256 0.046395134 0.05971553 -0.028955339 -0.013922308 0.029082324 0.008119749 -0.026643256
-0.036205787 0.020770859 -0.011161068 -0.008716576 0.033239692 -0.0064443173 0.03849456 -0.037341513
0.0013384423 -0.026657963 0.024146684 0.01896508 -0.016875306 0.01360002 0.021601405 -0.023072686
0.018764062 0.019543538 -0.045668907 0.025481947 -0.034931768 0.015018024 -0.015434175 0.043082252
-0.049012884 0.046927635 0.02489432 0.03605396 0.021966087 0.0008042756 0.027735671 -0.02362236
-0.05855422 0.02107418 0.028871618 0.008026322 -0.038016792 -0.04897498 -0.04658687 -0.014992923
-0.007658932 -0.04107864 0.008950201 -0.011714283 0.04186782 0.029892107 -0.019040408 0.0063401856
-0.018288929 -0.016166063 -0.0070481002 -0.029642805 0.03153546 0.01720813 0.06406562 -0.009261837
-0.047286958 0.022817733 -0.06549074 -0.035216883 -0.021973709 -0.026944064 -0.015964137 0.004809151
0.029958433 0.00081048714 -0.025572088 -0.016204653 -0.0020246569 0.020298798 0.026027853 0.009963835
0.035972085 -0.027230818 0.019339617 -0.013538026 -0.038162477 0.0026015008 0.01839533 0.024762109
0.008646154 -0.015053699 -0.032232367 0.00015765072 -0.0042180023 -0.027595548 0.0036027553 -0.006975867
-0.031716853 -0.020949509 -0.0032065283 0.012149458 0.049526766 -0.03535153 -0.021189338 -0.015121534
0.045496587 0.022471944 0.05759389 0.029866008 -0.03896639 -0.033251032 0.030821715 -0.024089642

conv2.bias f4 [32]
00000000: 4156 fb3d e759 f1bd 63a7 003d f536 513e
00000010: 34bd 0f3e 07aa 26be a047 ec3d df6b 293e
00000020: f56d 07be e220 84be d592 373d aab8 77be
00000030: 54ec 883e 35d4 4c3e 7220 15be 3882 b0bd
00000040: f5f3 213e 809b d8bd e2db 443d 89db 4b3e
00000050: 30ab 9cbd 438e 3a3e 3540 d2bd 010a b53e
00000060: 5331 b43e 35df af3e ecfe 21be 9d2d a8bd
00000070: 9b21 15be b825 803d 3b31 b13e a0ae bcbd
0.12272311 -0.11784726 0.031409632 0.2043112 0.14037019 -0.16275798 0.11537099 0.16545056
-0.13225539 -0.25806338 0.044817764 -0.24191537 0.26742804 0.20002826 -0.14563158 -0.08618587
0.15815718 -0.10576534 0.04806126 0.19907965 -0.07649839 0.18218331 -0.10266153 0.35359195
0.3519388 0.3434998 -0.15819901 -0.08211825 -0.145636 0.06257194 0.34607872 -0.092129946

conv3.weight f4 [16, 32, 3, 3]
00000000: 14ce 55bd 47d1 ef3b aa45 2fbd 0a2c 173d
00000010: 575d 20bd 503e 103c ed37 10bc dc9b 033d
00000020: 1266 e43b 7f68 fb3b 01e8 c9bc 3998 a13c
00000030: 29cb c13c 387e 4abc aaba ffbc 8e9f fd3b
00000040: 5488 913c 764b 4d39 e6de 6ebb fb7e fb3b
00000050: de7f 47bd f73b 35bd 2240 eabc 7eb3 82bd
00000060: 8a85 7dbc db0d 653c c9b8 aebc 4fcb 2e3d
00000070: dc39 dcbc 86d1 04bd c545 073d fb03 f4bb
00000080: 8bfd c9bc b3ef 953d 315f 9b3c 8f61 c43a
00000090: 53b7 04bd 1b94 47bd 389d 97bd 95ba cebc
000000a0: d4ff 98bc 2c54 6bbc 658c 06bc 1e4d f6bc
000000b0: 80e9 25bd c9c5 b13c c920 5a3c 7722 203d
000000c0: d733 dfbc 9c22 ec3b e5d8 bbbc db9f 44bc
000000d0: e756 27bc a97a 8abd 8941 fdbc 8167 82bd
000000e0: ef46 0abd 6b06 85bd b326 97bd b798 89bd
000000f0: 09fc 473c 9ebb 4cbc 038f 213c af1c 81bd
00000100: b878 053c 4355 3ebd c259 cb3c e69b 51bd
00000110: 3c75 223d cf0d acbc 2a65 dd3c 0cd8 21bd
00000120: 3341 723d a96a 833d 7d5b 80bc b2c3 6f3b
00000130: 7d0b d53c ceb1 19bc 3a45 c4ba 45a8 f3bc
00000140: db10 28bc 6613 7b3b a6c4 233d 5428 f1b9
00000150: ce86 30bc 1c48 403d 1e4e bb3b 2e8d 91bc
00000160: 7395 273d e459 823c 3ed0 b1bd 6052 a9bd
00000170: b617 3abd 2515 13bd 42d1 76bd a1f3 afbd
00000180: 0428 8abb 1aa7 75bb 4434 d1bc 81e1 acbc
00000190: d282 dabc ca69 043d 93b5 b7bc 9eb1 20bb
000001a0: 9c86 1abd cafc 443c 1e41 2fbc ef96 9e3c
000001b0: 200b ef3c 4501 063b c3bb 613c 7033 063d
000001c0: 213a 453d e14a a1ba 66d0 fe3c 1619 203d
000001d0: 2513 523d effb 83bb 5df7 d5bc cbe2 04bd
000001e0: 7d7c 3e3c 608c 9cbc e3ab e4bc 45db b0bc
000001f0: b60b 853c 1038 74bd 9220 88bb 1054 083d
00000200: 6d96 5c3c 72c4 fcbc e91c cf3c de55 073d
00000210: 4f3f eabc 9dbb 20bc 4b7f 0b3d 4a52 243d
00000220: b4b0 02bd bcb2 31bd 2bb3 e3bb ec7e babc
00000230: fdb9 233d 1a27 53bd 5a82 563d 2290 313d
00000240: 3e36 50bd 6de1 8a3c d31f af3a 5adf b5bb
00000250: 3318 febb c790 13bd b75f 3c3b 42a0 90bc
00000260: eb92 3bbc eac4 593d 2a3a 813d b8c4 a73c
00000270: 6b47 313d 88c0 f33c e8f4 0d3d 122a 3f3c
00000280: 8132 393d 5d09 f33a 3ae9 3abd c3da f7bc
00000290: d4fa 3cbd b04b d5ba f296 5cba d81a c73b
000002a0: 93ad 12bc 5d17 433d 528d d53c d25b cdbc
000002b0: a921 2cbd db5d 58bd 643d 05bd 8f7c 54bd
000002c0: 9196 5a3c 12e6 63bd cf15 063c 42cc 48bc
000002d0: 1d6f a83b faeb 44bc 96eb 49bb 249a 89bb
000002e0: 3715 9ebc fe33 43bb c325 c5bc 94fd 0bbd
000002f0: 6333 3e3c ab8b 40bd 4375 e5bc 5008 c6bd
00000300: 194b 70bd 2a16 59bb a97a 05bd b5d6 11ba
00000310: 92b0 87bc 82a2 963c de56 c03a fedc 63bb
00000320: f22a a03b 4a50 8fbc c675 103d 0b9e cc3c
00000330: 9013 143d 2cd1 7b3c 1f67 f4bc 606c 833b
00000340: 5fd6 093d 2919 4bbd f7f7 f9bc c1f3 01bd
00000350: ca37 51bd 4c9e 3d3d c293 21bd 2739 073d
00000360: 9218 473d 91ce c7bc 708e 4ebc 6f13 27bc
00000370: 4eca 5d3d cacd 98bc 41e8 cc3c 8ba2 6bbc
00000380: f8d7 203d 5c27 69bd 3185 fcbc 83c4 093d
00000390: b00f 8f3c 4e11 d13c 713a 533d ae85 eabc
000003a0: dfb8 163d cf66 0a3d de7b 3fbc 5d23 68ba
000003b0: 0a0f b43c afe8 033d 120e 103d 8366 183c
000003c0: 9289 1639 4ebc b93c 9e54 a63c a312 743c
000003d0: afd4 223d 065f a83c 1bb8 ebbb bd64 93bc
000003e0: 9af9 6bbd f674 c83b c0a7 af3c c47c e2bc
000003f0: 9716 c03c f648 973c 5bc2 a6bc 0920 0e3d
-0.052198485 0.007318649 -0.042791046 0.036907233 -0.039151516 0.008803919 -0.008802396 0.03213106
0.0069701755 0.007672369 -0.02464676 0.019725906 0.023656445 -0.012359194 -0.031216938 0.0077399677
0.017765202 0.00019578435 -0.0036448776 0.0076750494 -0.048705928 -0.04424664 -0.028595034 -0.06381892
-0.015473733 0.013980354 -0.021328347 0.04267436 -0.026883058 -0.03242638 0.03302552 -0.0074467636
-0.024657032 0.073211096 0.01896629 0.0014982688 -0.032401394 -0.04872523 -0.07403034 -0.025235454
-0.018676676 -0.01436333 -0.008212184 -0.03006607 -0.040505886 0.021700757 0.013313481 0.03909537
-0.027246399 0.007206274 -0.022930572 -0.012001003 -0.01021359 -0.06761677 -0.030915039 -0.06367398
-0.033759054 -0.06495365 -0.07380428 -0.06718581 0.012206086 -0.012495903 0.009860757 -0.06304299
0.008146457 -0.04646803 0.024823073 -0.051174067 0.039662585 -0.021002678 0.027025778 -0.03951268
0.05914421 0.06416828 -0.015668625 0.003658515 0.026006455 -0.009380771 -0.0014974244 -0.029743323
-0.010257925 0.0038311123 0.03998246 -0.0004599715 -0.010774327 0.04694377 0.0057160994 -0.017767515
0.04091401 0.015912004 -0.08682297 -0.08267665 -0.04543277 -0.035908837 -0.060258158 -0.085913904
-0.004216196 -0.0037483633 -0.025537618 -0.021103622 -0.026673708 0.03232745 -0.022425449 -0.002451993
-0.03772603 0.01202316 -0.0106966775 0.01935908 0.02918011 0.0020447534 0.013777676 0.0327639
0.04815114 -0.0012305641 0.031105231 0.039086424 0.05128779 -0.0040278356 -0.026118929 -0.03244285
0.01162636 -0.019109905 -0.027913993 -0.02158893 0.016240936 -0.059623778 -0.0041542733 0.033283293
0.013463599 -0.030855391 0.02528234 0.033040874 -0.028594641 -0.0098103555 0.034056943 0.04011754
-0.0319068 -0.043383345 -0.0069488487 -0.0227656 0.039972294 -0.051550962 0.052370407 0.043350346
-0.05083298 0.016953195 0.0013360925 -0.005550307 -0.0077543496 -0.036026742 0.0028743574 -0.017654542
-0.011448602 0.053166308 0.06309922 0.020479545 0.043281 0.029754892 0.03465739 0.011667745
0.04521418 0.0018542219 -0.04563258 -0.03025568 -0.046137646 -0.0016273167 -0.00084148266 0.006076198
-0.008952516 0.047629703 0.026068363 -0.025068197 -0.04202429 -0.052823883 -0.03252925 -0.0518766
0.013341562 -0.055639334 0.0081839105 -0.01225573 0.005140199 -0.012019152 -0.0030810586 -0.004199283
-0.019297225 -0.0029785628 -0.024065858 -0.034177378 0.011608931 -0.047008198 -0.028010016 -0.09669554
-0.05866537 -0.0033124783 -0.03258768 -0.0005563305 -0.016563687 0.018388037 0.0014674326 -0.0034769173
0.004887932 -0.01749434 0.035268568 0.024977705 0.03615147 0.015369695 -0.029834328 0.004010722
0.033651706 -0.04958454 -0.030513747 -0.031726602 -0.051078595 0.04629354 -0.039447553 0.03301349
0.048607416 -0.02439049 -0.012607202 -0.010197504 0.05414801 -0.018652815 0.025013091 -0.014382015
0.039268464 -0.0569223 -0.03082523 0.033634674 0.017463535 0.025520947 0.051569406 -0.028628197
0.0367974 0.033789452 -0.011687247 -0.0008855367 0.021979827 0.032204326 0.03516967 0.009301784
0.00014356364 0.022672798 0.02030402 0.014897021 0.039753612 0.020553123 -0.007193578 -0.017992372
-0.057611085 0.0061174585 0.021442294 -0.027647384 0.023448272 0.018467408 -0.020356348 0.03469852

conv3.bias f4 [16]
00000000: 819a 0bbe 3855 99bd 6701 00be 9d16 c93d
00000010: 32fd 9f3d e701 20be bea9 403e 823f dabd
00000020: 53ec 513e 0b10 d8bd 551c 353d 4c54 963e
00000030: 94be 953e fa3f ad3e dc3a 953c 7923 723e
-0.13633157 -0.07486957 -0.12500535 0.09818766 0.07811965 -0.15625726 0.18814752 -0.106566444
0.20500307 -0.10549935 0.044216473 0.29361188 0.29246962 0.33837873 0.018216543 0.23646344

conv4.weight f4 [2, 16, 5, 5]
00000000: 40d0 9f3c 06f9 193d 6731 423d a2e8 a13c
00000010: f08c 973c 002c 4b3c a63e 2f3c e4bb e73c
00000020: 7ad3 a7bc 4874 cf3c c92d 023d a970 9cbc
00000030: bc8b 043c 648c a13c caed 7d3c 9d8b 183d
00000040: 538f 2abc a683 133c 2e73 26bc 8290 813c
00000050: 2aa5 b1bc 1454 bf3c 0d9c 51bc 6efb 363d
00000060: af04 443d 9a59 253d fbcf ae3c 9cfa 223d
00000070: 0c21 573c a666 0d3d eebb ce3b 6fc3 0c3d
00000080: b703 17bc 731a 0c3d 00c2 47bc 8f40 7e39
00000090: ea4b 6f3b a610 b53c 77b8 a83c 75fa b3bc
000000a0: 41a0 2ebc 1725 3db9 15dc 0b3d bb14 00bd
000000b0: 1c78 f3bb 9edb 0f3d 7fea f8bc 6c84 3f3b
000000c0: 0785 023d bc2f 00bb 4f5e a53d 20eb 673d
000000d0: 4c2f 813d 8bea 2b3d f3c2 843d ae13 343d
000000e0: a3f7 083c 134f 143d 6e78 b93b c4b5 333d
000000f0: ae80 153d 67e8 643c 9b5c 903d c0ff 253c
00000100: c2e0 313d 9ff8 1c3d 3fc6 cc3c 2876 7d3c
00000110: 11b6 333c 6182 b53c 4642 513d 57f2 9d3c
00000120: b427 843d f3bf 8e3d fc93 cd3d 3336 0cbd
00000130: a5d4 2cbc 62e0 a93c 0bf2 743c 4d81 d2ba
00000140: 2cf1 9bbb d0db 14bd d63c 7b3c 2072 fcbc
00000150: f298 6b3c dfe1 ab3c e8bb 6abc cba0 a73b
00000160: c3cb 81bc c1bf d9bc 9845 f03b 77e3 b2bc
00000170: f376 0ebd dadb be3c 9d01 6e3c 9ae8 6dbd
00000180: 3809 c4bc 24bf e83c 9dde 6dbd 39b4 a23b
00000190: c32e 953d 7e33 793d 794a 5d3d 82ca d33d
000001a0: 7a4d 333d 446d 533d 04f1 233d 0916 fa3c
000001b0: 4827 9b3d 00f4 fc3c e86a 813d d955 623d
000001c0: 16d4 523d ec4e bc3d 998c 3c3d 1db8 703d
000001d0: fb49 3e3d 0908 223d f66a a83d e4e4 d93c
000001e0: 9fc6 903d a180 773d 108f 513d 4647 cc3d
000001f0: 826c a33c 7977 893c eb62 a4bc 6938 093c
00000200: c8aa 3cbc 25cd c23c 4bdf dd3c 449f db3c
00000210: 6bc0 d63c 4ecb dfbc 5537 a73c d426 693c
00000220: 0dee 6e3d 209d 9e3c 890a a93c ed7a 0cbb
00000230: 97f8 4c3d 94db 0e3d 797b 073c c3c5 443c
00000240: 1372 583d dbea 733d 5900 033d d7c9 e23c
00000250: 61d3 e33b 01f9 933d 26c1 a83b d54f 0abc
00000260: d1f8 92bc 9353 7cba 8d58 38bd 9e3d 6d3c
00000270: d196 2cbb d148 7bbc 57e7 04bd 9374 1fbd
00000280: 4d74 93bc 7576 b1bc 46c6 393c f487 6abd
00000290: 4c04 823b 3c32 51bc 3233 bbbc b695 16bd
000002a0: c1c1 8fbc b06c a03c 99d7 8a3c 1464 163c
000002b0: 369b 803b ed8e ac3c 13d0 393c dcd6 02bc
000002c0: 6b25 e83c cb0d e23c d460 073c 82cf f3bb
000002d0: dad0 043d 02c4 cebc 577a c83c bdd7 abbb
000002e0: 32f8 ce3b cd12 bd3c 878f 983c eec3 bbbc
000002f0: a8e5 8dbc f988 15bd b33a c6bc 2802 d5bb
00000300: e0f1 7d3b 75dd 93b9 00a3 bf3b 1770 d83b
00000310: d5cc ec3c fada 95bb eadb f2bb 5bfc 083d
00000320: d62d a03d ee3b 783d 352f 913d 0d41 763d
00000330: 55ec a83d 4d88 813d 6167 253d 453d 4d3d
00000340: 999a 283d 3f1c 893d e2c8 8f3d 8253 363d
00000350: bff8 5d3d 9239 453d 55cc 9b3d 9012 833d
00000360: 70be 1b3d 645f 473d 3ce3 3b3d 5b03 993d
00000370: 19f8 a13d a68a 633d 4a31 8b3d d703 903d
00000380: d6ad ca3d 68b8 2abc c3f1 cabc f433 873c
00000390: f227 2a3a 7153 c0bb bcd0 fe3c 2139 0fbd
000003a0: 819c e6bc 3b1f a8bc 22aa 503d e4d3 0dbd
000003b0: c0d1 b03c f457 a1bc cdb3 bfbc d5f1 1a3d
000003c0: 02ba bd3b 4801 dc3c 9fb7 24bd 5768 3b3d
000003d0: 77d7 203b 27cd 7a3c 1ae4 94bc d077 4d3c
000003e0: b718 0c3d d96d 973d c9f4 bfbb 7c6b ebbc
000003f0: 257f 1bbd 317f b9bc 28f9 60bd d070 5ebd
0.019508481 0.037591003 0.047410395 0.019764248 0.018499821 0.012400627 0.010696089 0.028287835
-0.020486582 0.025324002 0.031781945 -0.01909669 0.008089956 0.019720264 0.015498588 0.03724252
-0.010410148 0.009003555 -0.010159297 0.015815977 -0.021685202 0.023355521 -0.012793553 0.044673376
0.04785603 0.040368654 0.021339407 0.03978978 0.013130438 0.03452172 0.006309024 0.034366067
-0.009217194 0.03420491 -0.012192249 0.00024247378 0.0036513754 0.022102665 0.020595772 -0.021970013
-0.010658325 -0.00018038262 0.034145433 -0.03126977 -0.0074300896 0.035121553 -0.030385254 0.0029223217
0.031865146 -0.0019559702 0.080746286 0.056620717 0.06307849 0.041971724 0.06482496 0.04396408
0.008359822 0.036208224 0.0056601083 0.043874517 0.03649967 0.013971425 0.07048913 0.010131776
0.043427236 0.03832304 0.024996875 0.015470065 0.010968701 0.022156896 0.051088594 0.019280596
0.06452885 0.06970205 0.100379914 -0.034231376 -0.010548745 0.020736877 0.014950286 -0.0016060263
-0.0047589745 -0.036342442 0.015334329 -0.030816138 0.014379727 0.020981727 -0.014327027 0.0051156036
-0.015844231 -0.026580693 0.007332515 -0.02183698 -0.034781408 0.023298193 0.014526752 -0.058083154
-0.023930177 0.028411455 -0.05807363 0.004965332 0.0728431 0.060840122 0.0540261 0.1034136
0.04377506 0.051617876 0.040024772 0.030528085 0.07575852 0.030878067 0.06319219 0.055257652
0.051471792 0.09194741 0.046032522 0.058769334 0.046457272 0.039558444 0.08223526 0.026598401
0.07069134 0.060425404 0.051161826 0.09974532 0.019949201 0.016780602 -0.020066699 0.008375266
-0.011515327 0.023779461 0.027084013 0.026809342 0.026214799 -0.027318623 0.020412127 0.014230449
0.05833249 0.019362032 0.020634906 -0.0021435574 0.05004176 0.034877375 0.008269184 0.012010041
0.052843165 0.059550148 0.031982753 0.027684135 0.0069526886 0.07225228 0.005149978 -0.008441885
-0.01794091 -0.00096254906 -0.045006324 0.014480023 -0.002633501 -0.015337185 -0.032447185 -0.038929533
-0.017999792 -0.02166293 0.011338776 -0.05725856 0.0039677974 -0.012768324 -0.02285156 -0.03676387
-0.017548444 0.019583076 0.016948508 0.009179134 0.0039247526 0.021064246 0.011341113 -0.007985797
0.028338155 0.027594468 0.008262832 -0.0074405083 0.03242574 -0.025239948 0.024472399 -0.005244224
0.0063162083 0.023080254 0.018623127 -0.022920575 -0.017321423 -0.03650758 -0.024197912 -0.006500501
0.0038748905 -0.00028203023 0.0058482885 0.006605159 0.028906265 -0.004573223 -0.0074114697 0.03344379
0.078212425 0.06060403 0.07089082 0.06012063 0.08248202 0.063248254 0.040381793 0.05010726
0.04116306 0.06694841 0.07020737 0.044513233 0.0541923 0.048150606 0.076073326 0.06400025
0.038023412 0.048674956 0.045871004 0.07471343 0.07908649 0.055552147 0.067965105 0.070319824
0.09896438 -0.010419942 -0.024773484 0.016504265 0.00064909377 -0.005869322 0.031105392 -0.03496659
-0.028150799 -0.020522704 0.0509435 -0.034625903 0.021584392 -0.01969526 -0.023401165 0.037828285
0.005789996 0.02685608 -0.040214177 0.045753803 0.002454249 0.015307701 -0.018175174 0.012540773
0.034203257 0.07393999 -0.005858038 -0.028737776 -0.03796305 -0.022643657 -0.054925114 -0.054306805

conv4.bias f4 [2]
00000000: a3fb 11be 94de 183e
-0.14256148 0.14928657
