weights/Boxhill.model.weights.pt (torch, 77959 bytes, 30 tensors)

conv1a.weight f4 [16, 3, 3, 3]
0	0xbd9aae2b	-0.07552751
1	0x3aefe70f	0.0018303114
2	0x3e0703ce	0.13185045
3	0x3e0b3bbf	0.1359701
4	0x3dfbd6c0	0.1229682
5	0xbdc7025c	-0.09717247
6	0xbe2f1065	-0.17096098
7	0xbdee2d20	-0.11629701
8	0x3d5f225e	0.054476134
9	0x3dfe114b	0.12405642
10	0xbd05fc54	-0.032711342
11	0xbd1a439d	-0.037662137
12	0xbb38b2a8	-0.002818266
13	0x3e031e30	0.12804484
14	0x3e354024	0.17700249
15	0x3e03e87c	0.12881655
16	0xbcae548d	-0.021280551
17	0xbd8a99a8	-0.06767589
18	0xbe2d6304	-0.16932303
19	0xbe01ef8e	-0.12689039
20	0xbe01e30c	-0.12684268
21	0x3e189c3b	0.14903347
22	0xbdb8e681	-0.0902834
23	0x3e2d4c9e	0.16923758
24	0x3ddb94cd	0.10721741
25	0x3de8c9ff	0.11366653
26	0xbc9c9131	-0.019112201
27	0xbdcf44dd	-0.101205565
28	0x3e21d705	0.1580468
29	0xbdbd6541	-0.09247828
30	0x3da5d11e	0.080965266
31	0x3e16f1b2	0.14740637
32	0x3d933290	0.071873784
33	0xbb2342c7	-0.0024911629
34	0xbda222a8	-0.079167664
35	0xbc99ff29	-0.018798428
36	0xbdd6ded8	-0.10491723
37	0xbe2fb4a4	-0.17158753
38	0x3d00a0cf	0.03140336
39	0xbd159096	-0.03651484
40	0xbe00e070	-0.12585616
41	0x3da6dbd5	0.081473984
42	0x3ba8b6de	0.0051487526
43	0xbdc38259	-0.09546346
44	0x3dc4c856	0.096085235
45	0x3db32db4	0.087489516
46	0x3ca46e61	0.020072164
47	0xbe20b02f	-0.15692209
48	0x3ca55d2a	0.020186026
49	0x3d7baebd	0.06144594
50	0x3e267bc2	0.16258147
51	0x3e033e43	0.1281672
52	0xbdae4f2b	-0.08511194
53	0xbe15a3a8	-0.14613211
54	0xbb85e4ee	-0.0040861284
55	0xbe25cad5	-0.16190656
56	0xbe28de80	-0.16491127
57	0x3e33ce12	0.17559078
58	0x3dad78c5	0.084703006
59	0x3e46c9ff	0.19412993
60	0x3e07acdf	0.13249539
61	0xbd5f08a9	-0.05445162
62	0x3e249ba3	0.16074996
63	0x3e10b7da	0.14132634
64	0x3ddcc2c0	0.10779333
65	0x3dd57422	0.10422541
66	0x3dc279b1	0.09495867
67	0xbdbd721f	-0.092502825
68	0xbe2e6ec7	-0.17034446
69	0x3db25927	0.08708411
70	0xbcbc077e	-0.022952791
71	0xbd1eb806	-0.038749717
72	0x3cc1b97c	0.023648016
73	0xbdca22ce	-0.0986992
74	0xbc9d7cad	-0.01922449
75	0xbe51ea10	-0.20499444
76	0x3e271d00	0.16319656
77	0xbc05a382	-0.008156659
78	0x3b910bd8	0.0044264607
79	0xbe205547	-0.1565753
80	0xbe1d6257	-0.15369545
81	0xbe06d006	-0.13165292
82	0xbda5998f	-0.080859296
83	0x3bcdd759	0.006281775
84	0x3d3681d7	0.04455742
85	0x3d993fbe	0.07482861
86	0x3d040433	0.032230567
87	0xbe363fb4	-0.17797738
88	0xbe45b949	-0.19308962
89	0xbdeb2fbb	-0.11483713
90	0x3e196159	0.14978541
91	0x3d58750c	0.052846
92	0x3e1b69ad	0.15177031
93	0x3d95ea9f	0.07320141
94	0x3e0f5134	0.1399582
95	0xbe12dc70	-0.14341903
96	0xbe24f285	-0.16108139
97	0xbe276c44	-0.16349894
98	0x3e0955a1	0.13411571
99	0x3e02d379	0.12775983
100	0x3de12824	0.10993984
101	0x3e0cf4aa	0.13765207
102	0xbd91cc53	-0.0711905
103	0xbe15549f	-0.14583062
104	0x3dd7e157	0.10541027
105	0x3d19e9d7	0.037576523
106	0x3e3d5d4e	0.18492624
107	0xbd8f915c	-0.07010147
108	0xbd4fe2b2	-0.050753303
109	0x3e192f55	0.14959462
110	0x3b678c80	0.0035331547
111	0xbdc473c9	-0.09592397
112	0xbd50f9f0	-0.05101961
113	0xbcb5fbb7	-0.022214754
114	0xbe11c3de	-0.14234874
115	0xbe1c5640	-0.15267277
116	0x3daacbdf	0.083396666
117	0xbd36e878	-0.044655293
118	0x3d73e98f	0.05954891
119	0xbe1126bf	-0.14174937
120	0x3dcc186a	0.09965594
121	0xbd3603af	-0.044437107
122	0x3dbeb60e	0.09312068
123	0xbe37ca0e	-0.17948171
124	0x3db0e025	0.08636502
125	0x3e0ed25e	0.13947436
126	0xbda4941c	-0.08036062
127	0xbdf66363	-0.12030675
128	0x3e278334	0.16358644
129	0xbe25b2a5	-0.16181429
130	0xbe17be38	-0.14818656
131	0x3e1fdaa4	0.15610749
132	0x3e2f3c93	0.17112951
133	0xbe33ae32	-0.17546919
134	0xbd93128e	-0.071812734
135	0x3da8a9da	0.082355216
136	0x3e358c1e	0.17729232
137	0xbd600936	-0.054696284
138	0xbd3179e7	-0.043329146
139	0x3d2390e6	0.039933108
140	0x3d76b90f	0.06023508
141	0xbd6e0ffa	-0.058120705
142	0xbe030aba	-0.1279706
143	0x3e31f05a	0.17376843
144	0x3e1aae19	0.15105475
145	0x3d881686	0.06644921
146	0xbe32ae1a	-0.17449227
147	0x3dafe02b	0.085876785
148	0xbdd84212	-0.10559477
149	0x3dcb2aa5	0.09920243
150	0x3b89c239	0.0042040613
151	0xbe1edea2	-0.15514615
152	0xbe401d85	-0.18761261
153	0xbc9a96d3	-0.018870747
154	0xbdf74df7	-0.120754175
155	0x3e06eb6b	0.13175742
156	0x3c3d5c9d	0.011557725
157	0xbdeb84ac	-0.114999145
158	0x3dd809dc	0.105487555
159	0x3d462db3	0.048383426
160	0x3e292129	0.16516556
161	0x3d9408b6	0.07228224
162	0x3de295a8	0.11063701
163	0xbc6d6f8a	-0.014491925
164	0xbca4a74a	-0.0200993
165	0xbe376f56	-0.17913565
166	0x3dc3ee9f	0.09566998
167	0xbdc899b6	-0.09794943
168	0xbe0f7c2a	-0.14012209
169	0x3d63ca53	0.055612873
170	0x3c843dc2	0.01614273
171	0x3caa4665	0.02078552
172	0xbe15859e	-0.14601752
173	0xbe10121e	-0.14069411
174	0x3d6b5b5b	0.05746017
175	0xbe32d233	-0.17462997
176	0xbe1736b1	-0.14766957
177	0x3e0df297	0.13862072
178	0xbd9d63e3	-0.076850675
179	0xbe29f65c	-0.16597885
180	0x3e1b74e0	0.15181303
181	0xbd4e3b7f	-0.05034971
182	0x3d33e93b	0.043923598
183	0xbd993d30	-0.07482374
184	0xbd43ff25	-0.047850747
185	0x3df81b4f	0.12114584
186	0x3ddecedf	0.10879301
187	0x3db8859e	0.090098605
188	0xbd9988c0	-0.07496786
189	0xbca5f630	-0.020258993
190	0x3dc7307d	0.09726045
191	0x3da73206	0.08163838
192	0xbde4bf95	-0.11169354
193	0x3d0203c9	0.03174189
194	0x3df92617	0.12165468
195	0xbcec9fc9	-0.028884785
196	0x3c4ecd6b	0.012622218
197	0xbd995242	-0.074863926
198	0xbe2bd6f4	-0.16781217
199	0xbd414880	-0.047188282
200	0xbcd19dec	-0.025587998
201	0x3e1a5557	0.15071617
202	0xbd8fcc1a	-0.07021351
203	0x3e281b5a	0.16416684
204	0xbe0a777e	-0.13522145
205	0xbb3c0b7b	-0.0028693366
206	0x3cc2fbb2	0.023801658
207	0x3e347ff2	0.17626932
208	0x3e2fe595	0.17177422
209	0x3d408516	0.04700192
210	0xbddb0994	-0.10695186
211	0xbe2fd450	-0.17170835
212	0x3e02b977	0.12766062
213	0x3cebb158	0.028771088
214	0x3e1e8c59	0.15483226
215	0x3e267129	0.16254105
216	0x3df30199	0.11865539
217	0xbdab3c5c	-0.08361122
218	0x3e07258b	0.13197915
219	0xbd93fbe2	-0.07225777
220	0x3d314501	0.043278698
221	0xbe3c3c16	-0.18382296
222	0x3d78cfa4	0.060744897
223	0x3df0ac3e	0.117516026
224	0x3e40df51	0.18835188
225	0x3d9e63da	0.07733889
226	0x3da0daf6	0.078542635
227	0xbc403128	-0.01173047
228	0xbe0cc30e	-0.13746282
229	0x3e42a876	0.19009575
230	0x3d48c368	0.04901448
231	0xbdfd9346	-0.12381606
232	0xbded246b	-0.11579212
233	0xbe150289	-0.14551748
234	0x3e24195f	0.16025303
235	0xbdc1e05f	-0.094666235
236	0xbda965e2	-0.08271386
237	0xbd1ed7f5	-0.03878017
238	0x3cb369b5	0.021900991
239	0x3cfe6700	0.031054974
240	0xbe115e9a	-0.14196244
241	0xbe2499b9	-0.16074266
242	0xbd17b09a	-0.037033655
243	0x3df7256d	0.12067685
244	0x3c5d67a7	0.013513482
245	0x3e03d3aa	0.12873712
246	0x3d8f099d	0.069842555
247	0x3ddb0772	0.106947795
248	0x3d0dbb26	0.034602307
249	0xbd3b3245	-0.045702238
250	0xbe05f383	-0.13081174
251	0xbd81d229	-0.06338913
252	0xbda0e929	-0.07856972
253	0xbd0474d7	-0.03233799
254	0x3e155c40	0.14585972
255	0xbe18955d	-0.14900728

conv1a.bias f4 [16]
0	0xbcfc8553	-0.030825293
1	0xbc85866d	-0.01629945
2	0xbb8f9406	-0.0043816594
3	0x3d385587	0.04500344
4	0x3d07cdd1	0.033155266
5	0x3cedd017	0.029029889
6	0xbc5ee939	-0.013605409
7	0x340142bd	1.203834e-07
8	0x3d299666	0.041403197
9	0xb25a792b	-1.27168205e-08
10	0xb330bc55	-4.114948e-08
11	0xb0955ed4	-1.0868129e-09
12	0x37fa6cac	2.9852927e-05
13	0xb9a5d1f5	-0.00031627683
14	0xb8b9f17b	-8.866467e-05
15	0xba5572d9	-0.0008142419

bn1a.weight f4 [16]
0	0x3f74e435	0.95660716
1	0x3f79e70d	0.9761818
2	0x3f798696	0.97470987
3	0x3f771d51	0.9652911
4	0x3f76b88a	0.96375334
5	0x3f7a5ef4	0.97801137
6	0x3f7ae299	0.9800201
7	0x3f7cb977	0.98720497
8	0x3f7b1715	0.98082095
9	0x3f7dfd79	0.99214894
10	0x3f7b0972	0.9806129
11	0x3f75b7e5	0.95983726
12	0x3f7ffbf3	0.9999382
13	0x3f7bb139	0.98317295
14	0x3f7633dc	0.9617288
15	0x3f7e9956	0.9945272

bn1a.bias f4 [16]
0	0x3c905aa1	0.01762134
1	0xbb6bf5c1	-0.0036004635
2	0xbc8e4c5f	-0.017370401
3	0x3d880760	0.06642032
4	0xbca7bc48	-0.020475522
5	0x3b3090e0	0.002694182
6	0xbca37f26	-0.01995809
7	0xba0ede11	-0.00054499606
8	0xbc0b799c	-0.008512881
9	0xba3d2309	-0.00072149985
10	0x3cc3ec9e	0.023916539
11	0xbd3a1be6	-0.045436762
12	0x3c3d8f95	0.011569877
13	0xbc073062	-0.008251281
14	0xbcdf43bb	-0.027253976
15	0x3d0c2723	0.03421701

bn1a.running_mean f4 [16]
0	0x420f4797	35.819912
1	0xc0d4b240	-6.646759
2	0x4145b4ce	12.356642
3	0x411b2525	9.6965685
4	0xc2269d31	-41.653507
5	0x41d5c22b	26.719809
6	0xc247a40c	-49.910202
7	0x424af270	50.736755
8	0xc15fa557	-13.977866
9	0x42a65c21	83.17994
10	0x40a23b2a	5.069722
11	0xc2422e7a	-48.545387
12	0x4083bef8	4.1170616
13	0xc225fe38	-41.49826
14	0xc208e5cd	-34.224415
15	0xbfc5fe8c	-1.5468307

bn1a.running_var f4 [16]
0	0x4401d036	519.2533
1	0x4295046e	74.50865
2	0x431dd66e	157.83762
3	0x439f28cf	318.31882
4	0x4456868b	858.10223
5	0x43a522a5	330.27066
6	0x44663ce5	920.9515
7	0x4491bec6	1165.9617
8	0x434f407e	207.25192
9	0x4521d1c9	2589.1116
10	0x43912625	290.298
11	0x44829a37	1044.8192
12	0x4244427c	49.064926
13	0x44301088	704.2583
14	0x442a26ad	680.6043
15	0x4298a8e0	76.329834

conv1b.weight f4 [16, 3, 5, 5]
0	0x3d3208dd	0.043465484
1	0xbdd68f6e	-0.10476576
2	0xbde8d06f	-0.113678806
3	0xbd73e0e6	-0.05954065
4	0xbc25147a	-0.010075683
5	0xbdadeb09	-0.08492095
6	0xbdc3a9b4	-0.09553853
7	0x3d587abe	0.05285143
8	0x3d3154d0	0.043293774
9	0x3d7e5801	0.062095646
10	0xbdd1bade	-0.1024072
11	0xbdabfead	-0.08398185
12	0x3d930bbd	0.07179973
13	0x3da56db7	0.08077567
14	0xbdd13147	-0.10214477
15	0xbd9baac6	-0.07600932
16	0x3dbe626c	0.09296116
17	0x3caff6f7	0.021480067
18	0xbd464bfb	-0.048412304
19	0x3d1530d0	0.036423504
20	0xbdcab60e	-0.098980054
21	0x3dce0871	0.10060204
22	0x3da9d337	0.08292239
23	0xbd6a3ceb	-0.057187002
24	0x3de9e800	0.114212036
25	0xbd296b22	-0.041361935
26	0xbda0683e	-0.078323826
27	0x3cc39a0c	0.023877166
28	0xbdd2a272	-0.1028489
29	0x3d32e2b6	0.04367324
30	0xbcff1712	-0.03113893
31	0x3d43c485	0.047794838
32	0x3db8e079	0.0902719
33	0x3c632460	0.013863653
34	0xbd82b1be	-0.06381558
35	0x3d8f08d0	0.06984103
36	0x3d51eee2	0.051253207
37	0xbd9d2ecf	-0.07674944
38	0x3cb137c4	0.021633036
39	0x3df510a1	0.11966062
40	0xbc15485f	-0.009111493
41	0xbd0fbef6	-0.035094224
42	0xbc961c87	-0.01832415
43	0x3d7602d8	0.060061306
44	0x3d99bbb6	0.07506506
45	0xbd5b2298	-0.053499788
46	0xbdb828f5	-0.08992187
47	0xbcc44a8e	-0.023961332
48	0xbd1834fd	-0.03715991
49	0xbb86df53	-0.004115978
50	0xbd373a51	-0.04473335
51	0x3c512f01	0.012767554
52	0xbc5d6cf6	-0.013514748
53	0xbc39bb1e	-0.011336116
54	0xbdc07c81	-0.09398747
55	0x3dc567a4	0.096389085
56	0xbda2a405	-0.079414405
57	0x3dd299c5	0.102832355
58	0x3b2c0670	0.0026248954
59	0xbb9231da	-0.004461509
60	0xbd81fd05	-0.06347088
61	0xbd6dbe19	-0.05804262
62	0x3c8170e2	0.015800897
63	0xbc40ba4f	-0.011763169
64	0xbd70ca1d	-0.0587865
65	0x3d8db936	0.06920092
66	0x3db04658	0.08607167
67	0x3dd64554	0.10462442
68	0xbd8f467b	-0.06995865
69	0x3d822aa4	0.06355789
70	0xbd2725e8	-0.040807635
71	0x3cffc894	0.031223573
72	0xbde2429c	-0.11047861
73	0xbd898794	-0.067153126
74	0xbd5db26f	-0.054125246
75	0x3ca20dff	0.019782064
76	0x3d3d893f	0.046273466
77	0x3d4cdfd9	0.050018165
78	0xbc1a45ce	-0.009416057
79	0xbcf1a09c	-0.02949553
80	0xbe015e11	-0.1263354
81	0x3da95e33	0.0826992
82	0xbc771c9e	-0.015082506
83	0xbb3a3ed6	-0.00284188
84	0xbdacb2e1	-0.08432556
85	0xbdb4f9b8	-0.088366926
86	0x3d601482	0.054707058
87	0x3dcd392d	0.10020671
88	0xbdaea49f	-0.08527493
89	0xba3dea35	-0.00072446774
90	0x3c2e325f	0.010632127
91	0xbdb8af62	-0.090178266
92	0x3d7e5a6d	0.062097955
93	0xbdd0b00d	-0.10189829
94	0x3dbb5b47	0.09148269
95	0xbd4a1d81	-0.049344543
96	0xbdd46d00	-0.103723526
97	0xbd9e4cf6	-0.07729523
98	0x3d51cb23	0.051219117
99	0x3c864012	0.016387973
100	0x3d68b8f3	0.056817006
101	0xbd905029	-0.07046539
102	0xbd10d89a	-0.035362817
103	0x3c81844c	0.015810154
104	0xbb6a9654	-0.003579517
105	0x3cb0499a	0.021519471
106	0xbd878eeb	-0.06619056
107	0xbd472922	-0.04862321
108	0x3cb1d4ce	0.021707918
109	0x3dacabec	0.08431229
110	0xbdf7fb9a	-0.12108536
111	0x3d51bd4a	0.05120591
112	0x3d808dd4	0.062770516
113	0x3dbd1893	0.09233203
114	0x3d426cf5	0.04746719
115	0xbde3e303	-0.111272834
116	0xbd58bb05	-0.05291273
117	0x3daf0f9e	0.085479006
118	0xbdece2f8	-0.11566728
119	0xbdb34131	-0.08752669
120	0x3d08639e	0.033298127
121	0xbddd81ce	-0.10815774
122	0xbdae6c49	-0.085167475
123	0x3d8bb0d2	0.06820835
124	0xbd1c2468	-0.038120657
125	0xbd3cfd93	-0.046140265
126	0xbd8d8a79	-0.06911177
127	0xbceb3f38	-0.028716668
128	0x3cd472fc	0.025933735
129	0x3dc1f9ab	0.094714485
130	0xbd5f9597	-0.05458602
131	0x3cd95165	0.02652807
132	0x3d881565	0.06644706
133	0xbbcb27fb	-0.0061998344
134	0xbd914330	-0.07092893
135	0xbda7a784	-0.08186248
136	0xbdd91cf6	-0.10601227
137	0x3c9f19d9	0.019421505
138	0x3cde4a1d	0.02713495
139	0x3d3258bc	0.043541655
140	0xbd2abd79	-0.0416846
141	0x3dca98ab	0.098924
142	0x3de35da6	0.111018464
143	0xbb2ba742	-0.0026192223
144	0x3d6cf4cd	0.057850648
145	0x3cf480f5	0.029846648
146	0x3bc7518c	0.006082719
147	0xbcea3ae2	-0.02859253
148	0x3db3aabf	0.087728016
149	0x3ce44726	0.027865957
150	0xbba08f87	-0.0048999223
151	0x3b7c733f	0.003852084
152	0x3cb53bf2	0.02212331
153	0xbd6ad176	-0.057328664
154	0xbdcebc5a	-0.10094519
155	0x3caf4052	0.021392975
156	0x3da1a7ee	0.07893358
157	0xbdcd4e65	-0.10024718
158	0x3ce2e33a	0.02769624
159	0xbdea57b7	-0.114425115
160	0xbc2d1b4d	-0.010565591
161	0xb8c16848	-9.222381e-05
162	0x3d560dcc	0.05225925
163	0x3cc30e51	0.023810538
164	0x3d52286c	0.05130808
165	0x3c7888f8	0.015169375
166	0x3d0f501a	0.0349885
167	0x3d191207	0.037370708
168	0x3b8b93f5	0.004259581
169	0x3cb0eb52	0.021596584
170	0x3bbc6b5b	0.0057501025
171	0xbdc88837	-0.09791606
172	0x3bcd830e	0.0062717265
173	0xbd4879e5	-0.048944373
174	0xbd3bb3fb	-0.04582594
175	0xbd7c4afe	-0.061594956
176	0xbd7e2da2	-0.062055238
177	0x3daec15a	0.08532973
178	0x3d62fbcc	0.055415913
179	0x3d58075d	0.052741397
180	0xbd13fca1	-0.036129598
181	0x3df1db75	0.11809436
182	0x3d82a273	0.06378641
183	0xbabf8e86	-0.0014614619
184	0x3d88a561	0.066721685
185	0xbd37c011	-0.044860903
186	0x3ba915f3	0.0051600873
187	0xbd2914c4	-0.04127957
188	0x3acebaea	0.0015772257
189	0x3c7d6e66	0.015468216
190	0xbc7a00b0	-0.015258953
191	0x3ca7deb9	0.020491945
192	0x3dca1ecd	0.09869156
193	0x3dcda490	0.100411534
194	0x3de60f41	0.11233378
195	0xbb9ef071	-0.00485044
196	0x3da493e8	0.080360234
197	0x3dbd85ba	0.09254022
198	0x3cf7f62e	0.030268755
199	0x3db8849e	0.0900967
200	0x3e0caa22	0.13736776
201	0xbd1d307b	-0.038376313
202	0xbd883e2f	-0.066524856
203	0xbaa859d6	-0.0012844156
204	0xbc0b69ca	-0.008509109
205	0xbd2bbaf9	-0.041926358
206	0x3d03c0ca	0.03216628
207	0x3d2432d2	0.04008753
208	0x3d8b5fdd	0.06805394
209	0x3d884c81	0.06655217
210	0x3d7c1d98	0.06155166
211	0xbd3d82d5	-0.04626735
212	0xbdbbbbe5	-0.091666974
213	0xbdd0e980	-0.102007866
214	0xbdd6859b	-0.10474702
215	0x3d9f3fa8	0.07775813
216	0x3d911c41	0.07085467
217	0x3cf3148f	0.029672889
218	0xbba0c70f	-0.004906542
219	0xbdc9ebb2	-0.098594084
220	0x3d423997	0.047418203
221	0x3d508461	0.050907496
222	0xbcfd64e7	-0.030931903
223	0x3d1b5e0d	0.03793149
224	0x3db64a0d	0.08900843
225	0x3debff5e	0.11523317
226	0xbcf4dbde	-0.029889997
227	0x3db9d85a	0.09074469
228	0x3dfa35d1	0.12217296
229	0x3da4b354	0.080420166
230	0x3cc4280a	0.023944873
231	0xbd7dd424	-0.06196989
232	0x3d4344d3	0.047673058
233	0x3dbc3021	0.09188867
234	0x3bfe6e38	0.007764604
235	0x3c31f7f4	0.010862339
236	0x3d2240f5	0.03961273
237	0xbdd17a77	-0.102284364
238	0x3d1a7071	0.03770489
239	0x3cceea5f	0.025258241
240	0x3df7319c	0.12070009
241	0x3d8c5597	0.068522625
242	0x3cae3b66	0.021268558
243	0xbd5dc082	-0.054138668
244	0xbcac80d5	-0.021057526
245	0xbcb685f7	-0.022280676
246	0xbcbfc036	-0.023407083
247	0xbd901734	-0.07035676
248	0x3c422f59	0.011852109
249	0xbd32b597	-0.04363021
250	0x3e05abef	0.13053869
251	0xbd87078d	-0.06593237
252	0x3cb91a25	0.022595474
253	0xbcbd5bae	-0.023115005
254	0x3e036f01	0.12835313
255	0x3c319894	0.0108396

conv1b.bias f4 [16]
0	0xb16f0066	-3.4779304e-09
1	0x35d0005f	1.5497316e-06
2	0xbbd20878	-0.006409701
3	0x3bbc9ad5	0.005755762
4	0xb7f8e640	-2.9671122e-05
5	0x3436ad15	1.7013038e-07
6	0xb38ad466	-6.464761e-08
7	0x321485b4	8.645134e-09
8	0x3913bcc3	0.00014089332
9	0xb4ac609e	-3.2107795e-07
10	0x3c118c0f	0.00888349
11	0xb18c0f87	-4.0763015e-09
12	0x385421a3	5.0576065e-05
13	0x3b73fde5	0.003723019
14	0xaf9adac1	-2.816787e-10
15	0xb675e788	-3.6642614e-06

bn1b.weight f4 [16]
0	0x3f744328	0.9541497
1	0x3f76d560	0.96419334
2	0x3f73c605	0.9522403
3	0x3f7501e6	0.9570602
4	0x3f76a91d	0.96351796
5	0x3f7ad9f2	0.9798881
6	0x3f6da678	0.92832136
7	0x3f6f7931	0.935443
8	0x3f75f60e	0.96078575
9	0x3f6b226e	0.9184941
10	0x3f7caf81	0.987053
11	0x3f6bb249	0.92068917
12	0x3f754946	0.9581493
13	0x3f7bb4d8	0.9832282
14	0x3f764752	0.96202576
15	0x3f70aacb	0.9401061

bn1b.bias f4 [16]
0	0xbb51ca27	-0.0032011361
1	0xbcb35488	-0.021890894
2	0x3d242834	0.040077403
3	0x3c04dbd4	0.008109052
4	0x3931ecbc	0.00016968226
5	0xbbdf78ec	-0.006819835
6	0xbb4059ae	-0.0029350328
7	0xbb18cc1a	-0.0023315013
8	0xbb0b194e	-0.00212248
9	0xbd06e8d9	-0.032936905
10	0x3bc7914b	0.0060903183
11	0x3b9bd7c3	0.0047559454
12	0x3cd5d221	0.026101174
13	0xbc50d36c	-0.012745719
14	0xbcf13b00	-0.029447079
15	0xbc4732e2	-0.0121581275

bn1b.running_mean f4 [16]
0	0xc223834b	-40.878216
1	0xc20cff0d	-35.249073
2	0x42936101	73.68946
3	0x429b4827	77.64092
4	0x40df279b	6.9735847
5	0x4256f9d9	53.74399
6	0xbf1ca32f	-0.611865
7	0x4294723b	74.22311
8	0xc13b009c	-11.687649
9	0xc12f9370	-10.9734955
10	0x4276a825	61.664204
11	0xc081a3df	-4.051254
12	0x41fe1372	31.759495
13	0xc2214448	-40.31668
14	0xc22faaea	-43.91691
15	0xc190fd6a	-18.123737

bn1b.running_var f4 [16]
0	0x4450fd34	835.9563
1	0x445f7b90	893.93066
2	0x44cde7f4	1647.2485
3	0x44fe070e	2032.2205
4	0x43d1365f	418.42477
5	0x449c075c	1248.23
6	0x438be147	279.75998
7	0x44e5a1ac	1837.0522
8	0x4383eee1	263.86624
9	0x439cef07	313.8674
10	0x44a991bb	1356.5541
11	0x4392a896	293.31708
12	0x4411ad35	582.70636
13	0x44320b7e	712.17957
14	0x447f3803	1020.8752
15	0x43cd29ed	410.32755

conv2.weight f4 [32, 32, 3, 3]
0	0x3cfb7ec7	0.0307001
1	0xbd5e8cbe	-0.05433344
2	0x3d6799c8	0.05654314
3	0xbd47c055	-0.048767406
4	0xbd105c58	-0.035244316
5	0x3d560703	0.05225278
6	0x3bf0716f	0.007337741
7	0xbd3ebe6e	-0.046568327
8	0xbc637984	-0.013883952
9	0x3cc33d05	0.023832807
10	0xbd0a5891	-0.03377587
11	0x3d16e26c	0.036837026
12	0xbd31d6b3	-0.043417644
13	0x3a139883	0.0005630331
14	0xbba78fd3	-0.0051135807
15	0xbd7d6f5a	-0.06187377
16	0x3ceb343d	0.028711433
17	0xbd2f069d	-0.042730916
18	0x3c08a1f3	0.008339393
19	0xbd062036	-0.032745562
20	0x3b3c903f	0.00287725
21	0xbbfaa618	-0.0076491944
22	0x3d0acffd	0.03388976
23	0xbd1b28c1	-0.037880663
24	0xbc26f376	-0.010189882
25	0xbd42233e	-0.04739689
26	0x3ce582ce	0.028016474
27	0xbd1538d2	-0.03643114
28	0x3d141555	0.036153156
29	0x3d1b4ea6	0.037916802
30	0xbcc7d89d	-0.024395281
31	0xbd0c2b21	-0.03422082
32	0xbc322e8b	-0.0108753545
33	0xbd40a02a	-0.047027744
34	0x3cfd992e	0.03095683
35	0xbd172f12	-0.036910124
36	0x3beb5bf6	0.0071825935
37	0x3b843e1b	0.004035724
38	0x3d2ea398	0.042636484
39	0xbc848750	-0.016177803
40	0x3d603d3b	0.054745894
41	0x3d64b3d6	0.055835567
42	0x3c4600e7	0.012085176
43	0x3a94ea88	0.00113614
44	0xbcc60897	-0.024174018
45	0xbce9ad59	-0.028525041
46	0x3cd193ae	0.025583114
47	0xbd6d1a89	-0.057886634
48	0xbda015e4	-0.07816675
49	0xbabc7c92	-0.0014380387
50	0x3c88b964	0.016689964
51	0xbc7deb26	-0.015497958
52	0x3c5cfbf4	0.013487805
53	0xbd1c8a74	-0.038217977
54	0xbd1a5890	-0.037682116
55	0xbccabc5d	-0.024748022
56	0x3d06f658	0.032949775
57	0xbd1f5150	-0.038895905
58	0x3cf30783	0.029666668
59	0xbcf5f98c	-0.03002622
60	0x3d25817b	0.040406685
61	0xbc970b64	-0.018438049
62	0xbcd58e21	-0.026068749
63	0xbb08cb63	-0.002087318
64	0xbc48bfc3	-0.012252751
65	0xbcb5844f	-0.022157816
66	0xbba7c489	-0.0051198644
67	0xbd25185e	-0.04030644
68	0xbc0bf74b	-0.008542846
69	0x3c29e81d	0.0103702815
70	0xba8dccc9	-0.0010818477
71	0x3d3fc71a	0.046820737
72	0xbd7529ce	-0.05985432
73	0x3d1b4edc	0.037917003
74	0xbc197569	-0.009366372
75	0xbd26e5ba	-0.040746428
76	0x3d21f561	0.039540652
77	0xbcf7bf61	-0.030242624
78	0x3cd4009f	0.025879202
79	0x3c65456e	0.013993604
80	0xbd270890	-0.04077965
81	0xbca4ce57	-0.020117922
82	0x3ce3f603	0.027827268
83	0x3ccd90ba	0.025093425
84	0xbd7caed5	-0.06169017
85	0xbc425843	-0.011861864
86	0xbcadb49f	-0.02120429
87	0xbd627d0f	-0.055295046
88	0xbd19345e	-0.037403457
89	0xbbf8c6b7	-0.007592048
90	0x3a83959e	0.0010039096
91	0xbcc0b015	-0.023521462
92	0xbc91e3e3	-0.01780886
93	0xbc07301b	-0.008251215
94	0x3c2a84bb	0.010407622
95	0x3d8326e1	0.064039
96	0x3d09690c	0.033547446
97	0xbd00d96c	-0.03145735
98	0xbd38a84d	-0.04508238
99	0x3d1eee09	0.038801227
100	0xbd3f4dcd	-0.046705056
101	0xbd232d5e	-0.039838187
102	0xbd221cdc	-0.039578304
103	0xbd006a52	-0.031351395
104	0x3b0ebf10	0.0021781363
105	0x3c8ee56d	0.017443383
106	0x3b0e1530	0.002168011
107	0x3c43bcbe	0.011946855
108	0x3d0d7cde	0.03454291
109	0x3c2ccf85	0.010547523
110	0xbcd593cc	-0.026071452
111	0x3c17cc26	0.009264981
112	0xbce8cb87	-0.028417362
113	0xbda3eb81	-0.08003903
114	0xbd751187	-0.05983117
115	0x3c4eface	0.012633039
116	0x3a43df9d	0.00074719806
117	0x3d014c01	0.031566624
118	0x3d6c29c1	0.057657007
119	0x3c925f5a	0.017867733
120	0x3b068080	0.002052337
121	0xbd2d0db2	-0.04224939
122	0x3d7f8fbe	0.062392943
123	0xbb02cb6f	-0.0019957682
124	0x3cf30407	0.029665006
125	0xbc5c212d	-0.013435644
126	0x3d40aba9	0.047038708
127	0xbd3bada5	-0.045819897
128	0xbc8de3de	-0.01732057
129	0x3d2ec027	0.04266372
130	0x3cb2f55f	0.021845518
131	0xbae03cca	-0.001710796
132	0xbcfdef86	-0.030998003
133	0x3d22ccbe	0.03974604
134	0x3c866690	0.016406327
135	0x3d581084	0.052750126
136	0xbcc3fd73	-0.023924565
137	0x3d824062	0.06359936
138	0xbc7ecc78	-0.015551679
139	0x3d4dc656	0.050237976
140	0x3d787a31	0.060663406
141	0xbd1010af	-0.03517216
142	0xba22d324	-0.0006211272
143	0x3d55c180	0.05218649
144	0x3bacb966	0.0052711247
145	0xbd7465c7	-0.059667375
146	0xbd48b7a5	-0.049003262
147	0x3b0666c9	0.0020508042
148	0x3bc0333d	0.005865483
149	0xbd6a2912	-0.057168074
150	0x3cd875a2	0.02642328
151	0xbd31b42e	-0.043384723
152	0x3cfbb575	0.030726174
153	0xbd465e92	-0.048430033
154	0x3cf08893	0.029361999
155	0x3d23c40a	0.03998188
156	0xbd7e711d	-0.062119592
157	0x3d39c2aa	0.04535166
158	0x3ce4a0f6	0.027908783
159	0x3d12c121	0.035828713
160	0xbc1d0386	-0.00958336
161	0x3c831472	0.01600096
162	0x3c19f09e	0.0093957465
163	0x3bb50683	0.005524458
164	0xbcd182ab	-0.025575003
165	0x3d0d6ef3	0.034529638
166	0xbd041dc0	-0.032254934
167	0x3c0cac17	0.008585951
168	0xbd538750	-0.051642716
169	0xbaefce57	-0.0018295747
170	0x3c836c97	0.01604299
171	0xbc860212	-0.01635841
172	0x3c994822	0.018711153
173	0x3d2858aa	0.04110018
174	0xbd165260	-0.036699653
175	0x3a72cbbd	0.0009261927
176	0xbd2bbce2	-0.04192818
177	0xbccbeb2b	-0.02489241
178	0x3d60d8c7	0.054894235
179	0x3d6653a6	0.056232117
180	0x3cffe6eb	0.03123804
181	0xbd2bf089	-0.04197744
182	0xbd4ec526	-0.050480984
183	0x3d015710	0.03157717
184	0xbd1e9081	-0.03871203
185	0x3c5a00d4	0.0133058615
186	0x3bc1b1b0	0.0059110746
187	0x3cec5fe7	0.028854324
188	0x3c8ba2e9	0.017045455
189	0x3d4aac64	0.04948081
190	0x3ba0df65	0.004909443
191	0x3c9d60df	0.01921123
192	0xbd5843fe	-0.052799217
193	0x3d1919df	0.03737819
194	0x3ce5abc8	0.028036013
195	0x3d38730b	0.04503159
196	0x3cf83288	0.030297533
197	0xbaf1ef98	-0.0018458245
198	0xbd29fd5f	-0.0415014
199	0xbd1bd5fa	-0.03804586
200	0xbd52cadb	-0.05146299
201	0x3d1d2a83	0.03837062
202	0xbd338502	-0.043828018
203	0xbd0d808a	-0.034546413
204	0x3d6c4ffb	0.057693463
205	0xbd2eb89e	-0.042656533
206	0x3ca88962	0.020573322
207	0xbb20554b	-0.00244649
208	0x3c91c394	0.017793454
209	0x3c07d539	0.008290582
210	0xbc0ca7e4	-0.00858495
211	0x3d4bbde8	0.049741656
212	0xbcef064d	-0.02917781
213	0x3cea7b53	0.028623259
214	0xbd32d9f0	-0.043664873
215	0xbd337cab	-0.043820065
216	0xbbda9d2e	-0.0066715693
217	0x3bb917e0	0.005648598
218	0x3bc25a3b	0.0059311665
219	0xbcacc413	-0.02108959
220	0xbd354670	-0.044256628
221	0x3bfd550d	0.007731086
222	0xbc08865b	-0.008332814
223	0x3ca3bd56	0.019987743
224	0xbc1f62b2	-0.009728121
225	0x3c257f95	0.010101219
226	0xbd0740ce	-0.033020787
227	0xbc980307	-0.018556131
228	0x3cb885bf	0.022524713
229	0x3d1bebb2	0.038066573
230	0x3d212759	0.039344165
231	0xbce17b44	-0.027524598
232	0x3ca14224	0.019684859
233	0xbc1df1cc	-0.009640168
234	0x3d384274	0.04498525
235	0xbb88af2e	-0.0041712737
236	0x3c992260	0.01869315
237	0xbd564641	-0.052313093
238	0x3cd2ea0e	0.025746372
239	0x3d47e3ad	0.048801113
240	0xbd4acba1	-0.049510602
241	0xbbc17a97	-0.0059045064
242	0xbd40d18b	-0.047074836
243	0x3c273d8b	0.010207544
244	0x3cec0790	0.0288122
245	0x3d034e4c	0.03205709
246	0xbc61ef29	-0.01378993
247	0xbc566a2a	-0.013086835
248	0x3c88a3e1	0.016679706
249	0x3c3ef9e1	0.011656255
250	0x3d201488	0.03908208
251	0xbc374806	-0.011186605
252	0xbc5318d1	-0.012884335
253	0x3c33bf48	0.010970898
254	0xbd636b92	-0.05552251
255	0x3cf2f410	0.029657394

conv2.bias f4 [32]
0	0x36585925	3.2238397e-06
1	0x35e0e4f1	1.6755931e-06
2	0xb676ad91	-3.6757885e-06
3	0xb62950e4	-2.5230047e-06
4	0x36f0bb83	7.1743866e-06
5	0xb385931d	-6.220055e-08
6	0x368251bc	3.883817e-06
7	0xb66d581c	-3.5367038e-06
8	0xb69f1c91	-4.741895e-06
9	0x35281f65	6.263056e-07
10	0xb4759b25	-2.2873844e-07
11	0xb42ea89f	-1.6266357e-07
12	0xb88e8731	-6.796269e-05
13	0xb6132d3b	-2.1931035e-06
14	0xb61b9b47	-2.3187183e-06
15	0xb51c773d	-5.8288043e-07
16	0xb5a8eb78	-1.2585506e-06
17	0xb5fcf2de	-1.8846147e-06
18	0x35cf3019	1.54367e-06
19	0x354f8333	7.730443e-07
20	0x354e12da	7.676841e-07
21	0x36332555	2.6694809e-06
22	0xb8dcc05f	-0.000105262494
23	0x37c9bf79	2.4050229e-05
24	0x390e0aa2	0.00013546136
25	0xb4e3c203	-4.2423207e-07
26	0x35fecfd5	1.8984962e-06
27	0xb59a912c	-1.1516145e-06
28	0x382a7f35	4.064963e-05
29	0xb4b7efe2	-3.4260944e-07
30	0xb7d37295	-2.5206517e-05
31	0xb8104f77	-3.4406283e-05

bn2.weight f4 [32]
0	0x3f72aa36	0.9479097
1	0x3f7b1d1f	0.9809131
2	0x3f7a65d2	0.97811615
3	0x3f7196ec	0.94370914
4	0x3f6b2c2c	0.91864276
5	0x3f6fd4fc	0.93684363
6	0x3f71bc21	0.94427687
7	0x3f76861b	0.9629838
8	0x3f724d16	0.94648874
9	0x3f772869	0.96546036
10	0x3f6dcedb	0.9289376
11	0x3f79f0f4	0.9763329
12	0x3f773ba0	0.96575356
13	0x3f751bc8	0.95745516
14	0x3f73b553	0.95198554
15	0x3f769d89	0.9633413
16	0x3f6f661a	0.9351517
17	0x3f7b7d9b	0.98238534
18	0x3f7199d2	0.94375336
19	0x3f770a79	0.96500355
20	0x3f7c7134	0.98610234
21	0x3f7addef	0.97994894
22	0x3f779e73	0.9672615
23	0x3f74c8b2	0.95618737
24	0x3f6ceef2	0.925521
25	0x3f7996a3	0.9749548
26	0x3f76b078	0.9636302
27	0x3f6de63e	0.92929447
28	0x3f7d7938	0.9901309
29	0x3f70f0aa	0.94117224
30	0x3f6bc02e	0.9209012
31	0x3f71b003	0.944092

bn2.bias f4 [32]
0	0xbc014cb9	-0.007891827
1	0x3c2de9c0	0.010614812
2	0xb9ee885d	-0.00045496496
3	0xbb99c3cf	-0.0046925317
4	0x3ca8d297	0.02060823
5	0x3b0fab10	0.002192203
6	0x3cb0e0c9	0.02159156
7	0x39f8287e	0.00047332415
8	0xbc20e429	-0.009820023
9	0xbc23b37c	-0.009991523
10	0x3bae91ee	0.005327455
11	0xbc616fde	-0.013759581
12	0x3b9b6982	0.004742802
13	0x3c566413	0.013085383
14	0x3c3942b9	0.011307412
15	0xbc08188d	-0.008306635
16	0x3b463bb5	0.003024799
17	0xbc1bc839	-0.009508186
18	0x3b1f2248	0.0024281908
19	0xbbeea73a	-0.0072831186
20	0xba83dfe3	-0.001006123
21	0xbbec6a9d	-0.0072148577
22	0x3a846f4f	0.0010103973
23	0x3afc9ce8	0.0019272836
24	0xbc507503	-0.01272321
25	0x3ac29792	0.0014846197
26	0x3b4fd336	0.0031711585
27	0x3c30f837	0.0108013665
28	0x3b8f1567	0.004366565
29	0xbc0fb675	-0.0087715285
30	0xbb8ea9cd	-0.004353738
31	0x39b14c42	0.00033816887

bn2.running_mean f4 [32]
0	0xbe9258ed	-0.2858347
1	0xbec7616f	-0.38941523
2	0x3f067826	0.5252708
3	0xbf046d39	-0.5172916
4	0xbee9f7ab	-0.45696768
5	0x3ef6f823	0.48236188
6	0xbed2c81c	-0.41168296
7	0x3de7b23c	0.113132924
8	0x3da10e04	0.078640014
9	0x3f1c5b03	0.6107637
10	0xbea7d936	-0.32782906
11	0xbf508c29	-0.8146387
12	0xbeeb3e34	-0.45945895
13	0x3f1c9281	0.6116105
14	0xbee8674d	-0.45391312
15	0xbe8af3de	-0.2713918
16	0xbeb3353a	-0.35001546
17	0x3eec1fe9	0.46118096
18	0xbf01e4f1	-0.5073996
19	0x3ec85b90	0.39132357
20	0xbe401bc9	-0.18760599
21	0xbe065c9d	-0.13121267
22	0xbee6ba46	-0.4506399
23	0x3eb96a48	0.362139
24	0xbe397f13	-0.18114881
25	0xbe63126e	-0.22174999
26	0xbf02cca6	-0.5109352
27	0x3ed56c0e	0.41684002
28	0xbf1da08f	-0.6157312
29	0x3bd6a32e	0.0065502143
30	0xbe5f6ae4	-0.2181812
31	0xbf0044a6	-0.5010475

bn2.running_var f4 [32]
0	0x3e1d7af9	0.15378942
1	0x3d9c0563	0.07618215
2	0x3e7007e0	0.23440504
3	0x3e213350	0.1574223
4	0x3d95efda	0.07321139
5	0x3e5f1030	0.21783519
6	0x3d944394	0.07239452
7	0x3d91b3c9	0.071143694
8	0x3dad46cc	0.08460769
9	0x3dfc4e0b	0.12319573
10	0x3e843df4	0.25828516
11	0x3e299531	0.16560818
12	0x3e0f750b	0.14009492
13	0x3de8d6ba	0.11369081
14	0x3ec99bb2	0.393766
15	0x3e0cf8af	0.1376674
16	0x3de4885d	0.11158822
17	0x3ddd4e70	0.108059764
18	0x3e009e8a	0.12560478
19	0x3e20b585	0.15694244
20	0x3e8f60f2	0.2800365
21	0x3dc9b54e	0.09849034
22	0x3e8f66f0	0.28008223
23	0x3e75679e	0.23965308
24	0x3e0c79b8	0.13718307
25	0x3e3c0299	0.18360366
26	0x3e7ce3fb	0.24696343
27	0x3dc5d835	0.09660379
28	0x3db78686	0.08961205
29	0x3dd1379c	0.10215685
30	0x3dddffbe	0.108397946
31	0x3e084789	0.13308538

conv3.weight f4 [16, 32, 3, 3]
0	0x3cd80412	0.026369128
1	0xbcd2ca6c	-0.025731288
2	0x3c860951	0.016361864
3	0x3ca49c1e	0.020093974
4	0xbb331b93	-0.0027329668
5	0x3cac69dd	0.021046573
6	0x3c37b017	0.011211417
7	0xbd2ed9e4	-0.042688265
8	0x3ccf8fd0	0.02533713
9	0x3d132ebf	0.035933252
10	0xbcb5eb25	-0.022206852
11	0xbb5bcfa6	-0.0033540516
12	0x3d540137	0.05175897
13	0xbc8659ab	-0.016400179
14	0xbcce19cd	-0.025158787
15	0xbbd1a53f	-0.0063978727
16	0x3d87dd5a	0.06634016
17	0xba652ae4	-0.0008742048
18	0x3d854b57	0.065085106
19	0x3cca22cf	0.024674801
20	0x3c24a727	0.010049618
21	0x3cc9ea5d	0.024647886
22	0x3d10b1f7	0.03532597
23	0x3d2038be	0.039116614
24	0xbbc23a8b	-0.005927389
25	0xbce5348d	-0.02797916
26	0x3d2cbe6a	0.04217378
27	0x3cc2195d	0.023693735
28	0x3ce6f690	0.028193742
29	0xbcc10f2c	-0.023566805
30	0x3c7df814	0.015501041
31	0x3b2fa441	0.0026800784
32	0xbd20ed55	-0.039288837
33	0xbcf79e4e	-0.030226853
34	0xbc6f6e5b	-0.014613713
35	0xbcc54405	-0.024080286
36	0xbd1b1f81	-0.03787184
37	0xbd6b492c	-0.05744283
38	0x3ce1055c	0.027468376
39	0x3b826dbe	0.0039803674
40	0xbcaa9df3	-0.02082727
41	0x3cad8cb9	0.021185266
42	0x3c1c72db	0.009548868
43	0x3c17a6a7	0.009256042
44	0x3bd038fb	0.006354449
45	0x3cddf847	0.027095927
46	0x3cc22cd1	0.02370301
47	0x3b6ea346	0.0036413237
48	0x3d10395c	0.035210952
49	0x393c1a9b	0.00017938988
50	0x3c3b74c2	0.011441411
51	0xbd09a39d	-0.0336033
52	0xbd26a348	-0.04068306
53	0xbd10887b	-0.035286408
54	0x3c46e50a	0.012139568
55	0xbd2e5bc4	-0.042567983
56	0x3bd5be38	0.00652292
57	0x3bac7f19	0.0052641747
58	0xbc16ac29	-0.00919632
59	0x3ce02e44	0.027365811
60	0x3d59a521	0.053135995
61	0x3bc1f05a	0.0059185447
62	0x3b323160	0.0027190074
63	0xbc6a5c1f	-0.01430419
64	0x3d037a3e	0.032099
65	0xbca5b14a	-0.02022614
66	0xbca1da68	-0.019757465
67	0x3d4210d4	0.04737933
68	0xbd38f71a	-0.04515753
69	0x3ca1f6b8	0.019770965
70	0x3d2bc582	0.041936405
71	0xbd567cab	-0.052364986
72	0xbd6c0683	-0.057623398
73	0xbc0d8fbc	-0.008640226
74	0x3c099870	0.00839816
75	0xbc691dd8	-0.014228307
76	0xbd441342	-0.04786993
77	0x3c1b870c	0.009492647
78	0xbce2ba52	-0.027676735
79	0xbc8df583	-0.017328983
80	0x3d093e74	0.033506826
81	0xbc9dc007	-0.019256605
82	0xbd2d7ef5	-0.042357404
83	0x3cf8907a	0.03034233
84	0x3ca20f5d	0.019782716
85	0xbd584273	-0.052797746
86	0xbd15d8c7	-0.036583688
87	0xbcb2900e	-0.021797206
88	0xbc0a68cc	-0.008447837
89	0xbc6d04ce	-0.014466478
90	0x3ca1e44f	0.019762186
91	0x3cec65d2	0.028857145
92	0xbd162092	-0.036652155
93	0xbc0b7525	-0.008511816
94	0x3c9029fc	0.017598145
95	0x3d42f053	0.047592472
96	0xbc9af6d9	-0.018916534
97	0x3d0b70b5	0.034043033
98	0x3ac128d4	0.0014736899
99	0xbd4eada3	-0.05045856
100	0x3cef3c69	0.02920361
101	0xbd6972e7	-0.056994345
102	0x3cad786e	0.02117559
103	0x3a5f8c61	0.0008527693
104	0xbd020766	-0.031745337
105	0x3c31776c	0.010831695
106	0xbcc20f0b	-0.023688814
107	0x3cd55ecd	0.026046181
108	0xbc560353	-0.013062316
109	0xbc958223	-0.01825053
110	0x3d393985	0.04522087
111	0x3d2ed9a1	0.042688016
112	0x3a27896c	0.0006391022
113	0x3bff255b	0.0077864355
114	0xbd4b1c43	-0.0495875
115	0xbd2a398a	-0.04155878
116	0x3d09149b	0.033466917
117	0x3d8bde6f	0.06829535
118	0x3d8719f1	0.06596745
119	0xbcb4860a	-0.022036571
120	0x3d70ac13	0.058757853
121	0x3cf7d000	0.03025055
122	0xbd206879	-0.039162133
123	0xbcc987de	-0.02460092
124	0x3c42a86a	0.011880973
125	0xbc73573a	-0.014852339
126	0x3cf6223b	0.03004562
127	0xbc8cb3cb	-0.017175576
128	0xbd4e9352	-0.050433464
129	0xbc1f9002	-0.009738924
130	0xbd160d77	-0.036633935
131	0x39c628f3	0.00037796012
132	0x3d2f2672	0.042761274
133	0x3d0f4e10	0.034986556
134	0xbd1f208d	-0.038849402
135	0x3d2743f7	0.0408363
136	0x3d35494c	0.044259354
137	0x3d5c2cbb	0.053753596
138	0x3cfa32cd	0.030541802
139	0xbd00131e	-0.03126823
140	0x3cceb75d	0.025233919
141	0xbce09c56	-0.027418297
142	0xbcd0e7e6	-0.025501203
143	0x3d442fff	0.047897335
144	0xbbec6def	-0.0072152535
145	0xbbdaca10	-0.0066769198
146	0xbce02e48	-0.027365819
147	0x3d604e3e	0.054762118
148	0xbc89d742	-0.016826276
149	0xbd1854cd	-0.037190247
150	0xbc9a05e2	-0.018801633
151	0xba9664e0	-0.0011474155
152	0x3d4b791c	0.049676046
153	0x3d044412	0.03229148
154	0x3c6f41a0	0.014603049
155	0xbd60ced3	-0.054884743
156	0x3cc31b01	0.023816587
157	0xbd0ea1d0	-0.034822285
158	0xbd2938e7	-0.041314032
159	0x3d06d6e1	0.03291977
160	0x3baa8333	0.0052036284
161	0xbc872cda	-0.01650088
162	0xbc286874	-0.01027881
163	0xbd104a76	-0.03522726
164	0x3cf2cc7c	0.029638521
165	0xb9bf12ea	-0.0003644445
166	0xbc9b022e	-0.018921938
167	0xbc802cd6	-0.01564638
168	0xba9e7eb8	-0.0012092208
169	0x3d7ef377	0.062243905
170	0x3d2ebf5c	0.042662963
171	0xbbbeb139	-0.0058194664
172	0x3bfc2029	0.0076942635
173	0xbbca3a80	-0.0061715245
174	0xbd3ef1de	-0.04661738
175	0xbd864fbb	-0.06558176
176	0xbd6bc185	-0.0575576
177	0xbc0044d8	-0.007828914
178	0xbd10a7a9	-0.035316143
179	0xbc058a95	-0.008150716
180	0x3ca00436	0.019533258
181	0x3d2be053	0.04196198
182	0xbd508a94	-0.05091341
183	0xbd3109cf	-0.043222245
184	0xbd0c5847	-0.034263875
185	0xbd275df4	-0.040861085
186	0x3d1d9db1	0.038480464
187	0x3d2ad7ba	0.04170964
188	0x3ce05e89	0.027388828
189	0xbd465bab	-0.048427265
190	0x3d08b480	0.033375263
191	0xbd0a6b0c	-0.033793494
192	0x3d556d06	0.052105926
193	0xbd46c96c	-0.048531935
194	0xbcfc3bb9	-0.030790197
195	0xbd0d4fe6	-0.034500025
196	0x3c7b896d	0.015352589
197	0xbd58723c	-0.052843317
198	0xbc78a088	-0.015174992
199	0x3d25b3e5	0.040454764
200	0x3d3f2c57	0.046673145
201	0x3c8c79c0	0.017147899
202	0xbd2634cf	-0.040577706
203	0xbd24d6c1	-0.040243868
204	0x3d0432e6	0.032275103
205	0xbd1815d3	-0.03713019
206	0x3c2c0ce0	0.0105011165
207	0xbcb51076	-0.022102576
208	0x39f4cc3f	0.00046691482
209	0x3d1db818	0.038505644
210	0xb79a3231	-1.8381603e-05
211	0xbc88a128	-0.016678408
212	0xbc8ee717	-0.017444177
213	0xbc99e4d6	-0.018785875
214	0xbd35bc8f	-0.044369277
215	0x3d07166c	0.032980368
216	0x3d179a9e	0.03701269
217	0xbd70555e	-0.058675162
218	0xbd2ab013	-0.041671824
219	0x3ce01125	0.027351925
220	0x3bbed983	0.0058242693
221	0x3c2c7b6c	0.010527473
222	0xbd076812	-0.033058234
223	0x3cfed58f	0.031107692
224	0xbcd1504c	-0.025550984
225	0x3d33346e	0.043751173
226	0xbbe40579	-0.00695866
227	0xbd90782b	-0.0705417
228	0x3c9f6aca	0.0194601
229	0x3d2f7b37	0.042842116
230	0x3cbbeeee	0.022941079
231	0x3cb41f11	0.02198747
232	0xbd3e11b4	-0.0464036
233	0x3d057ef9	0.032591794
234	0x3bd2e0e0	0.0064354986
235	0x3c48460f	0.0122237345
236	0x3cf6902d	0.030098045
237	0xbc0afa8b	-0.008482586
238	0x3d4f5e3f	0.05062699
239	0x3c77ad4b	0.015117
240	0xbccd33aa	-0.02504905
241	0x3c8f48a7	0.017490698
242	0x3d826aec	0.0636805
243	0x3d7139f2	0.05889315
244	0x3d0e1b30	0.034693897
245	0x3cee1552	0.0290629
246	0x3cc5a35e	0.024125751
247	0xbd6a599a	-0.057214357
248	0xbcc9688a	-0.02458598
249	0xbc51b6a3	-0.012799892
250	0x3b68807c	0.0035476973
251	0xbd7965e6	-0.060888194
252	0x3d0cd8d7	0.034386482
253	0x3b17c848	0.0023160148
254	0xbd272598	-0.040807337
255	0xbcca0e0a	-0.024664897

conv3.bias f4 [16]
0	0x35227610	6.0521506e-07
1	0x38228e61	3.875641e-05
2	0x3463c8a0	2.121401e-07
3	0xb48e3450	-2.6487623e-07
4	0xb7d19cd7	-2.4987776e-05
5	0x341fa94e	1.4869622e-07
6	0x3563f7e6	8.492483e-07
7	0xb542ad4c	-7.252281e-07
8	0xb2556fc9	-1.2423649e-08
9	0xb31133f3	-3.380769e-08
10	0x34345570	1.6794888e-07
11	0x390caeed	0.00013416605
12	0xb40e9913	-1.3280469e-07
13	0x37664b18	1.3726552e-05
14	0x35f7166a	1.8409457e-06
15	0xb8e5f7ff	-0.00010965764

bn3.weight f4 [16]
0	0x3f6eccad	0.9328106
1	0x3f6bba65	0.9208129
2	0x3f74e413	0.95660514
3	0x3f68ddf3	0.9096367
4	0x3f70f1a3	0.9411871
5	0x3f792411	0.9732066
6	0x3f70d376	0.94072664
7	0x3f6ee054	0.9331105
8	0x3f6e8099	0.93164974
9	0x3f728a49	0.94742256
10	0x3f738bfe	0.95135486
11	0x3f80a52a	1.0050404
12	0x3f7dbf37	0.99119896
13	0x3f7da217	0.99075454
14	0x3f6e7d93	0.9316036
15	0x3f769b07	0.963303

bn3.bias f4 [16]
0	0x3b024cbe	0.0019882168
1	0x3ba931ee	0.005163423
2	0x3a44e27b	0.0007510555
3	0xbc522c39	-0.012827926
4	0xbce0d651	-0.027445944
5	0xbd3b39c3	-0.045709383
6	0x3c4184fc	0.011811491
7	0xbba0eaf5	-0.0049108216
8	0xbbf3d428	-0.0074410625
9	0xbb5d57f0	-0.0033774339
10	0xbbd31c1d	-0.0064425603
11	0xbd64fcb7	-0.05590507
12	0xbcac3490	-0.021021158
13	0xbbb9ba5a	-0.005667967
14	0xbb198ccb	-0.0023429866
15	0xbab84aa0	-0.0014060326

bn3.running_mean f4 [16]
0	0x3e3dcffd	0.18536372
1	0xbc63b26d	-0.0138975205
2	0x3e22c416	0.15895113
3	0xbf3c4398	-0.7354064
4	0x3f22d9ac	0.6361339
5	0xbedc6de2	-0.43052584
6	0x3e2e425b	0.170175
7	0x3f49a4c4	0.7876704
8	0x3f5be242	0.8589212
9	0xbe063cf3	-0.13109188
10	0xbf2b0d05	-0.6681674
11	0xbe2b6dde	-0.1674113
12	0xbe605c77	-0.21910273
13	0x3f09c81f	0.53820986
14	0xbf8b97bb	-1.090568
15	0xbe119564	-0.14217144

bn3.running_var f4 [16]
0	0x3e727ea4	0.23681122
1	0x3e260056	0.16211066
2	0x3eb7fa03	0.3593293
3	0x3ebe87d5	0.37213007
4	0x3df0550f	0.11734974
5	0x3e004eae	0.12530014
6	0x3ddd668f	0.10810577
7	0x3e94168d	0.28923455
8	0x3f56f213	0.83963126
9	0x3e5d0e76	0.21587548
10	0x3e4a77ab	0.19772212
11	0x3db5a2c9	0.088689394
12	0x3ebeee75	0.37291303
13	0x3defaffc	0.11703488
14	0x3defd805	0.11711124
15	0x3e82b43a	0.25528127

conv4.weight f4 [2, 16, 5, 5]
0	0xbd129ae8	-0.03579226
1	0xbbc1c6d6	-0.0059135957
2	0xbca6b103	-0.020348078
3	0xbd0e7672	-0.034780927
4	0xbd0c16b7	-0.03420135
5	0x3c4d297a	0.012522096
6	0xbc1c9636	-0.009557297
7	0x3ccced23	0.02501542
8	0xbc1d0f8a	-0.009586224
9	0x3d177bfb	0.03698347
10	0x3cada42b	0.021196445
11	0x3aafeb9c	0.0013421657
12	0xbd160ba6	-0.036632203
13	0xbb1ab44e	-0.0023606005
14	0xbcc1e489	-0.023668544
15	0x3ce71f84	0.02821327
16	0xbd32d402	-0.043659218
17	0x3d5d3820	0.054008603
18	0xbd2b245e	-0.04178273
19	0xbd04ca5c	-0.032419547
20	0xbd16b582	-0.036794193
21	0xbd0c0045	-0.034179945
22	0x3d074fca	0.033035077
23	0xbca29d6b	-0.019850453
24	0x3b8826d6	0.00415502
25	0xbc64587c	-0.013937112
26	0xbc892e7a	-0.016745795
27	0x3d356398	0.044284433
28	0xbc32a754	-0.010904152
29	0xbc46a9a7	-0.012125409
30	0x3c524d65	0.012835835
31	0x3d17ecc2	0.037091024
32	0x3d161d32	0.036648937
33	0x3cb573a9	0.022149878
34	0xbc95b5b7	-0.018275125
35	0xbd2090dc	-0.03920065
36	0xbcabfdea	-0.0209951
37	0xbcf05224	-0.029336043
38	0xbcdf6a4b	-0.027272364
39	0xbb1cd6b4	-0.0023931684
40	0x3b908109	0.0044099134
41	0xbd03c283	-0.032167923
42	0x3c058c01	0.008151055
43	0xbc9354b8	-0.017984733
44	0x3d2f0209	0.04272655
45	0x3d03f98d	0.032220412
46	0xbcf66da0	-0.03008157
47	0x3cd8dc25	0.02647216
48	0x3d0db602	0.034597404
49	0xbd158656	-0.036505066
50	0x3d175deb	0.0369548
51	0xbcf2a760	-0.029620826
52	0xbccc334c	-0.024926804
53	0xbd255b12	-0.040370055
54	0x3b097d95	0.0020979394
55	0xbb671081	-0.003525764
56	0x3c53bf82	0.012924077
57	0xbce9bb5c	-0.028531723
58	0x3cb5a24b	0.022172114
59	0x3c433d90	0.011916533
60	0x3cfbc7a8	0.030734852
61	0x3c2472ce	0.010037137
62	0x3cdaeb58	0.026723549
63	0x3cc26fa7	0.02373488
64	0x3d1d7795	0.03844412
65	0x3cf44703	0.029819017
66	0xbc4c9aa6	-0.012488043
67	0xbd012fe1	-0.0315398
68	0xbcc7e1da	-0.024399687
69	0x3add6fe8	0.0016894313
70	0x3cd33043	0.025779849
71	0x3ce4bc4b	0.027921816
72	0xbd2ba85c	-0.041908607
73	0x3ca13f5c	0.019683532
74	0xbcc657c5	-0.024211774
75	0xbc96d5b0	-0.018412441
76	0x3abaf770	0.0014264416
77	0x3d16b44e	0.036793046
78	0x3c82d928	0.015972689
79	0x3c9d1dc6	0.019179236
80	0xbd27048d	-0.040775824
81	0x3bda1eda	0.00665651
82	0xbd1e3d8d	-0.03863292
83	0x3c643a1b	0.013929869
84	0xbcd77444	-0.026300557
85	0x3d1d1c2a	0.038356937
86	0xbc6de099	-0.01451888
87	0xbd1756f3	-0.036948156
88	0x3d05e672	0.032690473
89	0x3d30a620	0.04312718
90	0x3ca20f36	0.019782644
91	0x3d28efe8	0.041244417
92	0x3b911e6e	0.0044286763
93	0x3ccc2883	0.024921661
94	0xbcf9ff97	-0.030517383
95	0xbcace303	-0.021104341
96	0xbcef2cee	-0.029196229
97	0x3ca2fa4d	0.019894743
98	0x3be23d66	0.006904292
99	0xbc9fbb4b	-0.019498488
100	0xbd33cd7a	-0.04389713
101	0xbc228f0e	-0.009921802
102	0xbd131fe8	-0.0359191
103	0xbceeba54	-0.029141583
104	0x3cc8a430	0.024492353
105	0x3cbfd41f	0.023416577
106	0xbd1072eb	-0.035265844
107	0xbc69826e	-0.014252288
108	0x3a4b8890	0.0007764185
109	0xbd1d5a05	-0.038415927
110	0x3cae06f3	0.021243548
111	0xbcc35a11	-0.023846658
112	0x3d4d37f0	0.050102174
113	0x3cd27ee6	0.025695276
114	0x3caa338b	0.02077653
115	0xbd0d4056	-0.034485184
116	0xbd25663b	-0.040380698
117	0x3b2cd983	0.0026374764
118	0xbc33b868	-0.010969259
119	0x3c7d39be	0.015455661
120	0x3c1b1bb2	0.009467052
121	0xbbd69778	-0.006548818
122	0xbca6b80e	-0.020351436
123	0xbcea10b5	-0.02857242
124	0xbc1c61be	-0.009544788
125	0x3d4668fb	0.04843996
126	0xbcdd78af	-0.027035085
127	0x3c9be59b	0.019030383
128	0xbb2e909a	-0.0026636482
129	0x3ce76899	0.028248118
130	0x3ce281fa	0.027649868
131	0x3cf336c7	0.029689206
132	0x3c842bc9	0.01613416
133	0x3d2aa7c2	0.041663893
134	0x3d491f18	0.04910192
135	0xbd2bb4e1	-0.041920546
136	0x3c79a73f	0.0152376285
137	0x3c8a45e3	0.016879028
138	0xbc8f6f0e	-0.01750901
139	0x3c498c48	0.012301512
140	0x3d266d8a	0.04063181
141	0x3d2500f1	0.0402841
142	0xbcfcb819	-0.030849503
143	0x3d403999	0.04692993
144	0x3c28de12	0.010306852
145	0x3d6a5264	0.05720748
146	0x3c70b6e3	0.014692041
147	0x3d65c310	0.05609423
148	0x3bdb330c	0.006689435
149	0x3c08afab	0.008342664
150	0x3b1d51ab	0.0024004977
151	0x3ce6d8a1	0.028179469
152	0x3afd4785	0.0019323683
153	0x3c170cf8	0.009219401
154	0x3d0bf4d0	0.03416902
155	0x3d71c622	0.059026845
156	0xbc48e1ab	-0.012260835
157	0x3d13c279	0.036074135
158	0x3cc4632e	0.023973074
159	0x3cb37c61	0.021909894
160	0x3d59b875	0.053154428
161	0xbd090041	-0.033447508
162	0xbbb0588f	-0.0053816508
163	0x3b71c869	0.0036893135
164	0xbd3326ad	-0.043738056
165	0xbc026bc1	-0.007960261
166	0xbbf99a17	-0.007617246
167	0x3c1e1afa	0.009649986
168	0x3d19c23f	0.037538763
169	0xbc05578c	-0.008138549
170	0x3ccf2dfe	0.025290485
171	0x39da2ac8	0.00041612075
172	0x3ca36b72	0.019948695
173	0x3d15e1cf	0.0365923
174	0xbc9adf3e	-0.018905278
175	0xbb885001	-0.004159928
176	0x3c8a65e0	0.01689428
177	0x3a81ea33	0.0009911716
178	0xbd69f2b3	-0.05711622
179	0xbb67683d	-0.0035309934
180	0x3cdec4e0	0.027193487
181	0xbc501dca	-0.012702415
182	0xbd42c174	-0.047547773
183	0x3b062a14	0.0020471858
184	0x3b83eeb8	0.00402626
185	0xbc701053	-0.0146523295
186	0x3bf917f5	0.007601733
187	0xbd1a241b	-0.03763209
188	0x3d4c96e7	0.0499486
189	0xbd1d8989	-0.038461242
190	0xbd2ee454	-0.04269822
191	0x3d223f24	0.039610997
192	0xbccb04f9	-0.024782645
193	0x3b821b82	0.0039705643
194	0x3d116a64	0.035501853
195	0xbd00a8f6	-0.031411134
196	0xbc48ea11	-0.012262837
197	0xbcbdd814	-0.023174323
198	0xbd1905b6	-0.037358962
199	0x3cdb1555	0.02674357
200	0x3d2487c1	0.040168528
201	0xbcf9cadb	-0.030492237
202	0x3cf73922	0.03017861
203	0x3d216bd9	0.039409492
204	0xbc9d06e6	-0.019168328
205	0xbd1c49fb	-0.03815649
206	0x3d32d9cd	0.043664742
207	0x3d20ffef	0.039306577
208	0x3c128085	0.008941774
209	0xbd2ea64d	-0.042639066
210	0xbd2575de	-0.04039561
211	0x3d3e89fb	0.046518307
212	0xbc17b7ef	-0.009260162
213	0x3c020c59	0.007937514
214	0xbc6b237e	-0.014351724
215	0x3d07fbd5	0.03319915
216	0xbcbc18cf	-0.022961048
217	0x3d23ff70	0.040038526
218	0x3c20e353	0.009819823
219	0x3cb28d09	0.021795766
220	0xbd176f14	-0.036971167
221	0xbc841283	-0.016122108
222	0x3ca98bbb	0.020696511
223	0xbccc9760	-0.024974525
224	0xbc24f6b7	-0.010068587
225	0x3c7b6fa3	0.0153464405
226	0x3d001a84	0.031275287
227	0xbd3d949a	-0.046284296
228	0x3c49bf97	0.012313745
229	0xbd2969b8	-0.041360587
230	0xbd34f2d4	-0.04417689
231	0xbc611f9f	-0.013740449
232	0x3c9576ea	0.01824518
233	0xbce21f5d	-0.027602846
234	0x3cd34570	0.025789946
235	0xbd315906	-0.04329779
236	0x3cc16d0c	0.023611568
237	0x3c809ed6	0.015700739
238	0x3c3bc170	0.011459693
239	0xbd79ff18	-0.061034292
240	0x3c45bf73	0.012069571
241	0xbcea8df9	-0.028632151
242	0x3cfc3bf9	0.030790316
243	0x3ca35761	0.019939126
244	0xbcca17a9	-0.024669485
245	0x3bd01a41	0.006350786
246	0xbcd72bf2	-0.026266072
247	0xbd2c1330	-0.042010486
248	0x3d132049	0.03591946
249	0xbd324977	-0.043527093
250	0x3c038dbc	0.008029398
251	0xbcc24e12	-0.023718867
252	0x3d2e9a75	0.04262777
253	0xbb894a70	-0.004189782
254	0xbd0425dd	-0.03226267
255	0x3d0d4a12	0.034494467

conv4.bias f4 [2]
0	0x35190241	5.700022e-07
1	0xb5e2882a	-1.6877941e-06

bn4.weight f4 [2]
0	0x3f8fb60b	1.122743
1	0x3f90b7ca	1.1306088

bn4.bias f4 [2]
0	0xbe09c07a	-0.1345233
1	0x3e09c07b	0.13452332

bn4.running_mean f4 [2]
0	0x3e0245ff	0.12722014
1	0xbe6cb8c3	-0.23117356

bn4.running_var f4 [2]
0	0x3ebc47b3	0.36773452
1	0x3ea20582	0.31644827
