weights/Boxhill.model.weights.pt (torch, 219383 bytes, 42 tensors)

weight f4 [16, 3, 1, 1]
000000 f6 e1 ce 3e b0 88 06 bf a3 7b 8a 3e 37 d4 05 3e
       0.4040677 -0.5255232 0.27047452 0.13069235
000010 a0 aa 0a be 76 02 31 3e 0a e8 0a 3d b2 c4 21 3e
       -0.13541651 0.17286095 0.033912696 0.1579769
000020 59 1c 9c be 63 09 3a be db a6 35 bd 22 a9 53 be
       -0.30490378 -0.18167643 -0.04434858 -0.20669988
000030 2d 94 88 be 55 20 9b bd 34 e8 67 3e 77 c3 96 bd
       -0.2667555 -0.07574526 0.22647172 -0.07361501
000040 d0 2b 71 3d 43 3c 55 3e 09 91 b5 bd aa fb 9d be
       0.058879673 0.2082377 -0.08865554 -0.30856067
000050 aa b6 cd 3e 58 0b b0 3e b5 ab 67 be 95 da ee be
       0.40178424 0.34383655 -0.22624095 -0.4665114
000060 ab c7 a2 be 0d 6e bc 3e 7d 3b f5 bd 6b 16 4d 3e
       -0.3179296 0.36802712 -0.11974237 0.20028083
000070 75 e0 cf be e5 be 26 3e 5d f1 cf be d0 9f 0c bd
       -0.40600935 0.16283758 -0.40613833 -0.034332097
000080 df 37 1a 3e 50 20 7a bd ca d8 96 be 65 52 01 3e
       0.15060376 -0.06106597 -0.29462272 0.12629087
000090 05 19 e6 bc 89 5e be 3e ab 67 29 be 21 3a 81 be
       -0.028088102 0.371815 -0.16543452 -0.2523966
0000a0 ca 2d 69 be 28 88 01 3e 9a c8 d8 bd 82 6d 7d 3e
       -0.22771373 0.12649596 -0.10585137 0.24748805
0000b0 b9 cf 29 3d 38 bf a4 3e 3c a2 1a 3e 37 6f 4c 3e
       0.041457865 0.32177138 0.1510095 0.199643

bias f4 [16]
000000 60 ec f5 b2 84 9c e2 3b 56 4c 99 33 02 4a 90 3c
       -2.8629245e-08 0.006915631 7.138503e-08 0.017613415
000010 9d da 18 3b 20 0a 4c 34 3a 56 a1 b6 ab e6 17 bd
       0.0023323663 1.9002664e-07 -4.808212e-06 -0.037085216
000020 86 22 56 ba de ab 14 34 09 5a 87 3c c9 67 99 37
       -0.00081685965 1.3846099e-07 0.016522424 1.828735e-05
000030 97 5e b4 b2 82 c7 0d 35 21 0a 45 31 68 13 35 bd
       -2.0997772e-08 5.2816915e-07 2.867303e-09 -0.04420796

weight f4 [16]
000000 b0 d2 6b 3f 87 3b 76 3f a8 40 76 3f d4 f7 67 3f
       0.9211836 0.9618458 0.9619241 0.9061253
000010 13 d7 70 3f e6 38 6f 3f c6 ec 82 3f ef c1 61 3f
       0.9407818 0.93446195 1.0228508 0.88186544
000020 a6 23 73 3f 09 8b 6a 3f c7 14 6d 3f 17 f9 78 3f
       0.9497627 0.916184 0.9260983 0.9725508
000030 0c cb 6b 3f 36 7b 74 3f 2c d9 75 3f 09 88 76 3f
       0.921067 0.95500505 0.96034503 0.96301323

bias f4 [16]
000000 9c 31 ca ba a5 14 60 bc 52 49 3d bc 91 c2 5e bc
       -0.0015426162 -0.013676797 -0.011553125 -0.013596193
000010 0c aa ab 3c 9d a0 15 bc cf e2 94 3d 47 7d eb 3c
       0.020955108 -0.0091325315 0.07269823 0.02874626
000020 46 d8 7a 3d 20 90 fd 3c 62 3b 87 bb 7b 3a c1 bb
       0.06124141 0.030952513 -0.004126952 -0.005896864
000030 fa 5e e8 bb 4b 12 aa 3b 17 90 ba 3c 9c 72 15 3c
       -0.0070914 0.005190169 0.022773786 0.009121563

running_mean f4 [16]
000000 80 bf 36 41 b6 76 66 41 3a 8e 11 c1 f0 99 1a c2
       11.421753 14.403982 -9.097223 -38.65033
000010 0b a1 30 c1 79 26 89 41 20 b0 a1 bf 7f 63 f9 c1
       -11.039317 17.143785 -1.2631874 -31.173582
000020 68 74 9f c0 5f 83 a8 c0 b2 b5 d3 c1 e0 ae ad c1
       -4.9829597 -5.2660365 -26.463718 -21.710388
000030 56 9b 8b 41 be de 02 c2 e3 f1 88 41 17 08 72 42
       17.450848 -32.71752 17.118109 60.5079

running_var f4 [16]
000000 c7 ac a1 42 ae a5 ae 42 e1 16 3d 42 e1 bc 0b 44
       80.837456 87.32359 47.272343 558.95123
000010 5a 73 3d 42 a7 e8 e7 42 0e 5e 75 41 df 6c c5 43
       47.362648 115.9544 15.335463 394.85056
000020 b4 aa a6 41 02 12 10 41 1f 67 80 43 42 bd 1a 43
       20.833351 9.004396 256.80563 154.73929
000030 d9 97 bd 42 c4 3d b9 43 a7 39 c8 42 8e b7 a7 44
       94.79658 370.48254 100.1126 1341.7361

weight f4 [16, 3, 3, 3]
000000 38 c8 e2 bd bf 84 09 3e a0 cd ce 3d 52 69 e3 ba
       -0.11073345 0.13429545 0.100978136 -0.0017350113
000010 b9 ab 25 3c aa ef 03 3c d8 16 dc bd 31 f3 b6 3b
       0.010111743 0.008052746 -0.107465446 0.00558319
000020 2b 4f c2 bd 41 5e c7 3d 5c 1a 82 3d 39 95 30 3d
       -0.09487756 0.097347744 0.06352684 0.04311106
000030 5a 1c 2e 3e bf fe 37 bd 52 89 d5 3c 2f a5 1f 3e
       0.17003003 -0.04492068 0.026066456 0.15590356
000040 a2 1b 2a 3e 63 c7 cf 3d b4 d5 05 bd fc c6 a8 bd
       0.16612104 0.10145452 -0.032674506 -0.08241078
000050 9f 75 58 bd b8 bc 33 be 84 51 02 be 4f 29 73 bd
       -0.052846547 -0.17552459 -0.12726408 -0.059365567
000060 64 12 f9 3c 56 2e 98 bd c9 3c 65 3b 2b 43 b5 3c
       0.030404277 -0.07430713 0.0034978858 0.022126755
000070 bf b7 cd 3d 47 96 f0 bd a8 02 8a 3d 03 52 ac bd
       0.100448124 -0.11747413 0.06738788 -0.0841408
000080 2f 41 33 3e fc 6e cf 3d ff 79 db 3d a4 be 0d 3e
       0.17505334 0.101285905 0.10716628 0.13842255
000090 ce 9a 79 bd 16 8a 1a be fc 57 38 be e3 d5 65 bd
       -0.06093865 -0.15091738 -0.18002313 -0.05611218
0000a0 63 83 36 3e e8 0e 12 3e 8e 92 d4 bd 41 50 ba bd
       0.17823558 0.14263499 -0.103795156 -0.090973385
0000b0 d9 a3 d9 bd ca ed a8 3c 4a 24 c6 3b e7 50 05 3e
       -0.106269546 0.0206212 0.0060468065 0.13019143
0000c0 61 07 09 3d e3 cd 61 bd 2c 7b b6 bd 4e 45 82 bd
       0.033454303 -0.05512799 -0.08910212 -0.06360875
0000d0 fb a2 65 bb dd 4d 14 be 0d 20 19 3d 05 65 94 ba
       -0.003503977 -0.14482827 0.03738408 -0.001132161
0000e0 6f 74 40 3e ce 56 15 be aa 16 37 be d3 91 43 3e
       0.18794416 -0.14583895 -0.1787974 0.19098596
0000f0 66 4f d0 3c ef 95 d0 bd ef df c6 bd 6a 88 3f 3d
       0.025428485 -0.101848476 -0.09710681 0.046760954
000100 16 e4 56 bc d2 c9 96 3d 30 13 a3 bc d3 59 9d bd
       -0.013115903 0.07362713 -0.01990661 -0.07683148
000110 86 59 df bd 07 70 e9 3d 8c ed 82 bd 89 ea 18 3e
       -0.10905747 0.11398321 -0.06392965 0.14933218
000120 dc db e0 bc c4 d9 21 be 19 9c 24 bc 4d 9e d7 bd
       -0.027448587 -0.15805727 -0.010046982 -0.1052824
000130 50 b6 a7 bc 00 8d 56 3d ac 47 22 be cb 5f 84 3d
       -0.020472676 0.05238056 -0.15847653 0.064635836
000140 27 3e ba 3d a5 26 e9 bc 68 89 d0 3c 3c e2 de bd
       0.09093886 -0.02846081 0.025456145 -0.108829945
000150 e8 92 11 be f3 6c 9b bd 90 32 b7 3d 7d 8a e0 3d
       -0.14216197 -0.0758914 0.08945191 0.109639145
000160 ab f6 e5 3d 4f 01 6f 3d 22 06 14 be c8 68 47 be
       0.11228689 0.058350857 -0.14455464 -0.19473565
000170 de d4 cc 3d a0 33 08 3e 0b f9 2b 3e 93 2a 07 be
       0.10001539 0.13300943 0.16794221 -0.13199835
000180 e8 86 a1 bd 89 82 e7 bd 9a 68 f1 bd 88 83 0e 3e
       -0.078870595 -0.113041945 -0.11787529 0.13917363
000190 58 11 22 3e 42 88 bf bd 16 d4 d3 3d 2d 1c 36 3e
       0.15826929 -0.09352161 0.103431866 0.17784186
0001a0 da 03 83 bd 8a 7c f1 3d 37 84 8c 3d 30 e9 42 3c
       -0.06397219 0.11791332 0.068611555 0.011896417
0001b0 87 89 92 3c 19 58 8b bd 08 23 80 3d 66 56 02 3e
       0.017887844 -0.06803913 0.06256682 0.12728271
0001c0 8a 8e cc 3d 08 19 12 3e e8 36 1a 3e 63 47 71 bd
       0.09988125 0.14267361 0.15060008 -0.05890597
0001d0 82 ed 30 bc be 8d 9d 3d 97 68 33 3d 09 a6 e0 3d
       -0.010798814 0.07693051 0.043800917 0.10969169
0001e0 8a 3a b8 bc 5f a2 fe 3d 79 80 c3 bc e2 b0 5e bd
       -0.022488851 0.124333136 -0.023864971 -0.054367907
0001f0 80 29 46 bd 39 47 13 3d 2b 78 02 be ef f8 9a 3d
       -0.04837942 0.035956595 -0.12741153 0.075670116
000200 bf fd 8e 3d 8e 89 1d be 2a ba ae 3d 43 00 8e bd
       0.06981992 -0.15384504 0.08531602 -0.06933644
000210 ea 95 1c bd 55 20 52 be 59 2c d3 3d ce ed 95 3b
       -0.038228907 -0.20520146 0.10311193 0.0045754677
000220 89 be 41 3e 21 8b 28 3c 27 f6 62 3d 92 19 97 3b
       0.1892034 0.010287077 0.05541053 0.0046112025
000230 d8 d7 b4 3b d4 02 86 bb 39 29 8d bd 8d a0 31 3e
       0.0055188946 -0.0040896926 -0.06892628 0.17346402
000240 5c f3 f3 bd 8e 1d 08 bd 67 ca c2 3d 2d d0 1b bd
       -0.119116515 -0.03323131 0.095112614 -0.03804033
000250 01 60 db 3d 95 7b b3 bc fa ee 87 3d 11 98 0b be
       0.10711671 -0.021909514 0.06637378 -0.13632227
000260 cb 2b 8d bd ce 49 1b bd e8 1b 36 3e 59 1c cf bd
       -0.068931185 -0.037912183 0.17784083 -0.10112829
000270 7f 18 d0 3d e8 1d 37 bd ef b1 1a be 1e 32 04 3c
       0.10160922 -0.044706255 -0.15106939 0.0080685895
000280 f2 f7 81 3c 01 49 ac 3d bf b7 7d 3d fd e0 13 bd
       0.0158653 0.08412362 0.061942812 -0.036103237
000290 a7 34 aa bd 09 ee 75 bd 5a f6 19 3e c5 40 2c 3e
       -0.08310824 -0.06004146 0.15035382 0.16821583
0002a0 93 3c 95 bc 69 7b 38 bc 9c ae 56 3d 23 cc 92 3c
       -0.01821736 -0.011259892 0.052412614 0.017919606
0002b0 e9 2b b4 bd 85 6a 8c 3d 0c f2 14 bd 8f 5a a8 bd
       -0.08797438 0.068562545 -0.036363646 -0.08220398
0002c0 45 79 b5 bd 5b 2d 2c 3c d9 16 b1 bd 32 44 f3 3d
       -0.08861021 0.01050886 -0.08646936 0.118782416
0002d0 84 c6 52 bd 0d ee be bd 89 4c f9 3d c2 50 cc 3c
       -0.05145885 -0.09322748 0.12172801 0.024940852
0002e0 fd bc 6b bd 30 d8 1c be 68 e4 b0 3c a9 86 41 bc
       -0.05755328 -0.15316844 0.021593288 -0.011811891
0002f0 bd 7f 1a be 89 fd 23 be ea 52 23 be f0 ea 01 be
       -0.15087791 -0.16014685 -0.15949598 -0.12687278
000300 36 5a c5 3c 0b 0a 6d bc 27 f6 1b be fd cb be bc
       0.024090867 -0.014467726 -0.15230618 -0.023290629
000310 2d a6 25 3e 75 92 c0 3d 75 fd 9a bb f4 6c d9 3d
       0.16176672 0.094029345 -0.0047299215 0.10616484
000320 74 d6 ec bd 23 e9 3f 3d 48 a5 84 bc dc bb a5 3d
       -0.11564341 0.046853196 -0.016192093 0.08092472
000330 2e 12 22 3e e7 ca a4 bc 6b 12 1d be 24 7b cd bd
       0.15827248 -0.020116283 -0.15339057 -0.10033253
000340 1a c8 2c 3d c3 fc 1b be 3a 85 8f bd b6 8c e7 bd
       0.04218302 -0.1523314 -0.07007833 -0.11306135
000350 18 c8 c4 3d 8b 34 a7 3d 34 b0 01 bd 3d 56 37 3d
       0.09608477 0.08164319 -0.03166218 0.044759978
000360 ad 2d 82 3d 2a b0 52 bd 09 ec c5 bd d4 4a da bc
       0.06356368 -0.051437534 -0.09664161 -0.026647009
000370 74 03 09 3e 1a 2f ac 3c f9 08 8a 3d a4 23 14 be
       0.13380224 0.021018554 0.06739993 -0.14466721
000380 76 5e 03 3d a0 7d 84 3d 1f 81 dc 3d a2 22 31 be
       0.032072507 0.064692736 0.107668154 -0.17298368
000390 77 68 8e 3d 1a 37 0a 3e f9 c1 07 be bb 02 31 3e
       0.06953519 0.13497582 -0.13257588 0.17286198
0003a0 b5 a5 ba 3d 79 11 a5 3b 80 f3 e4 b9 e6 2c 31 be
       0.09113637 0.0050374833 -0.0004366897 -0.17302284
0003b0 45 05 41 be c8 ca 33 3e 6c 90 be bd 85 77 d0 3d
       -0.18849666 0.17557824 -0.0930489 0.101790465
0003c0 9e db 97 3d c0 e7 55 bd 5a ee 88 3d 6e 1c 70 3d
       0.074149355 -0.052222967 0.06686087 0.058620863
0003d0 a1 a3 0e be 80 61 0d bd dc 7f b3 bd af bc 10 3e
       -0.13929607 -0.03451681 -0.087646216 0.14134477
0003e0 65 67 bf bc 45 3b 49 bd c1 54 ce bd 44 1d c5 bc
       -0.023364732 -0.04912879 -0.10074759 -0.024061806
0003f0 06 03 dd 3c 1d d9 13 bd 00 6f fc bc 9f 7b 17 3e
       0.02697898 -0.036095727 -0.030814648 0.14793251

bias f4 [16]
000000 18 f3 23 32 fb 59 30 36 47 c0 f2 b3 26 e2 ac 33
       9.543122e-09 2.627842e-06 -1.1303978e-07 8.05051e-08
000010 3a b9 5c 31 b9 6c df 32 11 3e 41 34 3a 1b c7 b2
       3.2119503e-09 2.6010058e-08 1.7997105e-07 -2.317903e-08
000020 e3 25 50 b1 2c b9 47 b2 61 65 8f b3 2a 68 0f b4
       -3.028952e-09 -1.1625428e-08 -6.677397e-08 -1.3355807e-07
000030 98 ca 0e b2 7d 3f a4 b2 87 2d 3f 34 cb e9 1a 33
       -8.311552e-09 -1.9120984e-08 1.7804824e-07 3.6068553e-08

weight f4 [16]
000000 e2 3c 6f 3f 1f a8 71 3f ef 5f 70 3f 8b b7 69 3f
       0.93452275 0.9439716 0.93896383 0.9129569
000010 29 64 67 3f 06 4b 6a 3f e8 fc 61 3f 31 87 6b 3f
       0.9038721 0.91520727 0.8827653 0.9200316
000020 b4 71 5d 3f 9e e5 6f 3f cd a8 73 3f ec 58 67 3f
       0.8650162 0.93709743 0.95179445 0.9037006
000030 75 31 6d 3f d8 26 4c 3f e0 b1 65 3f d1 c8 66 3f
       0.9265359 0.7974677 0.8972454 0.9015017

bias f4 [16]
000000 f3 6d 63 bc 33 68 e3 3c d1 ab 78 3c 91 be 30 3c
       -0.013881194 0.027759647 0.015177683 0.010787622
000010 06 f2 99 3c 57 41 b8 bc 99 a2 94 bb ba ff 22 bc
       0.018792164 -0.022492094 -0.0045359847 -0.009948665
000020 cb 43 12 3c 0c 3a a1 3c 73 14 b4 3c 52 bb 26 3b
       0.008927296 0.019681 0.021982407 0.0025441241
000030 24 6b 6c 3c 66 fb 75 3d 6e 46 5a 3c 84 cc e3 bc
       0.014429841 0.060054205 0.013322456 -0.027807482

running_mean f4 [16]
000000 3c e9 88 41 c6 b1 03 c1 32 d9 b1 c1 4d d8 b0 41
       17.113884 -8.230902 -22.231052 22.105616
000010 c8 6b 24 42 aa b4 c0 41 2c af d3 c1 cd cf 25 c2
       41.105255 24.088215 -26.460533 -41.45293
000020 c1 de c1 41 ff 48 15 42 fa 7c f9 c1 64 7f 3d c2
       24.233767 37.321285 -31.186024 -47.374405
000030 f1 b8 80 42 a8 c5 9e 40 c5 3e 28 c1 a0 bb df 41
       64.36121 4.961628 -10.515325 27.966614

running_var f4 [16]
000000 08 eb bd 42 e2 59 72 42 26 49 ce 43 d8 08 a6 43
       94.959045 60.587776 412.57147 332.0691
000010 b9 c8 18 44 b3 a5 6b 43 a1 96 85 43 32 60 45 44
       611.1363 235.64726 267.1768 789.50305
000020 21 43 0d 44 60 43 06 44 7d c2 a0 43 5a e3 36 44
       565.0489 537.05273 321.51944 731.55237
000030 36 80 ac 44 d0 7f 4a 43 6b 68 c3 42 91 44 9a 43
       1380.0066 202.49927 97.70394 308.53568

weight f4 [16, 3, 5, 5]
000000 a8 20 5a 3d 2f 33 7e bc 51 f1 11 bd b9 9e 86 bd
       0.0532538 -0.015515133 -0.035630528 -0.06573243
000010 99 e3 ba bd c1 11 75 bc 6a 42 43 bd e2 15 da bd
       -0.09125442 -0.014957846 -0.04767076 -0.10648705
000020 6c 02 51 3d a2 69 8b bd 28 5b 6f bd ea b3 b9 bd
       0.0510277 -0.06807257 -0.058436543 -0.09067519
000030 c5 cd 34 3b fc cd f6 3c 17 9d e9 3d 89 6a 6e 3c
       0.0027588469 0.030127518 0.11406916 0.014551767
000040 db 8f d6 3d 7c a3 cd ba 07 c2 87 bd c6 cf 8d 3c
       0.10476657 -0.0015688981 -0.06628805 0.017310988
000050 af 7f 76 3c ca fb 76 3d e9 92 69 bc b6 b6 88 3d
       0.015045091 0.06029872 -0.0142562175 0.06675474
000060 e0 f4 e6 bb b9 ae 33 bd 6d 7d 36 bd 46 6f 85 bd
       -0.0070482343 -0.0438678 -0.04455321 -0.06515364
000070 56 e8 2c bd 56 45 af ba dd 55 99 bd 07 49 a8 bd
       -0.04221376 -0.0013372104 -0.0748708 -0.08217054
000080 4a 14 61 3c 7a af e4 3a f6 c6 c9 3c 01 9d f0 bd
       0.013737747 0.0017447316 0.024631005 -0.11748696
000090 bc 5e 9e 3d da ed d0 3d 89 8c 2f bd 95 ee ac 3c
       0.07732913 0.102016166 -0.042858634 0.021109859
0000a0 1f 2c b5 bd 9f 7c 2c bd 64 15 ac 3c c3 17 27 3b
       -0.08846306 -0.042111035 0.021006294 0.002549634
0000b0 c4 76 d1 3c 86 9e da bd 29 00 83 bd 2f ed 4b 3d
       0.025569327 -0.10674767 -0.06396515 0.049786743
0000c0 d8 00 b8 3d 03 aa 87 bd 94 c4 de 3c 7c 7e 5b 3d
       0.08984536 -0.06624224 0.027193345 0.05358742
0000d0 7c 21 2e 3d 64 f5 39 3b 89 8e fa 3d dc 22 73 3b
       0.042512402 0.0028375024 0.12234218 0.0037099635
0000e0 a3 ac c8 3c e4 5f b0 3d d8 f2 a5 3d ab 29 5d 3b
       0.024496382 0.0861204 0.081029594 0.003374676
0000f0 00 ed c6 3c 4c 99 bc 3d 43 e9 da 3b 78 19 a2 bd
       0.024282932 0.092089266 0.006680639 -0.07915014
000100 19 63 25 3d 36 d5 31 bd 85 8a 8d bd 95 f6 90 bd
       0.04037771 -0.043416224 -0.06911186 -0.07078282
000110 f9 71 b3 3d 1d e9 bf 3d b1 9f d9 bd 51 bc 9c bd
       0.08761973 0.09370635 -0.10626162 -0.07653106
000120 e0 52 ac bd 06 41 a8 3c b8 2b 2b bd 1e 36 96 3d
       -0.08414245 0.020538818 -0.04178974 0.07334541
000130 2a d0 95 bd 8c e2 30 3b c0 22 6a 3d e5 46 bb bd
       -0.07315095 0.0026990501 0.057162046 -0.091443814
000140 21 7b a5 bc 6d e5 26 bd 58 1f 9c bd c1 cf 48 bd
       -0.020200314 -0.04074614 -0.07623166 -0.049026255
000150 9b 6d a6 bd f7 b2 6c 3d e2 89 6f bd a4 90 4f bd
       -0.08126374 0.05778786 -0.058481105 -0.05067505
000160 e1 0c c7 bd 8f 33 b6 bd 57 f7 23 bd 81 0a a7 bc
       -0.09719253 -0.08896553 -0.040030804 -0.02039075
000170 2a 83 f7 bc 06 fa 00 bd 80 fa 37 3c a5 fe bf 3c
       -0.030213911 -0.03148844 0.011229157 0.023436854
000180 28 9d a1 bc 58 86 8a 3a 70 a5 8a bd 05 98 b9 bd
       -0.019728258 0.0010568602 -0.06769836 -0.090621985
000190 7c 95 40 bd 24 49 b7 3d ed 4e 4a 3d 20 5a 91 3d
       -0.04701756 0.08949497 0.049391676 0.07097268
0001a0 26 65 2e bc e7 42 a8 3d 7d df 2d bd 0f 20 b0 bc
       -0.010644233 0.082158856 -0.042449463 -0.021499662
0001b0 45 d3 06 bd 14 43 a0 3c 38 69 09 bd e8 26 27 bd
       -0.032916326 0.019563235 -0.03354761 -0.04080859
0001c0 ab 73 44 bd 49 94 8a 3b 06 66 33 bd db a4 33 3c
       -0.047961872 0.0042291027 -0.04379847 0.010964598
0001d0 81 de d4 3c 3a 2a 9c 3c a0 a5 80 bd ba 29 3f bd
       0.025985004 0.019063104 -0.062815905 -0.046670653
0001e0 f3 a9 06 3d 52 20 0f 3d 1d 81 28 bd 58 f7 1b 3d
       0.03287692 0.034942932 -0.041138757 0.038077682
0001f0 4e 8a 4a bd 54 80 40 bc 6e c4 87 bc 47 7a 82 bb
       -0.049448304 -0.011749346 -0.016573157 -0.0039818618
000200 a8 da 48 3d 75 dd 13 3c 7d fc 84 bd d9 4b 03 3d
       0.04903665 0.009024967 -0.06493471 0.032054756
000210 8b fc 7f 3d 10 22 c7 3d 98 bd 5e 3d c9 db 86 bd
       0.062496703 0.09723294 0.05438003 -0.065848894
000220 2a 3e 14 bc d0 d9 82 bd 6e b5 8b bc 60 8c 45 3d
       -0.009048024 -0.06389201 -0.017054286 0.048229575
000230 1e f9 bd bc 2c 62 80 3d c6 8c 49 3d 32 71 b6 bc
       -0.023190077 0.06268725 0.049206518 -0.022270773
000240 32 ce 40 3c b0 3f 8e bc b1 bd fb bb 2f aa 39 3c
       0.011767911 -0.017364353 -0.007682525 0.011332079
000250 f6 71 f7 bc 21 da 91 3d a3 e8 7b bc 86 7b db bd
       -0.030205708 0.07121683 -0.015375289 -0.107169196
000260 0f 0b 90 3c c8 11 95 3c cd 24 21 3c b4 9a 34 3d
       0.017583398 0.018196955 0.009835434 0.04409285
000270 9b 71 40 3d 44 6d 93 bd 65 2f ba bd 9a 57 c0 bd
       0.046983343 -0.07198575 -0.09091071 -0.09391709
000280 3e 08 7d 3d d6 fe 19 3d 46 e9 13 3d b6 e3 05 3d
       0.06177544 0.037596546 0.03611114 0.032687865
000290 0d 5a 10 bd 0a c0 c8 bd 39 09 cc bd 4c 96 a7 bc
       -0.03524213 -0.098022535 -0.099626966 -0.02045741
0002a0 3e 4b 82 bd 20 99 91 3c 82 38 a6 3d 3f e6 ab 3d
       -0.063620076 0.017773211 0.08116247 0.08393525
0002b0 5d 51 cc 3d 73 8a 6e bc dd 5e 77 bd 4d c8 bb 3b
       0.09976456 -0.014559376 -0.060393203 0.005730665
0002c0 dc 92 5a 3c 40 0d 4a 3d d7 8e 12 ba 17 d2 b6 3d
       0.013340678 0.049329042 -0.0005590743 0.0892679
0002d0 de e8 91 bd fd 21 4c 3d a2 4e 57 3d c6 86 dc bc
       -0.07124494 0.0498371 0.052565224 -0.026919734
0002e0 be 4a 6f bb 33 75 34 3c 94 37 6b bc c8 cf c0 3c
       -0.0036513056 0.011014271 -0.014356513 0.023536578
0002f0 05 d6 c6 bc 73 e6 e8 3d 90 f3 da bd ad ba d3 3b
       -0.024271974 0.1137208 -0.10690987 0.0064614625
000300 69 9c ee 3c f6 c5 f3 bc b0 c7 27 3d e3 05 54 3d
       0.029127317 -0.029757481 0.04096192 0.051763427
000310 78 8d 36 3d 7c 8f 77 bd a6 c2 0d bd 69 48 cd bd
       0.04456851 -0.06043957 -0.03460946 -0.10023577
000320 0e 9e dd bd 26 15 a4 bb da 0c f8 3b 85 64 c3 bd
       -0.10821162 -0.005007404 0.0075698914 -0.09540657
000330 4f 3c a6 bd d5 bb 89 3d 57 b1 96 3d 74 6f 98 bd
       -0.08116972 0.06725279 0.07358044 -0.07443133
000340 0a e1 15 bd 96 42 aa 3c fc 87 a4 bd 2b 51 75 3d
       -0.036591567 0.020783704 -0.080337495 0.05989186
000350 43 de 87 3c 19 29 0a bd 9f 2a 65 bd ce 9f 7e bb
       0.016585475 -0.0337306 -0.05594885 -0.0038852575
000360 60 15 21 3d 92 95 84 3d 38 45 a8 3d 5d a2 25 bd
       0.039327025 0.06473841 0.082163274 -0.040438045
000370 1f 40 75 bd 37 1d 55 3d d4 a9 69 bd 63 d4 d4 bc
       -0.059875604 0.052029815 -0.057046726 -0.02598018
000380 f4 16 db 3d 07 43 ab bd 74 b2 c5 bb 31 63 bd ba
       0.10697737 -0.08362394 -0.006033236 -0.0014449117
000390 24 5d 73 3b 40 c2 9f 3d 69 5f 6f bc d9 f4 e8 bc
       0.0037134374 0.07800722 -0.01461015 -0.028437065
0003a0 ea d8 8e bc ce 56 99 bd 5b 7f 4b 3b 9c 0a ee 3c
       -0.017437417 -0.0748726 0.0031051252 0.029057793
0003b0 f9 50 4b bd 87 80 8c bd c6 a5 f1 3d 0c 18 20 3d
       -0.04963777 -0.06860452 0.11799197 0.039085433
0003c0 09 80 1b 3d 06 a7 45 3d 55 0b 99 3d 6f 8c af 3d
       0.0379639 0.04825499 0.074728645 0.085717075
0003d0 25 6c 2e bd cb 37 44 3d 95 4e 11 bd 00 74 5f ba
       -0.042583603 0.04790477 -0.035475332 -0.000852406
0003e0 c9 37 14 bd 7c ad ca 3b 70 cc 83 3b dc 5c 9c bc
       -0.036186013 0.0061852317 0.0040221736 -0.019087248
0003f0 03 59 c5 3b 4c d3 8e 3c d6 ff a0 bd 87 ef a6 bd
       0.006022574 0.017434739 -0.07861297 -0.08151155

bias f4 [16]
000000 73 82 a2 34 8c a7 45 b3 06 92 75 b4 90 1d 42 33
       3.0269766e-07 -4.602002e-08 -2.2870526e-07 4.5196032e-08
000010 d2 fd a2 b2 f2 c3 a0 b3 5e e8 04 35 a2 1c 61 b4
       -1.8974706e-08 -7.486223e-08 4.951197e-07 -2.0965174e-07
000020 45 97 5c 32 ca 8c 5d b3 5b df 9a b2 a1 61 e1 b1
       1.284008e-08 -5.158362e-08 -1.802953e-08 -6.559461e-09
000030 86 4b 43 b2 8e f3 6a b2 0c d3 50 b3 f2 44 d1 b5
       -1.1367666e-08 -1.3675971e-08 -4.862072e-08 -1.5591779e-06

weight f4 [16]
000000 3e 1d 6c 3f 85 98 66 3f 33 38 5c 3f cc ac 6f 3f
       0.9223212 0.90076476 0.86023253 0.9362304
000010 10 88 63 3f f0 a0 71 3f d7 7e 5c 3f c3 ec 6a 3f
       0.8887949 0.94386196 0.8613104 0.9176752
000020 ef ea 5d 3f 6c 39 63 3f fb 2b 67 3f 8d d0 70 3f
       0.86686605 0.88759494 0.90301484 0.94068223
000030 5e 05 5d 3f f6 ca 64 3f 0b e0 70 3f cb e9 50 3f
       0.86336315 0.89372194 0.9409186 0.8160674

bias f4 [16]
000000 08 2b ff bc d9 83 89 bc b1 33 19 3b 66 93 90 3c
       -0.031148449 -0.016786503 0.0023376758 0.01764841
000010 2a 23 80 bb 1f af fa bc c5 50 bd 3b ca 64 e8 3c
       -0.003910442 -0.030601082 0.0057774507 0.028368372
000020 ee 7a ba 3c 17 b8 b3 3c 5f 63 d0 3c 57 57 8d 3c
       0.022763696 0.021938367 0.025438009 0.017253561
000030 af 23 74 3c c6 aa 25 bc 7b 5d 4c bc 68 99 05 bd
       0.014901086 -0.010111516 -0.012473459 -0.032617003

running_mean f4 [16]
000000 50 a1 07 c2 b6 45 63 c2 64 28 ab c1 bb c4 24 c2
       -33.90753 -56.818077 -21.394722 -41.19212
000010 45 74 40 c2 76 a8 86 c1 8f 6f a3 c1 a5 89 5d c1
       -48.113544 -16.832256 -20.429472 -13.846105
000020 4f 31 64 42 21 59 18 41 d1 7a b4 41 4d 31 35 42
       57.048153 9.52176 22.559969 45.298145
000030 fa bb 9f c1 69 3b 70 c2 3e 80 04 42 bf a4 0c bf
       -19.966785 -60.058018 33.125237 -0.5493888

running_var f4 [16]
000000 36 19 36 44 1e d7 77 44 45 cf a3 43 62 4b 29 44
       728.3939 991.3612 327.6193 677.17786
000010 0e 69 84 44 f7 84 ed 43 cb 6c 11 44 28 b3 d0 43
       1059.283 475.0388 581.6999 417.39966
000020 68 bb 6d 44 3f 5f ef 43 59 5f 81 44 97 be 5c 44
       950.9282 478.7441 1034.9796 882.97797
000030 cf 61 37 44 3b cb a9 44 97 c0 f9 43 a8 6e a5 43
       733.52826 1358.351 499.5046 330.8645

weight f4 [96, 48, 1, 1]
000000 a5 72 5b bd 08 6a 31 bc 86 af c7 3d 70 bb bf 3d
       -0.05357613 -0.0108285025 0.09750275 0.09361923
000010 1d c9 8f 3d 17 e8 3e 3d e3 da 5d bd 91 24 4e bd
       0.07020781 0.046608057 -0.054163825 -0.05032784
000020 85 b3 ab 3d 98 d1 96 3c 91 16 19 3e ae a4 f8 bd
       0.0838385 0.018410489 0.14950015 -0.12140785
000030 fa d5 9e bb 12 00 dd bd fb e2 8c bc 7c b6 8b 3d
       -0.0048472853 -0.10791029 -0.017198076 0.068219155
000040 79 2d 90 bd 3c 7c 8c 3d d3 59 b9 3d a8 f6 a8 3d
       -0.07039923 0.06859633 0.09050336 0.08250171
000050 d4 0d b1 3d 87 0d 3b bd 6c b1 8b 3d 6f 72 fd bc
       0.08645216 -0.045667198 0.0682095 -0.030938355
000060 4c 2e ae bd cb bf a9 3c 7e 39 02 bd 6f c9 09 bd
       -0.08504924 0.020721337 -0.03179311 -0.033639368
000070 db fa 2c bd 1a c9 0f be a7 ee ac bd c9 c7 b6 bd
       -0.042231422 -0.14041558 -0.08443957 -0.08924825
000080 ad b4 e4 bd 57 8a 9e 3c 7b 2f e0 bd 60 ae f6 3c
       -0.11167274 0.019353075 -0.10946556 0.030112445
000090 1a fe 91 bd c6 27 eb bd 46 0b e5 bd d3 0f 11 3e
       -0.07128544 -0.114821956 -0.11183791 0.14166193
0000a0 71 54 9a bd 07 61 80 bd e2 36 c4 3d 09 06 cf bc
       -0.07535637 -0.062685065 0.095807806 -0.025271432
0000b0 c9 cb 60 3d fd b2 2d bb 51 ef 8a 3c c9 43 b6 3d
       0.054881845 -0.002650439 0.016959818 0.08899648
0000c0 9d 3e 17 3d 37 78 80 bd 30 d3 00 be ef e9 f3 bd
       0.036924947 -0.06272929 -0.12580562 -0.11909854
0000d0 6c e3 94 bd 5c 74 85 3d 0f 8a 1e 3d d0 e5 05 be
       -0.0726994 0.065163344 0.03870588 -0.13075948
0000e0 cf 85 0c 3e 9d f1 90 3d ea 77 58 3d 32 af 6c bd
       0.13722919 0.07077334 0.052848734 -0.057784267
0000f0 36 f0 01 3e 70 73 e3 3d bc 38 f2 3b ee b8 fe bd
       0.1268929 0.11106002 0.007392017 -0.12437616
000100 26 7a 5b 3d 6a ae 50 bd f3 3d 08 3d 65 a8 56 3d
       0.053583287 -0.050947584 0.033262204 0.052406687
000110 1a 94 af 3d e6 57 ad bd 84 6f 13 3d 6b b1 a8 3d
       0.0857317 -0.08464031 0.03599502 0.08236965
000120 76 5d ed bd 02 46 d5 bd 3c 3c 28 bd c8 7b 9d 3d
       -0.11590092 -0.104137436 -0.04107307 0.07689625
000130 1f 10 8b bd 45 03 bf 3c 61 13 81 bd 84 7c db 3d
       -0.06790184 0.023316989 -0.06302524 0.10717109
000140 78 31 a7 3d 03 2f 34 3d 4a cf 33 3d 2d 9a f0 bd
       0.08163732 0.043990146 0.043898858 -0.11748157
000150 68 fa 85 bb fa 49 22 bd 90 7c 16 bd db 3b a9 3d
       -0.0040886886 -0.03962133 -0.036739886 0.0826337
000160 6d b4 8f 3d f3 f1 9a bd 25 32 cb bd ad e1 04 3d
       0.07016835 -0.075656794 -0.09921674 0.032441784
000170 ce ed 8f 3c 29 73 0d bd 1b d0 db bd 12 6a 3c 3c
       0.017569449 -0.034533653 -0.10733052 0.0114998985
000180 8a d1 e8 bd 8d cc b9 bd b0 d8 7e 3c fa 87 f9 3b
       -0.113680914 -0.09072218 0.015554592 0.0076150866
000190 de e7 47 bd b4 f7 6f bd 48 1b 0f 3e 81 f2 13 be
       -0.04880511 -0.058585837 0.1397525 -0.14447977
0001a0 fd 9e 86 3d 8e 4a a5 3c e2 56 87 bc 89 f5 95 3d
       0.06573293 0.020177152 -0.016520921 0.07322223
0001b0 86 8d 93 bd 09 0d a4 bd a3 90 8f 3d 9c 43 95 3d
       -0.07204728 -0.08010299 0.07010009 0.07288286
0001c0 33 9c 8a 3c 70 30 a5 3c 1d ff f4 bd 0e 96 d4 bd
       0.016920185 0.020164698 -0.119627215 -0.10380183
0001d0 41 d5 0f 3d b0 8a bb bd f8 5f a6 bd f4 ec 85 3d
       0.035115484 -0.09157312 -0.08123773 0.06539336
0001e0 19 8e c7 3d 0e 91 8b bd a7 3b f3 3d d8 fd 4d 3d
       0.097439 -0.06814776 0.11876612 0.050290912
0001f0 50 05 e5 3c 99 91 ab bd 0d 55 38 3c ee 6c ec bb
       0.027956635 -0.0837738 0.011250746 -0.007215134
000200 d8 96 97 bd 08 ed 84 3c 17 e3 c7 bd b7 b0 f5 3d
       -0.07401818 0.016226307 -0.09760111 0.11996596
000210 20 8c 8a 3c a0 df e1 bd 3d eb 38 3d 76 d6 a2 3c
       0.01691252 -0.11028981 0.045146216 0.019877654
000220 a8 e5 01 3d bd e7 93 bd 97 4e 44 bd 2e 33 82 3d
       0.031713158 -0.07221935 -0.04792651 0.06357418
000230 6d fb 95 3d ea 64 12 3d ce a2 11 bd de fc 45 bb
       0.07323346 0.03574077 -0.035555653 -0.0030210535
000240 dc 5b 85 bd 4f 8a 2f bd 2c 40 df bd a1 fa d2 3d
       -0.065116614 -0.04285651 -0.10900912 0.1030171
000250 c8 18 9d bd 71 d0 10 3e 77 fc 10 3e df 52 b2 3d
       -0.07670742 0.14142014 0.14158808 0.08707213
000260 21 9b 74 3c 13 b9 f8 bc c9 74 19 3c 0c 9e f6 3d
       0.014929564 -0.030361688 0.009366223 0.12041864
000270 56 14 02 3d 10 a2 fb 3d f2 71 3b bc 56 21 53 3d
       0.031757675 0.1228677 -0.011440741 0.051545464
000280 f5 a9 30 3c 61 5b 15 bd d9 49 5b bc 57 8f 02 bd
       0.010782708 -0.0364641 -0.013384306 -0.03187498
000290 f9 9f e0 3d 52 ca 0f 3e 15 4d 49 3b cc cf 27 3d
       0.10968012 0.14042023 0.003071611 0.040969655
0002a0 34 6b 65 bd 10 30 ed bd fc 41 08 be 35 04 cf 3d
       -0.05601044 -0.11581433 -0.13306421 0.10108224
0002b0 f5 a7 77 bd 10 d3 93 3d 60 5a 75 bd a6 67 ba 3c
       -0.06046291 0.07217991 -0.05990064 0.022754502
0002c0 d1 ad b9 3d 4d 5c 78 3d cc 51 e8 bb 08 c0 2f 3d
       0.09066356 0.0606349 -0.007089829 0.042907745
0002d0 23 d6 13 3c 73 5a af 3d 61 9a c9 bd 1b 8d 3b 3d
       0.009023222 0.08562174 -0.098438986 0.045788866
0002e0 2e 0f b3 3d ad 27 58 bd 2f 05 dd bd f8 c2 11 3e
       0.0874313 -0.052772213 -0.10792004 0.14234531
0002f0 09 d8 e9 bd 40 61 58 3c 97 41 ca bd 4c 8a be bd
       -0.114181586 0.01320678 -0.098757915 -0.09303722
000300 4f ef 16 be 0d 35 c1 bd 15 b8 ef bd da b9 87 bd
       -0.14739726 -0.09433947 -0.11705033 -0.06627245
000310 1c 93 48 bd 4a 77 98 3a 6e 1f 77 bd 6d 92 98 bd
       -0.04896842 0.0011632231 -0.060332708 -0.074498035
000320 4b ee 10 3e ca a7 05 3e e6 6c 72 bd 6c 77 0e be
       0.14153402 0.13052288 -0.059185885 -0.13912743
000330 b5 a2 68 3c 89 04 0b 3e 81 f7 a6 bd 52 5a 0f 3c
       0.014198949 0.13575949 -0.081526764 0.008749561
000340 03 f8 dd 3c f3 d2 f9 bd df 5f aa bc c6 77 f4 3d
       0.0270958 -0.121984385 -0.020797668 0.119369075
000350 7b c7 87 bd 32 9f 60 3d 85 55 ca bd 25 bd 0a 3e
       -0.06629845 0.05483932 -0.09879593 0.13548715
000360 92 86 61 bd 96 e4 15 3e a6 62 25 bd c4 43 df 3d
       -0.055059977 0.1463798 -0.04037728 0.10901597
000370 51 82 84 3d f8 26 90 3d 98 bb f5 bd 68 71 c2 bd
       0.064701684 0.07038683 -0.11998671 -0.09494287
000380 ab 5f cf bc df b1 ac bc 91 8a 16 bd 62 a5 0a 3e
       -0.025314173 -0.02108091 -0.03675324 0.13539651
000390 ac ac 21 3d 15 46 13 be b2 d6 92 3d 6c 86 86 3d
       0.039471313 -0.14382203 0.07169856 0.06568608
0003a0 29 24 04 3d 2b 91 12 be 03 f9 92 bd af 54 86 bd
       0.032261048 -0.1431319 -0.071764015 -0.06559121
0003b0 2c ae 01 be d4 e0 93 3d 1c 37 f3 3d 39 f0 05 3c
       -0.12664098 0.07220617 0.11875746 0.008174949
0003c0 ec 17 07 3d 6e 2f b6 bd da 37 9d 3d 39 5d d0 3d
       0.032981798 -0.08895765 0.076766685 0.10174031
0003d0 20 c2 ef bc 80 48 7d bc 62 6f 7a 3d 4e 16 af bc
       -0.02926737 -0.01545918 0.06114138 -0.02137294
0003e0 b1 97 85 3d de 9b 24 3e 55 fb 62 bd 6f 06 e3 3d
       0.065230735 0.16075084 -0.05541547 0.110852115
0003f0 34 c9 d3 3d fb 70 79 bd 17 b0 32 39 3b 2a 11 3d
       0.10341111 -0.060898762 0.00017041001 0.035440665

bias f4 [96]
000000 53 2e 24 b5 41 2b 63 b5 e0 3e a8 b6 bf 79 84 b2
       -6.116217e-07 -8.462703e-07 -5.01411e-06 -1.5422186e-08
000010 a6 6f 86 35 d1 15 76 34 94 e8 4b 34 09 ae c0 35
       1.0016272e-06 2.2918472e-07 1.899046e-07 1.4355766e-06
000020 51 6e 3f b6 42 e0 cc b4 b8 16 c9 b6 41 85 22 b5
       -2.852543e-06 -3.816113e-07 -5.9929116e-06 -6.054361e-07
000030 a2 58 b6 b4 55 e5 17 34 7b 25 3e b5 98 ee a3 b5
       -3.396463e-07 1.4146401e-07 -7.0835057e-07 -1.2213886e-06
000040 ca 20 05 b6 6f 3c 20 b5 62 4b 0d b5 74 80 d2 35
       -1.983763e-06 -5.969259e-07 -5.263629e-07 1.5683604e-06
000050 78 7c 98 b3 cb a4 5f b3 a7 c4 82 b5 0f b4 25 36
       -7.100692e-08 -5.2071112e-08 -9.742988e-07 2.4691724e-06
000060 44 9e e8 b5 e9 af a5 b6 63 db 50 36 f3 a5 a7 b4
       -1.7331408e-06 -4.937862e-06 3.1122115e-06 -3.1226918e-07
000070 20 6e 20 35 5c fb 78 b4 5c e3 20 b4 72 2c 16 36
       5.97649e-07 -2.3188244e-07 -1.4983874e-07 2.2377612e-06
000080 a7 12 23 36 13 37 cb b4 e6 6c 51 36 2d f7 96 b7
       2.429975e-06 -3.7851768e-07 3.1206814e-06 -1.7996494e-05
000090 51 2b d5 b4 6f 5b da 37 7e 81 83 b5 f4 08 d6 34
       -3.9705859e-07 2.6030202e-05 -9.797948e-07 3.986712e-07
0000a0 5d 63 46 b5 19 1a 23 35 e9 3b 7d b4 10 77 fb b5
       -7.390534e-07 6.076021e-07 -2.3584256e-07 -1.8735609e-06
0000b0 73 8a 24 35 c3 3c 2a 35 8e 90 77 b6 03 fc 8b 34
       6.129623e-07 6.3418355e-07 -3.689001e-06 2.607413e-07
0000c0 49 65 bc b4 2f ff ca b5 2f 2b aa 36 2a 76 18 36
       -3.5091423e-07 -1.5124441e-06 5.071422e-06 2.2718546e-06
0000d0 f5 bc 2d 34 16 de 52 35 f9 c1 47 b7 9e 08 3d b4
       1.6180623e-07 7.8554274e-07 -1.1906487e-05 -1.7605132e-07
0000e0 08 dc c4 35 03 22 96 b6 52 49 f6 34 3f 27 99 b2
       1.4667175e-06 -4.474308e-06 4.5874418e-07 -1.7829391e-08
0000f0 0a d3 6a b5 2b 9c b5 35 1a 47 be b5 44 de 1f 34
       -8.7478895e-07 1.3531002e-06 -1.4176796e-06 1.4888889e-07
000100 c5 7c e5 33 f5 bf 20 35 05 56 3d b5 16 1e e7 b4
       1.0686339e-07 5.988398e-07 -7.053316e-07 -4.3048993e-07
000110 25 68 ce 34 3e b2 48 32 8f cb b9 35 30 ac 9f b6
       3.8446265e-07 1.168206e-08 1.3842817e-06 -4.7586145e-06
000120 57 63 4d 35 93 2b 4a 30 af 6a 5d 35 92 21 2f 35
       7.651301e-07 7.3549095e-10 8.248416e-07 6.524143e-07
000130 40 89 bb b5 b7 9d fb 35 8c fe e0 b4 69 21 1f 36
       -1.3972531e-06 1.8746858e-06 -4.1908459e-07 2.3712294e-06
000140 17 a9 15 b5 43 03 7e b6 63 1b 25 b5 d5 10 39 35
       -5.5752884e-07 -3.7850848e-06 -6.1507143e-07 6.8942364e-07
000150 ae ae ab 37 b9 2a b4 36 2c 2e 46 b4 45 42 f2 35
       2.046613e-05 5.3693916e-06 -1.8456984e-07 1.8049692e-06
000160 59 5c 2c 35 1d 9c cf 35 fb 1f 67 35 95 1f 88 b5
       6.4209377e-07 1.5468137e-06 8.6100744e-07 -1.0141981e-06
000170 90 38 84 b5 fd e2 91 b6 c1 60 2a b7 0b 5d 26 b6
       -9.851228e-07 -4.3477617e-06 -1.0155317e-05 -2.4790086e-06

weight f4 [96]
000000 c4 2c 54 3f f0 a1 4e 3f f7 60 67 3f 9d ed 4c 3f
       0.82880807 0.80715847 0.9038233 0.8005007
000010 e2 ae 5f 3f 34 54 59 3f f1 8a 4a 3f 6c d3 52 3f
       0.87376225 0.8489411 0.7911826 0.82353854
000020 f0 e1 62 3f ca b4 59 3f 81 36 4e 3f 6b cc 36 3f
       0.88626003 0.8504149 0.80551916 0.7140567
000030 84 f2 43 3f a7 59 3b 3f c3 61 50 3f ba df 54 3f
       0.76541924 0.73183674 0.8139917 0.8315388
000040 01 d2 54 3f 37 e9 5a 3f 1d 32 62 3f f6 94 49 3f
       0.8313294 0.8551211 0.88357717 0.7874292
000050 e0 d0 52 3f 37 35 50 3f 4f db 43 3f 84 67 4b 3f
       0.8234997 0.813312 0.76506513 0.7945483
000060 19 5b 4e 3f 7a 11 5b 3f d8 91 42 3f a2 2f 51 3f
       0.80607754 0.8557354 0.7600379 0.81713307
000070 d1 d1 64 3f b4 5c 48 3f 10 ce 53 3f 7f 43 5a 3f
       0.89382654 0.78266454 0.827363 0.8525924
000080 e2 c7 67 3f c2 e3 4b 3f d3 a8 60 3f 8d 23 60 3f
       0.9053937 0.79644406 0.87757605 0.87554246
000090 cc 7b 5d 3f 97 47 68 3f a5 d7 59 3f 45 90 3b 3f
       0.86517024 0.9073424 0.8509467 0.7326701
0000a0 1a 57 50 3f 3a 79 56 3f 90 7a 4d 3f 46 ff 43 3f
       0.81382906 0.8377873 0.8026514 0.7656139
0000b0 01 3b 3c 3f 99 40 5b 3f 38 14 71 3f 4d 92 41 3f
       0.7352753 0.85645443 0.94171476 0.7561386
0000c0 e4 65 58 3f 86 ce 49 3f 61 35 5e 3f fc 65 41 3f
       0.8453047 0.78830755 0.868002 0.7554624
0000d0 b5 27 48 3f e8 51 64 3f 65 df 71 3f 46 8d 58 3f
       0.7818559 0.8918748 0.944815 0.84590566
0000e0 e4 5c 5e 3f db 4b 49 3f d7 b4 58 3f ff e4 34 3f
       0.8686049 0.7863137 0.8465094 0.7066192
0000f0 be 63 61 3f 02 ad 52 3f b5 5f 50 3f d2 31 4e 3f
       0.8804282 0.8229524 0.8139604 0.8054477
000100 7a ce 46 3f d7 cf 38 3f 33 a5 4a 3f 56 52 58 3f
       0.7765881 0.7219214 0.79158324 0.84500635
000110 d7 51 48 3f 79 8e 4a 3f 98 31 50 3f 0b 47 44 3f
       0.7824988 0.79123646 0.81325674 0.766709
000120 75 e0 44 3f e7 f1 65 3f 8a 1f 68 3f 21 d8 37 3f
       0.76904994 0.8982224 0.90673125 0.7181416
000130 23 ea 5b 3f d6 e6 4c 3f eb dc 5c 3f 65 80 59 3f
       0.8590414 0.8003973 0.86274594 0.8496154
000140 61 ad 4c 3f d4 7c 3c 3f 1f 5f 40 3f 7f 54 54 3f
       0.79952055 0.7362797 0.75145143 0.8294143
000150 3a 8d 53 3f d6 97 5b 3f fc c6 53 3f 8e 0a 4a 3f
       0.8263737 0.8577856 0.827255 0.78922355
000160 51 08 4c 3f e4 59 3e 3f 88 cb 52 3f 0d fd 49 3f
       0.7970019 0.7435591 0.82341814 0.7890175
000170 4b 0d 48 3f e0 e2 68 3f b9 52 43 3f 6a 5d 58 3f
       0.78145283 0.90971184 0.762981 0.8451754

bias f4 [96]
000000 67 a5 3e 37 40 97 e7 3c d1 0f 60 ba 90 e5 ad bc
       1.1363393e-05 0.028270364 -0.00085472787 -0.021227628
000010 c8 3e 10 3d 0d 12 11 bd 10 9d 78 bb fd d3 85 bc
       0.035216123 -0.035417605 -0.0037935413 -0.016336435
000020 2e 8c 6d bc 03 4b 9c bc 19 ca 16 3b 28 d7 50 bc
       -0.0144987535 -0.019078737 0.0023008643 -0.01274661
000030 33 d4 26 bb e4 40 1d bd e3 2a 74 bc 52 95 61 bd
       -0.002545607 -0.038391963 -0.014902803 -0.055074044
000040 eb f5 a0 ba 7f ed b7 bc a1 2c 33 3a 7f 3d d5 bc
       -0.001228032 -0.022452114 0.00068349583 -0.0260303
000050 be 7d e9 bc 69 c6 bc 3c ef b2 62 bc d4 94 b4 bc
       -0.028502341 0.023043828 -0.013836606 -0.022043623
000060 36 c6 63 bd 08 e5 16 bc 8c 2e 85 bc 21 e6 02 3c
       -0.05560895 -0.009209879 -0.016257547 0.007989437
000070 76 66 1c bd ee ef 2c 3c 54 ee d1 bc 8c 5e 2b bc
       -0.038183652 0.010555251 -0.025626339 -0.010459553
000080 44 e5 40 bc 93 1d f1 bb 49 d6 53 bb 3b f3 b0 bc
       -0.011773411 -0.007358262 -0.0032323769 -0.021600356
000090 a6 d1 d7 bc e9 35 87 bc 5c 3d 7e bb a3 3f 7e bc
       -0.026345085 -0.016505199 -0.0038793897 -0.015518102
0000a0 a0 b8 94 bb 13 48 74 3c 94 62 9d bc d4 3d 20 bd
       -0.0045386106 0.014909762 -0.019212045 -0.039121464
0000b0 8b 5d b1 3c 66 06 28 bc c7 29 c7 bc 86 6a a3 bc
       0.02165105 -0.010255432 -0.024311913 -0.019948255
0000c0 0c 38 c9 bb 59 20 3c 3c 2b 9e 82 3a ef 36 fa bc
       -0.0061407145 0.011482322 0.0009965351 -0.030543773
0000d0 06 d8 62 bc 99 0f 93 bb 67 50 6f bb 74 79 68 bc
       -0.013845449 -0.0044879434 -0.003651643 -0.014189113
0000e0 e2 02 1e bd 52 03 8c bb a9 b4 13 3c 4d c6 81 bb
       -0.038576968 -0.0042728567 0.009015241 -0.003960407
0000f0 0b 43 bf bc 71 fe de bc 88 20 9d bc 58 1f 5a bc
       -0.023347398 -0.027220936 -0.019180551 -0.013313137
000100 36 de 88 3c e8 dc d8 bb d8 71 df bc c5 c0 be bc
       0.016707521 -0.006618131 -0.027275965 -0.023285279
000110 ee 59 d0 bc c4 99 8e bb ac d6 39 bc 68 95 8f 3c
       -0.025433507 -0.0043518264 -0.011342686 0.017527297
000120 12 cf da bc b4 3a 6e 3b ea 18 70 3b 8b bb a1 bc
       -0.026710067 0.0036350908 0.0036635944 -0.019742748
000130 60 9a 96 bc 5d f8 49 3c 87 9a 43 bc c3 a4 23 bc
       -0.018384159 0.012327281 -0.011938698 -0.009988013
000140 64 04 f9 bc a2 4a 3b bc f7 13 ff 3b 68 29 58 bc
       -0.030397601 -0.011431368 0.0077843624 -0.013193466
000150 09 50 13 bc 35 60 d9 bc 59 ce 94 bc cf 46 4d bb
       -0.00899125 -0.026535133 -0.0181648 -0.0031322723
000160 b0 1a 37 bc 29 cb 8c 3c 04 10 ec ba d6 7d b7 3b
       -0.011175796 0.017186718 -0.0018010144 0.0055997176
000170 44 ba 34 3c ee 58 14 bd 11 df ee 3c ef 05 37 3c
       0.011030737 -0.036217622 0.0291591 0.011170848

running_mean f4 [96]
000000 6c f0 a6 bd 5a 34 50 bd 31 53 a9 bd ac 15 53 3e
       -0.081513256 -0.050831176 -0.082678206 0.20613736
000010 c0 7a 16 be a4 41 ed 3e 89 be da be 9d 21 ef 3d
       -0.14695263 0.46339142 -0.42723492 0.11676333
000020 9d 23 d1 3d e0 da 88 3e b2 44 a5 be 40 00 4c be
       0.10211871 0.26729488 -0.32278973 -0.1992197
000030 f5 05 59 3d 26 d8 5c bd d7 59 f6 3d 4d f3 0e 3f
       0.052984197 -0.053917073 0.12028854 0.5584
000040 76 af 9b be b8 1d b5 3e 0a 1f f0 3d 00 40 18 3e
       -0.30407304 0.35374236 0.1172467 0.14868164
000050 8d 09 b7 3e 8f b3 10 3e 65 41 ef bd af 93 37 3e
       0.35749474 0.14130996 -0.11682395 0.1792743
000060 e2 51 a2 3e 53 fe 09 be 13 a2 f7 bc 0c a8 a0 be
       0.31703097 -0.13475923 -0.03022865 -0.3137821
000070 4e e2 be 3e cd 0d 84 3e d2 bd 8b be 63 72 d7 3c
       0.37282032 0.2579178 -0.2729326 0.026299661
000080 64 ee 6f be 51 69 1d be 5a 40 6c 3d 7b 8d 34 bd
       -0.23430783 -0.15372206 0.057678558 -0.04408024
000090 f7 5e 6c 3e 29 7e 3f 3d e4 cb ab 3e 7c c9 81 be
       0.23083101 0.046751175 0.33553994 -0.25349033
0000a0 7a 8c b6 3d e6 70 a5 be 74 08 71 be 3d cd 8f bb
       0.089135125 -0.32312697 -0.23538381 -0.00438848
0000b0 58 f7 6c 3d 97 f5 f5 bc 9c 5b 5f be 95 1d b9 3d
       0.057853073 -0.030024333 -0.2181229 0.090388454
0000c0 e0 e7 08 be e2 39 00 bc f8 4c 39 3e 52 e9 8c 3e
       -0.13369703 -0.0078263 0.18095767 0.2752176
0000d0 fd 0a 0c 3e 50 a2 ae bd 14 3e 26 be c6 6b 7e 3e
       0.13676067 -0.085270524 -0.16234618 0.248458
0000e0 61 5e ac 3e e2 be e6 bd 9b d8 55 3e 28 ab bc be
       0.33665755 -0.11266877 0.2088341 -0.36849332
0000f0 78 ff 89 3d f3 60 0c be d5 05 64 3c dc ac 0f bd
       0.0673818 -0.13708858 0.013917406 -0.03507696
000100 ee 0d 35 bd cb 0c b1 bd a2 10 63 3e 9d 53 15 3e
       -0.044202738 -0.08645018 0.22174314 0.14582677
000110 fe c7 d4 bd 63 0c 49 be 1c 12 d7 bd 0c a2 46 be
       -0.10389708 -0.19633631 -0.10501501 -0.19397753
000120 2a 76 69 3e 91 bf db be d7 89 00 3e 6d a3 11 be
       0.22798982 -0.4291959 0.12552582 -0.14222498
000130 3e 2a b7 3e 95 cc 22 be c8 fa 04 bd 7a 8d 31 be
       0.35774416 -0.15898354 -0.032465726 -0.17339125
000140 c8 67 de 3e b3 ad db 3c f6 40 1b be 83 d1 d9 bd
       0.43438554 0.026816225 -0.151615 -0.10635664
000150 b8 0c ad 3d d2 2d c2 3e a5 ad 84 3e 16 7b 2b 3e
       0.084496915 0.37925583 0.2591373 0.16746172
000160 fc fe 09 be 5e 92 8a 3d 30 53 4b be b1 32 41 be
       -0.13476175 0.067661986 -0.19855952 -0.18866993
000170 fc 12 32 3d ef a5 7e be 66 0a 67 be 22 85 f4 bc
       0.043475136 -0.24867986 -0.2256256 -0.029848639

running_var f4 [96]
000000 11 cf 46 3d 09 aa 96 3c 25 70 43 3d d3 9c 61 3d
       0.048537318 0.018391626 0.04771437 0.0550812
000010 14 0e 3a 3d 82 7c a6 3d 36 4a c3 3d 5e 39 5a 3d
       0.045423582 0.08129217 0.09535639 0.053277366
000020 60 ae 0f 3d 0b 6a b3 3d 95 d9 31 3d 46 17 fc 3c
       0.035078406 0.087604605 0.043420393 0.030772816
000030 11 b9 33 3d 51 57 27 3d bc 84 4b 3d 92 98 d8 3d
       0.043877665 0.040854756 0.049687132 0.105759755
000040 e0 3e 79 3d ff dc c9 3d 21 29 20 3d 5e da 29 3d
       0.060850978 0.09856605 0.039101724 0.041468017
000050 3f 51 79 3d 8b 2a 0f 3d 30 13 89 3d a2 4c bc 3c
       0.060868498 0.03495268 0.06693113 0.02298576
000060 d1 55 89 3d ca 1c fb 3d 2d fc 1e 3d a1 69 81 3d
       0.06705821 0.122613505 0.038814712 0.06318975
000070 75 2e 56 3d 9b 93 3e 3d d7 b4 22 3d b8 3a 47 3d
       0.0522904 0.046527486 0.039723244 0.048639983
000080 fd 58 88 3d ad d9 15 3d fb 2d 75 3d f2 95 0a 3d
       0.06657598 0.036584545 0.059858304 0.033834405
000090 bb 14 b9 3d 51 78 50 3d d9 8f 7c 3d df 89 2e 3d
       0.09037157 0.050895993 0.06166062 0.042611953
0000a0 d4 1a 95 3d da a5 b4 3d d7 37 03 3e ad 0e 06 3d
       0.07280508 0.08820696 0.1281427 0.03272884
0000b0 fc 63 04 3d 7b b6 50 3d f6 5a 4e 3d 27 30 d5 3c
       0.032321915 0.050955277 0.050379716 0.026023937
0000c0 7d 5a 92 3d 89 e8 30 3d b7 2f 1c 3d 08 15 28 3d
       0.071461655 0.043190513 0.038131442 0.041035682
0000d0 1c 6d 07 3d dc cd 61 3d 80 ce b2 3c 75 72 10 3e
       0.03306304 0.055127963 0.021826982 0.14106162
0000e0 61 81 a2 3d 9e 65 02 3d 3b a5 82 3d b8 85 4f 3e
       0.07934833 0.03183519 0.063791715 0.20265853
0000f0 cd c9 7b 3d bb c0 c6 3d 29 56 01 3e 9d 9c e2 3d
       0.06147175 0.09704729 0.12630524 0.11065028
000100 be 70 9b 3d 0b a8 40 3d 75 cc 31 3d bc e7 5d 3d
       0.07589863 0.04703526 0.043407876 0.054176077
000110 b3 59 d6 3c d8 1c 56 3d b9 87 0f 3d 7e d6 43 3d
       0.026165819 0.0522736 0.035041545 0.047811978
000120 f6 aa 2c 3d 66 62 5b 3d 2c b2 8d 3d ec 0e 4f 3d
       0.04215523 0.053560637 0.06918749 0.05055134
000130 16 b1 84 3d 4e 72 44 3d 99 59 a3 3d b5 d8 28 3d
       0.06479089 0.047960572 0.07976074 0.041222293
000140 d4 8e 5b 3d 73 e4 e6 3c 70 bf 5b 3d b6 ed e5 3d
       0.05360301 0.028185105 0.053649366 0.112269804
000150 64 84 1c 3d e8 b2 41 3d 37 44 03 3e f4 73 18 3d
       0.038212195 0.04728976 0.1281899 0.037219957
000160 57 b0 22 3d c8 31 2e 3d a0 e1 4d 3d 75 d4 8c 3d
       0.039718952 0.042527944 0.050264 0.068764605
000170 cf 47 eb 3c 0c 97 7a 3d df ef a2 3d 3b 4d 4c 3d
       0.028720764 0.061179206 0.07955908 0.04987834

weight f4 [48, 96, 3, 3]
000000 09 fd c8 bb ea 5e a5 bc 58 1d d4 3b da d0 4c 3c
       -0.0061336798 -0.02018686 0.0064732246 0.012500966
000010 41 5e 1d 3c 15 95 03 bc 55 28 47 bc be ef 91 bc
       0.009604991 -0.008031149 -0.012155612 -0.017814513
000020 9c b7 05 bd 90 31 21 3c e1 29 11 3c 83 e3 53 3c
       -0.032645807 0.009838477 0.008860082 0.012932661
000030 30 c6 07 b7 4b a4 2e ba bf 2f af ba 62 32 20 3d
       -8.092771e-06 -0.0006662055 -0.001336567 0.03911055
000040 5f c8 9b 3c 4a e4 00 3d d1 98 61 3c 65 52 b8 3c
       0.019016443 0.031467713 0.013769344 0.022500226
000050 11 47 04 bb 79 74 2f 3c af e2 a5 3c a1 65 07 bc
       -0.002018396 0.010708922 0.020249693 -0.008263976
000060 8d f5 22 3b 71 1e cb 3b eb 76 b9 3b 50 cf 4a 3c
       0.0024865598 0.0061986973 0.005659928 0.012378529
000070 83 8f ce bc f7 f0 9b 3b f3 2f ad bb fc 7d f4 bc
       -0.025214916 0.00475895 -0.005285257 -0.02984523
000080 86 a3 3a 37 98 91 57 3c 63 d3 6b bc c3 00 40 bc
       1.1124537e-05 0.013157271 -0.01439366 -0.011718932
000090 c7 59 e9 ba b9 e0 6b 3c 45 94 e7 3b 3f 99 a7 bb
       -0.0017803245 0.01439684 0.0070672357 -0.005114704
0000a0 8e 45 1e 3b 4a 53 d7 b9 9c 17 b8 3c aa 54 06 3d
       0.0024150345 -0.0004107005 0.022472195 0.032795586
0000b0 a1 c4 96 3c e7 27 9e 3c 70 89 8c 3c 36 58 d2 bc
       0.018404307 0.019306136 0.017155379 -0.025676828
0000c0 be 10 7e 3c b0 8e f8 bc fa df 1f bc d2 70 69 bb
       0.015506921 -0.030341476 -0.00975799 -0.0035620225
0000d0 73 f2 8e bb 6c 06 eb bc 0d 55 86 3b 8d 92 ce 3b
       -0.0043623983 -0.028689586 0.0040994943 0.0063040913
0000e0 94 f7 b9 bc 96 2a a0 3c 7c ac 81 3b b8 fd 3f bb
       -0.022701062 0.019551557 0.0039573293 -0.0029295515
0000f0 4b 6e 6c 3c aa a0 f5 bc b2 4a 79 ba f0 42 cd bb
       0.014430593 -0.029983837 -0.00095097267 -0.006264083
000100 61 36 01 bc 9f 49 48 bc fb 87 8b 3c ea b0 73 3c
       -0.0078865 -0.012224584 0.017032614 0.014873723
000110 db 89 17 bc 25 d9 c2 bc 3e 1e 7f bc f3 2c a5 bb
       -0.009249176 -0.023785183 -0.015571175 -0.0050407588
000120 07 af c4 bc c4 92 ab bb 44 07 42 bc 2e 2b e4 3b
       -0.02400924 -0.0052360017 -0.011842553 0.006963155
000130 9e cf 20 3b 2f 88 f6 bb e4 89 66 3c f7 ef ab 3c
       0.0024537812 -0.0075235586 0.014070962 0.020988448
000140 85 e2 a9 bb ae 53 8f bc e7 d5 c7 bc a9 ac 38 bc
       -0.005184474 -0.017495956 -0.024393989 -0.011271634
000150 1c 02 72 bb 4c 0d 26 3c 2b 20 8b bc 44 e1 b8 3c
       -0.0036927527 0.010135006 -0.016983112 0.022568353
000160 0c 0e 25 bc 4f 73 7b bb c2 ee a2 3c 40 ee 0c bc
       -0.01007415 -0.003836829 0.01988924 -0.008601725
000170 c7 80 83 3b 07 89 88 bb cd 2f 11 bc 35 05 0f bc
       0.004013154 -0.0041667256 -0.008861494 -0.008729269
000180 7e 37 9f bc 99 4a cc ba 3d e3 72 bc ab 57 27 3c
       -0.01943564 -0.0015586197 -0.014824686 0.010213773
000190 88 24 4b bb 1c 40 6f bb d7 04 6c 3b 58 4e 19 bc
       -0.0030997116 -0.0036506718 0.0036013627 -0.0093570575
0001a0 f5 82 ff 3b c9 3d 0b 3c a2 20 b6 3b 20 82 da ba
       0.0077975937 0.008498617 0.0055580894 -0.001667086
0001b0 c1 1d 2e bc 44 26 d3 39 dd 86 40 bc de 4d 33 3c
       -0.010627211 0.00040273566 -0.011750904 0.010943858
0001c0 bd a9 12 bc 85 8b 37 3b e9 25 3f 3c 82 25 26 3b
       -0.008951602 0.0028006744 0.011666753 0.0025351946
0001d0 ce 1a 13 bd a0 df 67 3c de 5a 5a 3c b6 b2 a3 3c
       -0.035914235 0.014152437 0.0133273285 0.019982677
0001e0 78 79 2b bc 03 a6 c5 bb 1f 41 b6 3c be 16 5b 3b
       -0.010465972 -0.006031753 0.022247849 0.0033430303
0001f0 89 f5 b7 3c 3b 50 0a 3c 5d cb 9d 3c f5 75 a5 3c
       0.022455947 0.00844198 0.01926201 0.020197848
000200 b3 4a 36 3c b4 a0 a3 bc 2e c8 01 3d 9e 1d 9c bb
       0.011126208 -0.01997409 0.031685047 -0.004764273
000210 a3 9f e2 bc 89 8c 56 3b 7c ad 67 bc a0 41 bc 3b
       -0.027664011 0.0032737574 -0.014140483 0.005745128
000220 f3 9f 81 bb ee 7c a2 3c bf de a9 bc b9 c2 09 bc
       -0.003955835 0.019834962 -0.020736096 -0.008408242
000230 36 fd c4 bc bd e4 6d ba d3 16 03 3c dc 1d c0 3c
       -0.024046522 -0.0009074917 0.008001047 0.023451738
000240 62 cd 55 3c 8b 5a b0 bc ed b1 cc bc 05 8d 32 bb
       0.013049455 -0.02152755 -0.024987185 -0.0027244699
000250 d4 7d 98 bc 23 20 55 bb 5f 03 9a 3a 2b f3 b9 bc
       -0.018614687 -0.0032520376 0.0011750272 -0.02269896
000260 3a f6 84 bc 26 03 b4 ba 65 a0 91 3a 3f 37 10 3c
       -0.016230691 -0.0013733848 0.0011110423 0.008802234
000270 de d9 8d 3c 00 78 3f 3c cd 74 d9 3a 23 b8 a3 3b
       0.017315801 0.011686325 0.0016590595 0.004996316
000280 5b bb 44 bb 71 3c d1 bb a6 c3 a2 bb 13 8e d0 bb
       -0.00300189 -0.006385379 -0.004967171 -0.006364593
000290 49 fb c8 bc 26 c0 13 bb e4 a6 a6 bc 6b a6 3b 3c
       -0.024533885 -0.002254495 -0.020343252 0.011453251
0002a0 99 26 66 3a 60 16 97 3c 00 a6 fa 3b e2 98 20 bc
       0.0008779555 0.018443286 0.0076491833 -0.009802075
0002b0 01 05 02 bc 29 df c2 bb 2a 8d ad b8 65 7d 87 3c
       -0.007935763 -0.005947013 -8.275577e-05 0.016539285
0002c0 e7 b5 45 bc 8e 28 fb bc b3 d9 ca bc d0 ef 08 bd
       -0.012067295 -0.030658986 -0.02476201 -0.033431828
0002d0 8e b7 47 bb a3 a4 63 bc d7 b3 ec 3a 84 a8 0d 3c
       -0.0030474397 -0.013894233 0.0018058968 0.008646134
0002e0 95 94 85 bc da a6 9a 3c ee c7 e1 bc d7 af 9d bc
       -0.016306201 0.01887839 -0.027561154 -0.019248886
0002f0 6a fa 6b bc c9 98 bc bb e8 6f 03 bc 9f 6f 82 bc
       -0.014402965 -0.005755518 -0.008022286 -0.015922366
000300 2a 47 8a 3c fa 6c 85 bb e0 2d a6 bb 65 f2 cf bc
       0.016879637 -0.004071829 -0.0050713867 -0.025384137
000310 ba 96 77 bc 09 93 45 3c b5 bb b1 bc 68 e5 d2 bb
       -0.01511162 0.012058982 -0.021695951 -0.0064360388
000320 20 d2 8b 3c 78 2a 8a bc 26 8c 1c bc 42 1c db 3c
       0.017067969 -0.016865954 -0.009554898 0.026746873
000330 8d b4 64 bb 8d f7 b7 3b 3d 11 0d 3c 6b f4 22 3c
       -0.0034897656 0.005614227 0.008610067 0.009945969
000340 1e 2b a8 bb 5e 9d 23 bb 23 25 78 3b 44 57 90 3c
       -0.005132093 -0.0024965624 0.0037863932 0.017619736
000350 31 a8 2e 3c e8 d8 1d bc 6e 47 85 3c f7 65 16 3c
       0.010660217 -0.009634234 0.016269412 0.009179584
000360 3d 0f aa 3b 29 f8 94 bc 2e e7 a8 3c e3 e4 c3 bb
       0.005189805 -0.018184738 0.020618048 -0.005978213
000370 c7 d2 d5 ba f4 0a 48 3a 67 66 bf 3b de e9 d7 bc
       -0.0016313427 0.00076310267 0.0058410647 -0.026356634
000380 13 fb c4 bb f0 82 ba bc 6b 69 2d bc 41 02 05 ba
       -0.0060113757 -0.022767514 -0.010584216 -0.0005073883
000390 52 75 a0 bc 30 85 35 bb e6 23 34 3c 60 80 3d bc
       -0.019587193 -0.0027697794 0.010994887 -0.0115662515
0003a0 7a f5 a8 bc f9 a0 6b bc 5b e4 08 3c a8 f5 6f b8
       -0.020624865 -0.014381641 0.008355225 -5.7210826e-05
0003b0 42 42 3f bb f3 bf 06 3c 58 60 82 3c 45 51 cb bb
       -0.002918378 0.008224475 0.01591508 -0.0062047564
0003c0 7c 55 53 3b ec 1b ae 3b 5f 99 34 3c 2f 1c a8 3a
       0.0032246998 0.005313387 0.011022895 0.0012825782
0003d0 d7 e1 f6 3b bf 53 84 bb a0 f4 08 3c 42 ea 7f bc
       0.0075342464 -0.0040383036 0.008359104 -0.015619816
0003e0 2d 61 ce 3b 01 29 d2 3b e1 a6 df 3b 35 20 ee 3a
       0.0062982053 0.0064135795 0.0068253134 0.0018167557
0003f0 c6 77 2a bc 08 57 f3 3b 8a 3e 48 3a ee d9 b1 3c
       -0.010404533 0.0074261464 0.00076387136 0.021710362
