weights/CapeTown.model.weights.pt (torch, 68991 bytes, 10 tensors)

conv1.weight f4 [16, 3, 3, 3]
00000000: b236 3d3d ae3f 23bc 105c d3bb 1fa7 91bd
00000010: 1a38 38bc 5043 bdba dde7 7f3b d05e 82bb
00000020: be3c 923b f81a 04bd d23f 92bc ae82 afbb
00000030: 685b 90bc 62ca f1bb 5078 4dbb 0e2e 1dbd
00000040: d825 04bb 22d0 b23b 82de 443d 9e25 0ebc
00000050: 66f8 363b 78e5 a43d 5c4f 853a 6388 003c
00000060: e35f d1bb 6ca5 d33b de81 003c 5b2e 3abd
00000070: e33f acbd 9a00 373e 3063 34be 47c1 3fbe
00000080: dda3 253e cd1a c43d 3a0d 093e 660b 4a3d
00000090: f390 903a 3950 c03d 9f77 b53d cc25 e23d
000000a0: dc7c 50bd 3aa2 aabd f299 0fbd fc20 143e
000000b0: f224 80bd 9bc8 073e 654a f0bb 7794 023e
000000c0: e78a 88bd ad6d 9ebd b391 cdbc f02d 8a3d
000000d0: d437 333e 7886 3e3e 48ca 243e 55ed 6cbd
000000e0: bded 7dbd 9deb dabd 2970 1a3e 1582 dbbd
000000f0: cdd2 8f3d b252 2e3e 0cfa 09be f962 e7bd
00000100: 53c9 173e 08f3 d83d 9c77 133e c2dc 2fbe
00000110: 0cf7 823d df99 0cbc fdc4 2a3e df88 b13d
00000120: 200e 85bd a187 36be aedc 363e 4fb7 c63c
00000130: 6f67 9a3c f014 d13d 4507 04be ebdd 0c3e
00000140: ade0 a0bd 6ce7 65bd 0e62 d9bd dfd4 b1bd
00000150: b88c 7d3b 9c9c 89bd 967f 193e d781 213e
00000160: 3830 5fbd 236e 2f3d 6e92 433d 9a2a 00be
00000170: 32fa b33d e361 033e f32e db3d cf87 283e
00000180: 5cb6 29bc 9095 1f3e 273c aebd 698c 65bd
00000190: 9eb0 c7bd f99d d3bc 429c 633c 0a34 0c3c
000001a0: d452 603c f020 96bd 9bb8 2abe a174 973c
000001b0: 693a 7f3d 9757 c8bd a79e da3c 9818 20bd
000001c0: a0e9 88bd 610d a73d 8102 243c c069 60bd
000001d0: 86f1 edbd c86a 0c3e a8f2 d13c 1d17 23be
000001e0: 722e 303e 2893 d1bc 02b8 0dbe 88ff 70bc
000001f0: 7868 f1bd be09 f83d 575a 84bd 67a8 0a3e
00000200: 6ce9 00bd 045c 623d e736 ba3c 632c ee3d
00000210: bc96 d8bd bbdc 1e3e f6d3 7e3d 5357 8f3d
00000220: be67 f03d 3e53 4e3d f1ec 213e 5ad7 413e
00000230: 37a2 20be 016f 143e 922b 1e3e aec0 e8bc
00000240: 68e2 36be d726 1b3e b02e 19bd 429e 043e
00000250: cd12 20be 8eb9 b8bd 6087 16bd 38c4 24be
00000260: ccd4 f1bd 1ec1 d73c d437 113e 4312 2bbe
00000270: 07ff eb3d 9886 013d d0fb 39be 2873 f5bd
00000280: 8d42 4dbd 17d1 683d 40b3 c5bc 8ce3 c5bd
00000290: 2bd1 5bbb 0977 fcbd a2fe 17be 5379 d03d
000002a0: d4bc 1d3d c130 76bc 574a 8dbd c1ea 70bd
000002b0: fb01 233e 0c11 64bb 9b67 2c3e 2cbd 42ba
000002c0: 2acf aa3c f6a2 333e 1c1b 2ebe 1c86 283e
000002d0: 0d7d 07bd fcf2 ac3d 29fd 713d d227 fe3d
000002e0: 72a7 c43d 39be c5b8 35a5 1e3e 2813 0c3e
000002f0: 71f7 9abd a666 103d 8522 ea3d b506 dfbd
00000300: ac04 f6bd 1cdb b73d ff97 debd f4f3 cbbc
00000310: f874 59bd 9ddc 04bd 3852 3c3e 9720 483d
00000320: c972 afbd ac02 363e e26f cf3d 57b3 debd
00000330: 157b cabc 2fcc b23d e019 843b 64b1 c33d
00000340: f2d8 53bd 59e8 c8bc c562 c13d 2780 273e
00000350: ef6f f4bb 30a2 44be dd0e 9b3d 4984 45bd
00000360: 205e e1bd 9756 b4bd ecdc 333e a583 e53d
00000370: 0d83 d1bd c97f e2bc 487e 30bd bab6 79bb
00000380: 09b8 143e cf17 1bbe 8e5a fd3d 2c1a 2e3e
00000390: 8f25 c6bd bcea 11be 6947 e33c 5842 0e3e
000003a0: 1c57 3cbe d674 2fbe 7cff bbb8 d275 943d
000003b0: 0a92 213e 98ff c3bd 5a3d fabb 75f3 863d
000003c0: a3b3 033e 6e62 3f3e 5b86 f6bc 6393 76bd
000003d0: 1acd c0bd e203 c2bd 7119 f53d 152f 8cbd
000003e0: f26b 193e a34a 103e 3ce8 3cbd 7c7c 03be
000003f0: e8ae 17be 22c3 ca3d 3834 10be ea43 f2bc
0.04619474 -0.009963913 -0.0064501837 -0.07111954 -0.011243844 -0.0014439616 0.0039048113 -0.0039785877
0.0044628074 -0.032252282 -0.017852698 -0.0053561544 -0.01762171 -0.0073788622 -0.003135223 -0.038374
-0.0020164158 0.0054569403 0.048063762 -0.008675961 0.0027919053 0.0805158 0.0010170746 0.007845017
-0.0063896044 0.006458929 0.007843463 -0.045454364 -0.08410623 0.17871323 -0.17615962 -0.18726073
0.1617579 0.09575424 0.13383952 0.049327277 0.0011029526 0.09390301 0.088607065 0.110423654
-0.050900325 -0.083317235 -0.035058923 0.14465708 -0.06257047 0.13260119 -0.0073330873 0.12751947
-0.066671185 -0.07735763 -0.025093889 0.06747043 0.17501765 0.18605983 0.16092789 -0.057843525
-0.061994303 -0.10689471 0.15081848 -0.107181706 0.07022629 0.17023733 -0.13474292 -0.112981744
0.14822893 0.105932295 0.14401096 -0.17174056 0.06394777 -0.008581608 0.16676708 0.08668684
-0.06496835 -0.17825176 0.1785762 0.02425733 0.01884815 0.10209072 -0.12893398 0.1375653
-0.078553535 -0.056128904 -0.106144056 -0.0868318 0.0038688611 -0.06719324 0.14990076 0.15772186
-0.054489344 0.042829644 0.047747068 -0.12516251 0.08787955 0.1283031 0.10702314 0.16458057
-0.010358419 0.15584397 -0.08507567 -0.05604211 -0.09750484 -0.025832163 0.013892235 0.008557329
0.013691623 -0.07330501 -0.16671984 0.01848823 0.062311564 -0.097823314 0.02668698 -0.039085954
-0.066851854 0.08156849 0.010010363 -0.05478835 -0.116183326 0.13712609 0.025628403 -0.15926786
0.17205217 -0.025582865 -0.13839725 -0.014709361 -0.11787504 0.12111233 -0.064625435 0.13540803
-0.03147261 0.055263534 0.022731258 0.1162956 -0.10575625 0.1551389 0.06221386 0.06999078
0.11738537 0.050372355 0.15813042 0.18929806 -0.1568688 0.1449547 0.15446308 -0.02841219
-0.17859805 0.15151535 -0.03739804 0.12950996 -0.15632172 -0.09019767 -0.036750197 -0.16090477
-0.11808166 0.026337203 0.14181453 -0.16706185 0.11523252 0.0316225 -0.18162465 -0.11984855
-0.050112296 0.05684003 -0.024133325 -0.09662542 -0.0033541422 -0.12327392 -0.14843228 0.10179391
0.03851016 -0.015026272 -0.06898945 -0.05881763 0.15918724 -0.00348002 0.16836397 -0.00074287015
0.020850737 0.17542633 -0.17002529 0.16457409 -0.033078242 0.08444783 0.059079323 0.12409939
0.0960225 -9.429124e-05 0.15492709 0.13679183 -0.07566727 0.035254143 0.11432365 -0.10889951
-0.1201261 0.08977339 -0.10868835 -0.0248966 -0.053090066 -0.032436956 0.18390739 0.048859205
-0.085668154 0.17774457 0.10128762 -0.1087405 -0.024716893 0.08730351 0.004031405 0.09555319
-0.051720567 -0.024524854 0.09442667 0.1635748 -0.0074596326 -0.19202495 0.07571194 -0.04822186
-0.11004281 -0.08805578 0.17564744 0.1120675 -0.10230074 -0.027648823 -0.04308918 -0.0038103298
0.14523329 -0.15145801 0.123707876 0.17002171 -0.096751325 -0.142497 0.027744012 0.13892496
-0.18392605 -0.17134413 -8.9644425e-05 0.07249035 0.15778366 -0.09570235 -0.007636708 0.065894045
0.12861495 0.18689892 -0.030093363 -0.060199153 -0.0941412 -0.09473397 0.11967743 -0.06844918
0.14982584 0.14090972 -0.046119913 -0.12840456 -0.14812815 0.099005 -0.1408242 -0.0295734

conv1.bias f4 [16]
00000000: 2412 3a3e 6bbc b0bb 51aa f33d dee9 ff3d
00000010: 49e2 413e 4931 e53b b5ed 5c3d 16a3 933d
00000020: 27a2 16be f4bb 773b 20c2 4d3e 5efa ffbd
00000030: e769 8abd d2ca 1cbe 30af bdbb 7646 1e3e
0.18170983 -0.005393555 0.1189772 0.124957785 0.18933977 0.0069944006 0.053937633 0.072088405
-0.14710294 0.0037801238 0.20093584 -0.124989256 -0.067584805 -0.15311745 -0.0057887062 0.15456566

convx.weight f4 [16, 3, 5, 5]
00000000: 80a9 d13c e5b1 b23c f512 343c e15b d8bd
00000010: 097d 17bd 9748 88bd 9695 cd3d 52be 863d
00000020: 941e 0c3d b04e 6ebd b097 cd3d 9105 af3d
00000030: c5a5 6d3d bd10 9a3c fb64 74bd 09d3 e6bd
00000040: 2e52 24bd 28ca d6bd 1610 953d 5107 a23d
00000050: bf51 b63d 3c4e 56bd 4e2d 683d f6e3 adbd
00000060: 6364 b43d 91d7 af3d eb8f d63d 2fe0 593d
00000070: 2227 b9bd 89eb a03b 8242 fbbc f984 9f3d
00000080: bf82 19bd 7b3c d3bd 7cb1 d93c 8a5c c2bc
00000090: 6367 c63a c326 b9bc 75cc 143a 9a5f dcbc
000000a0: c67d c2bb 35dd 1abd f5c0 cdbd cbed e43b
000000b0: b7b2 583d 64d5 8bbc 9baf aebd 99c3 9f3d
000000c0: d259 de3d 4be8 e73c 0a26 ebbd a132 6f3d
000000d0: 3b6d 0e3d 74f3 883d 4607 2abd 51c8 fc3c
000000e0: 6f02 5f3d baba 3e3d 949c 903d b196 d5bc
000000f0: 1503 eabd afcd 893d 1d48 133c 095d 893c
00000100: 5c0f 23bc c204 9e3d ed58 213c 3df1 2c3d
00000110: 3821 b93d f3e0 f13c ad62 1fbd dd14 173d
00000120: 6bba 493d cd68 86bc 3979 aebd 2e42 c33b
00000130: 6758 c93d 26bb 583d c577 d53d 237d d03d
00000140: 9baa f03d 7ebd 8cbc efeb f9ba f30c 8abb
00000150: ff56 e93d fca0 b3bb 034d 33bd 502c b2bd
00000160: 5d28 56bd 6622 1b3d 6c4c c7bd cf3f 823c
00000170: eeb9 cf3d ad57 be3d ceae aebd e501 a13d
00000180: 457d a33d 86f1 91bd bae9 5c3c be7e f43c
00000190: 7006 bdbc d86e 983d bd7d 7dbd f2a4 abbd
000001a0: cf68 963d 19a9 7cbd 6c0d 8f3d 31fa 8a3d
000001b0: c82f af3d 674d cfbd 9cf2 bfbd d49f 973d
000001c0: 7079 703d 10d3 52bd ad71 0abd 6b37 eb37
000001d0: c662 c13d 6a05 dabc 1e6b c83d 8c55 8bbd
000001e0: 422f bebd b7eb c73d 395a 8fbc 4e25 c4bd
000001f0: 686f 14bd 99df 3e3d 2584 263d 66a7 b2bd
00000200: 426c 94bd de36 1f3d f2e6 51bb 0f6b 663d
00000210: f020 92bd 24bd a7bd fbcf a63b 9fe3 bc3c
00000220: f93f b6bd 8f82 a33d ae41 b33b 93bb 99bd
00000230: c835 823d c6f9 883d 7247 9abd 5c99 38bd
00000240: 5259 a53c e7bc 1f3c 16b0 dd39 24ee a2bb
00000250: 8a67 e2bd b903 f53b a5ea e83d 3d1f 403d
00000260: 5cbb bebd 5b90 acbd 2f95 df3d e467 b1bd
00000270: 9912 b0bd ef68 72bd 171f d93c 0e01 18bd
00000280: a4b9 a1bb 3f2f d5bd 62cb 253d e081 dd3c
00000290: cadc 203c 5575 f63d 8b37 9dbd 6789 6c3d
000002a0: c454 cebc 98ab a2bd 3cf1 c5bb 64c6 43bc
000002b0: 6543 a0bd 53ff 37bc c942 d93d 42fa aabd
000002c0: d14f 233d 5f3e 35bd 8485 d23d c78e 8f3d
000002d0: 54e9 e83d 90a7 98bd efd2 34bd 0d9a af3d
000002e0: 0674 8ebd e3b2 57bd c57b e13d 79e8 b23d
000002f0: faac d33c 0fd0 08bd 74d1 d9bd 5443 a53d
00000300: 3830 dd3c cfaf f8bc 8f8c 9e3d 3d3d c9bd
00000310: 0cb0 b03d 6883 8fbd 1b02 993c c773 f03d
00000320: b15f a0bd 09cc 6dbd dce5 9cbd 9f2d 1cbd
00000330: 0255 353d 46ba d53c d0b7 853d 0623 4a3c
00000340: 363c b23d f45a be3d 03d6 2dbd 0099 b23c
00000350: 2aab a6bd 36cf ac3c ff50 563c 4b7e 533c
00000360: d4ac e6bd 8790 ae3d 49f8 ac3c 6ad7 2b3d
00000370: 5065 ba3c cddb 9bbd c553 c13d dad0 e4bc
00000380: ba39 753c 8891 273d 9fee 7d3d a609 e1bd
00000390: 602a a0bc 20d7 88bd dc56 e03d a3eb 91bd
000003a0: af73 d8bd d8b1 f53c e1ff 38bd b8c5 103d
000003b0: 1c00 b23d 924a 81bd fdd6 53bd 2252 d8bd
000003c0: 5569 02bd aa9c a23d 42f4 9f3c 2662 373b
000003d0: 0326 79bd 3463 89bd 0c8d 9d3d 7b69 c3bd
000003e0: 1120 d0bc 9792 07bd ba57 fb3c 18de 5ebd
000003f0: 3e9e b83c 3f07 9cbc d090 19bd eab9 8ebd
0.02559352 0.021813342 0.010990848 -0.105643995 -0.036984477 -0.066544704 0.10038297 0.065792695
0.03420885 -0.05818051 0.10038698 0.085459836 0.05801942 0.01880681 -0.059666615 -0.112707205
-0.040117435 -0.10487777 0.07278459 0.07911552 0.089023106 -0.052320704 0.05668383 -0.08490746
0.0880821 0.08586038 0.10476669 0.053192314 -0.09040667 0.0049108905 -0.030671362 0.077890344
-0.037478205 -0.1031427 0.026573889 -0.023725767 0.0015137013 -0.02260149 0.00056762184 -0.026901055
-0.0059354035 -0.037808616 -0.10046569 0.006986355 0.05290481 -0.017069526 -0.08529588 0.07800979
0.108569756 0.028309008 -0.11481865 0.058397893 0.03477214 0.0668706 -0.041510843 0.030857237
0.05444568 0.046564795 0.07061115 -0.026072832 -0.11426369 0.06728684 0.008989361 0.016767995
-0.009952392 0.07715751 0.009847862 0.04222225 0.09039539 0.02952621 -0.038912464 0.03688513
0.049250048 -0.016407395 -0.08519215 0.005958817 0.098313145 0.052912854 0.10423235 0.10180118
0.117512904 -0.0171802 -0.0019067506 -0.0042129694 0.11393546 -0.0054818373 -0.043774616 -0.08699858
-0.052284587 0.0378746 -0.09731373 0.015899567 0.10142885 0.092940666 -0.08529435 0.078616895
0.07982878 -0.07126145 0.013483459 0.029845592 -0.023074359 0.07443017 -0.06188749 -0.0838107
0.073442094 -0.0616847 0.06984982 0.067860015 0.085540354 -0.10122185 -0.09372446 0.07403532
0.05870956 -0.051470816 -0.033799816 2.8039989e-05 0.09442668 -0.02661391 0.09786056 -0.06803426
-0.092863575 0.09761756 -0.017499076 -0.09577428 -0.036239058 0.046599958 0.040653367 -0.08723335
-0.07247211 0.038870685 -0.0032028523 0.056254443 -0.071351886 -0.081903726 0.005090711 0.023057757
-0.088989206 0.079838865 0.005470476 -0.0750648 0.06357914 0.066882655 -0.07533158 -0.04506813
0.020184193 0.009749628 0.000422836 -0.004972236 -0.11054905 0.0074772504 0.1137288 0.04690479
-0.0931308 -0.08425971 0.109171264 -0.08662394 -0.08597297 -0.059182104 0.026504083 -0.03711038
-0.00493546 -0.10409402 0.040477164 0.027039468 0.009818265 0.12034098 -0.076766096 0.057748225
-0.025186904 -0.07942885 -0.0060407203 -0.0119491555 -0.078253545 -0.011230308 0.106084414 -0.08348514
0.03987104 -0.044248935 0.10279372 0.070096545 0.11372629 -0.07453835 -0.044146474 0.08574305
-0.069557235 -0.052660834 0.11009935 0.08735747 0.025839318 -0.033401545 -0.10635653 0.080694824
0.027000532 -0.03035727 0.07741653 -0.098261334 0.08627328 -0.07007486 0.018677762 0.11740833
-0.07830752 -0.05805591 -0.0766103 -0.038129445 0.044270523 0.026089799 0.065292 0.012337452
0.087028906 0.09294692 -0.042440426 0.021801472 -0.08138116 0.0210949 0.013080834 0.012908529
-0.11263433 0.0852366 0.021114485 0.04195348 0.022753388 -0.07610283 0.09439806 -0.02793162
0.014967376 0.040910274 0.061995145 -0.109881684 -0.019551456 -0.06681657 0.10954067 -0.07125022
-0.1056894 0.02999203 -0.0451659 0.03534481 0.08691427 -0.06313051 -0.0517187 -0.105625406
-0.031838734 0.079400375 0.01952565 0.0027982085 -0.060827266 -0.067083746 0.07692918 -0.09541603
-0.025405915 -0.033098783 0.03068148 -0.054411024 0.022536393 -0.019046424 -0.03749162 -0.06969054

convx.bias f4 [16]
00000000: 94af 99bc 050d 003e b008 1ebb 68f4 1b3c
00000010: 9d31 49bd 12bb 9dbc e810 02bc 2aff 5e3d
00000020: a107 a83d a137 963d 8572 7cba 6aac 4dbd
00000030: c0c5 9c3d 9a8c 8f3d 2740 3a3d ed22 70bc
-0.01876048 0.12504967 -0.0024114065 0.00951872 -0.04911958 -0.019254241 -0.007938601 0.054442562
0.0820458 0.07334829 -0.0009630102 -0.050213255 0.07654905 0.070092395 0.045471337 -0.014656764

conv2.weight f4 [32, 32, 3, 3]
00000000: 2de0 b7bb 4a3b a8bb 4e34 ecbb f00b dbbb
00000010: 6415 95ba 3312 49bb 6284 c8bb 8d53 73bb
00000020: a119 03bc c97d 26bb 8a91 bbbc 592e 41bd
00000030: 7a36 65bc 4784 003c 16ff 8fbc 1f17 df3b
00000040: a6a5 3a3d 1b7a c63c ac68 d13c 5b35 18bd
00000050: d841 e7bc 75da 37bd f0bc 1abd 4df5 673c
00000060: 8fed 22bd e6da 3abd dcab 14bd 4099 fc3c
00000070: eb48 16ba 3536 d43b 7363 063d 8722 b03c
00000080: 0ad1 6b3d 72b6 6e3c db93 37bd 207b d2bc
00000090: 13c2 a4bc fd70 69bd a2a4 64bd d25b 693c
000000a0: d5e6 e13c 3cf2 9cbc 12e2 323d d8d1 29bd
000000b0: 391a b7bc 465f 67bb ad1f a93c 12e3 623d
000000c0: 6ba1 7f3a b243 2f3d c372 be3b cf8b 453d
000000d0: cc25 933c a446 c63c 3a57 07bd 8ade 7ebd
000000e0: 0925 0e3d 3a5e 4cbd eb04 473c 98c4 1d3c
000000f0: 0b6a 243d 361c 0d3d 06dd 9cbc 9a24 9f3b
00000100: 50de b9bc 9463 f03c 5fef 0fbd 876f 3dbb
00000110: 0d4b 0ebb b724 f0bc ed24 ac3c 734d e73c
00000120: cc72 6a3c 818c 21bd 5f7e 2bbd bef4 4c3d
00000130: dd66 8dbc b46c 5dbd b797 8abc 8ceb 44ba
00000140: 11b3 3dbd 6179 0b3d 2ec2 b53b 8e21 b53c
00000150: 991d 7d3c fcc8 553d b8f7 503d 9c68 713b
00000160: 46a9 43bc cd5b f5bc 9c83 573d 5220 963c
00000170: 0075 d13c 71d0 cfbc 1b31 fbbc 93e3 f43c
00000180: 6582 863c 3566 3e3b 4f29 46bc 289e de3a
00000190: 9fc8 07bc 142c 073c 3b7e 0b3d a67e 52bc
000001a0: 7ee3 133d aba9 87bb 872c acbc dd32 b3bc
000001b0: 1ac3 75bb 00c3 743b 83ad 1abd 831d 463c
000001c0: 9606 353d 955c 88bb 5ed3 783c fbbf de3c
000001d0: 2fff 9f3c 8a1f bbbc 8055 97bc d24b be3c
000001e0: aa91 133d f385 fa3c 5d7e 0b3d 15c7 523b
000001f0: 42fb 933c 480b 5b3b 4db9 4a3c 1b4e 20bc
00000200: a12f af3c ad94 053d eceb e13b 90dd b3bb
00000210: 6406 11bc 66c7 70bc ff09 d03b b743 813d
00000220: b5b4 c23c d572 b03b 2650 463d a187 fc3c
00000230: 671a 9abc 0c50 d43b 3ef0 853c 9f86 6fbc
00000240: 5eb9 59bd 3097 143d 49bd d83b fccd 2bbd
00000250: de77 0d3d d305 613d ddfa 09bd af42 2cbd
00000260: e5fc fcbc 31dc 703d c64f 223d 7b45 ac3c
00000270: 6a17 2cbd 0c60 013d db9d 643d 4485 e5bc
00000280: 1d5f b53c 9a57 0abd 1ba1 eb3c 3ba9 57bb
00000290: 2a36 e0bb de44 05bb 1469 293c 772b 3bbb
000002a0: 8f24 33bd 5ccc ec3c a2b7 293b 9d7f ffbb
000002b0: 0a1c 893b 60e8 4cbd 8a0f 123d b7d6 6bbd
000002c0: 933c 13bc 7288 89bc ba31 88bc 7a15 cc3b
000002d0: 73b9 7c3d 9f0f b9bc 60b0 7ebc 5124 5abc
000002e0: 3f96 5a3c 65b7 053d ea66 1d3c 709d 07bd
000002f0: 8626 d8bc 7191 1d3d 5745 08bb ff37 323a
00000300: 06d7 75bb 0e76 42bd 764c 1ebd bb89 29bd
00000310: 3e10 5ebb c4d0 51bc a0e0 55bd 0f39 02bd
00000320: b9d7 abbc b722 96bb f8d2 123d 2830 2e3d
00000330: e30c 04bd daf7 8d3c 5d7f 123d 0ca7 a4bc
00000340: 1c19 4c3b 7fc1 033a ccc4 73bb 23b8 453c
00000350: 97d9 993b 915b 39bc e5fc 263b f973 d5b9
00000360: ea0b 083d 02b1 023d 35b5 02bd aac0 d53c
00000370: 75c1 fabc 8dab 393d d024 423d 8bde 703c
00000380: 3718 53ba 87d7 f4ba f3c8 2e3c 1e70 d13c
00000390: 9341 db3b 96a8 1d3d c9bd e93c 56e8 22bd
000003a0: 9631 04bb da5e 66bc fb04 81bc 2b4f 8e3b
000003b0: e9e6 03bc 637f 30bd ecdb c43c 76c2 833c
000003c0: f32c 93bc 4330 663c be19 6bbb 2cfd 043d
000003d0: 706b 9b3b 0099 e2bc f72b 263d 64d9 b9bb
000003e0: b8c1 943c 3cff 693c e902 e1bc 50c4 a2bc
000003f0: 347e 923d 7052 2f3c 2ceb 21bb 6b39 88bb
-0.0056114406 -0.005134021 -0.0072083836 -0.0066847727 -0.0011374173 -0.0030681014 -0.006119297 -0.0037128658
-0.008001716 -0.0025404564 -0.022896547 -0.04716334 -0.013990039 0.007844037 -0.01757769 0.006808176
0.04556813 0.024228146 0.025562607 -0.03716026 -0.028229639 -0.04488607 -0.03777784 0.014157605
-0.039777335 -0.045618914 -0.03629671 0.030834794 -0.00057329115 0.0064761885 0.032809686 0.021500839
0.057572402 0.014569866 -0.04481874 -0.025693476 -0.020112073 -0.05699252 -0.05582107 0.014243083
0.02757589 -0.019158475 0.04367263 -0.04145989 -0.022351371 -0.003530459 0.020644987 0.055392332
0.0009751531 0.04278917 0.0058120205 0.048229035 0.017962359 0.024203606 -0.03304217 -0.06222395
0.03470329 -0.04989455 0.012147169 0.009629391 0.040140193 0.034450732 -0.019148361 0.004856658
-0.022689015 0.029344358 -0.03514039 -0.0028905587 -0.0021712214 -0.029314382 0.021013701 0.028235173
0.014309596 -0.039440636 -0.041868564 0.05003809 -0.017260963 -0.054058746 -0.016918046 -0.0007511906
-0.04631335 0.034051303 0.0055468297 0.022110727 0.015448951 0.052193627 0.051017493 0.0036836034
-0.011942213 -0.029951 0.052615747 0.018325958 0.025568485 -0.025367947 -0.030663064 0.029893672
0.016419599 0.002905262 -0.01209481 0.001698439 -0.008287578 0.008250255 0.03405593 -0.012847578
0.036105625 -0.004140099 -0.021017326 -0.02187484 -0.0037500323 0.0037347674 -0.03776313 0.012091997
0.044195734 -0.0041614273 0.015187113 0.027191153 0.01953086 -0.022842187 -0.018473387 0.023229513
0.036027588 0.03058145 0.034056056 0.003216212 0.018064145 0.0033423472 0.012373281 -0.009784247
0.021385016 0.03261249 0.006894579 -0.005489059 -0.008851621 -0.014695978 0.006348848 0.06311744
0.023767808 0.005384783 0.04841628 0.030826392 -0.018811418 0.006479269 0.016349908 -0.0146194985
-0.053155296 0.036276996 0.0066143614 -0.04194449 0.034538142 0.054937195 -0.033686507 -0.042055782
-0.030882308 0.05880374 0.03962686 0.021029225 -0.042014517 0.031585738 0.055814605 -0.028017648
0.02214008 -0.03377495 0.028763345 -0.0032907266 -0.0068423944 -0.0020335237 0.010339994 -0.0028559843
-0.043736037 0.02890604 0.0025896807 -0.007797195 0.0041842507 -0.050026298 0.03565935 -0.057577815
-0.00898661 -0.016788695 -0.016625274 0.006228146 0.061700296 -0.022590457 -0.015544981 -0.013314323
0.0133414855 0.0326456 0.009607056 -0.03310913 -0.026385557 0.03846878 -0.0020793283 0.0006798505
-0.0037512197 -0.047475867 -0.038647138 -0.041391116 -0.0033884193 -0.012806121 -0.052216172 -0.031792697
-0.020976888 -0.004581775 0.035845727 0.042526394 -0.032238852 0.017330099 0.035765994 -0.020099185
0.0031142896 0.00050260866 -0.0037196158 0.012067827 0.004695128 -0.011313335 0.0025480327 -0.00040712932
0.033214487 0.03190709 -0.031911094 0.026092846 -0.030609826 0.04532962 0.04739839 0.014701496
-0.00080526195 -0.0018679955 0.010668027 0.025566157 0.0066911667 0.038490854 0.02853288 -0.039772354
-0.0020171157 -0.0140607 -0.015749445 0.0043429337 -0.008050659 -0.043090235 0.024030648 0.016083937
-0.01796577 0.014049592 -0.0035873498 0.032468006 0.004743032 -0.027660847 0.040569272 -0.005671667
0.018158779 0.014282044 -0.027467208 -0.019869 0.071529776 0.010700807 -0.0024706824 -0.0041572354

conv2.bias f4 [32]
00000000: f140 f9bc 2744 bb3d 16c2 f13c 49a7 9b3c
00000010: 91f2 a139 a5b2 863d 2e21 f83a 6e6e 82bc
00000020: ae34 073d a32c b73d 3162 20bb b989 4b3c
00000030: 4fe6 a53d aef9 f23c f385 55bd 9a34 e53c
00000040: 3800 9b3d 03da b0bc 3b07 75bd 6c75 75bd
00000050: a11c 0a3c 73d7 eebc fb58 2d3d 56fa 11bd
00000060: ec22 c03d 9b97 a3bc 1f61 ab3d 14ea 86bb
00000070: cbc2 9d3d 22f1 87bc a022 c23c 0b40 933c
-0.030426474 0.091438584 0.029511493 0.019000666 0.0003088904 0.065770425 0.0018930787 -0.015921798
0.033009224 0.08944061 -0.002447259 0.012422972 0.081005685 0.029660072 -0.052129697 0.027979184
0.07568401 -0.021588331 -0.05982135 -0.059926435 0.008429677 -0.029155469 0.042321187 -0.03563913
0.09381661 -0.019969752 0.08368134 -0.0041172598 0.077031694 -0.016594473 0.023698151 0.017974874

conv3.weight f4 [16, 32, 3, 3]
00000000: 2f8c 5bbd 0dbf 8fbc 17e7 533b 3b42 8fbc
00000010: ae3a f43c 752c 093d 6b19 ae3d 9f21 953c
00000020: 673e 483d 4697 2f3d a77f 913c ad41 e93b
00000030: fa69 3f3d f0e0 853d 56d0 9b3c 3cae d13c
00000040: 4e94 dcb9 0275 993d 486c be3c 8983 69bd
00000050: 2ff0 91bc 4a36 25bd 4496 183d acbd 18bd
00000060: ed44 313d 6de8 8b3a e87a dbbc 7d26 383d
00000070: 723e 22bd 3f0f 69bd 82fa f73c 4438 903b
00000080: ef5e 24bb fb3a 3e3d 6f9f 2bbd 6293 6fbc
00000090: 1f92 803a 93c6 d7bc a7a0 c63c 7954 a3bc
000000a0: c640 1a3b eca4 ecbc f558 19bd eb91 3c3c
000000b0: a0d3 08bd eceb 09bd 6bd6 9b3d cc4f 9d3d
000000c0: 8c17 963d 023d 2a3d 419e 853d dc95 1ebc
000000d0: ffc7 bdbb 05cd 703d a88d 83bd f915 3ebc
000000e0: 5a12 94bc 614b 8c3c 0216 96bc 8d51 66bc
000000f0: 033c 01bd 0b50 57bc 152c ecba 7f03 813d
00000100: 8c58 f83b 4458 c13c 89a6 253d 444e 343d
00000110: 0d63 c2bc 15d3 623d ff96 413b 7267 993d
00000120: a713 53bd bd3d 4f3d 7b5e 7b3c 5219 763b
00000130: 0e23 7ebc 8400 fb3c 3692 053c e5cb 8cbc
00000140: b4d0 5e3b c5ea 903c 890c 90ba 2344 1bb8
00000150: cd54 d13b aeaa 30bc f1aa 8b3b f15b 333b
00000160: 30bd 9e3b 3a6c 1ebc 48ad e23c 9724 373d
00000170: 152c bfbb c1d8 653d 9fe5 f8bc b571 563c
00000180: b481 0abd fa11 2ebd fd56 153d 9e1c 413d
00000190: 7d7a eabc d342 3e3d be0c 50bd 9a01 08bd
000001a0: 6fda 933a dd9a 653d 8357 c4bc 033a 913b
000001b0: d3c7 4cbb abcf 153c 58df 58bc 7682 ea3b
000001c0: 41b3 3bbc 1cbe 75ba 9437 1c3b e004 743b
000001d0: 34e0 283b 6b5b 413d f863 c43c 31f1 fd3a
000001e0: aa79 ba3c 8a95 d93c 0430 48bb 94b9 15bc
000001f0: 300f e7bc af47 b3bc 8209 fc3c 9f1a b3bc
00000200: 0bf1 553b 7914 603c b946 7abd 09ad 50bc
00000210: 756e 42bd bb30 abbb ecaa 143d 0e60 6ebd
00000220: 5b27 e43c 5a4d 6c3d ac03 5c3d 2bbd 60bc
00000230: fd07 aabc 5102 9f3c 960d 2b3d bb0c 453a
00000240: eb93 3dbd 35ad 26bd 6239 9abd 49cc 6cbd
00000250: fb5e 80bd 3313 a4bd fad4 1bbd 616e 6dbc
00000260: 3193 9cbc ee12 1e3d 21b2 c2ba 17f8 523d
00000270: 263b 30bd bdbb a83c e72a b6bc 9737 e83b
00000280: 246b d8bc adcc a43c 05f1 dbbb 1f9b 423d
00000290: de1e af3c 3189 083d fcc0 593d 39db 2d3d
000002a0: fe4a cb3c ad70 723a 2c97 3f3d 5046 aa3c
000002b0: 1f61 293c 3deb d2bc ca9c 793b 4cd3 1bbd
000002c0: 9b3d 78bc 578a 0f3d 23a7 093c 8a42 50bd
000002d0: 60fc b4bc b4ac f43b 81ce 4e3b 81b0 f93c
000002e0: 9ad6 53bd cdf3 5e3c 50a3 10bb c85a 95bd
000002f0: 00d9 60bb 185f 403d 32c7 433c d285 e1bc
00000300: d167 153d 0e35 083d c4fb e93c 011b 883d
00000310: 290f 383d c95e 9d3c 43e7 e03c b8cd 80bc
00000320: 7f78 d8bc 7b8e 00bb d449 e03c 725d a03b
00000330: 9af3 37bd bb74 09b8 50f0 4b3d 7e99 6cbd
00000340: 8795 48bb 3075 ecbc 7919 1cbc a7de 69bc
00000350: 96c7 ffbb 006b 14bc 4fec a5bd 0c36 44bd
00000360: 2482 6aba 7418 b3bc 4003 a6bc 6083 47bc
00000370: 854a 6bbc 05ba 93bc b49f f7bc 549b 3cbd
00000380: 95be 29bd 2205 6abd 1248 363b 8614 38bd
00000390: 89ba b03c 1a0f 01bd 9272 683d c754 6b39
000003a0: b6a8 693c eef4 1fbd 488b 7bbc 98f3 093b
000003b0: ab59 e03b d93f 9f3a 6f92 7dbc e462 8bbc
000003c0: 6891 193b 2ed0 b5bb 7f50 65bc bb52 49bc
000003d0: 4bab 1cbc 830a aa3b 7675 e83a 1d17 2ebd
000003e0: af6f 903c 27e7 703c f23d b6bc 17ac a53c
000003f0: 1356 013c f8fb afbc 68e8 4fbc e348 023d
-0.053600486 -0.017547155 0.0032333785 -0.017487636 0.029813137 0.033489663 0.08500942 0.018204508
0.048887637 0.042868875 0.017761065 0.007118425 0.046731927 0.06537044 0.01902024 0.025595777
-0.00042072166 0.074930206 0.023244992 -0.057010207 -0.017814724 -0.040334977 0.03725268 -0.03729026
0.043278623 0.0010674127 -0.026792005 0.04495858 -0.039610334 -0.056899305 0.030270819 0.0044012386
-0.0025081 0.046442967 -0.041900095 -0.014622541 0.0009809172 -0.026339805 0.024246527 -0.01993774
0.0023537143 -0.028887235 -0.03743835 0.011509399 -0.033404946 -0.03367226 0.07609256 0.07681236
0.0732871 0.041562088 0.06524325 -0.009679284 -0.0057916637 0.05878927 -0.06423503 -0.011601918
-0.018075157 0.017125787 -0.018321041 -0.014057529 -0.031551372 -0.013141642 -0.0018018509 0.06299495
0.007578915 0.023601659 0.040442023 0.044019952 -0.023728872 0.055377085 0.0029539464 0.07490434
-0.051532414 0.050595988 0.01534235 0.0037551713 -0.015511287 0.030639894 0.008152535 -0.017187068
0.0033998908 0.017690072 -0.0010990064 -3.7018337e-05 0.006388283 -0.010782881 0.004262321 0.0027368034
0.0048443303 -0.009669358 0.027670518 0.04471263 -0.0058341124 0.056114916 -0.03038293 0.013088633
-0.0338151 -0.042497613 0.03645991 0.047146432 -0.02862286 0.046450447 -0.050793402 -0.033204652
0.0011280308 0.056055892 -0.02396751 0.0044319644 -0.0031247034 0.00914375 -0.013236843 0.0071566654
-0.011456312 -0.0009374337 0.0023836838 0.003723435 0.00257684 0.047206324 0.02397345 0.0019374249
0.022763092 0.026560564 -0.0030546198 -0.009138484 -0.028205484 -0.021884767 0.030766252 -0.02186328
0.0032644894 0.013676756 -0.061102603 -0.012736567 -0.04746862 -0.005224315 0.036295816 -0.058197074
0.027850797 0.057690956 0.05371444 -0.013716976 -0.020755762 0.019410284 0.041761003 0.00075168506
-0.046283644 -0.040692527 -0.07530476 -0.05781201 -0.06268116 -0.080114745 -0.038044907 -0.014491648
-0.019113155 0.03859227 -0.0014854112 0.05150613 -0.04302516 0.020597333 -0.022237254 0.007086705
-0.026418276 0.020117128 -0.0067120814 0.047511216 0.021377023 0.03333396 0.05316256 0.042445395
0.024816032 0.00092483574 0.046775028 0.02078548 0.010338097 -0.025746936 0.0038087838 -0.038043305
-0.015151407 0.03504404 0.008401665 -0.050844707 -0.022092998 0.007466877 0.0031556191 0.030479671
-0.051718332 0.013607931 -0.0022069998 -0.07292706 -0.003430903 0.04696569 0.011949347 -0.02752963
0.03647596 0.033253722 0.028562434 0.066457756 0.044936333 0.019210236 0.027454024 -0.015723094
-0.026424645 -0.0019616175 0.027378954 0.004893952 -0.04491005 -3.277206e-05 0.049789727 -0.05776357
-0.0030606703 -0.028864473 -0.0095275575 -0.014274276 -0.007805775 -0.009058714 -0.08101713 -0.047903106
-0.0008945784 -0.021862246 -0.020265222 -0.012177318 -0.014361029 -0.018033037 -0.03022752 -0.04604657
-0.04144152 -0.0571338 0.0027813953 -0.044941448 0.021573322 -0.031508543 0.056749888 0.00022442928
0.014261415 -0.039051943 -0.015353031 0.0021049734 0.0068466268 0.0012149765 -0.015476807 -0.017014928
0.0023432616 -0.0055484986 -0.013996243 -0.012287791 -0.009562324 0.0051892414 0.0017735201 -0.04250251
0.01763138 0.0147035485 -0.022246335 0.02022366 0.007894057 -0.021482453 -0.012689687 0.03180779

conv3.bias f4 [16]
00000000: 08ba 893b 924f a7bc 39d6 0d3d 057a 49bd
00000010: 1e9b 343d df1b acbd ce51 8d3d b5c3 96bc
00000020: 6bfe 553d 2c30 99bc bd53 4f3d 0171 093d
00000030: bee5 0d3d 6bf7 013d d8a0 353d 1c5b 7b3d
0.004203085 -0.020423684 0.034628127 -0.049188633 0.044093244 -0.084037535 0.06900369 -0.018403867
0.052244585 -0.018699728 0.05061697 0.033555035 0.034642927 0.031730097 0.044342846 0.061366186

conv4.weight f4 [2, 16, 5, 5]
00000000: addc 9bbd edde c2bc 6b6f 8abc acf9 11bd
00000010: d093 bbbc c164 2a3b 0005 d33c d630 4bbd
00000020: cc94 f4bc 5787 553c ed56 59bd 843a ad3c
00000030: b0e5 4dbc f305 7f3c 519c 64bc 8367 54bb
00000040: ee7d fcbc e4ca ea3c dd6e 3dbc d110 99bc
00000050: 4d60 873b 808e fdbb 17dd 41bd 66da c93c
00000060: a1e8 86bd 4f6d 1c3d 7503 7fbc 8122 6b3d
00000070: 50eb 9d3c 2d79 223d e8d3 b03c 9f58 9abc
00000080: 2e14 e3bb 60ed 693b b45b 233d 87b4 86ba
00000090: 1900 0abd dc4c 2a3d d260 013c 4989 f1bc
000000a0: 8edb d93c c47b c0bc d189 063d f4ce f4bc
000000b0: 9df2 b0bc 5d65 89bb 8f6b 373d 2bb5 aebc
000000c0: 52ab 0a3d 5a48 d33c c3d1 33bd c6b9 2abd
000000d0: 650e e23b 3752 f63c 6c02 403d 3470 fc3c
000000e0: f18e f33c a1bb 95bc 4b44 abbb 3d9a 43bd
000000f0: f211 0b3c 31a1 20bd bff8 33bc 5ec7 30bb
00000100: 92d2 6dbc 007d 303d 0bd2 0c3d 61aa 0abd
00000110: 40db ddbc 7d91 0ebc c8ae 313d 8452 b13b
00000120: 03e9 7dbc ad84 123d 0b87 2a3d e7d8 c93c
00000130: 93e1 2dbd 1f79 403d 8ee2 c33c 8126 1c3d
00000140: 8243 023d 9926 32bd b8d8 edbb c97a c2bc
00000150: 708f 12bd 73bc 453c e0e3 0b3d 43ad 143d
00000160: 8a13 363d 99b1 29bd 2f49 8abc 69e5 99bc
00000170: 9395 7fbb e38a 1b3d 0f52 19bd 751c 46bd
00000180: 2566 0dbd e47c 4fbd 0d0c c0b9 0e0c a73c
00000190: 4525 3dbb bf31 f33c dac1 9e3b c707 a43c
000001a0: 6af6 e03b deef cfbc bf5b 533a ed91 1ebd
000001b0: 9b1e 2f3d 56dd 71bc 244d d03b 1db4 eebc
000001c0: 6f85 0bbc 7e36 483c a939 003c 503f f6bc
000001d0: 5a87 d83c cf41 003c debb 41bd 7824 a63c
000001e0: e9d4 06bd 8eef ebbb 1e69 013d 5648 33bd
000001f0: f72f 32bd 71f2 98bd cdb0 92bd af5a 30bd
00000200: 2782 81bc 79a6 62bd 34ab 4bbd bd40 243c
00000210: f03b dcbc 1bcb 91bb a809 56bb 5ef2 9abd
00000220: e9eb 92bc 3c57 70bd 9b48 53bd 2865 2ebd
00000230: 9dc1 0a3a 63f7 71bd c788 31bc f852 f43c
00000240: d85f 7bbd 5848 57bc e31d 083c 56b2 0ebb
00000250: 0c56 2abd 3e3e 52bd 14e2 d73c 24f3 8a3d
00000260: 70a9 8b3d 35d7 5c3d 2e77 513d 7521 763c
00000270: 040e 943d 607a d3bc 8b5a 2d3d b000 523c
00000280: 6bdb 313d 897a 843d 9169 ff3c 7feb fbbb
00000290: 6cfe f2bc eaae 003d 348e 5d3d 8210 00ba
000002a0: 7cb4 113d 0d2f 9a3c 4317 893d 7312 dc3c
000002b0: 065a 613d 55fb 37bc 5da2 883c a950 17bc
000002c0: 949d 13bd 0ec8 0dbd 3a02 183d edc6 ef3c
000002d0: d081 96bc f5e1 6cbb 5384 2f3d 5cb1 29bc
000002e0: 9820 333c f041 03bc 9a40 d3bc 799b c13c
000002f0: 6031 143c 935a f8bc 62c7 db3c 2d06 5d3c
00000300: 6bd3 4abd 6e90 8fbc 3750 2b3d a2f9 ecbc
00000310: 3364 213d 3709 e93c 9fe7 883c c55c 153d
00000320: 77fa 393d 42f7 063c e2ab 713b aab0 863d
00000330: ec01 1e3b 2b53 583d c8ec 3e3d 47e8 653d
00000340: acd8 763a 6493 9d3c 61c3 8b3d 1eec 863c
00000350: e843 463d 031a af3b 548e 933d 7d66 963d
00000360: d215 7d3d bab1 1c3d bffc 0c3b 72ff 043c
00000370: 03a7 04bb 542d 823d 413f c53c b358 843d
00000380: 3c65 3abb 2d64 833b 2700 923d 92cb 633c
00000390: fbe1 643c 9c83 183d bfdf 0b3d 9695 a43d
000003a0: ad1a ab3b e66a 543d 171d d8bb 50a5 7a3d
000003b0: 5e7b 853d 4051 d83c e857 973d 8a3c 843d
000003c0: 3f2b 7e3d 7e6a 1f3d e863 af3d f5f7 c33c
000003d0: 1ff0 0d3d 945d aebc c9f4 553d 75f6 5c3d
000003e0: d45e 3a3d 7bf4 403d 3c70 5e3d d2c4 543d
000003f0: 7b97 42bc cc40 0eba 968f 3f3d 3d45 cf3c
-0.0761045 -0.02378794 -0.016898831 -0.035638496 -0.02289763 0.0025999995 0.02575922 -0.04960712
-0.029856108 0.013032756 -0.053061415 0.021146066 -0.012566969 0.015565383 -0.013953284 -0.003241033
-0.030821767 0.028661199 -0.011562076 -0.018684776 0.004131353 -0.0077379346 -0.04732999 0.024640273
-0.06587339 0.038190182 -0.015564789 0.057405952 0.019277245 0.039666343 0.02158542 -0.018841086
-0.006929896 0.0035694465 0.039882377 -0.001027719 -0.0336915 0.041577205 0.007896619 -0.029484408
0.02659395 -0.023496516 0.032846276 -0.02988384 -0.021600062 -0.0041929916 0.04478031 -0.021326622
0.03385479 0.025791336 -0.043901216 -0.041681074 0.0068986886 0.0300685 0.04687731 0.030815221
0.029731246 -0.018277945 -0.005226647 -0.047754515 0.008488165 -0.039216224 -0.010984599 -0.00269743
-0.014515536 0.04308796 0.03438 -0.033853892 -0.027082086 -0.008701679 0.043379575 0.005411448
-0.015497449 0.03577106 0.041632693 0.02463956 -0.042451452 0.04699051 0.02391174 0.038122658
0.03180266 -0.04349384 -0.007258501 -0.02374019 -0.035781324 0.012068856 0.034152865 0.036298048
0.044452228 -0.041429136 -0.0168806 -0.01878615 -0.0038999065 0.03797425 -0.037431773 -0.048366982
-0.03452124 -0.050656214 -0.00036630072 0.02039149 -0.0028861326 0.029686807 0.0048448863 0.02002324
0.0068653123 -0.025382932 0.00080626825 -0.038713384 0.042753797 -0.014762243 0.006356852 -0.02913862
-0.0085157 0.012220023 0.007826247 -0.030059487 0.026431728 0.00782819 -0.047298305 0.020281062
-0.03291789 -0.007200188 0.03159439 -0.043770157 -0.043502774 -0.07468117 -0.07162628 -0.043055233
-0.015809132 -0.055334542 -0.04972382 0.0100252 -0.02688405 -0.004449261 -0.0032659564 -0.07565759
-0.017934756 -0.058676943 -0.051582914 -0.04257694 0.0005293133 -0.059073817 -0.010835833 0.029824719
-0.0613707 -0.013139807 0.008307907 -0.0021773777 -0.041585967 -0.05132889 0.02635292 0.06784657
0.06819427 0.053916175 0.05113905 0.015022625 0.07229236 -0.025815189 0.042322677 0.012817547
0.043422144 0.06468684 0.031178268 -0.0076879854 -0.029662333 0.03141681 0.054090694 -0.00048852724
0.035572514 0.018821264 0.0669389 0.026864266 0.055017494 -0.011229356 0.016678983 -0.0092355395
-0.03603895 -0.034614615 0.0371115 0.02926966 -0.018372446 -0.0036145423 0.042850804 -0.010357227
0.010933064 -0.008011326 -0.02578764 0.023633705 0.009044975 -0.030316627 0.026828472 0.013490242
-0.04951803 -0.017524924 0.041824546 -0.028927628 0.039402198 0.028446777 0.016712008 0.036465425
0.045404878 0.008237662 0.0036876132 0.06576665 0.0024110032 0.05281369 0.04661253 0.05612972
0.0009416442 0.01923532 0.06824375 0.016470011 0.048404604 0.005343677 0.07204881 0.07343767
0.061788388 0.03825543 0.0021512953 0.0081175435 -0.0020241148 0.06356302 0.024078013 0.064622305
-0.0028441688 0.0040097446 0.07128935 0.013903515 0.013969894 0.037234887 0.034148928 0.08036344
0.005221686 0.05185976 -0.0065952647 0.06119281 0.06517671 0.02640593 0.07389814 0.064568594
0.06205296 0.03891992 0.085639775 0.023921946 0.034652825 -0.021284856 0.0522354 0.053945977
0.04550059 0.047108155 0.054306254 0.051945515 -0.011876936 -0.00054265256 0.046767794 0.02530157

conv4.bias f4 [2]
00000000: 4c5c b1bc d4fe 033c
-0.021650456 0.008056361
