weights/CapeTown.model.weights.pt (torch, 218905 bytes, 42 tensors)

weight f4 [16, 3, 1, 1]
000000 87 ff 36 3e 6c 48 fe bc 09 b2 81 3d ab 1e 80 3c
       0.17870913 -0.031040393 0.06332786 0.015639624
000010 79 40 b6 3e a0 72 a6 be d8 88 9f be 7f 83 87 3e
       0.35596064 -0.32509327 -0.3115909 0.2646751
000020 c9 ba 78 be ac 6b ce be 6b 77 cc bd aa 74 b2 3e
       -0.24290003 -0.40316522 -0.09983715 0.34854633
000030 ac d1 81 bc dd 5e 31 be d9 9d 90 3d db 78 9b be
       -0.01584705 -0.17321344 0.07061357 -0.30365643
000040 94 12 38 3e 29 9c 17 bd 1d d5 0c be 0d c9 82 3e
       0.17975837 -0.03701416 -0.13753171 0.25544015
000050 2a 58 a6 3c 1b b7 af be 21 29 c6 be 20 45 d1 3e
       0.020305712 -0.34319386 -0.38703254 0.4087305
000060 26 37 b2 3e c9 06 77 3e 26 a2 b3 be 7b fc cb 3e
       0.348077 0.24123682 -0.35084647 0.39841065
000070 51 c9 94 be 41 f7 d6 3c 8c 98 d3 3d 0f 40 52 be
       -0.29059842 0.026240947 0.103318304 -0.20532249
000080 f1 d6 ab bd dd 14 90 3e 5e 44 26 be dc f3 ab 3e
       -0.08390606 0.28140917 -0.16237018 0.33584487
000090 3d ec 36 bd 7d a3 93 3e 56 dd 53 bc 37 53 ca be
       -0.044658888 0.2883567 -0.012931189 -0.39516613
0000a0 4b 16 80 3e 19 77 5d 3b 24 42 a0 be f5 c6 9f bd
       0.25017008 0.0033792912 -0.3130046 -0.0780162
0000b0 57 8e f2 3e 5f 84 b9 bd 7c 4a 6f be eb 25 06 bc
       0.47374222 -0.09058451 -0.23368257 -0.008187751

bias f4 [16]
000000 1b ee 62 be 41 2b 0b b9 e8 93 4c 3e 62 cb b5 b9
       -0.22161143 -0.00013272186 0.19978297 -0.00034674542
000010 cc 12 d1 bc fe 34 36 38 f6 cf 08 3e 82 56 d0 bd
       -0.025521658 4.3441534e-05 0.13360581 -0.1017275
000020 4d 59 7a be 8a 42 cd bd f8 b2 3b b7 05 a0 76 be
       -0.24448128 -0.10022457 -1.1187738e-05 -0.2408448
000030 f8 64 04 3e 77 79 f7 3c 89 49 8f b9 77 cf 04 bd
       0.12929142 0.030209286 -0.00027329873 -0.032424416

weight f4 [16]
000000 33 bb 5f 3f d4 e6 5d 3f 96 ab 70 3f f2 b7 75 3f
       0.8739502 0.8668034 0.9401182 0.95983803
000010 d4 68 59 3f 58 0d 6d 3f 9d 49 4e 3f 24 c9 6f 3f
       0.8492558 0.92598486 0.80581075 0.9366629
000020 aa ff 60 3f 9b 31 4f 3f 4f ce 72 3f d3 7c 64 3f
       0.8789011 0.80935067 0.9484605 0.89252967
000030 7c 19 59 3f 99 51 60 3f 37 24 67 3f d7 92 6b 3f
       0.8480451 0.8762451 0.90289634 0.92020935

bias f4 [16]
000000 a6 ae 0d bb e2 73 5a 3c fa 1a 37 bb 95 af 01 bc
       -0.002161899 0.013333293 -0.0027939663 -0.007915397
000010 e4 0f ba bc 6b ab 8a bc b2 ac 41 bc 4d e6 cd bb
       -0.022712655 -0.016927442 -0.011820959 -0.0062835575
000020 dc d7 85 3c ca 0c b7 3c e5 d4 4b bb 0e c4 1e 3b
       0.016338281 0.022344965 -0.0031102237 0.0024225744
000030 00 c1 bc bb 79 e2 dd bb 39 e3 50 3d 75 bd 01 bc
       -0.005760312 -0.0067713824 0.050997946 -0.007918705

running_mean f4 [16]
000000 16 27 c5 41 11 2c 05 41 93 33 02 c2 2d f8 aa c1
       24.644085 8.323258 -32.550365 -21.37118
000010 14 0e 6f c1 5b d6 97 c1 9a cb 85 41 6b ee 28 c2
       -14.940937 -18.979666 16.724415 -42.23283
000020 ea 15 fb 41 8a bb 7a 41 e0 54 ae c1 e2 91 4e 42
       31.3857 15.670786 -21.791443 51.642464
000030 80 8b e1 41 2e a0 86 c1 22 58 c6 40 ac d0 20 c2
       28.193115 -16.828213 6.1982584 -40.20378

running_var f4 [16]
000000 0a 24 0d 43 02 1c 84 41 cf 73 7f 43 b9 a4 f0 42
       141.14078 16.513676 255.45238 120.321724
000010 a7 f8 3f 42 6d ff b1 42 b3 4b 81 42 54 93 c4 43
       47.992825 88.99888 64.64785 393.151
000020 3a ee 64 43 31 b2 8e 42 6c a5 dd 42 f9 92 1c 44
       228.93057 71.34803 110.82309 626.29645
000030 69 ab 2e 43 ba 83 9d 42 cd 3e 31 42 c4 fa b2 43
       174.66957 78.75728 44.31133 357.9591

weight f4 [16, 3, 3, 3]
000000 7d 43 09 3e 8a 16 24 be fe 56 30 3d 26 f4 b2 3c
       0.13404651 -0.16024223 0.043051712 0.021844935
000010 59 5b eb bd e6 3e 22 be b0 ca c3 bd 5e 23 23 be
       -0.114920326 -0.15844306 -0.09560144 -0.1593146
000020 7f 2d c6 bd 80 a9 82 3d 9e 9a d7 bd ec a7 0c be
       -0.096766464 0.06379986 -0.10527538 -0.13735932
000030 f9 d1 aa 3d 52 fd 79 3d ca 88 0f be 44 f8 fe bd
       0.0834083 0.0610326 -0.14017025 -0.12449697
000040 e0 9f 76 3d 26 be 36 3d 91 24 23 3e 37 f8 e2 3d
       0.060211062 0.044614933 0.15931918 0.110824995
000050 8e ec 8f 3c 07 10 2f 3e 6d 4d c0 bd 9d ce 3e 3d
       0.017568853 0.17095958 -0.09389768 0.04658376
000060 de 9d 5f bd 25 af 12 3e 6e 91 7a 3d 86 31 13 3e
       -0.054593913 0.14324625 0.06117385 0.1437436
000070 9b ec 0e be f9 3a 16 be 81 37 8f bd 89 71 29 be
       -0.13957445 -0.14670934 -0.069930084 -0.16547216
000080 1d ec 19 3e 30 c2 8d 3d 10 bf 5e 3d ad d2 a0 3d
       0.15031476 0.06921804 0.05438143 0.07852683
000090 56 57 e4 3c ba c8 90 bd 0b be 14 bb e3 c7 20 3e
       0.027873676 -0.070695356 -0.0022696282 0.1570125
0000a0 b4 c7 18 bd e2 5d 22 3d d8 d2 1a 3b 72 cb e9 3c
       -0.037299827 0.039640315 0.0023624208 0.028539393
0000b0 a2 e6 b8 3d ae 6c 2c 3b 67 30 c5 ba 10 8d b4 3c
       0.09028365 0.0026309895 -0.0015044332 0.02203992
0000c0 87 2b 49 3d b8 67 21 be c1 e8 1e be b6 48 af 3d
       0.049113777 -0.15762222 -0.15518476 0.085587904
0000d0 37 c7 45 bb bb 85 79 bd 31 8d 9b 3b 0c 12 5b 3d
       -0.0030178556 -0.06091855 0.004747056 0.053484008
0000e0 6a b8 70 3c 51 d8 2d 3d c1 c8 bb bd e7 ca e5 3b
       0.014692405 0.042442624 -0.0916915 0.0070127132
0000f0 55 84 d8 bd 25 85 14 3d f6 2a e7 bd 12 ff 91 bb
       -0.10572115 0.03625979 -0.11287491 -0.0044554556
000100 f4 32 5f bb ec 95 b3 bd 49 36 f2 bd f9 dd d9 3b
       -0.003405747 -0.0876883 -0.1182676 0.0066487757
000110 b0 d7 aa bd 2d 04 cc 3d 1d d5 9b bc 4c cb ca 3d
       -0.083419204 0.09961734 -0.019022519 0.09902057
000120 a1 f3 98 bd 7a 2d 96 bd 3a 9c 60 bd fb 79 1d 3c
       -0.074683435 -0.07332893 -0.05483649 0.009611602
000130 f9 b1 c7 bd d2 ae 80 3d d8 20 63 3c 17 19 81 bd
       -0.097507425 0.06283344 0.013862811 -0.06303614
000140 bc d6 34 bd 22 20 76 bd 9c 39 eb 3c 63 d3 45 3d
       -0.0441501 -0.060089238 0.028713994 0.048297297
000150 82 65 0a bd 09 ac 52 bc ea f6 22 bd e8 5a 38 bc
       -0.03378821 -0.012858399 -0.039786257 -0.0112521425
000160 11 dc 16 bb e4 8b 55 bd 53 bf 8f 3c c7 2e fa bc
       -0.0023019353 -0.052135363 0.017547285 -0.030539883
000170 76 ce 24 bc a2 65 7a 3c 60 d9 60 3b 2f 86 3f bd
       -0.01005899 0.01528302 0.0034309253 -0.046758827
000180 b0 f8 ab bc 51 3c 8c 3c a7 b8 13 bc 23 4e c1 bc
       -0.020992607 0.017118605 -0.0090161925 -0.023596829
000190 57 bf 07 bc 07 34 bf 3c b5 a6 11 bd 22 a0 8e bb
       -0.008285365 0.023340238 -0.035559375 -0.0043525854
0001a0 3f de 07 bc be f0 6a bd a3 0e 0a bc c3 c4 2c bd
       -0.008292734 -0.057358496 -0.008426341 -0.042179834
0001b0 97 9b 6d bd bc 14 df bc d4 05 01 3d 69 77 11 3c
       -0.05800971 -0.027231567 0.0314997 0.008878567
0001c0 6e a2 21 bc 34 f5 d0 38 01 c3 77 bd 5c 6b 9f bc
       -0.009865386 9.9638855e-05 -0.060488705 -0.019460373
0001d0 c8 25 4c bd 74 c7 a6 3c fd ef e2 3c 64 6d 2a 3c
       -0.04984072 0.020358779 0.027702326 0.010402057
0001e0 d2 10 92 bb a7 93 00 bb a4 8c 0c bb 36 28 a4 bc
       -0.0044575715 -0.0019619258 -0.0021446133 -0.020038705
0001f0 b8 17 1e bd cd 6d 6f bb 5e b7 b3 bc 8b 9f 0d bd
       -0.03859684 -0.0036533952 -0.021938022 -0.03457598
000200 fd de 2f bd d6 c1 bd 3c d6 b1 16 bc 5c 0d 7b bd
       -0.042937268 0.023163717 -0.009197673 -0.061292037
000210 de 39 6f bd 07 4b 48 3d 6e 44 10 bd 99 f5 9b bb
       -0.058404796 0.048899677 -0.03522151 -0.004759502
000220 ae 27 94 3d a6 d8 6a 3c cb 56 91 bd a4 da 95 3d
       0.07234131 0.01433388 -0.070966326 0.07317093
000230 23 de dd 3c 10 d7 88 3d 70 0e d6 bc 31 9c 52 bc
       0.027083462 0.06681645 -0.026129931 -0.012854622
000240 eb 0f a1 3c 4b 48 7d 3d ed 5f ab bb 76 14 df bc
       0.01966091 0.061836522 -0.005229941 -0.027231436
000250 c2 a3 7e bb ab f2 74 3d c4 69 81 3d a8 ab df bc
       -0.0038854931 0.05980174 0.06319001 -0.027303532
000260 19 2a 53 3a 4e 27 76 bc 09 eb c7 3b 5a e3 af bd
       0.0008055284 -0.015024019 0.0061010164 -0.08588286
000270 6d fe a6 3c 76 43 0c 3d a5 17 02 bd c2 5b 73 bc
       0.020384992 0.034244023 -0.03176083 -0.01485342
000280 01 f9 a8 3c 9f 22 bc 3d 23 7c 1c be 8f b3 b6 3d
       0.020626547 0.09186291 -0.1528173 0.08920967
000290 15 d4 0d be a9 9c 8a bc ec 68 6e bd cf 29 7b bd
       -0.13850434 -0.016920405 -0.05820553 -0.06131917
0002a0 39 0e ee 3d ee 06 11 3e 4f 7e 02 be ba 83 e4 bd
       0.116238065 0.141628 -0.12743495 -0.11157937
0002b0 79 15 cc bd 39 b9 d7 bc 7c 54 0a 3d aa 78 2c 3d
       -0.09965033 -0.026333438 0.033771977 0.04210726
0002c0 96 08 0b 3e 50 97 3d 3c 7b e5 88 3d c9 c5 ea 3c
       0.13577494 0.01157172 0.06684395 0.028658764
0002d0 a3 28 0a 3d d4 ab 28 3d 16 1b 01 3e a0 ab 85 bd
       0.03373016 0.041179493 0.12607989 -0.065268755
0002e0 3c 3a 71 bd 63 7f 31 bc ac 9d ba 3d 66 03 2f 3d
       -0.058893427 -0.010833594 0.09112105 0.04272785
0002f0 af ac b5 3d a8 95 99 bd ab 51 12 be a0 96 0b bc
       0.088708274 -0.07499248 -0.14288966 -0.0085197985
000300 32 77 c6 bd 6d 7e 11 3e f4 d4 c5 bc 99 5c f5 bc
       -0.096907035 0.14208384 -0.024149396 -0.02995138
000310 70 68 12 be 32 63 a8 bd f8 7c 0c be b2 4b a0 3d
       -0.14297652 -0.08222045 -0.13719547 0.07826938
000320 01 85 fd 3d a8 12 3b bb ea 4c 08 be 31 5f c2 3d
       0.12378884 -0.0028545056 -0.1331059 0.094908126
000330 ea a7 7f 3d 76 1b d8 bd e8 e7 2e 3e a8 3b d7 b9
       0.062415995 -0.10552113 0.17080653 -0.00041052443
000340 43 e9 1b bd 42 1a a7 bd 35 69 5a bc 28 d9 31 bc
       -0.038064253 -0.08159305 -0.013330747 -0.010854997
000350 13 87 1c 3e 2a 3d b9 bd cd 70 1f 3e 2c 0e e8 3d
       0.15285902 -0.09044869 0.15570374 0.11330828
000360 48 4c a7 bd 2b 6f 14 be 8b 79 d1 bd 2f ed 13 be
       -0.08168846 -0.14495532 -0.102282606 -0.14445947
000370 87 99 93 3c bd de ea 3d 4f db b6 3d df 85 6f bc
       0.018017543 0.11468265 0.089285485 -0.01461932
000380 84 83 14 3e 12 c1 0b 3e 7d 0b 27 be 44 35 01 3e
       0.14503294 0.13647869 -0.16312976 0.12617975
000390 bf cf 92 3d 59 70 c2 3d 84 cd 0a 3e aa 05 bf bd
       0.07168531 0.09494085 0.1355496 -0.09327252
0003a0 6e 5f e5 bd 9c a2 dd 3c 1f 4f a3 bd 21 f2 ae bd
       -0.111998424 0.027055077 -0.079740755 -0.08542276
0003b0 f2 ed 5a 3d 34 5b fc bd 87 19 4c 3d f2 c8 ee bc
       0.05344958 -0.12322083 0.049829032 -0.029148553
0003c0 74 31 8c 3b bb 88 0b 3e b0 3b 66 bc 96 21 8c bd
       0.004278356 0.13626377 -0.014052317 -0.068423435
0003d0 aa 08 7e bd 79 f6 8e bd 32 b4 5c 3d ae 89 27 bd
       -0.06201998 -0.06980605 0.053882785 -0.040902786
0003e0 11 d4 3b bc 99 40 9e bd ab 46 7a bd 03 da 00 3d
       -0.011464135 -0.07727165 -0.06110255 0.031457912
0003f0 cd 52 58 bb bb 9a 7b 3d b8 e3 9a bd 61 0d 87 bd
       -0.0033008337 0.06142686 -0.07562965 -0.06594349

bias f4 [16]
000000 aa 2e 84 38 d8 0f 87 37 f1 8b 02 b7 74 e4 4a 36
       6.302942e-05 1.6100632e-05 -7.7811865e-06 3.0233323e-06
000010 29 12 05 b8 8e 97 9c 37 6a 00 5f b9 2c 54 c2 b7
       -3.1726584e-05 1.8667222e-05 -0.00021267092 -2.3165798e-05
000020 14 04 00 38 f4 83 fb b6 b9 6a 1c b8 1a d5 c8 38
       3.0521376e-05 -7.4957443e-06 -3.729269e-05 9.5764364e-05
000030 da 65 93 38 7e 18 a9 36 a5 03 e3 b7 43 33 8c b8
       7.0284776e-05 5.0394437e-06 -2.7062206e-05 -6.6852685e-05

weight f4 [16]
000000 a0 ae 6b 3f 46 bc 41 3f 27 d4 75 3f 63 1c 5b 3f
       0.9206333 0.7567791 0.96026844 0.8559019
000010 4f 40 5d 3f f6 0d 50 3f 68 bb 41 3f 47 95 4f 3f
       0.8642625 0.812713 0.75676584 0.81087154
000020 b8 95 46 3f 3e b7 70 3f ce 05 5e 3f a4 ca 4d 3f
       0.775722 0.94029605 0.8672761 0.8038733
000030 17 73 6c 3f 46 7d 5b 3f de e0 56 3f 66 d4 61 3f
       0.92363113 0.8573803 0.8393687 0.8821472

bias f4 [16]
000000 2f d5 2a bc 92 1f 2e 3c cb 81 6a ba 4e 6b fb 38
       -0.0104268035 0.010627644 -0.0008945732 0.000119886
000010 5c 37 09 bc 03 4c 91 bb a9 da 81 3c f4 91 77 3c
       -0.008375015 -0.00443411 0.015851336 0.0151104815
000020 eb 99 82 bc 81 28 49 bb 68 10 48 ba a4 80 2c 3c
       -0.015942534 -0.0030694308 -0.0007631839 0.010528717
000030 cb 86 ea 3a 67 11 24 bc 63 35 61 3c 9e 43 32 bc
       0.0017892955 -0.010013915 0.013745639 -0.010880379

running_mean f4 [16]
000000 a6 f8 f8 c1 c6 a8 49 3f 1a 10 87 c2 36 b7 29 c2
       -31.12141 0.7877315 -67.53145 -42.428917
000010 35 2a 33 c2 d2 d5 12 42 95 ca 89 41 10 e2 6d c1
       -44.791218 36.70881 17.223917 -14.867691
000020 22 f2 2e 40 99 10 5d c2 d4 4b 0f 42 2d 5d cb 41
       2.7335286 -55.26621 35.82405 25.420496
000030 54 4e 46 c2 2e 5f d8 c1 84 70 e8 c1 da da 14 c2
       -49.576492 -27.046474 -29.05494 -37.213722

running_var f4 [16]
000000 cc 51 c7 43 8e 83 01 43 b8 2e 74 44 e4 18 c1 43
       398.63904 129.51389 976.73 386.19446
000010 5b 4e d5 43 6a cc 8f 43 12 f6 2f 43 fb 40 55 43
       426.61215 287.597 175.96121 213.25383
000020 40 b2 0c 43 a1 79 20 44 d1 de 9a 43 18 84 1d 43
       140.69629 641.90045 309.74075 157.51599
000030 d2 2b 27 44 fd 0d 66 43 f4 82 3b 43 2e b4 a3 43
       668.6847 230.05464 187.51154 327.40765

weight f4 [16, 3, 5, 5]
000000 e9 48 9f 3d 8b c9 b0 bd b5 c1 69 3d 4e 36 ad 3d
       0.077775784 -0.08632191 0.0570695 0.084576234
000010 58 1e 16 3d d1 6a b7 bd 44 1f 93 bd a9 04 a6 bd
       0.03665003 -0.089559205 -0.07183698 -0.081063576
000020 56 25 be 3d cc 5c 2a 3d a4 88 45 bc 6b 7e 61 3d
       0.09284465 0.041592404 -0.012056503 0.055052202
000030 a6 c2 99 3d 32 25 9b bd 82 c0 83 bd 9f ef 72 bd
       0.07507829 -0.07575454 -0.06433202 -0.05931055
000040 96 91 d1 bd 52 40 8b 3d db 34 4e bd cf fa 55 bd
       -0.102328464 0.067993775 -0.050343376 -0.052241143
000050 4f 43 3a bd c0 55 2a 3c 7a d8 a5 3d 70 61 8a 3b
       -0.045474347 0.010396421 0.0809793 0.0042230412
000060 7b bb e3 bc 5b 4f 8b bd 96 06 ca bd 75 62 a3 bd
       -0.027799359 -0.06802245 -0.098645374 -0.079777636
000070 72 d8 81 3d e1 0e 5f bd a8 bb 98 bd ec 80 85 3d
       0.06340112 -0.05445755 -0.074576676 0.065187305
000080 a6 9f 6d bd 4e b2 ae bd 9a c4 91 bc 6e f5 12 bc
       -0.05801358 -0.08530103 -0.017793942 -0.008969648
000090 bf bf 71 3d 0d 7e c0 bd 1e b2 83 3d 9e e0 b1 bd
       0.059020754 -0.09399042 0.064304575 -0.086854205
0000a0 d7 97 a8 bd 43 46 77 bd f0 db ad 3d 5b 20 b3 bd
       -0.08232086 -0.06036974 0.084892154 -0.08746406
0000b0 5f dd 36 3d ea 7d 8a bd 48 ee 51 3d 85 56 3b bd
       0.04464471 -0.067622975 0.051252633 -0.04573681
0000c0 c4 bd af bd dd d5 95 3d 49 c7 28 3c 95 38 a6 3d
       -0.08581117 0.07316182 0.0103014195 0.08116261
0000d0 08 2b 52 3d 44 ab a9 bd 02 6b e2 3d e5 c2 4e 3d
       0.05131057 -0.082846195 0.11055566 0.050478835
0000e0 25 40 af bd 8a a9 d2 3d 18 93 b8 bd 44 d1 cf 3d
       -0.085571565 0.10286243 -0.09012431 0.10147336
0000f0 9c 23 82 bd 22 7c a4 3d bc fc 3d 3d 03 93 78 bd
       -0.06354448 0.08031489 0.046383604 -0.060687076
000100 9d f9 b9 3d 22 23 b8 bd c6 73 0b 3d 4d 01 3e 3d
       0.09080813 -0.08991076 0.034045957 0.04638796
000110 62 89 0b 3d 42 2a 20 3d 0e 48 e1 ba 1c e7 1c bd
       0.034066565 0.0391028 -0.0017187612 -0.03830634
000120 00 7b d4 3d 05 8c 29 bc f0 3c 60 3d b7 8e de 3c
       0.10375023 -0.010348325 0.054745615 0.027167661
000130 33 0c 67 bb 06 94 8d 3d 5e 77 55 3c f1 82 85 3d
       -0.0035255074 0.06912999 0.013028948 0.06519116
000140 a6 71 43 3d e3 86 b4 bd cb 74 95 bd b3 ed 83 3d
       0.047715805 -0.0881479 -0.07297667 0.06441822
000150 29 c6 2c bc 59 ed 4b 3d 02 e0 b6 bd 13 31 b9 bd
       -0.010545292 0.0497869 -0.08929445 -0.09042563
000160 4d 11 d6 bd 99 82 07 3d 2f d5 15 bc 95 dc bd bd
       -0.104525186 0.033083532 -0.009145065 -0.09270588
000170 f7 3d a5 bd e8 62 15 3c 22 4b 76 3d c3 96 1b 3d
       -0.080684595 0.009117819 0.060130246 0.037985574
000180 59 e3 80 3d a2 78 eb 3c 2f a8 c2 3c 2b 4d 9e 3c
       0.06293363 0.028744046 0.023761837 0.019323906
000190 7a 5f eb 3c 2d f2 63 3d 8a 5f c0 b9 68 6c 8e bd
       0.02873205 0.05565088 -0.00036692276 -0.069542706
0001a0 e0 f9 57 bd b5 38 07 bd 38 a5 95 3c 9b 50 08 3c
       -0.052728534 -0.033013064 0.018267259 0.008319999
0001b0 1b 1a 3b 3c 9b c0 5c 3d 99 f3 09 bc d3 bb 43 3d
       0.011419798 0.05389462 -0.008419895 0.047786545
0001c0 65 52 1b bd 71 ee 85 bc 83 7d 49 3d 45 ad 8f 3b
       -0.037920374 -0.01634905 0.049191963 0.004384669
0001d0 f4 1c 8e bd 7a a6 79 bd 79 14 ff 3c b1 ff 45 bd
       -0.06939116 -0.06094978 0.031137692 -0.04833955
0001e0 41 72 86 3d 70 a7 c8 3b c9 c1 75 3d 36 94 66 bc
       0.06564761 0.0061234757 0.05999926 -0.014073422
0001f0 fa 6f cd 3c b9 b5 4a 3d 9b 9d 96 bb b7 d4 9d bb
       0.025077809 0.04948971 -0.0045964248 -0.0048166174
000200 53 93 02 3b f2 0b 60 3d 52 4e 40 bd 03 64 44 3d
       0.0019924238 0.054698892 -0.046949692 0.04794694
000210 ad 6b 0e bc 76 13 ba bc 56 31 54 bd 1e 64 37 bd
       -0.008692664 -0.022714358 -0.051804863 -0.044773214
000220 b7 d5 69 3d 2e 63 eb 3c 1c 85 e0 bc d3 d4 aa bc
       0.05708858 0.028733816 -0.027407221 -0.020853436
000230 2f e3 3c bc a6 73 e8 3c da e2 5d bc da ba b4 bb
       -0.011528774 0.028375458 -0.013542855 -0.0055154385
000240 59 54 3a bd f4 0a e3 3b 85 3c bd 3c 54 6b e7 3c
       -0.045490596 0.006928796 0.023100147 0.02824942
000250 2b 58 1c 3c 45 eb 02 3d 18 3a 0e 3c 62 31 3d 3d
       0.009542505 0.03196265 0.008680843 0.046189673
000260 05 cc c0 3d 2a 4c 6c bd ad d9 cc 3d 02 82 7b bd
       0.09413914 -0.057689823 0.10002456 -0.061403282
000270 9a ae d5 bd 22 ae b8 bd 7c 8a c0 3d 89 f1 e0 3c
       -0.10433693 -0.09017588 0.09401414 0.027458923
000280 0b ff 8c 3d 27 7b 36 bd 67 ff d4 3d 3a 75 1a bd
       0.06884583 -0.04455104 0.10400277 -0.037709452
000290 81 2a cc bc 7c a1 e3 bd cd cd 0c bc e6 48 b0 bd
       -0.024922611 -0.11114785 -0.008593989 -0.08607654
0002a0 e7 cf 57 3d 9a bc 17 3d 76 03 64 bd b3 dd 5e 3d
       0.052688506 0.0370451 -0.055667363 0.054410648
0002b0 db cf d2 3d 8e c5 92 bc 07 46 ab 3d 98 10 c3 3b
       0.102935515 -0.017916467 0.08362966 0.005952906
0002c0 9e bc 98 bd 78 31 7d 3c 0e b2 00 bd c6 38 c2 3d
       -0.07457851 0.015453689 -0.031419806 0.09483485
0002d0 5e 5e 92 bd a5 19 54 bd 96 3a 54 bd 2a cf 9f 3c
       -0.07146905 -0.05178227 -0.051813684 0.019507963
0002e0 20 5b 57 bc 57 e6 a8 bd 84 f5 b7 bd 63 6d 42 bd
       -0.0131442845 -0.08247059 -0.08982375 -0.0474676
0002f0 8c a2 65 3d 2a 50 90 bc af 4b 8f bd 68 a8 5c bd
       0.05606322 -0.01761635 -0.069968574 -0.053871542
000300 ba 5a d3 3d 39 76 e7 bd 01 23 8a 3d 3c 40 55 bd
       0.10320039 -0.11301846 0.06744958 -0.05206321
000310 df 57 bc bd d6 13 4e 3d 39 cf 8e bd f7 80 f1 bb
       -0.091964476 0.050311886 -0.06973118 -0.00737011
000320 ab b7 78 bd 41 d1 80 3b 8c 32 c5 3c da 6b e9 3d
       -0.060722034 0.003931195 0.024071954 0.11397524
000330 2e 31 58 bd 50 a0 42 bd 11 f4 60 3d bd 42 60 bb
       -0.052781276 -0.047516167 0.05492026 -0.0034219467
000340 e2 2d b3 3d 67 57 e1 bd dd 59 09 bd 3f 0c d5 3d
       0.08748986 -0.11002999 -0.033532966 0.104027264
000350 7c c5 c1 3c 9f b4 d5 bd 4c 30 cd 3c f1 76 9f 3d
       0.023653738 -0.10434841 0.025047444 0.07786358
000360 62 12 a5 3d fa b2 2b bd 57 b1 e1 3d 16 c6 e3 ba
       0.08060147 -0.041918732 0.11020153 -0.001737776
000370 21 1a 56 bc 8f 93 b0 bc ed 4e bf 3d ab 37 c4 bd
       -0.013067753 -0.021554736 0.09341226 -0.0958093
000380 97 bb c9 3c d0 7d 36 bd 11 f8 91 3c 90 f8 86 3c
       0.024625583 -0.044553578 0.017818483 0.016475946
000390 cd 4d b5 bd a5 2d a4 bd fd 11 07 3d c3 f7 7b bd
       -0.0885273 -0.080165185 0.03297614 -0.06151558
0003a0 02 e9 85 3d 82 97 88 bd 20 94 99 bd 9e 14 e9 3d
       0.06538583 -0.06669523 -0.07498956 0.113808855
0003b0 fd 32 35 bd 80 0c 0e bc 37 7d bb bc 38 cd 50 bd
       -0.04423808 -0.008669972 -0.022886856 -0.05097696
0003c0 53 c4 94 bb c8 3a 28 3d ef 1d 5b bd 36 97 fe bc
       -0.0045400052 0.041071683 -0.053495344 -0.031077962
0003d0 89 1f cc 3d 01 9a 11 3d fc b5 3e bd c6 01 08 bd
       0.09966952 0.03554726 -0.046560273 -0.033204816
0003e0 80 de a6 3d 47 80 28 3d 17 49 98 3d cd 11 6b 3c
       0.08147907 0.04113796 0.07435816 0.014347506
0003f0 92 30 b8 bd 04 9e e9 bd 8d c3 b9 3d 0a f4 8e 3c
       -0.08993639 -0.11407092 0.090705015 0.017450351

bias f4 [16]
000000 a0 3a 20 35 65 e8 9c 38 0e 04 53 37 44 15 48 37
       5.9689955e-07 7.4819465e-05 1.2577524e-05 1.192588e-05
000010 a8 04 2a b6 c2 72 90 38 60 87 3f 37 4e c5 d3 b6
       -2.5334684e-06 6.8878304e-05 1.1416007e-05 -6.3112593e-06
000020 32 3f 45 37 e8 0b 88 37 2c f8 67 37 bd 9b f7 b7
       1.1756829e-05 1.6218008e-05 1.3826455e-05 -2.9517216e-05
000030 48 b7 05 b6 72 84 5f 37 51 f3 37 38 2a d2 6e b8
       -1.9925228e-06 1.3322673e-05 4.3857206e-05 -5.6939352e-05

weight f4 [16]
000000 7a c5 4b 3f 2a e2 56 3f f6 16 5e 3f 38 4a 75 3f
       0.795982 0.8393885 0.86753786 0.95816374
000010 4e 4b 4f 3f cc 56 5b 3f 60 9e 6b 3f ca da 5d 3f
       0.8097428 0.85679317 0.92038536 0.8666197
000020 38 28 60 3f ab a9 69 3f b5 aa 63 3f 37 ee 4d 3f
       0.8756137 0.9127452 0.88932353 0.8044161
000030 64 44 59 3f 14 b7 5c 3f d6 ab 50 3f 7e db 48 3f
       0.8486998 0.86216855 0.815122 0.7845992

bias f4 [16]
000000 11 bc 1e bc eb aa 55 bb 22 ca 32 bc b9 9f 07 bb
       -0.009688393 -0.0032603096 -0.01091245 -0.0020694567
000010 c1 d1 bb 3a ab 70 2f 3d d1 1c b6 bb 0b df ec 3b
       0.0014329479 0.042832058 -0.0055576344 0.007228737
000020 33 4e 85 bc 2a 79 67 3b f2 38 23 3c 64 f5 fd 3c
       -0.01627264 0.0035320022 0.009962307 0.0310008
000030 be 22 74 bb f9 6a 83 ba ec 36 05 3c e2 13 8e 3c
       -0.0037252153 -0.0010026387 0.00813077 0.017343465

running_mean f4 [16]
000000 85 24 13 c2 24 1b 1e 41 4a 4f af c1 06 09 e7 c1
       -36.785664 9.881626 -21.913715 -28.879406
000010 2a 2b 93 41 70 81 90 41 cb 40 c3 c1 f3 57 6e c2
       18.396076 18.063202 -24.406637 -59.585888
000020 25 e7 ba c1 ca ca e8 41 d0 e5 84 41 8d 74 bd 40
       -23.362864 29.099018 16.612213 5.9204774
000030 47 f4 dd c1 7a 91 23 c2 06 d7 85 3f 0f ad 36 42
       -27.744276 -40.892067 1.0456245 45.669003

running_var f4 [16]
000000 93 9c 05 44 f7 d3 28 43 8b 71 db 43 bc f5 0c 44
       534.4465 168.82799 438.88705 563.8396
000010 26 c0 23 43 7f df 4e 43 86 5b be 43 d3 63 31 44
       163.75058 206.87303 380.71503 709.55975
000020 35 01 cd 43 f0 b5 79 43 e2 56 51 43 b5 d2 98 43
       410.00943 249.7107 209.33939 305.64615
000030 a8 9f 0e 44 78 6d 0f 44 40 b6 a3 43 23 c7 ec 43
       570.4946 573.71045 327.42383 473.55576

weight f4 [96, 48, 1, 1]
000000 dd 20 d2 bd 78 c2 e9 3d 8c a5 00 3e c9 5a a9 bc
       -0.102601744 0.11414045 0.12563151 -0.020673173
000010 04 fd 41 bd 30 3c c9 bd f0 d6 9e 3d 95 a0 d0 bd
       -0.047360435 -0.09825933 0.0775584 -0.101868786
000020 0e a8 31 3c de b8 a1 3d fc c9 ea bc 1b aa 04 bd
       0.01084329 0.07896589 -0.028660767 -0.032388788
000030 18 76 e4 bd e8 e6 91 bc 5a 64 80 bd f2 47 e7 3d
       -0.11155337 -0.0178103 -0.062691405 0.11293019
000040 a1 cb 5d bd 7b 49 a1 bc 2d 71 d8 bc 72 d7 71 bd
       -0.054149274 -0.019688359 -0.026421154 -0.059043355
000050 3b a3 33 3d d6 25 38 3c 69 ff c8 bd f2 9f b5 bc
       0.04385684 0.01123949 -0.098143406 -0.022170994
000060 12 21 7d 3b e2 6a 5f 3c 3d 68 0c be e6 c4 a7 bd
       0.0038624448 0.013636323 -0.13711639 -0.08191852
000070 09 f1 f4 3d d3 02 c1 bd fc 9e 4c 3d e1 8c eb bd
       0.11960036 -0.09424367 0.049956307 -0.1150148
000080 1c 57 9c bd f1 2f 9b 3d 41 af 4d bd aa 4c 4f 3b
       -0.07633802 0.075775035 -0.050215963 0.0031631389
000090 b5 4d 82 3d 13 36 d5 3c 13 a2 20 3d 64 5d bf 3c
       0.06362478 0.026026761 0.039217066 0.023359962
0000a0 5c d0 9f 3d ae 6e e3 bd b1 0f 8b 3d b2 82 ac 3c
       0.07803413 -0.11105095 0.06790102 0.021058414
0000b0 3c c0 4e bd b7 3a 15 bd 70 6f 72 bd fa 1c db 3c
       -0.050476298 -0.036432948 -0.059188306 0.026747216
0000c0 64 c0 57 bd bb 73 17 bd 40 ae 20 3d 08 ad f0 bc
       -0.052673712 -0.036975604 0.039228678 -0.029379383
0000d0 99 d2 53 3d eb 49 8c bd 45 31 78 3d d2 f6 4d bd
       0.051714513 -0.06850036 0.060593862 -0.050284214
0000e0 c1 87 a9 bd 8e e3 92 bd c3 2a db bc 82 42 bc 3d
       -0.08277846 -0.07172309 -0.026753789 0.09192373
0000f0 97 91 b5 3c f6 18 4e bd c3 88 93 bd 6d c4 16 bd
       0.02216415 -0.050316773 -0.072038196 -0.03680842
000100 6e b3 90 bd 9c bf db 3c 81 4a f0 3b bb 5c 4c 3d
       -0.070654735 0.026824765 0.0073331003 0.049893122
000110 dc c5 11 3c 8a d2 c0 3c 7a c1 9a bb a3 fe a2 bd
       0.008897271 0.023537893 -0.0047227712 -0.07958724
000120 15 6a 1e bc 4d 28 86 bd 9f b1 bf bc 94 da d5 bd
       -0.009668847 -0.065506555 -0.023400126 -0.10442081
000130 58 c8 78 bd 8e 67 0f 3d 41 4b 6d bb 3c dc 33 bc
       -0.060737938 0.035010867 -0.0036208185 -0.010977801
000140 80 3c 6b bb c3 3a d0 3d 29 4c 2c 3d c3 55 c0 bd
       -0.0035894215 0.10167458 0.04206482 -0.09391358
000150 ac 9b 24 3d dd 5f d5 bd a9 16 a8 3c ba 33 8e bd
       0.040187523 -0.10418675 0.020518618 -0.0694346
000160 9e da b4 3d 42 a2 ce bd 77 5b 80 3d 76 a0 e7 3a
       0.088307604 -0.10089542 0.062674455 0.0017671722
000170 e9 5a 89 3d a4 24 73 3d 13 f9 81 bb b0 dd bc 3d
       0.06706793 0.059361115 -0.0039664595 0.09221971
000180 c0 29 3e 3b a4 b2 a4 bd 91 7c 8e 3d 0e 8e 41 3c
       0.0029016584 -0.080418855 0.06957353 0.011813654
000190 82 6b 71 3d c2 00 8c bd 23 fe 1e 3d 2b 05 39 bd
       0.058940418 -0.06836082 0.038816582 -0.045170944
0001a0 b5 2f c1 3d 5c 4e 87 3d 8b 46 67 bd a2 de 98 bd
       0.094329275 0.06606743 -0.05646376 -0.07464339
0001b0 12 cc e8 3c 19 e8 01 bd c7 84 ee 3c f5 04 22 3d
       0.02841762 -0.031715486 0.029116048 0.03955551
0001c0 b5 19 d0 3d 00 01 f5 bc 0b aa e0 3d f3 78 28 3d
       0.10161153 -0.029907703 0.10969933 0.04113097
0001d0 9c cf 27 bd af ab c2 bc ec eb 54 bd b4 fe 39 bb
       -0.040969476 -0.023763506 -0.051982805 -0.0028380575
0001e0 a8 f6 c1 bc 8a 82 82 bd 6d 83 c6 bd 0a 14 ae bc
       -0.023677185 -0.063725546 -0.09693036 -0.02124979
0001f0 84 a6 60 bb 31 15 a1 bd 26 98 50 3d a6 6f 49 bd
       -0.0034278939 -0.0786537 0.05092635 -0.049178742
000200 ff e8 88 3d c8 5b 0b bd 17 7b 5f 3d 8b 45 88 bd
       0.066850655 -0.034023076 0.054560747 -0.06653889
000210 98 a0 b7 3d 8d 56 50 3d 2a cf 08 bd 69 f6 d8 bd
       0.08966178 0.05086379 -0.033400692 -0.10593874
000220 e8 38 25 bb 65 40 25 bc 01 25 b0 bd d3 cf 86 bd
       -0.002521092 -0.010086154 -0.08600808 -0.06582608
000230 9c 99 cc bd 04 97 a6 bc 08 82 c4 3d bd b6 4c bd
       -0.09990236 -0.020335682 0.09595114 -0.04997896
000240 30 63 9e 3d f8 a8 78 bd dd f2 0d ba 8b ad 95 bb
       0.07733762 -0.060708016 -0.00054149126 -0.004567807
000250 9c 4a 47 bb 1f 7a 49 bd 10 20 2d 3c 9a 08 08 bb
       -0.003040946 -0.04918873 0.010566726 -0.002075708
000260 25 d0 f7 3c cc 8d 4d bc 42 b8 86 bc 7b 28 8a 3d
       0.030250618 -0.012546014 -0.016445283 0.06746002
000270 30 7b 06 bd 55 f2 38 bc df ad 1a 3d 71 3c 4a 3c
       -0.032832325 -0.011288245 0.037763473 0.012343512
000280 b8 e9 97 bc d9 9a 35 bb 0b fe 03 3d 2d 2a ff 3c
       -0.018544063 -0.0027710705 0.032224696 0.03114804
000290 ad 1c 28 bc 4b 97 0f 3c 3b 64 09 bd e1 f7 6c 3d
       -0.010260743 0.008764098 -0.033542853 0.057853583
0002a0 19 3d 80 3d 30 33 ff bc f9 91 80 3d 5b 88 74 3c
       0.062616535 -0.031152338 0.06277842 0.014925088
0002b0 fa 25 87 3b 65 8a db bc db d5 5d bc 61 bd d0 bc
       0.0041244 -0.02679939 -0.013539757 -0.025480928
0002c0 74 cb 70 3d 16 c7 96 bd 83 73 2b 3d 0d 33 0a bd
       0.058787778 -0.073621914 0.041858207 -0.033740092
0002d0 8a 2f 3f bb ff 8c c3 bc 53 c6 3b bd c8 63 ff 3b
       -0.0029172623 -0.023870943 -0.045843434 0.0077938773
0002e0 86 7d c7 bb 21 c7 d3 3c 30 56 5c 3c ee 64 70 3d
       -0.0060879616 0.025851788 0.013448283 0.058690004
0002f0 db 4b d2 bc 24 32 97 3c 1e e0 25 bc d5 ed 14 bd
       -0.025670936 0.018456526 -0.0101242345 -0.036359627
000300 95 95 0a 3c 6f e9 d8 bc 84 e0 a8 3d 2d 37 de 3d
       0.008458515 -0.026478497 0.08245948 0.10850368
000310 9f dd b7 3c f8 b5 03 3d 0f cd ea 3d dc 62 ff 3d
       0.022444544 0.03215596 0.11464893 0.12470028
000320 c2 42 b1 bd b5 47 7c bd 9c 3c 4e bd ae e7 86 bc
       -0.08655311 -0.061591823 -0.05035077 -0.016467895
000330 99 75 93 3d 7a dc a1 3d a7 24 76 3d d3 37 8f bc
       0.07200164 0.07903381 0.06009355 -0.017482674
000340 dc 2f bb 3d f9 ae c8 3a 62 85 ce bb f5 df 82 3d
       0.09139988 0.0015310935 -0.0063025216 0.06390373
000350 f1 f4 99 bd dc f9 b7 bc 4e af cd bb 9f a7 a6 3d
       -0.07517422 -0.02245801 -0.0062770015 0.0813744
000360 32 f9 0a bd e7 f0 5e 3d d6 c5 e2 3d 4a 7e 45 3d
       -0.033929057 0.05442896 0.110728905 0.04821614
000370 b9 e3 0f bd 1e 9b 58 bd e6 9b d8 3d 42 b7 fb bd
       -0.035129283 -0.052882306 0.1057661 -0.12290813
000380 53 09 b2 3c c1 bd 75 3d 27 68 4f 3d 00 fc 6e 3d
       0.021732962 0.059995417 0.050636437 0.058345795
000390 fc 78 a9 bd c7 24 23 bd 2a 98 3d bd e2 ca 08 be
       -0.08275029 -0.039829995 -0.046287693 -0.13358644
0003a0 c2 4a af bd 6c 10 74 3d d7 f8 e3 3d 36 f3 71 3a
       -0.08559181 0.059585974 0.11131447 0.00092296617
0003b0 31 fd af bb 58 81 a1 3d a9 0d e1 bc 5a 14 f6 3b
       -0.005370759 0.078859985 -0.027472334 0.0075097503
0003c0 46 74 e8 3c ef da a5 3d cd fd 93 bd f8 58 bb bc
       0.028375756 0.08098399 -0.07226143 -0.022869572
0003d0 b8 60 7e 3d fb 42 86 3d c9 7e b2 3c 91 ca 85 3d
       0.062103957 0.06555744 0.021788971 0.06532777
0003e0 7c 08 a6 bc 80 c6 3f 3d df 4c e8 3c 4a a1 f4 3c
       -0.020267718 0.046820164 0.028356967 0.029862065
0003f0 e1 5d c7 bc 24 62 7c 3d 74 5f a1 3d 53 13 0b 3d
       -0.024336757 0.06161703 0.07879534 0.033953976

bias f4 [96]
000000 80 63 ed 39 aa 13 16 3a 31 d2 d0 39 23 3f 16 ba
       0.00045278296 0.0005724976 0.00039829456 -0.0005731454
000010 5d 04 18 39 1e 24 dd 37 8b cc 60 39 1d fe 47 b9
       0.00014497475 2.6362071e-05 0.00021438503 -0.00019072783
000020 ef c4 4d 38 cf 18 8f 39 93 a1 25 b9 68 1c 40 39
       4.9059217e-05 0.0002729357 -0.00015795817 0.00018321129
000030 94 fd 9e b9 0e b7 07 38 f1 c9 94 b9 29 dc ba b7
       -0.0003032504 3.235699e-05 -0.00028379218 -2.2275448e-05
000040 b0 27 90 b9 b4 63 8a b6 3b 30 41 39 b4 82 a2 39
       -0.0002749539 -4.1243275e-06 0.00018423882 0.0003099643
000050 7b 42 35 39 f9 5b b6 b8 da 66 12 ba d7 63 21 b9
       0.00017286271 -8.6955675e-05 -0.0005584784 -0.0001539135
000060 db 44 19 39 bb 9f 1d 39 92 81 6d b9 01 90 ea b8
       0.00014616868 0.00015032191 -0.0002265035 -0.00011184812
000070 74 28 ee b9 88 93 c9 b9 36 0f 45 b9 b1 48 12 39
       -0.00045425037 -0.00038447627 -0.0001879305 0.00013950725
000080 05 76 06 39 36 35 b4 b8 d9 2a 0a 39 d2 ea f5 38
       0.00012823202 -8.59298e-05 0.00013176668 0.00011726249
000090 77 f5 c5 39 7d 6e df b8 70 31 03 b8 60 c1 b1 b9
       0.00037757654 -0.00010654049 -3.1278876e-05 -0.00033904146
0000a0 06 e7 b5 b9 5a 84 6c 39 e4 1d 6c b9 f5 7c 10 39
       -0.00034695136 0.00022556019 -0.00022517849 0.0001377946
0000b0 42 f0 0b 3a f3 77 3a b9 fc e9 0e b9 18 c1 aa 39
       0.00053382304 -0.00017783027 -0.00013629341 0.00032568793
0000c0 18 d8 d3 b9 d4 ea 58 b7 02 16 20 ba 66 63 e6 37
       -0.00040406059 -1.29292785e-05 -0.0006106795 2.7464423e-05
0000d0 0c 0a 9c b7 47 48 73 b8 2a 87 da b9 29 36 9e 39
       -1.8601328e-05 -5.800303e-05 -0.00041680905 0.0003017646
0000e0 5d 3a 26 38 a4 94 15 b9 a2 79 48 39 3d 0e 80 39
       3.963184e-05 -0.0001426512 0.00019118798 0.0002442467
0000f0 69 6b de 39 ee 7f a1 38 5d 97 34 3a 48 d4 4e 37
       0.00042423166 7.700907e-05 0.000688901 1.2327982e-05
000100 fd 4a 6f 39 e5 7b 7d 39 69 f0 c1 39 f4 ef 21 b9
       0.00022820751 0.00024174115 0.00036990948 -0.00015443546
000110 f3 45 ff 38 65 ea 8c b9 26 bc 12 b9 14 41 b0 b9
       0.000121723766 -0.00026877518 -0.00013993736 -0.00033617823
000120 98 3f 60 b9 99 d9 85 38 1c 90 10 ba 59 9d 01 b9
       -0.00021385995 6.382465e-05 -0.0005514638 -0.00012361015
000130 c0 4a d4 36 2b 87 28 39 13 03 f3 b8 7c 1f ff b8
       6.3267944e-06 0.00016072083 -0.000115877156 -0.00012165212
000140 bd 20 a2 b8 40 20 6d 38 89 9d 50 39 21 18 6e 3a
       -7.73086e-05 5.653524e-05 0.00019895112 0.0009082575
000150 41 fb a6 39 b8 c9 8d 39 03 13 ef b8 7a 67 65 b8
       0.00031849186 0.00027043908 -0.00011399949 -5.4694225e-05
000160 dd b2 59 39 55 23 88 b9 92 5b 9e 39 2f 9d fb 39
       0.00020761364 -0.00025966266 0.00030204334 0.00047991562
000170 08 8a 8b b7 63 5f 92 b9 fe e0 18 ba 16 5d b3 38
       -1.6634367e-05 -0.0002791836 -0.00058318663 8.552724e-05

weight f4 [96]
000000 c6 e8 44 3f c5 58 40 3f 42 75 40 3f a1 a6 34 3f
       0.76917684 0.7513545 0.7517892 0.70566756
000010 a1 e7 42 3f 02 1b 3c 3f 40 a3 44 3f 3c da 3d 3f
       0.7613469 0.7347871 0.768116 0.74161124
000020 7e 9e 3b 3f 69 d8 3b 3f 2d cb 3f 3f 5e bc 4d 3f
       0.73288715 0.7337709 0.74919397 0.8036555
000030 4d 2e 40 3f 79 19 45 3f b6 5b 38 3f 56 7e 49 3f
       0.7507065 0.76991993 0.7201494 0.787084
000040 5a 35 38 3f 05 fa 5a 3f f4 a9 42 3f c3 4b 3c 3f
       0.7195641 0.8553775 0.7604058 0.73553103
000050 a2 0c 36 3f 8b 78 34 3f a9 40 4a 3f a4 f8 48 3f
       0.71113026 0.70496434 0.79004914 0.78504395
000060 eb b5 3b 3f 70 d3 35 3f 24 fb 4c 3f c5 53 47 3f
       0.7332446 0.71025753 0.8007071 0.778622
000070 c0 ec 4e 3f 60 18 51 3f cd d1 49 3f e7 85 44 3f
       0.8083 0.8167782 0.78835756 0.7676682
000080 65 a0 48 3f 32 0b 40 3f b6 51 41 3f e4 0c 46 3f
       0.7836974 0.7501708 0.75515306 0.7736342
000090 5c 43 36 3f f7 8d 3a 3f c5 70 38 3f 62 46 53 3f
       0.7119653 0.7287287 0.7204707 0.8252927
0000a0 64 e7 36 3f 50 83 55 3f 64 11 37 3f b9 a5 35 3f
       0.71446824 0.8340349 0.7151091 0.70956
0000b0 5e b1 45 3f f9 d5 41 3f 73 f5 46 3f bc d9 38 3f
       0.77223766 0.7571712 0.77718276 0.72207236
0000c0 46 69 47 3f 33 b1 3a 3f a5 1d 41 3f 60 53 3c 3f
       0.7789501 0.72926635 0.7543586 0.7356472
0000d0 93 6b 33 3f 00 12 34 3f ce 0c 47 3f 18 55 43 3f
       0.7008602 0.70339966 0.77753913 0.7630172
0000e0 4e b3 39 3f 41 40 3a 3f 6e 1f 4a 3f ba 1e 33 3f
       0.7253922 0.72754294 0.7895421 0.6996876
0000f0 b1 85 3d 3f 0c 81 33 3f 01 0d 4f 3f 34 96 34 3f
       0.7403212 0.70118785 0.8087922 0.7054169
000100 59 d3 38 3f 64 b1 36 3f 43 93 48 3f 28 23 39 3f
       0.7219749 0.71364427 0.78349704 0.7231927
000110 ad 4d 35 3f 87 17 38 3f 5b af 34 3f 75 7f 34 3f
       0.7082165 0.719109 0.7058007 0.70506984
000120 35 99 46 3f cd 60 45 3f 55 0a 3b 3f b5 d8 34 3f
       0.77577525 0.7710083 0.7306264 0.7064317
000130 de d3 3c 3f 3a 65 3e 3f 83 e2 36 3f bf 8b 3b 3f
       0.73760784 0.7437321 0.7143938 0.7326011
000140 07 33 3a 3f 24 52 3f 3f 59 a6 51 3f b7 e7 35 3f
       0.7273411 0.7473471 0.8189445 0.71056694
000150 46 aa 44 3f 6f 7e 3e 3f 0b 82 42 3f 6c e4 36 3f
       0.76822317 0.7441167 0.7597968 0.71442294
000160 99 f8 40 3f 11 90 40 3f 9a c5 47 3f b5 b6 4b 3f
       0.7537933 0.7521983 0.7803589 0.79575664
000170 67 9e 33 3f 61 f5 3f 3f 44 34 3b 3f 2a 53 44 3f
       0.7016358 0.74983793 0.73126626 0.766894

bias f4 [96]
000000 0f c9 2d bc 60 2d 10 3b 1d af 75 3b 82 73 26 bc
       -0.010607018 0.0021999702 0.003748841 -0.010159375
000010 9b 34 09 3b 94 ed 82 bc f7 38 27 3c 63 02 9b 3c
       0.0020935896 -0.015982427 0.010206453 0.018922037
000020 12 93 fd bb 90 0f ce 3b 0b 04 78 ba a8 ec cc bc
       -0.0077384794 0.0062884763 -0.00094610517 -0.02501519
000030 71 12 b0 3c 8e f5 0b bc 30 ba 0f 3c f8 4c a7 3b
       0.021493169 -0.0085424315 0.008772418 0.005105611
000040 1b 50 03 ba d0 e4 8f bb 93 4a af bb 6a fe 8f bc
       -0.000500919 -0.0043912902 -0.005349466 -0.017577369
000050 e6 3d ca bb 59 4b 10 3b 71 90 2b 3b c6 6d 0f bc
       -0.0061719297 0.0022017567 0.0026178623 -0.008754199
000060 21 dd b0 bc f6 2f 66 bb 7f e7 eb bb c4 eb d5 bb
       -0.021589817 -0.0035123802 -0.0071992273 -0.0065283496
000070 75 3d 91 bc ef 02 07 bc 1b ef c6 3c cc 46 42 bb
       -0.0177295 -0.0082404455 0.024283936 -0.002964425
000080 75 e5 08 3c 9c ec 9f ba b0 53 70 b8 03 a6 12 bb
       0.008355488 -0.0012201252 -5.72984e-05 -0.0022376783
000090 2b 31 09 bc f4 0b 76 bc 07 b7 8c bc e3 9e 2b 3c
       -0.008373539 -0.015017498 -0.017177118 0.010474893
0000a0 a4 85 08 bc c5 54 05 3c cc 90 53 bb b8 98 22 bb
       -0.008332644 0.008137886 -0.003228235 -0.0024810266
0000b0 2a eb 8f ba e7 d9 78 bc 80 bf 8d 3a ba c1 0c 3c
       -0.0010980119 -0.015188671 0.0010814518 0.00859111
0000c0 b5 5a af b9 60 4e e0 bb be 93 25 3b 0f e6 a9 bc
       -0.00033446183 -0.0068452805 0.0025265063 -0.020739583
0000d0 73 e4 8a bb 36 b8 03 bc 23 8b 29 3c 87 1d 95 3c
       -0.004238659 -0.008039525 0.010348114 0.018202556
0000e0 9d d8 44 bb 64 1e cf bb bb f5 c6 3a 72 d9 b4 bb
       -0.0030036338 -0.0063207615 0.0015179435 -0.0055190856
0000f0 64 0d 84 3b ba 15 99 3c 33 d5 c6 bb 11 38 34 3b
       0.0040299166 0.018687118 -0.006067896 0.0027499238
000100 a2 d9 03 3c f4 44 0e 3b 07 39 11 3c 0c 5c 17 3c
       0.008047493 0.002170858 0.008863694 0.009238254
000110 4b 4c 6d bc e1 64 b4 3b e4 da bd bb cf f8 25 bb
       -0.014483522 0.0055051898 -0.005793916 -0.0025325303
000120 b7 cc 06 bc dc 16 04 3c 6e af b6 bb ca e1 a3 bb
       -0.008227519 0.008062091 -0.005575112 -0.0050012814
000130 2f 6d 1e bc 3a 11 ad 3c 93 d9 78 bb 81 fd 8c 3b
       -0.009669586 0.021126378 -0.0037971481 0.004302681
000140 b8 6d ef bb fe d1 99 bb dd da 1d bb 26 66 9c bb
       -0.0073067807 -0.0046942225 -0.0024086752 -0.004772919
000150 d6 6e 0b 3a 08 90 9b bb 19 bb 8a bb 02 40 e3 3a
       0.0005318945 -0.0047473945 -0.0042337296 0.0017337801
000160 7d 8b c4 b8 be 8c 1c 3c 5d df 61 3c 1e d7 9e 39
       -9.37199e-05 0.00955504 0.013786164 0.00030296383
000170 8c 76 13 3c b4 9f 2b 3c 8d 94 85 bc 4b 01 14 bc
       0.009000432 0.010475088 -0.016306186 -0.009033511

running_mean f4 [96]
000000 fc ac 34 be 75 a3 2d be f0 c7 dd bd 2a 3f 05 3d
       -0.17644113 -0.16956885 -0.10829151 0.03253094
000010 16 c2 7f 3e 79 64 a7 3e 85 3a 1c bd da 62 8b bd
       0.24976382 0.32693842 -0.038141746 -0.06805964
000020 1c 7a 83 bd c6 d6 06 3c eb 25 5b bd b4 e4 62 3e
       -0.06419775 0.008229917 -0.05350296 0.22157556
000030 8a 44 ab 3a c0 aa 23 3e cc 50 3c be 14 10 4a be
       0.0013066691 0.15983105 -0.18390197 -0.19732696
000040 c2 c4 86 3d 50 1c 95 3d 74 7b 8a bd 23 25 02 3e
       0.06580497 0.07280791 -0.06761828 0.12709479
000050 d1 de 9f bc d6 17 02 bd f5 cb b6 3d fe cc 8f 3e
       -0.019515427 -0.031761013 0.089256205 0.28086084
000060 28 28 89 3e 5b fb 15 3d 45 58 7c 3d 88 a6 3e 3e
       0.2678845 0.036616664 0.061607618 0.18618214
000070 ca a4 45 3e d6 e0 b1 bd 86 35 bf bd 12 66 1d 3b
       0.19301143 -0.08685462 -0.09336381 0.0024017137
000080 24 1c 47 bd fe 2e 0f 3e 7c 2a fa 3c f4 e1 ba bc
       -0.04861082 0.1398277 0.030537836 -0.022812821
000090 08 c8 a4 bb 07 5f 43 be a3 fe 35 3e 43 32 2c be
       -0.0050287284 -0.19079219 0.17772917 -0.16816048
0000a0 0a 3b 7e 3d 83 98 57 be 99 e1 28 be a9 ed 65 bb
       0.062068023 -0.21054272 -0.16492309 -0.0035084283
0000b0 73 d2 ad bd 77 9c ba 3e 50 9f eb bb a1 7e 55 be
       -0.08487406 0.36447498 -0.0071906224 -0.20849086
0000c0 6d 03 30 be 2a f6 0b be 73 47 bb 3c f0 5d 96 3e
       -0.17188807 -0.13668123 0.022861218 0.29368544
0000d0 12 79 c0 bd 38 eb 6e bb f6 c5 65 be 17 d8 22 be
       -0.09398092 -0.003645612 -0.22438797 -0.15902744
0000e0 00 3b 15 3e 9f 7e 1c 3e 0e 29 dd 3d 72 97 c7 bd
       0.14573288 0.15282677 0.10798846 -0.09745683
0000f0 7d e1 59 bd 30 6d f8 bd 94 63 1d 3e 80 61 c7 bd
       -0.053193558 -0.12130201 0.15370017 -0.097353935
000100 00 ec 9e 3c 8b 38 84 bd bf 2b 28 be 49 9a af bd
       0.019399643 -0.06456097 -0.16422938 -0.085743494
000110 19 0e b7 3d e4 3f e9 bc 05 53 ad 3d 6e 07 72 3b
       0.08938236 -0.028472848 0.084631 0.0036930698
000120 ca cc 40 3d 25 dd 38 3e f6 24 33 be 56 e1 81 be
       0.047070302 0.1805311 -0.17494568 -0.2536723
000130 aa d5 8a 3d 72 b0 58 be 86 ee 0a 3d be d3 82 be
       0.067790344 -0.21161059 0.03391888 -0.2555217
000140 d1 2f c3 3c 51 5d c0 3d a2 9b c9 bc 0a 7c f6 bc
       0.023826512 0.09392799 -0.024610344 -0.030088443
000150 d7 bd 8b bd d8 f1 f5 bc a8 f7 0b be 5f cc 90 bd
       -0.068233185 -0.030022547 -0.13668692 -0.07070231
000160 4c 22 15 3e 74 03 cc 3e d5 23 40 3b 6d 60 a2 bc
       0.14563864 0.39846385 0.0029318233 -0.01982137
000170 6b a6 82 3c 2d fa 3b 3d 65 a5 97 3d 2a 9d d2 3c
       0.015948495 0.045892883 0.074045934 0.025709707

running_var f4 [96]
000000 62 32 3f 3d 8f 68 01 3d a9 20 53 3c f1 d1 96 3c
       0.04667891 0.031593855 0.012886205 0.018410655
000010 d1 64 a9 3d 00 ed 3b 3d 8d 73 92 3c ac 79 17 3d
       0.08271182 0.045880318 0.017877365 0.03698127
000020 46 1f ff 3c 73 98 f8 3c 10 6a 4c 3d e7 66 12 3d
       0.031142842 0.030346131 0.049905837 0.035742667
000030 d7 90 ef 3c 19 ad 15 3d 72 fd dd 3c e0 cb 3b 3d
       0.02924387 0.036542032 0.027098391 0.045848727
000040 b0 68 1f 3d 8c a9 5b 3d 94 88 2a 3d f8 1d c1 3c
       0.038918197 0.05362849 0.041634157 0.02357386
000050 d0 6d d1 3c ab 2e cc 3c cc ff 16 3d 47 ee 2d 3d
       0.025565058 0.024924597 0.03686504 0.042463567
000060 d6 2e 83 3d e5 13 50 3c 4b 51 e2 3c 02 69 fd 3c
       0.064054176 0.012700056 0.027626654 0.03093386
000070 52 94 07 3d dc 3b ee 3c af 30 db 3c 91 f4 ce 3c
       0.033100434 0.029081278 0.026756613 0.025263103
000080 ab 9f 0e 3d b0 cf bf 3c aa c9 90 3c f7 4f e8 3c
       0.03482024 0.023414463 0.017674286 0.028358443
000090 87 6c f9 3b 9c 8c 15 3d 30 1e bf 3c 8c a9 a1 3d
       0.0076118144 0.03651105 0.023329824 0.078936666
0000a0 4d 60 24 3c a4 db 2d 3d 77 bf b4 3c 2d 7c 8c 3c
       0.0100327255 0.042445794 0.022063954 0.017149055
0000b0 e0 4c 16 3d 98 89 6a 3d ef 2a c4 3c 85 03 42 3d
       0.036694407 0.057260126 0.023946254 0.047366638
0000c0 c4 47 39 3d f6 55 49 3d 71 12 f7 3c 13 32 dc 3c
       0.045234457 0.049154244 0.03016016 0.026879346
0000d0 ad e7 29 3c e5 37 3a 3c 8d d4 f3 3c 4b ec c8 3c
       0.010370177 0.011365865 0.029764438 0.024526736
0000e0 41 2f cc 3c 9b 55 ac 3c 89 15 04 3d ce fa aa 3c
       0.024924876 0.021036914 0.0322471 0.020871546
0000f0 ae 6d ee 3c 96 c9 da 3c 78 9f ce 3c d2 61 af 3c
       0.029105034 0.026707452 0.025222525 0.021408949
000100 2c ee cf 3c 2d ca 6a 3c 55 11 29 3d 99 94 cf 3c
       0.025382124 0.014330429 0.041276295 0.025339412
000110 d3 da 4f 3c 61 7a 26 3c df 30 37 3c b4 f3 46 3c
       0.012686449 0.010161013 0.011181085 0.012143064
000120 bc 57 f9 3c b1 16 24 3d c1 d9 0c 3d 52 e2 ae 3c
       0.030437343 0.040060703 0.034387354 0.021348152
000130 0f d4 be 3c 95 9f 40 3d 4a 07 2a 3c b8 b2 01 3d
       0.023294477 0.04702719 0.010377714 0.03166458
000140 79 fa cf 3c 07 c0 ed 3c a1 52 94 3d d6 fb 3c 3c
       0.02538799 0.02902223 0.07242323 0.011534652
000150 f4 a9 0d 3d 54 e0 bc 3c 08 e1 47 3c 4a 2b 96 3c
       0.034585908 0.023056187 0.012199648 0.018331189
000160 40 00 fe 3c 22 a0 92 3d f6 61 dd 3c 23 f1 0d 3d
       0.031005979 0.07159449 0.02702425 0.034653794
000170 7e 7f 29 3c 59 ab b5 3c 98 97 0d 3d de c4 a2 3c
       0.010345338 0.022176431 0.0345684 0.019869264

weight f4 [48, 96, 3, 3]
000000 77 57 30 bb 69 61 1a 3c 16 2d 1f 3b 93 d5 2c bc
       -0.0026907602 0.009422638 0.0024288348 -0.010548967
000010 c9 e1 e6 3b ee a6 26 bc e2 d8 dc bb 37 c9 ef bb
       0.0070459587 -0.010171635 -0.0067397216 -0.007317688
000020 09 5b e3 bb 34 29 ac bb 21 f6 62 bb d1 e0 ee 39
       -0.0069383425 -0.005253935 -0.0034631568 0.000455624
000030 da d0 c8 bb 70 a5 9b 3b 51 e5 da 3b ad 4e 58 bc
       -0.0061284127 0.0047499463 0.0066801687 -0.0132023515
000040 1d 34 07 ba 9f 10 9c ba 33 92 df bb 8b 65 9f 3a
       -0.0005157607 -0.0011906809 -0.006822848 0.0012161
000050 bd cc 0b 3c 4c 48 26 bb c1 9a 69 bb ce 7a 9b bb
       0.0085327 -0.0025372682 -0.003564522 -0.004744864
000060 3a b2 10 bb 9e 93 eb 3b fe 0e b8 3a 3a 56 ed bb
       -0.0022078888 0.007189228 0.0014042554 -0.007242945
000070 f8 59 19 3b dc 3a 34 bc 9f ed f6 38 4b 0f f9 bb
       0.0023399573 -0.011000361 0.000117744545 -0.0076007
000080 13 6f 92 ba 72 e8 5a bb 5c 4a 3c 3c d6 46 bc bb
       -0.0011172019 -0.0033402708 0.011492338 -0.005745749
000090 7c 08 14 bc bc 46 35 ba 7d cf cd 3b 68 0e 99 bc
       -0.009035226 -0.00069151423 0.006280838 -0.018683627
0000a0 48 e7 08 bb 75 cf ad 3c fd fc 96 3c 6f 5c 5d 3b
       -0.0020889807 0.021217087 0.018431181 0.0033777019
0000b0 56 ae de 3b fb f5 ad bc f5 33 21 3c 7b 3c f1 bb
       0.006795685 -0.021235457 0.009839048 -0.007361946
0000c0 95 bb 9c 3c bc 0d 82 3c 52 37 0c 3b 2f c5 86 bc
       0.019132415 0.01587569 0.0021395278 -0.016451446
0000d0 81 4d 97 3c 46 1f d5 39 96 3d df 3a 3b 19 cd bb
       0.018469574 0.00040649826 0.0017031904 -0.006259111
0000e0 6d e1 64 bb 5b fd c0 3a b8 fe 8e ba 6b bf 8b ba
       -0.0034924403 0.0014723943 -0.0010909652 -0.0010661905
0000f0 1e 81 f2 bb 72 3d 21 3b 31 f0 d8 3b b0 2d 4a bc
       -0.007400646 0.0024603275 0.00662043 -0.012339994
000100 e9 5e 2e bc 16 cd 81 bc fc 61 0a bc 72 11 78 3b
       -0.0106427455 -0.015844863 -0.008446213 0.0037852195
000110 79 15 47 bb 45 7a e1 ba 04 35 ba bb b3 f5 e4 bb
       -0.003037779 -0.0017202577 -0.0056825895 -0.0069872974
000120 bb df 0f bc a6 dd 73 b9 7b 32 a3 bb 0a 12 ea 3b
       -0.008781369 -0.00023256856 -0.004980383 0.0071432637
000130 8c 11 e5 ba 5f 11 19 bc 1f cf 9f 3b 5d 60 ff 3b
       -0.0017476543 -0.0093425205 0.0048769857 0.00779347
000140 9b 46 28 bc c8 5e 90 ba ff 96 7f 3c 04 08 58 3c
       -0.01027074 -0.0011014575 0.015599965 0.013185505
000150 72 e2 88 b8 6a cd 7f 3b 52 5c 55 3c 63 8e ef 39
       -6.527164e-05 0.0039032348 0.013022499 0.0004569172
000160 07 50 66 3c e5 bd 04 3c 16 d4 80 3b bd fb 19 bc
       0.014057166 0.008101915 0.0039315326 -0.009398398
000170 8d ff 8a ba a5 46 71 bb b3 ef 34 bc 3b 2a c6 bb
       -0.0010604725 -0.003681579 -0.011043477 -0.0060475147
000180 ab a3 3c 3c e2 81 1b 3c 36 ad 0a bc 71 90 69 bc
       0.011513631 0.009491416 -0.008464148 -0.014255629
000190 62 25 f0 ba 2e bd 0b 3c a0 f3 0d bb a5 5d 8f 3a
       -0.0018321688 0.008528991 -0.0021660104 0.0010937942
0001a0 b2 1f 6d 3c d1 88 a6 3b 9c 8c 88 bc 2f 4f 67 3c
       0.014472889 0.0050822278 -0.01666861 0.014118
0001b0 a4 c6 b3 3a cc 39 53 3b 6a c5 85 ba 32 66 01 bc
       0.0013715816 0.0032230495 -0.0010205929 -0.0078979
0001c0 53 2d a1 bc 61 6d a1 3b 3a 41 f6 bb ed 23 42 bb
       -0.019674933 0.004926369 -0.0075151 -0.0029623464
0001d0 98 a1 30 3c 67 2c 69 bc 2b aa 7c 3c c6 59 f3 ba
       0.010780714 -0.014231778 0.015421431 -0.0018566183
0001e0 cf 35 a7 bc ef 3f 00 bb d8 ac 53 bc 58 a8 4a 3b
       -0.0204114 -0.0019569357 -0.012919627 0.0030923095
0001f0 e1 03 43 3b d7 56 45 bc c4 dc 6c bc c4 1a a2 3b
       0.002975695 -0.01204463 -0.0144569315 0.0049470384
000200 88 38 07 bc b5 1e 2c bb a2 bf 01 bc 76 8c e1 bb
       -0.008253224 -0.002626342 -0.007919224 -0.0068831993
000210 b1 86 34 bc 28 88 b7 3b db 2f fd ba e4 00 64 3c
       -0.011018441 0.005600948 -0.001931663 0.013916228
000220 00 01 11 bc 87 dc 2e bc f5 a9 4e 3b 42 fc 4b 3b
       -0.008850336 -0.010672695 0.0031534408 0.00311257
000230 5a 19 af 3a 76 6f 5f 3b 5b 77 55 bc 35 8d fa bb
       0.0013358996 0.0034093536 -0.013028945 -0.0076462277
000240 2f 0a 10 3c 6f e3 38 3a 4a 9d 41 bb a9 7e d9 3b
       0.00879149 0.0007052933 -0.0029543214 0.0066374135
000250 d0 c0 22 bb 70 52 0b 3b 46 b2 df ba e4 0c 26 3c
       -0.0024834163 0.0021258853 -0.001706668 0.010134909
000260 ba fb 58 3a 9d 79 a1 3b f5 15 a1 3c 21 46 94 bc
       0.0008277256 0.0049278275 0.01966379 -0.018099846
000270 b7 b8 08 3b 44 7e a9 3c 0f 8d 3f 3b 18 b9 db 3b
       0.0020862052 0.020690091 0.0029228365 0.0067054145
000280 8a 0b 41 3c 54 55 3e bc 8b 15 1b bc 92 80 b1 ba
       0.011782536 -0.0116170235 -0.009465585 -0.0013542345
000290 7a 5f d3 3b 05 56 1c bc 02 15 3a 3b 38 ef 4b bc
       0.0064505907 -0.009541993 0.002839387 -0.012447171
0002a0 77 cd 1e bc 99 62 aa bb c7 1f 9b 3b 64 2d 62 3c
       -0.009692541 -0.005199742 0.0047340128 0.013804767
0002b0 24 4d 07 bc ef 69 a4 bb f2 d7 da 3a d6 4c c4 bb
       -0.008258138 -0.005017511 0.0016696437 -0.005990605
0002c0 28 67 c5 3b 75 07 1c 3b c3 0e 04 3c f0 3f 97 bb
       0.00602426 0.0023808156 0.00806016 -0.0046157762
0002d0 2a 54 3c bb b3 9d 3f bc ba ca e3 bb 54 a6 56 bb
       -0.002873669 -0.011695313 -0.006951657 -0.0032752948
0002e0 5c f0 94 3b e5 6d ac bb 65 a0 2a 3c a4 5d ee ba
       0.0045452546 -0.005262124 0.010414218 -0.0018185866
0002f0 e4 eb dd bb 51 c8 d7 bb 91 f2 10 bc 6a f2 23 bc
       -0.006772505 -0.006585159 -0.008846895 -0.0100065265
000300 cb 86 19 3a 4a 7a 4b 3b ba 0f 39 39 de 44 df 3b
       0.00058565725 0.0031048232 0.00017648833 0.0068136295
000310 34 11 d6 ba e8 5a d0 bb ab 4e 8e bc 37 35 71 bc
       -0.0016332031 -0.006358493 -0.017371496 -0.01472216
000320 3c c1 76 bc 16 b3 9d bc bd 7d 86 bc 18 79 92 bc
       -0.015060719 -0.019250434 -0.016417379 -0.017880008
000330 85 80 92 bc 14 9c 64 bc c5 72 9d bc 92 dd 01 bc
       -0.017883549 -0.013953228 -0.019219765 -0.007926362
000340 67 02 93 3a da d3 41 bb b2 75 37 bc 11 76 6c 3b
       0.0011215926 -0.0029575736 -0.011197494 0.0036081115
000350 59 90 3d 3c cf 32 9e 3b 23 cb a1 3a 58 fe e7 ba
       0.01157006 0.004827834 0.0012343865 -0.0017699702
000360 01 82 6d bb 60 26 8a 3a e3 2f 87 bc bf 4d 7b 3c
       -0.0036240818 0.0010540001 -0.016502326 0.01533836
000370 be dd 71 bc ab f8 02 3c 1a e0 ed 3b 31 40 87 bc
       -0.01476234 0.007993857 0.007259381 -0.016510101
000380 de 29 ca ba 90 c9 15 bc f8 08 98 bb a5 db 7f bc
       -0.0015423854 -0.0091422945 -0.004639741 -0.015616332
000390 f7 c2 87 bb 84 78 e8 bb 4b 3e 45 bc 08 19 32 3c
       -0.0041431147 -0.0070944447 -0.012038778 0.010870226
0003a0 9c 14 14 3c 52 e1 8d 3b 42 cd ea bb c3 70 cb 3a
       0.009038117 0.004329839 -0.007165582 0.0015521277
0003b0 84 b2 4a bc ad a6 5f bb ce e1 ec bb 70 4a f3 ba
       -0.012371663 -0.0034126446 -0.0072290665 -0.0018561613
0003c0 63 8e b7 bb e9 48 b6 bb 5a c5 6d bb 55 1b 05 bc
       -0.0056016906 -0.005562891 -0.003628096 -0.008124192
0003d0 97 96 62 39 8c 7f 8f 3c eb 0f d9 bb ca c4 79 bc
       0.00021609139 0.017516874 -0.006624212 -0.015244672
0003e0 3f 07 84 3c 81 10 48 bc 22 bb 8a 3c 31 52 65 3b
       0.016116736 -0.012210966 0.016934935 0.0034991617
0003f0 ce 2e c4 39 67 2b 92 3b 71 41 91 bc b2 67 c7 3b
       0.00037418905 0.0044607404 -0.0177314 0.0060853595
