weights/CapeTown.model.weights.pt (torch, 218905 bytes, 42 tensors)

weight f4 [16, 3, 1, 1]
00000000: f94e 86be 5fe4 da3d cad8 ed3d 3f15 ae3e
00000010: 05f4 3e3e 1472 b13e 8443 1ebe 3b0d fdbd
00000020: 85b9 40be 4700 0b3f e498 aabd 84be 24be
00000030: 0903 bf3d da08 823e df60 f93a 9680 5c3e
00000040: b4d0 ecbe 3545 96be 1e29 04bf a429 7b3d
00000050: 626e ce3e a3ed f73e 9f4b f23e d401 603e
00000060: c9fc f63e 8646 0c3f f0c1 12bf 179a 0d3f
00000070: 7466 0c3e c2f8 a8be 4c0e 8f3e 63e8 0a3d
00000080: e385 76be 26c7 243e 36a8 7e3e ebc1 ecbe
00000090: 5564 103f 759c 043d e0b9 b93d 8904 46be
000000a0: 1d2c d2bd a831 363e ffb7 b33e 1297 76be
000000b0: d058 9cbe e4f9 793e 3e3d 26be febe c53d
-0.26232126 0.106880896 0.11613615 0.34000584 0.18647774 0.34657347 -0.15455443 -0.12356039
-0.1882077 0.542973 -0.08329943 -0.16088301 0.09326751 0.25397378 0.0019026062 0.21533427
-0.46252978 -0.29349676 -0.5162524 0.06131901 0.4031859 0.4842349 0.4732332 0.21875697
0.48239735 0.5479511 -0.57327175 0.5531325 0.13710958 -0.33002287 0.27940595 0.033913027
-0.24074511 0.16091594 0.24868855 -0.46241698 0.56403095 0.03237577 0.09068656 -0.19337668
-0.1026232 0.1779238 0.35101315 -0.24081066 -0.3053651 0.24411732 -0.162343 0.096555695

bias f4 [16]
00000000: 4dbe cf3d c838 51be ae0d 923e df20 bf3e
00000010: 5307 4c3e a23a b0be 7b4d 353e 8f65 01bf
00000020: 4e21 e33d ce0a 373e 6c55 2bbd 8315 3dbe
00000030: 6d86 ad3e adef f6be 72ee 983e c352 5c3e
0.10143719 -0.20431817 0.28526062 0.37329766 0.19924669 -0.34419733 0.17705338 -0.5054559
0.11090337 0.17875215 -0.04182951 -0.18465237 0.3389162 -0.48229733 0.2986942 0.21515946

weight f4 [16]
00000000: 9f6d 7f3f fc71 7f3f ee67 7f3f e830 7f3f
00000010: 5f90 7f3f 5d3b 7f3f cd33 803f a803 7f3f
00000020: 7c6b 7f3f e3ce 7f3f 64f6 7e3f fc72 7f3f
00000030: c071 7f3f ca09 803f 0ac5 7f3f 5ce2 7e3f
0.99776644 0.997833 0.9976796 0.99684 0.9982967 0.99699956 1.0015808 0.99614954
0.99773383 0.9992506 0.9959471 0.9978483 0.99782944 1.0002987 0.9991003 0.99564147

bias f4 [16]
00000000: 0fb8 08ba 66c7 8439 2db7 cf3a 6240 5539
00000010: 6edc 473a f6a1 e1ba 2f0d 413b 1b7f 49ba
00000020: a2b5 ac3a fca9 d33a 0569 f0ba b3f9 c23a
00000030: b88c 83b9 cc10 10b8 d4f6 0a3b 87c6 a3ba
-0.0005215415 0.00025325565 0.0015847437 0.00020337247 0.0007624094 -0.0017214406 0.002945732 -0.00076864817
0.0013176689 0.0016148682 -0.0018341845 0.0014875442 -0.0002509111 -3.434792e-05 0.002120425 -0.0012495079

running_mean f4 [16]
00000000: 71b8 bdc0 3073 dd42 91ad 6bc2 4edb 2142
00000010: c25c 3742 8a5c 89c2 9d41 1fc1 162e 1743
00000020: f700 8242 076c 4742 0fec 3541 c853 31c0
00000030: 83f2 b142 5793 8cc1 4647 b6c1 5fb1 b341
-5.928765 110.724976 -58.9195 40.464165 45.840584 -68.68074 -9.953519 151.18002
65.001884 49.855495 11.3701315 -2.7707386 88.973656 -17.571943 -22.784801 22.461607

running_var f4 [16]
00000000: 365f 7641 75b9 f744 ad1e 0d44 829d 8a43
00000010: 88bf a143 fd82 4244 8d88 7f42 4c4f 6345
00000020: 39bc 2144 9b52 ca43 6ddc 0042 6b09 bc41
00000030: 8457 9d44 c1cb 3f42 7b32 f942 eb43 ab42
15.398245 1981.7955 564.4793 277.23053 323.49634 778.0467 63.88335 3636.956
646.941 404.64536 32.21526 23.504599 1258.7349 47.94898 124.598595 85.63265

weight f4 [16, 3, 3, 3]
00000000: 966d 2abe ce9f 8dbd 588d 46bd f050 32bd
00000010: db28 443e 9b26 a4bd b991 353e 9d0b 203e
00000020: 68c4 e23c b789 3fbe 612e 983d c0a3 c8bd
00000030: 25b2 323e 15f6 813d 2112 c3bd 6fdf 403d
00000040: 249e b6bc 2e99 5c3c 9498 0a3e 929e e3bd
00000050: a470 90bd 84a8 743d 3303 c2bd 7ea5 073e
00000060: 9118 da3d 28b9 bfbd 8594 d03c 2a00 0d3e
00000070: 1c49 073e b6fa 3cbe 509e febd 30b6 0cbe
00000080: 03a6 003e 1583 7b3d bb69 a73c 84ab 08be
00000090: 2eab ac3d c516 fa3c f201 1ebe f62d 523d
000000a0: 315b 8d3d 9272 363e a279 2abe 451b eb3d
000000b0: 0977 1f3e b990 07be 5b12 acbc 2713 1a3e
000000c0: 74e9 25be fa3f 7bbd 88c2 273e 2c09 0cbd
000000d0: 1576 2fbd 0d8e c2bd 4ce0 133d 798b df3d
000000e0: a6c8 2bbc 31f6 59bb 9a35 f83d ff16 053d
000000f0: 154c 9f3d 279a 14be 8b29 35be 5c25 07be
00000100: c0b8 28be b36e 2ebe e171 dd3d 60d2 c73d
00000110: af1a 203e 9b84 c23b d5aa d73d e747 27be
00000120: 3944 903d a560 433d fbe4 053e 28ff f8bd
00000130: 4382 f5bc 1dd3 1bbe 9d28 0d3d 35c1 313d
00000140: de37 93bd 4387 d83d 0994 0dbe b318 a93d
00000150: e7a9 b2bc bf01 103e 6e0f 423c 53c1 023e
00000160: 8245 56bd 4f41 9cbd 38e3 9f3d cfb5 98bd
00000170: 0541 6abd 0cc9 3dbe 993f 9dbd 4f50 2d3d
00000180: a71e 80bd a9eb 4cbd 3b81 103e e6a9 d63d
00000190: 73f0 b63d 4c72 0c3e 4061 a4bd 579c 9c3d
000001a0: e43e 53bd 190d a13c 3c82 28be b170 3f3e
000001b0: 1c1a 223e 8ae6 c33d 6222 7d3d d6b1 eebd
000001c0: d62c e23a 3969 e53d f93e 8c3b c7ee b73c
000001d0: 1973 f63c 2e48 81bc 249f 64ba ad69 bc3d
000001e0: e43a c6bd cf53 2c3e 507a 29be aa36 2d3d
000001f0: 75cb 3b3e 2d6e 673d d5db 85bb f5a1 f93d
00000200: 369d 663b 9b14 cc3d 0df1 0dbe 74a4 d8bd
00000210: a6a1 f43b 1578 233e f939 c73d dde2 23be
00000220: b6ee dfbd cf08 f63d 0564 283e fe8b 3ebe
00000230: 7636 89bd e4e5 f5bd 4320 2dbe 267a 2b3e
00000240: ad43 ab3d 9ef8 743c ba75 df3d 0fbe 34bd
00000250: 38c1 123e 8cfb 15bd 962f 17bd 923b 0cbd
00000260: 5f8e 0bbe c754 36be 1103 5bbd a5b6 093c
00000270: 6313 023e 72d8 21be fcad b03d ce49 1b3b
00000280: f82f d83d 98fd 8fbd d0f8 3b3e a385 a43d
00000290: 4be2 fc3d 263f b1bd 93ca 323d 3a26 02be
000002a0: 9ef1 383d 6cfe 0c3e 0666 dcbd 345e e2bd
000002b0: c09c ec3c 7f82 15be 1429 90bd 2f1e 31bc
000002c0: b389 d93d 1c5e ffbd 5597 1f3e ba80 81bd
000002d0: 6c93 e0bd 251e 09be 7b03 1fbd f572 ef3d
000002e0: 33d1 89bb be34 93bd 542c 203e 5ca9 95bd
000002f0: 9147 c8bd 57f9 3ebd 66ca 723d 5835 083e
00000300: c3c8 c0bd fed5 0abe b81e 0f3d 9c87 1bbe
00000310: 3b5c 973a db44 463c 980f 143d 6f56 d83d
00000320: 65a1 3b3e d605 eebc 661a 14be 84c2 103e
00000330: 4fe3 76bd 0a91 9ebd c42e 173e 081b 23be
00000340: 63a1 893d e504 5d3c 1364 373e be28 563d
00000350: 53ee e7bc 411f fabd 44b1 043e 37f9 20be
00000360: 759d f33c 8487 093e e279 87bb e05e 9cbd
00000370: ef05 303d 9e79 62bc 78e1 013c 7ec5 dfbd
00000380: d869 053e 0db6 023e 18d7 9038 a346 103e
00000390: b0f8 babd 1362 873d c4fa 083e e528 42be
000003a0: bb06 433d 5f11 443e b0fe 093e e1a2 bc3d
000003b0: 9237 0f3e 82ab 0f3d 5b1e edbd 3f8e ba3c
000003c0: dcfc a2bd aff8 263d af2f 06bd e4b7 073d
000003d0: b88c 2b3d b3b0 2a3e 03db 693d 46f6 a23d
000003e0: bc73 d53d 5eff 9a3d 38ed 9ebd 2ce1 03be
000003f0: a16c 333e 9567 593c dc32 883d 03fe fa3d
-0.16643366 -0.06915246 -0.04847464 -0.04353422 0.1915621 -0.08015176 0.1773137 0.1562943
0.027681544 -0.18704878 0.07430721 -0.09796858 0.17450769 0.063457645 -0.09524942 0.047088083
-0.022292204 0.013464255 0.13534766 -0.11114229 -0.070527345 0.05973102 -0.094732665 0.13246724
0.10649217 -0.093614876 0.025461445 0.13769594 0.13211483 -0.18455014 -0.124325395 -0.13741374
0.12563328 0.061404306 0.020436158 -0.13346678 0.084310874 0.030528435 -0.1543043 0.051313363
0.06902159 0.17817143 -0.16647962 0.114798106 0.15572752 -0.13238801 -0.021004846 0.15046369
-0.16202337 -0.06134031 0.16382802 -0.034188434 -0.04283722 -0.0949975 0.036102578 0.10915274
-0.01048485 -0.0033258314 0.12119599 0.032492634 0.07778183 -0.1451193 -0.17691629 -0.13197845
-0.16476727 -0.17034416 0.10812736 0.09756923 0.15635179 0.005936218 0.105306305 -0.16336022
0.070442624 0.04769959 0.1307563 -0.12158042 -0.02996934 -0.15217252 0.03446256 0.043397147
-0.0718839 0.10572674 -0.13826002 0.08256664 -0.021809531 0.14063166 0.011844499 0.1276906
-0.05231238 -0.07629644 0.078070104 -0.07456552 -0.057190914 -0.18533725 -0.07678146 0.042312916
-0.062558465 -0.05002943 0.14111798 0.10481624 0.08932581 0.13715476 -0.080263615 0.07647007
-0.05157365 0.019659566 -0.1645593 0.18695332 0.15830272 0.09565456 0.061800368 -0.11655013
0.0017255794 0.1120171 0.004279968 0.022452725 0.03008418 -0.015781488 -0.00087212236 0.091998436
-0.09679201 0.16828845 -0.16550565 0.04228846 0.18339331 0.056501556 -0.004085044 0.12189094
0.003518892 0.09964868 -0.13861485 -0.10578242 0.007465559 0.15963776 0.09727854 -0.1600451
-0.109342024 0.12013399 0.16444404 -0.1860809 -0.06699841 -0.12006739 -0.16906838 0.16745815
0.083625175 0.014951853 0.109111264 -0.044126566 0.1433152 -0.036616847 -0.036910616 -0.0342365
-0.13628529 -0.17805777 -0.05346972 0.008405362 0.12702708 -0.15805224 0.08626935 0.0023695114
0.10556024 -0.07030791 0.18356633 0.08033302 0.123478495 -0.08654623 0.04365022 -0.12709895
0.0451523 0.13768929 -0.10761647 -0.11053124 0.028883338 -0.14600562 -0.07039085 -0.010810419
0.10621967 -0.12469122 0.15585072 -0.06323381 -0.109656185 -0.13390405 -0.03882168 0.11691848
-0.0042058467 -0.07187794 0.1564191 -0.07307693 -0.09779275 -0.046624508 0.059275053 0.13301599
-0.09413292 -0.13558194 0.034941405 -0.1518845 0.0011547873 0.012101377 0.036147684 0.10563361
0.18323286 -0.029055517 -0.14463195 0.14136702 -0.060275372 -0.07742508 0.14763933 -0.1592828
0.06720235 0.0134899365 0.17909269 0.05228495 -0.028311884 -0.122129925 0.12958246 -0.15720068
0.029738167 0.13430601 -0.0041344026 -0.076352835 0.04297441 -0.013822941 0.007927291 -0.109263405
0.13028657 0.1276476 6.9065194e-05 0.14089446 -0.091294646 0.06610503 0.1337691 -0.18960913
0.04761384 0.19147252 0.13476062 0.09210754 0.13986042 0.035075672 -0.115780555 0.022772906
-0.07958385 0.040764507 -0.03276032 0.033134356 0.041882247 0.16668968 0.05709363 0.07957129
0.10422465 0.07568239 -0.0776009 -0.12878865 0.17521907 0.013269325 0.06650326 0.1225548

bias f4 [16]
00000000: 2678 0abe e144 393e b80c be3d 2cc9 483d
00000010: e639 00be fae5 293e 5979 173e 104b b13d
00000020: 2bc7 c7bd d93d 0d3e 9bc9 fc3c b5f0 82bd
00000030: 0bf5 3bbe 0899 20be 71c1 64bd e7dd 99bd
-0.13522395 0.18092681 0.0927977 0.049019977 -0.12522087 0.16591635 0.14792384 0.08656895
-0.09754785 0.13793124 0.030857852 -0.063935675 -0.18355195 -0.15683377 -0.055848543 -0.07513028

weight f4 [16]
00000000: 02f3 7e3f ae96 7f3f cf51 7f3f f907 7f3f
00000010: 76f2 7e3f 44a7 7f3f b3f2 7f3f 565d 7f3f
00000020: 5e63 7f3f ea62 7f3f 4ea0 7f3f b629 7f3f
00000030: 8b31 7f3f f370 7f3f 1b27 7f3f 9a89 7f3f
0.9958955 0.99839294 0.99734205 0.9962154 0.99588716 0.998646 0.99979705 0.99751794
0.99761 0.99760306 0.9985398 0.9967302 0.9968497 0.9978172 0.99669045 0.9981934

bias f4 [16]
00000000: e751 48b9 5c80 013b fd5d 2fbb 397b 82b9
00000010: 667d 89ba f0f3 ccba 070f 91ba 81bd 3037
00000020: 0353 3c3b 8892 183b 0040 9c3a 2890 dfba
00000030: 9c4d 0cbb be45 8bba c0f6 0a36 10b3 c4ba
-0.00019103997 0.0019760346 -0.0026758902 -0.0002488734 -0.0010489642 -0.0015636664 -0.00110671 1.053454e-05
0.0028736002 0.0023280699 0.0011920929 -0.0017056512 -0.0021408563 -0.0010625643 2.070723e-06 -0.0015006978

running_mean f4 [16]
00000000: 2e02 cb41 ff09 eb40 7723 acc1 5061 e241
00000010: 69cc dc42 4fd9 56c2 2d95 b6c1 295b 3541
00000020: bea6 c942 6d5a 2d43 6478 e2c1 343d 3e42
00000030: 6a70 28c2 8deb acc1 d7f6 e041 516d 5ec2
25.376064 7.34497 -21.517317 28.297516 110.39924 -53.712215 -22.82284 11.334756
100.82567 173.35323 -28.308784 47.55977 -42.10978 -21.615015 28.120527 -55.606754

running_var f4 [16]
00000000: af74 c543 d87f cf42 656b 3143 1f92 5543
00000010: 3c08 ec44 ea75 ff43 669d 3043 da11 ad43
00000020: 8a9b e844 e69b 9145 9e22 a643 5f80 0a44
00000030: b4a6 b843 c4b7 9a43 3e41 1d44 e828 0844
394.9116 103.749695 177.41951 213.57079 1888.2573 510.9212 176.61484 346.13947
1860.8606 4659.4873 332.27045 554.0058 369.30237 309.43567 629.0194 544.63916

weight f4 [16, 3, 5, 5]
00000000: 34da 853d 4717 ecbd 1051 8a3c cd83 d3bd
00000010: 9f49 8a3d 251a ab3c 2ee6 053c ab5f 1dbc
00000020: 7604 ecbc cb92 373a 1be2 7dbc 1957 d03d
00000030: 0511 163d bab7 d43b 3640 fc3c 9545 f73c
00000040: 5d82 7ebd 11b8 41bd b154 ce3d 2eb6 3e3d
00000050: a559 59bd ff8a b3bd 1b40 6e3d b649 dbbd
00000060: 9109 50bd a2ee 85bc 349f a4bd 3514 303d
00000070: fb88 e03d 233b d4bb d95d 95bd b6bc 353d
00000080: dd83 83bd bdb4 a1bc 9cad e4bd e57e ce3d
00000090: 6766 e13d f710 50bd 6d60 a6bd 2134 283d
000000a0: 6edf f9bc 3279 4a3d 4ef2 563d b444 83bd
000000b0: 4f64 fdbc b7b3 773c e9e5 05bd addc dc3d
000000c0: 30e1 783d c8ae 8abd 8e7d c9bd 429d c03d
000000d0: 4a6b fa3a 814f 59bd 8cda d73d 38a9 abbd
000000e0: a27b a53c 4b36 2dbd 41e5 dabd 8544 d93d
000000f0: 3449 013d e615 0bbd f574 b9bd fa9e ad3d
00000100: c930 4f3d fd4e 443c 7c23 8dbd 09d0 0c3d
00000110: 2f07 bb3c fcbe 483c e0b5 10bd bba5 c73d
00000120: 0bc0 2a3d 724b 9f3d dc8c a6bd 2dbf cfbd
00000130: 3ddb a2bd 7f15 93bd fb14 92bc 6a0b 1cbd
00000140: 9fbf 063d 78e7 ae3d ce10 9ebd 6048 9bbd
00000150: b835 99bd 9272 14bd 1f7d dfbd ce5a 193d
00000160: d712 8a3d fea9 973d 663a bebd f030 b63d
00000170: 46ee 8fbd b549 8d3b 9101 2f3d 4633 d2bc
00000180: dda9 0dbd 11b5 303d 33c0 edbc ab2e 6a3c
00000190: 8019 a1bd 70db c4bd deba 6bbd b59d 8dbd
000001a0: b600 ad3d 3a43 7abd b9c4 8ebc f0df d43d
000001b0: 0e32 873d 67bd 6c3d 78ae b93d 486c 923d
000001c0: d34c babd 60b2 cbba 001d f53c c40b 723d
000001d0: 0448 bcbd d7b3 edbd d06e e43d 7f2c 09bb
000001e0: 4d5d ea3d ab65 5bbd d9f9 69bd 9f89 48bd
000001f0: 2de1 a7bd fca1 8a3d 852a e63b 2c66 a03d
00000200: 33a6 d8bd b52b 22bd 3e81 4abd 6a5d 133c
00000210: da85 213d 9d32 453d 02fa a8bb 32b6 3f3d
00000220: 54e9 a3bd 21d0 43bd 7adc 903d ba12 683d
00000230: 4634 82bd eab0 b43d d655 02bd eeed 6bbd
00000240: 0f77 e13d f382 573d 0ec7 9e3d b31a b23d
00000250: b42e 343c 7cfe 053b 1d62 853d ebfe 84bb
00000260: 6c93 f43a 3ab7 9ebd 6462 063b baa1 2aba
00000270: 78fa e7bd 8255 adbd b662 2dbc 7d42 ebbc
00000280: 25c4 aebd 7ae2 b0bc a046 fcbc 86eb 99bd
00000290: 284e d73d 1590 3d3c 3152 ab3d 76b0 92bd
000002a0: 28d3 a8bd 1b7c 41bd 9cfb 0ebd d5b7 59bd
000002b0: 542c dcbd 370f ccbb a73c fb3c 59bc 903c
000002c0: 09d3 af3d 4df1 85bd 6be5 e73c 1e9e e63d
000002d0: f0a9 693d 433e 403d d90d c53d d209 d9bd
000002e0: 818d 933d 2a93 aabd f90a 5c3d 05fb acbb
000002f0: 989b efbc 294f 4cbd 3e0c 3f3d 13fa e33d
00000300: 26d0 2f3c dc60 d0bc 6770 d7bb 5929 b3bd
00000310: cda5 31bd 66b1 91b9 7112 46ba 23ae 773c
00000320: 1712 5bbd 2654 07bd 1306 e63d 4fa6 623d
00000330: 611f b3bd 90cc dbbd 29d2 d2bd b155 04bd
00000340: a588 48bd b65b e23d b212 b33b 6a21 393d
00000350: 97bd d7bd 03ed ddbd 66fe d6bd 9de5 d33c
00000360: b373 883b c4ab cf3d 9dc9 e43d 253e c0bd
00000370: 1ea6 4d3d eb14 83bd 3e6a 983d 8dfb cbbd
00000380: 2354 0e3d 0f9a 92bd 4e60 37bd 25ef f9bc
00000390: a0d8 5e3d 782c a23c 23ea dc3d 7bd7 183c
000003a0: 166a da3d 98a1 8bbd b9a9 10bc 57ec cb3d
000003b0: f685 ccbd 35d4 bc3d 4572 1cbd bfaf 83bc
000003c0: 8d83 6c3c 6e84 d7bd 0b54 613d 50dc 7c3c
000003d0: e07e 2d3d 752d 57bc 47e7 61bc 162c 713d
000003e0: 6a4f b4bd a97d 9fbd 2bcd dfbd 2001 91bd
000003f0: 6e1c 54bd 5f3d b9bd 8c47 3a3d 5650 a63d
0.065357596 -0.11527877 0.016884357 -0.103278734 0.06752323 0.02088649 0.008172555 -0.009605329
-0.02881072 0.000700277 -0.015495802 0.101728626 0.036637325 0.0064916285 0.030792337 0.030184546
-0.062136043 -0.04729468 0.10074747 0.04656046 -0.053064007 -0.08766746 0.058166604 -0.107074186
-0.050790373 -0.01634914 -0.08038178 0.04298802 0.10963627 -0.006476776 -0.07293291 0.044369422
-0.06421635 -0.019739503 -0.11165926 0.10082797 0.1100586 -0.05079743 -0.081238605 0.04106534
-0.030502047 0.049431987 0.052477174 -0.064095885 -0.03093162 0.015118531 -0.032689963 0.10784278
0.06076163 -0.06771618 -0.09838401 0.094049945 0.0019105461 -0.053054336 0.105397314 -0.08381885
0.020200554 -0.042288106 -0.10688258 0.10608772 0.031563953 -0.03395643 -0.09055511 0.08477588
0.050583635 0.011981723 -0.06891534 0.034378085 0.022830574 0.0122525655 -0.0353297 0.097484075
0.041687053 0.07778062 -0.081323355 -0.10143886 -0.07951973 -0.071818344 -0.01783227 -0.038096823
0.032897588 0.08540243 -0.07718049 -0.07582164 -0.07480949 -0.036242075 -0.10912537 0.037440114
0.06741875 0.0740547 -0.09288482 0.08896053 -0.07027869 0.004311765 0.042726103 -0.025659215
-0.034585822 0.04314143 -0.029022312 0.014293353 -0.07866192 -0.09612167 -0.057551257 -0.06914846
0.08447401 -0.06109927 -0.017427789 0.10394275 0.06601344 0.057797816 0.090664804 0.07149559
-0.09096684 -0.0015540831 0.029921055 0.05909325 -0.091934234 -0.11606567 0.11153948 -0.0020931063
0.11443577 -0.053563755 -0.05712304 -0.04895937 -0.08197246 0.06769177 0.0070241117 0.07831988
-0.10578575 -0.039592464 -0.04943966 0.00899444 0.03943429 0.04814397 -0.0051567564 0.046804614
-0.08003488 -0.04780591 0.070733026 0.056658484 -0.063576266 0.08822806 -0.03182014 -0.057599954
0.11009037 0.052615117 0.077528104 0.08696499 0.010997463 0.0020445874 0.06512854 -0.004058709
0.0018659658 -0.077497914 0.0020505423 -0.00065090845 -0.1132707 -0.08463575 -0.010582617 -0.028718228
-0.08533505 -0.021592367 -0.030795395 -0.07515626 0.10512954 0.011569996 0.08365286 -0.071625635
-0.082434 -0.047237497 -0.034907922 -0.05315383 -0.107506424 -0.0062273997 0.03066857 0.017667936
0.08585174 -0.06540165 0.028307637 0.11260627 0.05704683 0.046934377 0.09621782 -0.10597576
0.07204724 -0.083288506 0.0537214 -0.0052789473 -0.029248998 -0.04988018 0.046642534 0.11131682
0.010730779 -0.025436811 -0.0065746787 -0.08748121 -0.04337101 -0.00027788727 -0.00075558486 0.015117201
-0.05348405 -0.033039235 0.11231627 0.055334385 -0.087462194 -0.107323766 -0.10293991 -0.032308284
-0.04895844 0.11052649 0.005464875 0.04519788 -0.10534208 -0.10836222 -0.104977414 0.025866324
0.004164183 0.101401836 0.11171267 -0.09386853 0.05020725 -0.06400474 0.07442139 -0.09960089
0.034748208 -0.071582906 -0.044769578 -0.03050954 0.05440581 0.019796595 0.107868455 0.009328718
0.106647655 -0.06817931 -0.008829528 0.099571876 -0.099864885 0.09220163 -0.038194913 -0.016075013
0.014435661 -0.10523306 0.05501179 0.015433386 0.042357326 -0.013133396 -0.013788051 0.058879934
-0.088042095 -0.0778764 -0.109278046 -0.07080293 -0.051784925 -0.09044909 0.04547839 0.081207916

bias f4 [16]
00000000: 220f bf3d 9aa0 b3bd 2b9c 903d 0eb8 423d
00000010: 0b04 1439 00c6 adbd 9206 c63d 1379 be3d
00000020: 7e96 a93d 4ca1 843b 1eb8 a33b aa70 85bc
00000030: 23a3 69b9 df61 ca3d e818 bf3d 3ffe c7bd
0.09329058 -0.08770867 0.07061037 0.04753881 0.00014115886 -0.08485031 0.09669222 0.09300437
0.08280657 0.0040475484 0.0049963137 -0.016289074 -0.00022281385 0.09881949 0.09330922 -0.097652905

weight f4 [16]
00000000: de32 7f3f b206 7f3f bcdd 7f3f ebda 7e3f
00000010: 4113 7f3f 4b07 7f3f d1d5 7e3f 6e0f 7f3f
00000020: 0e77 7f3f f820 7f3f a2c3 7f3f ab38 7f3f
00000030: 0a03 7f3f 5c53 7f3f f0f1 7e3f 5c26 7f3f
0.9968699 0.9961959 0.99947715 0.9955279 0.99638754 0.99620503 0.9954501 0.9963292
0.9979104 0.9965968 0.99907887 0.99695843 0.9961401 0.9973657 0.9958792 0.99667907

bias f4 [16]
00000000: 0895 e43a 4b8b 1fbb c846 063b b45e 123a
00000010: d299 18b9 2cc1 c0b8 642e 85ba 3420 b2ba
00000020: b3fb 27ba 749d 99b9 8dc4 1e3b 2f4c c539
00000030: 649d 733a 51cd afba f8ed 69bb d492 84ba
0.0017439434 -0.00243445 0.0020488966 0.000558357 -0.00014553152 -9.1912545e-05 -0.001016092 -0.001358992
-0.00064080505 -0.00029299746 0.002422604 0.0003763153 0.00092931674 -0.001341263 -0.003569482 -0.0010114559

running_mean f4 [16]
00000000: e9d9 533f 9c36 d7c1 b016 a5c2 4b53 1ac1
00000010: e1c0 67c1 8a69 4240 441d a040 1346 4fc0
00000020: d4f7 8ec2 ba39 3142 340f e8c2 bd98 0dc1
00000030: 1411 5141 e2f0 81c2 9699 d8c1 c500 a842
0.8275438 -26.901665 -82.54431 -9.645335 -14.48459 3.0376916 5.0035725 -3.238652
-71.48404 44.306374 -116.02969 -8.84979 13.066669 -64.970474 -27.074993 84.0015

running_var f4 [16]
00000000: 5527 3443 ec45 0344 7582 8d44 f9de a943
00000010: 4b12 9f43 5570 d343 6df9 9643 9e46 5943
00000020: 9ed7 8844 6e87 1844 04ba f744 ff7c 6c43
00000030: 6c99 6a43 333b 6144 9ac5 1e44 0099 9144
180.15364 525.0925 1132.0768 339.74197 318.1429 422.8776 301.94864 217.27585
1094.738 610.1161 1981.813 236.48827 234.5993 900.925 635.0875 1164.7812

weight f4 [96, 48, 1, 1]
00000000: 17bc ec3d 9056 013e a6c0 cabd ebe0 ecbb
00000010: ca64 6abd 5835 2a3d 9af8 37bd 1aef 54bd
00000020: 6ede efbc 8d87 ffbb 6733 ecbd a66a 41bd
00000030: fc5b 193d 147a d43d ce40 883d b598 02bb
00000040: 602c 93bc 388a 6c3d 5e96 1f3d 536f 9c3d
00000050: fe87 0c3e 5081 dbbd b94a 03be 693e ffbd
00000060: ff34 e1ba 9ab2 c5bc 4601 d3bd d948 c1bd
00000070: b2f2 0c3e 2bb0 0c3e 4d90 d63d a336 563d
00000080: 4df1 9f3d 5436 b0bc 8851 083e e485 0fbe
00000090: e9f4 c5bc 59b1 7b3d f107 9fbd 87f5 03be
000000a0: 6db0 c3bd f651 d63c 07bf bb3d 8a2d 853d
000000b0: ab93 ef3d b90d 0ebe bcd3 933c 7b98 903d
000000c0: 74fa 263b c27a 2dbd d217 f53d d972 803d
000000d0: 4511 f0bd d578 0dbe 8872 2e3d 5e4d 75bc
000000e0: f788 f43d a539 df3d 5489 8cbd 8f5e 02be
000000f0: b024 d0bd b592 d13d ebb7 9a3d a3ad ba3d
00000100: ad6e 953d 8af0 4fbc bdae 06be 0a35 903d
00000110: ec23 113e d1bd d0bd 0871 ce3d d183 703d
00000120: d3a1 3f3d 6d5f f93c dfaa e3bd 47f1 c3bd
00000130: da10 05be 4267 fb3d ffcc 9dbc e15b cdbd
00000140: 14ef 963d 0cd9 cc3d 5974 f83d d20e 40bc
00000150: 5848 f03c ab6b bcbb a39b cd3d 1b58 41bd
00000160: e530 173d 9906 0cbe eee1 50bd d8dd 3ebd
00000170: 6348 0f3e 414b eb3c fea9 f23d 0b5c 6abd
00000180: 566c b73d bf46 88bc 2a72 9ebd cbb6 fd3d
00000190: 4926 233d a47a 0ebe de2a 07be 6dbd bcbd
000001a0: 658b f8bd 6c85 ca3c f731 cd3d 4d1f fdbc
000001b0: 8abc 8d3d 05c8 0f3e cbec fc3d 9c21 fdbd
000001c0: a0a2 dbbd 5c95 03be f0fd bd3b 5375 94bd
000001d0: abc9 a03d c43c 0bbe 1421 38bd c5e0 113c
000001e0: 4452 13be 521c 9a3d ae42 c63b 4edd 02bd
000001f0: 01f5 9dbc 31de 8ebd acc4 063e 22b2 adbb
00000200: dc7d 4e3d 123d e33d 56a1 e73d 9725 34bb
00000210: 51fa e1bd 8247 203b 4070 bc3d 060a 2dbb
00000220: 04df 0cbe 6a3b a4bd 68d1 683c 47cc d43d
00000230: d93e 32bc ca2d 143e b9bf 9b3d 3ad8 d8bd
00000240: 73af 00be 6d8b f63d a284 763d 9a19 913d
00000250: d25b cd3c ee83 fe3d 55fd e23c f49f f93d
00000260: a7cd 43bd ed20 3e3d a335 35bd 3d36 7f3d
00000270: b9b2 b33c fe8d e5bd c347 62bd bd63 73bd
00000280: a178 243a 91df cc3c cb22 91bd 3f0a ea3c
00000290: 4625 963c a506 803d 3658 de3b b4bd fe3d
000002a0: 99b1 0a3c d5dd 49bd a7f6 f0bc 11f7 f03d
000002b0: 74fb 18bd 1c0a 46bd f07e c4bd f962 1d3d
000002c0: c81b c63d 3534 fc3d 530d b1bc 8f8a a83d
000002d0: 0b0b 07be f53e 8cbd a3ce 8b3d 6663 293d
000002e0: 82f3 ccba e4d1 19bd cb25 b6bd 7cb6 e43d
000002f0: 959c 073d 027a 18bd 8ade 5b3d 76bb f8bc
00000300: df41 34bc a16e c0bc 900e b63d 1c28 c03d
00000310: 42d4 893d 2a39 94bd b76a 203d 30a1 083e
00000320: f883 943d e517 f43d 7276 12be bb41 0dbe
00000330: 5338 703d c3ab e2bd 35c3 c03b 2807 b73d
00000340: 66a1 0b3c 6172 f33b d082 8fbd d13f 3d3d
00000350: 7b04 8ebb f368 513d 5e22 15bd 2f41 43bc
00000360: a0b0 c7bd de04 603d 1b35 103e 155a 9c3d
00000370: 8500 8a3d ef90 d13d 1c03 38bd 9679 013c
00000380: 575d 663d 2b02 f0bd cd74 c6bd 8ea9 883b
00000390: 5db3 8d3d ae77 dfbd f19e 8aba 0cc0 eebc
000003a0: a219 87bd f1d4 cc3d d840 573d 32a4 f13d
000003b0: 6fbf ebbd c30d 0e3e 2bf2 e2bd 1786 ed3d
000003c0: 0354 eebd 579e 893c 7ab1 593d 6d9a c0bd
000003d0: ccfb 3cbd 0bbe ed3d 09f1 ff3d b0df 9a3c
000003e0: 14e1 0a3e 78bd 953b ab6e aa3b c846 05be
000003f0: d039 6ebd 8e34 8dbc 8e29 59bd 3c23 0b3d
0.11559313 0.12630677 -0.09900026 -0.0072289607 -0.057225026 0.04155478 -0.04491482 -0.051985838
-0.029280867 -0.0077981413 -0.11533242 -0.04722085 0.03744124 0.10374847 0.066529855 -0.0019927446
-0.017965496 0.057749003 0.03896176 0.07638421 0.13723752 -0.10718024 -0.12821473 -0.12463076
-0.0017181932 -0.024133015 -0.10302977 -0.09437723 0.13764456 0.13739078 0.10476742 0.0522982
0.07809696 -0.02151028 0.13312352 -0.14015919 -0.024164634 0.06144843 -0.077651866 -0.1288663
-0.09555135 0.026162129 0.09167295 0.065028265 0.11698087 -0.13872422 0.018045299 0.07060333
0.0025478872 -0.0423534 0.11967434 0.062719055 -0.11722044 -0.13815625 0.042589694 -0.014972059
0.119401865 0.10899667 -0.06862131 -0.12731384 -0.101632476 0.1023306 0.07554611 0.0911515
0.072965 -0.012691626 -0.13152595 0.070413664 0.1417386 -0.101924546 0.10080153 0.05871946
0.046785187 0.03044101 -0.111165754 -0.095675044 -0.1299471 0.12275554 -0.019262789 -0.1002729
0.07369819 0.10002336 0.121315666 -0.011722283 0.029331371 -0.0057501397 0.10039451 -0.047203165
0.036911864 -0.13674392 -0.050996713 -0.046598285 0.13992457 0.028722407 0.1184883 -0.057216685
0.0895621 -0.016635297 -0.07736619 0.123883806 0.039831433 -0.13913971 -0.13199946 -0.092158176
-0.121359624 0.024721824 0.10019296 -0.030898714 0.069207266 0.14041145 0.12349852 -0.12359926
-0.10724378 -0.12849945 0.005798094 -0.0724894 0.07850965 -0.13597399 -0.04495342 0.008903687
-0.1438685 0.07524933 0.0060504293 -0.031949334 -0.019281866 -0.069759734 0.13160962 -0.005300776
0.050412998 0.110956326 0.11310069 -0.0027488226 -0.11034072 0.0024456684 0.092010975 -0.002640368
-0.13756949 -0.08019145 0.014210083 0.10390525 -0.010879242 0.14470592 0.076049276 -0.10588117
-0.12566929 0.12038312 0.060185082 0.07084961 0.025068197 0.12427507 0.027708689 0.12188712
-0.047803547 0.04641812 -0.044240605 0.062307585 0.021935808 -0.112087235 -0.05524422 -0.05942129
0.00062740786 0.025008949 -0.07086714 0.028569339 0.01832832 0.06251267 0.006785418 0.12438527
0.008465194 -0.04928382 -0.029414488 0.11765874 -0.03734918 -0.048349485 -0.09594524 0.038424466
0.096732676 0.12314645 -0.021612799 0.08229553 -0.13187806 -0.068479456 0.06826522 0.04135456
-0.0015636536 -0.037553683 -0.08893927 0.11167619 0.033108313 -0.03722573 0.053679027 -0.030362826
-0.011002033 -0.023490252 0.08889496 0.0938265 0.06729938 -0.07237466 0.03916427 0.13342738
0.072517335 0.1191862 -0.14302996 -0.13794605 0.058647465 -0.11067917 0.0058826455 0.08936912
0.008522367 0.0074294065 -0.070073724 0.04620344 -0.00433403 0.051125478 -0.03640973 -0.011917396
-0.097504854 0.05469214 0.14082758 0.07634369 0.0673838 0.10232722 -0.04492484 0.0079025235
0.05624136 -0.117191635 -0.09690247 0.004170603 0.069189765 -0.10911499 -0.0010575933 -0.02914431
-0.06596686 0.10001553 0.052552074 0.11798896 -0.115111224 0.13872437 -0.11081346 0.11597841
-0.11637118 0.016799135 0.05314777 -0.094044544 -0.04613857 0.116085134 0.12497146 0.01890549
0.13562423 0.0045697056 0.005201181 -0.13015282 -0.058160603 -0.017236974 -0.053018145 0.03396915

bias f4 [96]
00000000: a07e ac3d 9fdf 03be cda6 de3d 2ee5 a8bd
00000010: c075 d73d bae9 d13d 498d 043e 1740 f33d
00000020: c29c 713d 685e 8d3d 6c4c 673d de11 e6bd
00000030: 4e39 e1bd e9d4 c23d a2e3 1fbb 12c2 4abd
00000040: 5014 203c 759e 1ebd ecd3 91bc ae6b 72bd
00000050: 9c0b e43d 549e d43d 5011 b4b6 d4e2 cf3c
00000060: 7fd7 5cbd 9034 f3b7 ef30 b0bd 1f23 b13d
00000070: 8371 febd bb77 f0bd 4765 a63d 17a4 02bd
00000080: bc1f 8a3d abf7 02be c6c2 703d 00e3 d13d
00000090: 26b6 673d e370 573d c463 b5bc cd59 e8bd
000000a0: 9fa1 543c 89f3 ffbd 1bb0 d1bd 4c01 c13d
000000b0: 19b8 783d b931 d8bd a808 bcbd b96d cfbd
000000c0: ec92 de3d 64a9 dd3a 84f4 903d bb6c fa3d
000000d0: 9b62 ca3c 1d8b 0dbe 1395 21bd 6d2d 89b8
000000e0: ed06 ba3d e572 c6bc 93b0 b53d 2099 8ebd
000000f0: f0a3 88bd c8f4 04be 98c2 3a3d 2015 4b39
00000100: eb06 a0bd 01d5 8f3d 02e1 f4bd 828f 3a3d
00000110: db1b a23d 85b3 e3bd 9669 f0bd ff55 5e3b
00000120: 0846 9b3b 2fe4 88bd 81c5 69bd eee1 97bd
00000130: 44c8 9e3d 64ba 8cbd d156 c13c cf4e 01be
00000140: d2fc 4bbd a48c e8bc 8389 1dbd 5ec3 15bd
00000150: b538 d2bd 840d 80bd 5181 0cbe 1451 d43d
00000160: f80a 8ebc d94e fdbd e101 fbbd e0fc 313c
00000170: 5920 7bbd 5680 01be 4dec 8ebd 0f97 3bbc
0.08422589 -0.12878273 0.108716585 -0.082468376 0.10520506 0.10249658 0.12944521 0.118774585
0.058987387 0.06902772 0.056469366 -0.11233877 -0.10997258 0.09513266 -0.0024397154 -0.049501486
0.009770468 -0.038725335 -0.017801248 -0.059184723 0.11135027 0.10381761 -5.3664335e-06 0.025376715
-0.05391645 -2.8992334e-05 -0.08603083 0.08649277 -0.124239944 -0.11741587 0.08124786 -0.03189477
0.06744334 -0.1278979 0.0587795 0.10248375 0.056570195 0.05259789 -0.022142299 -0.11345253
0.012977987 -0.124976225 -0.102386676 0.094240755 0.060722444 -0.10556359 -0.091813385 -0.1012835
0.10867867 0.0016911444 0.07077888 0.1222777 0.024705222 -0.13822599 -0.03944881 -6.54113e-05
0.09083352 -0.024224708 0.088715695 -0.069628 -0.066718936 -0.12984002 0.045595735 0.00019367458
-0.078138195 0.07023049 -0.11956979 0.045547016 0.07915469 -0.11118225 -0.11738889 0.003392577
0.004738573 -0.066841476 -0.05707312 -0.074161395 0.077530414 -0.06871489 0.023600968 -0.1262772
-0.049801655 -0.028387375 -0.03846122 -0.03656327 -0.10264722 -0.06252578 -0.13721205 0.10367027
-0.017339215 -0.123685546 -0.12256218 0.010863513 -0.061310146 -0.12646613 -0.069786645 -0.011449589

weight f4 [96]
00000000: b5e5 7e3f e81b 7f3f d5f4 7e3f 1290 7f3f
00000010: b208 7f3f c1e7 7e3f c2eb 7e3f cc06 7f3f
00000020: fbdf 7e3f 711d 7f3f ca0e 7f3f e547 7f3f
00000030: 2a28 7f3f 2fee 7e3f e73e 7f3f c1fb 7e3f
00000040: 2382 7f3f fd76 7f3f b2f4 7f3f 5d11 7f3f
00000050: 461c 7f3f 86fe 7e3f 78ec 7e3f 5510 7f3f
00000060: 5c19 7f3f bfd7 7e3f 504d 7f3f db2e 7f3f
00000070: 62b9 7e3f 4594 7f3f dee3 7e3f f789 7f3f
00000080: b0cd 7e3f 3f01 7f3f f921 7f3f 1d94 7f3f
00000090: 8907 7f3f d53c 7f3f 651e 7f3f 1c13 7f3f
000000a0: 7ddd 7e3f f227 7f3f ab15 7f3f 3b6d 7f3f
000000b0: 85e4 7e3f e4fd 7e3f f2fb 7e3f e5ee 7e3f
000000c0: 8cf1 7e3f 4287 7f3f 3fc8 7e3f b64f 7f3f
000000d0: 7828 7f3f 163c 7f3f 3962 7f3f 924d 7f3f
000000e0: 8f51 7f3f e0de 7e3f cf74 7f3f c9d2 7e3f
000000f0: dd42 7f3f edc8 7e3f 0235 7f3f 3e13 7f3f
00000100: 97ca 7e3f cada 7f3f b7e0 7e3f d54a 7f3f
00000110: 2022 7f3f e650 7f3f 49ff 7e3f 9ce2 7e3f
00000120: 1f35 7f3f 49ff 7e3f bb0b 7f3f a5d1 7f3f
00000130: b00c 7f3f c2f4 7e3f e54f 7f3f 2648 7f3f
00000140: 8e19 7f3f 2104 7f3f 8004 7f3f c750 7f3f
00000150: 27e3 7e3f fb4a 7f3f 7684 7f3f 121f 7f3f
00000160: 5e03 7f3f be83 7f3f df1f 7f3f 92ec 7e3f
00000170: 2a27 7f3f a0f0 7e3f 2112 7f3f a514 7f3f
0.99569255 0.99651957 0.99592334 0.9982921 0.99622643 0.9957238 0.9957849 0.99619746
0.9956052 0.996543 0.9963194 0.9971908 0.9967066 0.9958219 0.99705356 0.99602896
0.9980795 0.99790937 0.9998275 0.9963587 0.99652517 0.9960712 0.9957957 0.99634296
0.9964807 0.9954795 0.99727345 0.9968087 0.9950162 0.99835616 0.9956645 0.9981989
0.99532604 0.99611276 0.99661213 0.9983538 0.9962087 0.997022 0.99655753 0.99638534
0.99556714 0.99670327 0.9964244 0.9977605 0.99567443 0.99606156 0.9960319 0.99583274
0.9958732 0.9981576 0.995243 0.99731004 0.99671125 0.9970106 0.9975925 0.9972774
0.99733824 0.9955883 0.9978761 0.9954038 0.997114 0.9952534 0.9969026 0.99638736
0.9952788 0.9994322 0.9956164 0.9972356 0.99661446 0.99732816 0.99608284 0.9956453
0.9969043 0.99608284 0.99627274 0.9992927 0.99628735 0.9959222 0.99731284 0.99719465
0.9964837 0.99615675 0.9961624 0.9973263 0.99565357 0.99723786 0.99811494 0.99656785
0.9961451 0.998104 0.99658006 0.9957973 0.99669135 0.99585915 0.9963704 0.99640876

bias f4 [96]
00000000: d496 3bbb 8414 aeba be1d ba39 0eb1 cb3a
00000010: 65e2 fa3a 1355 a1ba db27 923a 07f4 063a
00000020: 58ed a7ba f834 2cb9 fd5b 19ba 36d2 063b
00000030: c6be 3fb9 6bbb 10ba 5a3e c7ba 0d50 d8ba
00000040: 5edb 1439 ae29 06b9 3dde a93a 06be e7ba
00000050: 915b 8eb9 5832 a83a f9fe 183a 2a8e 3f3b
00000060: 1b61 1439 6fee f2b8 f1f3 fbba 3a29 dbba
00000070: 79e5 453a abeb d53a c93f 86ba 0b1c 123a
00000080: a6f1 023b 7582 07bb f428 25bb 7ee4 973a
00000090: 1e5d 17ba f405 da3a e493 e43a 2c13 d23a
000000a0: 9218 bc3a 82c8 1f3a cceb a73a 1ec4 3f39
000000b0: f1c3 fbba 455b cc39 79a7 5aba b9fa 14bb
000000c0: e870 6aba 7708 713a ac0b 9039 4245 013b
000000d0: ba3f df39 5454 303b e214 e93a 7654 623b
000000e0: d296 263a 0d90 503a c8ea 003b e538 e8ba
000000f0: d446 dcba 11ae 02ba 64ad bf3a b284 07bb
00000100: 431c 3fba c7aa 6cb9 f8ee b739 1ed5 bdba
00000110: 0b7a ddba a236 b9ba 6756 983a bb7d 7438
00000120: f279 e93a 4fbd 32ba 3164 49ba 8bf6 2939
00000130: cb69 88ba 36a0 7fba b9a9 17ba ee4c 07bb
00000140: fc02 fb3a dd7b dcba deff 72b9 b225 b73a
00000150: f43f b53a 97bc 733a da0c 9f39 7640 e73a
00000160: f9df 6cba e047 d93a 7a0c b9b9 6397 71b9
00000170: bb5c 94ba a0a5 9fb7 77be adba ceca fbba
-0.0028623836 -0.0013281261 0.00035498844 0.0015540437 0.0019140957 -0.0012308679 0.0011150794 0.0005148057
-0.0012811823 -0.0001642293 -0.0005850194 0.0020572073 -0.00018286248 -0.00055210915 -0.0015201077 -0.0016503349
0.000141961 -0.00012794763 0.0012959909 -0.0017680533 -0.00027152573 0.0012832386 0.0005836334 0.0029229023
0.00014150554 -0.00011583871 -0.001922248 -0.001672066 0.00075491477 0.0016320845 -0.0010242398 0.0005573637
0.001998046 -0.0020677124 -0.0025201412 0.0011588482 -0.00057740684 0.0016633854 0.0017439094 0.0016027442
0.0014350584 0.00060952466 0.0012811362 0.00018288239 -0.0019208175 0.00038977913 -0.00083409954 -0.002273245
-0.0008943216 0.0009194682 0.00027474517 0.0019725119 0.00042581355 0.0026905732 0.0017782713 0.0034535206
0.00063548714 0.00079560356 0.001967119 -0.0017717151 -0.0016805776 -0.00049850444 0.0014623818 -0.0020678458
-0.0007290283 -0.00022570333 0.00035082526 -0.001448307 -0.0016897334 -0.0014130662 0.001162243 5.829123e-05
0.0017812832 -0.00068183703 -0.0007682471 0.0001620894 -0.0010407505 -0.00097513513 -0.00057854835 -0.002064522
0.001915067 -0.0016821582 -0.00023174236 0.0013973026 0.0013828264 0.00092978164 0.00030336418 0.0017643112
-0.000903606 0.0016577207 -0.00035295245 -0.00023039947 -0.001131914 -1.9031402e-05 -0.0013255615 -0.0019210221

running_mean f4 [96]
00000000: b597 2b3e a327 1d3d de42 c63c c1ee d93d
00000010: 0a22 af3e 70be 8bbd 459f 6e3d fac9 633c
00000020: ba8c 3fbe a15c 8dbc 6323 903d f5ab 55be
00000030: a879 1dbe 55d2 31bc 897a 84be bff9 99be
00000040: ae2d e23d 620c 653e 2fab b63c 7ef1 6c3d
00000050: da93 bbbd 4793 c0bd b875 473e e7ae 2ebe
00000060: 764d 83be 64ae 843e d738 1abd f68a dfbc
00000070: c546 9dbe 2636 ffbe c14d 053e 3a38 293d
00000080: cd74 e23e a87a 96bd 4223 a03e 58f5 0dbe
00000090: 5cb5 a83c 609e eb3e 2cb7 a7be b1da 49bf
000000a0: bfa3 843e cd37 6fbe 0d5f 6f3d 3292 2d3e
000000b0: 20fb dbbc 9bc5 8bbe 7268 e1be 1b93 01be
000000c0: d2fd 1c3e d872 eb3d b1e4 1ebd f61c a7bd
000000d0: 54b3 953d 4671 d13c d64d 55bd 24c3 173d
000000e0: e320 df3d 470c cabd fbe9 3b3e 418d 13be
000000f0: 0597 8ebd 3ab4 8dbe 9ad8 b6bc 4a11 82be
00000100: 894e 2cbe 7d55 563e 661e 95be d329 463c
00000110: a090 bc3e e6ce 253b fffc b13d 3cef 7ebd
00000120: 41f6 25be c841 993d 261d aabe 524e c73d
00000130: 182c 95be beff 3ebe 8e8c df3d eba3 2a3a
00000140: 332e 093e b671 d03d 9b79 94be 7254 08be
00000150: 83c1 5bbe 4e56 323e 7c30 80be b96b 623e
00000160: 06b9 ba3b 94f5 40be 1d4d 8cbc 05b8 35bc
00000170: f842 8fbd c71d f1be 76c9 383e a784 72be
0.1675709 0.03836788 0.024201807 0.10641242 0.34205657 -0.068234324 0.05825736 0.013903135
-0.18706027 -0.017256083 0.070379995 -0.20866378 -0.1537844 -0.01085337 -0.25874737 -0.30073354
0.11043869 0.22368005 0.022298424 0.057847492 -0.0915906 -0.09403091 0.194785 -0.17058907
-0.25645036 0.259143 -0.037651863 -0.027287941 -0.30718055 -0.49846 0.13017942 0.041313387
0.44229737 -0.073476136 0.312769 -0.13863122 0.020594291 0.46019268 -0.32756937 -0.7884932
0.25906178 -0.2336113 0.058440257 0.169503 -0.026853144 -0.27299199 -0.44024998 -0.12653773
0.153312 0.11496514 -0.038792316 -0.08159821 0.07309595 0.025566708 -0.052076183 0.037051335
0.108949445 -0.09865623 0.18350975 -0.14409353 -0.069623984 -0.27676564 -0.02232008 -0.25403816
-0.16826834 0.20931049 -0.29124755 0.012094933 0.3682909 0.0025300323 0.08690833 -0.06223987
-0.1620722 0.0748325 -0.33225363 0.09731735 -0.29135203 -0.18652245 0.109154806 0.0006509411
0.1339653 0.10177939 -0.28999028 -0.13313463 -0.21460538 0.17415735 -0.2503699 0.22111405
0.005698326 -0.1884368 -0.017126614 -0.011091237 -0.06995195 -0.4709303 0.18045601 -0.23683415

running_var f4 [96]
00000000: d42f bd3d 840c d93d 5fe7 5b3d c6c3 de3d
00000010: 0e6e 133e ec4b 833d 73cf 9d3d 698e 883d
00000020: 8bfd d13d 7f77 ea3d 5c14 ab3d d4cf be3d
00000030: 5bc4 7a3d 9f5e 7d3e d17f b33d 22ba b03d
00000040: 41c8 c53d 93fc 0e3e a1a8 5f3e f8c6 353e
00000050: 6814 ac3d 0553 823e b07f 9b3d 776a b23d
00000060: 27f9 483e 8401 e93d 67ef d23e 287f ee3d
00000070: 77b0 4f3e 8eb5 f53d c67d 403e ce3a 933d
00000080: d57c 123e dc0b 873d a433 bf3d 10a1 db3d
00000090: 0959 bd3d 126c da3d 0855 073e 8ca5 513e
000000a0: 8507 c63d 4528 c83d aae4 4c3d 8463 b13d
000000b0: f5ef 603d 5a66 803e 02fe 183e 9f64 533d
000000c0: cefe 8b3d 70e6 103e c89d ce3d 71a5 0e3e
000000d0: 17a9 7d3d ef54 ff3d ad96 853d 3854 f13d
000000e0: 3882 b03d 3dd8 ae3d 4efc c03d a295 f33d
000000f0: 2c8f d23d e1c7 923e 9d9f 903d bd90 533e
00000100: 14c8 633d ac2f d73d 1cf6 cc3d 80eb c73d
00000110: bef0 463e fc43 a53d c89f 233e a6fc 153e
00000120: 7851 433e 6a4b 9b3d d683 a43d 3cd9 c83d
00000130: 7bc2 e03d 6127 cf3d 9647 393d d6b8 9e3d
00000140: be04 863d 1a68 dd3d 1d51 8e3d 7f06 3c3d
00000150: ce96 723d 2ace 473e 5361 6f3d 2290 033e
00000160: c065 053e b4e2 8a3d 285e 813d f896 f33d
00000170: 196a b13d b336 143e 78ff 423e 2833 003e
0.09237638 0.1059809 0.05368745 0.108771846 0.14397451 0.06410965 0.077055834 0.066677876
0.102534376 0.11448573 0.083534926 0.09316984 0.061222415 0.24743126 0.087646134 0.08629252
0.09657336 0.13963537 0.2184167 0.17751682 0.0840233 0.25453964 0.07592714 0.08711713
0.19626294 0.11377242 0.41198274 0.11645347 0.2028216 0.119975194 0.18797979 0.071889505
0.14305432 0.06594059 0.093360215 0.107240796 0.09245498 0.10665144 0.1321603 0.20473307
0.09669403 0.09773306 0.05002276 0.08661559 0.05491634 0.25078088 0.14940646 0.05160963
0.068357095 0.14150405 0.10088688 0.13930298 0.061928835 0.12467372 0.0652288 0.117836416
0.08618587 0.08537338 0.09423123 0.118937746 0.10281214 0.2866812 0.07061694 0.20660682
0.05561073 0.105071396 0.10007879 0.09761715 0.19427773 0.080696076 0.1597892 0.14647159
0.19074047 0.075827435 0.08032958 0.09807059 0.10974594 0.10114933 0.045234285 0.077500984
0.06543873 0.108108714 0.06949065 0.045904633 0.05922585 0.19512239 0.058442425 0.12847951
0.13027096 0.067815214 0.06316787 0.118940294 0.08662815 0.14473991 0.19042766 0.12519515

weight f4 [48, 96, 3, 3]
00000000: 9acc 863c 1923 ad3c d0ce 2c3c 6287 b2bc
00000010: 7c7f 583c e644 c3bc c0d5 f73c 1879 46bc
00000020: be43 3a3c 1b1a 0c3d a5c0 033d 9efe e0bb
00000030: dd36 fdbc c0fa 8dbc ee09 8e3c e4d5 003d
00000040: 18ef d13b 25a5 ad3c 58fb 4c3b 3a31 0cbc
00000050: a79f 173c f4a3 04bd 351e c4bc 55ba c8bc
00000060: c876 23bb c934 3a3c 0188 b93c 1a5c 0cba
00000070: b5fd 2f3c 3a67 d0bc 1378 a33b 6748 a83c
00000080: 11b3 ecb9 90e3 63bc 268f b1b9 25d8 00bd
00000090: 58c5 043c 0578 b0b9 2fe9 d9bc 6fc4 683c
000000a0: 25a1 eb3c 2053 2e3c 0cfc 2fbb 328e 1f3b
000000b0: c0aa 2f3c 1aa5 04bd 500f 08bd 3188 ffbc
000000c0: ffe8 71bc 4416 8e39 534c 3abc 4c77 c0bc
000000d0: e20a 98bc a253 f0bc 32fa f13c 7eb2 e63c
000000e0: 6322 02bc c0c2 05bc ca49 f1bc d822 993c
000000f0: f776 833b cf29 46bc bf99 adbc 266e 903c
00000100: 3531 1c3b 78cf 833c 77cd 813c e996 423c
00000110: 5023 26bc b25e 2f3c 4b3e dfba eb28 dfbc
00000120: 9a17 60ba 1867 f0ba 2700 71bc 0029 9533
00000130: 3cc2 d7bc f42c eebb 8566 043d 41b8 e43c
00000140: 689d 42bc 5e46 1d3c c6cf 2a3b b90f 75bc
00000150: 2d34 403c 3959 1c3c 76af 8dbc 60c1 00bd
00000160: ca45 933c 411f 70bc c0f5 b33b 0f95 c9bc
00000170: 1248 e5bc 6486 c3bc f7af adbc ca87 f83c
00000180: 8a9e f93c 2c78 00bd 65cc 2b3c 23a9 2cbc
00000190: 373e 0c3d 7247 03bd 00fb b13c 9b99 d9bc
000001a0: e5fa 87bc 5b38 d33c 34c0 46bc 116c 34bc
000001b0: 990b 843c 5a4c cbbc 50dd 0fbb 0723 673c
000001c0: 0f90 d2ba d527 ca3c 9572 fc3b 3000 dd3c
000001d0: 51bd 99bb 28bb 5a3c 62e2 5f3c c1f3 f03b
000001e0: ae9c 84bb 9262 95bc dbf4 f9bc 9677 83b8
000001f0: dfba e63c 31a0 36bb 9c98 043c b191 bd3c
00000200: 3660 e43c dbf8 153b fad9 a43c 7d1e a2bc
00000210: e53f c33c 68bd 7dbc 3c45 e43c bbb0 823b
00000220: 9e0b d73a 8cb6 00bd 44f1 febc 7952 e53c
00000230: 651f eabc 5e92 493c 4484 813a f459 6fbc
00000240: 0b92 0bbd 7a45 fa3c 3d09 0abd 3bab 4e3c
00000250: 5293 003d c5e0 a9bc 114f 02bd a20f dfbc
00000260: 75ee 2d3c c1fe 863c 3898 96bc c920 4a3c
00000270: 3fa0 04bd 3bd6 e3bc 7211 fcbc 293f 34ba
00000280: 59ff d1bc 34e5 ed3b 2cbe 853c 518b 02bc
00000290: 849b c7bc a383 a6bc ef77 69bc a958 063d
000002a0: 5026 9e3c ecca 03bd ac6c db3c 82aa e03c
000002b0: 82ac 39bc 0a63 84bc 9758 09ba c51a c13a
000002c0: 483c 44bc 6dd1 1bbb e5f5 c3bc 7bd7 183b
000002d0: 4777 06bd 3a92 a1bc 514f a3bb 9afc b83c
000002e0: 3079 02bd 49a6 123b 9c19 0e3d 87fb a9bc
000002f0: 181a 8c3c 4db0 bf3c 8ab7 cfba 8c0e d83c
00000300: 9aa3 ce3c 2645 93bc 846b 923c 6b57 53bc
00000310: 905b 313c e076 5fbc b28f c43c 87be 37bc
00000320: 2d6d bebc 0961 463c a00c d63c 3597 a8bc
00000330: b003 b23c 961c b33b 72ea 073d 8622 95bc
00000340: bba7 c43c 326d 91bc e746 9dbc b1d6 fe3c
00000350: e8dd 1d3c 55ab f2bb c33d 573c cea1 a2bc
00000360: bae6 b63b 2125 abbc aa47 bdbc fbef e93b
00000370: aef9 b13c 1115 03bd 9b21 fbba a456 04bb
00000380: 6e00 3c3b 667d e3bc b7c5 86bc 271a 033d
00000390: c038 753b 427b 8b3c 6335 8e3c a265 683c
000003a0: 29f7 c43c 0bb9 c6bc 6318 023d 5d8b c53c
000003b0: 96ce b43c 3085 95bc 3f16 b8bc c47c 683b
000003c0: 6a5e 283c 915d 8b3c 1f21 043d d82c 59bc
000003d0: b060 cdbc a7d9 b43c 6488 febc 79bd 71bc
000003e0: 5166 393c bf32 1ebc c11d 8fbc 68e0 02bd
000003f0: 95b9 8c3c 9c64 9bbc a648 793c be9a f2ba
0.016454984 0.0211349 0.010547355 -0.021793071 0.013213988 -0.023836564 0.030253291 -0.012113832
0.01136869 0.034204584 0.032166142 -0.0068662902 -0.03090995 -0.017331481 0.01733872 0.031453982
0.006406676 0.021196911 0.0031277742 -0.008556658 0.009254373 -0.03238292 -0.023940185 -0.024502913
-0.0024942625 0.011365124 0.02264786 -0.00053543004 0.010741641 -0.025439847 0.004988679 0.020542337
-0.00045146843 -0.013909236 -0.00033866725 -0.03145613 0.008103691 -0.00033658757 -0.026600448 0.01420699
0.028763363 0.010639936 -0.0026853113 0.002434623 0.010721862 -0.032384016 -0.03321773 -0.03119287
-0.014765023 0.0002710094 -0.011370736 -0.023494385 -0.018559877 -0.029336754 0.029538248 0.028161284
-0.007942769 -0.008164108 -0.02945413 0.018693373 0.0040119844 -0.012094929 -0.021191476 0.017630648
0.002383304 0.01609014 0.015845044 0.0118768 -0.010140255 0.010703729 -0.0017032115 -0.02724119
-0.0008548439 -0.0018341271 -0.014709509 6.945811e-08 -0.026337735 -0.0072685424 0.032324333 0.02791989
-0.011878349 0.009599296 0.0026063784 -0.014957362 0.01173119 0.009542757 -0.01729558 -0.031434417
0.017977614 -0.014655889 0.005491942 -0.02460721 -0.027988467 -0.023867793 -0.02120207 0.030338187
0.030471105 -0.031364605 0.010485743 -0.010538372 0.03423902 -0.032050557 0.021726131 -0.026562503
-0.016599128 0.025783708 -0.012130786 -0.011012093 0.016118811 -0.02481668 -0.002195198 0.014107472
-0.0016064661 0.024677197 0.007704089 0.026977628 -0.0046917577 0.013350286 0.013664814 0.0073532765
-0.004046998 -0.018235479 -0.030512264 -6.2688414e-05 0.028165279 -0.0027866478 0.008093026 0.02314076
0.027877908 0.0022883925 0.02012347 -0.019789929 0.023834178 -0.0154870525 0.027865045 0.003988353
0.001640666 -0.03142409 -0.031120904 0.027993428 -0.028579423 0.012302963 0.0009881337 -0.014608849
-0.034074824 0.030550707 -0.033700217 0.012614067 0.031390496 -0.020737061 -0.031813685 -0.027229134
0.010615935 0.016478898 -0.01838313 0.012336918 -0.032379385 -0.027812114 -0.030770037 -0.00068758667
-0.025634455 0.007259989 0.016326033 -0.007967786 -0.024366148 -0.020326441 -0.014249786 0.032799397
0.019305378 -0.032175943 0.026785217 0.027425054 -0.011332633 -0.016160507 -0.0005239336 0.0014732709
-0.011977263 -0.002377595 -0.023920963 0.0023321796 -0.032828595 -0.019723047 -0.0049838205 0.022581387
-0.031853855 0.0022376946 0.03469239 -0.02074982 0.017102286 0.023399496 -0.0015847546 0.026374124
0.025224496 -0.017977308 0.017873533 -0.01289926 0.010825053 -0.013639182 0.0239943 -0.011214859
-0.023245418 0.012108096 0.026129067 -0.020579914 0.021730274 0.005466054 0.03318257 -0.018204939
0.024005761 -0.017752264 -0.019198848 0.031108232 0.009635426 -0.0074056783 0.013137284 -0.019852545
0.005581704 -0.020891728 -0.023105461 0.0071392036 0.021725502 -0.032002512 -0.0019159795 -0.0020193243
0.002868678 -0.027769756 -0.0164517 0.032007363 0.003741786 0.017026547 0.017359441 0.014184387
0.024043636 -0.024258157 0.03176154 0.024114305 0.022071164 -0.018251985 -0.022471545 0.0035474757
0.010276416 0.01701239 0.03225815 -0.0132553205 -0.025070518 0.022076441 -0.031070895 -0.014754646
0.011315898 -0.0096556535 -0.017470242 -0.03195229 0.017178336 -0.018968873 0.015215075 -0.0018509252

bias f4 [48]
00000000: d4bd afbc e122 3ebc 9f0e 4b3c afe7 793c
00000010: 760d c43c f744 22bc e116 9ebb 1e9f bb3c
00000020: 9f0b 4d3c 3cfc e7b7 a4a4 0d3c c327 6abb
00000030: 1f9d 64bc 62c5 9fbc f79b acbc 5cf9 d3bb
00000040: 1014 073c 5958 3f39 bcd1 e73c b619 d8bc
00000050: da13 863c 6884 c93c 5f0d 50bc 89b7 ab3c
00000060: a764 8ebc d822 bb3c 753c bc3c 061b b2bb
00000070: 2120 e93c cd4d 84bb e2e7 07b9 2808 5238
00000080: a6ad 9b3c 6ffe e43a 9fb3 3f38 982e db3c
00000090: 6943 47bc 7430 b0bc 8757 23b8 09b3 c7bc
000000a0: 8003 8abc 100c 20bc 7a5f 8f39 fc44 b9b8
000000b0: c559 f0ba e084 d63c b6b8 903c be13 e737
-0.021452822 -0.0116049955 0.012393623 0.015252992 0.0239322 -0.009904138 -0.0048245047 0.022903021
0.012514978 -2.7654802e-05 0.00864521 -0.0035729266 -0.013953476 -0.0195033 -0.021070464 -0.006468935
0.008244529 0.00018248092 0.028298251 -0.026379447 0.016366888 0.024599269 -0.0126985 0.02096154
-0.01738198 0.022843763 0.022978047 -0.0054353504 0.028457703 -0.004037595 -0.00012960986 5.0075498e-05
0.0190037 0.0017470847 4.5705234e-05 0.026755616 -0.012162068 -0.02150748 -3.8943745e-05 -0.024377363
-0.016847372 -0.009768501 0.0002734622 -8.834337e-05 -0.00183373 0.026186407 0.017666202 2.7546539e-05

weight f4 [48]
00000000: 15f6 7e3f 5564 7f3f 6cd2 7e3f ee0e 7f3f
00000010: 73c2 7f3f b2db 7e3f 8556 7f3f 4e06 7f3f
00000020: 4135 7f3f b71c 7f3f cf19 7f3f 37dd 7e3f
00000030: fcf9 7e3f b91d 7f3f 3ae8 7f3f 6726 7f3f
00000040: 44c4 7e3f eb2b 7f3f 9411 7f3f 417d 7f3f
00000050: 1f62 7f3f 66fe 7e3f 350e 7f3f cae9 7e3f
00000060: ffbf 7e3f 9b07 7f3f 82a5 7f3f eb2c 7f3f
00000070: bdaf 7f3f 3760 7f3f 7c18 7f3f 0e7b 7f3f
00000080: 4f2d 803f 97d3 7e3f aefc 7e3f fe0e 7f3f
00000090: 7532 7f3f 7761 7f3f a319 7f3f 1e14 7f3f
000000a0: 8a2d 7f3f 6250 7f3f 80ae 7f3f f1d9 7e3f
000000b0: 9f03 7f3f 6c38 7f3f d0fd 7e3f 3012 7f3f
0.9959424 0.9976247 0.9953983 0.99632156 0.9990608 0.9955398 0.99741393 0.99618995
0.99690634 0.9965319 0.99648756 0.995563 0.99600196 0.9965473 0.99963725 0.9966797
0.9951823 0.9967639 0.996362 0.998005 0.99759096 0.9960693 0.99631053 0.99575484
0.9951171 0.9962098 0.9986192 0.99677914 0.9987753 0.9975619 0.99646735 0.9979714
1.0013827 0.9954161 0.9960431 0.9963225 0.99686366 0.99758095 0.99648494 0.9964007
0.9967886 0.9973203 0.9987564 0.995513 0.996149 0.9969547 0.9960604 0.99637127

bias f4 [48]
00000000: d1c4 60ba 64c6 84ba 0f5e d339 6b4c e0b9
00000010: 1f82 f03a ea8b 16bb 101f e53a e550 a53a
00000020: b2ad b8ba 4ecc 053a 2ac6 aeba f79a 613a
00000030: 992c 14ba f16a dab9 e677 8939 aacd 31ba
00000040: 79ea b83a dfcc e2ba 8789 92ba cf57 8e3a
00000050: f31c d239 a832 acb8 cccb 14bb 6818 153b
00000060: 1f24 b539 3123 fc3a 04dc 343a 768d d53a
00000070: a8f6 dc3a 3b96 423a 6ad3 7f3a 285a fa3a
00000080: f4bb ff3a bfea 083a daa2 e3ba d3cc 4b39
00000090: eb0d caba f2e3 a53a 670f 0b3b 6bdd 9f3a
000000a0: 56e5 e0ba 1b72 cbba 07cc 643a e1da 78ba
000000b0: b663 00ba 1db3 803a 17db 04bb 3cf3 ecba
-0.000857425 -0.0010129926 0.00040315135 -0.00042781545 0.0018349326 -0.002297158 0.0017480571 0.001261261
-0.0014089851 0.0005103991 -0.0013334204 0.00086061604 -0.00056523975 -0.00041659878 0.00026220008 -0.00067826605
0.0014107964 -0.0017303488 -0.0011179902 0.0010859909 0.0004007589 -8.2110346e-05 -0.002270448 0.0022750143
0.00034549923 0.0019236562 0.000689924 0.0016292769 0.0016858177 0.0007422899 0.0009758981 0.0019100355
0.001951097 0.0005222968 -0.0017367259 0.00019435892 -0.0015415525 0.0012656434 0.0021218897 0.0012196725
-0.0017158191 -0.0015521677 0.0008727912 -0.0009493065 -0.00048976706 0.0009819005 -0.002027219 -0.0018077861

running_mean f4 [48]
00000000: bf5d 45bd 7410 a9be 887c 463e 7c02 0fbe
00000010: 1a98 c43e 8035 dc3e 0edc 4ebc 20b3 fd3e
00000020: 2384 9e3e 080f 39bf c8a3 68be 3d42 debe
00000030: 1850 ddbd 7b9c 5a3e abb1 30bc 23e9 efbe
00000040: 3ad6 253e 9113 08bd 5b67 5ebd 65cc d5bd
00000050: a5a5 b33e 9050 13bf d63e ee3e 98f9 c0be
00000060: e3f2 63be a015 eabd d515 bebe f19a c43e
00000070: 4ab3 a4be 6ad3 053f fa12 babe 3db2 8cbd
00000080: be75 46bf f7b9 abbe 50e1 2f3d 1a23 57bf
00000090: ef34 a1bc 530f 2bbe cdd8 76bf 3646 0abf
000000a0: 3f2d 9cbe 0627 febe d4e3 9e3e 3b1d e43e
000000b0: f7c1 fc3d 2449 273f a329 86bd 2b45 ea3e
-0.048185106 -0.33020365 0.19383442 -0.13965791 0.38397294 0.43009567 -0.012625707 0.49550724
0.30960187 -0.7228856 -0.22718728 -0.4340991 -0.10806292 0.21348755 -0.010784547 -0.46857557
0.16195002 -0.033221785 -0.054297786 -0.10439376 0.35087314 -0.57544804 0.46532315 -0.37690425
-0.22260623 -0.11429906 -0.37126032 0.3839946 -0.32168037 0.5227572 -0.36342603 -0.06869934
-0.7752341 -0.33540317 0.042939484 -0.84037936 -0.019678561 -0.16705064 -0.9642456 -0.54013383
-0.3050327 -0.49639148 0.31033194 0.4455355 0.12341683 0.6534598 -0.0655091 0.45755896

running_var f4 [48]
00000000: e597 3a3e 90ee 053e 216f 513e 51f6 213e
00000010: d134 753e 20d4 283e f729 303e 548d 453e
00000020: 17ed 133e aff3 673e 0a99 f03d 90dd 083e
00000030: cd2e ee3d d299 663e 377c 8b3e f8d5 aa3e
00000040: fe1d 583e f2d2 723e 24c4 023e 5684 393e
00000050: 2e6e 463e b741 8d3e 0c33 833e 8ef3 1f3e
00000060: df9d 9e3e f7ad 463e a3a5 423e 3c23 263e
00000070: 7d37 ae3e b8b2 3b3e c7e7 c43e 65dc 633e
00000080: 21f7 8d3e 42a3 8b3e 2753 413e af0e bb3e
00000090: 54c9 1b3e c8bb d13e 8b1e a73e 36c2 883e
000000a0: d4a6 5c3e 6f85 3e3e 8411 0d3e e21a 333e
000000b0: a02a 103e 0b15 883e 2362 0e3e 601a 5b3e
0.18222006 0.13079286 0.20452549 0.15816619 0.23945929 0.1648717 0.17203508 0.19292194
0.14445911 0.22651552 0.1174794 0.1336577 0.1163002 0.22519615 0.27243206 0.3336637
0.21105191 0.23713282 0.12770134 0.18116888 0.19377968 0.275892 0.25624883 0.15620252
0.3097982 0.194023 0.19008498 0.16224378 0.3402671 0.18329895 0.38458082 0.22252043
0.27727607 0.27272993 0.18879376 0.3653464 0.1521352 0.40963578 0.3264049 0.2671067
0.21548015 0.18605588 0.13776213 0.17490724 0.1407876 0.26578555 0.13904624 0.2139678
