weights/CapeTown.model.weights.pt (torch, 219383 bytes, 42 tensors)

weight f4 [16, 3, 1, 1]
00000000: 4877 373e 2a83 febc 760a 833d 66f8 853c
00000010: 27c9 b63e 713e a6be 6c1e a0be a90a 883e
00000020: 781b 79be 4f3b cebe 68c9 cbbd 1fb7 b23e
00000030: 943e 71bc 5486 31be 9716 913d 11cd 9bbe
00000040: f8f1 373e 85be 18bd 7ab4 0dbe f3a9 823e
00000050: c4e3 9e3c ca93 b0be edc7 c6be 8565 d13e
00000060: 89dd b23e d3c4 773e a9e3 b3be be20 cc3e
00000070: bf14 95be b17f d33c e273 d43d bdfd 52be
00000080: 9d83 abbd 3bc0 903e bfaf 27be e241 ac3e
00000090: 6c72 39bd e327 943e a4e9 53bc 5106 cabe
000000a0: 8fa0 803e a0a1 8b3b fd42 a0be a03d a0bd
000000b0: 5782 f23e 19b1 bbbd 6d77 70be 249b f8bb
0.17916596 -0.031068403 0.0639848 0.016353797 0.35700342 -0.32469514 -0.3127321 0.26570633
-0.24326885 -0.40279624 -0.099505246 0.34905335 -0.014724392 -0.17336398 0.07084387 -0.3042989
0.17963398 -0.03729107 -0.13838378 0.25520286 0.019395716 -0.34487754 -0.38824406 0.40897766
0.34934643 0.24196176 -0.35134628 0.3986873 -0.2911739 0.025817724 0.103736654 -0.20604606
-0.083747126 0.2827166 -0.16375636 0.33644015 -0.045275137 0.2893668 -0.012934122 -0.39457944
0.25122496 0.0042612106 -0.31301108 -0.07824254 0.47365066 -0.09164638 -0.23483057 -0.0075868536

bias f4 [16]
00000000: 6091 64be de2d 98b6 2d37 4e3e 8270 eeba
00000010: 1424 debc 208e ae36 2873 0a3e b89c d3bd
00000020: 9afc 7bbe b588 d0bd f874 a0b7 5543 78be
00000030: 2208 063e 1f46 023d 0766 1937 1b59 0bbd
-0.22321081 -4.5352926e-06 0.20138235 -0.0018191489 -0.027116813 5.2021496e-06 0.13520491 -0.10332626
-0.24608079 -0.10182325 -1.9127954e-05 -0.24244435 0.1308904 0.031805154 9.143266e-06 -0.034020524

weight f4 [16]
00000000: 34fa 5f3f a74c 5e3f 63e8 703f 09ff 753f
00000010: 72ab 593f b547 6d3f c482 4e3f e6ff 6f3f
00000020: fc44 613f 326c 4f3f 300b 733f 32bd 643f
00000030: 6181 593f f49d 603f ee4e 673f 67ad 6b3f
0.87491155 0.8683571 0.94104594 0.9609228 0.8502723 0.9268754 0.8066828 0.93749845
0.87995887 0.8102447 0.94938946 0.8935119 0.8496304 0.8774102 0.9035481 0.92061466

bias f4 [16]
00000000: aba6 cbba 3988 543c 2d9c 1dbb 924e 05bc
00000010: d611 bcbc 650e 86bc d12c 38bc 0191 cbbb
00000020: 6b0f 863c 630c b33c dbc2 4abb ec39 2e3b
00000030: 5eeb ccbb 35dc cebb ceb9 4e3d 2ae4 fcbb
-0.0015537342 0.012971931 -0.0024049387 -0.008136408 -0.022957724 -0.016364286 -0.011241154 -0.006212354
0.016364774 0.021856492 -0.0030938897 0.0026584817 -0.006253644 -0.006312872 0.050470166 -0.007717629

running_mean f4 [16]
00000000: ddda c541 0c77 0741 c31c 02c2 a037 a9c1
00000010: a635 6dc1 427a 98c1 ccd9 8441 be92 29c2
00000020: 5e13 fb41 8cde 7841 4ccd aec1 158a 4e42
00000030: 9e1c e241 0f17 84c1 27df c540 934b 21c2
24.731867 8.466564 -32.528088 -21.15216 -14.825598 -19.059696 16.606346 -42.393303
31.384457 15.554333 -21.850243 51.634846 28.263973 -16.51126 6.1834903 -40.323803

running_var f4 [16]
00000000: c689 1143 d939 8d41 de1e 8243 e02f f342
00000010: 226c 4242 db23 b742 1611 8242 5f4f cc43
00000020: f91e 6c43 e82e 8f42 cf4d e342 92db 1f44
00000030: bcee 3343 5a62 9b42 88b1 2d42 d09f b843
145.53818 17.653246 260.24115 121.593506 48.6056 91.57003 65.03337 408.6201
236.12099 71.59161 113.65197 639.4308 179.93256 77.69209 43.42337 369.24854

weight f4 [16, 3, 3, 3]
00000000: 55b9 083e 30bb 24be ee03 2e3d f99e ae3c
00000010: d98c ecbd 85dc 22be 5ae0 c4bd 82ab 23be
00000020: 0031 c7bd f68f 813d e8ca d8bd bc3f 0dbe
00000030: 23c6 a93d 8be2 773d 591a 10be d106 00be
00000040: 8fc8 743d 59f2 343d 6ca2 223e a7ef e13d
00000050: b2a6 8b3c ea91 2e3e 1b70 c1bd 4bc4 3c3d
00000060: a7b4 61bd f33e 123e 31be 783d 5501 133e
00000070: 123c 0fbe 2849 16be dcdd 8fbd eebf 29be
00000080: 7181 1a3e 046b 8d3d 0bb0 5f3d 8156 a13d
00000090: 8dd6 e23c f22f 91bd bc34 0fbb eebc 203e
000000a0: d04a 19bd 1b52 233d 43a2 0d3b 6497 e93c
000000b0: 9965 b93d 3de0 1c3b dd18 e2ba e852 b33c
000000c0: 993e 483d 95bc 21be ab20 1fbe ccf1 ae3d
000000d0: 0537 4ebb dd0b 7abd e985 9b3b 6e02 5a3d
000000e0: 06bc 6b3c 9629 303d 865a bdbd e47d e13b
000000f0: c57a d8bd c49e 163d 5540 e8bd 0a36 93bb
00000100: e4b3 80bb f26d b5bd 794e f3bd 4954 e43b
00000110: d4d4 abbd 2da3 cd3d eeb7 98bc 4f76 cd3d
00000120: 7f22 9abd 05ef 97bd cb45 64bd 3eb6 263c
00000130: 49e5 c8bd f889 813d 9e3c 6f3c d90b 81bd
00000140: 170e 32bd 5e45 75bd f933 f13c d447 493d
00000150: 2dec 08bd 2c00 4dbc a412 22bd 9e9c 3ebc
00000160: e9b8 01bb f34b 54bd 5a1d 8f3c ab86 fabc
00000170: 7bc8 1cbc 461b 7a3c afbf 653b 2911 40bd
00000180: 7145 b5bc 5114 8b3c 21ae 0cbc d257 c5bc
00000190: 76bf 11bc 326a c13c bb98 13bd 4f25 94bb
000001a0: cd6f 07bc ebc2 6ebd 299a 11bc 73b9 2dbd
000001b0: f46b 6ebd 957c dabc 0e1c 033d 3802 163c
000001c0: 79a2 16bc f057 523a 4e90 76bd a841 9bbc
000001d0: dee8 4bbd 7070 a73c 0221 e43c 821d 2a3c
000001e0: c5a8 8fbb 610e ddba 49c8 24bb 851e a4bc
000001f0: c13f 1ebd e2eb 5dbb 9403 babc c7c5 0fbd
00000200: 64e5 32bd aace ba3c 2bb6 1cbc a3c1 7dbd
00000210: ec42 73bd 6cbf 473d 01b8 12bd e231 acbb
00000220: acac 933d d560 673c 759e 92bd c133 963d
00000230: 7de6 d83c 406d 873d 5835 debc 9c11 64bc
00000240: 55ad a03c 75a9 803d 12c4 94bb d12f dcbc
00000250: 2349 33bb 0fa7 793d 4fd2 833d b78b dfbc
00000260: a1ea 133a bfdf 73bc 1adf d93b a9b9 aebd
00000270: 8162 ae3c b62b 113d 1058 fdbc 3e83 65bc
00000280: d2f8 ad3c 5166 bd3d e281 1cbe d00a b73d
00000290: 35c7 0dbe eaa2 89bc 98e5 6dbd a1d0 7abd
000002a0: e8c9 ee3d 0c6a 113e 6376 02be 5310 e5bd
000002b0: 8fb0 ccbd 4bb7 d9bc 2de3 093d b9e0 2b3d
000002c0: 65f8 0a3e 9f22 403c 0421 893d 10a9 ea3c
000002d0: 4f72 083d 4598 263d 13ab 003e 445c 86bd
000002e0: 26d7 72bd e3a6 37bc 77cf ba3d dbb9 2e3d
000002f0: 1c6f b53d 8b0a 9abd 46a0 12be 4412 10bc
00000300: 82e9 c6bd 2a52 113e c98d c8bc aaac f6bc
00000310: 09af 12be ceff a8bd d354 0cbe d64a a03d
00000320: af6b fd3d 264a 3dbb 8343 08be 6b11 c23d
00000330: ab9b 7f3d a9f2 d7bd 87d8 2e3e 9130 3ab9
00000340: 91f3 1bbd ec48 a7bd 2264 57bc b0c4 2fbc
00000350: e26d 1c3e e00e b9bd 587e 1f3e 90e3 e73d
00000360: 583d a8bd 23fc 14be 6596 d2bd 7a40 14be
00000370: dfd3 8f3c 55dd e93d cc6f b63d 269a 76bc
00000380: fe04 143e b966 0b3e 798f 27be 37ca 003e
00000390: cc48 923d 4e71 c13d 0d52 0a3e 9563 bfbd
000003a0: c732 e6bd 67da d93c 5af8 a3bd 16cd afbd
000003b0: 44c3 593d 1c40 fdbd d961 4a3d efac f1bc
000003c0: d648 883b b240 0b3e b6b0 6bbc aef5 8cbd
000003d0: 2c7d 7ebd 2298 8fbd f627 5c3d 88bf 28bd
000003e0: 0f45 3cbc 9027 9ebd 5083 79bd 03c8 013d
000003f0: 35e5 5cbb 7e5b 7c3d 5ac0 9bbd 6cdd 87bd
0.13351949 -0.16087031 0.042484216 0.021316038 -0.11550302 -0.15904434 -0.09613104 -0.15983394
-0.09726143 0.063262865 -0.10585576 -0.13793844 0.08289745 0.060518783 -0.14072551 -0.125026
0.05976158 0.044176433 0.15882272 0.11032038 0.01704726 0.1704785 -0.094452105 0.046085637
-0.055103924 0.14281826 0.060728256 0.14355977 -0.13987759 -0.14676344 -0.07024738 -0.16577122
0.1508844 0.06905177 0.054611247 0.078778274 0.027690196 -0.07089223 -0.00218515 0.15697071
-0.037424862 0.039873224 0.0021611608 0.028514571 0.09052581 0.0023937367 -0.0017249841 0.021890119
0.048887823 -0.15794595 -0.15539806 0.08542213 -0.00314659 -0.06104647 0.004746188 0.053224973
0.01438809 0.04300841 -0.092457816 0.0068814624 -0.105702914 0.036772504 -0.11340395 -0.004492526
-0.0039276946 -0.08858861 -0.11880202 0.0069680554 -0.08390203 0.10040889 -0.018642392 0.10032331
-0.07526111 -0.07418636 -0.055730622 0.010175286 -0.09809358 0.063251436 0.014601855 -0.06301088
-0.04347047 -0.059880607 0.029443728 0.049140766 -0.03342836 -0.012512248 -0.03956856 -0.01163402
-0.0019794053 -0.051830243 0.01747005 -0.030581793 -0.009569283 0.015265292 0.003505688 -0.046891365
-0.022127839 0.016977461 -0.008586437 -0.024089728 -0.0088957455 0.023610208 -0.036034327 -0.004521049
-0.0082664015 -0.058291357 -0.008886852 -0.042413186 -0.05820842 -0.026670733 0.032009177 0.009155802
-0.00919401 0.0008023968 -0.060196213 -0.018952206 -0.049782626 0.020439357 0.02784777 0.010383012
-0.0043841326 -0.0016865247 -0.0025143793 -0.020034084 -0.03863502 -0.003386252 -0.022706784 -0.035100725
-0.043675795 0.022803623 -0.009564917 -0.061952244 -0.059389994 0.04876654 -0.03582001 -0.00525497
0.07210669 0.014122208 -0.071591295 0.0733409 0.026477093 0.06612635 -0.027125046 -0.013920214
0.019613901 0.06282321 -0.004539975 -0.02687827 -0.0027356825 0.060950335 0.064365976 -0.0272883
0.00056425674 -0.014884888 0.00664891 -0.085315056 0.021287205 0.035442077 -0.03092578 -0.014008341
0.02123681 0.09248031 -0.15283921 0.08937609 -0.13845523 -0.016801316 -0.058080286 -0.06123412
0.11659604 0.1420061 -0.12740473 -0.11184754 -0.099946134 -0.026576659 0.033663917 0.04196236
0.13571317 0.011727004 0.0669575 0.028645068 0.03331214 0.04067256 0.1256526 -0.06560567
-0.059287213 -0.0112092225 0.09121602 0.042657714 0.08859083 -0.07521542 -0.14318952 -0.008793417
-0.09712507 0.141915 -0.02448167 -0.03011163 -0.14324583 -0.08251916 -0.13704233 0.07826774
0.12374055 -0.0028883307 -0.13307004 0.094759785 0.062404316 -0.105443306 0.17074786 -0.00017756435
-0.03807408 -0.081682056 -0.013146432 -0.010728046 0.15276292 -0.0903604 0.1557554 0.11322701
-0.082148254 -0.14549308 -0.10282592 -0.14477721 0.017557083 0.11419169 0.08908042 -0.0150514
0.1445503 0.13613404 -0.16363324 0.12577139 0.07142791 0.09445439 0.13507862 -0.09345166
-0.11240154 0.0265934 -0.08006354 -0.08584039 0.053164735 -0.123657435 0.04940972 -0.029501406
0.0041590733 0.13598898 -0.014385393 -0.06882797 -0.062131092 -0.07011439 0.053749047 -0.041198283
-0.011491074 -0.0772239 -0.060916245 0.031684887 -0.0033705954 0.06161069 -0.076050475 -0.0663403

bias f4 [16]
00000000: 57d5 6f37 03bd cc36 2b78 92b7 ac33 8637
00000010: 385f 9fb8 a541 cf39 e2f8 8a3a 0328 8f37
00000020: 8699 8c37 423a a2b7 bb7c 67b9 e339 c9b6
00000030: 8198 8139 dcbc 96b7 501f 9cb7 f68a a7b9
1.4295182e-05 6.1016776e-06 -1.7460514e-05 1.5998106e-05 -7.599447e-05 0.00039531026 0.0010602737 1.706556e-05
1.676079e-05 -1.9339033e-05 -0.00022076342 -5.9970057e-06 0.00024718422 -1.7969338e-05 -1.861123e-05 -0.00031956256

weight f4 [16]
00000000: f7eb 6b3f cc14 423f 1a00 763f 0f55 5b3f
00000010: 0867 5d3f 555f 503f 88fe 413f cff8 4f3f
00000020: c1e2 463f c3e7 703f d056 5e3f cc3d 4e3f
00000030: ffb4 6c3f 5fc0 5b3f 83ef 563f cf25 623f
0.9215693 0.75812984 0.96093905 0.85676664 0.8648534 0.81395465 0.7577901 0.81239027
0.7768975 0.9410364 0.86851215 0.80563045 0.9246368 0.8584041 0.83959216 0.8833894

bias f4 [16]
00000000: 943b 29bc af58 3e3c 8130 96ba 7b34 8138
00000010: eda8 0fbc 60eb 88bb 65f8 723c 4d14 7e3c
00000020: 483c 86bc 5509 60bb 4e84 e1b9 5f45 2e3c
00000030: b0bf c03a 6ab1 22bc 68fa 5b3c 888b 2ebc
-0.010329146 0.0116178235 -0.0011458547 6.1609746e-05 -0.008768302 -0.0041784495 0.01482973 0.01550777
-0.016386166 -0.003418525 -0.0004301392 0.010636657 0.0014705565 -0.009929994 0.013426401 -0.010653384

running_mean f4 [16]
00000000: 5d8d 00c2 1a38 cd3e 0c25 87c2 790c 2ac2
00000010: 270c 33c2 4bc9 1442 a3c5 8d41 4c4c 6cc1
00000020: c3e4 ce3f e32f 5ec2 de75 1042 ec6d ca41
00000030: 42de 47c2 47f2 d7c1 0718 eac1 ec7b 12c2
-32.13805 0.40081865 -67.57236 -42.51218 -44.761868 37.196575 17.721502 -14.768627
1.6163563 -55.546764 36.115105 25.303673 -49.96705 -26.9933 -29.261732 -36.621017

running_var f4 [16]
00000000: 4ad9 d143 e8cf 0243 042e 7a44 fc98 c643
00000010: 9e08 da43 325d 9743 6db7 3443 f39e 5643
00000020: 424b 0c43 d254 2644 c8ac 9f43 5b4a 1f43
00000030: 1b92 2c44 6738 6943 5672 4243 a319 a343
419.69757 130.81213 1000.719 397.1952 436.06732 302.7281 180.7165 214.6209
140.29398 665.3253 319.34985 159.29045 690.2829 233.22032 194.44662 326.2003

weight f4 [16, 3, 5, 5]
00000000: 51d7 9f3d 3875 b0bd be56 6b3d 2c2b ae3d
00000010: 1761 173d eace b7bd dc28 93bd fec7 a5bd
00000020: da0b bf3d 9889 2b3d bcb9 44bc ac80 623d
00000030: ef69 9a3d 96d5 9abd d147 83bd 8223 73bd
00000040: cdac d1bd c0c0 8b3d a676 4dbd 7533 55bd
00000050: af9c 39bd 23df 2e3c 115b a63d 9cba 933b
00000060: 8485 e1bc ff4f 8bbd a6a9 c9bd e7f9 a2bd
00000070: 2fc6 823d cf2d 5ebd 47e8 98bd 481c 863d
00000080: 41dc 6cbd 4d4b aebd f6dc 8fbc df9a 0fbc
00000090: 2b2a 733d 7137 c0bd 2899 843d a866 b1bd
000000a0: ff70 a8bd 1ca7 76bd 0a9d ae3d 6ec5 b2bd
000000b0: e861 383d 9ef5 89bd 41d3 533d ceb5 3abd
000000c0: ce3e afbd 24c8 963d 58b5 253c 05a7 a63d
000000d0: 6a7f 533d 4d48 a9bd d93f e33d d0af 4f3d
000000e0: 1a2e afbd 0f76 d33d 6553 b8bd 3295 d03d
000000f0: fbfb 81bd 295b a53d 4951 3f3d 7af2 77bd
00000100: f6e2 ba3d f796 b8bd 28d8 0c3d aa56 3f3d
00000110: eece 0c3d 8b74 213d 1b75 d4ba 6fbc 1bbd
00000120: c455 d53d 22ea 23bc cbec 613d 848c df3c
00000130: e9ee 5dbb 89af 8d3d 63ed 553c 86ab 853d
00000140: fb29 443d b025 b4bd 75de 95bd a8ea 833d
00000150: c2ff 2fbc b526 4e3d 89c5 b5bd d5bc b8bd
00000160: 7ba4 d6bd 9ffc 063d 6dc5 12bc 11e0 bdbd
00000170: cb63 a5bd b039 123c bd06 753d 76c6 1b3d
00000180: 27bc 803d d8c4 ec3c 8a62 c13c 8fef 9d3c
00000190: 2b81 ea3c 8498 633d e4f9 f7b9 cafc 8dbd
000001a0: 09ff 57bd e906 08bd 90a2 963c d82e 083c
000001b0: 5738 3a3c 8238 5c3d f7a3 06bc ba3f 453d
000001c0: 5125 1bbd a980 85bc e853 4a3d 42c4 953b
000001d0: bb1b 8ebd 10db 79bd fdc0 fe3c 12ea 47bd
000001e0: 03a2 863d 07cb c63b 45ec 753d 9701 69bc
000001f0: 5d51 d03c cb49 4a3d 81b5 9fbb 761a a6bb
00000200: 4676 1b3b cca2 603d b133 41bd dbb1 443d
00000210: fd80 10bc ecc2 b8bc e8eb 53bd fbe6 36bd
00000220: a6be 6a3d 6419 eb3c 1b88 e0bc 3cba a9bc
00000230: 3942 3bbc 3b63 e83c 8d96 5fbc 527e b4bb
00000240: a072 3abd 4cfb eb3b 8fdd bd3c 2ee9 e73c
00000250: b544 1c3c e211 053d a15e 0c3c dde4 3d3d
00000260: be1c c13d 332a 6dbd 92af cc3d aaf8 7bbd
00000270: 7ce9 d5bd 4774 b8bd f1be c03d 71ce df3c
00000280: bd35 8d3d e0fa 35bd 6651 d53d 9748 1abd
00000290: eec5 cdbc eb87 e3bd 46fc 0abc 6022 b0bd
000002a0: 8b67 583d 7619 173d 40bd 64bd e9b6 5f3d
000002b0: dd2f d33d 0008 92bc 54ef aa3d 6dad bc3b
000002c0: fd7d 98bd 492a 7b3c d2b0 01bd f9ff c13d
000002d0: 6ac7 92bd 5f03 55bd d8dd 54bd af63 9e3c
000002e0: 2c98 5bbc aa63 a9bd d350 b8bd 0124 42bd
000002f0: 04c1 643d 49d4 92bc ffb8 8fbd 86d1 5dbd
00000300: 2a19 d33d 22f1 e7bd 5db0 893d 1351 56bd
00000310: 55cf bcbd af95 4d3d 2285 8fbd b1aa fbbb
00000320: a8f8 79bd 2d58 6e3b 0985 c33c 68f5 e83d
00000330: c30b 59bd 0abe 43bd 26da 5f3d d597 70bb
00000340: f3c3 b23d 6515 e2bd 9e8f 0abd f6aa d43d
00000350: f147 c03c 5b99 d6bd d284 ca3c a80b 9f3d
00000360: 5476 a43d c717 2dbd d35a e13d 7c18 04bb
00000370: 0803 5bbc 44ce b2bc 0cfb be3d 6907 c5bd
00000380: 8446 c73c 9a1c 37bd 3fac 903c f522 853c
00000390: 2dcf b5bd 7bc3 a4bd adb4 063d 1598 7cbd
000003a0: 9ab7 853d 3b02 89bd 060d 9abd 9a06 e93d
000003b0: 30cb 35bd 3cfa 0fbc 51cf bcbc c7d0 51bd
000003c0: 614e 96bb 62e8 273d 967b 5bbd 2375 ffbc
000003d0: 31e5 cb3d 0240 113d 303d 3fbd e695 08bd
000003e0: c9af a63d 6f0a 283d 832a 983d cc67 693c
000003f0: 6398 b8bd a1fa e9bd 1b70 b93d 3d7d 8e3c
0.0780474 -0.08616108 0.05745577 0.08504328 0.036957826 -0.089750126 -0.07185528 -0.08094786
0.093284324 0.041879267 -0.012007173 0.055298492 0.075397365 -0.075602695 -0.06410182 -0.059360035
-0.10238037 0.068238735 -0.05016198 -0.052051026 -0.04531544 0.010673317 0.08122838 0.0045083296
-0.027529486 -0.068023674 -0.09846811 -0.07957821 0.06385457 -0.054242905 -0.074661784 0.06548363
-0.057827238 -0.08510456 -0.017561417 -0.0087649515 0.059366386 -0.093855746 0.06474525 -0.08662158
-0.08224677 -0.06021796 0.085260466 -0.08729063 0.045015246 -0.06736301 0.05171514 -0.04558354
-0.08556901 0.073623925 0.0101140365 0.08137325 0.051635183 -0.082657434 0.11096162 0.050704777
-0.08553715 0.10325252 -0.09000281 0.10184707 -0.063468896 0.08074028 0.04670838 -0.060533978
0.091253206 -0.09013169 0.03438583 0.04671351 0.03437703 0.039417785 -0.0016209217 -0.0380215
0.10416749 -0.010004552 0.055157464 0.027288683 -0.0033864325 0.06918246 0.013057086 0.06526856
0.0478916 -0.08796251 -0.07317821 0.064412415 -0.01074213 0.050329883 -0.088755675 -0.09020392
-0.10480591 0.032955762 -0.008958203 -0.09271253 -0.080756746 0.008924887 0.05982088 0.038031064
0.06285887 0.028902456 0.023606557 0.01927927 0.028626045 0.055565372 -0.00047297694 -0.06932981
-0.052733455 -0.033209715 0.018388063 0.00831195 0.0113659715 0.053764828 -0.008217803 0.048156478
-0.037877385 -0.016296702 0.049396425 0.004570515 -0.06938883 -0.06099993 0.031097883 -0.04880721
0.0657387 0.006066683 0.060039777 -0.01422157 0.025429422 0.04938678 -0.004873932 -0.0050690724
0.002372162 0.054842755 -0.047168437 0.04802118 -0.008819816 -0.022553883 -0.05173865 -0.044653874
0.057310723 0.02869863 -0.02740865 -0.020718686 -0.011429363 0.02836763 -0.013646734 -0.0055082226
-0.04551947 0.007201588 0.023176936 0.02830943 0.009537865 0.032487758 0.008567483 0.04636084
0.0942931 -0.057901572 0.09994425 -0.06151644 -0.10444924 -0.09006553 0.09411419 0.027320119
0.068950154 -0.044428706 0.10415916 -0.037666883 -0.025118794 -0.11109909 -0.008482998 -0.086003065
0.05283312 0.036889516 -0.055844545 0.054617796 0.103118636 -0.01782608 0.083464295 0.0057579787
-0.07445905 0.015329906 -0.03166277 0.09472651 -0.071669415 -0.052005168 -0.05196938 0.019334642
-0.01340298 -0.082709625 -0.08999791 -0.047397617 0.055848137 -0.017923491 -0.07017707 -0.054154895
0.10307534 -0.11325289 0.06723092 -0.052323412 -0.09219233 0.050191578 -0.07007815 -0.00768026
-0.061028153 0.0036368475 0.023867147 0.113749325 -0.052989732 -0.047788657 0.054651402 -0.0036711593
0.087287806 -0.11039237 -0.03382837 0.10384171 0.023471804 -0.10478469 0.024721537 0.07765895
0.08030382 -0.042259004 0.110036515 -0.0020156195 -0.013367422 -0.02182687 0.09325227 -0.09620554
0.024325617 -0.04470501 0.017660258 0.01625202 -0.08877406 -0.080450974 0.03288715 -0.061668474
0.0652916 -0.066898786 -0.07522015 0.11378212 -0.044383228 -0.008787688 -0.023048075 -0.051224496
-0.00458698 0.040993102 -0.053584658 -0.031183785 0.09955824 0.035461433 -0.046689212 -0.03334608
0.08138997 0.041025575 0.074299835 0.0142459385 -0.090134405 -0.11424757 0.090545855 0.017393703

bias f4 [16]
00000000: 3396 8c37 7337 5137 1011 3eb7 abf2 91b7
00000010: d44a 47b7 58c6 4e37 0773 6fb7 3b37 0335
00000020: 5643 37b7 44a1 a6b6 a764 54b7 64cf e036
00000030: a7f3 4637 ea82 62b7 5ee4 40b7 decf 72b7
1.6759242e-05 1.2470281e-05 -1.1328855e-05 -1.7398348e-05 -1.1878747e-05 1.2324737e-05 -1.4272292e-05 4.8881674e-07
-1.0923328e-05 -4.9659593e-06 -1.265962e-05 6.6998637e-06 1.1858449e-05 -1.35011305e-05 -1.1497263e-05 -1.4472722e-05

weight f4 [16]
00000000: 85fd 4b3f 4ffa 563f e454 5e3f 6885 753f
00000010: 229f 4f3f 7a81 5b3f a7da 6b3f cef3 5d3f
00000020: 5286 603f 24b8 693f 3cfd 633f b84c 4e3f
00000030: 2aac 593f 02e2 5c3f fad2 503f 3e16 493f
0.79683715 0.8397569 0.8684828 0.95906687 0.8110219 0.8574444 0.9213051 0.8670014
0.87704957 0.912966 0.8905828 0.80585814 0.85028327 0.8628236 0.81571925 0.78549564

bias f4 [16]
00000000: 415d 23bc 0f2c 5bbb d055 32bc 2473 0dbb
00000010: 5f43 a83a 02fa 2e3d fd5d abbb 50bc e53b
00000020: 1eac 84bc 3af5 633b 6c57 1e3c 4f84 f93c
00000030: 7aa4 75bb 6948 8fba 11e9 043c d7bd 8b3c
-0.009970964 -0.003344301 -0.010884717 -0.0021583522 0.0012837461 0.042718895 -0.00522971 0.007010974
-0.016195353 0.0034783618 0.009664398 0.030458597 -0.003748207 -0.0010931614 0.008112208 0.017058296

running_mean f4 [16]
00000000: a225 09c2 0417 0e41 11ff b3c1 930a ebc1
00000010: 743b 8b41 5fee 9c41 8f7c c2c1 8ace 5fc2
00000020: 3a0f aec1 e5ca df41 d1bd a341 f243 fc40
00000030: a7a0 dfc1 8876 22c2 5727 35bd 6e76 3b42
-34.28675 8.880619 -22.499544 -29.380163 17.40403 19.616392 -24.31082 -55.9517
-21.757435 27.97407 20.467684 7.883294 -27.953444 -40.615753 -0.04422697 46.865654

running_var f4 [16]
00000000: a9c5 0044 0296 2543 33d9 e043 f7f6 1044
00000010: 7fe5 1f43 d8a1 5c43 8b46 c043 bfd6 2244
00000020: 6848 c743 dd77 7043 c63a 6d43 7fda 9c43
00000030: a86b 1144 c804 1044 6e27 a443 0fd5 fa43
515.08844 165.58597 449.69687 579.8588 159.89647 220.6322 384.55112 651.3554
398.56567 240.46822 237.22958 313.707 581.6821 576.0747 328.30804 501.66452

weight f4 [96, 48, 1, 1]
00000000: a310 d4bd a3b4 e93d 5fe0 003e 1a4b aabc
00000010: 5bff 42bd 059f c9bd 8928 9f3d 2c45 d1bd
00000020: d19f 263c e467 a03d ceb5 ecbc 66c5 07bd
00000030: 5de6 e5bd a39a 91bc 4b2f 7fbd ef7c e73d
00000040: b978 5ebd 4b6e a3bc b85c d9bc 44c1 72bd
00000050: 0bcf 333d 7794 2e3c f272 cbbd b605 b9bc
00000060: 2ae0 4f3b 5f05 5f3c cd45 0dbe ec22 a9bd
00000070: 050d f53d 86ea c1bd dccd 4c3d 9b60 ecbd
00000080: 71ae 9dbd a8d1 9a3d 0c47 50bd 8407 3a3b
00000090: d4b5 823d a932 d13c abde 1f3d 1a67 bf3c
000000a0: 2e31 9f3d 0463 e4bd b227 8a3d 54cc ab3c
000000b0: 1ac9 51bd 48d8 15bd e726 75bd 2d55 db3c
000000c0: 2b86 54bd b4a7 16bd a4e7 203d a0da f1bc
000000d0: dbcb 543d f5a2 8cbd dd72 7a3d f6f6 4dbd
000000e0: 9629 a8bd 826e 91bd 42d0 d9bc 5684 bd3d
000000f0: 4d94 ba3c 4b02 4fbd bf8f 94bd b663 16bd
00000100: d67e 90bd 8209 df3c 8ee5 f33b 5226 4d3d
00000110: 9466 133c 2c0c c53c 839a 81bb d57f a2bd
00000120: e25b 19bc 6e26 86bd b927 bfbc be2f d5bd
00000130: 32d3 77bd d0a3 103d 9809 67bb 0e9d 2ebc
00000140: 5f37 57bb 48d1 cf3d dc69 2d3d 6c0d c0bd
00000150: da10 263d 9f27 d5bd 412d ab3c 5c04 8ebd
00000160: 6516 b63d bc85 cfbd b07e 803d 1f44 da3a
00000170: e0de 893d dce3 733d 57f9 62bb 8ef1 bc3d
00000180: 10db 243b dff5 a5bd c1b7 8f3d 969d 493c
00000190: 9fe4 733d a025 8bbd 6efd 1d3d 3819 37bd
000001a0: a7b5 c03d 66ca 863d 2f16 65bd 36b2 99bd
000001b0: 8231 e63c ee1f 00bd 4103 f03c 856e 243d
000001c0: b7c3 d03d 06fe f8bc 7fe0 e13d c09d 2a3d
000001d0: 691a 26bd 296a c6bc 3c6a 56bd ce4e 2dbb
000001e0: d963 c5bc 31b0 81bd 8b6d c7bd 1d0a b2bc
000001f0: df3f 3dbb 5111 a0bd 86eb 523d cbcd 47bd
00000200: dede 893d dba8 0dbd b309 603d 5060 87bd
00000210: 5656 b73d 2f63 503d 5897 08bd 6506 d8bd
00000220: e58a 20bb 5cad 2fbc 8914 b2bd d5a2 87bd
00000230: 2ef9 cbbd 3bb5 a3bc 315f c43d dddc 4ebd
00000240: 198a 9e3d c0f0 77bd 4d36 07ba 4b53 98bb
00000250: 82e1 43bb 52ee 49bd aa57 253c f6c0 05bb
00000260: 0b73 f93c d87d 4bbc 7902 87bc 4a3b 8a3d
00000270: 1b35 07bd 17ac 3abc 7fdc 173d 9231 4b3c
00000280: de64 99bc 5437 26bb b02b 043d d176 ff3c
00000290: 5332 28bc 88fe 0e3c 19d8 0abd 4801 6d3d
000002a0: 8602 803d 5439 ffbc 821c 803d e547 713c
000002b0: 3598 833b 648d dcbc 34d0 5dbc 8599 d2bc
000002c0: f5a1 703d abc9 96bd 3d40 2b3d de8f 0abd
000002d0: 0f26 3abb 2fde c9bc d8ed 3cbd 52a9 fd3b
000002e0: de87 cbbb 9fb0 d53c a124 5f3c f3e3 703d
000002f0: 7855 d3bc ce90 963c 8cf3 20bc dad3 15bd
00000300: af2f 083c f767 d9bc aaaf a83d 44cb de3d
00000310: 7b97 b63c 6a4d 033d 8e50 eb3d ec76 ff3d
00000320: 08c1 b1bd e337 7dbd 113b 4fbd 7a4b 88bc
00000330: 02ce 933d 2a1a a23d 96e7 763d 3af5 90bc
00000340: 11e0 bb3d b16d e13a 2568 d5bb 509c 823d
00000350: 4196 9abd 7681 b9bc 4f62 c9bb 1c2a a83d
00000360: b010 0abd 0e5e 5e3d 4e3c e33d 000b 463d
00000370: 14cb 10bd e4ed 59bd 0281 d83d 8059 fcbd
00000380: e89f b03c e32e 753d dc44 4f3d 4bc0 6f3d
00000390: 7a02 aabd 39e4 22bd b994 3ebd df24 09be
000003a0: 73bd b0bd ddf5 733d a094 e33d 55bb 3f3a
000003b0: a6a6 b3bb 1f4a a13d bbd4 e4bc 2bff f73b
000003c0: e3d5 ef3c 70eb a73d e479 96bd a483 c1bc
000003d0: f684 7b3d 58b4 843d 75b5 ba3c 5d43 843d
000003e0: 8837 a2bc ba0c 433d 5b33 e13c 44b6 fc3c
000003f0: b17a c0bc ef7e 793d 7fb3 a33d 649f 073d
-0.10354736 0.11411407 0.12585591 -0.020787764 -0.047606807 -0.09844784 0.07771403 -0.102182716
0.010169939 0.078323156 -0.028895285 -0.03314724 -0.11225579 -0.017773932 -0.06230096 0.11303126
-0.05431435 -0.019950053 -0.02653347 -0.059266344 0.043898623 0.010655514 -0.099340335 -0.022585731
0.0031719306 0.01361212 -0.13796158 -0.08258614 0.11965374 -0.0946856 0.05000101 -0.115418635
-0.07699288 0.0755952 -0.050849006 0.0028385827 0.06382337 0.025536852 0.039030712 0.023364592
0.07773052 -0.11151698 0.067458525 0.020971455 -0.051217176 -0.036583215 -0.059851553 0.026774013
-0.051885765 -0.036781028 0.03928341 -0.029523194 0.051952224 -0.06867019 0.0611447 -0.05028435
-0.08211057 -0.07101156 -0.026588563 0.09253757 0.022775793 -0.050539296 -0.0725398 -0.036716186
-0.07055442 0.027226213 0.0074431365 0.050085373 0.0089966245 0.024053656 -0.003955187 -0.07934538
-0.0093602855 -0.06550299 -0.02333437 -0.10409497 -0.060504146 0.035312474 -0.003525352 -0.010657562
-0.00328394 0.10147339 0.042337283 -0.0937756 0.040543415 -0.10407948 0.020895602 -0.06934425
0.0889099 -0.1013293 0.06274164 0.0016652382 0.06731963 0.059543476 -0.0034633481 0.092257604
0.0025154985 -0.08103537 0.0701747 0.012305638 0.059544202 -0.06794286 0.038571768 -0.044701785
0.094096474 0.06581573 -0.05592936 -0.07504694 0.028099779 -0.03128045 0.029298427 0.040144462
0.1019358 -0.030394565 0.11029147 0.04165435 -0.04055253 -0.024220543 -0.052347407 -0.0026444676
-0.024095463 -0.06332434 -0.097376905 -0.021733338 -0.0028877181 -0.07815803 0.051494144 -0.048780244
0.06731962 -0.03458486 0.05469675 -0.06610167 0.08952014 0.05087584 -0.033347458 -0.10548095
-0.002449685 -0.010722484 -0.08695323 -0.066228546 -0.09959637 -0.019983878 0.09588469 -0.0505036
0.07741184 -0.06053233 -0.0005157933 -0.004648601 -0.0029889052 -0.049299546 0.0100917015 -0.0020409203
0.030450365 -0.01242014 -0.016480671 0.0674959 -0.03300963 -0.0113935685 0.037075516 0.012401955
-0.018724855 -0.0025362568 0.032268226 0.031184586 -0.0102659045 0.008727677 -0.033897493 0.05786255
0.06250481 -0.031155266 0.062554374 0.014726614 0.004015947 -0.026922889 -0.013538409 -0.02570797
0.058748204 -0.07362684 0.04180931 -0.03382861 -0.0028404032 -0.024642078 -0.046125263 0.007741132
-0.006211265 0.026085196 0.013619573 0.05881114 -0.02579759 0.018379595 -0.009823691 -0.03657899
0.00831215 -0.026538832 0.0823663 0.108786136 0.022289028 0.03205625 0.11489974 0.124738544
-0.08679396 -0.061820876 -0.05059344 -0.016637553 0.07217027 0.07915147 0.06027945 -0.017695058
0.09173597 0.0017198828 -0.006512659 0.063774705 -0.0754819 -0.02264474 -0.0061457525 0.08211157
-0.03370732 0.054288916 0.110954866 0.048350334 -0.03534992 -0.053205386 0.10571481 -0.12321758
0.021560624 0.059859168 0.05060278 0.058532994 -0.083012536 -0.03976843 -0.04652855 -0.13392971
-0.086298846 0.059560645 0.11112332 0.00073139864 -0.0054825125 0.078754656 -0.027933469 0.00756826
0.029276794 0.08199203 -0.073474675 -0.023622341 0.0614061 0.0647971 0.022791604 0.06458161
-0.01980187 0.04761956 0.027490309 0.03084863 -0.023496004 0.06091207 0.079932205 0.03311099

bias f4 [96]
00000000: 660f 84b5 aa3e 3736 b997 ca37 deef a0b7
00000010: 9f95 8837 fc53 98b7 4cb4 4db7 9236 a2b7
00000020: 0c21 41b7 d5d0 5c36 6379 9e37 c9db 2437
00000030: 7d47 abb7 110a a1b7 b1de 79b4 6db3 e136
00000040: 0d6a 31b7 9a88 b5b7 1012 2eb8 3518 8437
00000050: 9aac 0b34 b59e 7937 87a2 ad38 8a0e c137
00000060: a17f 4337 8638 2336 c0cb d5b7 0032 55b6
00000070: 1597 c537 b1fe a0b7 c302 9db7 3525 17b7
00000080: 3bdd 9f37 b104 24b8 a21c a6b7 c471 0e37
00000090: f288 98b7 1fc7 15b7 f83b 9837 1b8f 90b7
000000a0: 7d3c 7437 be57 68b7 a178 32b6 4415 8cb7
000000b0: 05a8 0fb7 9364 e8b6 206e 20b7 4e97 ae37
000000c0: 2b2e 5937 3d33 c0b3 f6bb c132 5058 81b7
000000d0: aba2 14b6 c69f a8b7 1a2e 9cb7 f8eb 74b7
000000e0: 84b7 9cb7 2fe9 7337 93b7 94b7 252d a4b7
000000f0: e9fb 33b7 e463 9cb7 1969 c537 9384 80b7
00000100: 103c 86b6 0c19 83b7 8e51 3bb7 739e 7fb7
00000110: 9184 a3b7 69e1 0db7 58f6 6ab7 4ef6 bb37
00000120: 8c50 b1b7 4a2e 3eb7 d37c 78b7 49b3 25b6
00000130: f7b6 ad36 0d21 6e38 bcb1 a3b7 1d91 8837
00000140: e2e7 a1b6 57af 9c37 ab79 8eb7 9f68 7ab7
00000150: 5458 7b37 b2e1 5837 02f4 3d37 deb1 93b7
00000160: 2970 6fb5 abf4 6eb7 40b8 8fb7 10d6 c2b7
00000170: 37db 08b7 37bf 9eb7 c298 0337 7b95 7d37
-9.839248e-07 2.73056e-06 2.4150928e-05 -1.9185183e-05 1.6282136e-05 -1.815892e-05 -1.2260931e-05 -1.9337316e-05
-1.1511391e-05 3.290411e-06 1.8891593e-05 9.8263345e-06 -2.0418078e-05 -1.9197383e-05 -2.3270947e-07 6.7264104e-06
-1.0574714e-05 -2.1640491e-05 -4.1501655e-05 1.5746898e-05 1.3008176e-07 1.4878508e-05 8.279556e-05 2.3014163e-05
1.1652622e-05 2.4321794e-06 -2.5486457e-05 -3.1768577e-06 2.3554583e-05 -1.9192086e-05 -1.8717144e-05 -9.008964e-06
1.9057296e-05 -3.9105016e-05 -1.9802075e-05 8.490348e-06 -1.8183582e-05 -8.927454e-06 1.8147737e-05 -1.7232776e-05
1.4557617e-05 -1.3848707e-05 -2.6594282e-06 -1.6699203e-05 -8.562584e-06 -6.925847e-06 -9.562384e-06 2.0812873e-05
1.2944957e-05 -8.950017e-08 2.2553632e-08 -1.5419122e-05 -2.2148404e-06 -2.0101561e-05 -1.8618117e-05 -1.4598474e-05
-1.8682105e-05 1.4538221e-05 -1.7728458e-05 -1.9571346e-05 -1.0727884e-05 -1.8643164e-05 2.353317e-05 -1.5320524e-05
-4.0005034e-06 -1.562808e-05 -1.1165057e-05 -1.5236076e-05 -1.9492845e-05 -8.456737e-06 -1.4004843e-05 2.2406832e-05
-2.1137552e-05 -1.133566e-05 -1.4811015e-05 -2.4691274e-06 5.1771017e-06 5.6774403e-05 -1.9513878e-05 1.6280037e-05
-4.8251686e-06 1.8678298e-05 -1.6984375e-05 -1.492552e-05 1.4981331e-05 1.2927152e-05 1.132209e-05 -1.7606591e-05
-8.919765e-07 -1.4242872e-05 -1.7132726e-05 -2.3226283e-05 -8.157272e-06 -1.892411e-05 7.843775e-06 1.5114779e-05

weight f4 [96]
00000000: 884b 453f 42ac 403f 27da 403f c813 353f
00000010: 714d 433f 2677 3c3f 1801 453f d527 3e3f
00000020: ad0d 3c3f 1b05 3c3f 5530 403f 2522 4e3f
00000030: f46e 403f 2681 453f b3b4 383f 24bb 493f
00000040: 3aa8 383f f13b 5b3f b1fb 423f 6276 3c3f
00000050: 2c6f 363f dcd3 343f 317e 4a3f 4c2a 493f
00000060: 2e08 3c3f 7e2c 363f e93c 4d3f 42be 473f
00000070: 241e 4f3f 9473 513f 1008 4a3f 49e7 443f
00000080: 591b 493f 5a6c 403f 0c5f 413f 997a 463f
00000090: 1e92 363f 1d05 3b3f 5cd6 383f 5d85 533f
000000a0: a753 373f 63db 553f cd78 373f 6a0c 363f
000000b0: fffe 453f d248 423f c53f 473f d53d 393f
000000c0: f8a4 473f 3718 3b3f 7166 413f b1ba 3c3f
000000d0: 4dde 333f c576 343f 6a7e 473f 06d8 433f
000000e0: 1708 3a3f f969 3a3f c680 4a3f e291 333f
000000f0: f9c1 3d3f 46d3 333f fa5b 4f3f 1306 353f
00000100: 7043 393f 0c1a 373f a3e7 483f d992 393f
00000110: 29ad 353f 6a81 383f 6cfe 343f b8e5 343f
00000120: ddec 463f 33a0 453f 2085 3b3f eb39 353f
00000130: c216 3d3f 06d7 3e3f 6339 373f 55e5 3b3f
00000140: 1c95 3a3f eaa5 3f3f 99ef 513f 7561 363f
00000150: 1d03 453f 53db 3e3f eed6 423f 064f 373f
00000160: 213e 413f 4aec 403f d20b 483f 5c0a 4c3f
00000170: 5012 343f ad2e 403f 9f67 3b3f ea9c 443f
0.77068377 0.75262845 0.75332874 0.7073331 0.7629004 0.73619306 0.76954794 0.7427953
0.7345837 0.7344529 0.7507375 0.8052085 0.751693 0.7715019 0.72150725 0.7880118
0.72131693 0.8563834 0.761653 0.7361814 0.71263385 0.7063577 0.790988 0.78580165
0.7344998 0.7116164 0.80171067 0.78024685 0.80905366 0.81816983 0.7891855 0.76915413
0.78557354 0.7516533 0.75535655 0.7753082 0.7131671 0.7305468 0.72202086 0.8262537
0.7161202 0.8353788 0.716687 0.7111269 0.7734222 0.75892365 0.7783168 0.72359973
0.779861 0.73083824 0.7554694 0.7372237 0.7026108 0.7049373 0.7792727 0.765015
0.72668594 0.7281795 0.7910274 0.70144475 0.74124104 0.7024425 0.8099972 0.70712394
0.72368526 0.7152412 0.7847845 0.72489697 0.70967346 0.7207247 0.70700717 0.70663023
0.77705175 0.7719757 0.7325001 0.707915 0.7386285 0.7454685 0.7157194 0.7339681
0.7288377 0.7486254 0.8200622 0.7124246 0.76957875 0.7455341 0.76109207 0.71604955
0.75485426 0.7536055 0.78143036 0.7970331 0.7034044 0.7507122 0.7320499 0.7680193

bias f4 [96]
00000000: 01ff 2abc 20cc fc3a 8f80 7e3b ee09 25bc
00000010: 7c40 f63a 3a32 84bc 7f84 233c e1cf 9e3c
00000020: cb9d f3bb bccf c33b cb84 8fba 3d64 cbbc
00000030: 4596 aa3c b4e7 07bc 146f 0f3c 0749 ab3b
00000040: 0aa9 fab9 f3f6 94bb a185 9bbb f180 90bc
00000050: c653 b1bb 5a59 273b b91a 403b 9147 06bc
00000060: 8451 b1bc 5e99 70bb b620 f3bb d8b7 d4bb
00000070: c0ba 91bc ce6d fabb 7630 c73c 219d 64bb
00000080: 4bb1 0e3c 6b81 76ba a485 c438 ba95 22bb
00000090: 8052 05bc 4808 72bc 14e1 90bc a96a 2e3c
000000a0: 92d9 f7bb 756a 0a3c c5b2 3dbb 93a4 33bb
000000b0: bfa8 07bb cbb1 74bc 3fbf 493a b24e 113c
000000c0: 95ca 0e38 cb31 e4bb 456f 233b 922b a7bc
000000d0: 8366 8abb 1ed2 e0bb 4e13 283c 837a 973c
000000e0: 12d4 5dbb 4cff d2bb 6457 d23a 4fa3 b7bb
000000f0: 4bab 643b 9ee6 963c 2cf4 ccbb c3a7 273b
00000100: f558 0f3c c931 1b3b 9f54 0d3c 6ab9 163c
00000110: 624f 69bc 00e6 b13b 4647 b4bb 5c23 3abb
00000120: ff6a 07bc 6402 f13b 186a babb f8d4 a5bb
00000130: 5e53 1dbc f0aa b13c df3b 61bb b254 973b
00000140: 9145 d8bb 8cd7 97bb 04af 1bbb 589b 96bb
00000150: 98f4 e439 c4f6 a2bb 1dd5 8bbb 19dd 003b
00000160: b83d d2b9 c36f 223c 1256 603c 7e59 8739
00000170: 1185 093c ffab 2c3c 4800 7dbc b36d 1bbc
-0.010436774 0.0019286908 0.003883395 -0.010073168 0.0018787528 -0.016137231 0.00998032 0.019386234
-0.007434582 0.0059756916 -0.001094961 -0.02482807 0.020823607 -0.008294988 0.00875451 0.0052272114
-0.0004780966 -0.00454604 -0.0047461544 -0.017639609 -0.005411598 0.0025535435 0.0029312803 -0.008195774
-0.021645315 -0.0036712508 -0.007419671 -0.0064916424 -0.017789245 -0.0076424843 0.0243151 -0.0034883695
0.008709262 -0.000940344 9.370901e-05 -0.0024808482 -0.008137345 -0.014772482 -0.01768545 0.010645547
-0.007563778 0.008448233 -0.0028945666 -0.0027411326 -0.0020699946 -0.014934967 0.00076960394 0.00886886
3.4044107e-05 -0.0069639436 0.0024938148 -0.020406518 -0.004223646 -0.0068609854 0.010258509 0.018491035
-0.0033848328 -0.006439125 0.0016047773 -0.0056041847 0.0034892138 0.018420514 -0.0062546935 0.0025582172
0.008749236 0.0023680797 0.008626132 0.00919948 -0.014240118 0.0054290295 -0.0055016605 -0.0028402423
-0.008265256 0.0073550213 -0.005688917 -0.0050607882 -0.009602396 0.021687955 -0.0034367961 0.0046182508
-0.00660009 -0.0046338495 -0.002375544 -0.004596155 0.00043669785 -0.0049732644 -0.0042673484 0.0019663034
-0.00040100305 0.009914341 0.013692396 0.00025815883 0.008393542 0.010539054 -0.015441962 -0.009486604

running_mean f4 [96]
00000000: 4f43 39be f639 2bbe 5136 debd 6af4 013d
00000010: b359 7e3e 4f11 a63e c22d 0bbd 90c7 8bbd
00000020: 6450 84bd e331 ee3b 98d5 54bd ed47 603e
00000030: 1395 463b ed0c 223e 598d 40be 3f19 4cbe
00000040: 98d1 853d 6d1d a43d 7742 90bd 61db 013e
00000050: b671 94bc 828e ffbc d902 b53d fba2 8e3e
00000060: 7803 883e adeb 0e3d b4ac 793d ee7d 3e3e
00000070: d9ab 473e bf69 afbd a834 c3bd c7b1 f23b
00000080: e365 49bd 0c94 123e 1c11 e93c 4241 bebc
00000090: fc71 a3bb 65f5 41be 1835 343e 57cc 2ebe
000000a0: 0214 783d b85b 57be 8676 27be d472 873a
000000b0: 9203 b3bd d9e8 b93e 8dbb e3bb 709a 58be
000000c0: b24e 31be a5ee 0bbe e105 c63c 7046 963e
000000d0: f108 c0bd e998 19b8 8e72 64be 086f 26be
000000e0: f659 153e c0f9 1c3e 2c7a dc3d 93b5 c5bd
000000f0: e5c8 59bd 6ad4 f1bd 51c9 1b3e e2fd c9bd
00000100: 5715 a93c cb98 80bd ed2c 29be 2fff aebd
00000110: 0dad b63d 730f e3bc 4ceb ae3d 9dd1 a93b
00000120: a390 323d 95d2 3a3e 1ba3 36be 1e9d 82be
00000130: 33d7 873d 231a 5abe df7a e33c 51c8 84be
00000140: ba4a b33c e7cd cb3d ad78 c0bc 7e0d 04bd
00000150: c6f1 87bd 430c eebc 30c8 0dbe 511b 8dbd
00000160: cb81 173e b09f cc3e 6368 913b 2fb1 9dbc
00000170: b683 893c d742 3e3d c808 953d f133 e83c
-0.18092082 -0.16721329 -0.10850204 0.031727232 0.24838905 0.3243508 -0.033979185 -0.06825173
-0.06460646 0.0072691306 -0.05196151 0.21902438 0.0030301258 0.15825243 -0.1880392 -0.19931506
0.065341175 0.08013425 -0.07043927 0.12681343 -0.018120628 -0.031195883 0.08838434 0.2785872
0.26565146 0.034892727 0.06095572 0.18602726 0.19499148 -0.08565091 -0.09531528 0.0074064466
-0.049169432 0.14314288 0.028450541 -0.023224477 -0.004987953 -0.18941267 0.17598379 -0.17070137
0.060565956 -0.21031082 -0.16353807 0.0010333904 -0.08740915 0.3631046 -0.006949848 -0.21152663
-0.17315176 -0.13665254 0.024172725 0.29350615 -0.093767054 -3.662045e-05 -0.22309324 -0.16253293
0.14585099 0.15329647 0.1076549 -0.09653773 -0.053170104 -0.11808093 0.15213515 -0.098628774
0.020640058 -0.06279143 -0.16521044 -0.08544766 0.089197256 -0.027717328 0.08540973 0.0051824586
0.043594968 0.18244393 -0.17835657 -0.25510496 0.06632843 -0.21299033 0.02776855 -0.2593408
0.021886218 0.09951382 -0.023495043 -0.03223943 -0.066379115 -0.029058581 -0.13845897 -0.06889976
0.14795606 0.39965582 0.0044374927 -0.019249527 0.016786437 0.046450462 0.072770655 0.02834508

running_var f4 [96]
00000000: 14ca 443d b829 093d 5fc0 4d3c 8efc 963c
00000010: 5d72 b03d 4a0b 473d 7942 913c 1cfa 173d
00000020: e441 fa3c eee0 f43c c27e 443d 1b4e 0f3d
00000030: 2e57 ec3c cec8 1e3d d83c ef3c 8f3f 343d
00000040: 3b32 1d3d cece 6a3d 1291 273d d941 c23c
00000050: 001a da3c 28bb ca3c d536 153d 2741 2d3d
00000060: 23e4 843d 233d 4c3c ec7f de3c fb85 0a3d
00000070: b1a8 0b3d 5523 e43c 0dfa d43c 6c4c d83c
00000080: 6d8b 0b3d baf2 c13c 4805 883c af0a e33c
00000090: 658b f43b aefb 0c3d 36ea c03c b561 9f3d
000000a0: 36c1 1e3c 20ac 253d ffd5 bd3c 817b 8c3c
000000b0: d249 133d 239d 703d eb37 b93c b83e 513d
000000c0: 4841 443d e6cd 513d ccb7 ee3c fd3a de3c
000000d0: 2152 2c3c 79c8 303c 2100 f53c cb6a c23c
000000e0: 46e9 ca3c 8696 ac3c 4d59 053d 6d03 aa3c
000000f0: 8850 ee3c 11c4 d23c f0c2 ca3c fcab ac3c
00000100: eede c93c ecdc 6e3c 2cc0 343d 7102 c93c
00000110: 060a 4f3c 1113 273c ad77 343c 00c7 463c
00000120: 52d2 f43c 53b3 233d 82a8 0a3d e236 b73c
00000130: 5a14 be3c 6184 423d 9dd5 2b3c 26e4 093d
00000140: 77b2 c63c 49f8 f63c 2caf 923d 1967 383c
00000150: 1d7d 183d 4b24 ba3c d0e8 473c d489 943c
00000160: 6d09 fb3c d3a2 963d d7f1 db3c 17a9 103d
00000170: 3c9c 243c 3654 b03c 03e6 103d 600e a63c
0.04804428 0.03348705 0.012558072 0.018430974 0.08615563 0.04859475 0.017731892 0.037103757
0.030548997 0.029892411 0.04797245 0.034986597 0.028850164 0.03876572 0.029203817 0.044005927
0.03837798 0.05732613 0.040909834 0.02371304 0.026623726 0.024747446 0.036429245 0.042298462
0.06488826 0.012465748 0.027160607 0.03381918 0.034096424 0.027848879 0.02599814 0.026403628
0.034068514 0.023675311 0.01660408 0.027715055 0.007462906 0.034419708 0.02354918 0.07782308
0.00968962 0.040447354 0.02317333 0.017148735 0.035959072 0.058743607 0.022609672 0.051085204
0.04791382 0.05122175 0.029140376 0.027127737 0.010517628 0.010789984 0.029907288 0.023732563
0.024769437 0.021067869 0.032555867 0.020753587 0.029091135 0.025728257 0.024751157 0.021078102
0.024642434 0.014579039 0.044128582 0.024537297 0.012636667 0.010197417 0.011014861 0.012132406
0.029885445 0.03996594 0.033852108 0.022365037 0.023203064 0.047489528 0.010487941 0.033664845
0.02425502 0.030147688 0.07162318 0.011255049 0.037228692 0.022722384 0.012201503 0.018132128
0.030644143 0.07355275 0.026848717 0.035317507 0.010047015 0.02152453 0.035375606 0.020270526

weight f4 [48, 96, 3, 3]
00000000: d58f 5bbb c481 173c f7c4 183b b47b 38bc
00000010: 2ce0 d73b 37f5 2dbc 03ee f5bb 1d67 03bc
00000020: 0268 f2bb a091 b3bb 9f49 67bb 6d39 6f39
00000030: b377 cfbb 652a 9b3b bc90 d53b d064 5bbc
00000040: e725 08ba c8bd 9eba ba12 d6bb 6ffd df3a
00000050: 5af6 123c e1b8 0abb afd6 45bb 277d 88bb
00000060: 46e8 dfba f325 f93b 6197 dd3a 2d5e e6bb
00000070: 5ca4 223b 00d6 27bc 2c7b be39 65e2 efbb
00000080: 43e7 76b9 d5e0 41bb 18b8 443c f4db a4bb
00000090: bb15 16bc 9d2b 56ba 6d8f c83b f69b 9abc
000000a0: 66d8 13bb 7bdc aa3c ae98 943c 27d9 463b
000000b0: 7d46 d23b e695 aebc b49e 203c 0559 f5bb
000000c0: 771e 9d3c 4ffc 813c 3071 053b 4732 87bc
000000d0: 6631 973c 007d 9439 88f5 d93a a636 cfbb
000000e0: be46 6cbb 3323 af3a 9ae8 b7ba aea9 bfba
000000f0: 6266 02bc 5439 073b 4698 cf3b e7fc 3fbc
00000100: 6351 24bc a94e 75bc a1b5 febb b281 8f3b
00000110: 2b91 22bb f52a 8aba 2fe9 a9bb 1a68 d8bb
00000120: 76ba 06bc e419 0139 8c25 9ebb e58f fb3b
00000130: 24de bcba 9c8a 17bc 2cc5 b03b 84fd 033c
00000140: 7bae 26bc c991 34ba 32c5 853c 15e7 5c3c
00000150: d285 d739 ed10 943b bbe9 583c 9b35 8c3a
00000160: 74c4 703c 1e1d 0f3c c054 953b c1ec 10bc
00000170: 4dae 30ba 9660 4bbb 5b1c 2dbc ad37 b5bb
00000180: 5312 463c 1a78 243c 5b7f 03bc f328 69bc
00000190: b7f6 f3ba d97c 083c 8ec1 00bb 470f 9d3a
000001a0: 2d38 6d3c 5891 af3b 15f0 87bc d2e8 683c
000001b0: a83f ca3a b523 433b 25fc d4ba 7002 ffbb
000001c0: b3ac a5bc a248 8a3b 3799 fcbb 448b 5abb
000001d0: 1085 2a3c 230e 6bbc f2c9 7b3c 3d55 05bb
000001e0: 41b5 a8bc 63f2 0abb 4e91 57bc 72eb 473b
000001f0: de1a 3b3b c2fd 48bc 64eb 73bc d7bb 933b
00000200: 62d5 0cbc d12e 3bbb 5174 05bc 786b e2bb
00000210: 920c 39bc b72e b33b 6754 04bb 536c 673c
00000220: 5ab3 15bc b858 31bc b764 663b 3f44 493b
00000230: 8bf0 983a f08b 753b 544c 5abc 3bd7 01bc
00000240: 5444 113c ebcb 483a bcdb 44bb 7590 dd3b
00000250: 6649 18bb 1898 0f3b 200b c4ba 6937 2b3c
00000260: ad0d 933a 3adf a43b e1cc a13c 4141 95bc
00000270: da60 0f3b 1652 aa3c 1419 3d3b c74b df3b
00000280: 6460 423c 085c 3fbc 2e48 21bc 5e2b b9ba
00000290: 433c c93b 97b7 1ebc 875e 373b e986 4fbc
000002a0: a0a3 23bc 0a91 aebb ded7 9b3b 1757 613c
000002b0: ec35 06bc 6270 adbb e778 cd3a 2884 c2bb
000002c0: 4f85 bd3b 65bf 163b d3d4 023c b2ca 9dbb
000002d0: 2b46 48bb 2f38 41bc e5b3 e2bb fbfd 57bb
000002e0: e655 923b d90d aebb 48c8 263c 9bd2 07bb
000002f0: cb82 e2bb e2e9 d1bb 05bc 05bc 84b5 1dbc
00000300: 801c 3d3a 1817 543b 655c d539 99ee e43b
00000310: 2a6d ceba 3fd1 d0bb 89d4 87bc 3750 65bc
00000320: 83d0 6ebc ef39 9bbc 2ce7 82bc 3ab1 92bc
00000330: 0fd7 8dbc 61b1 63bc ce46 9fbc aac2 04bc
00000340: 5d94 873a 2aac 5dbb 59dd 35bc 06da 6b3b
00000350: 5051 3b3c d7b8 a23b 6370 993a 18fe 0dbb
00000360: 6398 74bb 7c22 723a fa25 89bc 3ac8 793c
00000370: 54f6 74bc 783f ff3b 06ae e23b f205 89bc
00000380: 9cfb e9ba c3f4 0bbc b870 89bb 7059 76bc
00000390: 6f0f 69bb 98f8 d2bb 61e3 3cbc 1fbb 3b3c
000003a0: cbde 1f3c 15a6 a83b d066 cfbb b828 0f3b
000003b0: e026 41bc f2d1 0abb eeca c7bb 0b58 b0ba
000003c0: 8d3d 8cbb 3550 97bb e31a 40bb 10f6 06bc
000003d0: 38d2 f238 6147 903c 876e dcbb 1ea3 7cbc
000003e0: a0db 843c 5668 4abc 2e18 8a3c 9462 593b
000003f0: d7d0 8f39 c95a 8e3b dfa0 93bc 5555 c33b
-0.0033502479 0.009247247 0.002331076 -0.011259962 0.0065880027 -0.010617546 -0.00750518 -0.00802019
-0.0073976526 -0.0054800063 -0.0035291684 0.00022814209 -0.006331408 0.0047352784 0.006517498 -0.013390735
-0.0005193636 -0.0012111003 -0.006532994 0.0017089079 0.008969868 -0.0021167325 -0.0030187776 -0.00416531
-0.0017082773 0.007603401 0.0016906076 -0.0070302696 0.0024817204 -0.010243893 0.00036331394 -0.0073206895
-0.0002354654 -0.0029583473 0.012006782 -0.0050311033 -0.009160454 -0.0008169951 0.0061206133 -0.018873196
-0.0022559403 0.020857086 0.01813921 0.0030341835 0.0064170943 -0.021311712 0.009803463 -0.0074874186
0.019179566 0.01586738 0.0020361654 -0.016503466 0.018456172 0.00028321892 0.001662896 -0.0063236533
-0.0036052908 0.0013361931 -0.0014031113 -0.0014622712 -0.00795898 0.0020633535 0.006335291 -0.011718011
-0.01002917 -0.014972367 -0.0077731167 0.0043794746 -0.0024805765 -0.0010541367 -0.0051852684 -0.0066042067
-0.008223167 0.00012312044 -0.0048262533 0.0076770657 -0.0014409465 -0.009249356 0.0053945985 0.008056048
-0.010173435 -0.0006888179 0.016329382 0.013482829 0.000411077 0.0045186193 0.013239319 0.0010697128
0.014695276 0.008734969 0.004557222 -0.008845509 -0.000673984 -0.0031032912 -0.0105658425 -0.0055303187
0.01208933 0.0100384 -0.008025969 -0.014230954 -0.0018612955 0.008330547 -0.0019646618 0.0011982702
0.014478725 0.0053579025 -0.016593972 0.014215665 0.0015430348 0.0029775922 -0.0016249461 -0.007782273
-0.020223951 0.0042200843 -0.0077086943 -0.003334717 0.010407701 -0.014346632 0.015367972 -0.0020344995
-0.020594241 -0.0021201603 -0.013157202 0.0030505327 0.002854995 -0.012267532 -0.0148876645 0.0045084762
-0.008595796 -0.002856184 -0.008145408 -0.006909784 -0.011294501 0.0054682153 -0.002019191 0.014124948
-0.009136999 -0.010824375 0.0035155246 0.0030710844 0.0011668367 0.0037467442 -0.013323862 -0.00792485
0.008866388 0.00076597807 -0.0030038198 0.0067616054 -0.0023237108 0.0021910723 -0.0014956929 0.0104502225
0.0011219286 0.0050314935 0.019751014 -0.018219592 0.0021877796 0.020791095 0.002885406 0.0068144533
0.011863802 -0.011679657 -0.009843869 -0.0014127304 0.006141217 -0.009687326 0.0027979927 -0.012666442
-0.009987742 -0.0053273486 0.004755958 0.013753674 -0.008191567 -0.005292938 0.001567629 -0.0059361644
0.005783714 0.0023002264 0.007985312 -0.004815423 -0.0030559401 -0.01179318 -0.0069184178 -0.003295778
0.0044658063 -0.0053117094 0.010179587 -0.0020724896 -0.0069125644 -0.006406055 -0.008162503 -0.009625796
0.00072140247 0.0032362398 0.00040695365 0.006986451 -0.0015749086 -0.0063726003 -0.016580837 -0.0139961755
-0.01457608 -0.018948523 -0.015979372 -0.017906774 -0.017314462 -0.013897271 -0.019442942 -0.008103052
0.0010343898 -0.0033824542 -0.011100137 0.0035988106 0.011432961 0.0049658823 0.0011706467 -0.0021666344
-0.0037322275 0.0009236706 -0.016741741 0.015245492 -0.014951307 0.0077895485 0.006917718 -0.016726468
-0.0017851475 -0.008542242 -0.0041943453 -0.015035972 -0.0035562178 -0.006438326 -0.011528821 0.011458187
0.009757708 0.0051467516 -0.006329395 0.0021844339 -0.011789054 -0.0021182266 -0.006097189 -0.0013453973
-0.0042797984 -0.0046177157 -0.00293129 -0.008237377 0.000115786155 0.017612161 -0.006727043 -0.01541975
0.016218007 -0.012353977 0.016857233 0.003317033 0.00027430683 0.0043443185 -0.018021045 0.0059611

bias f4 [48]
00000000: 0152 86b7 b2d4 30b7 3146 7eb7 cb34 9bb7
00000010: 556b 57b7 8ab3 aa37 2696 69b7 b01e 4d37
00000020: 4cf0 2636 45c7 4e37 059e 72b7 9bb5 3836
00000030: c176 a137 c0e3 5c37 0919 0237 3023 85b7
00000040: 3f49 99b7 74cf 9db7 69f7 53b7 78fa 95b7
00000050: bf29 6a37 da98 89b7 3bd0 64b7 d02b 7a37
00000060: 8234 ce36 9aed 51b7 8914 e9b6 758a 51b7
00000070: 14fd a137 a823 a0b7 b85a 9237 a7d9 40b6
00000080: 23c7 4637 e778 3137 f0b6 8237 9cb6 55b7
00000090: 1d65 9f37 d5ba 4fb7 c7cd 4934 c103 5cb7
000000a0: aef1 49b7 e103 38b7 2a7d 9db7 195b a737
000000b0: 133f a7b7 84c7 a137 9fbb 9e37 0626 6bb7
-1.601223e-05 -1.05399395e-05 -1.51559225e-05 -1.8502024e-05 -1.2839989e-05 2.0349184e-05 -1.3922841e-05 1.2226097e-05
2.4875799e-06 1.2324953e-05 -1.4461116e-05 2.7523845e-06 1.9247995e-05 1.3166049e-05 7.754433e-06 -1.5871221e-05
-1.827313e-05 -1.8812461e-05 -1.2634185e-05 -1.7878818e-05 1.3957207e-05 -1.640285e-05 -1.3638341e-05 1.4911362e-05
6.145391e-06 -1.2512692e-05 -6.9463317e-06 -1.2489608e-05 1.9310544e-05 -1.909009e-05 1.74468e-05 -2.873692e-06
1.1848085e-05 1.0578172e-05 1.5582395e-05 -1.2738306e-05 1.9001362e-05 -1.2381662e-05 1.8794445e-07 -1.3113896e-05
-1.2036804e-05 -1.0968158e-05 -1.8774143e-05 1.9950372e-05 -1.9937323e-05 1.9285602e-05 1.8922436e-05 -1.40159445e-05

weight f4 [48]
00000000: f782 393f d005 393f c3c5 403f 6e52 4c3f
00000010: 5291 383f 8ff1 5f3f 7d3b 523f 3307 333f
00000020: 440c 3a3f 1986 3e3f 7fbb 383f c59a 443f
00000030: 2ab3 473f 1e35 493f 7d1c 353f 3f6f 463f
00000040: b8b7 4c3f 0772 3a3f caa0 5b3f f175 4b3f
00000050: 7b71 3e3f 2850 493f 48db 463f b3fa 343f
00000060: d8b3 463f c07e 363f 119a 4e3f 85d4 3d3f
00000070: 0bf0 3e3f 22a7 3e3f 4b36 583f 4910 3e3f
00000080: 8d8d 423f f906 3c3f 4a63 463f 60bd 433f
00000090: 68f3 4f3f abca 363f 8fc5 403f 5871 3a3f
000000a0: af60 3d3f 7128 453f bc75 513f c42a 3d3f
000000b0: 61e7 3d3f 043b 403f 1b2b 4b3f 8e29 4f3f
0.7246546 0.72274494 0.7530176 0.7981328 0.7209674 0.87477964 0.8212202 0.6993286
0.72674966 0.74423367 0.72161096 0.7679866 0.7800776 0.78596675 0.70746595 0.775135
0.7996783 0.7283024 0.8579222 0.7947684 0.7439191 0.78637934 0.77678347 0.70695037
0.7761817 0.71287155 0.80703837 0.74152404 0.74585027 0.74473774 0.84457844 0.742436
0.7599724 0.7344814 0.77495253 0.7646084 0.81230783 0.71402997 0.7530145 0.728292
0.7397565 0.77014834 0.81820273 0.7389338 0.7418118 0.7509005 0.7936265 0.8092278

bias f4 [48]
00000000: a2e3 b1bc eecf b7bc 0dff c4ba 252c 8fbd
00000010: afa5 e8ba ee09 58bd 7bbb 0dbd ab10 743b
00000020: 9ea3 9e3b 8d95 54bc 0ba1 57bb 075d 3bbb
00000030: 486a 6a3c ad31 4538 78db e9ba c594 6a3c
00000040: b300 da3b 0643 4ebd 3556 f5ba 7dee b4bb
00000050: 61f4 c7ba 49ac 20bd 103f e6bc 2fa6 7cbc
00000060: ab95 723b 47aa aa3c 2f29 d5bc e7fe b43a
00000070: a75b 7a3a 56b6 93bc 5afa 4b3b aa85 2b3c
00000080: 8f5c b9bd 3947 eabb faec 9ebc 4755 0dbc
00000090: d7de 903b a69c 94bc 5e62 87bc d24f a33b
000000a0: cf82 ac3b f12e f93b 08db 08bd f661 c6bd
000000b0: 4355 2a3d ee03 693a db51 6abd 8a0a eebb
-0.02171499 -0.022438016 -0.0015029624 -0.06990842 -0.0017749573 -0.052743845 -0.034602623 0.003724138
0.004841282 -0.012975109 -0.0032902386 -0.0028589384 0.014307566 4.7014724e-05 -0.0017841896 0.014317696
0.0066529154 -0.050356887 -0.0018717708 -0.005521594 -0.0015255326 -0.039226804 -0.028106242 -0.015420481
0.0037015479 0.020833148 -0.026020614 0.0013808877 0.00095504004 -0.01803128 0.0031124563 0.01046888
-0.09050857 -0.0071496037 -0.019400109 -0.008626289 0.004421096 -0.018141102 -0.016526397 0.0049838806
0.005264617 0.007604473 -0.03341201 -0.09686653 0.04158522 0.000888883 -0.05720697 -0.00726444

running_mean f4 [48]
00000000: 221e 2dbf ed9a 58be 9789 aa3e 07d4 50bf
00000010: 8082 c0bc 2eb1 1fbf e290 a8be b54c 813e
00000020: 8df6 413e aadf a3be 5421 aebd c008 c93d
00000030: c85f b73e 1c67 c1be f808 e93c a2d0 0b3f
00000040: ed3d 31be 1cfe 97be 8aec 043f 5dc5 983d
00000050: 5ed3 993d 725e 0bbf 8214 1cbf 938d 3cbd
00000060: f537 7e3e d03f 7e3e bbed 0bbf 6a3d 0b3e
00000070: c847 9dbe b8c6 e7be 928c ebbd b477 cf3e
00000080: 1bc9 e8bd 7e78 b23d 4ff3 81be 9555 16bf
00000090: 925e 1c3f 507f 66bd 09f4 2c3e 14fa dabc
000000a0: 0329 903d d4b1 553e 7fe4 3dbf a3df 0dbf
000000b0: f56d ed3e 73c2 903e 2b9e 62bf 52d0 c1be
-0.67624104 -0.2115285 0.33308098 -0.8157353 -0.023499727 -0.6237973 -0.32923037 0.25253835
0.18941708 -0.3200658 -0.085024506 0.09816122 0.35815263 -0.3777398 0.02844666 0.54615223
-0.17308779 -0.29686058 0.5192343 0.07459519 0.07511018 -0.5444099 -0.6096879 -0.046033453
0.24826033 0.2482903 -0.5465962 0.13597646 -0.30718827 -0.45268798 -0.11501421 0.40521014
-0.11366483 0.08714388 -0.25380942 -0.5872434 0.610818 -0.05627376 0.16889967 -0.026730575
0.07039072 0.20868617 -0.7417678 -0.5541937 0.46372953 0.28273353 -0.88522595 -0.37854248
