weights/CapeTown.model.weights.pt (torch, 219383 bytes, 42 tensors)

weight f4 [16, 3, 1, 1]
000000 fc 8a 24 be 99 60 d2 3e a3 fd 6a 3e 3b 9f 2d 3c
       -0.16068643 0.41089323 0.22948317 0.0105970455
000010 c4 71 9e bd 18 fc 9a be 18 ff a4 be ff 47 90 be
       -0.07736543 -0.30270457 -0.3222587 -0.2817993
000020 28 e5 ed bd eb 70 bc 3e 14 7e d3 3a 81 6e f6 bd
       -0.11615974 0.368049 0.0016135597 -0.12032796
000030 8d 22 db 3c b8 00 e9 3e ee c2 8b be 69 9f cc be
       0.026749874 0.4550836 -0.27297157 -0.3996537
000040 de c5 11 3f 9a f5 a9 be 2f cf bf be ed 59 7b be
       0.56942546 -0.33195192 -0.37462756 -0.24546023
000050 bf 36 56 3e 07 3e f1 bd 19 eb 69 3e c8 b6 b9 be
       0.20919321 -0.11779409 0.22843589 -0.36272264
000060 4f b9 00 be 2a 27 2c be 14 7f 9a be 7e cc bc bd
       -0.1257069 -0.16811815 -0.30175078 -0.09218691
000070 b6 b9 70 be b5 c9 e1 3e 7c 8d d0 3d 21 5e 15 3e
       -0.23508343 0.44099203 0.10183236 0.14586689
000080 fa a6 a8 3e 84 46 ba be 54 d1 86 be 82 cc 06 be
       0.32939893 -0.36381924 -0.2633158 -0.13163951
000090 1c f1 be be 98 c7 6e 3d 66 30 c1 3e a1 03 d0 3e
       -0.37293327 0.058295816 0.37732238 0.4062777
0000a0 34 96 3a 3e 41 b7 cf 3e fb fc 35 3d aa de 04 3e
       0.1822136 0.405695 0.044430714 0.12975565
0000b0 12 91 95 3e c7 aa 9e 3e 72 86 38 3e 43 e0 41 3e
       0.29212242 0.30989668 0.18020037 0.18933205

bias f4 [16]
000000 a8 db ae 3e ec b5 89 3d 4a 9d 66 be be 8d a0 3e
       0.3415196 0.06724152 -0.22520939 0.3135814
000010 c2 fd 90 3e 78 87 5e 35 b7 fd 83 be 91 75 88 bd
       0.28318602 8.289858e-07 -0.25779507 -0.06663049
000020 75 72 84 be c3 ac 70 3e 4b 39 af 32 0d 8c be 3d
       -0.25868574 0.23503403 2.0398735e-08 0.09304056
000030 5a 48 96 3e 69 dc b3 bc 0a 65 74 b4 50 57 90 3a
       0.29352075 -0.021955686 -2.2761029e-07 0.0011012349

weight f4 [16]
000000 1a 5c 76 3f eb f4 76 3f 10 3e 75 3f 7c ab 7a 3f
       0.96234286 0.96467465 0.95797825 0.97917914
000010 be d8 71 3f eb a6 7b 3f 19 dd 7b 3f a5 8b 7c 3f
       0.9447135 0.9830157 0.98384243 0.9865058
000020 c2 ce 7b 3f dd 33 78 3f 6d d0 7b 3f 33 f5 70 3f
       0.9836236 0.9695414 0.9836491 0.94124144
000030 af 86 7c 3f 46 38 72 3f ba ac 73 3f ce e2 6d 3f
       0.9864301 0.94617116 0.95185435 0.929242

bias f4 [16]
000000 b7 cf ce bb 98 20 9f bc c6 09 22 bc fc e2 ee ba
       -0.0063113826 -0.019424722 -0.0098900255 -0.0018225606
000010 0e 3f 68 3c 28 03 79 bb 96 9d b4 bb 79 19 40 3a
       0.01417519 -0.0037996266 -0.00551195 0.00073280145
000020 30 3a 0d 3b d0 08 50 3c 1b 81 39 3b 4a d2 b0 bc
       0.0021549575 0.012697414 0.0028305713 -0.021584649
000030 fc 49 d0 3c 98 be 99 ba 38 05 f4 38 5c 19 ad 3c
       0.025425903 -0.0011729775 0.00011635799 0.021130256

running_mean f4 [16]
000000 1b b4 65 42 a5 03 2b c2 a6 09 af c2 5b 4a fd 41
       57.425884 -42.75356 -87.518845 31.661306
000010 76 90 e2 41 6b fc 85 c1 6e c8 50 c2 cb ec dd c1
       28.320538 -16.748251 -52.195732 -27.740622
000020 34 5c 8d c2 71 83 27 41 c4 ef 87 42 6b 92 b7 c2
       -70.680084 10.46959 67.96829 -91.78597
000030 86 91 a0 40 31 95 ec 42 6c d1 5a 42 86 22 a3 42
       5.017764 118.29139 54.704514 81.56743

running_var f4 [16]
000000 05 80 44 44 a4 c3 e0 43 d7 15 df 44 72 ff 6d 43
       786.0003 449.52844 1784.6825 237.99783
000010 6e e8 2e 43 6e 29 ad 42 d6 c8 1c 44 01 e2 44 43
       174.90793 86.58092 627.13806 196.88283
000020 28 e8 93 44 b1 27 31 42 a7 69 8a 44 f9 6f f7 44
       1183.2549 44.28876 1107.3016 1979.4991
000030 53 b9 20 42 3c 90 4f 45 81 37 34 44 ce fd c3 44
       40.18098 3321.0146 720.86725 1567.9314

weight f4 [16, 3, 3, 3]
000000 ef bb 02 3e d8 af d6 bb 29 77 22 3d 26 40 35 bd
       0.12767003 -0.006551724 0.03966442 -0.04425063
000010 5f c7 00 3e b6 f3 a9 3d 35 a7 c6 3d 9c 3b b5 3d
       0.12576054 0.08298437 0.09699861 0.0884926
000020 34 2d e6 3d 4a 6e ed bd f9 74 ae bd 5b 2b a0 bd
       0.112390906 -0.115933016 -0.085184045 -0.078207694
000030 23 f1 b5 3d d0 bf 9f 3d 23 3c fb 3d f4 d0 dc 3d
       0.08883884 0.07800257 0.122673295 0.10782042
000040 e7 87 16 3d fc d5 a9 bc 56 77 84 3d bf cb 35 bc
       0.0367507 -0.020731919 0.06468074 -0.01109594
000050 a2 5f be 3d 98 b0 6f 3c 50 7d 09 be 93 e3 a7 3d
       0.09295584 0.014629506 -0.13426709 0.08197703
000060 dd 85 e9 3d 21 2b f6 bd f0 03 3f 3c 15 0e d6 bc
       0.114024855 -0.12019945 0.011658654 -0.026129762
000070 53 a3 be bd 16 0f 07 3e b0 34 a6 bb cd 39 e8 bd
       -0.093084954 0.13189349 -0.005072199 -0.113391496
000080 1c 02 bf 3d e2 cb 24 3d dc e6 5f bd a6 23 1b be
       0.09326574 0.0402335 -0.054663524 -0.15150318
000090 de 3b ef bd c3 a7 af 3c 73 eb 63 bd 9d 90 75 bd
       -0.11681341 0.0214423 -0.055644464 -0.059952367
0000a0 a6 f5 7a 3c 2f 93 a4 bd 87 61 2d be 29 c3 d3 3d
       0.015317356 -0.080358855 -0.16931735 0.10339958
0000b0 83 d5 5d bc f0 33 62 bd ac 2d 86 3c f5 67 93 bd
       -0.013539675 -0.055225313 0.0163792 -0.071975626
0000c0 d6 5e 7e 3d ae 91 75 3c ec 3a 95 bc a7 2c 29 3e
       0.06210216 0.014988346 -0.018216573 0.1652094
0000d0 20 3c b2 3d 2e 05 38 3e 27 23 cc 3d 5f ce 37 bd
       0.08702874 0.17970726 0.09967642 -0.044874545
0000e0 e9 87 47 bb d2 56 94 bd 6f ea 8b bc 40 5a 80 bc
       -0.0030446 -0.07243122 -0.01707956 -0.015668035
0000f0 1a 6c b3 3d fa 38 0e be 24 6e 22 3e e4 17 b0 bd
       0.08760853 -0.13888922 0.15862328 -0.08598307
000100 19 7e 9d 3d ea 51 09 3e 71 e7 e0 bd f3 b9 e1 bd
       0.07690067 0.13410154 -0.10981644 -0.11021795
000110 75 e3 ec 3d 2b 89 9d bc c8 93 3a 3d 17 e7 32 3c
       0.115668215 -0.019230446 0.04555109 0.010919354
000120 cd 3a b9 3d 8a b0 a0 bd ed 37 26 be 65 e7 71 3d
       0.090444185 -0.07846172 -0.16232271 0.059058566
000130 83 54 44 be 5f 84 08 3d 00 41 9c 3d 12 ac 9c bc
       -0.19172864 0.033329364 0.07629585 -0.019125018
000140 b7 36 53 3d c6 e4 1c be a7 db 2f be ed 2b a5 3d
       0.051565852 -0.15321645 -0.17173634 0.08065019
000150 15 92 dc bd aa f5 9d bc b9 c6 16 3e 5e 4a 33 3e
       -0.107700504 -0.01928218 0.14724244 0.17508838
000160 fe 08 fd bd 82 8a 11 bd 3f b3 23 be 9d cf fe 3c
       -0.12355231 -0.035532482 -0.15986346 0.031104857
000170 eb 2f 28 3e f3 fa 11 3e b4 55 32 3e c1 a0 3e bc
       0.16424529 0.14255886 0.17415506 -0.011635006
000180 70 24 35 be 6e 3c 30 be df 23 24 3e 34 d7 2e 3c
       -0.17689681 -0.17210552 0.16029309 0.010671426
000190 cf fa aa bc 6c 32 1e 3e 47 3d 30 3e 51 9b f3 3d
       -0.020871548 0.15448922 0.17210875 0.11894859
0001a0 09 11 36 3e 6a 02 cd bc b0 06 35 3e 30 13 a1 bd
       0.17779936 -0.025025565 0.17678332 -0.07864988
0001b0 70 ff 1c 3c a9 bc fb bc b7 5c 74 3d ab 8b 04 3d
       0.009582385 -0.030729609 0.059658732 0.03235976
0001c0 57 44 9e 3d d8 3a 94 3d 5c 1d e1 3d aa bf 96 3d
       0.077278785 0.07237786 0.10991928 0.07360776
0001d0 f1 0d 81 bd da e9 d0 3d 26 b3 09 3d 24 fa d8 bc
       -0.06301487 0.10200854 0.033618115 -0.026486464
0001e0 4d 2c f9 3d ca fd 7f bd bb 17 f5 3d 14 fd ad 3d
       0.12166653 -0.06249789 0.11967417 0.084955364
0001f0 51 ab 17 3e 3f bb 79 bb d7 96 20 be 10 fc 42 3d
       0.14811446 -0.0038105992 -0.15682541 0.047603667
000200 b7 3f c3 bd ba d6 1f be b2 38 2d bd f1 c6 e6 bd
       -0.09533637 -0.15609255 -0.042290397 -0.11268414
000210 48 4a 73 3d ab ea a4 3d 57 56 cf 3c 4b 05 d0 bd
       0.059397012 0.08052572 0.025309725 -0.101572596
000220 04 30 e6 bd e1 a7 63 bd 81 45 1e be 86 e8 c1 bb
       -0.11239627 -0.055580024 -0.15456201 -0.0059176115
000230 d8 b3 10 be 49 ba 89 3d 99 43 23 bc 9b 39 16 3e
       -0.14131105 0.06724984 -0.009964847 0.14670412
000240 18 28 b6 bd fb c9 ce 3d 0b 89 98 bd 52 a5 28 bd
       -0.08894366 0.100971185 -0.07448014 -0.041173287
000250 24 ea aa bd f7 0b 9f 3c f9 17 3d 3d 2e a4 86 3c
       -0.0834544 0.019414885 0.04616544 0.016435709
000260 d0 0e 2d bc ff a5 80 bd 43 e9 19 3d d2 f9 93 ba
       -0.010562614 -0.06281661 0.03757597 -0.0011289662
000270 c0 d6 81 bd 3c 09 da 3d d1 7d b3 bd ee 83 18 be
       -0.063397884 0.106462926 -0.08764232 -0.14894077
000280 04 58 da 3d 7a fd 06 be 57 d2 3c be 6d d4 0d 3d
       0.10661319 -0.13182631 -0.18439613 0.034626413
000290 28 c5 b6 bd de 5f 25 bd 49 af 36 3e 86 69 5f bd
       -0.08924323 -0.04037463 0.17840303 -0.054543994
0002a0 58 b6 ce 3d 1c 1f cc 3d 0e d7 17 3e e7 5d d2 bd
       0.10093373 0.09966871 0.1482813 -0.10271817
0002b0 77 86 c6 bc de ff ca 3d a1 5e 24 3e 5f d6 18 be
       -0.02423404 0.09912084 0.16051723 -0.14925526
0002c0 46 71 0d 3e bc 06 0d be ac 08 6d bd 8e e3 3d bd
       0.13812742 -0.137721 -0.0578696 -0.04635959
0002d0 be f7 d1 bd 3e 28 1c 3e b5 82 06 3d 08 fe 27 3e
       -0.10252331 0.15249726 0.032839496 0.16405499
0002e0 5f 20 48 3d fd 2c a4 bd cd 87 ef bb 3c 68 c9 3c
       0.048858996 -0.08016393 -0.00730989 0.024585836
0002f0 44 49 04 be e1 86 df 3d fb b9 3d be 56 8a cf 3d
       -0.12918574 0.10914398 -0.18527977 0.10133807
000300 9d 82 43 be 66 c7 7d bd a6 9e 84 3d 95 3a d2 bd
       -0.19092794 -0.06195774 0.06475572 -0.1026508
000310 86 31 3c be 3d 2f 06 3e f3 db 03 bd 82 da 49 3c
       -0.18378267 0.13103957 -0.03219218 0.012320163
000320 8a ac 23 3e df bd 9e bd 78 fd 92 bd b0 a3 10 3e
       0.15983787 -0.07751059 -0.071772516 0.14124942
000330 b8 90 1a 3e ba ee 9a 3d 09 b2 83 3d 2b 07 de bd
       0.15094268 0.07565065 0.06430442 -0.10841211
000340 5e ed 08 3e 04 fd 26 3e 70 87 2f 3a bd 98 4c bd
       0.13371798 0.16307455 0.0006695902 -0.04995035
000350 ff 76 fd bd 8d b3 2e be 8e 14 95 bd 87 4c 8a 3c
       -0.12376212 -0.1706068 -0.07279311 0.016882194
000360 15 54 14 be b1 bf 41 3c 9b b1 40 be ee 0d d1 3d
       -0.144852 0.011825488 -0.18817751 0.10207735
000370 9b 36 01 be 53 65 3b 3e a3 90 0c 3e d8 19 58 3d
       -0.12618487 0.18300371 0.1372705 0.05275902
000380 83 8b 2e 3e ff 78 00 be d3 d5 25 be 03 ba f5 3d
       0.17045407 -0.12546156 -0.16194849 0.119983695
000390 50 15 b8 bd 93 72 c4 3d 23 f7 89 3d 79 7c 94 bc
       -0.0898844 0.09592166 0.06736591 -0.01812576
0003a0 24 4c 13 3e e0 9d 04 be f9 b5 02 be 0d 6f 75 3c
       0.14384514 -0.1295085 -0.1276473 0.01498009
0003b0 5f a9 e2 3b b9 42 fc bc e3 32 97 bd 53 c8 38 be
       0.0069171633 -0.030793535 -0.07382753 -0.18045168
0003c0 95 87 34 bd 7c e5 03 be 9d af 0e bd 03 78 9b 3d
       -0.044074614 -0.1288051 -0.034835447 0.0759125
0003d0 0e 24 34 bd c0 da 05 bd aa d5 3e 3e 2b 17 04 bc
       -0.043979697 -0.03267932 0.18636194 -0.008062164
0003e0 74 cb d3 3d 4e 66 51 3d 46 38 01 be 9c 9a 0b 3e
       0.1034154 0.051122956 -0.12619123 0.13633198
0003f0 f0 e7 4c bd 35 98 9d bd c8 be 19 3e 44 5f df 3d
       -0.05002588 -0.07695047 0.15014184 0.10906842

bias f4 [16]
000000 2c c5 18 31 6b 9c b8 36 94 0a 8f b5 5a 73 88 36
       2.223099e-09 5.5018368e-06 -1.0657409e-06 4.0665445e-06
000010 a2 2f 12 b3 9c 91 20 33 fe 39 b5 bc ce 44 35 bb
       -3.4036596e-08 3.7385334e-08 -0.02212238 -0.002765942
000020 8d 82 2b bc d5 47 03 b4 77 d7 03 35 ac 6d 81 34
       -0.010468137 -1.2226458e-07 4.9114846e-07 2.410792e-07
000030 27 44 1f b2 db 6a 06 3c 8d 2d 48 bc 3b f9 52 bb
       -9.270514e-09 0.008204187 -0.012217891 -0.003219201

weight f4 [16]
000000 d8 68 75 3f 8c af 78 3f 9d 30 6f 3f 7a 4a 77 3f
       0.95863104 0.97142863 0.93433553 0.9659802
000010 2c af 72 3f 34 36 7b 3f b2 4e 68 3f 22 49 73 3f
       0.9479854 0.9812958 0.9074508 0.95033467
000020 8a 96 7b 3f 92 62 6e 3f 59 5a 73 3f 3b f5 7f 3f
       0.9827658 0.93119156 0.95059735 0.99983567
000030 5d 39 6c 3f 03 40 70 3f c7 24 7d 3f b7 b2 79 3f
       0.9227503 0.93847674 0.9888424 0.9753832

bias f4 [16]
000000 61 bf 6e 3b 2f b4 1c bb b8 97 1c 3d 57 0e ec 3b
       0.0036429989 -0.0023911109 0.038230628 0.007203858
000010 66 18 03 3c 02 95 ca bb 10 57 75 bc 34 19 95 3c
       0.0080014225 -0.006182314 -0.014974371 0.018200494
000020 ad 11 11 bc 30 9c 51 3c 0a ab 16 3d db 6f fe ba
       -0.008854312 0.012793586 0.03678421 -0.0019411998
000030 6b fe 09 3d 0c b3 0a 3c 0b 94 33 bb a8 ce 0b bb
       0.033689898 0.00846554 -0.0027401473 -0.0021332894

running_mean f4 [16]
000000 bd d0 d1 42 ec a0 ab c1 07 5d 37 c0 c5 07 8e 42
       104.90769 -21.453575 -2.865053 71.015175
000010 5f e6 81 42 b5 71 ac c2 fe c5 a4 41 5e 59 38 c1
       64.94994 -86.222084 20.596676 -11.521818
000020 13 a3 60 c2 a8 78 93 42 ae 23 ab 41 90 c8 11 c1
       -56.159252 73.73566 21.392422 -9.111465
000030 55 07 b5 3f 6e 45 00 42 ec 1d 82 c2 12 cf b9 c2
       1.4142863 32.067802 -65.05844 -92.904434

running_var f4 [16]
000000 3e 65 19 45 80 08 0d 43 a8 94 88 42 87 86 b1 44
       2454.3276 141.0332 68.290344 1420.204
000010 a8 09 75 44 e0 ce d2 44 b8 ed 11 43 87 8a a9 43
       980.1509 1686.4648 145.92859 339.08224
000020 15 47 5b 44 7e 78 a2 44 ac c7 59 43 a9 92 5c 42
       877.11066 1299.7654 217.77997 55.143223
000030 37 da b9 42 1f 05 bb 43 a7 5d 7e 44 a5 43 ec 44
       92.9262 374.04 1017.4633 1890.1139

weight f4 [16, 3, 5, 5]
000000 27 61 b7 bd ea 9b 15 bd e8 5c 96 3b 0d 8d df 3c
       -0.08954077 -0.036525644 0.004588712 0.027288938
000010 f4 5d 5f 3c 70 0f 2a 3c 74 ad 2f bd b5 8c 8a 3c
       0.01363324 0.010379657 -0.042890027 0.016912797
000020 f1 e6 a9 bd a7 d9 a2 3b eb 4d e5 3b 4a db 86 bb
       -0.08296002 0.004969794 0.006997814 -0.0041154968
000030 24 fb f7 bc 61 87 c1 bd 8f 0f a0 3d c1 95 83 3d
       -0.03027112 -0.094496496 0.078154676 0.06425048
000040 37 0d dd bd a1 b5 da 3d d0 b1 f4 ba 7d f8 4e bd
       -0.10793536 0.10679174 -0.0018668715 -0.050529946
000050 cc 68 fb 3d b5 55 4e bc 1f 6d 2b 3d 2b b0 66 3d
       0.12275848 -0.012593676 0.041852113 0.05632035
000060 3b bc c8 bd 49 7e db bd 70 4a e6 bc 5a 11 94 3d
       -0.09801527 -0.10717446 -0.028111666 0.07229872
000070 ea 4d 84 3d c1 3b b8 bd f2 4b a8 3d ca 74 45 3c
       0.064601734 -0.08995772 0.082176104 0.01205177
000080 54 29 99 bc 21 cd 88 bd 23 5d 13 3d 77 b4 bd 3d
       -0.018696465 -0.0667975 0.035977494 0.092629366
000090 80 25 d9 bd 19 b3 30 bd d0 49 82 bd 37 ac 8c 3d
       -0.10602856 -0.04313955 -0.06361735 0.06868785
0000a0 8d 97 99 3d d0 dc c3 3d c4 ba 2b 3d 53 f2 a4 3a
       0.07499609 0.09563601 0.04192616 0.0012584425
0000b0 15 5e 38 3b a2 d9 dc bc 7d 99 93 bd b0 e3 9e bd
       0.002813225 -0.026959244 -0.0720701 -0.07758272
0000c0 61 b9 15 bc 06 39 84 3d 99 d3 af 3d 97 a1 d7 3a
       -0.009138436 0.06456189 0.08585281 0.0016451356
0000d0 47 c9 62 3c f4 96 1d 3d 4a 49 a1 3c 96 4c e5 bc
       0.013841934 0.03847404 0.019688267 -0.02799062
0000e0 8b 45 b0 bd 83 47 89 bd 68 c4 64 bd f1 3a 92 3d
       -0.08607014 -0.06703093 -0.05585137 0.071401484
0000f0 17 5b 8d bc 55 59 10 bd a7 e6 d9 bd 0d b7 ba 3d
       -0.01725535 -0.035241444 -0.106396966 0.091169454
000100 0f ca 93 3b 72 2b 06 3d ec 52 8c 3c ea 2c be bc
       0.0045101712 0.032756276 0.017129384 -0.023214776
000110 c5 28 8c bd 95 15 1a bd b7 44 fd 3c 66 91 a3 bb
       -0.06843714 -0.03761824 0.030916555 -0.004991698
000120 e7 2a 41 3c 75 c8 97 bd 84 b6 b1 bd 3a 87 ad 3b
       0.011790014 -0.07411281 -0.0867739 0.0052956613
000130 09 71 03 3e 9e 66 96 3d 29 4e b4 bb cd e1 11 3d
       0.12836088 0.073437914 -0.0055024815 0.03561573
000140 4f e5 d5 3d 33 ab 9a 3d ae 38 91 3c 31 b3 50 bc
       0.10444128 0.07552185 0.017727222 -0.012738035
000150 7c d8 ba bb c2 c9 90 3d 64 72 bd bd 38 da 0d 3d
       -0.0057020765 0.07069732 -0.09250334 0.034631938
000160 73 67 af bd 39 55 e8 bd 1a 41 f0 3c 87 90 d4 bd
       -0.08564653 -0.1134438 0.029327918 -0.10379129
000170 2e 77 8e bc d8 b6 5b bd 42 c2 a8 3c fc 17 3c bd
       -0.017390814 -0.05364117 0.020600442 -0.04592131
000180 f3 0b b2 bc a9 c2 a7 bc 68 ba d8 3c 95 a8 03 3d
       -0.021734213 -0.020478563 0.026456073 0.032143194
000190 fa c8 2a bb d8 f5 bb bd d7 c5 93 3d 43 47 af 3c
       -0.0026059733 -0.0917775 0.07215469 0.021396285
0001a0 5c 8d 11 3d 4e 35 a8 3c a1 05 a7 3d 86 11 6a bd
       0.0355352 0.02053323 0.081553705 -0.057145618
0001b0 5e 2b 63 bd 94 db a8 3d 99 d8 a2 bc 68 2d 80 3d
       -0.05546128 0.08245006 -0.019878672 0.062586606
0001c0 d3 ea 9b 3d 8c 3a 46 bd 7c c6 10 3d 57 10 d7 3b
       0.076131485 -0.04839568 0.03534554 0.006563227
0001d0 ec 1e 82 bd cc f4 3f bd 84 2a bf bd 04 a6 df 3c
       -0.06353554 -0.046864316 -0.09334281 0.027300842
0001e0 71 20 0c 3e 47 e3 88 3c db bf 90 3d 45 96 96 bd
       0.1368425 0.016709937 0.070678435 -0.073528804
0001f0 10 cf 0b bb 33 07 1a 3c c7 28 dc bd 06 46 bb bc
       -0.0021333136 0.0094011305 -0.10749965 -0.022860538
000200 ae c3 9d 3d f0 23 bd bd 49 2f c2 3c 19 3b ff bd
       0.077033386 -0.0923537 0.023704188 -0.12462444
000210 83 7b ad 3d 11 1b 90 3d 62 46 8c bc 16 89 17 3d
       0.084708236 0.070364125 -0.017123405 0.03699597
000220 30 bc 6e 3c 0d 44 e8 bd 24 28 cd bc f3 6c e0 bb
       0.014571235 -0.11341105 -0.025043555 -0.0068489253
000230 69 52 5d 3b b2 e7 10 3d 7a 16 bb bd 7e 3c 58 3d
       0.0033771044 0.035377212 -0.091351464 0.052792065
000240 c2 e0 01 bc f9 93 82 3d 05 78 89 3d 0e 7b b1 3d
       -0.007927122 0.0637588 0.06712345 0.08666049
000250 d0 a9 d3 3b 1c 70 27 3d 88 47 de bd 29 cc 9e 3c
       0.006459452 0.0408784 -0.10853487 0.01938446
000260 1d 85 92 3d 53 27 e8 3d f4 cc 9f 3d d4 93 16 bc
       0.071542956 0.113356255 0.078027636 -0.009190518
000270 ad 23 ff 3c fd c2 2b 3d 77 2f bc bb e6 ef 96 3d
       0.031144941 0.041934002 -0.005742963 0.07369976
000280 79 25 d3 3d a8 5e ba 3c d2 45 d6 bd be 51 b7 bd
       0.10309882 0.022750214 -0.10462536 -0.08951138
000290 8c 4e c4 3d c4 eb b7 bd d4 2a 5a bd 3b 89 c5 bd
       0.09585294 -0.089805156 -0.0532635 -0.09645315
0002a0 cc 5c 4d 3c 1f 3a e9 bd fe 55 af 3d 05 8f d8 bd
       0.0125343315 -0.11388039 0.085613236 -0.10574154
0002b0 91 9b ba bd 74 78 a9 bc 42 17 7b 3c 13 92 e7 3d
       -0.09111703 -0.02068732 0.015325369 0.11307158
0002c0 19 74 8d bd f2 a2 96 bd 3a 9e d1 3c dd f8 cc bc
       -0.069069095 -0.07355298 0.025588144 -0.025021011
0002d0 3e 90 8e 3d 83 c8 80 bc ab 74 02 bc 06 89 23 3d
       0.06961106 -0.015720611 -0.007962386 0.039925598
0002e0 4a c1 9e bc 50 53 c4 3d 3e 5e 14 bd dd 84 87 3d
       -0.019379277 0.09586203 -0.03622269 0.066171385
0002f0 0e 48 c1 bd f7 23 74 3d e4 da 99 3c 68 84 83 bd
       -0.094375715 0.05960461 0.018781133 -0.06421739
000300 ee 57 aa bd 39 67 89 bd ef bc 50 3d 06 c1 07 3d
       -0.083175525 -0.06709141 0.05096143 0.033143066
000310 b5 c0 5f bd 47 9e aa 3d a2 b6 d3 bd c9 92 7e bd
       -0.05462714 0.0833097 -0.10337569 -0.062151704
000320 64 32 e6 3d 92 34 bc bd dc f2 88 3d b8 65 88 bd
       0.1124008 -0.091897145 0.06686947 -0.06660026
000330 f0 a9 8b bc 48 c1 34 bd e7 69 cf bd 59 62 9d 3c
       -0.017048806 -0.04412964 -0.10127621 0.019211935
000340 4c 6a 96 bd 94 9d e6 3c 4c df 16 3d 72 4a 74 bd
       -0.07344493 0.028151311 0.036834046 -0.05964131
000350 f1 8c bf bc 3d fe d2 bd 17 1b 8f 3d ef c7 3f 3d
       -0.023382636 -0.10302398 0.06987589 0.04682153
000360 b4 4f 81 bd bd cf ac 3d 9f 9f 98 bd 9c ee 3a 3c
       -0.0631403 0.084380604 -0.0745232 0.011409428
000370 f0 57 98 3d cc cc d0 3d 42 ee a4 3d a3 83 99 3d
       0.07438648 0.10195312 0.080532566 0.07495811
000380 c0 1b 41 3d b8 a5 d4 3d 70 d3 6f bd 21 c0 7d 3d
       0.047145605 0.10383171 -0.058551252 0.061950807
000390 2b 25 73 3d 0a e4 95 3c 90 84 a8 3d ba 40 b0 3d
       0.059361618 0.018297214 0.08228409 0.086060956
0003a0 8d 3d 20 bd c4 24 40 3c 15 e9 b1 3c c6 13 00 bc
       -0.0391212 0.011727516 0.021717587 -0.007817214
0003b0 e6 ce 79 3d be 91 b1 bd cf ac 4d 3d 91 5f 13 3d
       0.06098833 -0.08670376 0.05021363 0.03597981
0003c0 50 c1 f2 3d 91 cb 84 3d f7 c6 df bd 7a 3c 97 3d
       0.11853278 0.0648414 -0.109266214 0.07384582
0003d0 5f a8 71 3d b6 32 d2 3b 0d e6 9c bd 8f ee 70 bc
       0.05899846 0.0064147366 -0.07661066 -0.014705314
0003e0 31 f2 31 bd 9e 34 81 3d 13 ed 24 3d 0b 8e a0 bd
       -0.043443862 0.06308864 0.040265154 -0.078395925
0003f0 7c 62 2b bd 81 6a bb 3d 52 a7 c5 3d 80 a0 0a 3d
       -0.04184197 0.091511734 0.096510544 0.03384447

bias f4 [16]
000000 f3 5f cb b3 32 64 16 b3 78 1e ad 35 82 c6 eb 33
       -9.470377e-08 -3.5015724e-08 1.2898372e-06 1.09791486e-07
000010 bc 16 c4 33 d4 ce fc 32 da a0 c3 b4 a2 58 27 33
       9.1310966e-08 2.9430716e-08 -3.6438615e-07 3.896333e-08
000020 17 ab 41 34 2c 9f 84 33 1f 7d 99 b5 91 48 0e 35
       1.8036768e-07 6.175682e-08 -1.1435803e-06 5.300472e-07
000030 16 a7 83 b4 be 9a 3b 32 36 05 84 33 a0 38 e7 b3
       -2.4522222e-07 1.0920017e-08 6.147677e-08 -1.0767076e-07

weight f4 [16]
000000 06 b1 77 3f 63 b5 78 3f f2 05 79 3f 9d 0a 75 3f
       0.9675449 0.97151774 0.97274697 0.9571932
000010 81 81 74 3f d8 93 7b 3f d9 ee 79 3f 73 6a 82 3f
       0.9551011 0.98272467 0.9763008 1.0188736
000020 c8 28 74 3f d3 17 70 3f aa b4 79 3f 1c b5 7b 3f
       0.9537473 0.9378635 0.97541296 0.98323226
000030 47 ee 7d 3f b0 8a 76 3f 74 69 6b 3f ea b0 7a 3f
       0.9919171 0.9630537 0.91957784 0.979262

bias f4 [16]
000000 d4 f2 c4 ba f3 cf 19 bb fc 63 f4 3a f1 fb 97 3c
       -0.0015025982 -0.0023469895 0.001864552 0.018552752
000010 21 ef 87 bc fe 6b f7 3a 4f e7 71 3a 64 83 79 3c
       -0.016593518 0.0018876789 0.0009227888 0.01522908
000020 98 14 fc bb 9a 44 02 bd 13 7f 45 bc 59 76 ca bb
       -0.0076928847 -0.031803705 -0.012054223 -0.006178659
000030 6f 57 a6 3b 87 ba 19 3c f2 f6 2c bc f8 75 01 3b
       0.005076341 0.0093828505 -0.010556923 0.0019754153

running_mean f4 [16]
000000 b2 fd 28 c2 aa 06 1b 42 63 8c 6f c1 6a c6 9a 42
       -42.24775 38.756508 -14.971774 77.38753
000010 f1 e0 f8 c1 ec d8 24 c2 58 b8 c3 c1 de 0e 6a 40
       -31.109835 -41.211838 -24.465012 3.6571574
000020 77 95 c3 c2 c1 e2 ea 40 fc 05 94 c1 75 44 21 c2
       -97.79192 7.34018 -18.502922 -40.316853
000030 b3 f5 25 c3 8a fd 12 c2 da 4a 66 c1 aa 21 d3 c1
       -165.95976 -36.747597 -14.393274 -26.391438

running_var f4 [16]
000000 86 05 1b 44 70 ff 02 44 cb 82 d5 43 7a 86 b3 44
       620.0863 523.9912 427.02182 1436.2024
000010 64 d1 c1 43 9e 0b 1d 44 d0 bb e5 43 e0 f8 66 43
       387.63586 628.1815 459.4673 230.97217
000020 90 81 09 45 67 e9 9e 43 d1 07 19 44 7d 0f 0f 44
       2200.0977 317.82346 612.12213 572.242
000030 0a bb b0 45 9f 79 e5 43 20 39 f7 43 09 1b e8 43
       5655.38 458.95016 494.4463 464.2112

weight f4 [96, 48, 1, 1]
000000 62 d5 09 bd 46 5d ef 3c 1d 51 40 3c f0 7c 41 3d
       -0.033650763 0.02921928 0.011738089 0.04723829
000010 42 b4 a7 3d 87 d0 5c bc c7 35 74 bd e1 d6 9a bd
       0.08188678 -0.013477451 -0.0596216 -0.07560516
000020 80 fa 26 3c c8 12 d6 bb c1 dc fc bc 99 fc 4f 3d
       0.01019156 -0.0065330006 -0.030866982 0.050778005
000030 60 24 c0 bd 3c 01 ef 3d 38 03 e0 3d 9c 2b 2a bb
       -0.09381938 0.11670157 0.10938114 -0.0025965935
000040 2c f7 d2 bd 3b d2 ac 3d 8d 81 44 bd 95 47 e5 bd
       -0.103010505 0.08438536 -0.04797511 -0.11195294
000050 91 0c 82 3d b7 29 2b bd 3f b1 28 bd 57 79 83 3d
       0.06350053 -0.04178783 -0.04118466 0.06419628
000060 83 fc 89 bd 3d d9 db bb d5 ab 92 bd 17 b5 07 be
       -0.06737616 -0.0067092464 -0.071616806 -0.13252674
000070 05 7e e1 3d 88 43 70 3d 75 f9 47 bd bb d3 99 3d
       0.110103644 0.058658153 -0.048821885 0.075110875
000080 4f bc ee bd 8f a6 ce 3d 2c b3 0c 3e f0 59 94 bd
       -0.11657011 0.10090362 0.13740224 -0.07243717
000090 7c 37 aa 3d c7 d7 07 bc 61 49 94 bd 21 e7 03 3e
       0.08311364 -0.008291191 -0.072405584 0.12881137
0000a0 ec f5 de 3d 2b db 89 bd 89 77 55 bc 25 eb e7 3c
       0.108867496 -0.06731256 -0.013028988 0.028310368
0000b0 f2 6a 8f bd 71 b5 18 3c 73 88 ed 3c 18 92 1b 3d
       -0.0700282 0.009320603 0.028995728 0.037981123
0000c0 95 9d fe 3d c2 aa 3f bd d1 d4 9e 3d e3 8a da bd
       0.124324 -0.046793707 0.07755435 -0.10671022
0000d0 9c 39 99 3c 5a eb dc 3d dd 07 df bc 30 5e a0 3c
       0.018704228 0.10787077 -0.02722543 0.019576162
0000e0 81 7d 17 3c 96 c8 86 3d c5 b3 fb 3c 68 ac 59 bd
       0.009246231 0.065812275 0.03072537 -0.053142935
0000f0 5e 3c 92 bd 05 72 b0 bd 3a b4 9a 3d 3b e8 2c 3d
       -0.071404204 -0.086154975 0.07553907 0.04221366
000100 0f 8e 83 3d 27 6f 77 bd 2f 56 56 bd 59 9a 04 be
       0.0642358 -0.060408738 -0.052328285 -0.12949504
000110 ab dd 71 bd 8e 7b 8c 3c 68 88 58 bd 88 63 9b bc
       -0.05904929 0.01714876 -0.052864462 -0.018968359
000120 9e 92 8f bd 6c 6c 48 3c d0 cf ec 3d f8 26 47 bd
       -0.07010387 0.012232881 0.115630746 -0.048621148
000130 48 65 9c 3c ea a4 02 39 40 76 91 bd 6e 95 cf bd
       0.019091263 0.00012459201 -0.071026325 -0.10135923
000140 f3 9a 06 3d ed 32 ea bd 1d 98 20 be c9 17 40 3c
       0.032862615 -0.114354946 -0.15683027 0.011724421
000150 c9 02 a5 3d 83 8e e7 3d ae ef 03 bd 74 08 4d 3d
       0.08057172 0.11306479 -0.032211 0.05005689
000160 05 e8 a4 bd d0 6a f2 3c 67 03 07 be 61 c3 cc bc
       -0.08052067 0.029591948 -0.13184892 -0.024995508
000170 9b 69 e5 bd 56 de ee bd 55 a7 78 bc 27 9e ce bd
       -0.11201783 -0.11663501 -0.015176614 -0.10088759
000180 0b 90 ac 3c 53 03 09 3e b5 b5 1d 3d 58 c7 48 bd
       0.021064779 0.13380174 0.038503367 -0.049018234
000190 88 02 c6 3d b7 03 15 be ec e6 72 bd 76 d8 01 3e
       0.096684515 -0.14552198 -0.059302256 0.1268023
0001a0 17 25 c9 bd c7 18 d9 3d 43 bb e4 bd 9c e3 a8 3c
       -0.098215275 0.10600429 -0.1116853 0.020616345
0001b0 e2 5f 13 be cf 48 e6 bb 2c df ed 3b 14 3d fa 3b
       -0.14392045 -0.0070277224 0.00725927 0.0076366756
0001c0 51 d9 c3 bd 36 2a 19 bd 20 d4 5c bd ec 45 e2 bd
       -0.09562934 -0.03739377 -0.053913236 -0.11048493
0001d0 32 01 33 3d e7 2c 89 3d ef bd c7 3c 8f 6e 02 be
       0.04370231 0.066980176 0.02438256 -0.12737487
0001e0 fa 32 e2 3d 3c 2c 43 3c 0a ca af bd 92 99 c7 bc
       0.11044879 0.011912402 -0.08583458 -0.02436522
0001f0 df 7d 00 bd 63 51 19 be 6d ee a9 bc 0e a6 af 3d
       -0.03137004 -0.14972453 -0.020743573 0.08576594
000200 a7 5d 96 bd 2d f6 17 be 15 71 3c bd 5e 2d ec 3d
       -0.073420815 -0.14840002 -0.04600628 0.115320906
000210 51 16 7d 3c 2d 97 e3 bd 5c 4c 07 3d 83 16 e8 bd
       0.015447215 -0.11112819 0.033031806 -0.11332419
000220 0d a3 7a bd 72 48 d8 3d 37 25 20 be db aa b5 3c
       -0.061190654 0.10560693 -0.15639196 0.022176197
000230 19 22 39 bd 27 f0 e2 3a 86 de f9 bc a7 a3 bd 3d
       -0.045198534 0.0017314003 -0.030501615 0.0925973
000240 da cd 0e bd 19 52 d3 bd 79 6d 4f bc 2c 8b 64 bd
       -0.034864284 -0.10318393 -0.012660378 -0.055796787
000250 bc 8f 01 be cf 8a f4 bc 9a db 9b bd 06 f3 a5 bd
       -0.12652487 -0.029851345 -0.07610245 -0.08102994
000260 82 bf 77 bb 70 56 6e 3d ff 1d cd bc 1e 82 71 3d
       -0.0037803357 0.058187902 -0.025038717 0.05896198
000270 ab d5 30 3d ac b8 03 be b0 dc be bc 1a 57 94 bd
       0.04317252 -0.12863415 -0.023298591 -0.07243176
000280 fc 7e bc bd 0c 1a 83 bd ad 99 c0 bd 71 20 bf bd
       -0.09203908 -0.064014524 -0.09404311 -0.093323596
000290 55 d4 a9 bd 84 e9 05 be 1c ce 01 be 1f d4 6e bc
       -0.08292452 -0.1307736 -0.1267628 -0.014576941
0002a0 9d 3f b9 bb b5 37 f7 bd 74 9e 0e bd b1 40 ee 3d
       -0.0056533352 -0.12071172 -0.03481908 0.11633433
0002b0 3f c7 1c bd ea 2b 84 3d c3 d9 e8 bd ba 2b 14 3c
       -0.038275953 0.064536884 -0.1136966 0.009043628
0002c0 3b 60 1f bd 52 cd 92 bc 79 8c 5b bd 1d 24 4a 3c
       -0.038910132 -0.01792017 -0.053600762 0.012337712
0002d0 51 c7 fd bb 01 ed 4f 3d 6f 21 06 3e 46 8f 29 3d
       -0.0077447076 0.050763134 0.13098691 0.0413964
0002e0 9e 8d 00 3e 35 44 24 3d a4 e2 fc bc 66 58 03 be
       0.12554023 0.04010411 -0.03086979 -0.1282669
0002f0 a0 0c ac 3d e3 38 c5 3d 98 0e 94 3d 76 7d 0c bd
       0.084008455 0.09629991 0.07229346 -0.034299336
000300 fa 02 27 bd dd f0 a9 bd eb 1d c6 3d 92 2d ab bc
       -0.040774323 -0.08297894 0.09673675 -0.020895753
000310 2a b3 f3 bb 1f 93 aa 3d 59 07 a6 3d 57 3f 50 3d
       -0.0074371295 0.08328842 0.0810687 0.050841656
000320 75 85 3e bd e2 0a 99 bd 2d d3 e8 3c ed f4 cc 3d
       -0.046513993 -0.07472779 0.028421009 0.100076534
000330 d2 26 8b 3c 2b a8 8f 3c e6 cd fa bd 7f 7b 7f 3d
       0.016986284 0.017536243 -0.12246303 0.062373634
000340 f3 d3 22 3d 7d c2 f6 bd ab 2a 87 bd 9b bd 1a 3d
       0.03975291 -0.120488144 -0.06599935 0.037778478
000350 50 8b b5 bd e3 df 06 be b5 46 9f 3d 87 62 d7 3c
       -0.088644624 -0.13171344 0.07777158 0.026292099
000360 ba 94 e4 3c 5a 25 8b 3c db a9 92 3d 49 53 8a 3d
       0.02790295 0.016985584 0.071613036 0.06754167
000370 e4 62 36 bd ff a6 b8 3d bb 56 38 3c 69 b1 f3 3c
       -0.044527903 0.09016227 0.011251147 0.029747682
000380 94 d0 08 be 86 1f 06 be fa 41 01 be 6a 42 dd bd
       -0.13360816 -0.13097963 -0.12622824 -0.10803683
000390 be ec a2 3c 89 31 9f bd 76 d4 fe bd 89 de f7 bd
       0.019888278 -0.0777312 -0.124428675 -0.12102992
0003a0 91 7e b9 bd 34 28 d9 3c 5e c3 c7 bc 67 88 07 3b
       -0.09057344 0.026508428 -0.02438515 0.0020680667
0003b0 45 9d f2 3d 48 00 be 3c 8f 9b b3 3d 5b 4a fa bc
       0.11846403 0.023193493 0.08769905 -0.030553034
0003c0 e9 1b 6d bd 52 34 4a bd 24 02 14 bd 79 05 fa 3c
       -0.057887945 -0.049366303 -0.036134854 0.030520188
0003d0 21 b4 81 bc 6f 31 cb bd 33 25 00 be 8e 5e e5 bd
       -0.015832962 -0.09921538 -0.1251419 -0.111996755
0003e0 1a f8 49 3d 6e b7 44 bc 82 e4 39 bd b8 68 fd bd
       0.049308874 -0.012006624 -0.045383938 -0.12373489
0003f0 a1 22 df 3d 1a b8 25 bd 57 98 9f bd cb 71 30 bd
       0.10895277 -0.040458776 -0.077927284 -0.04307727

bias f4 [96]
000000 b1 3b 00 35 83 46 f4 b4 ed d5 2a 37 63 f5 75 35
       4.777058e-07 -4.5499846e-07 1.0182598e-05 9.1626697e-07
000010 d9 5c be 36 57 5c 10 33 be 8e 63 b4 ef 55 e8 ba
       5.67325e-06 3.3611595e-08 -2.1192952e-07 -0.0017725806
000020 43 40 77 b4 49 68 8a b6 0c 08 2f 35 53 81 69 35
       -2.3027046e-07 -4.124861e-06 6.520429e-07 8.6987455e-07
000030 db 3d 18 33 fb 10 3b b5 b6 95 13 35 12 69 19 b4
       3.5446515e-08 -6.968764e-07 5.4979625e-07 -1.428746e-07
000040 17 bc b6 b6 4a ff ff b9 d2 4b 85 36 20 95 8a b6
       -5.445919e-06 -0.00048827595 3.9725355e-06 -4.130081e-06
000050 14 53 8c 35 a2 d8 3d 3b 4d 93 b9 38 55 37 31 b4
       1.0454992e-06 0.0028968235 8.848924e-05 -1.6504539e-07
000060 8f 67 f7 b3 b1 0f 92 35 a7 2a d7 34 02 c6 48 34
       -1.1520671e-07 1.0882414e-06 4.0077904e-07 1.8698486e-07
000070 13 9b 24 b6 cc d0 15 36 14 65 2e 36 50 69 23 b6
       -2.452817e-06 2.2324266e-06 2.5986856e-06 -2.4350193e-06
000080 0f 29 20 b4 0f e6 34 37 50 5d b6 35 af 7c 68 3b
       -1.4916098e-07 1.0782401e-05 1.3587214e-06 0.0035474708
000090 6d eb 68 b4 a8 be 42 b4 ae 0a 02 35 94 20 3a b6
       -2.1692331e-07 -1.8137018e-07 4.8444315e-07 -2.7735123e-06
0000a0 c1 2a 7d b7 d0 93 34 35 a0 05 08 36 88 53 54 35
       -1.508993e-05 6.727032e-07 2.0268853e-06 7.909771e-07
0000b0 20 9c 4a b6 79 7d 64 bb e0 a9 24 37 46 13 2d b6
       -3.0191222e-06 -0.0034864827 9.814714e-06 -2.5790227e-06
0000c0 06 a7 12 b5 92 db d3 b5 9d 31 e7 36 ac d0 16 37
       -5.463229e-07 -1.5784628e-06 6.890112e-06 8.989282e-06
0000d0 88 1d ac b7 b6 bd 90 35 c0 23 4b 39 21 d3 04 36
       -2.051775e-05 1.0784049e-06 0.00019372907 1.9792426e-06
0000e0 42 90 9c b5 9b e5 10 b3 12 ca 91 ba 18 f1 e9 35
       -1.166489e-06 -3.3736438e-08 -0.0011122844 1.743002e-06
0000f0 65 13 40 36 96 59 43 35 84 24 d9 b4 27 73 1d b6
       2.8621519e-06 7.2773526e-07 -4.0445968e-07 -2.346185e-06
000100 81 b4 31 36 5d 32 2a 36 a6 4c f1 36 76 bc c2 33
       2.6480122e-06 2.536129e-06 7.1912827e-06 9.06811e-08
000110 10 9c 4b b4 0a cc 96 b5 ad 3a 92 b4 25 0d bd b8
       -1.8962623e-07 -1.1235254e-06 -2.7237311e-07 -9.014671e-05
000120 63 93 13 b7 b4 f8 b7 b5 a5 23 29 ba 49 27 ac b7
       -8.796199e-06 -1.3706945e-06 -0.000645215 -2.0522291e-05
000130 9e ca 63 b4 c7 91 62 34 23 c5 30 35 de f1 f0 b6
       -2.1214734e-07 2.1100924e-07 6.585198e-07 -7.1807144e-06
000140 ec 67 50 b5 b6 8e cc 33 07 83 0c 36 0a 0f 72 35
       -7.7637264e-07 9.525449e-08 2.0937894e-06 9.017391e-07
000150 42 fc 72 3b 38 21 8a 36 e6 c2 19 b4 69 3f a1 34
       0.0037076627 4.1165877e-06 -1.4320139e-07 3.0034724e-07
000160 e9 1e 3d b4 53 26 2f 3b cb 1c 36 b6 27 73 a0 39
       -1.7613242e-07 0.0026725724 -2.7136873e-06 0.00030603373
000170 82 4d bd 32 ff d8 eb b3 9f b8 0d b7 e4 d6 ec 33
       2.2037742e-08 -1.09825116e-07 -8.44724e-06 1.1028695e-07

weight f4 [96]
000000 d7 9d 67 3f 7b e8 6e 3f c5 1c 78 3f ae 7d 62 3f
       0.9047522 0.9332349 0.969189 0.8847302
000010 16 5a 6b 3f 5d 7b 60 3f 2b ba 61 3f 17 ba 75 3f
       0.91934335 0.8768824 0.88174695 0.95987076
000020 c1 04 63 3f c9 82 71 3f 9c 27 61 3f bd 80 6f 3f
       0.8867913 0.9434019 0.87951064 0.93555814
000030 7f 8b 6e 3f 8a ff 6e 3f ed 9c 63 3f 40 2b 62 3f
       0.93181604 0.9335867 0.88911325 0.88347244
000040 9d ff 59 3f bc 4b 6d 3f b2 04 67 3f a7 c4 6b 3f
       0.8515566 0.92693686 0.9024154 0.9209694
000050 b9 0c 61 3f ca f1 67 3f b9 4a 71 3f bb f8 77 3f
       0.8791004 0.90603316 0.9425464 0.9686391
000060 a5 60 72 3f 38 98 6d 3f 22 04 62 3f 92 09 71 3f
       0.9467872 0.9281039 0.88287556 0.9415523
000070 fb 2a 74 3f 34 51 62 3f dc 96 61 3f ab ee 64 3f
       0.95378083 0.88405156 0.8812082 0.8942668
000080 8b 2c 71 3f 4a 8c 72 3f 98 5a 5f 3f d3 7d 6d 3f
       0.9420859 0.94745314 0.8724761 0.9277012
000090 38 89 6d 3f 0f 0b 69 3f d2 b9 6d 3f b9 18 6c 3f
       0.92787504 0.910325 0.92861664 0.92225224
0000a0 47 ad 6d 3f c6 f8 5f 3f 39 16 67 3f 70 3d 70 3f
       0.92842525 0.87488973 0.90268284 0.93843746
0000b0 fa 91 68 3f c1 5d 70 3f 92 5a 74 3f 3e fb 64 3f
       0.9084774 0.9389306 0.954507 0.89445865
0000c0 b5 9b 69 3f 1a d0 5a 3f 2d eb 6c 3f 48 fd 6f 3f
       0.91253215 0.8547379 0.9254635 0.9374585
0000d0 26 cc 63 3f 5d 60 68 3f e7 ec 6e 3f c9 ed 64 3f
       0.8898338 0.9077204 0.93330234 0.8942533
0000e0 f6 37 77 3f b8 d6 6d 3f 2a 03 6a 3f ba 48 62 3f
       0.96569765 0.9290576 0.9141108 0.8839222
0000f0 6f a2 67 3f 07 c6 70 3f c7 9f 6e 3f ea 17 5e 3f
       0.9048223 0.94052166 0.9321255 0.8675524
000100 a7 83 66 3f 36 b3 63 3f 60 c2 6e 3f 44 5f 73 3f
       0.90044636 0.8894533 0.9326534 0.9506724
000110 4b 3e 6c 3f cb 01 69 3f 6c 88 73 3f 30 e0 5c 3f
       0.9228255 0.9101836 0.9513004 0.8627958
000120 51 23 72 3f 94 69 6f 3f 0c a1 67 3f a5 04 6a 3f
       0.9458514 0.93520474 0.90480113 0.91413337
000130 ef 26 66 3f 28 39 74 3f 59 a6 73 3f f4 b4 74 3f
       0.8990316 0.95399714 0.951757 0.9558861
000140 4c 65 78 3f 00 fc 66 3f 0d d0 74 3f b1 b0 6f 3f
       0.97029567 0.9022827 0.9562996 0.93628985
000150 20 75 6f 3f 03 f6 5f 3f 87 65 67 3f 75 72 66 3f
       0.93538094 0.8748476 0.90389293 0.900184
000160 5c a2 6c 3f d8 b5 65 3f 22 44 66 3f 63 95 66 3f
       0.9243524 0.89730597 0.8994771 0.90071696
000170 7f b4 69 3f bb 97 66 3f ae 79 5f 3f 90 0e 69 3f
       0.9129104 0.9007527 0.87295043 0.91037846

bias f4 [96]
000000 2a cc 57 b9 68 eb 83 3a 12 a5 ad bb 8a e7 29 bc
       -0.00020580055 0.0010064663 -0.005299219 -0.010370145
000010 e5 04 5e bb 9c 5d 69 bb 5e f1 d8 ba f9 2f 4d bc
       -0.003387743 -0.0035608774 -0.0016551425 -0.012523645
000020 c4 ed 0f bb 14 38 86 ba 27 c7 4b bc c1 fb 3d bc
       -0.0021961788 -0.0010240101 -0.012437618 -0.011595667
000030 b8 e4 8a bc 79 d9 e0 bb fe 5e 9c ba 13 6a 49 bc
       -0.016954765 -0.0068618623 -0.0011930165 -0.0122933565
000040 50 9c be 3c 78 80 f9 bb ed 06 dd 3b 7a 0f 4c bb
       0.023267895 -0.0076141916 0.0067452104 -0.0031137154
000050 27 92 48 bc 1b 03 bc 3b 18 39 23 bb b3 20 88 3b
       -0.012241877 0.005737675 -0.0024905857 0.0041542887
000060 f3 ae 84 bc 5c a4 21 3c 52 1d 43 bc 2f fb 3c bc
       -0.016196704 0.0098658465 -0.011908846 -0.011534496
000070 6f 97 65 bc 5a 74 1c 3b 5d c3 9b 3c 23 c2 47 3b
       -0.014013155 0.0023873062 0.019014055 0.0030480705
000080 c3 8e 3a bc 02 f0 ad bc bf 01 68 bc 76 c6 04 b8
       -0.011386576 -0.021232609 -0.014160573 -3.1656084e-05
000090 4b f0 18 bc 99 83 b0 3b c7 50 af ba 2d 2a 1c 3b
       -0.009334634 0.0053867814 -0.0013375514 0.002382885
0000a0 74 b7 3b 3c d4 ac 89 bb b2 03 f5 ba b3 1f f7 3a
       0.011457313 -0.004201511 -0.0018693118 0.0018854052
0000b0 73 25 83 bb c0 c2 3b 3c b1 77 5c bc 90 87 97 bb
       -0.004002267 0.011460006 -0.013456271 -0.0046243146
0000c0 94 3b 86 bb 0c 1b 5c bc a8 05 cf 3c 38 cb 7e 3b
       -0.0040964577 -0.013434183 0.025271252 0.0038878452
0000d0 6c 61 35 39 c0 5e 5a bb 46 91 6f 3b 57 05 17 bd
       0.00017297798 -0.0033320636 0.0036555096 -0.036870327
0000e0 3f aa 20 bc 98 ba c1 bb cc b5 03 bb fb 94 a9 ba
       -0.009806215 -0.0059121363 -0.0020097373 -0.0012938076
0000f0 fc 9c 8a bb 58 8b c9 3b 87 b9 b2 3b e2 ed 9a 3b
       -0.00423014 0.0061506443 0.0054542455 0.004728065
000100 a6 2f 3f ba bd c4 15 3c d6 ec af bc 1c 73 d0 ba
       -0.0007293172 0.009141144 -0.021475237 -0.0015903446
000110 50 3e 00 bc f8 13 a0 3b 7a e6 0b 3c 43 7f 06 3d
       -0.007827356 0.004885193 0.008538837 0.03283621
000120 48 ae 95 bc ad 42 06 3b 56 31 cf 39 0f 68 0e 3b
       -0.01827158 0.002048652 0.00039518875 0.0021729504
000130 c9 45 34 bb ae af ac bc 31 84 5e bb 79 3c 0f 3b
       -0.0027507416 -0.021079864 -0.0033953304 0.0021856113
000140 f3 e4 26 bc 82 26 b6 bb 08 38 77 3b 25 f0 4a 3c
       -0.010186422 -0.0055587897 0.0037722606 0.0123863565
000150 3c c2 e3 ba 13 3f 6b bb 33 1d 1b 3b 8b 8b 15 bc
       -0.0017376612 -0.003589575 0.0023668527 -0.009127508
000160 40 6a ff bb 2a 98 c2 3b 67 1f 54 3b 44 04 b2 bb
       -0.0077946484 0.0059385495 0.003236735 -0.0054326374
000170 40 6a 3e 3c df 8c ac bb 48 32 dd bb f4 44 cf 3b
       0.011622012 -0.0052658166 -0.0067503788 0.0063253585

running_mean f4 [96]
000000 b7 4b 31 3d 66 42 9b be 4f 2f a0 be e7 f6 d4 be
       0.043285098 -0.30324095 -0.31286094 -0.41594622
000010 1e db 3f be 10 7a 2d be e2 b8 8a bc a2 95 71 bd
       -0.1873593 -0.16941094 -0.016933862 -0.05898059
000020 18 f9 33 3e 18 6f b1 3d 04 ca db be 46 9d af 3e
       0.1757549 0.086637676 -0.42927563 0.34299678
000030 10 f6 7a be 01 cd 16 3d 16 32 e4 bd 95 13 31 3e
       -0.24507928 0.0368166 -0.11142366 0.17292626
000040 d7 39 75 be 36 65 0c 3e 73 14 7f be 6e ea 34 3e
       -0.23947845 0.13710484 -0.24910145 0.17667553
000050 92 fa 03 bd 5f c2 c2 3c 37 76 c5 3e 17 b7 83 3e
       -0.032221384 0.023774324 0.38566753 0.25725624
000060 3e 45 95 3d 65 ea 84 3e f1 37 81 3e a2 5a b8 3e
       0.072885975 0.2596008 0.25237992 0.36006647
000070 c9 df b0 be eb c6 0c 3e 3d 63 fd 3d 9e b2 ee 3c
       -0.34545735 0.13747756 0.12372444 0.029137906
000080 7d e9 d4 3e e4 c3 96 3d ef 40 5e be 01 15 98 3e
       0.41584387 0.07361582 -0.21704458 0.29703525
000090 48 8a e7 bd 3d 96 19 be 0f 10 1c 3d ab 39 78 be
       -0.11305672 -0.14998718 0.038101252 -0.24240749
0000a0 a8 df 4e be 22 a1 38 3c 92 ad 65 3d 9e c4 af 3d
       -0.20202506 0.011268886 0.056073733 0.085824236
0000b0 eb f2 41 be ae 74 67 be ec ae 19 be 9c c3 7a be
       -0.18940322 -0.22603104 -0.15008134 -0.24488682
0000c0 ea 7a 39 3e 17 42 95 bd 7e 99 80 be d9 df 64 be
       0.18113294 -0.07287996 -0.25117105 -0.22351016
0000d0 74 1b a3 bd 8e 25 25 3d 4f 75 61 be 94 fd 80 3c
       -0.07964221 0.040319018 -0.22017406 0.015745915
0000e0 98 0d ab bd cf 8b b3 3c dc 45 32 3d f4 1b 6b be
       -0.08352202 0.021917252 0.043523654 -0.22959882
0000f0 90 3b 6d be 07 d3 c4 be dd b1 be bd 20 4d 9a bd
       -0.23167253 -0.3844225 -0.093112685 -0.07534242
000100 f4 c0 d4 3c 27 60 c7 bc c0 0e 5a be fc 45 8d bc
       0.025970913 -0.024337841 -0.21294689 -0.017245285
000110 e7 dd 89 3d 8f e1 f1 bd 3e 46 20 3e 1f c9 e9 3d
       0.06731778 -0.118106 0.15651795 0.11415314
000120 a1 1e 8c 3e 1b fe 26 3d 7b 4e 04 be d8 7b 35 be
       0.27367118 0.040769678 -0.12920563 -0.17723024
000130 da d9 96 3e 88 88 ba be 98 6d a9 3e c6 46 2d 3c
       0.29463083 -0.3643229 0.33091426 0.010575956
000140 1f 0c 7f 3e 0b 65 be 3e 04 01 6c bd 97 91 33 3e
       0.24906968 0.37186465 -0.057618156 0.17536007
000150 5c 24 45 bd ce 72 94 be d7 ef 2b be 31 f1 98 be
       -0.048130378 -0.2899384 -0.1679071 -0.29871514
000160 b5 c9 e2 ba c0 8c 0d be a8 97 d7 bd 2e a3 8a 3d
       -0.0017302545 -0.13823223 -0.10526973 0.06769405
000170 ca b4 9a 3e 53 7a 9b 3e 1a ad 3f 3e 18 a3 17 3f
       0.30216056 0.30366763 0.18718377 0.59233236

running_var f4 [96]
000000 3f 01 82 3d 3d 11 10 3e d6 7a 8b 3d 8e a7 01 3e
       0.06347894 0.14069076 0.068105385 0.12661573
000010 42 99 0f 3d 7f 88 71 3d 9c 42 9c 3d 14 87 9b 3d
       0.035058267 0.058968063 0.07629892 0.075941235
000020 69 03 42 3d 9b e6 1c 3d ec 75 a3 3d dc 7f 2a 3e
       0.047366533 0.03830586 0.07981476 0.16650337
000030 70 0f af 3d 65 51 b6 3d a8 17 47 3e b4 31 af 3d
       0.08547866 0.089022435 0.19442618 0.08554402
000040 cb 65 52 3d d2 ec 42 3d 8d e8 71 3d 49 05 59 3d
       0.05136661 0.04758913 0.05905967 0.052983556
000050 43 45 3c 3d 86 9e e8 3c ef 23 07 3e be 2a ab 3d
       0.04596449 0.028395902 0.13197301 0.08357762
000060 2b 57 a4 3d a6 5d fa 3d 7e b1 80 3d 73 7b 8d 3d
       0.080244385 0.12224893 0.06283854 0.06908312
000070 82 7f ad 3d 68 4c cf 3d b9 fb 85 3d 18 a6 8d 3d
       0.08471586 0.10121995 0.06542153 0.069164455
000080 9e 9a 1d 3e d2 84 69 3d ba 8a a1 3d 2b b9 6a 3d
       0.15391013 0.057011433 0.07887788 0.057305496
000090 64 fc 60 3d 00 79 b9 3d 19 53 fc 3d d8 6a c6 3d
       0.0549282 0.09056282 0.12320537 0.096883476
0000a0 d8 5b 41 3d d0 01 0b 3e 15 c1 6e 3d 99 16 0b 3e
       0.04720673 0.1357491 0.058289606 0.13582839
0000b0 2b ce 15 3e 28 20 82 3d 95 39 06 3d f5 5d 4e 3d
       0.14629428 0.063537896 0.03276976 0.050382573
0000c0 7d d0 5a 3d 3a 7e 32 3d c9 f6 39 3d b3 78 58 3d
       0.053421486 0.04357741 0.04540137 0.052849483
0000d0 c4 16 a2 3d a7 e0 c5 3d 6c e9 9f 3d d8 ec 63 3d
       0.079144984 0.0966199 0.078081936 0.055645794
0000e0 8a db 82 3d 66 fa d1 3d f7 3a 33 3d 1d 50 85 3d
       0.0638953 0.10252838 0.043757405 0.06509421
0000f0 4d a3 48 3d 6c c2 07 3e cd 39 73 3d b5 1c d0 3d
       0.04898386 0.1325776 0.059381295 0.101617254
000100 86 f8 3b 3d 2a 19 f6 3d bb 92 ae 3d f8 2c 80 3e
       0.045891307 0.120165184 0.0852408 0.25034308
000110 3c 0c b4 3d 84 b9 6b 3d f5 0f 5f 3d d3 0a c5 3d
       0.08791396 0.05754997 0.054458577 0.09621205
000120 aa 32 14 3d 8a 9e 86 3d fd 83 44 3e bf c0 01 3d
       0.03618113 0.06573208 0.19190975 0.031677958
000130 1c 04 56 3d ec ee 97 3d 5b fa 56 3d 3e 39 8a 3d
       0.052250013 0.074186176 0.05248485 0.06749199
000140 a3 ed 30 3d f2 d3 a4 3d 8d 7c fd 3c 8b 6e 93 3d
       0.043195378 0.08048238 0.03094318 0.07198819
000150 e7 3f 3f 3e f9 d0 12 3d 26 7b 66 3d 00 c4 6a 3d
       0.1867672 0.035843823 0.056269787 0.057315826
000160 e0 ba d1 3d fc 2f 99 3d 9b 4e 60 3d 97 52 ee 3d
       0.10240722 0.074798554 0.054762464 0.116368465
000170 ad 94 a4 3d 4b e4 c6 3d 32 28 3f 3d 14 22 0d 3e
       0.0803617 0.09711512 0.046669193 0.13782531

weight f4 [48, 96, 3, 3]
000000 52 02 07 bc 76 55 f6 bb f3 ff 3a 3c 02 47 3c bc
       -0.008240299 -0.007517512 0.011413562 -0.011491539
000010 e9 f3 84 3c 76 85 8a bc 05 c1 fa 3b e3 0e 75 bc
       0.016229587 -0.016909342 0.0076524043 -0.014957163
000020 e1 71 a1 bb 13 36 70 bc 9b 6c 92 3c 6a 1d 31 3c
       -0.0049269055 -0.01466133 0.017874053 0.0108102355
000030 0e 80 24 3c e4 a3 c8 bb 68 5d 82 3c ad 95 86 3c
       0.010040296 -0.006123053 0.01591368 0.016428793
000040 ad 51 13 bc 6f db cb bb 53 92 ca bc 16 66 f5 3b
       -0.008991641 -0.006221227 -0.024727976 0.007488976
000050 18 d2 06 3c 3d 71 5e 3c 3a 18 2e bc 28 b4 4a 3c
       0.008228801 0.013576803 -0.010625893 0.012372054
000060 f8 d6 40 bc 61 eb 99 bb 0b ee 62 3c 08 33 2f bc
       -0.011770003 -0.004697249 0.013850699 -0.010693319
000070 ab 70 52 bc 80 4a ab bb 7d f9 80 3c f2 54 00 bd
       -0.012844245 -0.005227387 0.015743965 -0.03133101
000080 9c 01 2a bb ff 44 9f bc 80 d7 58 3c 6c d3 9c 3a
       -0.00259409 -0.01944208 0.013234973 0.0011964864
000090 f7 b2 15 bc 98 81 a4 3b 69 f2 86 3b 42 99 d2 38
       -0.009136907 0.0050203316 0.004118253 0.00010042127
0000a0 a0 d1 c5 3c d5 b8 fa 3c b7 3d cd bc 65 aa 9f 3c
       0.024147809 0.030605713 -0.025053842 0.01949043
0000b0 27 9d bc 3c 18 7e ee 3b 2b 9b 30 3c 0b ed 8a bb
       0.023024155 0.007278215 0.010779182 -0.0042396835
0000c0 71 76 92 3b 38 42 26 bb b3 fc 86 bc ef 99 12 bc
       0.0044696857 -0.002536906 -0.016477918 -0.008947833
0000d0 6d f8 e7 bb 60 e8 b6 bc df ec ff bb fd 50 86 bb
       -0.007079175 -0.022327602 -0.0078102197 -0.00409901
0000e0 ae 23 6e 3c b6 c1 57 bc 5d 05 60 3c 61 37 ef bc
       0.014534874 -0.013168743 0.013673154 -0.029201211
0000f0 40 5b a0 bb bf 15 40 bb bd 34 3f 3a 51 a2 05 3c
       -0.0048936903 -0.0029309837 0.00072939304 0.008156375
000100 19 34 f2 bb 2b 22 5d bc ea c6 ee 3a 40 ce 22 3a
       -0.0073914644 -0.013496916 0.001821724 0.0006210543
000110 fd 65 6d 3b 16 7b 87 bc f2 73 a3 3a 7f dc 0f 3c
       0.003622412 -0.016538184 0.0012470467 0.008780598
000120 e5 cf a0 bc 25 51 80 3c fe 46 21 bb a7 a8 95 3c
       -0.019630382 0.015663693 -0.0024608965 0.018268896
000130 bd 78 9e 3c 1d 5d 03 3c 01 ed 9b 3b 3c 97 6a 3c
       0.019344682 0.008017805 0.0047584777 0.014318284
000140 eb 90 a7 bc 33 0e c5 3a be 03 ba 3c e1 85 45 bc
       -0.020454844 0.0015034139 0.022706863 -0.012055845
000150 c7 88 a6 3c 33 a4 49 3c d6 01 a7 3b f1 c5 93 bc
       0.020328892 0.012307215 0.0050966544 -0.018038722
000160 f6 78 00 3d c0 56 8c bc 74 f2 97 3b 69 7d ca 3c
       0.031365357 -0.01713121 0.004637057 0.024718003
000170 2f 25 30 bc de d0 d2 bc d9 94 52 3c 07 00 c1 bc
       -0.010751053 -0.025734361 0.012852871 -0.023559583
000180 d4 ac e2 bb 1a b9 af bc 78 9b 25 3b 4f 9a 2b bc
       -0.0069175754 -0.021450568 0.0025269669 -0.010473802
000190 bb 29 98 3c eb 28 2c bc 5a c9 5b 3a 70 7b 85 bc
       0.018574586 -0.0105078025 0.0008384191 -0.016294211
0001a0 98 83 19 3b 44 f2 02 3c d6 30 ba bc 59 45 82 3c
       0.0023424383 0.007992331 -0.022728365 0.015902208
0001b0 07 63 41 3c b6 56 da 3c 05 ab c0 bc 71 76 21 3b
       0.011803395 0.026652675 -0.023519048 0.0024637247
0001c0 a9 6c ac 3c b6 8d 24 bb f1 a3 ff bb 90 fb 14 bc
       0.021047907 -0.002510888 -0.0078015258 -0.00909318
0001d0 be a7 ad bc ff f6 bb 3c 26 b3 20 3c a4 ef a3 bc
       -0.02119815 0.022944925 0.009808337 -0.02001173
0001e0 9a d5 78 3c d8 f3 65 3c ee 92 8b bc 28 75 9e 3b
       0.015187645 0.014035188 -0.017037835 0.0048357435
0001f0 9c 36 78 bc 0d fb 9b bc 71 6f 5a bc 69 b1 50 bc
       -0.015149739 -0.019040609 -0.013332234 -0.01273761
000200 f3 6f 61 bc b2 c3 5e 3c 4a 62 10 bc 4c 5c 68 3c
       -0.013759601 0.013596462 -0.008812496 0.014182162
000210 f2 0f 0c bc 36 15 af bc 34 dd a6 3c 1e 8f 8d bc
       -0.0085487235 -0.021372419 0.02036915 -0.017280158
000220 64 e2 dd bb 12 0e 85 bc 05 96 c4 3c b4 9d 34 bc
       -0.0067713726 -0.01624206 0.023997316 -0.0110239275
000230 1a 5e d1 ba eb bb a3 3c a3 4a 00 3c 67 d0 9d bc
       -0.0015973479 0.019987067 0.007830295 -0.019264413
000240 e5 5a 01 3d 53 2e 1f bb 81 a3 93 3c fd 66 35 3c
       0.031580824 -0.0024289086 0.0180223 0.011071918
000250 7c 30 6e 3a e7 57 3d ba 2d 83 98 bc d4 9d 9e bc
       0.0009086204 -0.00072228763 -0.018617237 -0.019362368
000260 f4 f9 3d bc 9a 07 0a bd d9 6a 4f bc 3f b9 9d bc
       -0.011595238 -0.033698656 -0.012659752 -0.019253371
000270 a5 de b9 bb 71 00 f4 bb c6 89 ca 3c ef 07 a1 3c
       -0.0056722932 -0.0074463417 0.024723899 0.019657103
000280 2e ee 39 bc 76 c4 d0 bc 98 73 90 3c 2e 32 e3 bb
       -0.01134829 -0.025484305 0.017633244 -0.006933472
000290 19 cf d2 3c 15 3a 06 3c 21 a2 7e 3c f7 24 7b bc
       0.025733517 0.008192559 0.015541584 -0.015328637
0002a0 85 f8 0c bb 55 08 83 bc 61 23 b9 ba 73 c3 24 bc
       -0.0021510434 -0.015995184 -0.0014124924 -0.010056364
0002b0 b2 4a a9 bc 3c 7f 73 3c ee d1 b0 bb cc e5 84 3c
       -0.0206655 0.014861878 -0.0053961193 0.016222857
0002c0 a5 de cb bc 8d 1c 56 bc 68 f0 91 3c 90 d7 14 bb
       -0.024886439 -0.0130683305 0.01781483 -0.0022711493
0002d0 16 39 9f bb 76 94 fd 3c a0 43 4e 38 c6 f5 ac bb
       -0.0048591 0.03095458 4.9177208e-05 -0.005278322
0002e0 e1 f3 47 3c cf ac 64 3c dc 76 2c 3a ee e6 cd b9
       0.012204141 0.013957216 0.0006578991 -0.00039272703
0002f0 0d 3a a9 bc f9 7f 84 3c 29 03 be bb 5d 43 a6 3b
       -0.020657564 0.016174303 -0.0057987166 0.0050739483
000300 14 a4 30 3c 1f 0e c4 3c 8f a6 5a 3c b2 c1 e9 bc
       0.010781307 0.023932515 0.013345375 -0.028534744
000310 0e 44 1f bc 40 57 1f 3c e5 8b d1 3b 6f 3c ee 3c
       -0.009720815 0.009725392 0.0063948506 0.029081551
000320 54 6c 6d bc 67 e1 1d bc ee c7 c2 bb 08 76 84 3c
       -0.0144911595 -0.00963626 -0.0059442436 0.016169563
000330 46 ad a9 3c 3a a0 04 3c a1 3c 18 3c a0 8a d5 3c
       0.020712506 0.008094842 0.009291799 0.026067078
000340 a5 c7 34 3c 4e 57 f3 bb e8 b1 12 3d d0 c1 40 3d
       0.011033927 -0.007426179 0.035814196 0.047059834
000350 80 ae 8b 3c 66 4a b7 bb 53 16 cd bc e2 2f 05 3c
       0.017050982 -0.005593586 -0.02503506 0.008129092
000360 db fb 69 bc 40 3f cc bb 00 67 57 3a 33 af 5d bb
       -0.014281238 -0.006233126 0.00082169473 -0.003382635
000370 90 a5 7a bc 5c d9 ff bb 51 b6 98 bb 72 08 de ba
       -0.015298262 -0.0078078937 -0.0046604057 -0.0016939773
000380 fb 27 d5 3c 47 c8 d5 3c 50 24 21 3c 96 8d 69 b9
       0.02602004 0.026096476 0.009835318 -0.00022273356
000390 68 a9 87 3c ed 84 a6 3c 48 5e aa 3b 32 a2 7e 3c
       0.016560271 0.020327056 0.0051992275 0.0155416
0003a0 53 e5 17 bd 32 3e f8 ba 0d 52 bb 3c 4a 46 af 3c
       -0.037083935 -0.0018939434 0.022866273 0.021395821
0003b0 3d b1 d1 3b f5 8e 13 3d 73 fe 82 3a 2f 83 15 bc
       0.0063993023 0.036025006 0.0009994045 -0.009125515
0003c0 f1 f8 96 bc a4 d4 75 3b 4f 00 f6 bc cf 88 a8 bc
       -0.018429251 0.0037510777 -0.030029444 -0.020573048
0003d0 6d ee 66 bb 8a 17 4a 3b 72 0f 0d 3d 13 3f 73 3b
       -0.0035237328 0.0030836784 0.034438558 0.0037116453
0003e0 ca 97 0e bc 91 91 05 3c 91 d4 56 3c 7c e7 94 3b
       -0.0087031815 0.0081523815 0.013112203 0.0045441967
0003f0 28 c0 99 bb e2 57 b8 bb 04 63 a6 bc 62 23 15 3c
       -0.0046920963 -0.005625711 -0.020310886 0.009102674
