weights/CapeTown.model.weights.pt (torch, 219383 bytes, 42 tensors)

weight f4 [16, 3, 1, 1]
000000 eb ef 24 be ad 3d da 3e 81 cf 80 3e 78 4f ba 3b
       -0.16107146 0.4262518 0.25158313 0.005685743
000010 57 65 af bd f1 09 aa be 53 b6 b3 be 61 51 a1 be
       -0.08564251 -0.3321071 -0.3510004 -0.315074
000020 a3 11 02 be 73 82 be 3e e8 8d c8 b7 56 a0 fb bd
       -0.1270204 0.372089 -2.3907938e-05 -0.12286441
000030 9c 62 e3 3c a2 84 ee 3e 0b 14 8e be 05 08 cf be
       0.027756982 0.46585566 -0.27749667 -0.40435806
000040 bf b3 11 3f 6d f2 aa be 9d 5b cf be ec 89 7a be
       0.56914896 -0.3338808 -0.40499583 -0.24466676
000050 c6 11 5e 3e 37 50 ec bd 14 6a 6f 3e f2 2f bc be
       0.21686468 -0.11538737 0.2338031 -0.3675533
000060 5a 14 06 be 38 58 3f be 20 d4 a0 be 42 d8 b9 bd
       -0.13093701 -0.18685997 -0.3141184 -0.09074451
000070 b8 e0 70 be 5d 3c e3 3e ca 3a dc 3d 97 df 22 3e
       -0.23523223 0.4438199 0.107534006 0.15905605
000080 75 73 b1 3e ea 75 cb be a6 36 99 be a2 e2 16 be
       0.346584 -0.397384 -0.29924506 -0.14734891
000090 eb f8 be be 4a 81 70 3d 1d 87 c1 3e 3b 9a d8 3e
       -0.37299284 0.05871705 0.37798396 0.42305169
0000a0 c3 6c 57 3e 3c 74 da 3e 12 df 35 3d 44 b8 0a 3e
       0.21037583 0.42666805 0.04440219 0.13546854
0000b0 c3 b6 9f 3e 8d 8f a7 3e ff 7b 4b 3e b2 90 49 3e
       0.31194124 0.32726708 0.1987152 0.19684103

bias f4 [16]
000000 24 dc c2 3e 8c 2d d4 3d 2d 17 87 be 48 84 b4 3e
       0.3805858 0.1036025 -0.2638487 0.35257173
000010 62 e7 a4 3e c9 26 14 ba 82 da 97 be 62 e0 d2 bd
       0.3220778 -0.00056515314 -0.29658896 -0.10296704
000020 bd 4f 98 be 8a 25 8c 3e 33 d8 58 b9 99 50 05 3e
       -0.29748335 0.2737239 -0.00020679906 0.13019027
000030 a3 36 aa 3e 28 c2 5f bd 13 f6 1c 33 6a 7f b9 3c
       0.3324481 -0.05462852 3.6545384e-08 0.022643764

weight f4 [16]
000000 83 47 77 3f 1c 48 78 3f 1a 50 76 3f 86 4d 7b 3f
       0.96593493 0.9698503 0.96215975 0.98165166
000010 31 ae 76 3f 21 c2 7c 3f 81 5f 7c 3f fb 02 7d 3f
       0.96359545 0.9873372 0.9858323 0.9883267
000020 43 49 7c 3f 4c d9 78 3f 5d a0 7c 3f bc 83 72 3f
       0.9854929 0.9720657 0.98682195 0.9473226
000030 9f ac 7d 3f b1 7f 73 3f f4 cc 75 3f c2 b0 72 3f
       0.99091524 0.95116717 0.9601586 0.9480096

bias f4 [16]
000000 81 22 b7 bb 4b a7 93 bc b1 6f 1a bc f7 1b ec ba
       -0.00558883 -0.018024107 -0.009426043 -0.0018013705
000010 68 86 34 3c cf 88 41 bb a3 a0 a1 bb 31 26 f9 39
       0.011018373 -0.0029531007 -0.0049324795 0.00047521436
000020 3f 00 18 3b 95 78 40 3c 3f 42 24 3b 85 ce ac bc
       0.0023193506 0.011747499 0.00250639 -0.02109457
000030 ba 31 b7 3c 0e ed fa 37 d9 fc 88 b9 5e 32 a9 3c
       0.022362579 2.991271e-05 -0.00026128328 0.0206539

running_mean f4 [16]
000000 20 a3 79 42 66 c4 40 c2 f0 85 c2 c2 b1 2d ff 41
       62.4093 -48.191795 -97.2616 31.89731
000010 19 9e eb 41 a2 35 8e c1 8e b9 5d c2 e4 ba dd c1
       29.452196 -17.776188 -55.431206 -27.716255
000020 e3 a0 97 c2 fe 7e 32 41 17 de 91 42 3f f0 cd c2
       -75.81423 11.156004 72.93377 -102.96923
000030 9c ed a7 40 12 be fe 42 dc d7 68 42 9f 58 af 42
       5.247755 127.37123 58.2108 87.67309

running_var f4 [16]
000000 2e 56 62 44 56 d6 0a 44 0f 42 06 45 08 7e 6c 43
       905.34656 555.349 2148.1287 236.49231
000010 ff be 39 43 ab a2 b8 42 88 37 2d 44 5b 1f 3e 43
       185.74608 92.31771 692.8677 190.12248
000020 4a 7c a5 44 67 7e 3b 42 ec 0f 9b 44 c2 d8 17 45
       1323.884 46.87344 1240.4976 2429.5474
000030 83 17 28 42 c0 4e 6a 45 c1 b8 46 44 bd 67 dc 44
       42.02296 3748.9219 794.8868 1763.2418

weight f4 [16, 3, 3, 3]
000000 2e 38 0c 3e 88 be e1 bb b1 31 31 3d a6 25 3f bd
       0.13693306 -0.006889168 0.04326028 -0.046666764
000010 78 0d 0d 3e 94 6a ae 3d 32 12 e2 3d e7 25 c5 3d
       0.13774669 0.08516422 0.11038627 0.0962637
000020 20 6d f4 3d 26 a6 f9 bd 55 0b b3 bd b9 fd 9f bd
       0.119348764 -0.121898934 -0.08742396 -0.07812066
000030 84 4a cb 3d 45 d8 b1 3d a8 cc 04 3e d9 e9 f6 3d
       0.09926322 0.08683828 0.12968695 0.12056322
000040 9a c8 29 3d 8e bf bd bc c5 01 8c 3d f8 1f 19 bc
       0.041451074 -0.02316263 0.06836275 -0.009346001
000050 3d e2 c9 3d 9b 33 92 3c 27 d7 0d be 6f ca ae 3d
       0.09857605 0.017846873 -0.13851605 0.08534705
000060 8b 9a f9 3d 7d 22 01 be 3d e9 37 3c c5 36 d3 bc
       0.1218768 -0.12610812 0.011225042 -0.025782952
000070 c9 85 be bd 6d b3 07 3e c2 75 65 bb 26 95 e6 bd
       -0.09302861 0.13252039 -0.0035012816 -0.112589166
000080 3b 75 c0 3d 1e 39 28 3d 7e e4 5c bd c8 f0 1a be
       0.0939736 0.041070096 -0.053928845 -0.15130913
000090 56 61 f1 bd 79 0f aa 3c 7f 59 66 bd cb 9f 73 bd
       -0.117861435 0.020759331 -0.056237694 -0.059478562
0000a0 84 38 7e 3c 62 27 a5 bd 6c 83 2d be 50 6c d4 3d
       0.015516404 -0.08064152 -0.16944665 0.103722215
0000b0 7e f0 60 bc 03 74 66 bd ea cc 7e 3c e0 da 94 bd
       -0.013729213 -0.05626298 0.015551785 -0.072683096
0000c0 c1 3f 80 3d e3 73 76 3c 94 87 97 bc 44 73 29 3e
       0.0626216 0.015042278 -0.018497266 0.16547877
0000d0 75 a9 b2 3d 21 0f 38 3e 7b 3f cd 3d 9b fc 36 bd
       0.087237276 0.17974521 0.100218736 -0.044674497
0000e0 62 35 3f bb 24 c6 93 bd 18 76 8a bc 9e 1d 7f bc
       -0.0029176106 -0.07215527 -0.016902015 -0.015571026
0000f0 8b 86 b3 3d ae 51 0e be ec 66 22 3e f0 18 b0 bd
       0.087658964 -0.13898346 0.15859574 -0.085985065
000100 df 6b 9d 3d 93 39 09 3e ad f5 e0 bd 22 fb e1 bd
       0.076865904 0.13400869 -0.10984359 -0.11034228
000110 48 a4 ec 3d 8d 9c 9f bc 6a 52 39 3d f1 a5 2d 3c
       0.11554772 -0.019483829 0.04524461 0.010598646
000120 56 ac b8 3d bc 7d a1 bd 99 ab 26 be 55 a7 70 3d
       0.090172455 -0.0788531 -0.16276397 0.05875333
000130 39 ce 44 be 3e e2 06 3d 19 1d 9b 3d 16 dc a1 bc
       -0.19219293 0.032930605 0.07573909 -0.019758265
000140 2b f7 50 3d 9a 12 1f be a3 1c 33 be f2 63 a7 3d
       0.051016968 -0.1553444 -0.17491393 0.0817336
000150 6e a3 de bd 45 f2 a4 bc d8 6c 19 3e 1e 72 34 3e
       -0.108710155 -0.020135054 0.14982927 0.17621657
000160 df 94 ff bd 2a 11 0d bd c4 f8 25 be 99 b2 f4 3c
       -0.12479567 -0.034440197 -0.16208178 0.029870318
000170 a7 7e 2a 3e 74 9b 13 3e f5 01 34 3e 6f d3 45 bc
       0.16649877 0.1441477 0.17578872 -0.0120743355
000180 e3 c2 36 be 76 aa 32 be d9 c2 26 3e ab 70 12 3c
       -0.17847781 -0.17447838 0.16285266 0.008937995
000190 67 5d cb bc d6 63 1f 3e 5b bf 31 3e 6c 4e f3 3d
       -0.024824811 0.15565428 0.17358153 0.11880192
0001a0 fe b7 38 3e 3e d4 d4 bc 7c d5 35 3e 20 87 a2 bd
       0.18038937 -0.025980111 0.17757219 -0.07935929
0001b0 3a 8a d9 3b 62 9d 01 bd 31 de 71 3d 64 21 fc 3c
       0.0066387923 -0.031644233 0.05904979 0.03077764
0001c0 07 bf 9d 3d ba d0 93 3d f0 2c f4 3d e4 2c b1 3d
       0.07702451 0.07217546 0.11922634 0.0865114
0001d0 41 42 8a bd e7 b9 d4 3d 14 57 0f 3d b1 6f dd bc
       -0.06750918 0.103870206 0.034995154 -0.027030798
0001e0 86 c0 00 3e 20 64 83 bd 05 44 f9 3d 6d d1 bd 3d
       0.12573442 -0.06415582 0.12171177 0.092684604
0001f0 31 11 23 3e 88 d0 7e bb 01 7a 23 be a3 0e 4d 3d
       0.15924527 -0.0038881619 -0.1596451 0.050062787
000200 b2 b6 c4 bd 22 0f 22 be ee 4b 2d bd 50 f4 e7 bd
       -0.09605159 -0.15826085 -0.04230874 -0.11325896
000210 6e 3f 87 3d 92 0e b4 3d 7e 2c e0 3c 72 fb c9 bd
       0.06603895 0.087918416 0.027364966 -0.098624125
000220 45 63 e5 bd fa b1 50 bd c0 ab 23 be ce 5e 3d ba
       -0.11200575 -0.05095098 -0.15983486 -0.0007223905
000230 d5 b7 12 be 3e 9e a0 3d e9 09 6a bb d8 03 20 3e
       -0.14327939 0.07842682 -0.0035711473 0.15626466
000240 52 52 bb bd 46 e6 df 3d fe f9 95 bd 50 f0 3a bd
       -0.09146561 0.10932593 -0.07323073 -0.045639336
000250 52 e5 b1 bd b3 9d a6 3c cc 6e 62 3d b2 19 b4 3c
       -0.086863175 0.020338869 0.055281445 0.021984909
000260 c9 30 c7 bb 3d 04 91 bd a3 4a 0a 3d a1 cc 5d bb
       -0.0060788137 -0.070808865 0.033762585 -0.0033843892
000270 38 cc 96 bd 59 d2 d9 3d 74 ae c7 bd c9 05 21 be
       -0.073631704 0.10635824 -0.09750071 -0.15724863
000280 34 ca e4 3d 00 e6 09 be e0 ff 3b be 9e 2b 17 3d
       0.1117138 -0.13466644 -0.18359327 0.03690683
000290 a9 b1 b9 bd 2e fc 1b bd a8 29 3a 3e 1e 92 5b bd
       -0.09067089 -0.038082294 0.18179953 -0.053606145
0002a0 a3 3e d5 3d 5f 46 d1 3d 5f a9 1d 3e 1f 7e d0 bd
       0.10412338 0.102185 0.15396641 -0.10180306
0002b0 0e da bf bc cb 16 ca 3d 70 37 27 3e 70 99 1a be
       -0.023419406 0.09867629 0.16329741 -0.15097594
0002c0 e4 bf 0e 3e e1 a3 0c be 45 8f 6e bd 58 46 36 bd
       0.13940388 -0.1373439 -0.0582421 -0.04450068
0002d0 93 f3 d0 bd 0a f9 1d 3e 18 88 02 3d cb 62 2a 3e
       -0.10202708 0.15427032 0.03186807 0.16639249
0002e0 fa 21 47 3d ba 7d a5 bd e7 af c6 bb bd 31 cd 3c
       0.048616387 -0.08080621 -0.0060634497 0.025048131
0002f0 91 7c 02 be c3 e9 df 3d 99 22 3e be 3f b6 cf 3d
       -0.12742831 0.109332584 -0.18567885 0.101421826
000300 99 aa 43 be 37 09 7f bd 25 65 84 3d c4 3f d2 bd
       -0.19108047 -0.062264647 0.06464604 -0.102660686
000310 6b 8a 3c be d4 0e 06 3e 80 5e 04 bd 69 d2 44 3c
       -0.18412177 0.13091594 -0.032316685 0.012013056
000320 2b be 23 3e 61 2a 9f bd a1 e9 93 bd d8 83 10 3e
       0.15990512 -0.07771755 -0.072222956 0.14112794
000330 c1 af 1a 3e d0 92 9a 3d bf 27 83 3d 2e 9a de bd
       0.15106107 0.075475335 0.06404065 -0.10869251
000340 b9 b0 08 3e 4c 0d 27 3e 61 38 f3 39 0b 95 4e bd
       0.13348664 0.16313666 0.00046390577 -0.050435107
000350 9a 57 fe bd fa 08 2f be 32 df 95 bd 49 75 87 3c
       -0.124190524 -0.17093268 -0.07317962 0.016535418
000360 0c 62 14 be ca cf 4e 3c ac 9c 40 be 52 f2 d1 3d
       -0.14490527 0.012622783 -0.18809766 0.10251297
000370 be d7 01 be 07 87 3c 3e 85 11 0d 3e dc 7c 5a 3d
       -0.12679955 0.18410884 0.13776214 0.05334173
000380 46 cb 2f 3e 9d 7c 00 be c7 78 26 be 7c 5b fa 3d
       0.17167386 -0.12547536 -0.1625701 0.122244805
000390 79 ca b9 bd d4 ea c5 3d ed f9 8b 3d 47 d6 93 bc
       -0.09071822 0.096639305 0.06834779 -0.018046511
0003a0 29 b4 14 3e 99 72 04 be 4c ea 04 be c4 93 76 3c
       0.1452185 -0.1293434 -0.12980002 0.0150498785
0003b0 58 65 02 3c cd 53 03 bd 14 af 99 bd 67 dd 39 be
       0.007958733 -0.03206234 -0.075040966 -0.18150865
0003c0 b1 28 37 bd fa 7d 04 be a7 d6 0e bd fb 4d 98 3d
       -0.04471654 -0.12938681 -0.034872677 0.074367486
0003d0 fb 13 55 bd cd 09 20 bd c7 54 44 3e 41 7f 7b bc
       -0.052021008 -0.039071847 0.19172965 -0.015350164
0003e0 65 c5 da 3d f5 d8 64 3d 62 50 0b be ae fa 12 3e
       0.10682181 0.05587097 -0.13604882 0.14353439
0003f0 9b eb 70 bd 36 ee b4 bd 05 6c 1d 3e 56 2f e0 3d
       -0.05881844 -0.08834498 0.15373237 0.109465286

bias f4 [16]
000000 40 0b 5d 3a 00 f3 55 3c 7e 47 38 35 45 44 52 3c
       0.00084321573 0.013058424 6.8649376e-07 0.01283366
000010 4e 87 c2 39 90 0a ad bb 49 8f 60 bd 1a a6 df bc
       0.00037103373 -0.0052808 -0.054824147 -0.027300883
000020 bb 97 24 bd e4 b9 e9 b5 12 b9 ec 31 bd 81 3e 3b
       -0.040183764 -1.7413954e-06 6.889544e-09 0.002906903
000030 3d 89 e3 b8 c6 41 17 3d 3d 56 2e bd 19 da e7 bc
       -0.00010849766 0.03692796 -0.042562712 -0.02830224

weight f4 [16]
000000 79 13 77 3f c4 46 7a 3f c6 20 72 3f d1 60 78 3f
       0.9651409 0.9776423 0.9458126 0.9702273
000010 0c 9c 76 3f 2d 52 7c 3f 35 3d 6d 3f 90 1c 75 3f
       0.9633186 0.9856289 0.9267152 0.9574671
000020 60 4d 7c 3f 23 d4 6f 3f 7c 52 77 3f cd 1a 80 3f
       0.98555565 0.9368307 0.96610236 1.0008179
000030 f0 d3 6e 3f 22 9c 72 3f b7 f0 7d 3f 72 9f 7a 3f
       0.9329214 0.9476949 0.99195427 0.97899544

bias f4 [16]
000000 41 ec 90 3b e6 98 ab ba 93 4f 06 3d f9 42 e3 3b
       0.004422695 -0.0013091832 0.03279073 0.006935474
000010 79 22 10 3c 45 76 cd bb c7 20 8c bc 3a 3f 88 3c
       0.008797281 -0.0062702023 -0.017105473 0.016631711
000020 6b 1f 05 bc fd a1 4e 3c 8a 3d f1 3c ca 81 26 bb
       -0.008125166 0.012611863 0.02944829 -0.002540695
000030 28 11 f2 3c 4e d3 1c 3c 4e 83 3b bb c4 be 63 ba
       0.029549196 0.009571863 -0.00286122 -0.0008687789

running_mean f4 [16]
000000 a5 17 ec 42 bc 5d ab c1 3b 2c 57 c0 2c df 8e 42
       118.04618 -21.420769 -3.3620746 71.43588
000010 7c bc 8e 42 46 b4 aa c2 9e 62 c5 41 30 35 42 c1
       71.36813 -85.3521 24.673153 -12.137985
000020 7c f9 61 c2 1d 9d 81 42 41 5c b5 41 13 e9 0e c1
       -56.493637 64.80686 22.670046 -8.931903
000030 f1 46 cc 3f 44 f8 04 42 78 86 82 c2 52 a4 b1 c2
       1.595915 33.242447 -65.262634 -88.82094

running_var f4 [16]
000000 31 cb 3c 45 a7 c7 0c 43 a9 48 8b 42 5f 58 b0 44
       3020.6995 140.77989 69.641914 1410.7616
000010 6c 07 91 44 7b 07 cb 44 0f 9d 38 43 ed 4e ac 43
       1160.2319 1624.2338 184.61351 344.6166
000020 19 0e 59 44 80 87 7e 44 5f e5 65 43 45 f7 5d 42
       868.2203 1018.1172 229.89598 55.491474
000030 df 4e bc 42 ef ba c3 43 a4 29 7b 44 ab 3f d3 44
       94.154045 391.46042 1004.65063 1689.9896

weight f4 [16, 3, 5, 5]
000000 4f ae b6 bd 41 d0 13 bd 9e e0 a5 3b 9d 13 e7 3c
       -0.089199655 -0.03608728 0.005062177 0.028207595
000010 bf c5 64 3c 36 4e 2b 3c fb 21 30 bd 09 ae 88 3c
       0.013963162 0.010455659 -0.043001156 0.016684549
000020 82 73 aa bd 54 dc 98 3b 27 55 e7 3b ec 95 84 bb
       -0.083228126 0.004664937 0.0070597115 -0.0040461924
000030 26 6e f3 bc 98 46 c2 bd d3 59 9f 3d ed 15 84 3d
       -0.029715609 -0.09486121 0.077808045 0.064494945
000040 ee 55 dd bd c4 74 dc 3d 77 41 02 bb ec 9f 50 bd
       -0.108074054 0.10764459 -0.0019875446 -0.050933763
000050 4a ce fb 3d 2d b9 4d bc ee 20 2c 3d 3d 36 65 3d
       0.12295206 -0.012556356 0.04202359 0.05595993
000060 24 a7 c9 bd e3 2d db bd 9d 40 e2 bc ee 73 95 3d
       -0.09846333 -0.107021116 -0.0276187 0.072975025
000070 25 79 86 3d fb e9 b7 bd 23 8b a8 3d 34 c9 47 3c
       0.06566075 -0.08980175 0.08229663 0.012193967
000080 0a 92 9b bc dd 27 89 bd 1c d1 12 3d 94 5f be 3d
       -0.018990535 -0.066970564 0.035843953 0.09295574
000090 7d 65 d9 bd e3 59 2e bd 71 c9 82 bd 6a 04 8c 3d
       -0.106150605 -0.04256619 -0.06386078 0.068367794
0000a0 b6 46 9a 3d 66 87 c4 3d 66 ad 2e 3d 5c 17 95 3a
       0.07533018 0.09596138 0.042645834 0.001137476
0000b0 27 8a 26 3b 73 3c dd bc e6 d6 93 bd 40 52 9f bd
       0.0025411935 -0.027006363 -0.07218723 -0.0777936
0000c0 12 38 24 bc 3d 95 83 3d d3 91 b1 3d 6f 05 27 3b
       -0.010023134 0.06424949 0.08670392 0.0025485416
0000d0 ab 82 71 3c 9b a0 23 3d 56 db a8 3c 6a dd e4 bc
       0.014740626 0.039948087 0.0206124 -0.02793761
0000e0 be 65 b0 bd 95 50 89 bd 81 df 62 bd 1b c1 92 3d
       -0.08613156 -0.06704823 -0.05538893 0.07165738
0000f0 d6 15 8b bc 8d df 0e bd 8c 17 d8 bd 8c 2f bc 3d
       -0.016978186 -0.034881163 -0.10551366 0.09188756
000100 e8 17 8c 3b 29 c3 07 3d 7f 92 8d 3c e0 cc b6 bc
       0.004275311 0.033145104 0.017281769 -0.022314489
000110 1f f1 8b bd e5 d7 19 bd 29 a6 fe 3c 8b 30 9e bb
       -0.068330996 -0.03755941 0.03108509 -0.004827564
000120 24 42 45 3c a3 6c 99 bd 1e 6c b2 bd 13 ba 8e 3b
       0.012039695 -0.07491424 -0.08712028 0.004355678
000130 30 a1 03 3e 8a ef 99 3d fa fe b8 bb dc 99 12 3d
       0.12854457 0.075163916 -0.00564563 0.035791263
000140 7c 25 d7 3d 6e a6 9c 3d 5f 0e 90 3c 95 e5 55 bc
       0.105051965 0.076489314 0.017584978 -0.013055225
000150 ec a8 84 bb 42 54 91 3d 0f 6b bb bd 50 4a 17 3d
       -0.0040484574 0.07096149 -0.09151279 0.036936104
000160 67 98 ae bd 22 fb e6 bd c3 7e 05 3d b4 28 d1 bd
       -0.08525162 -0.112783685 0.032591593 -0.10212842
000170 c2 0d 72 bc c0 af 59 bd 39 b3 ac 3c ea da 46 bd
       -0.014773788 -0.053146124 0.021081554 -0.048548616
000180 c4 a5 a6 bc 90 ad 96 bc 4b af ca 3c f4 b7 f2 3c
       -0.020342715 -0.018393308 0.02474179 0.029628731
000190 b0 61 3e bb bb e4 bd bd 0c 64 96 3d a2 47 ac 3c
       -0.0029049926 -0.092721425 0.07343301 0.021030251
0001a0 f2 50 11 3d d9 8d ac 3c d5 91 a7 3d 92 fb 6d bd
       0.035477586 0.021063732 0.08182112 -0.058101244
0001b0 6b 20 68 bd 8e 11 ab 3d 96 e8 a1 bc e1 15 82 3d
       -0.05667154 0.08352958 -0.019764226 0.06351829
0001c0 fa 0f 9f 3d f5 7b 47 bd b3 fe 11 3d 81 d9 25 3c
       0.07766719 -0.0487022 0.03564329 0.010122658
0001d0 1d 2a 7e bd 42 21 39 bd 5a 15 c0 bd 17 d5 dd 3c
       -0.06205188 -0.045197733 -0.093790725 0.027079148
0001e0 47 64 0d 3e da 26 9b 3c 2e 50 95 3d c9 0c 9b bd
       0.13807784 0.018939424 0.07290684 -0.07570798
0001f0 b5 73 93 bb 9c 52 41 3c 68 0e dc bd 9c bf ac bc
       -0.0044998773 0.011799481 -0.10744935 -0.02108746
000200 13 e4 9e 3d a8 27 bd bd 0f 96 cd 3c 9a 76 00 be
       0.077583455 -0.092360795 0.025095968 -0.12545243
000210 26 7c ab 3d b4 77 8d 3d cb cc 8a bc 49 27 17 3d
       0.08373289 0.06907597 -0.016943356 0.0369027
000220 00 87 68 3c f1 88 e8 bd 42 54 d6 bc cb ba f3 bb
       0.014192343 -0.113542445 -0.026163224 -0.007438039
000230 e3 81 c4 3b 48 f4 12 3d e1 a3 ba bd f9 b5 54 3d
       0.005996929 0.035877496 -0.09113289 0.051931355
000240 21 78 0f bc c7 85 84 3d ab 1e 8d 3d 78 03 b5 3d
       -0.008756668 0.064708285 0.06890615 0.08838552
000250 da a4 9a 3b 81 a7 22 3d 60 89 de bd b3 12 9c 3c
       0.004719359 0.039710525 -0.10866046 0.019051885
000260 e0 95 92 3d ea 64 e8 3d 91 96 9f 3d 65 fd 1a bc
       0.07157493 0.11347373 0.0779239 -0.009459828
000270 25 21 fd 3c 60 ed 2a 3d 63 aa bd bb 8c 00 97 3d
       0.030899594 0.041730285 -0.005788134 0.07373151
000280 b3 61 d3 3d aa a4 ba 3c 9a 29 d6 bd 3b 2f b7 bd
       0.10321369 0.022783596 -0.104571536 -0.08944555
000290 27 fb c3 3d c8 50 b7 bd f9 2f 59 bd ff 18 c5 bd
       0.09569388 -0.08950955 -0.053024266 -0.09623908
0002a0 ce fa 4d 3c 30 bd e9 bd bd 14 b0 3d e7 50 d8 bd
       0.0125720035 -0.11413038 0.085977055 -0.10562306
0002b0 c4 6b ba bd fd ac ab bc 66 14 78 3c 0d 8a e7 3d
       -0.09102586 -0.02095651 0.015141582 0.11305628
0002c0 99 39 8e bd 8d b0 96 bd 29 6d d2 3c 83 ec cd bc
       -0.0694458 -0.07357893 0.025686817 -0.025137192
0002d0 d2 02 8e 3d f8 90 83 bc 92 4f 07 bc 58 35 23 3d
       0.06934132 -0.016060337 -0.008258717 0.039845794
0002e0 85 2a 9f bc 4f 6c c4 3d 86 c6 14 bd cd 92 87 3d
       -0.019429455 0.09590971 -0.03632214 0.06619797
0002f0 c8 63 c1 bd 48 0d 73 3d 25 09 9c 3c 7b 45 83 bd
       -0.0944286 0.059338838 0.01904733 -0.06409737
000300 40 2c aa bd d3 b3 89 bd b2 a2 4f 3d ae c7 08 3d
       -0.08309221 -0.06723752 0.050692268 0.033393554
000310 d8 a0 5f bd 38 b4 aa 3d 85 a4 d4 bd a3 ef 7f bd
       -0.054596752 0.08335155 -0.10382942 -0.062484395
000320 9e 5f e6 3d d2 da bc bd c3 41 89 3d 2a 0d 88 bd
       0.11248706 -0.09221424 0.06701996 -0.06643136
000330 24 cc 8b bc 4c 17 36 bd 14 3b d0 bd a9 1a 9b 3c
       -0.017065115 -0.04445581 -0.10167518 0.018933611
000340 f6 9d 96 bd 55 dc e6 3c 37 ae 16 3d 7e 1a 75 bd
       -0.073543474 0.028181234 0.036787238 -0.059839718
000350 1d 2e c0 bc c0 29 d3 bd 6f 96 8e 3d 74 9c 40 3d
       -0.023459489 -0.103106976 0.06962287 0.047024205
000360 ea 44 81 bd c4 08 ad 3d ff 03 99 bd f9 46 36 3c
       -0.063119724 0.084489375 -0.07471465 0.01112532
000370 9a be 98 3d 9b d6 d0 3d d5 e3 a4 3d 9b b6 98 3d
       0.07458229 0.10197183 0.08051268 0.07456704
000380 5a 1c 40 3d f5 06 df 3d 22 ff 84 bd 3f 09 77 3d
       0.04690204 0.10889999 -0.06493975 0.060311552
000390 ce a1 68 3d c6 47 98 3c 96 09 ad 3d f2 30 b0 3d
       0.056794934 0.018588912 0.08449094 0.086030856
0003a0 07 87 33 bd 9b 4d 58 3c 77 fb b5 3c 7c 89 b9 bb
       -0.043829944 0.013202096 0.022214634 -0.0056621414
0003b0 80 4e 84 3d c3 c8 b2 bd 31 58 65 3d ed ef 02 3d
       0.06460285 -0.087296985 0.05599231 0.031967092
0003c0 6f bd f7 3d 19 25 8c 3d 35 8d e4 bd 6c 18 98 3d
       0.120966785 0.06843013 -0.111597456 0.07426533
0003d0 10 2b 82 3d 5a 58 85 bb 1a 62 9f bd 19 31 6a bc
       0.0635587 -0.00406937 -0.07782383 -0.014293932
0003e0 74 73 33 bd ea b5 87 3d bd 47 32 3d 8a df a9 bd
       -0.043811277 0.06626494 0.043525446 -0.0829459
0003f0 72 c4 37 bd e5 71 b9 3d 07 5c ca 3d 1d 12 10 3d
       -0.04486508 0.09054927 0.09880834 0.035173524

bias f4 [16]
000000 00 b8 09 3b 73 51 81 38 cf 62 a6 31 78 08 1b ba
       0.0021014214 6.1663704e-05 4.842469e-09 -0.00059140427
000010 a8 c5 b3 3b c3 35 82 b2 3d 61 1d 36 30 da 8e b3
       0.005486209 -1.515844e-08 2.3451423e-06 -6.652078e-08
000020 64 b1 8f 31 f0 60 07 bc 78 7d d6 ba e7 cf 30 38
       4.1820147e-09 -0.008262858 -0.0016364297 4.2155294e-05
000030 f2 36 00 b2 a5 76 ff 3b 2e 07 ce 3a 87 91 09 ba
       -7.463074e-09 0.007796126 0.0015718692 -0.00052478205

weight f4 [16]
000000 69 86 78 3f 0c 85 79 3f df 34 7a 3f 5a 65 76 3f
       0.97080094 0.9746864 0.97736925 0.962484
000010 67 eb 76 3f 39 79 7c 3f da 03 7b 3f a9 aa 81 3f
       0.96452945 0.9862247 0.9805275 1.0130206
000020 31 4a 77 3f f7 4b 71 3f 34 d3 7a 3f e2 a5 7c 3f
       0.9659758 0.9425654 0.9797852 0.9869062
000030 04 7a 7e 3f d0 1d 78 3f 6b e8 6f 3f ee b4 7b 3f
       0.9940493 0.9692049 0.93714017 0.9832295

bias f4 [16]
000000 40 46 50 ba 75 ed 75 bb d2 c0 31 3b 55 13 55 3c
       -0.00079450384 -0.0037525569 0.0027122987 0.013005097
000010 02 6f 74 bc 7d 69 c7 3a b9 47 d5 b9 d0 6b 74 3c
       -0.014919044 0.0015213933 -0.00040679963 0.014918283
000020 c9 63 c7 bb 90 23 f5 bc ec a1 27 bc 24 30 a8 bb
       -0.0060848934 -0.029924184 -0.010231476 -0.005132692
000030 97 ac a7 3b f0 64 b0 3b bd 85 23 bc ad 63 2c 3a
       0.00511701 0.0053831264 -0.009980616 0.0006576132

running_mean f4 [16]
000000 aa fd 22 c2 0d d7 25 42 a0 66 77 c1 90 7d a6 42
       -40.74772 41.46001 -15.462555 83.24524
000010 60 13 02 c2 64 80 27 c2 11 cd c6 c1 de 19 b4 40
       -32.51892 -41.87538 -24.85013 5.6281576
000020 b9 19 c2 c2 ef bc e0 3f 42 b7 90 c1 7f b4 2c c2
       -97.05024 1.7557658 -18.089481 -43.176266
000030 6f e3 24 c3 0b 68 15 c2 01 d4 94 c1 90 4f d1 c1
       -164.88841 -37.351604 -18.603518 -26.163849

running_var f4 [16]
000000 c6 3b 13 44 b6 30 0d 44 63 32 d9 43 17 c6 c8 44
       588.93396 564.7611 434.39365 1606.1903
000010 f1 39 ca 43 55 da 1d 44 93 d6 e8 43 c8 30 66 43
       404.45267 631.41144 465.67636 230.19055
000020 51 53 03 45 6f b5 9c 43 f8 5b 19 44 9a f6 18 44
       2101.2073 313.41745 613.437 611.85315
000030 03 ff a9 45 ee 82 e7 43 26 35 04 44 d5 56 e8 43
       5439.8765 463.0229 528.83044 464.67838

weight f4 [96, 48, 1, 1]
000000 04 98 08 bd dc 20 f5 3c 6d 32 47 3c be 24 47 3d
       -0.0333481 0.029922895 0.012158019 0.048619024
000010 3f 31 ac 3d e5 49 51 bc d7 7d 75 bd a9 aa 9a bd
       0.084078304 -0.0127739655 -0.059934463 -0.07552082
000020 db a9 2d 3c 3b 8b 9a bb 34 df f8 bc 52 9c 53 3d
       0.010599579 -0.0047163046 -0.030379869 0.05166275
000030 6b f6 c0 bd 70 bf f3 3d ce 3c e4 3d 60 fb dd ba
       -0.094220005 0.11901748 0.1114441 -0.0016935878
000040 cd dd d2 bd 9c a1 b5 3d 20 b0 3a bd aa 6d e6 bd
       -0.102962114 0.08868715 -0.045578122 -0.112513855
000050 f5 17 87 3d 32 5c 2b bd 51 7c 2c bd 88 5d 82 3d
       0.06596366 -0.04183597 -0.042110745 0.06365496
000060 62 81 88 bd cd 87 d5 bb 54 02 91 bd 94 1a 07 be
       -0.06665303 -0.006516433 -0.07080522 -0.13193733
000070 86 80 ed 3d 2a ce 73 3d 32 08 44 bd c8 5b 9b 3d
       0.115967795 0.059522785 -0.04785938 0.07585865
000080 94 d7 f2 bd 78 95 d4 3d 71 20 0f 3e fe d0 95 bd
       -0.118575245 0.103800714 0.13977219 -0.07315253
000090 db 2f ad 3d 6e bc f3 bb 3d 2a 9b bd 05 7a 03 3e
       0.08456393 -0.007438234 -0.07576416 0.12839516
0000a0 2b 9b e0 3d 58 59 90 bd bb e9 81 bc f7 16 ee 3c
       0.10967096 -0.07048291 -0.015858522 0.029063685
0000b0 5e 10 91 bd aa 99 dc 3b 73 e9 d7 3c e4 3c 15 3d
       -0.070832 0.0067321854 0.026356434 0.036435023
0000c0 1d 32 02 3e c9 5c 3a bd ff 10 ae 3d a0 3b d8 bd
       0.12714429 -0.045498643 0.084993355 -0.105582476
0000d0 bc a4 a7 3c d7 39 e4 3d bc ad e6 bc 41 2e be 3c
       0.020464294 0.111438446 -0.028159015 0.023215415
0000e0 04 98 56 3c 46 30 8b 3d 08 ba 06 3d f8 bf 5a bd
       0.013097767 0.06796317 0.032892257 -0.053405732
0000f0 58 b7 92 bd 8a 17 ae bd 14 f2 9f 3d 56 a7 36 3d
       -0.07163876 -0.085005835 0.078098446 0.044593178
000100 e9 20 87 3d 24 89 87 bd e9 01 52 bd 7e 94 05 be
       0.06598074 -0.066179544 -0.051271353 -0.13044927
000110 fe 1c 6e bd 53 09 ab 3c 00 82 56 bd b2 ff 9a bc
       -0.058133118 0.02087847 -0.05237007 -0.018920753
000120 8b 00 93 bd a2 86 52 3c cd 7b f4 3d c8 92 59 bd
       -0.07177838 0.012849482 0.119376756 -0.053118497
000130 0d 9b b6 3c a3 88 65 3a 67 5e a1 bd 07 70 d4 bd
       0.02229073 0.0008756017 -0.07879334 -0.1037293
000140 bc 80 e5 3c ce 99 e4 bd f6 f6 1e be 64 6a 69 3c
       0.028015487 -0.111621484 -0.15523896 0.014246557
000150 14 eb b2 3d 11 df eb 3d 3e 58 04 bd db 92 5d 3d
       0.08736244 0.11517156 -0.032310717 0.05409513
000160 3f 00 a7 bd 49 dd 00 3d 85 c1 0e be e2 f9 c1 bc
       -0.08154344 0.031461034 -0.1394101 -0.023678724
000170 74 cc e0 bd 6a 4f f8 bd cb 88 90 bc 3b 7a d5 bd
       -0.10976496 -0.12124522 -0.017643353 -0.10423704
000180 39 b4 b1 3c 5b 14 09 3e 67 f0 1c 3d cb 7a 48 bd
       0.021692382 0.13386671 0.038315203 -0.04894523
000190 2a c4 c7 3d a7 04 15 be 72 ad 74 bd f6 0f 02 3e
       0.09754212 -0.14552556 -0.059735723 0.12701401
0001a0 ed b4 c9 bd bf d5 dd 3d a9 3a e4 bd 8b 46 a7 3c
       -0.09848962 0.108317845 -0.11144001 0.02041938
0001b0 46 53 10 be cc 48 d7 bb b5 44 00 3c 41 17 05 3c
       -0.14094266 -0.0065699574 0.007828881 0.00812322
0001c0 68 93 c3 bd ae 12 1c bd 87 18 58 bd 98 d6 e2 bd
       -0.095496 -0.03810375 -0.052757766 -0.11076087
0001d0 2f 64 35 3d 39 fa 88 3d 2e a4 ca 3c 0a f9 01 be
       0.044284996 0.06688351 0.02473649 -0.12692657
0001e0 41 71 e2 3d 6c eb 49 3c 0d a7 ac bd 3b 64 c3 bc
       0.11056758 0.012324195 -0.084303 -0.023851505
0001f0 18 0b 01 bd 88 8f 1a be 8d 50 ad bc 88 b1 af 3d
       -0.03150472 -0.15093815 -0.021156574 0.08578783
000200 91 9f 97 bd 46 0d 16 be 51 9f 3a bd 51 b7 ee 3d
       -0.07403482 -0.14653501 -0.045562092 0.116560586
000210 c4 0a 73 3c 0d 21 e5 bd c8 86 07 3d 76 b6 e1 bd
       0.01483411 -0.111879446 0.03308752 -0.1102113
000220 78 37 7c bd 9a 79 dd 3d ed 5a 22 be dd f1 ba 3c
       -0.061576337 0.10814209 -0.15854998 0.022820408
000230 ea e5 39 bd 12 d9 7f 3a 37 df 00 bd 54 ff bb 3d
       -0.04538528 0.0009759824 -0.031462874 0.09179559
000240 71 92 10 bd ad 65 d5 bd 46 49 55 bc 31 b3 69 bd
       -0.035295907 -0.10419784 -0.013017958 -0.057055656
000250 5d 03 04 be d8 55 f8 bc 23 a9 9d bd a7 a5 a7 bd
       -0.12891908 -0.030314371 -0.07698276 -0.081858926
000260 60 67 85 bb 11 29 6f 3d ac 25 cf bc 25 2a 72 3d
       -0.004071161 0.058388773 -0.025286518 0.059122223
000270 13 17 2e 3d b9 21 06 be 3d c4 c0 bc be bd 96 bd
       0.042502474 -0.13098802 -0.023531074 -0.07360409
000280 f2 d6 bf bd 73 20 86 bd 82 6a cc bd 5e d5 c2 bd
       -0.093671694 -0.06549158 -0.09981252 -0.09513353
000290 1b 82 ac bd a5 22 07 be fd f2 04 be 9b 26 69 bc
       -0.08423253 -0.1319681 -0.12983318 -0.014230396
0002a0 4b 3c c7 bb a4 0c fb bd 7e 68 13 bd 78 f9 f0 3d
       -0.0060801855 -0.122582704 -0.035988323 0.117663324
0002b0 cc 3c 16 bd 7a 30 87 3d cc ab ea bd 35 a6 11 3c
       -0.036679074 0.06601043 -0.11458549 0.0088897245
0002c0 b1 57 20 bd 51 5c 92 bc 10 03 59 bd 4f aa 58 3c
       -0.03914613 -0.017866286 -0.052981436 0.0132241985
0002d0 de 6a 04 bc 3e a2 4f 3d 1a 1e 07 3e aa a9 2e 3d
       -0.00808212 0.050691836 0.13195077 0.042642273
0002e0 f0 16 01 3e e0 87 2a 3d 41 80 fe bc ed 10 05 be
       0.12606406 0.041633487 -0.031067016 -0.12994738
0002f0 20 15 ac 3d 7f f0 c6 3d 1e 75 9a 3d 3f 9e 0d bd
       0.08402467 0.0971384 0.075418696 -0.034574743
000300 1e 1d 27 bd b4 b0 a9 bd 60 7c c6 3d 18 d9 a9 bc
       -0.040799253 -0.082856566 0.096916914 -0.020733401
000310 dd 7e f0 bb cb 59 ab 3d 76 54 a6 3d e5 52 51 3d
       -0.007339342 0.08366736 0.081215784 0.051104445
000320 43 0c 3e bd 39 af 9a bd 82 88 e9 3c 2b 56 cd 3d
       -0.046398412 -0.07552952 0.028507475 0.10026201
000330 d4 11 85 3c 31 68 90 3c e5 09 fb bd 84 0f 80 3d
       0.016243853 0.017627807 -0.122577466 0.06252959
000340 c9 5f 23 3d 07 89 f7 bd 2d bc 8b bd 18 5d 19 3d
       0.03988627 -0.12086683 -0.06823001 0.037442297
000350 c6 93 b5 bd 25 f6 06 be b5 b3 9f 3d d3 fb cd 3c
       -0.08866076 -0.13179834 0.07797948 0.025144493
000360 01 bb e5 3c 8f b3 8c 3c 39 16 91 3d 50 85 8b 3d
       0.028043272 0.017175464 0.07084317 0.06812537
000370 11 52 38 bd 3f e4 b9 3d ab a2 38 3c de 22 f5 3c
       -0.04500014 0.090767376 0.011269252 0.029923853
000380 58 f8 08 be 10 37 05 be 60 f9 00 be e0 ad dc bd
       -0.13375986 -0.13009286 -0.12595129 -0.107753515
000390 5b b9 a4 3c 02 86 a0 bd d1 80 ff bd 91 61 f1 bd
       0.020107916 -0.0783806 -0.12475742 -0.117861874
0003a0 e6 a1 b9 bd a3 c7 e5 3c 80 9e bd bc 91 82 13 3b
       -0.09064083 0.028049296 -0.023146868 0.0022508244
0003b0 20 e3 f2 3d 5e 21 c0 3c 47 c0 b4 3d 2c 37 fc bc
       0.11859727 0.02345341 0.088257365 -0.030788027
0003c0 32 9a 74 bd a5 b6 54 bd af 92 1a bd f0 ff ea 3c
       -0.059717365 -0.051931996 -0.037737545 0.028686494
0003d0 5e 27 91 bc 52 21 d1 bd b4 1d 05 be 57 18 ef bd
       -0.017718967 -0.102114335 -0.12999612 -0.11674564
0003e0 57 0f 54 3d 07 d4 4c bc cb af 41 bd f3 9f 04 be
       0.05177244 -0.012501723 -0.04728679 -0.12951641
0003f0 5b 7c e0 3d 98 ae 2e bd 91 00 a5 bd 3d 88 3a bd
       0.10961219 -0.042646974 -0.08056749 -0.045540083

bias f4 [96]
000000 24 31 0e bb 84 1e e1 bb 11 7f d2 b6 83 00 43 34
       -0.002169677 -0.006870093 -6.27328e-06 1.8160976e-07
000010 7d 80 55 3c d8 d1 88 bb 65 cb 0b 3b fe 18 cb bc
       0.013031122 -0.004175406 0.002133095 -0.02479219
000020 9f 95 e7 b3 f9 25 1d b4 a1 14 b3 ba 02 6f 0f b7
       -1.0783992e-07 -1.4635579e-07 -0.0013662764 -8.54931e-06
000030 b0 4b b9 3a 65 68 c7 35 5b aa d8 ba 48 0e 3e bc
       0.0014136937 1.4857038e-06 -0.0016530262 -0.011600085
000040 56 9c 59 35 63 cc a2 bc f6 17 b1 b6 4a c4 1f b4
       8.10663e-07 -0.01987285 -5.2778005e-06 -1.4879438e-07
000050 11 f7 ba 34 0b 14 e2 3c c7 95 84 3c 8a db ce 34
       3.4824964e-07 0.027597448 0.0161847 3.8530226e-07
000060 24 59 88 3b 4d b9 10 34 f2 78 95 bb 0c 60 28 ba
       0.004161017 1.3478457e-07 -0.004561537 -0.00064230035
000070 f0 86 7e 37 ac ce 9b ba 38 45 81 39 e4 4c a8 b9
       1.5170997e-05 -0.0011887155 0.0002465637 -0.00032100745
000080 d1 cb 1e 3c 98 c1 44 b6 77 06 04 37 72 78 ed 3c
       0.009692148 -2.9318962e-06 7.869318e-06 0.028988097
000090 e1 dc 81 3b 15 d3 a9 b7 7c 52 a8 b9 3b 6c 01 35
       0.0039630984 -2.0244663e-05 -0.00032104913 4.821374e-07
0000a0 99 16 64 bc f7 8b 28 3b 56 12 16 ba c0 71 e2 b9
       -0.013921403 0.0025718191 -0.0005724778 -0.0004319083
0000b0 16 31 38 b4 8a 72 ec bc aa f3 01 36 75 09 05 35
       -1.7154193e-07 -0.02886321 1.936433e-06 4.956012e-07
0000c0 a8 7e 0f 34 ce 7b a7 b8 5a 2b 56 3c 44 30 d2 34
       1.336399e-07 -7.986241e-05 0.013071859 3.9150666e-07
0000d0 aa b4 69 bc 63 0a 01 b7 26 47 90 3c b2 b3 b5 b9
       -0.014264265 -7.6914175e-06 0.017612051 -0.00034656894
0000e0 21 da 9b bb 54 0f 90 b7 ea d0 b9 bc 51 aa 96 b3
       -0.0047562276 -1.7173275e-05 -0.022682626 -7.0159e-08
0000f0 7b ba a9 37 d1 02 3e 3a 71 31 d5 3b fd cb 2f ba
       2.0233207e-05 0.00072483445 0.006506138 -0.0006706117
000100 49 de dd 3a 55 28 5a 33 69 d0 e6 b7 9c 41 c9 bb
       0.0016927208 5.0793762e-08 -2.7515185e-05 -0.0061418545
000110 fd 5b 24 bb 0f 85 59 b4 dd b8 43 3c b3 db 84 bc
       -0.0025079243 -2.0258106e-07 0.01194593 -0.016218042
000120 6c 73 43 b6 09 01 bb b3 59 bd a9 bc 2c f5 95 36
       -2.9124449e-06 -8.7080544e-08 -0.02072017 4.469088e-06
000130 9b 1e 54 32 90 00 48 b6 f5 33 f1 3a 91 ce 9f 34
       1.2346983e-08 -2.980265e-06 0.0018402325 2.9766355e-07
000140 ce 3d 46 3c 69 b7 2c 3c b9 85 dc 3b 4d 4b b6 34
       0.012099696 0.010541775 0.006729808 3.395493e-07
000150 64 22 f0 3c c9 e8 4b 39 da 4e a9 3b 7e 20 5d bb
       0.029313274 0.00019446308 0.0051668705 -0.003374129
000160 08 cd 25 3b d8 e2 dd 3c 5a a2 8e 39 fe b2 98 3c
       0.002529921 0.027085707 0.00027205312 0.018640038
000170 c2 4d d8 3b 0a a1 07 3b 8f 14 43 b5 ec 2a 19 3b
       0.0066010663 0.0020695352 -7.267308e-07 0.002337153

weight f4 [96]
000000 73 ad 6a 3f b1 ee 70 3f 3e 79 79 3f e3 a6 68 3f
       0.9167091 0.94114214 0.97450626 0.9087965
000010 1e 7d 70 3f 5a c1 63 3f fe 05 6b 3f 35 3d 77 3f
       0.93940914 0.88966906 0.9180602 0.9657777
000020 01 bd 6a 3f 50 11 75 3f cb 35 67 3f 09 9e 73 3f
       0.9169465 0.9572954 0.90316457 0.9516302
000030 03 db 70 3f b7 e2 72 3f 53 cd 69 3f b5 5b 65 3f
       0.94084185 0.9487719 0.91328925 0.8959306
000040 1b eb 60 3f 7d d8 6e 3f 28 20 6a 3f 39 d7 71 3f
       0.8785874 0.93299085 0.91455317 0.9446903
000050 c4 04 67 3f 38 07 6a 3f c9 44 77 3f 68 bf 79 3f
       0.90241647 0.91417265 0.9658933 0.9755769
000060 5f 6f 73 3f 4a 6d 71 3f 91 85 68 3f 6e cf 77 3f
       0.95091814 0.94307387 0.90828806 0.9680089
000070 11 13 76 3f 7d fe 6a 3f f9 ef 69 3f e5 11 6a 3f
       0.96122843 0.9179457 0.91381794 0.91433555
000080 a1 bf 73 3f cb 65 74 3f b4 c8 66 3f c0 09 72 3f
       0.9521428 0.95467824 0.9015 0.9454613
000090 88 88 73 3f a5 12 6e 3f 6f 2f 71 3f 50 b1 6e 3f
       0.95130205 0.929972 0.94213 0.9323931
0000a0 0f 7e 71 3f 99 4b 65 3f 62 25 6a 3f 3f d4 73 3f
       0.94332975 0.8956848 0.9146329 0.95245737
0000b0 90 18 6b 3f 8d a4 71 3f 8f 8f 76 3f 9b a7 6b 3f
       0.91834354 0.9439171 0.96312803 0.9205262
0000c0 0b 71 6c 3f 4a ca 63 3f 36 71 6e 3f e1 21 72 3f
       0.9235999 0.88980544 0.93141496 0.94582945
0000d0 6f b3 67 3f e7 2c 6c 3f ef ec 70 3f bf cf 6a 3f
       0.9050817 0.92256016 0.9411153 0.91723245
0000e0 04 82 78 3f 49 68 71 3f 91 ae 6b 3f 93 cd 66 3f
       0.9707339 0.9429975 0.9206324 0.9015743
0000f0 17 20 70 3f a2 a1 74 3f d0 40 71 3f c0 9c 64 3f
       0.93798965 0.9555913 0.9423952 0.8930168
000100 32 3d 6b 3f 86 02 6a 3f ca 6c 73 3f 12 96 75 3f
       0.9189025 0.914101 0.95087874 0.95932114
000110 d5 b4 73 3f af 2a 70 3f 7c c7 74 3f 0d df 63 3f
       0.951978 0.9381513 0.9561689 0.89012223
000120 03 2c 74 3f 8c 81 74 3f ac c3 6e 3f e2 ba 6d 3f
       0.95379657 0.9551017 0.9326732 0.92863286
000130 3a b6 6b 3f b1 4d 77 3f 7a 03 78 3f b6 eb 78 3f
       0.9207493 0.9660292 0.96880305 0.97234666
000140 59 81 79 3f 90 98 6c 3f 54 dc 75 3f a7 91 74 3f
       0.97462994 0.9242029 0.9603932 0.9553475
000150 0a 5e 73 3f 4a ff 65 3f c2 2c 6a 3f 92 95 6d 3f
       0.9506537 0.89842665 0.91474545 0.9280635
000160 d2 aa 71 3f ed 9e 6e 3f b4 8c 6a 3f 71 7f 69 3f
       0.94401276 0.9321125 0.91620946 0.91210085
000170 37 98 6f 3f a0 ad 6b 3f f1 9d 65 3f 06 05 6e 3f
       0.93591636 0.92061806 0.89694124 0.92976415

bias f4 [96]
000000 4e 19 40 39 7e b2 a2 3a bf d1 42 bb af 14 2f bc
       0.00018319974 0.0012412814 -0.002972707 -0.010686084
000010 23 12 bb 39 d9 fa 38 bb f0 84 d8 ba 42 79 2f bc
       0.00035680932 -0.0028225689 -0.0016519111 -0.010710062
000020 54 4b 4e 39 a3 d2 1d 3a f1 45 33 bc 4b ad 20 bc
       0.00019673753 0.0006020462 -0.010941968 -0.009806941
000030 f3 29 7b bc 17 81 d7 bb 04 7c c9 ba 27 cd 3c bc
       -0.015329826 -0.006576668 -0.0015372043 -0.0115235215
000040 f9 40 c5 3c ce ff ed bb b1 c2 e6 3b da 20 0c bb
       0.024078833 -0.0072631603 0.007042252 -0.0021381886
000050 a9 9d 1d bc e1 bd ac 3b df 6a 8a bb 10 09 61 3b
       -0.009620109 0.0052716588 -0.004224166 0.0034337677
000060 89 6b 86 bc 41 e2 c4 3b 73 31 40 bc eb ce ec bb
       -0.016408699 0.006008417 -0.01173054 -0.007226815
000070 f4 93 4c bc a9 90 00 3b 2e 42 8d 3c 38 bd 5c 3b
       -0.012486447 0.0019617474 0.017243471 0.003368212
000080 7c 82 30 bc f3 b2 9c bc f5 a1 6a bc 0b 9e a4 3a
       -0.010773297 -0.019128298 -0.01432084 0.0012559308
000090 65 6c 04 bc ae 83 b0 3b 36 1d d9 ba 98 3c 13 3b
       -0.008082484 0.005386791 -0.0016564492 0.0022466537
0000a0 16 26 4d 3c 8d 60 81 bb d4 08 92 ba 0b 54 aa 3a
       0.012521287 -0.0039482773 -0.0011141547 0.0012995017
0000b0 67 a6 74 bb e8 28 32 3c a8 06 2d bc e8 0c ff ba
       -0.003733063 0.010874011 -0.010560669 -0.0019458802
0000c0 c8 31 6b bb 92 67 74 bc 13 13 c7 3c 13 41 80 3b
       -0.0035887826 -0.014917271 0.024301087 0.0039140075
0000d0 2b 37 73 b9 fc 5c 68 bb fb 87 76 3b e4 73 08 bd
       -0.00023194838 -0.0035455814 0.0037617672 -0.033313647
0000e0 2e cd 0f bc 57 a1 a2 bb c4 77 0f bb 30 f2 ff ba
       -0.008776946 -0.004963081 -0.0021891454 -0.0019527134
0000f0 89 9f 7e bb 7a 41 db 3b 38 21 aa 3b 56 3e 48 3b
       -0.0038852415 0.006691155 0.0051919483 0.0030554733
000100 40 0c 20 bb cb 66 05 3c 24 2a 97 bc 8d 40 2b bb
       -0.0024421364 0.008142184 -0.018452711 -0.0026131005
000110 ef 28 bb bb 0e be 83 3b 07 4d f2 3b 7c 34 ef 3c
       -0.005711667 0.004020459 0.0073944363 0.029199831
000120 f6 e2 89 bc 9a cd ff 3a 41 fc 84 3a 88 11 31 3b
       -0.016831856 0.001951623 0.0010145978 0.0027018506
000130 9c 67 71 bb 25 ea 8e bc 64 a0 68 bb e8 4b 96 3a
       -0.0036835438 -0.017445633 -0.003549599 0.0011466714
000140 7f 12 21 bc 23 a4 bf bb 4c 5b 84 3b c2 7a 4e 3c
       -0.00983107 -0.005848424 0.0040392037 0.01260251
000150 b3 43 87 ba f8 89 21 bb 0c 90 0e 3b cc 8e f0 bb
       -0.0010319859 -0.0024648886 0.002175334 -0.0073412415
000160 cd c1 d2 bb b9 f2 a5 3b 6d 52 4a 3b ec 60 aa bb
       -0.0064317943 0.005064335 0.0030871884 -0.0051995423
000170 e3 2b 42 3c 9d e0 7b bb bc f4 95 bb 62 9a a8 3b
       0.011851284 -0.003843344 -0.0045762938 0.005145357

running_mean f4 [96]
000000 dd da 60 3d 42 bf 99 be 21 9f 9f be ae 54 db be
       0.054896224 -0.3002873 -0.31176093 -0.42838043
000010 79 b3 30 be 6a e5 48 be 4a 31 aa bc 0c 48 b7 bd
       -0.17255963 -0.19618765 -0.020775456 -0.08949289
000020 f0 ed 36 3e e3 c6 ac 3d d6 bd df be f3 fc bc 3e
       0.17864203 0.08436372 -0.4369952 0.36911735
000030 5d 3f 7d be 49 fe 26 3d 5b 50 05 be bb 08 02 3e
       -0.24731202 0.04076985 -0.13018934 0.12698643
000040 e1 be 70 be 22 8f f8 3d 84 63 84 be d7 5d 49 3e
       -0.23510315 0.121366754 -0.25857174 0.19664703
000050 be be 0d bd 23 66 26 3d d3 48 d0 3e c5 2d 88 3e
       -0.034605734 0.04062475 0.4068056 0.2659742
000060 85 08 94 3d e9 da 8e 3e 0b a6 7d 3e 00 c1 b7 3e
       0.072281875 0.2790139 0.24770372 0.35889435
000070 b4 e8 b1 be a8 e7 02 3e 2e 4b 22 3e 0f 50 0d 3d
       -0.3474785 0.12783682 0.15848991 0.034500178
000080 82 f3 dc 3e b2 35 9d 3d 73 cc 61 be 45 2d a4 3e
       0.43154532 0.07676257 -0.22050647 0.32065788
000090 ad 28 fe bd ac 31 09 be 67 fc 87 3d 95 61 6e be
       -0.12410102 -0.13397855 0.06639939 -0.23279412
0000a0 b0 f5 5d be 25 e1 3d 3c bc 7e 5e 3d 96 6a d1 3d
       -0.21675754 0.011589323 0.054320082 0.10225408
0000b0 05 a3 2d be 63 8d 8e be 3d 14 1d be 20 c4 80 be
       -0.16956718 -0.27842245 -0.15339752 -0.25149632
0000c0 35 7c 2d 3e d4 ec 72 bd 19 0f 7e be 1a ed 65 be
       0.16941912 -0.05930789 -0.24810447 -0.22453728
0000d0 13 75 d0 bd d3 7b 6a 3d b9 ea 66 be 2e c3 0a 3c
       -0.1017858 0.057246994 -0.22550477 0.008469386
0000e0 d2 2d b1 bd 31 36 bc bc b7 92 5a 3b 50 07 72 be
       -0.08651318 -0.02297506 0.003335161 -0.23635602
0000f0 22 9b 71 be 6f ab d3 be ad 9d 8e bd f5 3e 7a bd
       -0.23594335 -0.4134173 -0.06963668 -0.061095197
000100 17 29 c7 3c ac 5b 33 bc 4a 4a 5b be 6d 2b 88 bb
       0.024311585 -0.010947149 -0.21415058 -0.0041555674
000110 40 00 af 3d 96 ea fb bd 7f 3b 3c 3e b9 8b ee 3d
       0.085449696 -0.12300603 0.18382071 0.11647744
000120 af fe 8b 3e ba 3a 32 3d 2a 45 19 be e8 6c 34 be
       0.27342746 0.043513037 -0.1496779 -0.1761967
000130 88 62 9a 3e cf bd bb be 89 38 a9 3e 25 87 2d bb
       0.30153298 -0.3666825 0.33050945 -0.0026478257
000140 ae 54 87 3e 71 cb c6 3e 58 33 79 bd 94 d8 3d 3e
       0.26431793 0.38827088 -0.06083998 0.18539649
000150 f3 a4 18 bd 22 b5 91 be 3a 3e 3e be 21 26 9d be
       -0.037266683 -0.28458506 -0.18578425 -0.30693153
000160 a2 60 fe bb cc 23 d9 bd dd 74 b7 bd 62 e9 c1 3d
       -0.0077629844 -0.10602531 -0.08957837 0.09468342
000170 71 03 a3 3e 84 8d a0 3e bb eb 2b 3e 63 3c 1f 3f
       0.31838563 0.31357968 0.16789143 0.6220152

running_var f4 [96]
000000 9d cc 85 3d 02 e4 19 3e e4 63 87 3d 70 44 0b 3e
       0.065331675 0.15028384 0.066108495 0.13600326
000010 94 25 11 3d b3 30 8c 3d 87 47 d9 3d 6c 95 a2 3d
       0.035436228 0.06845226 0.10609346 0.07938656
000020 30 84 42 3d 45 4b 24 3d 69 da b0 3d 92 8e 3e 3e
       0.047489345 0.040110845 0.086354084 0.18609074
000030 83 04 b9 3d 10 04 b5 3d ca 0c 5c 3e f6 37 da 3d
       0.09034064 0.088386655 0.21489254 0.10655205
000040 e6 5d 5c 3d e0 57 46 3d ab 14 82 3d a6 dd 86 3d
       0.053800486 0.048423648 0.06351598 0.06585245
000050 08 6a 42 3d 49 a5 e8 3c 6b 74 09 3e b2 08 bc 3d
       0.0474644 0.028399127 0.13423316 0.09181346
000060 cd 15 a3 3d 9a 88 02 3e e8 81 84 3d 00 9b 95 3d
       0.079631425 0.12747422 0.0647009 0.073049545
000070 a0 fa b5 3d 28 bd e6 3d 4f 56 9c 3d 5e 5f 91 3d
       0.088856936 0.112665474 0.076336496 0.07098268
000080 cb 20 1e 3e ef 55 78 3d 05 75 a8 3d 4d 3a 72 3d
       0.15442197 0.060628828 0.08225445 0.05913763
000090 bb ae 84 3d bc a1 d3 3d d5 2d 14 3e ec fc d4 3d
       0.0647864 0.10333583 0.14470609 0.103998035
0000a0 71 ff 42 3d db ce 17 3e f9 cf 7e 3d 04 f6 11 3e
       0.04760689 0.14825003 0.062210057 0.14254004
0000b0 be 7a 0e 3e 52 29 8f 3d d2 7a 0d 3d bb 3e 52 3d
       0.1391401 0.06990303 0.03454096 0.051329356
0000c0 a4 e1 5e 3d 53 41 57 3d c0 27 3e 3d e3 1c 67 3d
       0.054414406 0.052552532 0.046424627 0.056424033
0000d0 e0 a5 ac 3d f4 2e cd 3d 32 0b b3 3d d3 97 67 3d
       0.08430076 0.10018721 0.0874237 0.056541275
0000e0 91 f5 81 3d 60 15 dc 3d 1a 60 3b 3d 13 d9 94 3d
       0.06345666 0.107462645 0.045745946 0.07267966
0000f0 63 72 5c 3d 9d 5f 0b 3e 4d 26 89 3d c6 88 e1 3d
       0.053820025 0.13610692 0.066967584 0.110124156
000100 1d ef 4d 3d c4 0b fe 3d d6 21 b9 3d d8 96 86 3e
       0.050276864 0.12404588 0.09039657 0.2628696
000110 00 7d e3 3d 63 ea 73 3d 02 de 63 3d ab 7b d5 3d
       0.11107826 0.0595497 0.055631645 0.104239784
000120 c9 b7 19 3d f9 a4 92 3d 37 72 64 3e 0d fc 04 3d
       0.037528787 0.07160372 0.22309195 0.032466937
000130 2e 97 61 3d ca f8 9a 3d 8d 51 62 3d 14 8b a9 3d
       0.055075817 0.07566984 0.055253554 0.0827848
000140 9e ca 34 3d f7 8e ae 3d 9b ed 03 3d ef 12 a9 3d
       0.044138543 0.08523362 0.03220902 0.082555644
000150 76 41 43 3e 22 41 13 3d 45 0f 7b 3d 2d fd 6d 3d
       0.1906794 0.035950787 0.06129386 0.058102775
000160 f9 15 ec 3d f3 a7 a5 3d 73 e0 68 3d b5 42 01 3e
       0.115276285 0.080886744 0.056854676 0.12623103
000170 1c 50 b1 3d 74 72 d0 3d 34 85 4a 3d ca b9 18 3e
       0.08657858 0.1017808 0.04944344 0.14914623

weight f4 [48, 96, 3, 3]
000000 e7 a9 02 bc 3f 33 f5 bb 35 0b 3f 3c 8f 37 34 bc
       -0.007975078 -0.0074829157 0.011660387 -0.010999574
000010 1c c1 8a 3c bd c1 8e bc 7e a1 09 3c 1a 0d 73 bc
       0.016937785 -0.017426366 0.008400319 -0.014834667
000020 35 05 84 bb e3 f7 7c bc 5d 39 92 3c cc b4 31 3c
       -0.004028941 -0.01543996 0.017849619 0.010846328
000030 4e 97 2e 3c 5f ed c4 bb 66 3f 80 3c dc 46 88 3c
       0.010656191 -0.006009742 0.01565523 0.01663535
000040 44 f1 1b bc cc 04 ef bb 01 8c d0 bc 33 30 00 3c
       -0.009517971 -0.007294273 -0.025457384 0.007823992
000050 5b ee 06 3c c3 60 4e 3c 36 82 49 bc 23 15 3c 3c
       0.008235539 0.012596312 -0.012299111 0.011479649
000060 8f e3 42 bc 23 af 6a bb 55 71 70 3c 34 93 44 bc
       -0.0118950745 -0.0035809956 0.014675458 -0.011997987
000070 2c 22 4c bc ca 8a 77 bb fc 43 92 3c f9 22 00 bd
       -0.012459319 -0.0037771934 0.017854683 -0.031283353
000080 65 f0 0a bb 7d c1 a9 bc c3 77 6a 3c f4 4e 1a 3b
       -0.0021200415 -0.020722145 0.01431078 0.0023545595
000090 31 7a 1b bc 3d 9d 20 3b f5 fa b6 3b 5a 37 b0 ba
       -0.009489582 0.0024507784 0.0055841156 -0.001344423
0000a0 fc c1 97 3c 1c 09 ee 3c 2a d6 cc bc d7 27 ae 3c
       0.018525116 0.029057078 -0.025004465 0.021259231
0000b0 50 97 db 3c 78 6a 02 3c 79 0f 38 3c 42 7c 87 bb
       0.02680555 0.007959954 0.011234158 -0.0041346857
0000c0 83 a4 9b 3b bd b2 03 bb 1c 8c 8a bc 8e c7 0a bc
       0.004749836 -0.002009555 -0.016912512 -0.008470429
0000d0 59 71 e0 bb c3 11 c0 bc bd 50 06 bc e0 39 98 bb
       -0.0068494496 -0.02344597 -0.00819796 -0.004645571
0000e0 a8 ca 74 3c e3 de 5d bc 45 4d 62 3c c3 36 f0 bc
       0.014940895 -0.01354191 0.013812368 -0.029322987
0000f0 69 81 8c bb 0d 88 3e bb cb e0 a6 3a ba 6f 00 3c
       -0.004287888 -0.0029072792 0.0012731788 0.007839138
000100 dc c1 06 bc c1 10 60 bc ac 8d 85 3a 8e d1 0c 39
       -0.008224931 -0.013675869 0.0010189316 0.00013429506
000110 43 36 5d 3b 46 02 8e bc 52 93 08 3a 7a bf 02 3c
       0.0033754266 -0.017335068 0.0005209941 0.007980222
000120 32 92 b2 bc 30 71 88 3c 75 47 3f bb eb 74 9a 3c
       -0.021798227 0.016655535 -0.0029186879 0.018854579
000130 28 c8 aa 3c a3 27 fa 3b 9e 1f 8f 3b fc 98 6e 3c
       0.020847395 0.0076341196 0.0043677827 0.0145628415
000140 aa bf b0 bc 9c b6 62 3a f7 d4 ba 3c db 64 5a bc
       -0.021575768 0.0008648427 0.022806628 -0.01332971
000150 bd f6 ae 3c b1 28 51 3c 77 e8 91 3b 5f 7a 9c bc
       0.021357888 0.012766049 0.004452761 -0.01910132
000160 67 8d fa 3c c8 ad 9f bc 91 71 99 3b 92 95 c9 3c
       0.030585004 -0.019492045 0.0046827276 0.024607453
000170 9b 94 3e bc 08 a5 dd bc 9c 59 43 3c 69 1a c9 bc
       -0.01163211 -0.027056232 0.01192322 -0.024548726
000180 a5 27 07 bc 1d b9 bd bc 67 e8 ee 3a c1 0c 27 bc
       -0.008249198 -0.023159558 0.001822722 -0.010195912
000190 05 93 9b 3c a5 0c 2b bc 68 c5 a7 3a 87 d4 89 bc
       0.018991003 -0.010440026 0.001279992 -0.016824974
0001a0 30 88 1c 3b 4f 4b 0c 3c 3a 5b bf bc e7 f2 84 3c
       0.0023884885 0.008562877 -0.02335893 0.016229106
0001b0 b8 b5 40 3c d9 ba d8 3c 2a e0 cb bc 76 f5 64 39
       0.011762075 0.026456283 -0.024887163 0.00021835216
0001c0 6a a0 98 3c ab 08 ad bb aa 01 12 bc 18 8d 28 bc
       0.018631179 -0.0052805743 -0.00891153 -0.010287546
0001d0 2f c1 bb bc aa cd bd 3c 2d e3 09 3c ab 3f af bc
       -0.022919266 0.023169357 0.008415979 -0.021392664
0001e0 ca 59 80 3c bb ae 53 3c a6 27 9c bc 3b 7c ad 3b
       0.015667815 0.012920077 -0.019061875 0.0052943504
0001f0 94 57 77 bc b6 41 a0 bc b1 89 4e bc e4 b1 52 bc
       -0.015096564 -0.019562583 -0.01260607 -0.012859795
000200 f3 36 65 bc 3b a0 5c 3c 50 88 20 bc d5 0e 67 3c
       -0.013990152 0.013465936 -0.009798124 0.014102657
000210 d7 e1 0e bc f2 dc b2 bc 9c 2b ab 3c bc 99 92 bc
       -0.008720837 -0.02183387 0.020894818 -0.017895572
000220 4c f8 f5 bb eb b8 8b bc ce 1c c3 3c ce 97 40 bc
       -0.007506406 -0.01705595 0.023817446 -0.011754943
000230 d7 ba 13 bb ff 6a a6 3c d2 58 06 3c f8 69 a2 bc
       -0.0022541785 0.020314692 0.008199887 -0.01982592
000240 9d 93 fd 3c 61 fc 56 bb 20 6b 99 3c f2 3c 2d 3c
       0.030954177 -0.0032804238 0.018727839 0.0105736125
000250 2f 51 e0 3a d1 2d a1 3a 49 34 9c bc d6 9e a4 bc
       0.0017114038 0.001229698 -0.0190679 -0.02009527
000260 28 5c 2a bc d8 db 09 bd 6d b8 4f bc 30 11 a0 bc
       -0.010397948 -0.033656925 -0.012678248 -0.019539446
000270 00 04 a9 bb df 45 e5 bb b5 04 cf 3c 5f 7a a6 3c
       -0.0051579475 -0.0069968547 0.0252708 0.020322023
000280 22 83 3c bc c6 73 cf bc 17 ba 96 3c c5 81 f1 bb
       -0.011505874 -0.02532376 0.018399281 -0.007370206
000290 cc f1 d2 3c ba 49 10 3c b4 f9 83 3c ea d6 86 bc
       0.025750063 0.00880664 0.016110279 -0.0164599
0002a0 75 c7 bf ba 57 48 85 bc 38 d0 19 bb 2d 8b 53 bc
       -0.0014631586 -0.016269846 -0.0023470055 -0.0129116
0002b0 55 c9 bb bc 00 43 85 3c a0 fb a6 bb 49 c1 9e 3c
       -0.022923151 0.0162673 -0.005095914 0.019379275
0002c0 e6 c2 c3 bc a0 c7 4f bc 13 5f ab 3c cd 40 f6 b8
       -0.023896646 -0.012681872 0.020919358 -0.00011742264
0002d0 dd a1 ac bb b0 65 00 3d 01 b4 84 ba 50 15 a3 bb
       -0.005268319 0.031346977 -0.0010124446 -0.004976906
0002e0 3f 49 3b 3c 67 de 56 3c 93 a6 e5 39 32 61 83 ba
       0.011431037 0.013114548 0.0004380239 -0.0010023473
0002f0 a7 71 b3 bc af 75 71 3c 9d 4e e0 bb e5 c6 9a 3b
       -0.02190478 0.014737531 -0.006845309 0.004723417
000300 ed 74 38 3c ba 82 ce 3c 81 97 6a 3c 27 08 ee bc
       0.011258346 0.02520882 0.014318348 -0.029056622
000310 3b 98 27 bc 2e c9 24 3c a8 57 e7 3b e4 22 f8 3c
       -0.010229166 0.010057731 0.00706001 0.030290075
000320 94 55 71 bc 4e ea 1a bc 7b 68 be bb 4f 92 86 3c
       -0.014729876 -0.009455277 -0.005810795 0.016427187
000330 b5 ff af 3c 70 31 0e 3c f1 24 17 3c 10 08 d7 3c
       0.021484235 0.008678779 0.009225116 0.026248962
000340 c5 b1 1c 3c 73 49 0a bc b3 f7 12 3d 61 25 43 3d
       0.009563868 -0.008440363 0.035880756 0.04764307
000350 c2 e7 8a 3c a7 5c c5 bb db 54 d7 bc 02 91 12 3c
       0.016956214 -0.006023008 -0.02628558 0.008945705
000360 39 55 6e bc d6 64 cd bb b7 50 84 3a d8 67 82 bb
       -0.014546686 -0.006268124 0.0010094856 -0.0039796643
000370 e4 70 7a bc 82 10 f6 bb 96 27 87 bb d5 db a5 ba
       -0.015285704 -0.007509292 -0.004124592 -0.0012654016
000380 b3 6f dc 3c cf 48 e0 3c a8 77 26 3c 1f fa 9b b9
       0.026908731 0.027378468 0.010160364 -0.0002975026
000390 b6 47 6c 3c b9 fe 92 3c d5 42 2b 3b 37 30 7b 3c
       0.014421394 0.017943727 0.0026132364 0.0153313195
0003a0 b9 f7 16 bd d0 d4 d2 ba 0a 76 bd 3c cc e6 a9 3c
       -0.03685734 -0.0016085152 0.023127574 0.020739935
0003b0 61 ae a7 3b 97 0a 18 3d cc be 37 ba cf df 56 bc
       0.005117223 0.037119474 -0.0007009327 -0.013114884
0003c0 12 b4 9e bc 34 cb 62 3b ce 06 07 bd 0a 71 a8 bc
       -0.019372974 0.0034605982 -0.032965474 -0.020561714
0003d0 22 06 5a bb 65 90 9e 3b 75 0c 14 3d e9 ab 85 3b
       -0.0033267816 0.0048389905 0.036144692 0.004079331
0003e0 8d 72 0a bc 00 d4 25 3c 28 e0 64 3c 5e 37 b7 3b
       -0.008450163 0.0101213455 0.013969459 0.005591317
0003f0 5d 70 95 bb e4 90 c5 bb 2b ab a8 bc 10 87 06 3c
       -0.004560514 -0.006029235 -0.020589432 0.008210912
