weights/CapeTown.model.weights.pt (torch, 219383 bytes, 42 tensors)

weight f4 [16, 3, 1, 1]
00000000: 7884 383e 79ce febc 8385 823d 9047 813c
00000010: 9075 b63e 7ba0 a6be 123a a0be ce37 883e
00000020: 7112 79be aa7a cebe 674e ccbd b598 b23e
00000030: d3a0 76bc 791f 32be 5772 903d 3e1c 9cbe
00000040: 50b5 373e 8b13 1abd f257 0dbe 2efa 823e
00000050: 591a a53c 0ac3 b0be a5ca c6be e5b9 d13e
00000060: 6b0c b33e b8ec 773e 433d b4be 5698 cc3e
00000070: 99f0 94be 0245 d83c 3c5f d43d c532 53be
00000080: 8588 abbd 3fbb 903e 530a 29be aad4 ac3e
00000090: 93dc 37bd 53d7 943e b58b 57bc 084f cabe
000000a0: 4c90 803e 4656 873b 3a37 a0be ab97 9fbd
000000b0: a5ad f23e e4c4 bcbd 52bc 71be 3040 f9bb
0.18019283 -0.031104313 0.063731216 0.015781194 0.35636568 -0.32544312 -0.31294304 0.26605076
-0.24323441 -0.4032796 -0.099758916 0.3488213 -0.015052992 -0.17394818 0.070530586 -0.30490297
0.17940259 -0.037616294 -0.1380308 0.25581497 0.020154165 -0.34523803 -0.3882648 0.4096214
0.34970412 0.24211395 -0.3520299 0.39959973 -0.2908981 0.026400093 0.10369727 -0.20624836
-0.083756484 0.28267857 -0.16507845 0.33756 -0.04488809 0.2907053 -0.013155867 -0.3951342
0.2511009 0.0041301576 -0.31292135 -0.077926 0.47398105 -0.092172414 -0.23606995 -0.0076065287

bias f4 [16]
00000000: a834 66be dd36 d737 71da 4f3e 91a9 5cbb
00000010: d135 ebbc 5264 18b8 5816 0c3e f0e2 d6bd
00000020: e69f 7dbe ebce d3bd 5d6c 7531 9fe6 79be
00000030: 4fab 073e b2cf 083d 42f1 5eb1 f2e2 11bd
-0.22481024 2.5655545e-05 0.20298173 -0.0033670405 -0.028712185 -3.6333055e-05 0.13680398 -0.10492504
-0.24768028 -0.10342201 3.571379e-09 -0.24404381 0.13248943 0.0334012 -3.244239e-09 -0.035616823

weight f4 [16]
00000000: cd35 603f 5a63 5e3f 1af7 703f f7ff 753f
00000010: 4fbf 593f 6554 6d3f e6ba 4e3f fb11 703f
00000020: 946c 613f f4a3 4f3f 7110 733f 1fd8 643f
00000030: b7c1 593f 45b3 603f 9685 673f ccd0 6b3f
0.87582093 0.8687035 0.9412705 0.96093696 0.8505754 0.927069 0.80753934 0.93777436
0.880563 0.8110955 0.9494696 0.89392275 0.8506121 0.87773544 0.9043821 0.92115474

bias f4 [16]
00000000: f501 07bb 33a0 533c bbf9 13bb 8e64 09bc
00000010: 2a2f bfbc e3be 86bc c0a6 40bc b5b6 c8bb
00000020: efb5 843c 5dfd b23c 2736 51bb 56c4 323b
00000030: 8942 bcbb c6f2 ddbb 3ba4 4e3d 86a8 fdbb
-0.0020600532 0.012916612 -0.002257927 -0.0083857905 -0.02333792 -0.016448444 -0.011758506 -0.006125296
0.016200034 0.021849329 -0.0031923146 0.002727767 -0.0057452363 -0.0067733256 0.05044959 -0.007741037

running_mean f4 [16]
00000000: 8a50 c741 c814 0741 054d 02c2 09cd aac1
00000010: 5fe9 6fc1 d3fb 99c1 6297 8641 9ea1 2ac2
00000020: 1dad fc41 3d5a 7b41 9cb8 afc1 8113 4f42
00000030: 8881 e441 6e53 85c1 6714 c740 aed2 22c2
24.914326 8.442574 -32.575214 -21.350115 -14.994475 -19.247961 16.823917 -42.65783
31.584528 15.709531 -21.965141 51.769047 28.563248 -16.665737 6.2212405 -40.70574

running_var f4 [16]
00000000: d384 1943 7740 8f41 241e 8843 b1fe fb42
00000010: 56ea 4d42 5608 c142 6646 8a42 080f d543
00000020: 42b4 7543 b4a3 9542 3adc ee42 0fa6 2744
00000030: a2b4 3e43 c139 a242 4013 3442 8b60 c343
153.51884 17.906477 272.23547 125.997444 51.478844 96.51628 69.1375 426.11743
245.70413 74.81973 119.43013 670.59467 190.7056 81.1128 45.0188 390.75424

weight f4 [16, 3, 3, 3]
00000000: 09d1 083e 4eb9 24be 6505 2e3d 3bf0 ae3c
00000010: 3698 ecbd 32ef 22be fce1 c4bd 75b1 23be
00000020: 774a c7bd be9d 813d 8ddb d8bd 3551 0dbe
00000030: ffc3 a93d b6b5 773d 3935 10be 7214 00be
00000040: 3e9d 743d 31a7 343d 8da2 223e 47da e13d
00000050: 0600 8b3c 558a 2e3e ae9e c1bd 5752 3c3d
00000060: c503 62bd 1f2e 123e a956 783d 5d1e 133e
00000070: ff37 0fbe 7452 16be 73bd 8fbd 81b6 29be
00000080: b09b 1a3e 9c9f 8d3d c111 603d 277b a13d
00000090: 187e e23c 5759 91bd b6c2 15bb a0c5 203e
000000a0: 486c 19bd d535 233d 3815 0c3b d474 e93c
000000b0: 9f5d b93d c4a4 1b3b aecc e4ba 59c7 b23c
000000c0: 3b58 483d 23c8 21be c832 1fbe 4aff ae3d
000000d0: 47ba 4ebb b539 7abd ac3a 963b 3be5 5b3d
000000e0: 0148 703c e5ec 303d 0280 bdbd d3bc e43b
000000f0: edd1 d8bd 60ac 163d 6414 e9bd bd89 92bb
00000100: 2966 69bb a09d b5bd c76b f3bd 79ee f13b
00000110: 68f2 abbd 100c ce3d 7b5b 99bc 380f ce3d
00000120: 2e78 9bbd c5c1 98bd 0000 65bd 3077 233c
00000130: e2b4 c9bd 89bf 813d b3d7 673c 0ba1 82bd
00000140: c877 35bd c24e 77bd 2668 ed3c 03b7 473d
00000150: 4a9c 0abd 21d1 53bc 4b38 24bd ad3a 38bc
00000160: 823e 14bb 2ef9 56bd b002 8f3c 2174 febc
00000170: 5512 24bc 4677 7c3c 6073 5a3b 1c0b 42bd
00000180: b0b5 afbc d150 8c3c 913e 10bc 3b87 c6bc
00000190: 000d 15bc aa41 bf3c 1075 13bd 36da 96bb
000001a0: 3a0a 0bbc 6001 6ebd 1323 10bc 7249 2ebd
000001b0: 91e7 6ebd 84fd dcbc 1371 013d 3f64 153c
000001c0: 0d6a 1cbc 0147 9239 7658 78bd db3d 9dbc
000001d0: a63f 4ebd b416 aa3c ebe5 e73c f760 2b3c
000001e0: 08f2 87bb 9da0 c2ba e213 1dbb d2b0 a2bc
000001f0: 8fbd 1cbd d2c2 4fbb 6349 b6bc ae1b 0ebd
00000200: eecc 32bd 51f4 be3c 3f9f 16bc 7e2b 7ebd
00000210: 26fe 71bd 7c54 4a3d b0bd 12bd 1af2 a1bb
00000220: 8e19 953d 2ae8 673c 744d 92bd 7595 973d
00000230: 2f94 db3c adb8 893d ee52 d9bc 3de5 5dbc
00000240: 6875 a03c f89a 803d 031a a3bb 11b4 debc
00000250: e3c3 5ebb 7b26 783d b9e3 833d f3ab e2bc
00000260: ad07 5639 b4d8 78bc cdfd cc3b 2950 b0bd
00000270: 9df1 ab3c ee7d 0f3d 6f1f 02bd c99a 6bbc
00000280: 7178 ab3c 3ff6 bc3d 0563 1cbe 85ad b73d
00000290: bea9 0dbe 9fb6 88bc 4a79 6dbd 43b8 7abd
000002a0: 93d9 ee3d 2e83 113e b48d 02be bc48 e4bd
000002b0: 22a7 cbbd 6b50 d5bc 8e96 0b3d fef9 2d3d
000002c0: 6974 0b3e 0074 423c 80c7 893d f063 ec3c
000002d0: 9f11 0b3d e219 2a3d cb98 013e 2774 85bd
000002e0: 5785 70bd ce9d 2fbc 9678 bb3d 9eaa 303d
000002f0: 7345 b63d 784a 98bd 0ae0 11be 2f16 03bc
00000300: 30fe c4bd cb56 123e 8c16 c1bc 867a eebc
00000310: cebc 11be 4c1a a7bd 34bf 0bbe 7200 a23d
00000320: bf24 ff3d 4946 feba 6f98 07be 8300 c43d
00000330: 60df 813d d97a d6bd 1ade 2f3e 1cef 073a
00000340: 24ac 18bd 94b8 a5bd 5905 4bbc 12a2 23bc
00000350: c672 1d3e af7c b7bd 678e 203e 54f5 e93d
00000360: 9273 a7bd e787 14be c896 d1bd d9e6 13be
00000370: e55a 933c 3efc ea3d ea34 b73d 3db2 70bc
00000380: 8f8f 143e 6bb5 0b3e 0141 27be fc36 013e
00000390: a0e9 923d 8843 c23d 9fc7 0a3e 6927 bfbd
000003a0: 8dde e5bd 8c8d dc3c e3d4 a3bd fb60 afbd
000003b0: 48ac 5a3d 9e10 fdbd c277 4b3d 4f05 f0bc
000003c0: f642 8a3b 966c 0b3e c20d 69bc fcda 8dbd
000003d0: 6da4 7fbd df95 90bd e2f6 5c3d 16bd 28bd
000003e0: 10ed 3fbc d7d3 9ebd 8087 7bbd a763 003d
000003f0: 4c7f 4bbb 2f7a 7e3d 6078 9bbd d9a1 87bd
0.1336099 -0.16086313 0.042485613 0.021354785 -0.115524694 -0.15911558 -0.096134156 -0.15985663
-0.09731 0.06328915 -0.10588751 -0.1380051 0.082893364 0.060476027 -0.14082803 -0.125078
0.05972027 0.04410476 0.1588232 0.11027961 0.016967785 0.17044957 -0.09454094 0.045976963
-0.055179376 0.14275406 0.06062952 0.14367051 -0.13986205 -0.14679891 -0.070185564 -0.16573526
0.15098453 0.06915209 0.05470443 0.078848176 0.027648017 -0.07097118 -0.0022851652 0.15700388
-0.03745678 0.03984626 0.0021374952 0.02849809 0.0905106 0.002374933 -0.0017456019 0.021823572
0.048912268 -0.15799002 -0.15546715 0.08544786 -0.0031544135 -0.06109019 0.004584631 0.053685408
0.014665605 0.04319467 -0.09252931 0.0069805174 -0.10586915 0.036785483 -0.11380842 -0.004471986
-0.003561387 -0.08867955 -0.11885791 0.0073831645 -0.08395845 0.100608945 -0.01872038 0.100614965
-0.07591282 -0.074588336 -0.055908203 0.009977147 -0.09848954 0.063353606 0.014150548 -0.06378373
-0.044303685 -0.060377844 0.028980326 0.048758518 -0.033840455 -0.012928278 -0.040092748 -0.011244458
-0.0022620265 -0.05248373 0.017457336 -0.031061234 -0.010014136 0.015409296 0.003333293 -0.047373876
-0.02144894 0.01712838 -0.0088039795 -0.024234405 -0.009097338 0.02334674 -0.03600031 -0.0046036495
-0.008486325 -0.05810678 -0.008797425 -0.04255051 -0.058326308 -0.026976354 0.031601977 0.009118139
-0.009546769 0.00027900192 -0.060631238 -0.019194534 -0.05035367 0.020762779 0.028307876 0.01046013
-0.0041487254 -0.0014848892 -0.002396815 -0.019859705 -0.038266715 -0.0031701815 -0.02225179 -0.034694366
-0.043652467 0.023309859 -0.009193241 -0.062053196 -0.059080265 0.049396977 -0.03582543 -0.004942191
0.07280265 0.014154473 -0.07143679 0.074015535 0.026804058 0.06724677 -0.026528802 -0.013543424
0.019587234 0.06279558 -0.004977466 -0.027185472 -0.003399127 0.060583573 0.06439919 -0.027669882
0.0002041149 -0.015188385 0.0062558413 -0.08609039 0.020989234 0.035032205 -0.03176826 -0.014380165
0.020931454 0.09226655 -0.15272148 0.08968643 -0.13834283 -0.016688643 -0.057977 -0.061210882
0.11662593 0.14210197 -0.12749368 -0.111466855 -0.099439874 -0.026039323 0.034079127 0.04247474
0.13618626 0.011868477 0.06727505 0.028856248 0.03395235 0.04152859 0.12655942 -0.06516295
-0.058720913 -0.010718776 0.09153859 0.043131463 0.08899965 -0.07436079 -0.1424562 -0.008000894
-0.09618795 0.14290921 -0.023570322 -0.029111158 -0.1423218 -0.081593126 -0.13647157 0.07910241
0.12458181 -0.0019399609 -0.13241743 0.0957041 0.063414335 -0.1047265 0.17174569 0.00051854714
-0.03727354 -0.08091846 -0.012391412 -0.009987371 0.15375814 -0.089593284 0.15679322 0.11423746
-0.0817634 -0.14504968 -0.10233837 -0.1444353 0.017987678 0.11473893 0.089456394 -0.014690933
0.14507888 0.13643424 -0.16333391 0.12618631 0.07173467 0.09485537 0.13552712 -0.09333689
-0.11224089 0.026922964 -0.07999589 -0.085634194 0.053386956 -0.12356685 0.049674757 -0.029299406
0.004219408 0.13615641 -0.0142244715 -0.069265336 -0.062412668 -0.07059836 0.053946383 -0.04119595
-0.011714235 -0.07755249 -0.06140852 0.031345036 -0.0031051217 0.062128242 -0.07591319 -0.06622667

bias f4 [16]
00000000: 67e7 12b2 0192 5138 26d8 95b2 349f e131
00000010: ad84 84b9 377f f53a d26d 293b f719 4832
00000020: 262b 0135 d30c a9b2 ed5e dbba 3876 fb37
00000030: 6e67 47ba a2c3 95b4 720c 2bb4 f74e eaba
-8.550933e-09 4.996546e-05 -1.7444176e-08 6.566461e-09 -0.00025275853 0.001872993 0.0025852812 1.1647436e-08
4.8119034e-07 -1.9680021e-08 -0.0016736664 2.9976582e-05 -0.000760666 -2.7895754e-07 -1.5930144e-07 -0.0017876317

weight f4 [16]
00000000: b300 6c3f 2f6f 423f e20c 763f d37c 5b3f
00000010: d19a 5d3f 4b87 503f 0c3a 423f 6d33 503f
00000020: 6810 473f 7df2 703f 3668 5e3f 4d58 4e3f
00000030: f6ca 6c3f 98e6 5b3f 2035 573f 354d 623f
0.92188567 0.759509 0.9611341 0.8573734 0.86564356 0.8145644 0.7586982 0.8132847
0.7775941 0.9412001 0.86877763 0.80603486 0.92497194 0.85898733 0.8406544 0.8839906

bias f4 [16]
00000000: 965a 31bc d035 3b3c bc24 87ba 08a3 bc39
00000010: 1da8 0abc 7de3 90bb d8e8 763c 3431 763c
00000020: a391 86bc ea0d 3cbb c7c0 14ba b2fb 2d3c
00000030: 85ba e33a da74 26bc 4c59 5e3c 2533 30bc
-0.01082482 0.011426404 -0.001031063 0.00035979622 -0.008462933 -0.00442165 0.015070163 0.015026379
-0.016426867 -0.0028694817 -0.0005674478 0.010619091 0.0017374313 -0.0101596955 0.013571095 -0.010754381

running_mean f4 [16]
00000000: bc39 02c2 5292 a13e f1ef 87c2 3283 2cc2
00000010: 6a04 33c2 4dba 1442 bb43 9041 f2c6 56c1
00000020: 1926 1240 8b03 5ec2 3bc0 0e42 7cbd cb41
00000030: 7880 47c2 57b8 ddc1 a265 e9c1 c765 14c2
-32.55638 0.31556946 -67.968636 -43.12812 -44.75431 37.181934 18.033072 -13.423571
2.2835753 -55.50346 35.687725 25.467522 -49.875458 -27.71501 -29.174625 -37.099392

running_var f4 [16]
00000000: 0617 d643 1c52 0143 0274 8444 905d d543
00000010: 5035 e443 a89a 9d43 4ed1 3a43 0a3c 4e43
00000020: 6caa 0b43 0e38 2d44 6f38 a343 a2aa 2843
00000030: e569 3244 7bf5 7843 a7f0 4943 7de8 ac43
428.17987 129.32074 1059.6252 426.73096 456.4165 315.20825 186.8176 206.23453
139.66571 692.87585 326.4409 168.66653 713.6546 248.95891 201.94005 345.8163

weight f4 [16, 3, 5, 5]
00000000: beea 9f3d 8c89 b0bd e268 6b3d 9233 ae3d
00000010: 3648 173d 83d8 b7bd 4a31 93bd 36d5 a5bd
00000020: 2d12 bf3d 9d79 2b3d f5c0 44bc 3798 623d
00000030: ff6f 9a3d e6e3 9abd d25c 83bd 832d 73bd
00000040: 09b9 d1bd 42cb 8b3d 6e81 4dbd df47 55bd
00000050: a8a6 39bd 9711 2f3c 4769 a63d bc23 943b
00000060: 148d e1bc e35f 8bbd b6c6 c9bd 8508 a3bd
00000070: 11c4 823d 8063 5ebd defb 98bd b419 863d
00000080: b8fb 6cbd 785f aebd bc2c 90bc 2dfb 0fbc
00000090: da2c 733d d748 c0bd 0d95 843d 1781 b1bd
000000a0: 6984 a8bd b5c5 76bd c6a0 ae3d afd4 b2bd
000000b0: 7e56 383d 8207 8abd 34d5 533d 29bb 3abd
000000c0: 0147 afbd 71c9 963d e078 253c 4fa3 a63d
000000d0: 0c80 533d 6157 a9bd df33 e33d 129f 4f3d
000000e0: 4941 afbd aa76 d33d b566 b8bd ba8a d03d
000000f0: ab12 82bd 155a a53d 1e44 3f3d 1615 78bd
00000100: 5cd9 ba3d eab0 b8bd e7c1 0c3d 4d50 3f3d
00000110: b3c1 0c3d b862 213d a396 d8ba 83d5 1bbd
00000120: 075a d53d 4f1a 24bc a4e2 613d 60b6 e23c
00000130: 863d 45bb a562 8e3d b571 563c e7f8 853d
00000140: f2c6 453d b96c b3bd e3a0 95bd 1c40 843d
00000150: 2321 2fbc 75ff 4e3d d865 b5bd 3a75 b8bd
00000160: f357 d6bd d4c0 073d bcc5 0abc ec02 bdbd
00000170: e999 a4bd 81a1 143c 5595 753d 889e 1d3d
00000180: 2a3c 813d 334a ee3c 2457 c23c 301f 9f3c
00000190: 200a ee3c b152 653d 427f d7b8 0deb 8dbd
000001a0: b06e 57bd b465 06bd 0429 983c 2681 0a3c
000001b0: b0be 3c3c 2ea3 5c3d 0761 03bc e420 463d
000001c0: 0288 1abd 9124 84bc fa17 4b3d 363a 9f3b
000001d0: 0da9 8dbd f927 79bd 9eb5 ff3c eb9a 47bd
000001e0: a80a 873d de86 cd3b a795 763d b02e 68bc
000001f0: 6007 d13c 193e 4c3d 1c70 91bb 3405 99bb
00000200: 6a9f 223b ed8c 613d 328c 3fbd 8a7d 453d
00000210: 6e1a 0ebc 8d6c b7bc 4f7b 53bd d328 36bd
00000220: a99a 6b3d 727a ec3c 371f dfbc 8b32 a8bc
00000230: d3de 36bc 8530 ea3c afc6 5cbc b02b b1bb
00000240: ba0b 3abd 329b ed3b a967 bf3c b120 e93c
00000250: 285b 1d3c 6793 053d b808 0e3c 1f45 3e3d
00000260: df4d c13d bedf 6cbd 76da cc3d b3a5 7bbd
00000270: 2bca d5bd 3955 b8bd 2ae2 c03d 9b49 e03c
00000280: 1b68 8d3d 26ba 35bd aa74 d53d 9a0b 1abd
00000290: e05b cdbc 9274 e3bd f6e7 09bc bf07 b0bd
000002a0: 49ab 583d 9065 173d 2070 64bd 60f8 5f3d
000002b0: df55 d33d fe95 91bc 0811 ab3d 7677 bf3b
000002c0: 385d 98bd 945b 7c3c 856e 01bd 8225 c23d
000002d0: 9ba7 92bd 79cc 54bd 4aa7 54bd aaca 9e3c
000002e0: 06dc 5abc 6547 a9bd cf3b b8bd f6fd 41bd
000002f0: 45fd 643d 5e7f 92bc 8ea9 8fbd b5a0 5dbd
00000300: d139 d33d eedd e7bd 91d3 893d aa0e 56bd
00000310: b2bd bcbd 36d2 4d3d d76f 8fbd 291c fabb
00000320: 9dbb 79bd 941c 723b 15ff c33c 0817 e93d
00000330: 1adf 58bd 038d 43bd e010 603d f9ce 6dbb
00000340: a2da b23d 9609 e2bd 7660 0abd 29c7 d43d
00000350: 2889 c03c cd8c d6bd e8cb ca3c 1f20 9f3d
00000360: ac92 a43d ddf4 2cbd 0f76 e13d 7acb 00bb
00000370: d40a 5abc e781 b2bc ea17 bf3d 76f8 c4bd
00000380: 0fa3 c73c a509 37bd ceed 903c 3977 853c
00000390: fbb2 b5bd 40a0 a4bd 9dbd 063d 4088 7cbd
000003a0: a5c8 853d 45ea 88bd 68f5 99bd da09 e93d
000003b0: eec9 35bd 72c6 0fbc 659d bcbc 57a8 51bd
000003c0: 54b5 96bb 28e1 273d f278 5bbd b741 ffbc
000003d0: fafe cb3d 9b32 113d 0a44 3fbd be91 08bd
000003e0: 7ab9 a63d 5d1d 283d de2e 983d 2f9e 693c
000003f0: 5b92 b8bd cdee e9bd f58a b93d 7a69 8e3c
0.078084454 -0.08619985 0.05747307 0.0850593 0.0369341 -0.08976843 -0.071871355 -0.080973074
0.09329639 0.041864026 -0.012008895 0.055320945 0.07540893 -0.075629994 -0.064141884 -0.059369575
-0.10240371 0.06825878 -0.050172262 -0.052070495 -0.04532495 0.010685346 0.08125549 0.0045208614
-0.027533092 -0.06805398 -0.09852354 -0.07960609 0.06385053 -0.05429411 -0.07469915 0.06547871
-0.057857245 -0.08514303 -0.017599456 -0.008787912 0.059368946 -0.09388893 0.06473742 -0.086672
-0.0822838 -0.060247142 0.08526759 -0.087319724 0.04500436 -0.06739713 0.051717 -0.045588646
-0.08558465 0.07362641 0.01009962 0.081366174 0.051635787 -0.08268619 0.11093878 0.05068881
-0.08557374 0.10325368 -0.09003965 0.1018271 -0.06351217 0.080738224 0.04669582 -0.060566984
0.09123489 -0.09018119 0.034364607 0.04670744 0.034364413 0.039400786 -0.0016524385 -0.038045418
0.10417562 -0.010016038 0.055147782 0.027674854 -0.0030096485 0.06952409 0.013088633 0.06541615
0.048285432 -0.087609716 -0.07306077 0.064575404 -0.010689053 0.05053659 -0.08857316 -0.09006734
-0.10465994 0.03314288 -0.008469995 -0.09229073 -0.080371685 0.009071709 0.059956867 0.038481265
0.063103035 0.029088115 0.023723193 0.019424051 0.029057562 0.055987064 -0.000102757025 -0.06929598
-0.052595794 -0.032811835 0.018574245 0.008453643 0.011520073 0.053866558 -0.008018739 0.04837121
-0.037727363 -0.016130717 0.049583413 0.004859234 -0.069170095 -0.060829137 0.031214532 -0.048731726
0.065938294 0.006272181 0.060201313 -0.014171287 0.025516212 0.04986391 -0.0044384133 -0.0046698097
0.0024814256 0.055066038 -0.04676456 0.048215427 -0.0086732935 -0.022390628 -0.051631268 -0.044472527
0.057520542 0.02886698 -0.027236564 -0.020531913 -0.011161524 0.028587589 -0.013475104 -0.0054068193
-0.04542134 0.0072511667 0.023364859 0.028457971 0.009604253 0.032611277 0.008669071 0.046452638
0.09438681 -0.057830565 0.100026056 -0.06143732 -0.10438951 -0.0900063 0.09418137 0.027378848
0.06904622 -0.044366978 0.104226425 -0.03760872 -0.025068223 -0.111062184 -0.00841712 -0.085952275
0.052897725 0.036962092 -0.055770993 0.05468023 0.10319113 -0.017771717 0.08352858 0.0058430983
-0.07439655 0.015402693 -0.03159954 0.0947981 -0.071608745 -0.051952813 -0.05191735 0.019383747
-0.013358122 -0.082655706 -0.089957826 -0.047361337 0.0559056 -0.017882999 -0.07014762 -0.05410834
0.10313762 -0.113216266 0.06729806 -0.05226008 -0.09215869 0.0502493 -0.07003754 -0.0076327515
-0.060969938 0.0036943303 0.023925344 0.11381346 -0.05294714 -0.0477419 0.054703593 -0.0036286695
0.08733107 -0.110369846 -0.0337834 0.10389549 0.023502901 -0.10476074 0.024755433 0.077697985
0.08035788 -0.042225707 0.11008846 -0.0019652531 -0.013308246 -0.021790458 0.09330733 -0.09617703
0.024369745 -0.044686932 0.01769152 0.016292201 -0.088720284 -0.08038378 0.032895673 -0.061653376
0.065324105 -0.06685308 -0.07517511 0.11378832 -0.04438203 -0.00877534 -0.02302427 -0.051185932
-0.0045992527 0.04098621 -0.05358214 -0.031159265 0.09960742 0.03544865 -0.046695746 -0.033342116
0.081408456 0.041043628 0.07430814 0.014258905 -0.0901229 -0.11422501 0.09059707 0.01738428

bias f4 [16]
00000000: cbac 4b32 3e85 e2b1 383b 86b3 721e 5734
00000010: ce07 9cb0 9b51 d9b0 cd7b 5db4 6430 7e37
00000020: 3acd 73b2 8da2 15b1 4c78 2031 6d2e ae30
00000030: 2022 6830 e2a8 86b3 b1d7 f232 8c76 5cb0
1.1855444e-08 -6.5926136e-09 -6.250633e-08 2.0034511e-07 -1.1352712e-09 -1.5812022e-09 -2.0627267e-07 1.5150847e-05
-1.4191125e-08 -2.1774753e-09 2.3351445e-09 1.2673361e-09 8.4449603e-10 -6.270581e-08 2.8270593e-08 -8.0204e-10

weight f4 [16]
00000000: b62e 4c3f 032a 573f 477c 5e3f b793 753f
00000010: f1d2 4f3f 169c 5b3f 71f9 6b3f 6031 5e3f
00000020: e5ae 603f e4f2 693f 871a 643f 5f6f 4e3f
00000030: 59d7 593f 2ff6 5c3f d827 513f 2754 493f
0.79758775 0.8404848 0.8690838 0.9592852 0.81181246 0.85785043 0.9217749 0.8679409
0.8776687 0.91386247 0.8910298 0.8063869 0.8509422 0.86313146 0.8170142 0.7864403

bias f4 [16]
00000000: bcdf 1fbc 220b 4fbb cffd 32bc 4f95 0ebb
00000010: d6bb 673a 081d 2d3d 0266 b2bb 1b84 ef3b
00000020: 4415 83bc 0452 6e3b 24bc 1b3c 765f f73c
00000030: 1383 6fbb 281c 95ba b330 013c 6c23 8c3c
-0.009757932 -0.003159233 -0.0109247705 -0.0021756475 0.00088399404 0.042264014 -0.005444289 0.0073094494
-0.016001351 0.0036364803 0.009505305 0.030196887 -0.0036546632 -0.0011376189 0.007885146 0.017106734

running_mean f4 [16]
00000000: 2780 0ac2 1101 2b41 0a58 b6c1 41c9 f0c1
00000010: 84ad 9641 af3a 8b41 7616 bcc1 6b27 68c2
00000020: 4ace b6c1 99e1 e041 b422 9241 3993 ad40
00000030: 015f e9c1 3399 23c2 aead b23e 10cf 4042
-34.62515 10.68776 -22.792988 -30.098269 18.834724 17.403654 -23.510967 -58.038494
-22.850727 28.110155 18.266945 5.4242215 -29.171389 -40.89961 0.34898132 48.20221

running_var f4 [16]
00000000: 2b31 0344 e4d0 2c43 0235 e243 bb74 1344
00000010: 5db8 2943 350c 4f43 801e bd43 64d7 3544
00000020: 0460 ce43 c283 7b43 b8a4 5f43 0a4a 9743
00000030: 8fc6 1444 9c4b 1544 9ea1 a243 ba9c 0a44
524.76825 172.81598 452.41412 589.8239 169.72017 207.04768 378.23828 727.3655
412.75012 251.51468 223.64343 302.57843 595.1025 597.1814 325.26263 554.44885

weight f4 [96, 48, 1, 1]
00000000: eea2 d4bd 6bfb e93d 9a45 013e 7372 a7bc
00000010: ccb0 41bd df10 c9bd 1764 9e3d 9eb0 d0bd
00000020: 8167 253c 2487 a03d fdd0 e9bc e8c7 08bd
00000030: 530c e7bd fd1a 8fbc 481e 80bd de4d e83d
00000040: 1bf2 5cbd 4d72 a2bc 0da5 d6bc 8c69 71bd
00000050: cb63 353d 1084 2b3c bfe0 cbbd 7722 b5bc
00000060: 530b 603b 24ef 643c 56f5 0dbe e358 aabd
00000070: 7ded f53d 652c c1bd 9140 4e3d 1ebe ebbd
00000080: ecfe 9cbd 3dc2 993d 7aa0 4fbd ff2e 493b
00000090: 7efd 813d 883d d13c b841 223d 38f6 c23c
000000a0: 90bd a03d 7db0 e5bd ce58 893d 7e13 a93c
000000b0: 8b8a 4fbd a586 14bd 24d4 75bd e7d0 d73c
000000c0: f818 57bd bbc9 17bd 6917 213d 664b f2bc
000000d0: 3acc 543d 9810 8dbd ac43 7a3d 33c1 4ebd
000000e0: 5675 a9bd 03c6 92bd 45cb d9bc 1165 bd3d
000000f0: 9067 b83c 63ae 4fbd 1179 94bd 05d3 16bd
00000100: 3ef1 90bd 78fc de3c 3777 f43b 537f 4d3d
00000110: d517 143c 0013 c33c 787c 8cbb 5737 a3bd
00000120: 98da 1ebc 2369 86bd 4a64 c0bc dc30 d6bd
00000130: 7019 78bd 44fa 103d 56e1 6bbb f34c 30bc
00000140: 2c9f 63bb d530 d03d 920c 2d3d 4730 c0bd
00000150: 4dd2 243d 8bb9 d5bd 6121 ab3c 0a3b 8ebd
00000160: c3fd b53d bfbd cfbd 4124 803d 156b c83a
00000170: d9b4 893d 4f22 743d c111 6cbb 024f bd3d
00000180: bc1f 433b 8809 a5bd 1090 8e3d 4add 3f3c
00000190: 4b64 713d 6e69 8cbd 3af0 1f3d e8b2 39bd
000001a0: d8b7 c13d 7bbe 873d 8eb2 67bd c4cb 98bd
000001b0: 8c08 ea3c 0b8d 02bd 9e45 f13c 47f2 213d
000001c0: b207 d03d 7f00 f5bc d4b6 e03d a62c 283d
000001d0: 0ba4 28bd 1fa3 c2bc e5da 54bd 2be5 4abb
000001e0: 65e7 c3bc d300 83bd 757c c6bd c436 aebc
000001f0: f1e1 64bb 6280 a1bd 9c73 503d cfab 4abd
00000200: bdd4 883d c129 0dbd dc8c 5f3d 9cae 88bd
00000210: 9687 b83d 5ff3 513d c335 09bd 0678 d9bd
00000220: 5d88 38bb a8e6 25bc 6fbc b0bd e549 86bd
00000230: b5e8 ccbd eb40 a7bc 6516 c53d 75e3 4cbd
00000240: 34b1 9e3d 0ef0 78bd ad28 15ba d352 93bb
00000250: f905 4bbb 5e1c 4abd 34fe 293c ed13 04bb
00000260: 79f2 f73c f7ec 4fbc 66b6 87bc 6369 8a3d
00000270: 5ebe 07bd d511 39bc 9474 193d f126 4a3c
00000280: fc80 98bc 6f64 37bb e826 043d 1bb4 ff3c
00000290: c242 29bc f586 0e3c 612f 0abd 40f2 6d3d
000002a0: f77d 803d a823 00bd fa11 813d c38c 723c
000002b0: 4de5 823b 5ef0 dcbc b62c 5fbc 50a2 d2bc
000002c0: aa8d 713d 3ad8 96bd 5038 2c3d ae11 0bbd
000002d0: 1b19 40bb ea11 c8bc 958e 3cbd ebcd fe3b
000002e0: f1c7 c6bb fbcc d73c 8a6e 5f3c 8ad2 703d
000002f0: d44d d1bc e50b 973c 81d0 20bc 7b25 15bd
00000300: 4d67 093c c1d2 d9bc 8dc3 a83d 1d77 de3d
00000310: 95de b63c 302e 033d 698d eb3d c07a ff3d
00000320: f4fd b1bd 0ec7 7dbd 1b34 4fbd 2c15 88bc
00000330: 4b04 943d 17e9 a13d 484b 773d abcc 90bc
00000340: 84ad bb3d fd54 fe3a a143 d5bb e3a9 823d
00000350: bda0 9abd 6740 b9bc 66fe cabb 6a93 a73d
00000360: c77b 0bbd f070 5e3d 7786 e33d df84 463d
00000370: 62d8 10bd 2fee 59bd 4398 d83d 926e fcbd
00000380: 9c91 b03c 8d0e 763d c094 4f3d 772b 703d
00000390: b10e aabd 9620 23bd 03ad 3ebd 7c31 09be
000003a0: 0fe0 b0bd 68bb 743d ec78 e43d f494 6b3a
000003b0: 0fb5 bdbb ae65 a13d 4f64 e4bc d3c6 fa3b
000003c0: dd46 f03c aa5f a93d 670c 96bd 5457 c4bc
000003d0: 0e2c 7d3d b37c 853d 1027 b93c c808 853d
000003e0: 8e2f a2bc fd26 453d f906 e43c 7e14 fc3c
000003f0: fcf6 c2bc 0fda 7a3d 3493 a33d 8617 093d
-0.10382639 0.11424907 0.12624207 -0.020440316 -0.047287747 -0.09817671 0.077339344 -0.10189937
0.010095478 0.07838276 -0.028542036 -0.03339377 -0.112816475 -0.017468924 -0.06255776 0.11342977
-0.053941827 -0.019829893 -0.02620175 -0.058938548 0.044284623 0.010468498 -0.09954976 -0.02211116
0.0034186437 0.013973031 -0.1386312 -0.08317735 0.12008188 -0.09432296 0.050354544 -0.11510871
-0.0766581 0.07507751 -0.05069015 0.0030698178 0.06347178 0.025542036 0.039613456 0.023799047
0.07848656 -0.11215303 0.06706391 0.020639177 -0.050669234 -0.03626122 -0.060016766 0.02634473
-0.052514046 -0.03705762 0.039328966 -0.029576968 0.051952578 -0.06887931 0.061099693 -0.050477218
-0.08274333 -0.07166674 -0.026586184 0.092477925 0.02251032 -0.050703418 -0.07249654 -0.036822338
-0.07077263 0.027219996 0.0074605006 0.050170254 0.009038885 0.02381277 -0.004287299 -0.079695396
-0.0096956715 -0.06563022 -0.023485322 -0.10458538 -0.060571134 0.035394922 -0.0035992465 -0.010760534
-0.0034732325 0.10165564 0.042248316 -0.09384208 0.04023962 -0.1043578 0.02088994 -0.069448546
0.08886292 -0.10143613 0.06256915 0.0015290702 0.06723947 0.05960303 -0.0036021324 0.09243585
0.0029773554 -0.080584586 0.069610715 0.011710474 0.058933537 -0.068560466 0.039047457 -0.045336634
0.094588935 0.06628128 -0.056566767 -0.0746074 0.028568529 -0.03187279 0.029452141 0.039537694
0.10157718 -0.029907463 0.10972372 0.041058205 -0.04117207 -0.023759423 -0.051966567 -0.0030959349
-0.023914048 -0.063966416 -0.09691707 -0.021266349 -0.003492471 -0.07885815 0.050891504 -0.049480256
0.066812016 -0.034463648 0.054577693 -0.06673929 0.09010236 0.051257487 -0.033498537 -0.10618596
-0.002815745 -0.0101257935 -0.08629691 -0.06557063 -0.10005323 -0.020416697 0.09623412 -0.050021607
0.077486426 -0.06077581 -0.000568996 -0.0044959574 -0.0030978902 -0.04934346 0.010375548 -0.0020153478
0.030266987 -0.012690774 -0.016566467 0.06758382 -0.033140533 -0.011295755 0.037464693 0.012338386
-0.018616192 -0.0027983447 0.032263666 0.03121381 -0.010330858 0.008699168 -0.03373659 0.058092356
0.06274026 -0.031284004 0.06302257 0.014804068 0.00399462 -0.026970085 -0.0136215 -0.025712162
0.058972992 -0.07365461 0.04204589 -0.033952408 -0.002931184 -0.024422605 -0.046034414 0.007776012
-0.0060663153 0.02634286 0.013637194 0.058794536 -0.025549807 0.018438289 -0.009815336 -0.036412697
0.008386445 -0.026589753 0.08240423 0.10862563 0.022322932 0.03202647 0.11501581 0.124745846
-0.08691016 -0.06195741 -0.0505868 -0.016611658 0.07227381 0.079057865 0.06037453 -0.017675718
0.09163955 0.0019403991 -0.006508306 0.063800596 -0.0755019 -0.022613717 -0.0061948774 0.08182414
-0.03405359 0.054306924 0.111096315 0.04846656 -0.03536261 -0.053205665 0.105759166 -0.12325777
0.021553807 0.06007247 0.05067897 0.0586352 -0.083035834 -0.039826 -0.046551716 -0.13397783
-0.08636486 0.059749037 0.111558765 0.00089867343 -0.005789406 0.07880722 -0.027879862 0.007653096
0.029330665 0.082701996 -0.07326584 -0.023967423 0.061809592 0.06517925 0.022601634 0.064958155
-0.019798066 0.048132885 0.027835356 0.03077149 -0.023799412 0.061243113 0.07987061 0.0334697

bias f4 [96]
00000000: 295e 1833 3705 4638 bb32 abb4 0ffb 1c34
00000010: 6332 de31 d0d1 21b0 854f 3bb3 c56a 9eb8
00000020: 8572 99b2 c4a6 0037 6e12 e432 7f41 a2b6
00000030: 9de7 1c34 80b6 50b4 00bf 0e34 2ad1 9db4
00000040: 9a29 ca38 cf48 d0b1 396f 0d39 9465 0033
00000050: d79c 38b8 b278 9f35 06e6 8f39 a50e 57b6
00000060: 324b b8b0 a926 41b7 4a3b 6934 0492 e836
00000070: eb6c dab8 eb9e ad36 484c 1f34 170f d435
00000080: ca5a 8db6 b6ad fe38 9867 2c34 fda8 37b9
00000090: e6c4 02b3 6b5f d7b9 1ac2 91b3 4662 2532
000000a0: 0196 3c35 eab0 54b4 8b87 47b7 6d27 6536
000000b0: 217e 23b5 e8ae 2538 e5ff 9633 2704 a333
000000c0: 4439 15b4 dad5 1cb7 bb5b 3334 efaf d0b2
000000d0: 3efa 36b7 c6ed 6134 1bd2 f032 80ca acb3
000000e0: 0149 beb2 ce77 aeb4 04fc 1233 eca8 5035
000000f0: 7099 2936 7c23 be33 dcb7 8138 3951 6c34
00000100: 6cac d234 4910 8b31 f78e d334 e8b1 d3b9
00000110: d22e aaad 08d5 0db3 0360 e834 b242 3ab4
00000120: 7066 6235 b414 11b6 174c 3a33 e8e6 2838
00000130: 302c 09b5 c825 bb39 c3c1 25b1 4b46 23b3
00000140: e7bf 80b1 26c4 a431 2c1b 01b2 337a 4e34
00000150: d851 9bb4 1065 3f33 a357 ad38 a96a 85b1
00000160: 7e27 40b8 bf4d 1e33 d1cf a5b2 0551 76b3
00000170: d6d1 8835 2871 4836 0a7c 4139 a701 0434
3.5475896e-08 4.7211735e-05 -3.1888143e-07 1.4619967e-07 6.4667787e-09 -5.886962e-10 -4.3611653e-08 -7.5539145e-05
-1.7863622e-08 7.668223e-06 2.6551074e-08 -4.835601e-06 1.4612893e-07 -1.9437903e-07 1.3294266e-07 -2.9395716e-07
9.6398595e-05 -6.061874e-09 0.00013488242 2.9894707e-08 -4.4015087e-05 1.188155e-06 0.00027446466 -3.204602e-06
-1.3409134e-09 -1.1512698e-05 2.1721385e-07 6.9311372e-06 -0.000104153376 5.1743023e-06 1.483578e-07 1.5799623e-06
-4.2126967e-06 0.0001214402 1.6056435e-07 -0.00017515193 -3.044706e-08 -0.00041079088 -6.7873955e-08 9.626609e-09
7.025374e-07 -1.98084e-07 -1.1892883e-05 3.4146608e-06 -6.0905774e-07 3.950196e-05 7.031466e-08 7.591034e-08
-1.389754e-07 -9.348116e-06 1.6704045e-07 -2.4294392e-08 -1.0906309e-05 2.104126e-07 2.8035222e-08 -8.046209e-08
-2.215211e-08 -3.2497195e-07 3.422248e-08 7.773185e-07 2.5272275e-06 8.854019e-08 6.185446e-05 2.2008761e-07
3.9241002e-07 4.047284e-09 3.9405833e-07 -0.00040377607 -1.9347555e-11 -3.302287e-08 4.3283225e-07 -1.7346864e-07
8.4340627e-07 -2.1618735e-06 4.3375703e-08 4.026937e-05 -5.110078e-07 0.0003569557 -2.41208e-09 -3.8015326e-08
-3.747107e-09 4.7953277e-09 -7.514966e-09 1.9229701e-07 -2.893055e-07 4.456257e-08 8.2656064e-05 -3.8829353e-09
-4.5813147e-05 3.685795e-08 -1.9303032e-08 -5.7350025e-08 1.019386e-06 2.9868188e-06 0.00018452122 1.2294059e-07

weight f4 [96]
00000000: ea8c 453f ac03 413f b2f7 403f 7263 353f
00000010: be8a 433f 47d7 3c3f dc36 453f 9a76 3e3f
00000020: 1158 3c3f d753 3c3f 2699 403f 5657 4e3f
00000030: f4ca 403f cad3 453f cb0e 393f 5f06 4a3f
00000040: cbef 383f 6451 5b3f 4f2b 433f 1aca 3c3f
00000050: efce 363f fb34 353f 65ac 4a3f 7267 493f
00000060: 0464 3c3f 518b 363f db74 4d3f 6be3 473f
00000070: 2341 4f3f a089 513f ca40 4a3f c205 453f
00000080: 024a 493f 0586 403f 869e 413f 8c96 463f
00000090: a7ef 363f 8548 3b3f 6637 393f 4eb3 533f
000000a0: bfaa 373f 33f2 553f 84cb 373f 3472 363f
000000b0: d82c 463f 2380 423f e29b 473f b784 393f
000000c0: 51d9 473f 7b6d 3b3f 1293 413f 7110 3d3f
000000d0: 6839 343f 06cf 343f 1fcd 473f b108 443f
000000e0: 606d 3a3f 59b6 3a3f b7b7 4a3f eee9 333f
000000f0: 9b1d 3e3f 9639 343f 107a 4f3f 4a5b 353f
00000100: 908c 393f d37f 373f 2e34 493f aac2 393f
00000110: f310 363f 59b2 383f ec58 353f 6a3e 353f
00000120: b529 473f d401 463f ecd1 3b3f 2e9c 353f
00000130: 1950 3d3f 4d29 3f3f 0da0 373f 0039 3c3f
00000140: f0d9 3a3f eaef 3f3f a51e 523f e799 363f
00000150: a241 453f fe2f 3f3f 7e12 433f 25aa 373f
00000160: 4595 413f 8f42 413f 4926 483f c543 4c3f
00000170: 5163 343f 6167 403f 66a5 3b3f 78c2 443f
0.7716814 0.7539623 0.75377953 0.70854867 0.7638358 0.7376599 0.77036834 0.7439972
0.7357188 0.7356543 0.75233686 0.80602014 0.7530968 0.7727629 0.722882 0.7891597
0.72240895 0.8567107 0.7623796 0.7374588 0.71409506 0.70783967 0.79169303 0.7867347
0.7359011 0.7130633 0.8025643 0.7808139 0.80958766 0.81850624 0.7900511 0.7696191
0.7862855 0.752045 0.7563251 0.77573466 0.7145943 0.7315753 0.72350156 0.8269547
0.7174491 0.8357269 0.71794915 0.7126801 0.77412176 0.7597677 0.77972233 0.7246813
0.78065974 0.7321393 0.75615036 0.7385321 0.70400095 0.7062839 0.78047365 0.7657576
0.72823143 0.7293449 0.79186577 0.70278823 0.74263924 0.7040037 0.8104563 0.7084242
0.72480106 0.7167942 0.78595245 0.7256266 0.7111961 0.72147137 0.7083881 0.7079836
0.77798015 0.7734654 0.7336719 0.70941436 0.73950344 0.74672395 0.71728593 0.73524475
0.72988796 0.74975455 0.8207801 0.71328586 0.7705327 0.74682605 0.7620009 0.71743995
0.7561839 0.75492185 0.7818342 0.7979091 0.70464045 0.75157744 0.73299253 0.76859236

bias f4 [96]
00000000: d283 2bbc a5d4 023b 9d75 793b 1e01 22bc
00000010: 0444 ec3a 0568 85bc 6140 263c 7f59 9d3c
00000020: 6cf9 edbb f799 c63b 0e52 a2ba ce3e cabc
00000030: db96 ac3c 53c6 08bc b713 103c baa8 ad3b
00000040: ee3f 57ba 8123 92bb 1b86 a2bb 31a5 8fbc
00000050: ffb4 c5bb 5361 273b 000e 413b 02d7 05bc
00000060: ec9f b1bc 608a 77bb 6aae f2bb e152 d6bb
00000070: 5cf8 8fbc 2770 04bc 4667 c53c 38ac 60bb
00000080: fd90 0a3c 5a0e a7ba 909d 8339 ff5c 24bb
00000090: 7e0b 0dbc fba6 73bc df2a 8fbc af79 313c
000000a0: 9635 fabb 6a6a 0a3c b7ee 3ebb 1a44 2cbb
000000b0: a67d e4ba 446e 71bc d5a6 6e3a 405f 123c
000000c0: 73a7 abb7 aee9 e1bb 48cd 243b b377 a6bc
000000d0: 30ab 8bbb 8657 03bc d445 283c 0c81 983c
000000e0: 3ed5 49bb a507 d0bb 6272 c13a f717 b5bb
000000f0: 73f2 8e3b b611 983c abc1 cdbb 5f41 193b
00000100: b7c4 093c 5870 123b 6c84 0e3c e9ab 173c
00000110: 68e0 6ebc 3f5e b23b 4a2e babb ad22 27bb
00000120: 15b3 06bc 8095 043c e412 b4bb 0591 98bb
00000130: b463 1cbc bcc7 b03c edd1 7fbb 5cd3 9a3b
00000140: 7d3c cebb ccc0 92bb 52ab 21bb 54c0 9abb
00000150: 6887 d639 4196 a5bb adc8 8dbb 592b 0b3b
00000160: d445 0fba 251c 1f3c bf8b 603c f1c0 9639
00000170: 30a9 093c 9e74 2c3c 6586 83bc 5175 15bc
-0.01046844 0.0019963172 0.0038064488 -0.009887962 0.0018025641 -0.016284952 0.010147185 0.019207714
-0.0072623994 0.0060608345 -0.0012384073 -0.02468815 0.021068027 -0.008348065 0.008793763 0.005299655
-0.00082111254 -0.004459799 -0.0049598343 -0.017534824 -0.0060335393 0.0025540187 0.0029457808 -0.008168938
-0.021682702 -0.0037771687 -0.0074060457 -0.0065406417 -0.017574482 -0.00808338 0.024097096 -0.0034282338
0.008457419 -0.0012745366 0.0002510366 -0.0025079844 -0.008608697 -0.014871354 -0.017476497 0.010832234
-0.0076357825 0.008448223 -0.0029133984 -0.002628571 -0.0017432466 -0.014735762 0.00091038394 0.008933842
-2.0462763e-05 -0.006894312 0.0025146771 -0.020320749 -0.0042623505 -0.008016473 0.010270555 0.018616222
-0.0030797268 -0.0063485675 0.001475882 -0.0055265385 0.0043623983 0.018563133 -0.0062791905 0.0023384911
0.008408717 0.0022344794 0.008698564 0.009257295 -0.01457987 0.005443364 -0.0056817876 -0.0025502846
-0.008221407 0.008092284 -0.005495416 -0.0046559596 -0.009545255 0.021579616 -0.0039035038 0.004724903
-0.006293832 -0.0044785496 -0.0024668765 -0.0047226343 0.00040918146 -0.005053312 -0.004326901 0.0021235554
-0.00054654223 0.0097113 0.013705193 0.00028753982 0.008402154 0.010525851 -0.016055295 -0.009122209

running_mean f4 [96]
00000000: f4c2 39be 7213 2dbe e637 e3bd 3f57 043d
00000010: 96ee 7f3e 48e8 a73e 7c4d 15bd 3192 89bd
00000020: a93b 84bd c1d0 123c 24a0 51bd ad61 613e
00000030: 10bc 993b 5d42 233e fa6f 41be cc52 4dbe
00000040: 84b3 893d f245 a03d 25a9 91bd 4e08 013e
00000050: 058b 9bbc 48b1 0cbd 411a b83d fec1 8f3e
00000060: ea31 893e aa8f 163d 86e0 7c3d a96a 3f3e
00000070: 72b0 473e ce50 aebd 3272 c4bd 4354 b93b
00000080: 3887 54bd e967 123e 9a5d dc3c 5ce7 d3bc
00000090: 9a9f 55bb 4506 44be 8886 363e bd36 2cbe
000000a0: 9db7 6d3d bb3e 5abe eecf 27be 65af afba
000000b0: 7469 b3bd e4db ba3e 9981 f3bb e5b1 57be
000000c0: 3c1f 30be 3cbf 0bbe cd59 ba3c 66c1 963e
000000d0: 431d c1bd 7f40 4fba 189c 67be deb7 27be
000000e0: e9dc 173e d574 1e3e 6042 e03d 07df c6bd
000000f0: 4ddc 54bd b280 f8bd 7d5d 1e3e 52b7 c7bd
00000100: a228 be3c f0f7 7ebd a57c 27be ac5b b2bd
00000110: 712f b93d fcb5 f3bc d081 b23d 7be3 c93b
00000120: 46a6 393d f9f4 3b3e 32b2 36be c557 83be
00000130: be94 863d cc51 5abe 0760 fc3c 63ad 85be
00000140: 6983 b63c ccde ca3d d559 c6bc dfcd fcbc
00000150: b1b2 89bd 3118 dcbc 9390 0fbe 23e7 91bd
00000160: ac8d 173e 1011 ce3e 08fe 6f3a d744 9dbc
00000170: 7965 7d3c cec3 473d 74e0 933d 495b de3c
-0.18140775 -0.16901949 -0.11094646 0.032309767 0.24993357 0.32794404 -0.036450848 -0.06717337
-0.06456692 0.008960904 -0.051178113 0.22009917 0.0046916083 0.15943284 -0.18890372 -0.20051116
0.06723693 0.07825841 -0.0711234 0.12600824 -0.018987188 -0.034348756 0.089893825 0.28077692
0.26795894 0.036758102 0.06173756 0.18693031 0.19500902 -0.08511506 -0.095920935 0.0056557967
-0.051886767 0.14297451 0.026900101 -0.025867157 -0.003259635 -0.19143017 0.17824757 -0.16817756
0.058036435 -0.21312992 -0.16387913 -0.0013403712 -0.08760348 0.36495888 -0.0074312207 -0.21063955
-0.17199415 -0.13647169 0.022747898 0.29444426 -0.09429409 -0.0007906034 -0.22618139 -0.16378734
0.14830364 0.15474255 0.1095016 -0.09710508 -0.051967908 -0.12133922 0.1546535 -0.097517624
0.023212735 -0.06224817 -0.16356142 -0.08708891 0.09042252 -0.029749863 0.08716166 0.006161151
0.045324586 0.18355168 -0.17841414 -0.256529 0.06571339 -0.21320266 0.030807508 -0.26108846
0.022279458 0.099057764 -0.024212757 -0.030859886 -0.06723536 -0.026867004 -0.14019994 -0.07124164
0.14800137 0.40247393 0.000915498 -0.019197864 0.0154660875 0.04877072 0.072205454 0.027143138

running_var f4 [96]
00000000: 7ff0 3c3d 19ba 043d 8951 4b3c 182d 973c
00000010: 1cce a13d e4d3 413d ceb2 8d3c 29e5 143d
00000020: 7533 ee3c 9bce ea3c 198e 463d 1844 0b3d
00000030: df70 d73c a82c 193d 1937 de3c 9252 363d
00000040: 7042 273d f37a 6a3d 8887 1e3d 57db b83c
00000050: 7002 e23c cd04 c63c e625 113d f694 253d
00000060: 99f0 7d3d 8769 473c b164 d33c 2baa 093d
00000070: 4dad f73c 3379 dd3c 1032 ce3c ae2b d23c
00000080: ea2c 0c3d ad7c c23c 99ef 883c 84b1 e53c
00000090: fee6 e93b 0415 0d3d 891f bf3c 3c75 9f3d
000000a0: a503 1c3c 264d 293d 8308 bd3c 53f8 883c
000000b0: 1342 0f3d fb52 633d abe7 b53c 4da3 443d
000000c0: 4945 3e3d 5502 543d 0261 de3c d4cd d13c
000000d0: 40f1 263c 0eb0 2a3c 3a7b f43c 4868 b43c
000000e0: d797 ce3c 6ec5 ad3c 92fd fd3c 25ab a23c
000000f0: bd34 d73c f9ac d23c 5892 c63c d785 9b3c
00000100: d034 c53c 0141 5d3c 4220 273d 46fc c23c
00000110: fbbb 473c 8264 233c c03c 313c 2740 363c
00000120: c3d3 ea3c d250 1b3d 2e5d 043d 9345 ab3c
00000130: 99dd b43c 7e8b 303d 877e 273c cc13 033d
00000140: 9a7c c13c c937 f43c 5a47 953d 15ff 393c
00000150: addf 1a3d dd56 b23c f2e0 463c 46f6 8d3c
00000160: a2ad f83c 1630 903d 1951 df3c e448 113d
00000170: 1a89 123c 5e77 a03c 8ad2 093d a191 973c
0.046127792 0.03240404 0.012409576 0.01845412 0.0790064 0.047321215 0.017297175 0.036351357
0.029077271 0.02866297 0.04847536 0.034000486 0.026298938 0.037396103 0.027125882 0.04451234
0.040834844 0.05724616 0.03870347 0.022565527 0.027589053 0.024172211 0.035436533 0.040425263
0.06199703 0.012171156 0.02580485 0.03360955 0.030234003 0.027035331 0.025170356 0.025655594
0.03422252 0.02374109 0.016715812 0.028038748 0.007138132 0.03444387 0.023330467 0.077860326
0.009522353 0.04133334 0.023075348 0.016719973 0.034975123 0.05549906 0.022205194 0.0480073
0.046452794 0.051760036 0.027145866 0.025610842 0.010189354 0.010417951 0.029843915 0.022022381
0.025218887 0.021212306 0.0310047 0.019856999 0.026270265 0.025717245 0.024239704 0.018984718
0.024073035 0.013504268 0.040802248 0.023801934 0.012190814 0.009972693 0.010817707 0.011123694
0.028665429 0.037918873 0.032315426 0.020907199 0.022078322 0.04310178 0.010223038 0.0320013
0.023618985 0.029811757 0.07289 0.01135232 0.03781097 0.021769935 0.012138592 0.017329346
0.030356232 0.07040422 0.02726035 0.035469905 0.00894382 0.019588169 0.03364805 0.018502058

weight f4 [48, 96, 3, 3]
00000000: 6243 4ebb 68aa 1b3c 7f2f 2a3b 9b0e 39bc
00000010: 6cf8 df3b e524 2abc cdc8 f5bb ddfc febb
00000020: 75b6 e9bb 2da6 abbb e659 4bbb 7127 223a
00000030: 8687 c6bb c301 a83b 2af5 e13b 1132 58bc
00000040: 689c 62b9 99a1 73ba 1888 dcbb fac0 a43a
00000050: ef38 103c 1df8 14bb 5369 61bb 916e 97bb
00000060: 11a8 edba 41ba f43b 2fcc bf3a bdc8 f0bb
00000070: 2a27 163b e0ba 33bc 71a6 3039 de31 f8bb
00000080: c7e9 5cba e343 54bb 78dd 403c 0d4e b4bb
00000090: e606 17bc 6134 66ba 4be0 c63b 8637 9bbc
000000a0: 8e9e 18bb c011 ac3c fad8 953c 3d41 4f3b
000000b0: c27d d63b a282 afbc 0e3a 1f3c e5bf f7bb
000000c0: 9375 9c3c 4e4b 813c 7898 003b 8600 88bc
000000d0: e989 963c f076 5a39 423f cd3a 5d7c d0bb
000000e0: a5ea 70bb 5aac a73a b890 b8ba c21b c2ba
000000f0: 9890 02bc 3fe7 0a3b 8a3a d13b 2fff 48bc
00000100: 98b7 2bbc 7858 7dbc 8223 08bc be8f 843b
00000110: 6d71 2dbb 0229 ccba 2952 b5bb d30b ddbb
00000120: c731 0fbc 86bf ddb8 ba55 a0bb 98f7 ec3b
00000130: 5861 d8ba 4ede 17bc 376e a33b 1b6a 023c
00000140: 543c 27bc a566 8aba 159d 813c 22d6 553c
00000150: 55bb e5b8 6d2f 803b f945 533c b0a8 e439
00000160: 0381 693c 55d6 0b3c b596 8a3b 4fdf 18bc
00000170: 0f5e 87ba 8683 68bb c8c7 35bc e5d7 c4bb
00000180: f933 413c 939a 1e3c 48c2 0abc dce4 6bbc
00000190: ab89 00bb 556b 083c 9664 09bb a845 923a
000001a0: 5d46 6d3c 7d6f ac3b a9a9 88bc 3b3f 693c
000001b0: 83ed fc3a 9a19 5e3b 071c a3ba 95b8 f4bb
000001c0: 4ba5 a3bc 2892 983b ef82 ecbb 93f5 35bb
000001d0: d14d 353c ea09 6cbc dd1e 7b3c 43e1 07bb
000001e0: f341 a9bc ec13 0fbb 407c 58bc 08f8 463b
000001f0: 62f2 383b 6dc4 49bc ba57 72bc 7ba8 a03b
00000200: 5bca 06bc d3c1 31bb b2b8 02bc 6e9a dcbb
00000210: 05c2 36bc adb0 ba3b 631e f0ba f8e5 663c
00000220: fce4 18bc 315e 34bc bb34 573b 6198 403b
00000230: 4427 a33a 5db2 693b de43 5cbc dbdf 03bc
00000240: 5068 113c e0e3 3c3a d9fb 48bb cbc0 dd3b
00000250: 794d 1cbb f841 0d3b eb6a cbba b842 2b3c
00000260: f5fd 8c3a acfe 9e3b f677 a03c 07bd 96bc
00000270: 689a 033b d4f6 a83c bffe 313b 82d6 d93b
00000280: f1a1 3f3c 8750 42bc 23e8 23bc 3181 cfba
00000290: 67f1 ca3b da6f 21bc 57c4 2a3b 473c 53bc
000002a0: 5d9e 22bc d1a9 b4bb 90d6 9c3b 65d4 623c
000002b0: 1956 08bc 5c30 a8bb 7cf5 d53a 23c4 c6bb
000002c0: 9135 c33b 86a0 1b3b 0a6a 043c f91d 99bb
000002d0: e12d 48bb 264a 41bc 60a9 e2bb 9773 60bb
000002e0: d402 963b 5318 acbb e0b1 293c b23a feba
000002f0: 91f1 debb 4970 dbbb df21 0dbc 5176 21bc
00000300: 93d6 f039 06c5 443b d74b 4039 16d6 dc3b
00000310: a31f efba 2b6d d8bb 4dc1 8bbc 4f94 6dbc
00000320: 337f 74bc 8ca3 9fbc 6a3f 87bc d888 95bc
00000330: 1e0f 91bc fb60 68bc 68bf 9ebc 5717 05bc
00000340: 7606 883a ddc1 5abb 5161 39bc a3cf 6c3b
00000350: cfbb 3c3c 8e17 9d3b ff9d 9c3a 1d35 07bb
00000360: ab31 7cbb e1bc 563a 9ff9 89bc d431 783c
00000370: 78ee 76bc b27e fc3b ed2d e63b 2ded 89bc
00000380: c7b3 f4ba be5b 13bc 6de1 95bb 377d 7dbc
00000390: e404 80bb 8773 ddbb c092 42bc 1920 383c
000003a0: c55e 1d3c 35c0 a33b 70c9 dabb b60b ee3a
000003b0: 9255 49bc 7ac7 3abb ecff e7bb fe6c eeba
000003c0: 8393 abbb 7d63 adbb c97e 47bb b01e 09bc
000003d0: 6e40 34b7 4e7b 8f3c c1e0 e0bb 0805 7fbc
000003e0: e5f8 833c e386 4cbc d02e 893c d20b 523b
000003f0: 89e5 a939 80ba 903b 56a5 92bc 210e c53b
-0.0031473269 0.009501077 0.0025968251 -0.011294986 0.006835034 -0.010384773 -0.007500744 -0.0077816085
-0.0071323463 -0.0052383156 -0.0031028925 0.0006185687 -0.006058636 0.005127163 0.006895681 -0.0131955305
-0.00021611305 -0.0009293794 -0.006730091 0.0012569719 0.0088026365 -0.0022730895 -0.0034395054 -0.004621335
-0.0018131753 0.0074684923 0.0014632995 -0.0073481486 0.0022911527 -0.010969847 0.00016846672 -0.007574304
-0.00084271695 -0.0032389096 0.011771552 -0.0055024684 -0.009217953 -0.0008781609 0.0060692183 -0.018947374
-0.0023287865 0.021004558 0.018291939 0.0031624578 0.006545753 -0.021424595 0.009718431 -0.0075607174
0.019099033 0.015782978 0.0019622128 -0.016601812 0.018376308 0.00020834408 0.0015659111 -0.0063624815
-0.0036760953 0.0012792454 -0.0014081215 -0.0014809298 -0.007969044 0.0021194962 0.006385152 -0.012267872
-0.010480784 -0.015462987 -0.008309247 0.0040454557 -0.0026465312 -0.0015576186 -0.005533476 -0.0067457943
-0.008739895 -0.00010573775 -0.004893032 0.007231664 -0.0016508503 -0.00926931 0.004987504 0.007959868
-0.010207254 -0.0010559155 0.015821973 0.0130515415 -0.00010954464 0.0039119036 0.012895101 0.0004361323
0.01425195 0.008534987 0.0042293915 -0.009330585 -0.0010327714 -0.0035478785 -0.011094995 -0.006007182
0.011792176 0.009680408 -0.008469172 -0.014397826 -0.0019613307 0.008326371 -0.0020964495 0.0011159675
0.014482108 0.005262314 -0.016682463 0.014236267 0.0019296858 0.0033889771 -0.0012444266 -0.007468293
-0.019976279 0.004656095 -0.007217757 -0.0027764782 0.011065916 -0.014406661 0.015327183 -0.0020733632
-0.02066133 -0.0021831943 -0.013213217 0.003036024 0.0028220643 -0.012314898 -0.014791423 0.004902897
-0.008226956 -0.0027123585 -0.007978605 -0.0067322766 -0.011154656 0.005697331 -0.0018319603 0.014092915
-0.009331938 -0.011008785 0.0032837826 0.00293877 0.0012447615 0.0035659291 -0.013443915 -0.008048977
0.008874968 0.0007205587 -0.003066769 0.0067673675 -0.0023849888 0.0021554213 -0.0015519535 0.010452919
0.0010756837 0.0048521366 0.019588452 -0.018400682 0.0020081047 0.02062551 0.0027159897 0.006647886
0.011696325 -0.0118600195 -0.010004076 -0.0015831349 0.006193328 -0.009853328 0.002605697 -0.012892789
-0.009925452 -0.0055134078 0.00478632 0.013844584 -0.0083213085 -0.005132718 0.001632377 -0.006065862
0.0059573133 0.0023746802 0.008081922 -0.0046727625 -0.0030544924 -0.0117974635 -0.0069171637 -0.0034248584
0.004577974 -0.005251923 0.01035735 -0.0019396155 -0.0068036993 -0.006696735 -0.0086140325 -0.009854869
0.00045936237 0.0030024662 0.000183388 0.006739388 -0.0018243681 -0.0066048107 -0.017059946 -0.014500692
-0.014922905 -0.019487165 -0.01650973 -0.018253729 -0.017707404 -0.014183278 -0.019378379 -0.00812324
0.0010377902 -0.0033379712 -0.011314706 0.0036134503 0.011519386 0.0047940677 0.0011948942 -0.0020631023
-0.0038481753 0.00081915973 -0.016842661 0.015148599 -0.015071504 0.007705533 0.0070245177 -0.016836727
-0.00186693 -0.008994041 -0.004573992 -0.015471748 -0.003906833 -0.0067581567 -0.011875808 0.011238121
0.009605114 0.004997278 -0.0066768453 0.0018161449 -0.012288468 -0.0028500245 -0.007080069 -0.0018190441
-0.0052360906 -0.005291401 -0.003044056 -0.008369133 -1.0743837e-05 0.017514851 -0.0068627303 -0.015565164
0.016109893 -0.012483331 0.016745955 0.0032050502 0.0003240521 0.004416764 -0.017901104 0.006013647

bias f4 [48]
00000000: a349 2eb4 76c4 c2b3 3fe4 9ab4 3907 c2b4
00000010: 501e 35b4 37a3 0e34 aed3 f5b2 1b5b 50af
00000020: 7578 08b3 84a0 45b3 5302 25b3 709b 6831
00000030: 46c9 9533 0f77 8d33 5ffb ccb1 1eb9 57b4
00000040: 8f29 34b2 103f 10b3 0aef 82b5 2617 3e33
00000050: eacf d233 5c05 8732 aea9 f135 24a2 a333
00000060: c0e3 86b0 b700 de32 4f17 f832 677f e7b1
00000070: b72e 02b4 d1db 39b3 69df ef2e cbe2 f831
00000080: 775b f9b2 e67a ae32 2b0a 4635 db23 98b2
00000090: e9b6 3ab3 20bd bcb2 c877 cfb5 ba7c ecb0
000000a0: fd5d c633 16b5 a7b1 01ff 6fb4 e9bd 19b6
000000b0: a318 86b3 8161 7932 c8c9 f734 4b49 c4b2
-1.6231802e-07 -9.069565e-08 -2.8850806e-07 -3.614057e-07 -1.6867966e-07 1.3284158e-07 -2.8618015e-08 -1.8949857e-10
-3.1774523e-08 -4.6013625e-08 -3.841917e-08 3.38488e-09 6.9749646e-08 6.587481e-08 -5.965759e-09 -2.009078e-07
-1.0486828e-08 -3.3584968e-08 -9.755324e-07 4.4258876e-08 9.8167064e-08 1.5718506e-08 1.8005283e-06 7.619772e-08
-9.814514e-10 2.5844527e-08 2.88816e-08 -6.737469e-09 -1.2124188e-07 -4.327359e-08 1.0908147e-10 7.2435333e-09
-2.9029009e-08 2.0312154e-08 7.3775544e-07 -1.7711434e-08 -4.3472856e-08 -2.1972085e-08 -1.5457563e-06 -1.7206709e-09
9.23719e-08 -4.8809268e-09 -2.235138e-07 -2.290932e-06 -6.2443426e-08 1.4515877e-08 4.615415e-07 -2.2850733e-08

weight f4 [48]
00000000: 05d5 393f d156 393f 6005 413f 768d 4c3f
00000010: a7d0 383f c70f 603f bb69 523f f66a 333f
00000020: 3161 3a3f 56d9 3e3f 9f1e 393f a3e7 443f
00000030: 39fd 473f 3371 493f 7b75 353f 43a3 463f
00000040: 1ff0 4c3f 3bd3 3a3f 7dce 5b3f 00a4 4b3f
00000050: 46be 3e3f a886 493f 4804 473f 5858 353f
00000060: 8ff2 463f 87c8 363f 55cb 4e3f b633 3e3f
00000070: 3341 3f3f aedd 3e3f 5f51 583f 386a 3e3f
00000080: 3ecd 423f 795d 3c3f 5592 463f f202 443f
00000090: 5332 503f 8500 373f 9813 413f 4dc4 3a3f
000000a0: a1b3 3d3f 4275 453f 618e 513f a27a 3d3f
000000b0: e740 3e3f a37e 403f e662 4b3f 7642 4f3f
0.72590667 0.72398096 0.75398827 0.7990335 0.7219338 0.87524074 0.8219258 0.70085084
0.7280455 0.7455038 0.7231235 0.7691595 0.7812076 0.78688353 0.70882386 0.7759287
0.80053896 0.7297856 0.8586195 0.7954712 0.74509084 0.78721094 0.7774091 0.70837927
0.77713865 0.7139973 0.8077901 0.74297655 0.7470886 0.74557006 0.8449916 0.74380827
0.76094425 0.7358013 0.77567035 0.76566994 0.8132679 0.7148517 0.7542052 0.7295578
0.74102217 0.77132046 0.8185788 0.7401525 0.74317783 0.7519323 0.7944778 0.80960786

bias f4 [48]
00000000: 1169 afbc a8d0 b5bc 8aa2 afba b26b 8fbd
00000010: f6ae 06bb f1e1 57bd 7e9d 0ebd 1553 873b
00000020: 8191 9e3b 951b 54bc caef 3dbb 1068 61bb
00000030: 41ad 6b3c c81f dd38 6b04 26bb 8b6c 6d3c
00000040: 7553 db3b 87b4 4ebd e3dc f8ba 0105 b6bb
00000050: 51ed dfba 4c5a 1fbd c021 e5bc 238b 7bbc
00000060: 0524 6f3b b67c a93c 7ce4 d1bc 9775 d03a
00000070: 8f7a 8c3a ab9c 92bc 41dd 4e3b 471f 2d3c
00000080: 9cdf b8bd c7fa f1bb ede6 9cbc e9d9 0bbc
00000090: 9525 973b 6e8e 92bc f17b 87bc 2a18 af3b
000000a0: 776e a53b b09f f33b 8c5c 08bd 391a c6bd
000000b0: 6b32 2a3d 8f55 8e3a ed9f 69bd 6c75 ebbb
-0.021412404 -0.022194222 -0.0013399881 -0.07002963 -0.0020551062 -0.05270571 -0.034818165 0.004129777
0.0048391228 -0.012946029 -0.0028982037 -0.0034394301 0.014384569 0.00010544021 -0.0025332223 0.014491211
0.0066932985 -0.050465133 -0.0018986728 -0.0055547957 -0.0017084276 -0.038904473 -0.027970195 -0.015352997
0.0036489975 0.02068935 -0.025621645 0.0015904185 0.0010717678 -0.01789697 0.0031564983 0.010566539
-0.09027025 -0.0073846313 -0.019153083 -0.008535841 0.0046126344 -0.017890181 -0.016538592 0.0053434568
0.005048569 0.0074348077 -0.033291385 -0.0967297 0.04155199 0.0010859239 -0.057037283 -0.0071856286

running_mean f4 [48]
00000000: 7a64 2fbf 5291 44be af13 9c3e 8301 50bf
00000010: 517d 75bc cfd4 1ebf 099a 9ebe f9ac 703e
00000020: bd22 393e e048 a3be f626 adbd 4c23 f23d
00000030: 0e31 b53e 1380 b8be 9594 4b3d f620 063f
00000040: 5e53 38be 4f62 8abe 271d 093f ec47 a83d
00000050: 1155 b23d f8eb 08bf 4c17 15bf e272 41bd
00000060: 1023 643e c2ed 873e 14af 0abf 230b f93d
00000070: 992b a7be f834 dfbe c8e7 08be 3866 c93e
00000080: 8090 f9bd 5417 d43d baed 83be ef07 14bf
00000090: 7977 173f 996d 85bd be46 2b3e 7ad7 7cbd
000000a0: 1c45 be3d 39b8 5b3e 9866 38bf 845b 08bf
000000b0: a629 ea3e 2f1e 843e afbd 5fbf 97d3 c8be
-0.6851269 -0.1919606 0.30483767 -0.81252307 -0.014983491 -0.6204347 -0.30976894 0.23503484
0.18079658 -0.31891537 -0.08454697 0.118231386 0.35388988 -0.36035213 0.049702246 0.52394044
-0.18000552 -0.27028129 0.5356011 0.08216843 0.087076314 -0.5348506 -0.58238673 -0.0472287
0.22279 0.26548582 -0.541734 0.12160327 -0.3265045 -0.435951 -0.13369668 0.393358
-0.12185764 0.10356012 -0.25767308 -0.57824606 0.59166676 -0.06515045 0.16726205 -0.061728932
0.09290525 0.21456994 -0.72031546 -0.5326464 0.457349 0.25804278 -0.8739881 -0.3922393
