weights/CapeTown.model.weights.pt (torch, 218905 bytes, 42 tensors)

weight f4 [16, 3, 1, 1]
0.52274865 -0.44280884 -0.23432569 -0.25488204 -0.07954874 -0.03744216 -0.1865755 -0.16274457
-0.16629268 0.04716718 -0.13520597 -0.33902565 -0.25678638 -0.17383528 0.27102548 0.14196438
-0.48641115 -0.005295532 0.017570455 0.52136165 -0.5330301 -0.3902658 -0.25887746 0.3563213
0.027113993 0.46313152 0.473829 -0.0041250223 0.16530605 0.2264764 0.10745415 -0.40116933
-0.10736571 0.15474042 -0.15561233 0.16180821 0.36484852 0.41315365 -0.35612276 0.51320034
0.3054373 -0.05402586 -0.3450997 -0.57470864 0.11547893 -0.015443745 -0.31006408 0.49905476
00000000: dbd2 053f d7b7 e2be 13f3 6fbe e67f 82be
00000010: 73ea a2bd f35c 19bd a60d 3fbe 83a6 26be
00000020: a148 2abe 5f32 413d 6f73 0abe c594 adbe
00000030: 8179 83be e001 32be dac3 8a3e 1c5f 113e
00000040: e20a f9be 2486 adbb eaef 8f3c f577 053f
00000050: a974 08bf ebd0 c7be 968b 84be bf6f b63e
00000060: 2a1e de3c 931f ed3e b799 f23e 322b 87bb
00000070: fd45 293e 6ee9 673e ec10 dc3d 1166 cdbe
00000080: 8ee2 dbbd 4674 1e3e d758 1fbe 0db1 253e
00000090: 6dcd ba3e e088 d33e b955 b6be 1961 033f
000000a0: 4762 9c3e 384a 5dbd e8b0 b0be 1b20 13bf
000000b0: 3880 ec3d c307 7dbc b8c0 9ebe 1b84 ff3e

bias f4 [16]
-0.042490784 -0.22547121 0.49307954 0.17981255 0.37885103 -0.534266 -0.45649606 0.15355031
0.15329748 -0.055562705 0.3535823 0.23220335 0.5614603 -0.37500355 0.101211786 -0.56939936
00000000: d10a 2ebd ede1 66be ec74 fc3e c820 383e
00000010: c3f8 c13e a8c5 08bf dab9 e9be 4b3c 1d3e
00000020: 04fa 1c3e b895 63bd bd08 b53e b7c6 6d3e
00000030: ddbb 0f3f 7700 c0be 2048 cf3d 28c4 11bf

weight f4 [16]
1.0003996 0.9990047 0.99906176 1.0006374 1.0006639 1.0007026 0.99884284 0.9995805
0.99904704 1.0000331 1.0004917 0.99872315 1.0008823 1.0001976 1.0001668 1.0009009
00000000: 180d 803f c6be 7f3f 83c2 7f3f e314 803f
00000010: c115 803f 0617 803f 2ab4 7f3f 82e4 7f3f
00000020: 8cc1 7f3f 1601 803f 1d10 803f 52ac 7f3f
00000030: e91c 803f 7a06 803f 7705 803f 851d 803f

bias f4 [16]
-0.0007218158 -0.00084605726 1.5390302e-05 -0.0009250699 0.000524407 0.0009526835 -0.0011065839 0.0007520014
0.00070554105 -3.3471551e-06 0.0012270382 -0.0011626518 0.0010130508 -0.0005101041 -0.00063618796 0.0012990624
00000000: 3d38 3dba f1c9 5dba 6c1a 8137 6480 72ba
00000010: 5c78 093a 82bd 793a cb0a 91ba f621 453a
00000020: 0ff4 383a b09f 60b6 92d4 a03a 1f64 98ba
00000030: 58c8 843a 82b8 05ba dac5 26ba 4d45 aa3a

running_mean f4 [16]
-13.977515 -36.688526 -49.504772 -39.85613 -17.32915 -35.31417 3.739057 -31.180782
92.52403 36.830555 -38.855755 14.988435 44.629555 75.68915 -80.39152 13.468801
00000000: e7a3 5fc1 0dc1 12c2 e304 46c2 ad6c 1fc2
00000010: 19a2 8ac1 b641 0dc2 b64c 6f40 3e72 f9c1
00000020: 4e0c b942 7d52 1342 4b6c 1bc2 a1d0 6f41
00000030: aa84 3242 d860 9742 75c8 a0c2 3580 5741

running_var f4 [16]
96.88164 387.37418 727.38464 485.24985 93.96255 353.81412 13.438929 288.52722
2522.5974 404.8648 450.51855 67.40498 557.7381 1667.5956 1854.0111 75.35951
00000000: 66c3 c142 e5af c143 9ed8 3544 fb9f f243
00000010: d3ec bb42 35e8 b043 da05 5741 7c43 9043
00000020: 8fa9 1d45 b26e ca43 6042 e143 5acf 8642
00000030: 3d6f 0b44 0f73 d044 5bc0 e744 12b8 9642

weight f4 [16, 3, 3, 3]
-0.066823766 0.054914452 -0.07400553 -0.14215 0.05962535 -0.18122603 0.18465826 0.04153776
0.05307436 0.010029297 0.016770558 -0.099007756 0.016763154 0.123624355 0.17418875 0.051025227
0.08388137 -0.061203014 -0.016266093 0.055274434 -0.019486401 -0.08809851 -0.05104379 -0.054508865
0.15238382 0.14683983 0.06426852 -0.011612592 0.051189825 0.18582173 -0.1396813 -0.1432676
0.07549667 0.17889883 -0.1754773 -0.15813038 0.03550022 0.077711396 0.08058963 0.1208123
0.06830112 0.18306188 0.03933548 -0.18312648 -0.12165778 -0.006763705 0.10584796 -0.16051206
0.1863766 -0.11804204 0.085228525 -0.17440207 0.032817144 0.059603047 0.016921163 0.1268989
-0.1281867 -0.16371815 0.17669964 -0.08826073 -0.04028317 0.12009236 0.043891083 -0.046277717
-0.08434818 0.06723071 -0.026887879 -0.12327395 0.108427696 -0.116864026 0.034560986 -0.08209663
0.017801238 -0.14094275 -0.07758438 0.14154617 0.18076535 -0.08751487 -0.17734133 0.14146306
0.08325698 0.02285263 -0.032236356 -0.049995273 -0.034073304 0.14307384 0.07705283 0.014582635
-0.19205026 0.02465366 0.08125142 -0.11493875 -0.13594955 0.05021978 0.16846882 0.112569116
-0.15198588 0.040779196 0.009481204 0.14988443 0.063109644 0.14276326 -0.04985541 0.0018041385
0.074544825 -0.11727425 0.07573931 -0.1565537 -0.08063897 0.01057942 -0.06211986 -0.16511913
-0.059490446 0.1706654 -0.122033715 0.12742704 0.031454936 -0.058862593 -0.091904126 -0.09258175
0.16256051 -0.101913184 -0.19090715 0.006268578 0.03566906 -0.112220116 0.1131135 -0.059252463
0.13874227 0.10455991 0.13789849 0.023484167 0.111576065 -0.024403926 -0.010765343 0.11612773
0.024748843 -0.012705025 0.058248945 0.18298455 0.07082929 0.13792765 0.09150626 0.028093677
0.029354492 -0.1777435 0.08061443 0.15403995 -0.053016692 0.19172774 0.17126471 -0.15749547
0.139399 0.13583651 -0.09644637 -0.10050573 0.032020092 0.0754132 -0.0775859 0.18537359
-0.121370375 0.05520913 0.08142907 0.06518573 0.15106763 0.14517587 -0.018790258 0.18809773
0.019057328 0.18040745 -0.03193782 0.08166799 0.09769703 0.057394333 -0.06028182 -0.16125718
-0.055920206 0.046138264 0.13280316 0.1888796 0.047378354 -0.06407915 -0.058671523 -0.016536403
0.09528208 -0.0966565 0.13321532 0.07378728 -0.006392663 0.029232372 0.008073616 0.12309266
0.103565395 -0.10030621 -0.15565631 -0.050392766 -0.16051379 0.1769035 0.018836165 -0.1059159
0.1371456 0.15818325 0.02927794 -0.07039156 0.056112856 -0.0061473865 -0.17006728 0.011090865
-0.14611141 0.0071766027 0.15329449 -0.18536268 0.18826364 0.109977625 0.018684853 -0.17541967
0.10837535 -0.100812696 0.046671905 -0.15004261 0.15964597 0.10945406 -0.05631271 -0.07609317
0.11646479 -0.16559218 0.06016612 -0.088037856 -0.1677964 0.061863396 0.08792406 0.14175966
-0.08613035 -0.11271258 0.17782009 -0.19029552 0.12117386 -0.030185333 0.04706599 0.19208516
0.13741247 -0.106241226 -0.044932578 -0.16167995 0.021242877 0.17640464 -0.18129721 -0.18553235
0.1740292 0.17265855 0.103711754 -0.16817895 0.11276642 0.1737454 -0.17744923 0.062204696
00000000: e6da 88bd faed 603d 3690 97bd c58f 11be
00000010: b639 743d 5193 39be 0e17 3d3e 8023 2a3d
00000020: 8064 593d ec51 243c 6962 893c 94c4 cabd
00000030: e252 893c c42e fd3d 895e 323e d4ff 503d
00000040: ffc9 ab3d 03b0 7abd 7840 85bc 7267 623d
00000050: f2a1 9fbc fe6c b4bd 4b13 51bd b044 5fbd
00000060: 810a 1c3e 2e5d 163e 379f 833d be42 3ebc
00000070: 6cac 513d 0d48 3e3e 9d08 0fbe beb4 12be
00000080: 009e 9a3d 4131 373e 52b0 33be eeec 21be
00000090: ae68 113d 2727 9f3d 2d0c a53d 706c f73d
000000a0: 75e1 8b3d 9374 3b3e 3e1e 213d 8285 3bbe
000000b0: b727 f9bd 12a2 ddbb d1c6 d83d 465d 24be
000000c0: 82d9 3e3e 06c0 f1bd 4b8c ae3d 7596 32be
000000d0: 456b 063d 5322 743d 409e 8a3c c9f1 013e
000000e0: 6043 03be bba5 27be c0f0 343e 0bc2 b4bd
000000f0: f7ff 24bd fcf2 f53d 23c7 333d b48d 3dbd
00000100: bdbe acbd 41b0 893d f843 dcbc 0d77 fcbd
00000110: 570f de3d 6856 efbd d28f 0d3d 4722 a8bd
00000120: e7d3 913c 4c53 10be 8fe4 9ebd 7bf1 103e
00000130: 8d1a 393e ff3a b3bd f798 35be b1db 103e
00000140: a382 aa3d 7035 bb3c 450a 04bd d8c7 4cbd
00000150: 7390 0bbd f381 123e e0cd 9d3d 01ec 6e3c
00000160: d3a8 44be 79f6 c93c 2567 a63d 0265 ebbd
00000170: 5c36 0bbe 42b3 4d3d 1783 2c3e a38a e63d
00000180: 30a2 1bbe 1608 273d 0d57 1b3c 4e7b 193e
00000190: a13f 813d 8830 123e 3035 4cbd d878 ec3a
000001a0: f5aa 983d 7b2d f0bd 361d 9b3d 9d4f 20be
000001b0: 0b26 a5bd 4e55 2d3c 6571 7ebd fd14 29be
000001c0: 41ac 73bd e9c2 2e3e d0ec f9bd 3c7c 023e
000001d0: e4d6 003d e719 71bd 3b38 bcbd 809b bdbd
000001e0: 4376 263e dcb7 d0bd 2a7d 43be a568 cd3b
000001f0: b819 123d a9d3 e5bd 0da8 e73d b6b2 72bd
00000200: 7412 0e3e 8223 d63d 4335 0d3e de61 c03c
00000210: fe81 e43d beea c7bc 1f61 30bc 60d4 ed3d
00000220: 16be ca3c bd28 50bc 7296 6e3d 4d60 3b3e
00000230: f20e 913d e83c 0d3e a267 bb3d b624 e63c
00000240: d578 f03c 6402 36be 2e19 a53d a6bc 1d3e
00000250: 0828 59bd 4754 443e 0460 2f3e 7e46 21be
00000260: 9dbe 0e3e ba18 0b3e ad85 c5bd f3d5 cdbd
00000270: 8027 033d 3c72 9a3d 5be5 9ebd 93d2 3d3e
00000280: 0891 f8bd f822 623d 49c4 a63d 1980 853d
00000290: 79b1 1a3e fca8 143e 07ee 99bc b19c 403e
000002a0: 1d1e 9c3c bbbc 383e 3bd1 02bd 8c41 a73d
000002b0: 6115 c83d 5216 6b3d 12ea 76bd 9a20 25be
000002c0: 960c 65bd 7afb 3c3d 8dfd 073e a769 413e
000002d0: ce0f 423d ee3b 83bd 8d51 70bd 5a77 87bc
000002e0: 4023 c33d d8f3 c5bd 9969 083e c91d 973d
000002f0: 8b79 d1bb ba78 ef3c 3347 043c 0118 fc3d
00000300: 181a d43d 586d cdbd 5e64 1fbe a568 4ebd
00000310: ba5d 24be 3126 353e 4d4e 9a3c 6fea d8bd
00000320: e56f 0c3e cafa 213e 4ad8 ef3c 7329 90bd
00000330: 98d6 653d 0470 c9bb 1e26 2ebe 76b6 353c
00000340: 3b9e 15be b529 eb3b 3bf9 1c3e b7cf 3dbe
00000350: 2fc8 403e f33b e13d fa10 993c 37a1 33be
00000360: e5f3 dd3d e376 cebd 0a2b 3f3d c5a4 19be
00000370: 3c7a 233e 7329 e03d 28a8 66bd bcd6 9bbd
00000380: 1885 ee3d ff90 29be c070 763d 314d b4bd
00000390: d2d2 2bbe 7964 7d3d 8811 b43d 7229 113e
000003a0: 1c65 b0bd dad5 e6bd 7816 363e d4dc 42be
000003b0: 002a f83d 3b47 f7bc 44c8 403d f9b1 443e
000003c0: dbb5 0c3e 0095 d9bd 390b 38bd 6e8f 25be
000003d0: 8b05 ae3c 6ba3 343e faa5 39be 31fc 3dbe
000003e0: b634 323e 67cd 303e d466 d43d 1a37 2cbe
000003f0: 15f2 e63d 50ea 313e 40b5 35be 5aca 7e3d

bias f4 [16]
-0.031115625 0.0125037925 -0.021677155 -0.14282903 -0.066589735 -0.08457379 -0.019312993 3.5767193e-06
-0.041474286 -0.108617246 0.041949894 0.08235759 0.12327722 -0.14840253 0.13435195 0.077023745
00000000: 32e6 febc b5dc 4c3c 4a94 b1bc c641 12be
00000010: 3360 88bd 0635 adbd 4836 9ebc 9207 7036
00000020: f1e0 29bd b872 debd a7d3 2b3d 19ab a83d
00000030: c478 fc3d d5f6 17be 8f93 093e a0be 9d3d

weight f4 [16]
1.0004671 0.9989747 0.99977285 0.9987258 1.0005277 0.9986691 0.998913 0.99882585
0.9990176 0.9987911 0.9986476 0.9990068 0.99923277 0.9992061 0.99983084 1.0009819
00000000: 4e0f 803f cebc 7f3f 1df1 7f3f 7eac 7f3f
00000010: 4b11 803f c7a8 7f3f c3b8 7f3f 0db3 7f3f
00000020: 9ebf 7f3f c6b0 7f3f 5ea7 7f3f e9be 7f3f
00000030: b8cd 7f3f f9cb 7f3f eaf4 7f3f 2d20 803f

bias f4 [16]
0.0011789552 0.001251323 0.001076257 -0.0008753934 0.0010427361 -0.0010434559 -6.062514e-05 -0.0005980571
-0.00083588314 0.0006146493 -0.0013343656 -0.0010970265 -0.0001821939 0.0011521658 0.001290896 0.0010522957
00000000: 2c87 9a3a 6f03 a43a 3111 8d3a a87a 65ba
00000010: 6bac 883a 92c4 88ba c047 7eb8 efc6 1cba
00000020: 2b1f 5bba 6b20 213a e1e5 aeba 1aca 8fba
00000030: 4d0b 3fb9 4504 973a 4833 a93a 2fed 893a

running_mean f4 [16]
41.132435 15.967493 -11.823803 20.044651 -9.418386 113.42654 118.46511 0.20852108
16.216255 37.738426 -9.015558 -33.43015 57.97593 7.2813873 35.73353 -18.45637
00000000: 9d87 2442 da7a 7f41 4c2e 3dc1 725b a041
00000010: b6b1 16c1 63da e242 23ee ec42 8d86 553e
00000020: e4ba 8141 26f4 1642 ba3f 10c1 79b8 05c2
00000030: 5ae7 6742 2001 e940 22ef 0e42 a5a6 93c1

running_var f4 [16]
607.2327 211.89774 97.79206 196.37932 52.89112 3595.813 3805.2632 132.97379
151.48657 445.6043 81.78291 358.06738 951.7054 122.0208 464.38492 220.41676
00000000: e5ce 1744 d2e5 5343 8995 c342 1b61 4443
00000010: 8290 5342 02bd 6045 36d4 6d45 4af9 0443
00000020: 907c 1743 5acd de43 da90 a342 a008 b343
00000030: 25ed 6d44 a60a f442 4531 e843 b16a 5c43

weight f4 [16, 3, 5, 5]
-0.10466138 0.11100606 -0.0035692826 -0.10032457 0.0462272 0.007253064 0.08555877 0.051422756
-0.00792821 0.0786178 0.021190641 0.04858551 -0.028099276 -0.07588195 -0.08806683 -0.05543235
-0.08531423 -0.0607048 -0.05774539 0.040766045 0.043161366 0.07101193 -0.10002048 0.11293411
0.0013990245 -0.01259207 0.016798958 0.012167482 0.07368438 0.0109550385 -0.050097924 -0.020322397
-0.10672336 -0.089575894 0.0853409 0.076243125 0.041138154 0.061457336 -0.11196245 0.06398697
-0.047622137 0.033941533 0.104113564 0.026913099 0.089858904 0.06865324 0.012391852 -0.10790493
-0.03340385 -0.099173166 -0.022478621 -0.031135684 0.055973336 0.11572992 -0.10706694 -0.06258195
0.07795635 -0.09416805 -0.045150235 -0.030920686 0.013927291 0.05152159 0.10556575 0.10289621
0.11443459 -0.057508133 0.0341309 -0.0033440392 -0.108055964 -0.09981541 -0.04242953 0.10066315
-0.029508637 -0.047956955 0.021539474 -0.10202187 -0.028703526 0.09145823 0.026276128 0.04518837
-0.06371961 0.115466304 0.049399238 0.043451786 -0.037885807 -0.10561529 0.086144574 0.030857675
-0.0497454 0.034713846 -0.07802002 0.09463413 0.09031416 -0.09590756 0.08311234 0.115274094
-0.037221827 -0.09671877 -0.05843785 -0.04804779 0.008855198 -0.052124582 0.059397288 -0.012813351
-0.018726507 -0.058667436 -0.019684605 0.097639434 0.078175284 0.08107588 -0.013950571 -0.082239054
0.11348018 0.014066909 -0.033141244 0.11012482 0.05367063 -0.07597632 0.075736426 0.04932015
0.028822593 0.07393706 -0.055602808 0.088465065 0.051455196 0.07763922 -0.06888455 -0.108452044
-0.03188999 0.11516255 -0.072512224 0.041526057 0.05525984 0.081997775 0.016855625 -0.093747765
-0.10806916 -0.08000923 0.023427185 -0.007778351 0.03100307 -0.020556565 0.09134898 -0.046057135
-0.007588802 -0.012651891 -0.108431295 0.041942127 0.112908036 0.060847294 -0.10644717 0.032855913
0.03182781 -0.047712944 -0.015586648 0.033823673 0.05979373 -0.040086363 -0.03086311 0.10964347
0.010175139 -0.09887035 0.06850427 -0.09860784 0.06403426 -0.0056434884 -0.08149421 0.06762809
-0.08031193 -0.0180475 -0.09578389 0.024087425 0.08135333 0.07085058 0.11432367 -0.09293449
-0.016881682 -0.060215782 0.08316888 -0.08443504 0.1105032 0.08031223 0.095176615 0.11582951
0.0731726 0.051929854 0.08241623 -0.08483924 0.0762797 -0.06268376 -0.09751491 -0.06607301
0.019454636 0.043198463 -0.022759095 0.081048936 0.042998757 -0.08355435 -0.07259439 0.05950428
0.04139363 -0.019910024 0.03903248 -0.07807354 -0.0027629056 -0.09008667 0.093262754 0.10629566
0.081741594 0.041284654 -0.012364011 0.060452376 0.11184291 -0.028105834 -0.07681887 -0.019826226
-0.09307633 -0.011942423 0.04445298 -0.06812381 0.08683 0.0860071 -0.06580096 0.082297884
0.0093510505 -0.041616794 -0.06708595 0.049011678 -0.049103297 0.013580016 0.021517357 -0.05901579
-0.07747297 -0.020704012 -0.027578032 -0.017963277 0.058727093 0.008403781 0.052783232 -0.02658806
0.094425626 -0.10829656 -0.039484516 -0.05131683 0.051581852 -0.055920355 0.098142974 0.06371437
0.02160361 0.0637598 0.044880427 0.10764004 0.04884555 -0.0001860109 -0.07278905 0.095246956
00000000: b558 d6bd 2557 e33d a0ea 69bb f876 cdbd
00000010: bc58 3d3d 1cab ed3b 7039 af3d aba0 523d
00000020: 53e5 01bc 5e02 a13d ff97 ad3c 9a01 473d
00000030: 7430 e6bc ff67 9bbd 625c b4bd 080d 63bd
00000040: 3ab9 aebd 99a5 78bd 6e86 6cbd 4cfa 263d
00000050: f9c9 303d b46e 913d 8ad7 ccbd 004a e73d
00000060: 795f b73a f84e 4ebc f89d 893c 1e5a 473c
00000070: d6e7 963d c37c 333c 7b33 4dbd 287b a6bc
00000080: c791 dabd 9173 b7bd 36c7 ae3d 5b25 9c3d
00000090: 7b80 283d b0ba 7b3d 924c e5bd 9a0b 833d
000000a0: 6e0f 43bd 4706 0b3d 7e39 d53d dc78 dc3c
000000b0: f207 b83d 129a 8c3d 3207 4b3c 43fd dcbd
000000c0: 7ad2 08bd 4d1b cbbd 1625 b8bc 4310 ffbc
000000d0: 4c44 653d cf03 ed3d e945 dbbd f72a 80bd
000000e0: 94a7 9f3d 2edb c0bd 74ef 38bd 614d fdbc
000000f0: 4b2f 643c 4e08 533d db32 d83d 40bb d23d
00000100: af5c ea3d a68d 6bbd d8cc 0b3d ab27 5bbb
00000110: 724c ddbd 066c ccbd 96ca 2dbd 7b28 ce3d
00000120: 19bc f1bc 836e 44bd 8d73 b03c d8f0 d0bd
00000130: a823 ebbc 744e bb3d 0941 d73c 7117 393d
00000140: 6d7f 82bd 9979 ec3d db56 4a3d 80fa 313d
00000150: 262e 1bbd d44c d8bd 916c b03d 3cc9 fc3c
00000160: d5c1 4bbd 1b30 0e3d f6c8 9fbd 8acf c13d
00000170: a1f6 b83d 2f6b c4bd cd36 aa3d d314 ec3d
00000180: ea75 18bd 7e14 c6bd 875c 6fbd c2cd 44bd
00000190: 6415 113c 9680 55bd 924a 733d 17ef 51bc
000001a0: 5568 99bc 444d 70bd 9c41 a1bc 2ff7 c73d
000001b0: 5d1a a03d 1c0b a63d f090 64bc f36c a8bd
000001c0: 4c68 e83d e578 663c 1dbf 07bd 1f89 e13d
000001d0: bcd5 5b3d 7999 9bbd b31b 9b3d ed03 4a3d
000001e0: 5c1d ec3c 506c 973d c5bf 63bd 2c2d b53d
000001f0: afc2 523d 5001 9f3d 5813 8dbd 1b1c debd
00000200: 149f 02bd 58da eb3d 4a81 94bd 3a17 2a3d
00000210: 2458 623d 73ee a73d cf14 8a3c d4fe bfbd
00000220: 5d53 ddbd e1db a3bd 5eea bf3c 8ae1 febb
00000230: 26fa fd3c 3e66 a8bc 2d15 bb3d 68a6 3cbd
00000240: 7cab f8bb e149 4fbc 3a11 debd 82cb 2b3d
00000250: 543c e73d 033b 793d f900 dabd ec93 063d
00000260: e15d 023d a66e 43bd 245f 7fbc b18a 0a3d
00000270: 45ea 743d 9931 24bd a2d4 fcbc c18c e03d
00000280: a0b5 263c 8a7c cabd f74b 8c3d e8f2 c9bd
00000290: 6524 833d 03ed b8bb 70e6 a6bd 9980 8a3d
000002a0: 957a a4bd 5ad8 93bc 582a c4bd fe52 c53c
000002b0: 939c a63d 1c1a 913d 8722 ea3d 7054 bebd
000002c0: 744b 8abc d3a4 76bd 7254 aa3d 47ec acbd
000002d0: 804f e23d bd7a a43d f5eb c23d 0638 ed3d
000002e0: 84db 953d 66b4 543d d7c9 a83d 32c0 adbd
000002f0: 8838 9c3d 5860 80bd e6b5 c7bd 4951 87bd
00000300: 545f 9f3c dff0 303d 4871 babc fcfc a53d
00000310: 771f 303d 8b1e abbd 5eac 94bd c3ba 733d
00000320: 5e8c 293d 591a a3bc 86e0 1f3d 05e5 9fbd
00000330: dd11 35bb 5c7f b8bd 8b00 bf3d 8ab1 d93d
00000340: 2368 a73d 191a 293d 6c92 4abc e99c 773d
00000350: e50d e53d 353e e6bc 3653 9dbd 9c6a a2bc
00000360: ce9e bebd 27aa 43bc 5414 363d 7f84 8bbd
00000370: edd3 b13d 7e24 b03d a7c2 86bd cb8b a83d
00000380: 2635 193c 5f76 2abd 5c64 89bd 78c0 483d
00000390: 8a20 49bd b77e 5e3c 2b45 b03c 8aba 71bd
000003a0: 26aa 9ebd 769b a9bc 53eb e1bc b927 93bc
000003b0: d28b 703d 03b0 093c 3b33 583d 34cf d9bc
000003c0: 3962 c13d 96ca ddbd 84ba 21bd 9931 52bd
000003d0: 7e47 533d be0c 65bd 2fff c83d ae7c 823d
000003e0: 0efa b03c 7f94 823d 8ad4 373d 6272 dc3d
000003f0: 4512 483d ec0b 43b9 6d12 95bd d610 c33d

bias f4 [16]
-0.09894981 -0.025305873 -0.08794756 -0.056206748 -0.082424484 0.024514955 0.06630017 0.03946655
-0.051076844 -0.10443144 -0.09180072 -0.105427094 -0.030118443 0.09747738 0.10927737 -0.049149264
00000000: 33a6 cabd 434e cfbc da1d b4bd 0c39 66bd
00000010: 2bce a8bd 96d3 c83c 62c8 873d ada7 213d
00000020: f435 51bd 27e0 d5bd 0402 bcbd 29ea d7bd
00000030: f4ba f6bc 38a2 c73d d0cc df3d bd50 49bd

weight f4 [16]
0.99900293 0.9992976 0.9988514 0.99922407 1.000372 0.9998428 0.998689 0.99896824
1.0008345 0.99865836 1.0008147 0.9987453 0.99903494 0.99884176 0.9988855 0.9988894
00000000: a8be 7f3f f8d1 7f3f bab4 7f3f 26cd 7f3f
00000010: 310c 803f b3f5 7f3f 15aa 7f3f 62bc 7f3f
00000020: 581b 803f 13a8 7f3f b21a 803f c6ad 7f3f
00000030: c1c0 7f3f 18b4 7f3f f6b6 7f3f 37b7 7f3f

bias f4 [16]
-0.0008808882 0.0010955492 -0.0009716965 0.0003102546 0.0002614467 0.000892589 -0.0010573211 3.6348233e-06
0.0008469234 0.00019340537 0.0010834729 -0.00089682697 -0.0011167112 -0.0009459188 -0.00093944103 -0.00024939777
00000000: 68eb 66ba 8898 8f3a 73b9 7eba aba9 a239
00000010: c812 8939 a2fc 693a cf95 8aba caed 7336
00000020: 1104 5e3a dccc 4a39 5103 8e3a 0a19 6bba
00000030: 9c5e 92ba 89f7 77ba d244 76ba 9ac1 82b9

running_mean f4 [16]
3.8649824 60.53654 59.136005 -6.767631 -71.935455 32.47677 -10.794635 168.91968
-59.803825 34.57134 -81.70257 79.61271 -55.022617 -24.244888 62.42051 73.96991
00000000: df5b 7740 6b25 7242 458b 6c42 6f90 d8c0
00000010: f4de 8fc2 36e8 0142 d3b6 2cc1 70eb 2843
00000020: 1e37 6fc2 0d49 0a42 b767 a3c2 b539 9f42
00000030: 2917 5cc2 88f5 c1c1 9aae 7942 98f0 9342

running_var f4 [16]
145.36867 1215.5442 1108.1283 134.76485 1565.7725 539.9171 230.80737 6992.226
1135.2596 467.78183 1949.4359 1868.456 899.5781 911.9129 1132.3497 1506.2988
00000000: 615e 1143 6af1 9744 1b84 8a44 cdc3 0643
00000010: b8b8 c344 b2fa 0644 b0ce 6643 cf81 da45
00000020: 4fe8 8d44 13e4 e943 f3ad f344 988e e944
00000030: 00e5 6044 6dfa 6344 318b 8d44 9049 bc44

weight f4 [96, 48, 1, 1]
-0.03903648 -0.0811211 -0.021943 -0.13032697 0.12059424 -0.07411699 -0.011577359 0.11915346
0.021037826 0.118640706 0.09027931 0.0061158794 0.016277045 -0.0056974194 -0.04147014 0.07651516
-0.0029620873 0.08830279 -0.1310376 0.046047956 -0.1222778 -0.07035999 -0.017626937 -0.0025238707
-0.09510592 0.039201442 -0.13764922 -0.13718486 -0.029152485 0.04825266 0.023251384 -0.06761318
-0.07984554 -0.04217694 0.06427486 -0.0443046 -0.035848323 -0.043326773 -0.1098969 0.13883622
0.10042749 -0.07723431 0.024966856 -0.003765186 0.14096637 0.005070933 0.12531245 -0.017022317
0.07608959 -0.008466254 0.04282477 -0.053322736 -0.09392577 0.014769483 0.0006737284 0.11519625
-0.09036304 0.04991291 0.045250274 -0.039701346 0.050142616 -0.019032935 -0.10601208 -0.008286203
-0.018989393 -0.13706702 0.060055867 -0.022275656 0.03765606 0.038052335 0.1295641 0.07031575
-0.06511912 0.124604724 -0.03121844 -0.06815007 -0.10513723 0.07258597 -0.07210036 -0.06595564
0.13134308 0.084363975 -0.053154763 -0.04437948 -0.12457774 -0.029185051 0.06000889 -0.11444074
0.007356262 -0.0033222935 0.14261821 -0.108869575 -0.017992001 0.11059746 0.11246795 0.06916177
-0.046933133 0.062225558 -0.068636924 -0.0059378482 0.11903731 -0.030624256 0.0816003 0.119840294
0.14192468 0.07315426 0.10170642 -0.023458945 -0.1021254 0.13410921 0.13851845 -0.12890212
0.05309422 0.030267889 0.12797526 -0.044098042 0.033324827 0.028956644 0.020245604 0.08780129
0.05557185 -0.13444051 0.09759156 0.09368142 -0.021515688 -0.06808536 -0.036269166 -0.037438367
-0.0190068 -0.0075503085 0.08884096 -0.108165994 0.11517928 0.03028586 0.117397055 0.14206576
-0.108111426 -0.059766065 -0.032915834 0.026058681 -0.07229394 -0.13503003 0.12620531 -0.082507186
1.4220976e-05 0.14200555 -0.10624142 -0.06053369 0.028548706 -0.049910646 0.13445663 0.12352134
-0.12549038 -0.07978721 0.07874255 0.06903572 0.112425566 -0.035341043 0.03944311 0.112357065
0.0185316 0.07147756 0.11469953 -0.14169985 0.029663283 0.025623756 0.09512802 -0.08204182
-0.12919496 0.055295944 0.099247724 0.0106153805 -0.015935006 0.078260794 -0.08462445 0.12726192
-0.13168989 -0.12539798 -0.1312058 -0.11324134 -0.033806045 0.14296575 -0.031460036 -0.13920699
0.03701487 0.040736698 -0.04082836 0.028598754 0.016655972 0.017485693 0.13774097 -0.09366239
0.07493246 -0.040611364 0.01977547 -0.084969096 -0.076875135 -0.013551591 0.060797635 -0.1256191
0.009280687 0.103939995 -0.018825669 -0.13940117 0.04751947 0.036687285 0.08382516 0.094108224
-0.060576916 -0.08342782 0.13760573 0.12297213 -0.007214473 -0.10529722 -0.056659862 -0.072867855
-0.060375053 -0.070914574 0.1118085 0.039314635 -0.021192797 0.066776216 -0.049834147 0.119006075
-0.090340815 -0.10359974 0.13599235 0.07776263 -0.0039950726 0.05648509 -0.08398785 0.03501343
-0.038525403 -0.10686507 -0.10337131 0.017521622 -0.009611618 -0.13126945 -0.088275656 -0.118195914
0.09616316 -0.09673405 0.013207162 0.11811776 0.0040280335 -0.07762851 0.017650329 -0.07586976
0.07915759 -0.113748975 -0.03470642 -0.13890041 -0.1406556 -0.017445592 -0.08370734 0.04227903
00000000: b7e4 1fbd d222 a6bd cec1 b3bc 6f74 05be
00000010: 1dfa f63d a6ca 97bd f7ae 3dbc bb06 f43d
00000020: 8557 ac3c e6f9 f23d 5ce4 b83d b767 c83b
00000030: 7057 853c 6bb1 babb 98dc 29bd fbb3 9c3d
00000040: 941f 42bb 18d8 b43d b82e 06be c89c 3c3d
00000050: c96c fabd e618 90bd 5e66 90bc 8667 25bb
00000060: e5c6 c2bd b191 203d ebf3 0cbe 307a 0cbe
00000070: 31d1 eebc 95a4 453d b079 be3c c778 8abd
00000080: 0f86 a3bd bac1 2cbd 8aa2 833d be78 35bd
00000090: b1d5 12bd 6a77 31bd a011 e1bd 152b 0e3e
000000a0: eeac cd3d 062d 9ebd 4b87 cc3c 57c1 76bb
000000b0: 7d59 103e 122a a63b e851 003e 6372 8bbc
000000c0: dcd4 9b3d 0bb6 0abc 0769 2f3d f168 5abd
000000d0: 275c c0bd b4fb 713c 269d 303a 03ec eb3d
000000e0: 4210 b9bd 7b71 4c3d 5a58 393d e19d 22bd
000000f0: 5862 4d3d f5ea 9bbc dd1c d9bd dbc2 07bc
00000100: a58f 9bbc 4c5b 0cbe 24fd 753d 707b b6bc
00000110: 3e3d 1a3d c4dc 1b3d 74ac 043e b401 903d
00000120: 2c5d 85bd c330 ff3d d0bd ffbc 4492 8bbd
00000130: 3052 d7bd f4a7 943d 5ba9 93bd c013 87bd
00000140: cd7e 063e 05c7 ac3d cfb8 59bd 42c7 35bd
00000150: 9d22 ffbd 7d15 efbc e2cb 753d e85f eabd
00000160: cc0c f13b d6ba 59bb 820a 123e 03f7 debd
00000170: f663 93bc ec80 e23d 9955 e63d b0a4 8d3d
00000180: f53c 40bd 3ae0 7e3d 8491 8cbd 4892 c2bb
00000190: d5c9 f33d b8df fabc 0f1e a73d d46e f53d
000001a0: b454 113e e7d1 953d 754b d03d f92c c0bc
000001b0: 1f27 d1bd ed53 093e c8d7 0d3e ebfe 03be
000001c0: 5379 593d 5df4 f73c f20b 033e 26a0 34bd
000001d0: 9d7f 083d 7c36 ed3c 1cda a53c 2ad1 b33d
000001e0: 4f9f 633d c6aa 09be 15de c73d 0bdc bf3d
000001f0: ab41 b0bc 5670 8bbd fa8e 14bd f958 19bd
00000200: 26b4 9bbc 9468 f7bb 40f2 b53d 2286 ddbd
00000210: 1de3 eb3d 0d1a f83c de6d f03d b079 113e
00000220: 8669 ddbd 43cd 74bd c1d2 06bd 0479 d53c
00000230: d80e 94bd 5045 0abe f73b 013e 87f9 a8bd
00000240: a096 6e37 e769 113e 1a95 d9bd 2df2 77bd
00000250: fade e93c 1b6f 4cbd 00af 093e c2f8 fc3d
00000260: 8d80 00be 7a67 a3bd c643 a13d 9962 8d3d
00000270: 603f e63d c5c1 10bd 198f 213d 761b e63d
00000280: 95cf 973c d462 923d 96e7 ea3d c419 11be
00000290: 6a00 f33c e9e8 d13c 7bd2 c23d 8b05 a8bd
000002a0: af4b 04be 007e 623d 6442 cb3d 22ec 2d3c
000002b0: 218a 82bc 3247 a03d 954f adbd f350 023e
000002c0: b7d9 06be 5468 00be d05a 06be 13eb e7bd
000002d0: 3578 0abd 9d65 123e 3ddc 00bd 478c 0ebe
000002e0: e89c 173d 86db 263d a33b 27bd ef47 ea3c
000002f0: 1b72 883c 283e 8f3c f80b 0d3e 11d2 bfbd
00000300: 3176 993d 1a58 26bd 2b00 a23c 4704 aebd
00000310: b670 9dbd 7e07 5ebc f106 793d 4ba2 00be
00000320: 060e 183c 7ede d43d 4a38 9abc 2ebf 0ebe
00000330: c7a3 423d 6845 163d 87ac ab3d d0bb c03d
00000340: 801f 78bd 34dc aabd 84e8 0c3e d0d8 fb3d
00000350: 6367 ecbb 12a6 d7bd 2c14 68bd be3b 95bd
00000360: d54b 77bd a93b 91bd dbfb e43d 6208 213d
00000370: 849c adbc f8c1 883d e41e 4cbd 75b9 f33d
00000380: 9b04 b9bd 1a2c d4bd 9441 0b3e 0442 9f3d
00000390: 19e9 82bb e95c 673d d201 acbd 3e6a 0f3d
000003a0: d0cc 1dbd 13dc dabd 56b4 d3bd 8189 8f3c
000003b0: 0c7a 1dbc 806b 06be dec9 b4bd b310 f2bd
000003c0: 31f1 c43d 801c c6bd da62 583c b9e7 f13d
000003d0: 98fd 833b b2fb 9ebd 6c97 903c 9b61 9bbd
000003e0: 601d a23d 39f5 e8bd 5228 0ebd e93b 0ebe
000003f0: 0608 10be 0fea 8ebc c16e abbd c72c 2d3d

bias f4 [96]
0.025157923 0.13572945 -0.08987122 -0.029130356 0.10059494 -0.10451766 0.02088637 0.11172552
0.049251676 -0.0145012615 0.096091144 0.078717574 0.13701525 -0.12545142 -0.12002763 0.040349133
0.11831128 9.193458e-05 0.12731189 0.045461006 0.09344509 -0.014423032 -0.06187909 -0.010626385
-0.14117274 0.06779868 -0.10436448 0.09136373 -0.14128745 -0.14214782 -0.046585947 -0.07972018
-0.040342346 -0.12646954 -0.13039748 0.06457444 0.05380451 0.021537375 -0.02127665 -0.013278936
0.022012206 0.05641777 0.052671723 0.080337524 0.11579935 0.02029005 -0.07655946 -0.096088484
0.10927902 0.13518438 0.053919997 0.01895123 0.09981975 0.04659444 -0.116091885 -0.13881052
0.09867027 -0.11219013 0.07810869 0.052041136 0.07523807 -0.08150516 -0.057651483 0.014662335
-0.117171764 0.1165096 -0.05076423 0.100975215 0.13276 -0.06824497 -0.03729252 -0.0060536237
-0.12755746 0.0010473593 0.115208745 0.079648286 0.0009191779 -0.09772164 -0.0924988 0.07391805
0.0104271835 0.010993449 0.029919932 0.13566361 0.061765183 0.117699675 0.116378486 0.065518826
-0.05453205 0.039985236 -0.09671476 -0.14109807 0.08496678 -0.11990548 -0.14167275 0.13912879
00000000: fd17 ce3c a9fc 0a3e 670e b8bd c9a2 eebc
00000010: b804 ce3d 5b0d d6bd e519 ab3c 59d0 e43d
00000020: 20bc 493d b396 6dbc 6fcb c43d ae36 a13d
00000030: ba4d 0c3e 5676 00be 0cd1 f5bd 2245 253d
00000040: 2f4d f23d 00cd c038 0c5e 023e 5235 3a3d
00000050: 2460 bf3d 954e 6cbc ee74 7dbd 4a1a 2ebc
00000060: 968f 10be 09da 8a3d 0bbd d5bd e81c bb3d
00000070: a8ad 10be 338f 11be e8d0 3ebd 5544 a3bd
00000080: 043e 25bd 3b81 01be eb86 05be 9b3f 843d
00000090: 1e62 5c3d 266f b03c 5e4c aebc e58f 59bc
000000a0: f152 b43c 5216 673d 4ebe 573d 0088 a43d
000000b0: 3628 ed3d 5237 a63c 35cb 9cbd 0aca c4bd
000000c0: aecd df3d c66d 0a3e 37db 5c3d 9c3f 9b3c
000000d0: 4c6e cc3d d0d9 3e3d 95c1 edbd 5824 0ebe
000000e0: a313 ca3d f0c3 e5bd 73f7 9f3d 1629 553d
000000f0: 6b16 9a3d 2dec a6bd f623 6cbd 4a3a 703c
00000100: c0f7 efbd 969c ee3d 27ee 4fbd 18cc ce3d
00000110: 3df2 073e 05c4 8bbd 0bc0 18bd 7a5d c6bb
00000120: 6c9e 02be 8c47 893a 90f2 eb3d a41e a33d
00000130: fcf4 703a 4822 c8bd 0370 bdbd 5962 973d
00000140: c7d6 2a3c de1d 343c a51a f53c 67eb 0a3e
00000150: 7dfd 7c3d 870c f13d d857 ee3d bc2e 863d
00000160: 005d 5fbd 8fc7 233d 6312 c6bd 037c 10be
00000170: 1003 ae3d 0191 f5bd a912 11be c777 0e3e

weight f4 [96]
0.99860495 0.99896425 0.99888194 0.99905133 1.0003957 0.9985489 0.99995685 1.0003678
1.0004333 0.99944776 0.9987848 1.0005496 0.9986904 0.99857646 0.9988004 0.9987655
0.99939346 0.9990251 0.9992787 1.0000522 0.99860275 0.99881035 0.99853283 0.9985865
0.9986109 1.0002669 0.9987928 0.9988228 0.99866444 0.9991642 0.9988009 0.99850136
0.9988761 0.998822 0.99884 0.9988002 0.99854684 0.99869394 0.99877167 0.99936223
0.9989722 0.9989685 0.99858433 1.0001216 0.99856734 0.99873996 0.9985225 0.9987602
0.99871516 0.99866956 1.0007693 0.9984877 1.0006182 0.9987541 0.9987801 0.9993874
1.0005594 0.998803 0.9985597 0.99892586 0.99881864 0.99848586 1.000063 0.99860406
0.99867934 0.9986273 0.9991564 0.9993984 0.99892616 1.0000257 0.9986517 0.9989134
0.99865365 0.99879354 0.9993754 0.99893713 0.99939317 0.9986955 0.99893343 0.9990072
0.99957865 0.99858266 0.99911284 0.9987856 0.9986614 0.99876183 0.99940115 0.99855834
0.9994612 0.9998591 0.99921304 0.99919677 0.9986322 0.9987578 0.9987041 0.9999194
00000000: 93a4 7f3f 1fbc 7f3f bab6 7f3f d4c1 7f3f
00000010: f70c 803f e7a0 7f3f 2cfd 7f3f 0d0c 803f
00000020: 330e 803f cfdb 7f3f 5cb0 7f3f 0212 803f
00000030: 2daa 7f3f b5a2 7f3f 62b1 7f3f 19af 7f3f
00000040: 40d8 7f3f 1cc0 7f3f bbd0 7f3f b601 803f
00000050: 6ea4 7f3f 09b2 7f3f d99f 7f3f 5da3 7f3f
00000060: f7a4 7f3f bf08 803f e3b0 7f3f dab2 7f3f
00000070: 79a8 7f3f 3ac9 7f3f 6ab1 7f3f c99d 7f3f
00000080: 58b6 7f3f ccb2 7f3f fab3 7f3f 5fb1 7f3f
00000090: c4a0 7f3f 68aa 7f3f 80af 7f3f 34d6 7f3f
000000a0: a4bc 7f3f 66bc 7f3f 39a3 7f3f fc03 803f
000000b0: 1ca2 7f3f 6cad 7f3f 2c9f 7f3f c0ae 7f3f
000000c0: ccab 7f3f cfa8 7f3f 3519 803f e49c 7f3f
000000d0: 4214 803f 59ae 7f3f 0db0 7f3f dad7 7f3f
000000e0: 5512 803f 8eb1 7f3f 9ca1 7f3f 9bb9 7f3f
000000f0: 94b2 7f3f c59c 7f3f 1002 803f 84a4 7f3f
00000100: 73a9 7f3f 0aa6 7f3f b7c8 7f3f 93d8 7f3f
00000110: a0b9 7f3f d800 803f a3a7 7f3f cab8 7f3f
00000120: c4a7 7f3f efb0 7f3f 11d7 7f3f 58ba 7f3f
00000130: 3bd8 7f3f 82aa 7f3f 1aba 7f3f f0be 7f3f
00000140: 63e4 7f3f 1da3 7f3f dcc5 7f3f 6ab0 7f3f
00000150: 46a8 7f3f dbae 7f3f c1d8 7f3f 85a1 7f3f
00000160: b0dc 7f3f c4f6 7f3f 6dcc 7f3f 5ccb 7f3f
00000170: 5ca6 7f3f 97ae 7f3f 12ab 7f3f b8fa 7f3f

bias f4 [96]
-0.0007553761 -0.0008126613 0.00028111925 0.0011499636 0.0009761467 -0.0005881825 0.0009044466 0.00023939964
0.0004166535 8.733376e-05 0.0004114731 0.0010276595 -0.0009886427 0.0004983968 -0.0007859705 0.00081600493
0.0013199993 -0.00023688693 0.0004995031 0.00086786324 0.0007946486 -0.0003981216 0.00071182114 -0.0004957092
-0.0005622436 -9.558651e-05 -0.00092176796 -0.0010633682 0.0009351809 0.00076736766 -0.0007078572 0.00089228543
0.0002676709 -0.000587973 0.0013906996 -0.00045463693 -0.001210414 0.0005077439 -0.00046095563 -0.0010764549
-0.00078086095 -0.00023909693 -0.00023386275 0.00087445666 -0.00030129313 -0.00075236865 0.00047794095 -0.000943964
-0.0003366217 -0.000528622 0.0009056009 -0.0011941668 0.00038837176 -0.00042953633 -0.0002923273 0.00028800053
0.0011949021 -0.00048765208 -0.0005503045 -0.00030413078 0.0004303009 0.0005742964 0.0011537377 -0.0010218328
-0.0012050914 -0.0013323174 0.0003869457 -0.00020239562 -0.0005777401 0.0008358721 -0.0010361694 -0.00075164787
0.0009479235 -0.00011456841 0.0008799915 -4.466984e-05 0.00010637936 0.00065308856 0.00028567237 -0.00010346791
0.0005672621 0.00017101655 0.0008224162 -0.00041513966 -0.0012934201 -0.00096003636 -0.0002901823 -0.0007134252
0.0004891693 -0.0011403486 0.0006515635 0.0012443211 -0.0012955152 -0.0007327628 -0.00033886402 0.000582992
00000000: 6f04 46ba c708 55ba 3063 9339 60ba 963a
00000010: 19e4 7f3a 4230 1aba 6218 6d3a 5a07 7b39
00000020: 4972 da39 f526 b738 fcba d739 88b2 863a
00000030: 5895 81ba d8a6 023a 9609 4eba 2ae9 553a
00000040: d403 ad3a da64 78b9 16f1 023a 5181 633a
00000050: f74f 503a faba d0b9 8299 3a3a 7bf2 01ba
00000060: 8763 13ba 9e75 c8b8 cda2 71ba b760 8bba
00000070: ee26 753a 2c29 493a 7e8f 39ba 43e8 693a
00000080: 2e56 8c39 3322 1aba 2348 b63a 565c eeb9
00000090: c1a6 9eba 1e1a 053a 6bac f1b9 d517 8dba
000000a0: b1b2 4cba 18b6 7ab9 0e39 75b9 cb3b 653a
000000b0: e1f6 9db9 9b3a 45ba 2694 fa39 5a74 77ba
000000c0: 9a7c b0b9 3993 0aba d965 6d3a 9785 9cba
000000d0: 609e cb39 6433 e1b9 8243 99b9 c7fe 9639
000000e0: 439e 9c3a 8eab ffb9 4f42 10ba be73 9fb9
000000f0: 029a e139 618c 163a 0339 973a 05ef 85ba
00000100: 28f4 9dba 27a1 aeba f9de ca39 293a 54b9
00000110: 7b73 17ba 6d1e 5b3a 13d0 87ba 3c0a 45ba
00000120: 127e 783a 7244 f0b8 3baf 663a e05b 3bb8
00000130: fc17 df38 0834 2b3a 4cc6 9539 e9fc d8b8
00000140: 51b4 143a e852 3339 6b97 573a 1aa7 d9b9
00000150: fa87 a9ba f3aa 7bba 9c23 98b9 2805 3bba
00000160: 993b 003a c077 95ba b0cd 2a3a 7d18 a33a
00000170: 47ce a9ba e116 40ba 8fa9 b1b9 eed3 183a

running_mean f4 [96]
-0.05273195 0.14788243 0.21067864 0.06839153 -0.08458639 -0.23822717 0.060407285 0.26607633
0.08651206 0.16001995 0.00065848243 0.31204596 0.09221606 0.06548496 0.019744143 0.08605174
0.19247805 -0.14633101 0.3675293 -0.15752883 0.2661983 -0.06487745 0.060338005 -0.018815087
-0.2683293 0.026591903 -0.10314759 0.49859887 -0.24129516 -0.15077382 -0.03158819 0.056500643
0.10473133 -0.04095614 -0.05357315 -0.06625122 0.0951229 0.10984295 0.14169191 -0.026422469
-0.41383672 0.22951561 0.21388547 -0.07312663 0.022082793 0.13112164 0.088173985 -0.3997141
0.10375469 0.17073086 0.08553496 -0.14133675 0.3581775 -0.06392319 -0.044029187 -0.27708995
-0.049128037 0.058743633 0.009480601 0.026773257 -0.036715128 -0.29413062 0.25896287 0.13913006
-0.16093092 0.23141664 -0.21622433 0.18079148 -0.014093494 -0.26605254 -0.11356311 -0.035676684
-0.03784472 -0.038318273 0.41381204 -0.04462986 0.029496368 -0.13300084 -0.004400399 -0.22135788
-0.1407991 0.05011718 0.04398953 0.21713817 0.08059622 0.07841711 -0.19812657 0.17782876
0.0762882 -0.16585226 -0.22279859 -0.118398294 -0.0036845913 0.024678914 -0.054212708 -0.025403496
00000000: 75fd 57bd 7e6e 173e 24bc 573e dc10 8c3d
00000010: a13b adbd d3f1 73be a16d 773d 283b 883e
00000020: 3c2d b13d 45dc 233e 029e 2c3a 7dc4 9f3e
00000030: c6db bc3d fb1c 863d 78be a13c e53b b03d
00000040: f718 453e ccd7 15be cd2c bc3e 3d4f 21be
00000050: 254b 883e 78de 84bd fc24 773d 1922 9abc
00000060: 7562 89be 43d7 d93c 0b3f d3bd 5a48 ff3e
00000070: 1416 77be 7464 1abe 9e62 01bd 386d 673d
00000080: 617d d63d a0c1 27bd 856f 5bbd b8ae 87bd
00000090: cccf c23d 57f5 e03d af17 113e ef73 d8bc
000000a0: 68e2 d3be 2406 6b3e cb04 5b3e 6ac3 95bd
000000b0: f9e6 b43c c044 063e 9094 b43d 54a7 ccbe
000000c0: 577d d43d 12d4 2e3e f42c af3d 95ba 10be
000000d0: 0b63 b73e 29ea 82bd f357 34bd bcde 8dbe
000000e0: 7b3a 49bd 2a9d 703d 8654 1b3c 9753 db3c
000000f0: 9a62 16bd 4a98 96be c896 843e 1c78 0e3e
00000100: 13cb 24be 7cf8 6c3e e969 5dbe 6721 393e
00000110: 66e8 66bc 0a38 88be c793 e8bd b721 12bd
00000120: 1103 1bbd 9ff3 1cbd 2cdf d33e cdcd 36bd
00000130: 5ea2 f13c 5f31 08be 3931 90bb a4ab 62be
00000140: a42d 10be ac47 4d3d 5e2e 343d 7859 5e3e
00000150: a20f a53d 2699 a03d b1e1 4abe be18 363e
00000160: fd3c 9c3d 2dd5 29be 5025 64be ce7a f2bd
00000170: 2f79 71bb 6f2b ca3c 250e 5ebd fe1a d0bc

running_var f4 [96]
0.2924435 0.19389017 0.2511058 0.26174378 0.23503721 0.24185307 0.2715583 0.22406153
0.27538198 0.25239736 0.27222124 0.26542184 0.22574854 0.2070072 0.27035078 0.22937076
0.2091462 0.28702208 0.38631445 0.25044832 0.30790624 0.24302417 0.1953067 0.22027962
0.25719556 0.27831605 0.21652067 0.2957324 0.21833967 0.2544182 0.2086396 0.24804193
0.29264167 0.24184045 0.19826178 0.22903164 0.19915116 0.22529738 0.3610486 0.23538159
0.30626318 0.23430124 0.2245763 0.19829299 0.23753211 0.20731324 0.34011105 0.2660825
0.2148097 0.30042905 0.19209942 0.34503275 0.25336805 0.23571008 0.33182433 0.37086788
0.36001283 0.19286685 0.3858176 0.31232864 0.24819423 0.38302442 0.27374786 0.20296584
0.22030056 0.21744479 0.25208285 0.33356532 0.20497075 0.33091792 0.20112735 0.26292136
0.21952246 0.20326728 0.21573289 0.21254146 0.25990042 0.19966681 0.25433362 0.43748027
0.23949313 0.3810882 0.20407695 0.31900573 0.26138043 0.22555844 0.27537662 0.31637242
0.22313964 0.31476647 0.22906116 0.2001486 0.21594474 0.23052356 0.24107063 0.24364054
00000000: 28bb 953e 258b 463e f090 803e 4803 863e
00000010: 98ad 703e 55a8 773e b109 8b3e 6370 653e
00000020: defe 8c3e 3a3a 813e 9560 8b3e 5fe5 873e
00000030: a02a 673e b2f9 533e 6b6b 8a3e 2be0 6a3e
00000040: 6c2a 563e 8ff4 923e 02cb c53e c33a 803e
00000050: e3a5 9d3e 54db 783e 7bfe 473e fb90 613e
00000060: 23af 833e 717f 8e3e 98b7 5d3e 3d6a 973e
00000070: 6f94 5f3e 1a43 823e 9fa5 553e b4fe 7d3e
00000080: 21d5 953e 06a5 773e 2305 4b3e 4587 6a3e
00000090: 48ee 4b3e 5bb4 663e 5ddb b83e df07 713e
000000a0: 87ce 9c3e aaec 6f3e 54f7 653e 510d 4b3e
000000b0: 9e3b 733e ec49 543e 0923 ae3e f73b 883e
000000c0: 13f7 5b3e d6d1 993e b6b5 443e 22a8 b03e
000000d0: 75b9 813e fc5d 713e e1e4 a93e 65e2 bd3e
000000e0: 9a53 b83e e37e 453e e289 c53e 8ae9 9f3e
000000f0: a126 7e3e c71b c43e ae28 8c3e 47d6 4f3e
00000100: 7896 613e d9a9 5e3e 0111 813e 13c9 aa3e
00000110: dae3 513e 136e a93e 54f4 4d3e a19d 863e
00000120: 7fca 603e 4c25 503e 15e9 5c3e 78a4 593e
00000130: ab11 853e 7575 4c3e 0438 823e 6afd df3e
00000140: b03d 753e fe1d c33e 8cf9 503e b854 a33e
00000150: a8d3 853e cbf8 663e 2afe 8c3e 91fb a13e
00000160: b87e 643e 1229 a13e 028f 6a3e c1f3 4c3e
00000170: 9e20 5d3e 5e0e 6c3e 38db 763e e87c 793e

weight f4 [48, 96, 3, 3]
0.021770138 -0.019366525 -0.01865882 0.022892352 -0.02445954 0.002164176 0.03301885 0.012771147
0.017137934 0.026561426 -0.024043288 -0.00057279685 -0.0150202485 0.020630648 0.03321078 0.033347163
-0.019252377 0.01741042 0.005849031 -0.023142105 -0.01921384 0.031424697 0.005842416 -0.013585479
-0.008672865 -0.022346355 0.028642073 -0.008381436 -0.008416014 -0.025523981 0.009652574 -0.030206732
0.02329386 0.030114945 -0.011080164 -0.013538496 0.0047196983 0.026453806 0.011365102 0.026686087
-0.030640926 0.019080212 -0.018092576 -0.011436515 0.002604562 0.008051157 0.024637302 -0.0032150818
0.0013094398 -0.018996717 -0.0059768343 0.0016796367 0.00878147 -0.031687703 0.027158841 0.03141324
-0.007973715 0.03402121 0.015887054 0.011420483 0.012345998 0.027036425 -0.019639477 -0.027388752
-0.00010390705 0.003819068 -0.025955664 0.011219054 -0.032469004 -0.029431408 0.01735838 0.012511758
-0.028801013 0.00402569 -0.029041354 -0.010308149 0.00084724487 -0.026475348 -0.007043172 0.021308606
-0.012880789 0.0192713 0.011169203 -0.013327308 -0.030186731 0.021884834 -0.03501179 -0.0072861863
0.030076401 0.015808547 0.029688653 0.0049863225 -0.013580281 0.032762736 0.024982044 0.0294022
-0.015054389 0.02092712 -0.026520811 -0.012959141 -0.0299957 -0.020641575 -0.0050563677 0.01376612
-0.025553903 -0.027950075 -0.025760742 0.0117320195 0.011941351 -0.0074148914 0.030017704 -0.005497048
-0.009378043 0.018795026 0.021425523 0.0014168698 0.022724021 0.0021868574 0.006499923 0.014813523
0.01074928 0.014551529 0.00035493856 0.030104205 -0.03398434 0.016688839 -0.00335187 0.0052101794
-0.030498024 -0.0016350782 0.0018912923 -0.01869924 -0.022050114 -0.0038438272 -0.01696907 0.018496888
0.02026599 -0.024192443 0.016052103 -0.029555302 0.014482878 -0.020513473 0.006622538 -0.030588038
-0.02583077 -0.03444195 0.026260292 -0.032396004 0.023997622 0.019639794 0.023480676 -0.0101069
-0.0051697497 -0.020822726 -0.032611072 -0.013711466 0.006510379 -0.029443005 -0.006392782 -0.0005460216
-0.028634423 0.029536149 -0.017952122 0.012035422 0.002566033 -0.0150888655 -0.026231911 -0.007532321
-0.024819225 0.01661408 0.023836367 0.027291408 0.0030236016 -0.030864507 -0.0028697294 -0.032666177
0.013238179 0.0139920935 0.031695407 -0.027801016 0.015470658 0.010530754 -0.026662262 -0.009841272
-0.026674015 0.0025848225 -0.0051747113 0.021045316 -0.013775828 -0.019099725 -0.033479355 0.02253397
-0.018453479 0.02326922 0.027657345 -0.0033477454 0.013422569 0.008837726 -0.016474742 0.013190991
0.015851473 -0.021744415 -0.010992765 0.026045436 -0.008374677 0.02840719 -0.008714849 -0.017749906
-0.031602874 0.019149465 0.026791576 0.016209707 -0.014474617 0.0020617663 -0.0029047392 0.031207113
0.0035153 0.03439711 -0.017720534 0.0015788302 -0.009308211 -0.0116401315 0.004498923 -0.008241085
0.018514857 0.027070168 0.018308984 -0.013317292 0.019132176 0.024019495 -0.004157928 0.028664399
-0.0033736888 0.015543526 -0.0065317377 -0.00019958292 0.004866365 -0.030067613 0.022107385 0.030113416
0.031132704 0.032254312 -0.00048662594 0.014111315 -0.026072798 -0.0061663813 0.023211008 -0.026042232
0.024830433 -0.00094115693 -0.024471935 0.017248748 -0.0075377193 0.015287252 0.009954178 0.030176232
00000000: 4a57 b23c 8ca6 9ebc 62da 98bc be88 bb3c
00000010: 605f c8bc d9d4 0d3b c63e 073d 133e 513c
00000020: da64 8c3c 5997 d93c 6ef6 c4bc bf27 16ba
00000030: 7d17 76bc 9b01 a93c 0708 083d 0997 083d
00000040: 29b7 9dbc 4ca0 8e3c 3aa9 bf3b 8394 bdbc
00000050: 5866 9dbc 2fb7 003d bd71 bf3b a195 5ebc
00000060: a218 0ebc b40f b7bc c8a2 ea3c 4a52 09bc
00000070: 52e3 09bc ab17 d1bc d425 1e3c 1c74 f7bc
00000080: c4d2 be3c 9eb3 f63c 9489 35bc 91d0 5dbc
00000090: b3a7 9a3b a7b5 d83c b134 3a3c c89c da3c
000000a0: ae02 fbbc 1b4e 9c3c e236 94bc 3860 3bbc
000000b0: 4db1 2a3b 00e9 033c 2bd4 c93c 1fb4 52bb
000000c0: 82a1 ab3a 019f 9bbc 52d9 c3bb 4127 dc3a
000000d0: 28e0 0f3c f7ca 01bd 387c de3c 2bab 003d
000000e0: 2fa4 02bc d359 0b3d 9125 823c fa1c 3b3c
000000f0: de46 4a3c 7e7b dd3c f8e2 a0bc 605e e0bc
00000100: ace8 d9b8 5449 7a3b f9a0 d4bc 20d0 373c
00000110: 38fe 04bd 231a f1bc 2933 8e3c 1efe 4c3c
00000120: 1af0 ebbc efe9 833b 22e8 edbc 83e3 28bc
00000130: a419 5e3a d4e2 d8bc 69ca e6bb 638f ae3c
00000140: f209 53bc d8de 9d3c 08ff 363c c85a 5abc
00000150: 2a4a f7bc d347 b33c 8668 0fbd f6c0 eebb
00000160: c962 f63c ed80 813c 9e35 f33c 4e64 a33b
00000170: d47f 5ebc 3832 063d 25a7 cc3c e2dc f03c
00000180: afa6 76bc 5a6f ab3c 2c42 d9bc 9452 54bc
00000190: 8bb9 f5bc 8518 a9bc e3af a5bb 4b8b 613c
000001a0: 6b56 d1bc 8ef7 e4bc 3108 d3bc a837 403c
000001b0: a8a5 433c 9ef8 f2bb b0e7 f53c 9520 b4bb
000001c0: 5da6 19bc 07f8 993c 9484 af3c 43b6 b93a
000001d0: ba27 ba3c 6151 0f3b 4efd d43b 6bb4 723c
000001e0: c01d 303c 8969 6e3c 0c17 ba39 189d f63c
000001f0: 2a33 0bbd 08b7 883c 0cab 5bbb 27ba aa3b
00000200: fed6 f9bc 1f50 d6ba 3de5 f73a 262f 99bc
00000210: 71a2 b4bc b8e8 7bbb b802 8bbc c986 973c
00000220: dd04 a63c 3b2f c6bc b37f 833c f61d f2bc
00000230: 9849 6d3c df0b a8bc e001 d93b c493 fabc
00000240: 0d9b d3bc 0113 0dbd d31f d73c acb1 04bd
00000250: a996 c43c a2e3 a03c 8c5a c03c 6997 25bc
00000260: 0167 a9bb 6c94 aabc 3093 05bd 0fa6 60bc
00000270: 0455 d53b 7532 f1bc 8b7a d1bb e422 0fba
00000280: bd92 eabc cbf5 f13c 5410 93bc 3830 453c
00000290: e42a 283b 4a37 77bc 4ee4 d6bc b0d1 f6bb
000002a0: b051 cbbc 401a 883c 7c44 c33c 3b92 df3c
000002b0: 9e27 463b 90d7 fcbc 1212 3cbb f8cc 05bd
000002c0: f2e4 583c 183f 653c 0bd3 013d f5be e3bc
000002d0: a578 7d3c 2f89 2c3c d16a dabc 493d 21bc
000002e0: 7783 dabc 2066 293b a090 a9bb 3a67 ac3c
000002f0: 03b4 61bc 0777 9cbc a621 09bd 2999 b83c
00000300: c02b 97bc 179f be3c a891 e23c d965 5bbb
00000310: 56ea 5b3c 1ccc 103c 0af6 86bc 071f 583c
00000320: f3da 813c 5821 b2bc 001b 34bc 3d5d d53c
00000330: f135 09bc 32b6 e83c bac8 0ebc 4068 91bc
00000340: 0472 01bd 57df 9c3c 027a db3c 38ca 843c
00000350: f226 6dbc b31e 073b 705d 3ebb 0fa6 ff3c
00000360: f360 663b fce3 0c3d a72a 91bc c0f0 ce3a
00000370: 7781 18bc 40b6 3ebc b46b 933b 9e05 07bc
00000380: 78ac 973c 42c2 dd3c b9fc 953c c530 5abc
00000390: 15bb 9c3c 88c4 c43c 3a3f 88bb 9ad1 ea3c
000003a0: 1b19 5dbb 46aa 7e3c 3008 d6bb 2247 51b9
000003b0: 0776 9f3b 5b50 f6bc 8c1a b53c 69b0 f63c
000003c0: 030a ff3c 191d 043d d421 ffb9 2533 673c
000003d0: 9f96 d5bc 5b0f cabb 0325 be3c 8556 d5bc
000003e0: 3169 cb3c f9b7 76ba 5e79 c8bc 3f4d 8d3c
000003f0: f9fe f6bb 6277 7a3c d916 233c 2534 f73c

bias f4 [48]
-0.018604275 0.021207621 0.021947373 0.021445317 -0.020857628 0.022812648 0.02984349 -0.01399765
-0.031217868 0.0071056504 0.008141516 0.013512802 0.019070717 0.019346839 -0.0016623372 -0.027386198
-0.031782545 0.00091085496 0.0039485632 0.029949086 0.021337869 -0.022136945 0.010182168 -0.029750112
0.02903329 -0.028570738 0.026322464 0.010749303 0.010012553 -0.02994902 -0.029786732 -0.012029353
0.0024902497 -0.022341996 0.0034130167 -0.022726893 -0.013528743 0.0065729693 -0.009401981 -0.0010752043
0.024692146 0.031083878 -0.007321125 -0.014112976 -0.0065938183 0.018602753 0.015368015 0.015988983
00000000: fe67 98bc 9bbb ad3c faca b33c 17ae af3c
00000010: 9edd aabc 97e1 ba3c 567a f43c 6656 65bc
00000020: 9dbc ffbc 84d6 e83b fe63 053c cd64 5d3c
00000030: 313a 9c3c 437d 9e3c c8e2 d9ba 0559 e0bc
00000040: 6a2e 02bd 71c6 6e3a f362 813b c957 f53c
00000050: c1cc ae3c 8a58 b5bc 1cd3 263c 82b6 f3bc
00000060: 39d7 ed3c 2e0d eabc 35a2 d73c d81d 303c
00000070: b10b 243c a657 f5bc 4e03 f4bc c316 45bc
00000080: 7533 233b 9006 b7bc ebac 5f3b c02d babc
00000090: a9a7 5dbc 1062 d73b c40a 1abc dfed 8cba
000000a0: 2f47 ca3c 9ea3 fe3c 0ce6 efbb 1d3a 67bc
000000b0: f510 d8bb cd64 983c 20ca 7b3c 54fb 823c

weight f4 [48]
0.99844223 0.9986723 0.99877983 0.99891263 0.99999493 1.0007255 0.99982524 0.9992856
0.9991188 1.0002255 0.998997 0.9990193 1.0003049 0.998558 1.0000823 0.99889433
0.99924505 0.9986319 1.0002145 0.9986135 0.99848026 0.998645 0.9986168 0.9991131
0.99931616 0.99859 0.9988496 1.0000196 0.99880224 0.9988618 0.99852335 0.9988533
1.0003136 0.99850994 1.0001199 0.99887955 0.9987964 1.0003852 0.9992948 0.9998833
0.9988029 1.0011374 0.99894863 0.9994445 0.99891293 0.99898964 1.0002496 0.9988396
00000000: e999 7f3f fda8 7f3f 09b0 7f3f bdb8 7f3f
00000010: abff 7f3f c617 803f 8cf4 7f3f 2ed1 7f3f
00000020: 40c6 7f3f 6407 803f 44be 7f3f bbbf 7f3f
00000030: fe09 803f 7fa1 7f3f b202 803f 8ab7 7f3f
00000040: 86ce 7f3f 57a6 7f3f 0707 803f 22a5 7f3f
00000050: 679c 7f3f 33a7 7f3f 5aa5 7f3f e0c5 7f3f
00000060: 2fd3 7f3f 98a3 7f3f 9bb4 7f3f a400 803f
00000070: 81b1 7f3f 68b5 7f3f 3a9f 7f3f dab4 7f3f
00000080: 470a 803f 599e 7f3f ee03 803f 92b6 7f3f
00000090: 1fb1 7f3f 9f0c 803f c9d1 7f3f 5af8 7f3f
000000a0: 8cb1 7f3f 4525 803f 19bb 7f3f 98db 7f3f
000000b0: c2b8 7f3f c9bd 7f3f 2e08 803f f4b3 7f3f

bias f4 [48]
-0.0006467883 -0.0008901968 -0.0008268748 -0.00079605955 0.00089175807 0.0010732879 -0.0007167674 -0.0007416494
0.0005192028 -0.00029556593 0.0009887249 0.00040363317 0.00054022344 -0.0012244219 -0.00058100134 0.00064535986
-0.001328034 -0.0003684577 0.00037096016 -0.0009874756 -0.00014494405 -0.0012896174 -0.00037573813 -0.00031822524
0.00040335674 0.0004211551 -0.00046254467 0.0011021898 -0.0009079525 -0.00034550455 -5.2160754e-05 -0.00028378464
0.0009782183 -0.0009126517 -0.0011474224 -0.000986857 0.00033583833 0.00035896836 0.00088265963 0.00083947397
-0.00047227496 0.0011712401 0.00034792465 -0.0001614849 -0.0009839849 -0.00022618583 -0.00016831914 -0.0007080121
00000000: 3a8d 29ba 195c 69ba a1c2 58ba a7ae 50ba
00000010: dfc4 693a 91ad 8c3a 72e5 3bba 406b 42ba
00000020: 1c1b 083a 30f6 9ab9 1a98 813a ba9e d339
00000030: c89d 0d3a c87c a0ba 574e 18ba 5e2d 293a
00000040: 6d11 aeba 8e2d c1b9 6e7d c239 2f6e 81ba
00000050: 1ffc 17b9 6108 a9ba b8fe c4b9 78d7 a6b9
00000060: a079 d339 7bce dc39 b281 f2b9 5a77 903a
00000070: a903 6eba d624 b5b9 2fc7 5ab8 eec8 94b9
00000080: 8f37 803a 053f 6fba 1b65 96ba 6d59 81ba
00000090: 7513 b039 eb33 bc39 4962 673a 2510 5c3a
000000a0: ac9b f7b9 4c84 993a a869 b639 4654 29b9
000000b0: 0ef9 80ba 4c2c 6db9 d37e 30b9 e399 39ba

running_mean f4 [48]
-0.009260119 0.5689933 0.17363888 0.0015113747 -0.07237772 -0.08362713 -0.41649866 -0.12433488
0.1266648 -0.075368434 -0.14676045 0.09780565 0.29908606 -0.09722698 -0.22097358 -0.0008300794
-0.11898864 -0.19061397 0.26423943 -0.025434056 0.123299636 0.41227522 -0.31232002 -0.45875573
0.2614845 -0.241851 -0.47917277 0.2537419 0.3027702 -0.4500305 -0.29531983 -0.12612371
0.33241683 0.16565832 0.13118383 -0.40243977 0.12003156 -0.16720027 -0.12843612 0.20807377
-0.30539382 -0.5799614 -0.18772298 0.2879599 -0.29060885 0.3248938 0.35825604 -0.16978848
00000000: c1b7 17bc 8ba9 113f 64ce 313e 5219 c63a
00000010: c53a 94bd b344 abbd 503f d5be 49a3 febd
00000020: 6bb4 013e c45a 9abd 5f48 16be 544e c83d
00000030: cf21 993e f01e c7bd e646 62be b099 59ba
00000040: 51b0 f3bd 4f30 43be 644a 873e 155b d0bc
00000050: 8584 fc3d bd15 d33e 69e8 9fbe 08e2 eabe
00000060: 4ce1 853e caa7 77be 2256 f5be 75ea 813e
00000070: b204 9b3e 666a e6be 2934 97be 9326 01be
00000080: 8a32 aa3e 56a2 293e 0e55 063e 960c cebe
00000090: 1bd3 f53d 8c36 2bbe c284 03be 4a11 553e
000000a0: 945c 9cbe 5a78 14bf 743a 40be 7b6f 933e
000000b0: afca 94be 7b58 a63e 566d b73e 08dd 2dbe

running_var f4 [48]
0.30989125 0.30798095 0.28870347 0.25553495 0.2460514 0.3065767 0.3328371 0.30319157
0.30547023 0.39533946 0.28097177 0.28921157 0.24277735 0.28646487 0.29717046 0.28943878
0.36523777 0.28006953 0.30162364 0.27619594 0.36153683 0.37616277 0.41297457 0.3554253
0.37498218 0.26821578 0.35017297 0.2703871 0.29660943 0.31189147 0.30842185 0.2957307
0.2924092 0.27168086 0.40674567 0.27319163 0.28804776 0.32337347 0.2952584 0.26957604
0.31562868 0.40813363 0.23256613 0.3318947 0.25282007 0.2584625 0.33754483 0.38513234
00000000: 11aa 9e3e aeaf 9d3e f1d0 933e 7ad5 823e
00000010: e6f4 7b3e 9ff7 9c3e a069 aa3e ed3b 9b3e
00000020: 9866 9c3e ef69 ca3e 88db 8f3e 8a13 943e
00000030: a09a 783e 86ab 923e ba26 983e 5231 943e
00000040: 7200 bb3e 4665 8f3e 6a6e 9a3e 8e69 8d3e
00000050: 5b1b b93e 6898 c03e 6771 d33e 4efa b53e
00000060: aafd bf3e 9453 893e df49 b33e 2e70 8a3e
00000070: 31dd 973e 3db0 9f3e 78e9 9d3e 046a 973e
00000080: a9b6 953e c119 8b3e f840 d03e c6df 8b3e
00000090: ff7a 933e 3591 a53e 1c2c 973e df05 8a3e
000000a0: 159a a13e e4f6 d03e d125 6e3e 1aee a93e
000000b0: a271 813e 3255 843e add2 ac3e 1130 c53e
