weights/CapeTown.model.weights.pt (torch, 218905 bytes, 42 tensors)

weight f4 [16, 3, 1, 1]
0.37400144 -0.065312155 0.07175977 0.050654497 0.39852527 -0.3226195 -0.47227973 0.338818
-0.31778297 -0.42732552 -0.11139813 0.34535143 -0.09207892 -0.3069666 0.10097795 -0.4585586
0.16867 -0.07141436 -0.11874739 0.3933159 0.15223597 -0.5217224 -0.49737486 0.49336046
0.5233198 0.31887785 -0.450506 0.44055963 -0.35122925 0.011049124 0.116847664 -0.33906558
-0.12988128 0.42599392 -0.39175543 0.5390751 -0.058090378 0.5751851 -0.054403182 -0.5467177
0.2558853 -0.025452847 -0.30785394 -0.06454544 0.5002239 -0.29564562 -0.5089092 0.048883617
00000000: 1e7d bf3e 61c2 85bd c9f6 923d 177b 4f3d
00000010: 810b cc3e 622e a5be a6ce f1be 8e79 ad3e
00000020: 73b4 a2be 69ca dabe b424 e4bd e7d1 b03e
00000030: df93 bcbd ba2a 9dbe 87cd ce3d 31c8 eabe
00000040: d4b7 2c3e b141 92bd d531 f3bd b460 c93e
00000050: bfe3 1b3e 998f 05bf eba7 febe be99 fc3e
00000060: 49f8 053f f543 a33e b9a8 e6be 0891 e13e
00000070: 52d4 b3be 6307 353c d44d ef3d 019a adbe
00000080: 99ff 04be e01b da3e 2b94 c8be d300 0a3f
00000090: 2df0 6dbd 553f 133f dfd5 5ebd b1f5 0bbf
000000a0: 6603 833e 7d82 d0bc 089f 9dbe 6630 84bd
000000b0: ac0e 003f dd5e 97be e047 02bf 303a 483d

bias f4 [16]
-0.5078234 0.11406715 0.48339844 -0.17565696 -0.25264657 -0.116627455 0.40656683 -0.36709368
-0.53308415 -0.3651706 -0.06180272 -0.52908754 0.4013501 0.26168996 0.049482193 -0.26577345
00000000: b700 02bf 0a9c e93d 0080 f73e 6bdf 33be
00000010: e45a 81be 60da eebd 8729 d03e b4f3 bbbe
00000020: 3478 08bf a4f7 babe d924 7dbd 4872 07bf
00000030: c37d cd3e 3afc 853e d7ad 4a3d 7513 88be

weight f4 [16]
0.9999166 0.9985058 0.99889207 1.0007375 0.998675 0.9989183 0.9988011 1.0008471
1.0010777 1.0004375 0.99871534 0.9987881 1.0002978 1.0009488 0.99887234 0.9987229
00000000: 89fa 7f3f 139e 7f3f 64b7 7f3f 2b18 803f
00000010: 2aa9 7f3f 1cb9 7f3f 6eb1 7f3f c21b 803f
00000020: 5023 803f 560e 803f cfab 7f3f 94b0 7f3f
00000030: c209 803f 171f 803f 19b6 7f3f 4eac 7f3f

bias f4 [16]
0.00031375242 -0.0013058741 -0.001043767 0.0007638673 -0.0012585657 -0.0010919314 -0.0010398228 0.0010107002
0.001289512 0.00085854577 -0.0012703582 0.00048547634 0.00089500996 0.0009836646 -0.0011662837 -0.00094681885
00000000: 237f a439 dd29 abba 02cf 88ba 443e 483a
00000010: 75f6 a4ba 231f 8fba aa4a 88ba 7979 843a
00000020: d804 a93a 0810 613a 2682 a6ba 8887 fe39
00000030: 1a9f 6a3a 4fee 803a fddd 98ba f033 78ba

running_mean f4 [16]
36.933693 15.041572 -42.341034 -21.463783 -30.600737 -35.506916 42.16571 -56.071922
41.613476 9.481133 -34.568085 53.01452 47.14968 -30.803656 9.574606 -76.0805
00000000: 1abc 1342 47aa 7041 385d 29c2 d4b5 abc1
00000010: 4fce f4c1 1507 0ec2 b0a9 2842 a649 60c2
00000020: 3374 2642 b9b2 1741 b845 0ac2 de0e 5442
00000030: 4699 3c42 e36d f6c1 9631 1941 3729 98c2

running_var f4 [16]
390.6939 59.444576 525.73474 139.0583 248.98277 356.83752 493.86658 847.3692
493.06317 42.347893 337.52524 826.69824 598.75433 283.21072 59.7003 1568.5137
00000000: d258 c343 3fc7 6d42 066f 0344 ed0e 0b43
00000010: 97fb 7843 346b b243 ecee f643 a1d7 5344
00000020: 1688 f643 3e64 2942 3bc3 a843 b0ac 4e44
00000030: 47b0 1544 f99a 8d43 1bcd 6e42 7010 c444

weight f4 [16, 3, 3, 3]
0.1262339 -0.18793204 0.02715979 0.00819621 -0.13760573 -0.18688773 -0.119277395 -0.18142039
-0.11657664 0.05505228 -0.1240119 -0.15906294 0.0754134 0.0543138 -0.15977837 -0.1458952
0.056002412 0.039108817 0.15119033 0.09963435 0.0007191903 0.1626538 -0.114921756 0.033797037
-0.07674159 0.1377443 0.049879618 0.15066826 -0.15607838 -0.1617032 -0.07528337 -0.17917609
0.1697591 0.07653782 0.06416655 0.09339439 0.018317433 -0.087569386 -0.011505452 0.1639152
-0.046854913 0.043195788 -0.004970218 0.028174974 0.098580964 0.0071111554 0.0019010941 0.029942421
0.062906496 -0.16284579 -0.15274079 0.101302534 0.00812583 -0.050856035 0.008775537 0.102059335
0.007815059 0.075704895 -0.15188813 -0.014455697 -0.11599555 0.055667847 -0.18854997 0.0076918765
0.026369749 -0.17427197 -0.14680253 0.056451697 -0.18370438 0.15836123 -0.008735982 0.1694008
-0.16746017 -0.14499937 -0.13570791 0.07135761 -0.18434747 0.12660244 0.059053656 -0.12481875
-0.14724237 -0.17594817 0.07264615 0.12817241 -0.12760942 -0.07164722 -0.1478956 0.013306704
-0.023361282 -0.16664179 -0.015028582 -0.118794635 -0.033868223 0.047770437 -0.015694704 -0.18704018
-0.06463236 0.10017095 -0.040050928 -0.10160127 0.0042971987 0.11636429 -0.148783 0.02272394
-0.009665418 -0.16321442 -0.04013603 -0.11992647 -0.16507721 -0.10159192 0.07409592 0.034917377
-0.0024811307 -0.01890495 -0.16830209 -0.045362778 -0.18558241 0.033867486 0.10279322 -0.010376755
-0.047287136 0.018453887 -0.08628981 -0.11591528 -0.18019214 -0.043603696 -0.10252433 -0.116446786
-0.14562722 0.10858323 0.008155904 -0.18732792 -0.1799026 0.17604375 -0.10688763 -0.027479716
0.13111635 -0.004567863 -0.16393496 0.15179636 0.046388045 0.13948488 -0.05793809 -0.016670696
0.044613898 0.1725559 -0.05270658 -0.11219047 -0.096818 0.14204006 0.19009961 -0.11189945
0.0017562911 -0.016949514 0.011008047 -0.17676008 0.04723082 0.090392254 -0.066914946 -0.0062401956
0.07298489 0.17211148 -0.16941392 0.11915665 -0.1395691 -0.015904708 -0.058060493 -0.056892682
0.14016823 0.18088125 -0.14374822 -0.13824794 -0.11823415 -0.013710802 0.03627536 0.055487473
0.18799193 0.016656818 0.10171086 0.04326345 0.012925898 0.033190697 0.1641309 -0.11451862
-0.10015159 -0.024052948 0.107990265 0.06825243 0.11764633 -0.10295209 -0.17338935 -0.014703865
-0.12593895 0.15588112 -0.032857742 -0.045339238 -0.17065811 -0.102299 -0.18282513 0.067795955
0.12301227 -0.028034287 -0.16613406 0.08991398 0.048126824 -0.13571608 0.16944507 -0.02460432
-0.06237392 -0.1047936 -0.037540227 -0.028222293 0.15429786 -0.12170713 0.1557782 0.107101955
-0.077419624 -0.15143754 -0.107010856 -0.14993483 0.016626278 0.12310212 0.10005913 -0.019144941
0.15478298 0.15632127 -0.16911456 0.14064096 0.08253508 0.10162836 0.15024357 -0.09315574
-0.11967456 0.0338477 -0.08179919 -0.091135375 0.060175892 -0.13296792 0.049986206 -0.028227543
0.006829665 0.14511426 -0.009435876 -0.11003493 -0.12382063 -0.15462402 0.15795644 -0.14389601
-0.04196108 -0.1275162 -0.14707862 0.05391648 0.014323531 0.11175428 -0.11984211 -0.08130715
00000000: 7643 013e 4271 40be 357e de3c 6549 063c
00000010: 84e8 0cbe 7f5f 3fbe b547 f4bd 44c6 39be
00000020: bcbf eebd 807e 613d f3f9 fdbd 65e1 22be
00000030: 5772 9a3d 2678 5e3d f19c 23be 8d65 15be
00000040: c962 653d 9130 203d a3d1 1a3e 180d cc3d
00000050: 0b88 3c3a b88e 263e 195c ebbd c36e 0a3d
00000060: b22a 9dbd d70c 0d3e 924e 4c3d c848 1a3e
00000070: 03d3 1fbe 8695 25be 2b2e 9abd f079 37be
00000080: 54d5 2d3e dcbf 9c3d c169 833d 8f45 bf3d
00000090: 710e 963c 9457 b3bd 5d81 3cbc 63d9 273e
000000a0: f0ea 3fbd 11ee 303d 36dd a2bb 34cf e63c
000000b0: d1e4 c93d b204 e93b 222e f93a cf49 f53c
000000c0: 1fd5 803d 0cc1 26be 1568 1cbe b477 cf3d
000000d0: 3422 053c 6b4e 50bd 45c7 0f3c 7c04 d13d
000000e0: bc0a 003c 2b0b 9b3d 9088 1bbe 96d7 6cbc
000000f0: 138f edbd f803 643d 3e13 41be 230c fc3b
00000100: 5f05 d83c 5a74 32be 6753 16be e539 673d
00000110: 001d 3cbe 7229 223e 5d21 0fbc 6777 2d3e
00000120: ae7a 2bbe b77a 14be 04f7 0abe f023 923d
00000130: 95c5 3cbe 12a4 013e 3fe2 713d f9a0 ffbd
00000140: b4c6 16be c22b 34be 81c7 943d a13f 033e
00000150: 0bac 02be c7bb 92bd f271 17be 5d04 5a3c
00000160: 2960 bfbc 25a4 2abe 713a 76bc 9a4a f3bd
00000170: 68b9 0abd efaa 433d 2e92 80bc 7687 3fbe
00000180: f95d 84bd 6d26 cd3d 710c 24bd 5414 d0bd
00000190: 84cf 8c3b 6750 ee3d 925a 18be 8e27 ba3c
000001a0: b45b 1ebc ae21 27be ae65 24bd 029c f5bd
000001b0: 000a 29be 6d0f d0bd 9abf 973d 8605 0f3d
000001c0: 779a 22bb 8ede 9abc 6257 2cbe 52ce 39bd
000001d0: 5109 3ebe a2b8 0a3d 4085 d23d 4403 2abc
000001e0: 28b0 41bd 9b2c 973c b6b8 b0bd fe64 edbd
000001f0: 4a84 38be ca99 32bd 47f8 d1bd a77b eebd
00000200: 4d1f 15be e260 de3d 57a0 053c e4d2 3fbe
00000210: 6338 38be d044 343e e7e7 dabd 241d e1bc
00000220: 5d43 063e 03ae 95bb 91de 27be 8170 1b3e
00000230: 6401 3e3d 20d5 0e3e 7e50 6dbd fc90 88bc
00000240: 10bd 363d 7eb2 303e dbe2 57bd 1ec4 e5bd
00000250: 8448 c6bd f372 113e 79a9 423e 8a2b e5bd
00000260: 5a33 e63a b5d9 8abc 185b 343c 9800 35be
00000270: 1b75 413d 931f b93d b40a 89bd 8e7a ccbb
00000280: 1a79 953d fe3d 303e d87a 2dbe 6708 f43d
00000290: 34eb 0ebe 974a 82bc d7d0 6dbd 4d08 69bd
000002a0: 4388 0f3e ef38 393e bc32 13be de90 0dbe
000002b0: bf24 f2bd 46a3 60bc 7995 143d d546 633d
000002c0: f580 403e e173 883c c94d d03d 0435 313d
000002d0: 25c7 533c f8f2 073d ee11 283e bd88 eabd
000002e0: 471c cdbd b00a c5bc 002a dd3d eec7 8b3d
000002f0: 8ff0 f03d 8cd8 d2bd fa8c 31be 7be8 70bc
00000300: 24f6 00be 4d9f 1f3e d795 06bd a3b5 39bd
00000310: 00c1 2ebe 2382 d1bd 8336 3bbe 9bd8 8a3d
00000320: dbed fb3d 29a8 e5bc 0c1f 2abe d224 b83d
00000330: a220 453d 28f9 0abe 0283 2d3e 008f c9bc
00000340: cc7b 7fbd 079e d6bd c8c3 19bd 7032 e7bc
00000350: 4200 1e3e 9641 f9bd 5284 1f3e 4558 db3d
00000360: 2e8e 9ebd 7112 1bbe 8228 dbbd 8488 19be
00000370: d533 883c f71c fc3d cdeb cc3d dad5 9cbc
00000380: 6e7f 1e3e af12 203e 5e2c 2dbe 2f04 103e
00000390: 2708 a93d 8822 d03d 73d9 193e 70c8 bebd
000003a0: f017 f5bd e3a3 0a3d 5586 a7bd 2fa5 babd
000003b0: ff7a 763d be28 08be 56be 4c3d 733d e7bc
000003c0: 62cb df3b d598 143e ef98 1abc fe59 e1bd
000003d0: ac95 fdbd c255 1ebe 55bf 213e 7a59 13be
000003e0: 62df 2bbd 9b93 02be c79b 16be 87d7 5c3d
000003f0: 3ead 6a3c 6edf e43d c86f f5bd 5d84 a6bd

bias f4 [16]
0.020325633 0.119137615 0.044287704 0.04545708 -0.13454679 0.16355476 0.16992377 -0.06379417
0.09271717 -0.08268522 -0.16147509 0.115197435 -0.14863266 -0.0019277303 -0.08809824 -0.1626841
00000000: f181 a63c 6cfe f33d 0667 353d 3431 3a3d
00000010: a2c6 09be e67a 273e 7f00 2e3e 85a6 82bd
00000020: 80e2 bd3d de56 a9bd ba59 25be a2ec eb3d
00000030: 2933 18be e5ab fcba da6c b4bd a996 26be

weight f4 [16]
0.999062 0.9985616 1.0007856 1.000446 0.9990403 0.9988403 1.0009868 1.0012394
1.0004448 1.0001044 1.0004216 0.9988251 1.0001596 0.99985576 0.9991169 0.9986745
00000000: 87c2 7f3f bca1 7f3f be19 803f 9d0e 803f
00000010: 1bc1 7f3f ffb3 7f3f 5620 803f 9d28 803f
00000020: 930e 803f 6c03 803f d10d 803f 00b3 7f3f
00000030: 3b05 803f 8cf6 7f3f 20c6 7f3f 22a9 7f3f

bias f4 [16]
-0.0011209142 -0.001210244 0.0008552585 0.000452245 -0.0004384677 -0.0010471465 0.001093837 0.001290315
0.0011809993 0.00081886747 0.00090390973 -0.00060749264 0.0006065705 -0.0004049541 -0.0008560342 -0.00091703027
00000000: a4eb 92ba 0da1 9eba 6d33 603a 4c1b ed39
00000010: 23e2 e5b9 6840 89ba 145f 8f3a c91f a93a
00000020: c3cb 9a3a 44a9 563a 5bf4 6c3a 2440 1fba
00000030: 4202 1f3a 0550 d4b9 7c67 60ba dc64 70ba

running_mean f4 [16]
-66.4609 4.603243 -90.96289 -122.895164 -140.74997 49.10897 27.806023 -57.509415
8.638359 -86.640884 49.50336 113.91633 -31.509933 -42.228737 -123.1352 -50.101624
00000000: fbeb 84c2 c44d 9340 00ed b5c2 53ca f5c2
00000010: febf 0cc3 966f 4442 bc72 de41 a409 66c2
00000020: b836 0a41 2248 adc2 7103 4642 29d5 e342
00000030: 5814 fcc1 3aea 28c2 3945 f6c2 1068 48c2

running_var f4 [16]
1288.552 138.88881 2228.589 3941.2075 5103.777 650.95526 351.06888 1020.05493
147.84143 1961.8348 706.12695 3402.167 410.58957 547.55084 3941.476 711.5505
00000000: aa11 a144 89e3 0a43 6d49 0b45 5253 7645
00000010: 377e 9f45 23bd 2244 d188 af43 8403 7f44
00000020: 68d7 1343 b73a f544 2088 3044 aca2 5445
00000030: 774b cd43 41e3 0844 9e57 7645 3be3 3144

weight f4 [16, 3, 5, 5]
0.08660055 -0.09521382 0.06867198 0.10360604 0.03639315 -0.10803256 -0.0815094 -0.085655995
0.11050425 0.04318743 -0.016111644 0.06753968 0.08758338 -0.077820994 -0.06670818 -0.06460432
-0.11343373 0.078752555 -0.04911899 -0.05467759 -0.04843856 0.016254617 0.090176366 0.0077308863
-0.02591412 -0.07137344 -0.107273936 -0.08041885 0.078734785 -0.06258183 -0.08525164 0.07092224
-0.06045464 -0.08436513 -0.022053322 -0.0055148317 0.074594975 -0.09424448 0.07239092 -0.09265232
-0.0834377 -0.064034514 0.09691539 -0.09156846 0.04801143 -0.068407275 0.06345434 -0.046965998
-0.09115887 0.08163464 0.011287119 0.085833274 0.058421485 -0.08285447 0.1114849 0.05205464
-0.096445285 0.110906936 -0.09396377 0.10211043 -0.06899167 0.095672704 0.05352848 -0.06808515
0.09366144 -0.09605888 0.036394518 0.051659297 0.03511595 0.03510692 -0.0002985078 -0.040390696
0.10978824 -0.01609717 0.05308588 0.009006627 0.006778264 0.10159631 0.01848996 0.07741397
0.03340189 -0.10997804 -0.101183705 0.09731319 -0.028934473 0.06341009 -0.08439829 -0.10752571
-0.114658095 0.06863052 0.01358458 -0.10605406 -0.10871958 0.048037145 0.10021457 0.038568303
0.08428447 0.038867794 0.04424717 0.028868217 0.022864012 0.11436727 0.025944684 -0.08653362
-0.07442009 -0.07739097 0.045221057 0.01580953 0.034330904 0.06912716 -0.018740684 0.11255389
-0.038492884 0.014346039 0.10638176 0.03265878 -0.07791235 -0.08927249 0.102791935 -0.06406088
0.08568462 0.003579973 0.10350058 -0.009695807 0.06590882 0.07267762 0.03546528 0.032264102
0.038730964 0.11275077 -0.099387646 0.084241845 -0.02477372 -0.024716122 -0.08334191 -0.08228124
0.11513497 0.041626856 -0.015472337 0.00026294522 0.0020371168 0.049198568 -0.040639125 0.031305317
-0.055850994 -0.0005457943 0.029088957 0.045081038 0.043667976 0.11442286 0.015266981 0.05044763
0.0983617 -0.05820673 0.10751671 -0.05858758 -0.10636543 -0.09153477 0.09477021 0.029607538
0.07433699 -0.044950876 0.10554674 -0.03812538 -0.023422765 -0.11064527 -0.0073646433 -0.08581155
0.055157498 0.040069494 -0.0520809 0.058504216 0.10685217 -0.016605705 0.08666206 0.011126129
-0.07357566 0.017804831 -0.030998062 0.10255448 -0.07053494 -0.053658787 -0.052869055 0.018853046
-0.011579702 -0.082581386 -0.09253378 -0.049343515 0.057147022 -0.015980182 -0.070153944 -0.05501584
0.10648946 -0.11412938 0.07103907 -0.049302906 -0.09221103 0.05245362 -0.07005791 -0.006119943
-0.06036311 0.0035987166 0.024192937 0.11526836 -0.04960193 -0.049485628 0.05261856 -0.005736448
0.08643341 -0.11187011 -0.035794523 0.10297637 0.020988796 -0.10811658 0.026384994 0.07837001
0.0800843 -0.043469485 0.11228037 -0.00021013027 -0.011523169 -0.022135206 0.09527586 -0.097831115
0.025967564 -0.047769252 0.016033579 0.014594456 -0.090064526 -0.080097504 0.030189622 -0.0644732
0.06542508 -0.06745962 -0.07320188 0.112223595 -0.047383986 -0.009318202 -0.022104966 -0.04883843
-0.008011988 0.03914906 -0.054138314 -0.02959985 0.105124876 0.03145898 -0.05055949 -0.034908026
0.08225143 0.041414823 0.07421661 0.013731816 -0.09257971 -0.11495353 0.094680585 0.015251037
00000000: a15b b13d 77ff c2bd e5a3 8c3d 672f d43d
00000010: fc10 153d 2d40 ddbd 66ee a6bd 696c afbd
00000020: 0d50 e23d 4de5 303d 91fc 83bc 3e52 8a3d
00000030: ea5e b33d 9d60 9fbd 4c9e 88bd 454f 84bd
00000040: f24f e8bd 0549 a13d fe30 49bd 9cf5 5fbd
00000050: 8367 46bd 6728 853c 63ae b83d 6053 fd3b
00000060: d949 d4bc 3d2c 92bd 70b2 dbbd a3b2 a4bd
00000070: b43f a13d e72a 80bd 6998 aebd ae3f 913d
00000080: 499f 77bd a0c7 acbd 2ba9 b4bc c3b5 b4bb
00000090: 40c5 983d 4003 c1bd b141 943d 80c0 bdbd
000000a0: 63e1 aabd 8724 83bd 937b c63d 3f88 bbbd
000000b0: a2a7 443d 1d19 8cbd 59f4 813d 6b5f 40bd
000000c0: 80b1 babd 1030 a73d 9ced 383c 5bc9 af3d
000000d0: 5e4b 6f3d 9baf a9bd 3252 e43d 3f37 553d
000000e0: 1b85 c5bd 2d23 e33d 1470 c0bd 461f d13d
000000f0: 814b 8dbd 0df0 c33d ae40 5b3d 3a70 8bbd
00000100: 92d1 bf3d 85ba c4bd 6b12 153d b398 533d
00000110: bed5 0f3d 46cc 0f3d 0a81 9cb9 b770 25bd
00000120: a8d8 e03d 36de 83bc 9470 593d 8890 133c
00000130: 331c de3b ba11 d03d 4278 973c 378b 9e3d
00000140: 6cd0 083d 2b3c e1bd 6739 cfbd 234c c73d
00000150: fd07 edbc 26dd 813d 03d9 acbd 7036 dcbd
00000160: ddd1 eabd 288e 8c3d dc91 5e3c df32 d9bd
00000170: 5fa8 debd 99c2 443d 4c3d cd3d ccf9 1d3d
00000180: 569d ac3d d633 1f3d 853c 353d 0a7d ec3c
00000190: 4f4d bb3c 6339 ea3d f289 d43c 8a38 b1bd
000001a0: 8f69 98bd 287f 9ebd b739 393d fd82 813c
000001b0: 909e 0c3d 8a92 8d3d 1086 99bc a782 e63d
000001c0: b7aa 1dbd a60b 6b3c aede d93d 37c5 053d
000001d0: 8390 9fbd 7fd4 b6bd 9484 d23d 5a32 83bd
000001e0: 6b7b af3d fb9d 6a3b 1df8 d33d 29db 1ebc
000001f0: 34fb 863d 01d8 943d 0b44 113d 5d27 043d
00000200: 5ca4 1e3d e0e9 e63d c08b cbbd fd86 ac3d
00000210: 42f2 cabc 7779 cabc 2aaf aabd 1183 a8bd
00000220: e2cb eb3d ec80 2a3d af7f 7dbc e9db 8939
00000230: 2681 053b 7084 493d 3675 26bd 013a 003d
00000240: 03c4 64bd a313 0fba f74b ee3c e5a6 383d
00000250: 31dd 323d 8856 ea3d 5c22 7a3c 2da2 4e3d
00000260: dc71 c93d 2e6a 6ebd b931 dc3d 88f9 6fbd
00000270: 1ed6 d9bd 9576 bbbd e216 c23d 828b f23c
00000280: fe3d 983d 691e 38bd e428 d83d 5c29 1cbd
00000290: 19e1 bfbc fd99 e2bd 1b53 f1bb f7bd afbd
000002a0: d4ec 613d e91f 243d c852 55bd 1ea2 6f3d
000002b0: 4fd5 da3d b008 88bc e17b b13d 5e4a 363c
000002c0: d6ae 96bd 70db 913c a6ef fdbc 1508 d23d
000002d0: 9f74 90bd 51c9 5bbd 398d 58bd b471 9a3c
000002e0: cab8 3dbc 6e20 a9bd 5a82 bdbd 6d1c 4abd
000002f0: ff12 6a3d dfe8 82bc dfac 8fbd 4a58 61bd
00000300: 2517 da3d aabc e9bd ef7c 913d d8f1 49bd
00000310: 23d9 bcbd 9bd9 563d 867a 8fbd ce89 c8bb
00000320: 4f3f 77bd 72d8 6b3b 4430 c63c d111 ec3d
00000330: 652b 4bbd 71b1 4abd 8f86 573d d0f8 bbbb
00000340: 0004 b13d 281c e5bd 479d 12bd 46e5 d23d
00000350: b2f0 ab3c 3a6c ddbd 5825 d83c 7580 a03d
00000360: 3d03 a43d 0f0d 32bd 40f3 e53d 6a56 5cb9
00000370: adcb 3cbc e454 b5bc fd1f c33d ae5b c8bd
00000380: eeb9 d43c b1a9 43bd da58 833c 961d 6f3c
00000390: c073 b8bd 290a a4bd 3a50 f73c 860a 84bd
000003a0: 96fd 853d 4528 8abd deea 95bd 7cd5 e53d
000003b0: b615 42bd 5fab 18bc 7915 b5bc ce0a 48bd
000003c0: b744 03bc c45a 203d 23c0 5dbd 627b f2bc
000003d0: b64b d73d 22db 003d 7817 4fbd b8fb 0ebd
000003e0: 7073 a83d 97a2 293d e1fe 973d 69fb 603c
000003f0: 6e9a bdbd c26c ebbd e5e7 c13d 7cdf 793c

bias f4 [16]
0.039954614 0.05348435 -0.08500685 0.010449378 -0.06524743 0.034798443 -0.006507213 0.11044866
-0.0831352 -0.07228248 -0.027791189 -0.024516037 -0.027695073 -0.08540259 -0.024028564 -0.061284803
00000000: 73a7 233d 6812 5b3d 1218 aebd de33 2b3c
00000010: 72a0 85bd d088 0e3d 763a d5bb e832 e23d
00000020: ca42 aabd d608 94bd 59aa e3bc dbd5 c8bc
00000030: c7e0 e2bc 8ee7 aebd 8dd7 c4bc c605 7bbd

weight f4 [16]
0.9989922 0.9989932 0.9989216 0.99892676 1.0004956 1.0000342 1.0007699 1.000559
0.99886435 1.0008999 0.99894565 0.99857616 0.99878484 0.9990432 1.0002123 0.9990625
00000000: f4bd 7f3f 05be 7f3f 53b9 7f3f aab9 7f3f
00000010: 3d10 803f 1f01 803f 3a19 803f 5112 803f
00000020: 93b5 7f3f 7d1d 803f e7ba 7f3f b0a2 7f3f
00000030: 5db0 7f3f 4cc1 7f3f f506 803f 8fc2 7f3f

bias f4 [16]
0.00024425253 -0.0010246458 -0.0013006512 -0.0009398948 0.0011916356 0.0009780147 0.0012702702 0.00048790406
-0.0007998613 0.0011570238 -0.00060373027 -0.00010479016 -0.0004980352 -0.00077434507 0.0010782849 -0.00078401086
00000000: 050f 8039 684d 86ba 9d7a aaba 4663 76ba
00000010: a830 9c3a ba30 803a 327f a63a 60cd ff39
00000020: c8ad 51ba 47a7 973a a743 1eba cac2 dbb8
00000030: 948e 02ba 6bfd 4aba 3d55 8d3a 1486 4dba

running_mean f4 [16]
-24.040236 88.10297 -14.298013 -40.18289 23.301558 20.420067 -33.573044 -96.17145
-15.974333 94.59865 43.01382 1.7235931 -65.92853 -56.858932 6.609115 67.105644
00000000: 6752 c0c1 b834 b042 a9c4 64c1 48bb 20c2
00000010: 9769 ba41 4c5c a341 cc4a 06c2 c857 c0c2
00000020: de96 7fc1 8232 bd42 270e 2c42 b39e dc3f
00000030: 68db 83c2 8c6f 63c2 df7d d340 1736 8642

running_var f4 [16]
426.73547 2026.0667 359.1953 698.6712 297.09528 268.8476 488.652 2352.849
352.277 2209.1558 664.1507 252.39603 1398.6295 1107.9849 287.27032 1235.5474
00000000: 245e d543 2242 fd44 0099 b343 f5aa 2e44
00000010: 328c 9443 7e6c 8643 7553 f443 960d 1345
00000020: 7523 b043 7e12 0a45 a509 2644 6265 7c43
00000030: 25d4 ae44 847f 8a44 9aa2 8f43 8471 9a44

weight f4 [96, 48, 1, 1]
-0.10496642 0.12884037 0.13143842 -0.024759956 -0.060934313 -0.1201383 0.10703895 -0.12178849
0.014311925 0.08716876 -0.040681317 -0.019347118 -0.11355296 -0.031372305 -0.03746282 0.118172385
-0.06015804 -0.041326944 -0.033513002 -0.073063 0.04378327 0.025860889 -0.11102788 -0.040843736
-0.010658861 0.011215833 -0.13271914 -0.07519786 0.13931166 -0.11306482 0.049018033 -0.13392687
-0.103577554 0.092728436 -0.07004293 -0.018917665 0.10177739 0.052746166 0.05988199 0.021453405
0.1046981 -0.11014854 0.06520944 0.015619423 -0.0678571 -0.045847666 -0.059674043 0.051060226
-0.055364117 -0.033477142 0.059473682 -0.043847177 0.093641184 -0.13195857 0.09661765 -0.0920916
-0.09201956 -0.08021479 -0.03478079 0.13620123 0.047324803 -0.09546655 -0.11121444 -0.06272889
-0.12709266 0.052849468 0.017269582 0.08306286 0.015940374 0.04199582 0.007250534 -0.104130186
-0.01536464 -0.11374588 -0.038534768 -0.12909162 -0.09681294 0.06199486 -0.0062162224 0.0023186808
0.010375344 0.13409673 0.059923984 -0.13594347 0.051125873 -0.14022216 0.023296092 -0.1066674
0.13768327 -0.13442193 0.09669713 0.0237965 0.09480982 0.07057908 -0.019420605 0.12591551
0.01369599 -0.0968807 0.093654126 0.011271664 0.06338707 -0.114393696 0.082593456 -0.09162017
0.12667112 0.07768164 -0.09541538 -0.0839193 0.06282417 -0.046346508 0.051667407 0.038273096
0.12907106 -0.03751686 0.14431755 0.04874052 -0.08127456 -0.009839848 -0.0278232 -0.026751319
-0.05076169 -0.11988623 -0.107813545 -0.015767476 -0.010439278 -0.12641028 0.050475143 -0.10977889
0.09801135 -0.068417124 0.079506636 -0.09996915 0.1344602 0.09398142 -0.05681421 -0.1428917
-0.023534445 -0.011896024 -0.11695275 -0.09344322 -0.114522316 -0.016823681 0.13254184 -0.058535308
0.13953705 -0.09551358 -0.012876262 -0.005571946 -0.0107793305 -0.13760036 0.027772002 -0.005361842
0.043451764 -0.035691876 -0.071584165 0.13805342 -0.07315417 -0.030411247 0.06896877 0.040565565
-0.052566484 -0.09223468 0.09467803 0.08407239 -0.044563852 0.013353231 -0.07010306 0.09636289
0.1068406 -0.10802162 0.13130313 0.024711413 -0.03769645 -0.0839957 -0.050937835 -0.07524267
0.11479558 -0.120077044 0.089705266 -0.1364946 0.010585189 -0.0953003 -0.12210523 0.002605179
0.0031670763 0.073044665 0.053315464 0.12678133 -0.03788577 0.001421892 0.011331803 -0.06273363
0.0130284885 -0.024761505 0.0935085 0.11926238 0.027250402 0.038125712 0.13458693 0.13848771
-0.09775393 -0.069164366 -0.051702432 -0.0163777 0.086078346 0.09057767 0.064744905 -0.01644174
0.1047585 0.011573203 -0.0037771985 0.07233525 -0.079430535 -0.023955345 -0.0047382647 0.08961005
-0.04835628 0.061945282 0.12812494 0.059879564 -0.037551783 -0.057709098 0.11813212 -0.13323095
0.021864641 0.06886297 0.06988026 0.073503025 -0.09309093 -0.03983818 -0.050835297 -0.13920029
-0.10019271 0.070149235 0.13460593 0.001295519 -0.009918269 0.0890901 -0.04760267 0.012872895
0.03703101 0.12313843 -0.09386675 -0.032479983 0.08231976 0.08736576 0.026337832 0.0874024
-0.028319368 0.07021258 0.03673528 0.03762835 -0.037449986 0.08318734 0.10366393 0.04479955
00000000: a2f8 d6bd bbee 033e cb97 063e 64d5 cabc
00000010: 4296 79bd 120b f6bd 3d37 db3d 3e6c f9bd
00000020: 907c 6a3c 8985 b23d 74a1 26bd d97d 9ebc
00000030: 748e e8bd 3f80 00bd 9d72 19bd 5d04 f23d
00000040: 4768 76bd 7146 29bd ee44 09bd 0ea2 95bd
00000050: 1656 333d 37da d33c 9662 e3bd c34b 27bd
00000060: 81a2 2ebc 9dc2 373c 87e7 07be 5601 9abd
00000070: b7a7 0e3e 878e e7bd 22c7 483d 2024 09be
00000080: 7820 d4bd 68e8 bd3d ab72 8fbd 38f9 9abc
00000090: aa70 d03d 5d0c 583d d146 753d 0dbf af3c
000000a0: f56b d63d 8f95 e1bd 878c 853d 9ce8 7f3c
000000b0: aaf8 8abd c3ca 3bbd c56c 74bd 8724 513d
000000c0: 7cc5 62bd 541f 09bd ad9a 733d 1999 33bd
000000d0: f3c6 bf3d 2620 07be 79df c53d 859a bcbd
000000e0: c074 bcbd a747 a4bd 4d76 0ebd 5678 0b3e
000000f0: a7d7 413d f783 c3bd 65c4 e3bd 0178 80bd
00000100: 9424 02be af78 583d f078 8d3c dc1c aa3d
00000110: 6395 823c cf03 2c3d e395 ed3b 3542 d5bd
00000120: f9bb 7bbc 9af3 e8bd a2d6 1dbd 9830 04be
00000130: dd45 c6bd 53ee 7d3d 74b1 cbbb 02f5 173b
00000140: 59fd 293c a750 093e da72 753d c434 0bbe
00000150: 5d69 513d 6696 0fbe 72d7 be3c 7074 dabd
00000160: d8fc 0c3e e7a5 09be 2509 c63d e1f0 c23c
00000170: a72b c23d c48b 903d f617 9fbc ffef 003e
00000180: 2565 603c 6369 c6bd bccd bf3d c9ac 383c
00000190: 15d1 813d 3e47 eabd c226 a93d 5ba3 bbbd
000001a0: 13b6 013e 8d17 9f3d 2469 c3bd e2dd abbd
000001b0: f5a9 803d d6d5 3dbd 34a1 533d 40c4 1c3d
000001c0: 342b 043e 47ab 19bd fbc7 133e 24a4 473d
000001d0: 4773 a6bd 5037 21bc 7bed e3bc 9525 dbbc
000001e0: 7deb 4fbd e986 f5bd 59cd dcbd cb2a 81bc
000001f0: 8109 2bbc b271 01be 06bf 4e3d c1d3 e0bd
00000200: 2dba c83d 471e 8cbd 60d4 a23d a0bc ccbd
00000210: efaf 093e 5579 c03d 04b6 68bd 3452 12be
00000220: 4fcb c0bc 8be7 42bc ec84 efbd 295f bfbd
00000230: ad8a eabd d1d1 89bc 0cb9 073e b8c2 6fbd
00000240: cde2 0e3e a09c c3bd f5f6 52bc df94 b6bb
00000250: ca9b 30bc 1ce7 0cbe 1c82 e33c 64b2 afbb
00000260: 7afa 313d a531 12bd b89a 92bd e05d 0d3e
00000270: dad1 95bd 0221 f9bc 803f 8d3d 1428 263d
00000280: f44f 57bd 89e5 bcbd 8ee6 c13d 252e ac3d
00000290: 9688 36bd 83c7 5a3c 3192 8fbd e859 c53d
000002a0: 3fcf da3d 703a ddbd 5474 063e 976f ca3c
000002b0: 9867 1abd f005 acbd 31a4 50bd d418 9abd
000002c0: f219 eb3d f4ea f5bd 65b7 b73d 3ec5 0bbe
000002d0: 806d 2d3c ce2c c3bd 4f12 fabd a7bb 2a3b
000002e0: b98e 4f3b 7198 953d 5161 5a3d f7d2 013e
000002f0: 1c2e 1bbd c75e ba3a 07a9 393c 7d7a 80bd
00000300: 7175 553c a4d8 cabc 6281 bf3d d63f f43d
00000310: 3c3c df3c b529 1c3d 28d1 093e b9cf 0d3e
00000320: 3633 c8bd 0ca6 8dbd eec5 53bd 872a 86bc
00000330: d849 b03d c980 b93d fa98 843d d4b0 86bc
00000340: a08b d63d 889d 3d3c e08a 77bb 8124 943d
00000350: 7aac a2bd 003e c4bc 7243 9bbb 7985 b73d
00000360: 3c11 46bd 56ba 7d3d 2f33 033e 4644 753d
00000370: e6cf 19bd 6060 6cbd 41ef f13d b26d 08be
00000380: 7a1d b33c 0708 8d3d 621d 8f3d c188 963d
00000390: 75a6 bebd 5c2d 23bd ac38 50bd 858a 0ebe
000003a0: d631 cdbd 67aa 8f3d 23d6 093e 67ce a93a
000003b0: 3c80 22bc df74 b63d 04fb 42bd d6e8 523c
000003c0: d4ad 173d 0030 fc3d 363d c0bd bb09 05bd
000003d0: 4397 a83d d2ec b23d 70c2 d73c 0800 b33d
000003e0: 05fe e7bc 9dcb 8f3d bc77 163d 2f20 1a3d
000003f0: 2865 19bd 205e aa3d c14d d43d bc7f 373d

bias f4 [96]
-0.07232162 0.11866955 -0.09010537 0.013119205 -0.047615636 0.032252107 -0.05140189 -0.1226103
0.07784882 0.10623814 -0.07212499 -0.10357113 -0.022308668 0.011897025 -0.02180786 -0.013873967
0.124785796 -0.039411712 0.12796424 0.07395245 -0.11812707 0.09665601 0.13547722 -0.10125234
0.03846795 -0.108643554 -0.07915335 0.10561737 -0.12550174 -0.002976656 -0.016131487 0.0037343043
-0.102822505 0.12694974 0.08893441 -0.1305999 0.05950895 -0.14030127 -0.08551202 0.061639756
0.09438007 -0.012908891 -0.108905144 -0.00017784272 -0.09324494 0.11728667 -0.040358856 0.08008351
0.038037352 -0.10738236 0.056324508 -0.07949247 -0.10836086 -0.026014024 0.04968257 0.073350534
-0.030281583 -0.09246206 0.08014843 0.094876856 0.10041586 0.03837269 0.120911874 -0.011722372
0.012927906 0.022534352 0.09159375 -0.14008418 0.041101113 -0.0337803 -0.030011345 0.03198197
-0.0048069446 0.004305162 -0.030740835 0.1174368 -0.09324867 0.13856743 0.034141116 0.010364269
0.04715332 -0.07612832 0.042758726 -0.07528636 -0.009930372 -0.018380057 0.12340094 -0.063540936
-0.118455395 -0.025651287 0.050525162 0.056737095 0.09560726 0.007915812 0.13113406 0.07731393
00000000: 5c1d 94bd 0509 f33d 2a89 b8bd eff1 563c
00000010: 9d08 43bd c91a 043d ca8a 52bd 1c1b fbbd
00000020: 346f 9f3d 6293 d93d 44b6 93bd 1a1d d4bd
00000030: abc0 b6bc bdeb 423c 66a6 b2bc a34f 63bc
00000040: b28f ff3d 2d6e 21bd 0f09 033e 6274 973d
00000050: 9bec f1bd 96f3 c53d 8aba 0a3e 635d cfbd
00000060: 9290 1d3d 8380 debd 271b a2bd eb4d d83d
00000070: 8783 00be 0014 43bb 2e26 84bc 3bbb 743b
00000080: 9b94 d2bd 1dff 013e 3e23 b63d fbbb 05be
00000090: a8bf 733d 23ab 0fbe ed20 afbd f879 7c3d
000000a0: 574a c13d d07f 53bc a909 dfbd 4b7b 3ab9
000000b0: 34f7 bebd fe33 f03d 544f 25bd d302 a43d
000000c0: 0ecd 1b3d 48eb dbbd 87b4 663d f3cc a2bd
000000d0: 4cec ddbd 5d1b d5bc f37f 4b3d ce38 963d
000000e0: 1511 f8bc c05c bdbd dc24 a43d cc4e c23d
000000f0: d5a6 cd3d af2c 1d3d a5a0 f73d 310f 40bc
00000100: 91cf 533c f699 b83c 8195 bb3d 3a72 0fbe
00000110: a459 283d 365d 0abd 5ada f5bc 87ff 023d
00000120: 9383 9dbb 5112 8d3b 34d4 fbbc b482 f03d
00000130: 29f9 bebd 9fe4 0d3e 8ed7 0b3d e5ce 293c
00000140: d723 413d 2ae9 9bbd c623 2f3d bc2f 9abd
00000150: 00b3 22bc c691 96bc a2b9 fc3d c021 82bd
00000160: be98 f2bd a622 d2bc 79f3 4e3d 2865 683d
00000170: bdcd c33d 52b1 013c 0248 063e c456 9e3d

weight f4 [96]
1.0003256 0.9984948 0.99856067 0.99873686 1.0007013 0.99885654 0.9985726 0.99870735
0.9992734 0.99901265 1.0002066 0.99916506 1.0001562 1.0004177 0.99961436 0.99853253
0.99995375 0.99888194 0.99867445 0.99866265 0.99884075 1.0005909 0.9986563 0.99902815
0.99911565 0.9990761 1.0007054 1.0002168 0.9985895 0.9985333 1.000367 1.0005375
0.9991376 1.0007017 0.99998146 0.99973345 0.99967396 0.9986127 0.9989306 0.9986281
0.998465 0.99870765 0.9985268 0.99853164 0.9992398 0.99867594 0.9995326 0.9984894
0.99851996 0.99854666 1.000097 0.99873126 0.9986699 0.9994776 0.999452 0.99864644
1.0000556 0.9999396 0.9985973 0.9984439 0.9986125 0.9985995 0.99904734 0.9985553
0.99846244 0.99883264 1.000354 1.0003443 0.998726 0.99854845 0.9990465 0.99865395
0.99857485 0.9984 0.9988721 0.9991652 0.998761 0.9995928 0.9995005 0.99879587
0.99927056 1.0002671 1.0009788 0.9986412 0.9986916 0.9985855 0.9985563 0.9985498
1.0003407 0.9988098 0.998665 0.99871594 0.99857366 0.9991851 0.99851817 1.0003121
00000000: ab0a 803f 5b9d 7f3f aca1 7f3f 38ad 7f3f
00000010: fb16 803f 10b5 7f3f 74a2 7f3f 49ab 7f3f
00000020: 62d0 7f3f 4bbf 7f3f c506 803f 48c9 7f3f
00000030: 1e05 803f b00d 803f bae6 7f3f d49f 7f3f
00000040: f8fc 7f3f bab6 7f3f 21a9 7f3f 5ba8 7f3f
00000050: 07b4 7f3f 5d13 803f f0a7 7f3f 4fc0 7f3f
00000060: 0bc6 7f3f 74c3 7f3f 1d17 803f 1b07 803f
00000070: 90a3 7f3f e19f 7f3f 070c 803f 9d11 803f
00000080: 7bc7 7f3f fe16 803f c9fe 7f3f 88ee 7f3f
00000090: a2ea 7f3f 15a5 7f3f eab9 7f3f 17a6 7f3f
000000a0: 679b 7f3f 4eab 7f3f 749f 7f3f c59f 7f3f
000000b0: 2ece 7f3f 3aa9 7f3f 5ee1 7f3f 009d 7f3f
000000c0: 019f 7f3f c1a0 7f3f 2e03 803f daac 7f3f
000000d0: d5a8 7f3f c4dd 7f3f 16dc 7f3f 4ba7 7f3f
000000e0: d201 803f 0bfc 7f3f 13a4 7f3f 059a 7f3f
000000f0: 12a5 7f3f 38a4 7f3f 91c1 7f3f 52a1 7f3f
00000100: 3c9b 7f3f 7fb3 7f3f 9a0b 803f 480b 803f
00000110: 82ac 7f3f dfa0 7f3f 83c1 7f3f c9a7 7f3f
00000120: 9aa2 7f3f 2497 7f3f 15b6 7f3f 4ac9 7f3f
00000130: cdae 7f3f 50e5 7f3f 44df 7f3f 16b1 7f3f
00000140: 32d0 7f3f c108 803f 1320 803f f3a6 7f3f
00000150: 41aa 7f3f 4da3 7f3f 63a1 7f3f f6a0 7f3f
00000160: 2a0b 803f 00b2 7f3f 82a8 7f3f d9ab 7f3f
00000170: 86a2 7f3f 98ca 7f3f e39e 7f3f 3a0a 803f

bias f4 [96]
0.0010217124 -0.0013385274 -0.0010289969 -0.0011917984 0.0012123464 -0.0010173371 -0.0011499106 -0.0010686463
0.0006112024 -5.4724118e-05 0.0009146739 -0.0010805406 0.0009845701 0.0004482378 0.0010015656 0.00018150965
0.0013772665 -0.00074736425 -0.00084049435 -0.000828089 -0.0011083956 0.0009476469 -0.00042009383 0.0004010051
0.0002922237 0.00041131012 0.0010617406 0.00077328534 0.00072169205 -0.00085319567 0.0010622245 0.0009270543
0.0005106344 0.00080830144 0.00066734594 -0.0010569248 -7.972303e-05 -0.00076618185 0.00077046745 0.00044974804
-0.0009850062 0.00060000725 -0.0012763725 -0.0012537816 0.00065983075 -0.0012192199 0.0006351081 -0.0013476127
1.8907816e-05 -0.0012979981 0.000663395 -0.0007214403 -0.0007436389 0.0005390433 0.0006286813 0.0007366927
0.0006627644 0.0010870897 -0.0012409423 0.0006293502 -0.0013273177 -0.0010019918 0.00089531636 0.0005993343
-0.00074605254 -0.00095716486 0.00065720285 0.0009607077 -0.0012125059 -0.0011857408 0.0006404128 -6.714454e-05
-0.0013034394 -0.0006282539 -0.00018842432 0.00023261376 -0.00048976584 0.0010104955 -0.00040921738 0.00069203414
0.00021900442 0.0010676845 0.0011138878 -0.0010085305 -0.000884835 0.0006774084 0.00023151396 -0.0011283897
0.00094705366 -0.00044739188 -0.0003266594 -0.0006715328 -0.0009206117 0.0011823208 -0.0011396292 0.00073865615
00000000: fbea 853a 8771 afba 68df 86ba 1e36 9cba
00000010: 98e7 9e3a 2b58 85ba 99b8 96ba d211 8cba
00000020: 1939 203a 9387 65b8 bac6 6f3a eda0 8dba
00000030: b10c 813a 7601 eb39 f746 833a a053 3e39
00000040: 6585 b43a c4ea 43ba 9f54 5cba 1d14 59ba
00000050: 9647 91ba 826b 783a 0a40 dcb9 fe3d d239
00000060: 9a35 9939 1ca5 d739 1a2a 8b3a 4db6 4a3a
00000070: ef2f 3d3a fea8 5fba 573a 8b3a 9005 733a
00000080: 18dc 053a 31e4 533a d4f0 2e3a 8388 8aba
00000090: fa30 a7b8 98d9 48ba 32f9 493a 29cc eb39
000000a0: 531b 81ba ce49 1d3a f44b a7ba ee55 a4ba
000000b0: 7ef8 2c3a 3bce 9fba 627d 263a 61a2 b0ba
000000c0: 3a9c 9e37 9721 aaba afe7 2d3a 0a1f 3dba
000000d0: c3f0 42ba 954e 0d3a 16ce 243a 9c1e 413a
000000e0: 5ebd 2d3a ad7c 8e3a 1da7 a2ba fafa 243a
000000f0: 64f9 adba 4455 83ba aab3 6a3a a51c 1d3a
00000100: bd92 43ba 3fea 7aba 2348 2c3a 01d8 7b3a
00000110: f2ec 9eba dc6a 9bba 60e1 273a f3cf 8cb8
00000120: 2bd8 aaba 68b1 24ba c593 45b9 c8e9 7339
00000130: a163 00ba 9a72 843a 3a8c d6b9 a069 353a
00000140: 8da4 6539 8cf1 8b3a dfff 913a ab30 84ba
00000150: 46f4 67ba 1c94 313a 8ec2 7239 7ae6 93ba
00000160: b243 783a ec8f eab9 7c43 abb9 ce09 30ba
00000170: 3555 71ba 1af8 9a3a 9c5f 95ba 60a2 413a

running_mean f4 [96]
-0.24369484 -0.06169669 -0.25193045 -0.05409994 0.25031248 0.42304742 -0.016782418 0.012056425
-0.000519605 0.08342141 -0.16381311 0.12030268 -0.0073168515 0.20188004 -0.021860078 -0.12632364
0.36354965 0.050572943 0.10703524 0.16322032 -0.07875006 0.000740941 0.3888148 0.22937177
0.31643438 -0.1170153 -0.16242774 0.25660315 0.059718244 -0.05730133 -0.0012380201 -0.025088547
-0.006592772 0.32462388 0.09142619 -0.1085232 0.0032614034 -0.35896134 0.02711665 -0.15272829
0.25533202 -0.03055987 -0.34443 0.06529261 -0.1423925 0.4457951 0.05559894 0.072951175
-0.073052 -0.07873314 0.15822403 0.19554801 -0.36000344 -0.042323608 -0.22429495 -0.03881794
0.27914658 0.20310591 0.1940353 0.006627863 0.1911332 -0.0028138754 0.15444717 -0.08579221
0.010399795 -0.07464375 0.018232377 -0.21806335 0.07053546 0.1248429 0.32795754 0.081205696
0.065045245 0.23192349 -0.25115672 -0.28239712 -0.04320886 -0.04712669 0.19288577 -0.27289236
0.040333577 0.009286415 -0.006038897 -0.39941505 -0.03407597 -0.105572745 -0.19190481 -0.121131636
-0.09365237 0.50477844 -0.06114134 0.12171584 0.22200935 0.07221717 0.14219874 0.13572358
00000000: 248b 79be abb5 7cbd 07fd 80be e697 5dbd
00000010: f528 803e ac99 d83e 487b 89bc 5088 453c
00000020: 1a36 08ba d8d8 aa3d a0be 27be 4061 f63d
00000030: 33c2 efbb a4b9 4e3e e813 b3bc fc5a 01be
00000040: 2e23 ba3e 9325 4f3d 4b35 db3d 3a23 273e
00000050: b647 a1bd b53b 423a bc12 c73e 6fe0 6a3e
00000060: b003 a23e b8a5 efbd 7553 26be 7d61 833e
00000070: 1e9b 743d cdb4 6abd 1045 a2ba 7f86 cdbc
00000080: 2e08 d8bb 1a35 a63e a83d bb3d 6941 debd
00000090: 45bd 553b c8c9 b7be bd23 de3c ce64 1cbe
000000a0: e1ba 823e b158 fabc 2159 b0be 22b8 853d
000000b0: 57cf 11be 413f e43e b7bb 633d 6d67 953d
000000c0: 499c 95bd d73e a1bd 7b05 223e bd3d 483e
000000d0: 5f52 b8be 855b 2dbd 93ad 65be 8fff 1ebd
000000e0: 4dec 8e3e fffa 4f3e 31b1 463e 8b2e d93b
000000f0: 6cb8 433e ff68 38bb 6627 1e3e d4b3 afbd
00000100: e763 2a3c d3de 98bd 115c 953c 004c 5fbe
00000110: e574 903d a2ad ff3d 0dea a73e 2c4f a63d
00000120: 7136 853d 5a7d 6d3e 9d97 80be 5b96 90be
00000130: c6fb 30bd eb07 41bd d983 453e 8cb8 8bbe
00000140: d234 253d 0c26 183c f1e1 c5bb 2180 ccbe
00000150: 3f93 0bbd 8636 d8bd b282 44be dd13 f8bd
00000160: d0cc bfbd 2939 013f 576f 7abd 2846 f93d
00000170: 6b56 633e 98e6 933d 8c9c 113e 1ffb 0a3e

running_var f4 [96]
0.25715828 0.26755887 0.27713355 0.33966714 0.27532482 0.2554244 0.20513049 0.25803792
0.2162241 0.21916866 0.24125306 0.22191942 0.20104639 0.34108096 0.27052534 0.21150713
0.23692086 0.28373137 0.20532896 0.19287422 0.42090192 0.21645185 0.21714431 0.2363911
0.24831052 0.21467432 0.24624787 0.39222726 0.20645516 0.19235978 0.1930745 0.24012157
0.20671484 0.30923826 0.21451738 0.27949014 0.4181825 0.22288053 0.20639652 0.30280063
0.21215965 0.20297359 0.24317539 0.2323291 0.2340403 0.25089157 0.27733162 0.21118352
0.302435 0.2453232 0.19708197 0.20245527 0.3902303 0.23306686 0.25545752 0.1864666
0.43620327 0.24011452 0.23130704 0.22548945 0.20730783 0.24235827 0.20111924 0.19638857
0.20947716 0.2792738 0.24046867 0.2144045 0.3830078 0.22124568 0.24060592 0.19909942
0.19644964 0.22613838 0.20401895 0.23742671 0.20286436 0.21715656 0.33848834 0.40366533
0.19456923 0.2017923 0.3825032 0.60759264 0.2594036 0.23220156 0.28134856 0.2318659
0.32714272 0.30216554 0.24698837 0.24844988 0.2116784 0.21104248 0.22279647 0.23696196
00000000: 40aa 833e 7afd 883e 73e4 8d3e dae8 ad3e
00000010: 60f7 8c3e fdc6 823e ba0d 523e 8c1d 843e
00000020: da69 5d3e c06d 603e 0b0b 773e d83e 633e
00000030: 1bdf 4d3e 2aa2 ae3e 4c82 8a3e 5395 583e
00000040: 629b 723e 3d45 913e c141 523e d280 453e
00000050: 7580 d73e 8ea5 5d3e 145b 5e3e 8210 723e
00000060: 1d45 7e3e 96d3 5b3e 6728 7c3e 03d2 c83e
00000070: fb68 533e f6f9 443e 52b5 453e 6ee2 753e
00000080: 0ead 533e 7a54 9e3e 72aa 5b3e 5519 8f3e
00000090: 041c d63e cb3a 643e 9c59 533e af08 9b3e
000000a0: 6140 593e 4fd8 4f3e f802 793e aee7 6d3e
000000b0: 43a8 6f3e dc74 803e 69fe 8d3e 7e40 583e
000000c0: c3d8 9a3e 0136 7b3e dbcf 493e 6f50 4f3e
000000d0: 44cc c73e 14a9 6e3e 54cb 823e 1af1 3e3e
000000e0: 0956 df3e 95e0 753e c1db 6c3e b5e6 663e
000000f0: 8148 543e c42c 783e 34f2 4d3e 161a 493e
00000100: 2e81 563e fafc 8e3e 6b3d 763e da8c 5b3e
00000110: 9919 c43e 3a8e 623e 6661 763e b8e0 4b3e
00000120: 182a 493e d290 673e 58ea 503e fd1f 733e
00000130: adbb 4f3e 4a5e 5e3e 584e ad3e 39ad ce3e
00000140: 283d 473e a4a2 4e3e 76d7 c33e 318b 1b3f
00000150: 8cd0 843e 3fc6 6d3e eb0c 903e 416e 6d3e
00000160: 407f a73e 71b5 9a3e 85ea 7c3e a569 7e3e
00000170: 39c2 583e 851b 583e c224 643e 28a6 723e

weight f4 [48, 96, 3, 3]
-0.0017850912 0.032679126 0.023452196 -0.020659195 0.029657941 -0.0051211095 -0.0037687325 0.0037511208
0.0044610784 -0.018742764 -0.0059965835 -0.0152108325 -0.0077214623 0.019530227 0.01838054 -0.03313097
-0.0041290536 -0.013563091 -0.0111106215 -0.0055911737 0.030285085 0.006909163 -0.006639979 -0.023622312
0.008961186 0.019919546 -0.029669397 -0.023607584 0.01820336 -0.00672537 0.0070388378 -0.019023148
0.008798874 -0.02103373 0.032292254 -0.018801285 -0.013677282 0.0011733967 0.011727688 -0.03130667
-0.0025355949 0.03178906 0.028041255 0.0020482666 0.0011436131 -0.032971285 0.016951788 -0.008131907
0.030807035 0.02440098 0.0024743923 -0.028534546 0.02479553 -0.0041081356 0.028313402 0.006693918
-0.0075867064 0.019176723 0.009439544 -0.019105157 -0.020725641 0.010545085 0.020168282 -0.03144861
-0.021440903 -0.027122261 -0.018593846 0.024622647 0.011478128 0.0034470523 -0.030979676 0.019622834
-0.029989975 -0.0038887786 -0.019011313 0.014554288 -0.005859808 -0.025588054 0.019380579 0.03017984
-0.023745352 -0.0039492915 0.026798131 -0.009381644 -0.0018045993 -0.0018817551 0.0047665983 -0.022730269
0.014874706 -0.020066049 0.0050683175 -0.028030282 -0.00362117 -0.012901207 -0.028018413 -0.014966619
0.024034388 0.023766257 -0.020724673 -0.026980968 0.003189943 0.021033715 0.004807898 0.011660709
0.032520458 0.018572873 -0.031054717 0.02603596 0.032807685 0.032767754 -0.0011265856 0.005324871
-0.025694422 0.031959087 -0.013780818 0.0050225733 0.034247026 -0.02255402 0.025624383 0.00018729667
-0.03390654 -0.004193916 -0.021509385 0.00078160537 -4.869751e-06 -0.027520476 -0.032542452 0.023850106
0.008961008 -0.0032423018 -0.013320061 0.0078627635 -0.02175014 0.027961971 0.015028133 0.0335778
-0.030880515 -0.013446391 0.0012027809 0.0063934033 0.03318555 0.017120382 -0.029500844 0.009202121
0.022369059 -0.0007912778 -0.0070401854 0.02036776 -0.010803521 -0.0062164827 -0.01715091 0.024061292
-0.01946308 0.002991332 0.023709837 -0.027485127 0.00061828434 0.024363898 0.0012567624 0.008204073
0.013010552 -0.019116005 -0.031277794 -0.0038930655 0.03142156 -0.029855568 0.0017912193 -0.032300256
-0.028222054 -0.021419492 0.02079713 0.033476405 -0.021269552 0.00091588526 0.00046264374 -0.016340787
0.026007064 -0.005267846 0.011316996 -0.02474778 -0.008821281 -0.026816664 -0.012507441 -0.007313507
0.027206885 -0.025508793 0.031462025 -0.011617386 -0.02407886 -0.016436365 -0.011852424 -0.02440598
0.0008698572 0.0056867176 -0.016887503 0.015322323 -0.0011703304 -0.01825836 0.0017119162 -0.00960479
0.016026776 -0.022728678 -0.02272162 -0.01109712 -0.010248145 0.0040072617 -0.0323583 -0.021057682
0.015872631 -0.018921688 -0.026180718 0.02053764 0.02502831 0.018695824 -0.00898198 -0.023137594
-0.008392052 0.0064614345 -0.02725427 0.027538236 -0.02374523 0.01709722 0.0068314807 -0.031929582
-0.009126642 -0.0152255185 0.00751307 -0.01147382 0.003044054 -0.00983179 -0.028312057 0.022155913
0.030674957 0.031479284 0.0057867817 0.020743968 -0.02750791 0.007376375 -0.0025738496 0.013256527
0.008601523 -0.019483041 -0.016239708 -0.014975971 -0.0011818069 0.02431601 -0.012554868 -0.024268044
0.020089278 -0.022208348 0.020611716 -0.0003651838 -0.002639991 0.012580878 -0.020091549 0.004808287
00000000: b9f9 e9ba 8cda 053d d21e c03c 793d a9bc
00000010: 36f5 f23c fbce a7bb d7fc 76bb 5dd5 753b
00000020: 3d2e 923b 6d8a 99bc fd7e c4bb db36 79bc
00000030: 5204 fdbb dbfd 9f3c c992 963c 57b4 07bd
00000040: 034d 87bb ba37 5ebc 5309 36bc 2a36 b7bb
00000050: 6d18 f83c 4366 e23b 2e94 d9bb 9483 c1bc
00000060: f0d1 123c 512e a33c 3c0d f3bc b164 c1bc
00000070: 361f 953c 7e60 dcbb 0da6 e63b 6fd6 9bbc
00000080: 2729 103c ee4e acbc e244 043d 2705 9abc
00000090: ae16 60bc a9cc 993a 7d25 403c 6c3b 00bd
000000a0: 392c 26bb 3f35 023d c6b6 e53c 363c 063b
000000b0: 4ae5 953a e60c 07bd 7ade 8a3c b13b 05bc
000000c0: 095f fc3c 90e4 c73c 6a29 223b 48c1 e9bc
000000d0: ff1f cb3c 8a9d 86bb 82f1 e73c a758 db3b
000000e0: e899 f8bb 8118 9d3c 51a8 1a3c 6b82 9cbc
000000f0: d2c8 a9bc 4bc5 2c3c f437 a53c 42d0 00bd
00000100: d5a4 afbc 812f debc 1f52 98bc 6fb5 c93c
00000110: c20e 3c3c f1e7 613b 17c9 fdbc 11c0 a03c
00000120: 89ad f5bc e1da 7ebb 9dbd 9bbc 1c75 6e3c
00000130: a203 c0bb 0a9e d1bc 05c4 9e3c b63b f73c
00000140: 9d85 c2bc 0f69 81bb c187 db3c 78b5 19bc
00000150: 4e88 ecba 39a5 f6ba 2031 9c3b d434 babc
00000160: 0ab5 733c 8e61 a4bc 2114 a63b c39f e5bc
00000170: 2751 6dbb 965f 53bc df86 e5bc 8d36 75bc
00000180: c4e3 c43c 74b1 c23c cac6 a9bc 3107 ddbc
00000190: 5d0e 513b e64e ac3c 928b 9d3b 8f0c 3f3c
000001a0: 2c34 053d 2326 983c 7666 febc 5e49 d53c
000001b0: 5a61 063d 7b37 063d f1a9 93ba 417c ae3b
000001c0: 1c7d d2bc 88e7 023d f1c8 61bc 6694 a43b
000001d0: 9c46 0c3d 35c3 b8bc 3aea d13c 1165 4439
000001e0: 96e1 0abd 1e6d 89bb 7334 b0bc a6e4 4c3a
000001f0: d866 a3b6 9f72 e1bc 3c4b 05bd 4c61 c33c
00000200: 31d1 123c cc7c 54bb 633c 5abc d2d2 003c
00000210: 592d b2bc 8110 e53c 8f38 763c e088 093d
00000220: 22f9 fcbc 404e 5cbc a1a6 9d3a c17f d13b
00000230: 92ed 073d 0b40 8c3c c1ab f1bc 7ec4 163c
00000240: 513f b73c c16d 4fba 5bb1 e6bb 4ada a63c
00000250: 4001 31bc a3b3 cbbb 1180 8cbc 301c c53c
00000260: 0a71 9fbc 390a 443b 223b c23c 7d28 e1bc
00000270: 5c14 223a cc96 c73c f3b9 a43a 606a 063c
00000280: 362a 553c 2b99 9cbc 251d 00bd cd22 7fbb
00000290: e5b3 003d aa93 f4bc 59c7 ea3a 464d 04bd
000002a0: f031 e7bc ee77 afbc be5e aa3c 8e1e 093d
000002b0: 7c3d aebc 0518 703a fe8e f239 1ddd 85bc
000002c0: c40c d53c e59d acbb ec6a 393c dbbb cabc
000002d0: 2287 10bc 9fae dbbc 03ec 4cbc 25a6 efbb
000002e0: f9e0 de3c d1f7 d0bc 53de 003d d956 3ebc
000002f0: 0841 c5bc 8ea5 86bc ab30 42bc 0def c7bc
00000300: 2107 643a a557 ba3b a957 8abc 7b0a 7b3c
00000310: c665 99ba 8e92 95bc 6062 e03a 695d 1dbc
00000320: 964a 833c 7e31 babc b122 babc b2d0 35bc
00000330: d6e7 27bc 594f 833b 238a 04bd 2981 acbc
00000340: 5207 823c a801 9bbc f278 d6bc 8e3e a83c
00000350: 2c08 cd3c fc27 993c 2829 13bc 0d8b bdbc
00000360: d17e 09bc 71ba d33b 5944 dfbc de97 e13c
00000370: 5b85 c2bc 780f 8c3c 9dda df3b 98c8 02bd
00000380: e987 15bc 7474 79bc 3330 f63b b0fc 3bbc
00000390: c07e 473b 8415 21bc b0ee e7bc 5180 b53c
000003a0: 0c4a fb3c 6cf0 003d 0b9f bd3b 41ef a93c
000003b0: 4558 e1bc 85b5 f13b 08ae 28bb e731 593c
000003c0: 67ed 0c3c e69a 9fbc 2309 85bc c65d 75bc
000003d0: dce6 9aba 5e32 c73c efb2 4dbc c7cd c6bc
000003e0: 4592 a43c 48ee b5bc e7d9 a83c 2476 bfb9
000003f0: b303 2dbb 0720 4e3c 0897 a4bc d68e 9d3b

bias f4 [48]
0.008817405 0.010714084 -0.006831029 -0.010853246 -0.010689497 -0.02268487 0.03150537 0.025352623
-0.0070078857 -0.012488264 -0.02780145 0.005999205 0.011780351 -0.010966334 -0.026168969 0.016944172
0.023390012 -0.029492263 0.00019896527 0.021763766 -0.010068108 0.02849106 -0.0021102636 0.012722474
0.028712878 0.025306107 -0.025205957 -0.02957672 -0.0065831686 -0.008628116 -0.01583645 0.02473378
-0.012936969 0.0130739175 0.00011862062 -0.025581818 -0.027019 -0.018759158 3.4104887e-05 0.014991848
-0.006688092 -0.02757519 0.0062684133 -0.00035495422 0.009181935 -0.027387775 0.009808184 -0.01972714
00000000: e176 103c 208a 2f3c d3d6 dfbb d0d1 31bc
00000010: 0023 2fbc 9fd5 b9bc c60b 013d 4eb0 cf3c
00000020: 68a2 e5bb 939b 4cbc debf e3bc fb94 c43b
00000030: 6002 413c 23ac 33bc 4e60 d6bc 81ce 8a3c
00000040: 699c bf3c c299 f1bc 55a1 5039 ed49 b23c
00000050: b5f4 24bc 1566 e93c 594c 0abb ec71 503c
00000060: 4537 eb3c c14e cf3c b97c cebc e14a f2bc
00000070: 9fb7 d7bb f15c 0dbc 71bb 81bc 7f9e ca3c
00000080: 95f5 53bc fc33 563c f6c3 f838 f690 d1bc
00000090: f356 ddbc ceac 99bc d80b 0f38 5ea0 753c
000000a0: c827 dbbb 5de5 e1bc 4367 cd3b 2619 bab9
000000b0: d46f 163c 545c e0bc 81b2 203c d09a a1bc

weight f4 [48]
1.0004971 1.0004113 1.0001135 0.9988659 0.9985682 0.9991625 0.9985286 1.000229
0.9985368 1.0006449 0.9987378 0.99889636 1.0011368 1.0009115 1.0010228 1.0004171
0.998466 0.99863046 1.0011289 0.9994133 0.99867296 0.9987301 0.9983973 0.99865484
1.0008775 0.99852866 0.99864054 1.000606 0.9992031 1.0002172 0.998785 0.9987982
0.99930274 1.0001357 0.99885637 0.9987614 1.0005032 0.99873024 1.000858 1.0009928
0.9985238 0.9993742 0.99877566 1.0004698 0.999211 0.998553 1.0002248 0.9997995
00000000: 4a10 803f 7a0d 803f b803 803f adb5 7f3f
00000010: 2aa2 7f3f 1dc9 7f3f 929f 7f3f 8107 803f
00000020: 1ca0 7f3f 2215 803f 48ad 7f3f acb7 7f3f
00000030: 4025 803f de1d 803f 8421 803f ab0d 803f
00000040: 789b 7f3f 3fa6 7f3f fe24 803f 8dd9 7f3f
00000050: 08a9 7f3f c7ac 7f3f f796 7f3f d8a7 7f3f
00000060: c11c 803f 939f 7f3f e8a6 7f3f db13 803f
00000070: c6cb 7f3f 1e07 803f 60b0 7f3f 3db1 7f3f
00000080: 4ed2 7f3f 7204 803f 0db5 7f3f d4ae 7f3f
00000090: 7d10 803f c9ac 7f3f 1d1c 803f 8820 803f
000000a0: 419f 7f3f fdd6 7f3f c3af 7f3f 650f 803f
000000b0: 4bcc 7f3f 2ba1 7f3f 5e07 803f dcf2 7f3f

bias f4 [48]
0.0010351803 0.0011837985 0.0010281624 -0.00096882554 -0.00057854084 -0.0009862697 0.00064018357 0.0011815055
-0.0004785503 0.00089265394 -2.4341025e-05 -0.00073115603 0.0012080341 0.0012353288 0.0012383485 0.0009620404
-0.00035625827 -0.0011436554 0.0011801964 0.000238242 -0.0006433454 -0.00079867843 -0.00027749676 -0.0006280977
0.0011713925 -0.0010921574 -0.0012144932 0.00080827693 0.0012727786 0.00093268993 -0.0011521011 -0.001178771
0.0012615012 0.00066486653 0.0012009636 -0.0012717604 0.00071591605 -0.0009901669 0.0012100327 0.0012098388
0.0012183841 -0.00010080325 -0.00038585655 0.0012150845 0.00055783225 -1.3188022e-05 0.0012732288 0.00070766016
00000000: e3ae 873a b029 9b3a 68c3 863a c8f8 7dba
00000010: 38a9 17ba b845 81ba fed1 273a bfdc 9a3a
00000020: efe5 fab9 fe00 6a3a f42f ccb7 0dab 3fba
00000030: e656 9e3a c2ea a13a 1550 a23a 7031 7c3a
00000040: 2dc8 bab9 b5e6 95ba d2b0 9a3a 9ad0 7939
00000050: 2ea6 28ba 675e 51ba fc7c 91b9 eca6 24ba
00000060: 6989 993a b926 8fba a12f 9fba 8ce2 533a
00000070: 5dd3 a63a c37f 743a 1902 97ba fe80 9aba
00000080: f558 a53a 704a 2e3a a769 9d3a 33b1 a6ba
00000090: 50ac 3b3a 7dc8 81ba f699 9e3a 7493 9e3a
000000a0: 30b2 9f3a 5566 d3b8 ca4c cab9 7843 9f3a
000000b0: 7d3b 123a 2042 5db7 78e2 a63a 4582 393a

running_mean f4 [48]
-0.22477503 0.11017752 -0.19220787 -0.28912234 0.24506307 -0.32672578 0.027382456 -0.111999944
0.0121449875 -0.2516456 0.65575063 0.52816015 0.17644872 -0.13474111 0.11325967 -0.022881564
0.34263405 0.16016176 0.03382985 0.01320531 0.09291528 -0.3073365 -0.17534347 0.15449956
0.23354442 -0.0017081441 -0.40267208 -0.18409203 0.18389219 0.14673857 0.16847178 0.38256806
0.10928359 0.15817061 0.21512288 -0.14415179 0.44085684 0.26768523 0.24602194 0.23522955
0.09830285 0.16368105 -0.12375613 -0.50562567 0.28140366 0.10454441 -0.22590463 -0.12537824
00000000: 6d2b 66be c0a4 e13d 24d2 44be d807 94be
00000010: d0f1 7a3e 9a48 a7be 2c51 e03c 3a60 e5bd
00000020: c5fb 463c b1d7 80be 46df 273f 8135 073f
00000030: f9ae 343e 93f9 09be b0f4 e73d 1e72 bbbc
00000040: bb6d af3e 7201 243e 2b91 0a3d 165b 583c
00000050: 5e4a be3d 365b 9dbe 3d8d 33be 2235 1e3e
00000060: 4526 6f3e cee3 dfba 092b cebe 9f82 3cbe
00000070: 3c4e 3c3e a342 163e de83 2c3e f6df c33e
00000080: 13d0 df3d 7af7 213e 2c49 5c3e 879c 13be
00000090: fdb7 e13e 0a0e 893e 2ded 7b3e 04e0 703e
000000a0: 0153 c93d 019c 273e db73 fdbd af70 01bf
000000b0: 2414 903e 611b d63d 8b53 67be 2763 00be

running_var f4 [48]
0.27677605 0.25118372 0.2883637 0.25247425 0.28978148 0.2856127 0.343527 0.33399096
0.3617382 0.27296144 0.352701 0.30426553 0.3639158 0.28591344 0.46275833 0.28180522
0.26083088 0.256845 0.51778233 0.22594543 0.2485233 0.33752307 0.33060214 0.28408453
0.27838904 0.24540733 0.44667992 0.24546547 0.41354942 0.44482848 0.30519703 0.31329757
0.28320277 0.3390382 0.22261047 0.27325484 0.31549063 0.28037155 0.2953349 0.36771756
0.2924474 0.30880016 0.24999048 0.475609 0.26992252 0.33813533 0.28591985 0.29686037
00000000: 97b5 8d3e 279b 803e 68a4 933e 4e44 813e
00000010: 3d5e 943e d43b 923e c5e2 af3e dd00 ab3e
00000020: c035 b93e 9ac1 8b3e 3a95 b43e b1c8 9b3e
00000030: 2c53 ba3e 3f63 923e a9ee ec3e c648 903e
00000040: a08b 853e 3081 833e 628d 043f 3d5e 673e
00000050: e47c 7e3e d3cf ac3e af44 a93e 8773 913e
00000060: 0289 8e3e 0f4c 7b3e 3bb3 e43e 4d5b 7b3e
00000070: c0bc d33e 8fc0 e33e c942 9c3e 8a68 a03e
00000080: f4ff 903e 6a96 ad3e 00f4 633e 0fe8 8b3e
00000090: fd87 a13e dc8c 8f3e 2336 973e 7a45 bc3e
000000a0: aabb 953e 0e1b 9e3e 81fd 7f3e 0683 f33e
000000b0: 4933 8a3e 1320 ad3e 1664 923e 15fe 973e
