weights/model.weights.pt (torch, 68991 bytes, 10 tensors)

conv1.weight f4 [16, 3, 3, 3]
0	0xbcff5e58	-0.031172916
1	0xbd1b594e	-0.037926964
2	0xbc91cbe1	-0.017797412
3	0x3c0e772d	0.008695406
4	0xbd2da61c	-0.042394742
5	0xbc377fd9	-0.011199915
6	0x3db4847d	0.08814333
7	0x3d74b05c	0.059738502
8	0xbc9264f7	-0.01787041
9	0xbc3a4076	-0.011367908
10	0xbd2920cb	-0.04129104
11	0xbc7e0f80	-0.015506625
12	0x3ca5027e	0.02014279
13	0xbd32bb8e	-0.043635897
14	0xbc5ba81f	-0.013406782
15	0x3d85f664	0.06541136
16	0x3d8ab765	0.06773261
17	0x3c71ba13	0.014753836
18	0xbcb11fea	-0.021621663
19	0xbd32492a	-0.043526806
20	0xbc7ae819	-0.015314125
21	0xbca14e0c	-0.019690536
22	0xbcccd831	-0.025005432
23	0xbc976e7d	-0.018485302
24	0xbd373a55	-0.044733364
25	0x3d5dc2bc	0.05414079
26	0xbcb5252f	-0.022112457
27	0x3e276bfe	0.1634979
28	0xbd6dad42	-0.05802656
29	0x3cbad3df	0.022806106
30	0x3d949597	0.072550945
31	0xbe3a1222	-0.1817098
32	0x3e48aa8f	0.19596313
33	0x3d71fbcd	0.059078027
34	0xbd963984	-0.07335189
35	0x3e3f2b72	0.18668917
36	0x3e234e8c	0.15947932
37	0xbe453e83	-0.19262128
38	0x3e16b53b	0.14717571
39	0xbdce4afb	-0.10072895
40	0xbde1df16	-0.110288784
41	0x3c340141	0.010986627
42	0xbe306e8b	-0.17229669
43	0x3da658ea	0.08122428
44	0x3aa9b0ca	0.0012946364
45	0x3de94e24	0.11391857
46	0xbdbb504d	-0.091461755
47	0xbdf61ffa	-0.12017818
48	0xbdf2fa9f	-0.118642084
49	0xbe2688a5	-0.16263063
50	0x3cdd6d71	0.027029725
51	0x3d5fdcbb	0.054653864
52	0x3ac4c1e0	0.0015011393
53	0x3d6d6a05	0.057962436
54	0xbb4922ec	-0.003069098
55	0xbc5643b6	-0.013077667
56	0xbcaa9390	-0.020822316
57	0x3cc2a1d8	0.023758814
58	0x3c6a8af5	0.0143153565
59	0xbd7d16bf	-0.06178927
60	0xbd855141	-0.065096386
61	0xbce009cf	-0.027348427
62	0x3dddc003	0.10827639
63	0x3c0ee475	0.008721461
64	0xbcdeced8	-0.02719824
65	0xbca29887	-0.019848121
66	0xbc3ab372	-0.011395322
67	0xbcf70d9a	-0.030157853
68	0xbd091f32	-0.033477016
69	0xbd7f9d6d	-0.062405992
70	0x3d821eeb	0.063535534
71	0x3d3dc9d1	0.046335045
72	0x3cdcb282	0.026940588
73	0xbbb778d3	-0.00559912
74	0xbbccb697	-0.0062473523
75	0x3cde4c03	0.027135855
76	0x3aed3512	0.0018097481
77	0xbd5ad7e7	-0.053428557
78	0x3cdc8cd1	0.026922615
79	0xbcf59672	-0.029978964
80	0x3d8866f2	0.0666026
81	0x3e0a575b	0.13509886
82	0xbbbe7608	-0.0058124103
83	0xbd996536	-0.074900076
84	0x3cbc45fe	0.022982594
85	0x3dfdf0de	0.123994574
86	0xbd94618c	-0.07245168
87	0x3da23fd1	0.07922328
88	0x3e1ae8dc	0.15127891
89	0xbcbcd3a4	-0.023050137
90	0xbe2352ec	-0.15949601
91	0x3dcb3ec1	0.09924079
92	0x3cf5f168	0.030022338
93	0xbe33d48d	-0.1756155
94	0x3d9143a6	0.07092981
95	0xbe364660	-0.17800283
96	0xbdbaa312	-0.091131344
97	0x3b2b6804	0.0026154527
98	0x3cad06ee	0.021121468
99	0x3d92e956	0.071734115
100	0xbda2cbcf	-0.0794903
101	0xbd8c78c5	-0.068589725
102	0xbd0e61ea	-0.034761347
103	0xbde4cffc	-0.11172482
104	0x3deecdf6	0.11660378
105	0x3dc7cc77	0.097557954
106	0x3d4098ad	0.047020603
107	0x3d2aaace	0.0416668
108	0x3cb22c6b	0.021749696
109	0x3e468abb	0.19388859
110	0x3d29ebad	0.041484524
111	0xbdb1f199	-0.08688659
112	0x3d55a8df	0.052163
113	0x3e271083	0.16314892
114	0x3e36f811	0.17868067
115	0x3da22716	0.07917611
116	0x3d87a088	0.06622416
117	0xbd913139	-0.070894666
118	0x3e1f85cd	0.15578385
119	0xbd964ce2	-0.07338883
120	0xbd4be5ab	-0.049779575
121	0xbc90ad64	-0.017660804
122	0xbd8b23d3	-0.06793942
123	0xbd6555b8	-0.05598995
124	0xbdf70b12	-0.12062658
125	0xbd511846	-0.05104854
126	0xbe041a5b	-0.12900679
127	0x3d02c8cd	0.03192978
128	0xbe0b2a1d	-0.13590284
129	0xbd98a6b6	-0.074536726
130	0x3c85094a	0.016239781
131	0xbdf00287	-0.11719232
132	0xbd97a192	-0.07403864
133	0xbc9bd2f2	-0.019021485
134	0xbcc17ce4	-0.023619123
135	0x3e45acc1	0.19304182
136	0xbda78172	-0.081789866
137	0x3e2fee3c	0.17180723
138	0xbd25c13a	-0.04046748
139	0xbd1c90de	-0.038224094
140	0xbd98c9ec	-0.074603885
141	0xbdb54287	-0.0885058
142	0x3e0d4ef2	0.13799646
143	0xbda1b116	-0.078951046
144	0x3d98ce2a	0.07461198
145	0x3e222e96	0.15838084
146	0x3dc62c52	0.09676422
147	0xbe0174c9	-0.12642206
148	0xbd8ac0ee	-0.0677508
149	0xbdbf2f00	-0.093351364
150	0xbdc1b014	-0.09457412
151	0x3dd0d9b1	0.10197771
152	0x3e04968e	0.12948057
153	0xbd283093	-0.04106195
154	0xbd1b0bfb	-0.037853222
155	0xbdadcb79	-0.08486075
156	0xbcd26cb1	-0.025686594
157	0x3d13b0a9	0.036057148
158	0xbd38c4f8	-0.04510972
159	0x3daf3944	0.085558444
160	0xbdc7c22b	-0.097538315
161	0xbdd26e61	-0.10274959
162	0x3d0835b9	0.03325436
163	0x3e4dff58	0.20116937
164	0x3e2b1442	0.16706946
165	0xbe02d324	-0.12775856
166	0x3db3692b	0.087602936
167	0x3c99e4cb	0.018785855
168	0x3d5f75c7	0.05455568
169	0xbd1b3d78	-0.037900418
170	0xbd97d50e	-0.07413684
171	0xbe2e92f4	-0.17048246
172	0xbde8a175	-0.113589205
173	0xbdbf566d	-0.09342656
174	0x3d7c155a	0.0615438
175	0x3d8b1f85	0.06793121
176	0x3d9ae184	0.07562545
177	0xbc3b9142	-0.011448206
178	0xbe2ef688	-0.17086232
179	0x3e26ea21	0.1630025
180	0x3d254e19	0.040357683
181	0xbdce8ce7	-0.10085469
182	0x3dae13fa	0.08499904
183	0xbe1f3b1b	-0.1554989
184	0xbdd55a9c	-0.10417673
185	0xbdc0a4b5	-0.094064154
186	0x3c65c2b5	0.014023473
187	0xbd9a6677	-0.07539075
188	0x3e1c327a	0.1525363
189	0xbd43a656	-0.047766052
190	0xbda1b14e	-0.07895146
191	0xbdbc3199	-0.091891475
192	0xbe07aa0b	-0.1324846
193	0x3de60fca	0.1123348
194	0x3ce5afde	0.028037962
195	0xbd1bfe55	-0.038084347
196	0x3dd476cc	0.10374221
197	0xbda7175f	-0.081587546
198	0xbd9d0656	-0.07667224
199	0xbce44c3d	-0.027868384
200	0xbdbd86a8	-0.09254199
201	0xbd9c1f1b	-0.076231204
202	0x3e080d9d	0.13286443
203	0xbc1a8d75	-0.00943314
204	0x3d9b5bd7	0.075858764
205	0x3d0c80ea	0.03430263
206	0x3c960616	0.018313449
207	0xbd044645	-0.032293577
208	0x3db138b9	0.08653397
209	0xbd824b50	-0.06362021
210	0x3d1cfc89	0.038326774
211	0xbd8f1360	-0.06986117
212	0x3da5613d	0.08075187
213	0x3d87ffac	0.066405624
214	0xbd859e4f	-0.065243356
215	0x3e031ee5	0.12804754
216	0x3d3084c5	0.04309537
217	0xbe05b870	-0.13058639
218	0xbe01200a	-0.12609878
219	0x3ddd0a1f	0.10792946
220	0x3e264bb9	0.16239823
221	0x3d3862f0	0.04501623
222	0x3e12a6f6	0.14321503
223	0xbe39314e	-0.18085214
224	0xbd63b3af	-0.05559128
225	0x3cd82ab4	0.02638755
226	0x3c11ff95	0.008911033
227	0x3d7a419f	0.061097737
228	0xbcb37ad4	-0.021909155
229	0x3e1cb4a9	0.15303291
230	0xbe38acaf	-0.18034624
231	0xbe413fe1	-0.18872024
232	0xbd82cf71	-0.063872226
233	0xbe532de7	-0.20622979
234	0x3e2157b8	0.15756118
235	0xbd0894a2	-0.033344872
236	0x3e07654f	0.1322224
237	0xbdf21570	-0.11820495
238	0x3e39133c	0.18073744
239	0x3ded30ee	0.11581598
240	0x3dc8aac8	0.09798199
241	0x3e38dfc7	0.18054114
242	0xbe37f751	-0.17965437
243	0xbdac6cad	-0.08419166
244	0x3e00a836	0.12564167
245	0xbe26e7cc	-0.16299361
246	0x3e359572	0.1773279
247	0x3df83a48	0.12120491
248	0x3e3d1061	0.1846328
249	0x3e0c8e48	0.13726151
250	0xbc9056a6	-0.017619442
251	0x3e333cd2	0.1750367
252	0xbe361d2b	-0.17784564
253	0xbe3259e8	-0.17417109
254	0xbe08c5d0	-0.1335671
255	0x3d488504	0.04895498

conv1.bias f4 [16]
0	0x3e2b1f81	0.16711237
1	0x3e31f816	0.17379794
2	0xbb06689f	-0.0020509136
3	0x3dd50c4d	0.10402737
4	0x3de0727c	0.10959336
5	0xb9e081b1	-0.00042821237
6	0x3e171242	0.14753059
7	0x3dcbc0cd	0.09948883
8	0x3dbdc8b6	0.09266798
9	0xbe560dde	-0.20903727
10	0x3d902bf5	0.07039634
11	0xbb0b0a4a	-0.002121585
12	0x3e194410	0.1496737
13	0x3bd15e29	0.0063893986
14	0x3e247898	0.16061628
15	0xbb273144	-0.0025511542

convx.weight f4 [16, 3, 5, 5]
0	0x3dad09af	0.084491126
1	0xbdcacedd	-0.09902737
2	0xbda09b43	-0.07842114
3	0x3c3266e6	0.010888791
4	0xbd861e16	-0.06548707
5	0x3d8fe997	0.070269756
6	0xbd2eaf7a	-0.042647816
7	0xbda6d6b2	-0.08146419
8	0x3d69adfc	0.05705069
9	0x3dd8b5e4	0.10581568
10	0xbca951af	-0.020668833
11	0xbdc8e49b	-0.09809228
12	0xbdb0ff7b	-0.08642479
13	0xbbb0fe5f	-0.005401417
14	0x3c949709	0.018138425
15	0xbc26e6f4	-0.010186899
16	0x3cfab692	0.030604634
17	0x3d827a48	0.063709795
18	0x3db0d519	0.08634395
19	0xbd3ce08b	-0.04611258
20	0x3db662c2	0.08905555
21	0xbd13ca0f	-0.03608137
22	0x3d717cb8	0.05895683
23	0xbdbd9263	-0.09256437
24	0xbd2ed35c	-0.042682037
25	0x3d6e4e52	0.05818016
26	0xbda0a563	-0.07844045
27	0x3d2e22ad	0.04251354
28	0x3c1a54fe	0.009419678
29	0xbdc521fc	-0.09625623
30	0xbd248515	-0.04016598
31	0xbc3e2909	-0.011606463
32	0x3ce0c3b6	0.027437072
33	0x3d8316fd	0.06400869
34	0x3df55d80	0.11980724
35	0x3d07d8a4	0.03316559
36	0x3dd29809	0.10282905
37	0x3d3c68ac	0.04599826
38	0x3dbce880	0.09224033
39	0x3cca4f64	0.02469606
40	0x3d084a7d	0.033274163
41	0xbc6a7138	-0.01430922
42	0x3db55f2e	0.08856045
43	0xbd3e4338	-0.046450824
44	0x3cb6219d	0.022232825
45	0x3c3b4538	0.011430077
46	0xbcfa7041	-0.030571105
47	0x3c31d2de	0.010853497
48	0xbcc2ff59	-0.0238034
49	0x3d9b1bd1	0.07573665
50	0xbdc58ee0	-0.09646392
51	0x3cce5d10	0.02519086
52	0xbdb7aef8	-0.089689195
53	0xbccd9dc7	-0.025099648
54	0xbab3c5bc	-0.0013715546
55	0xbdc82786	-0.097731635
56	0xbcde4a88	-0.027135149
57	0x3c9b27a6	0.018939804
58	0xbc1453f6	-0.009053221
59	0xbd76c292	-0.06024415
60	0x3d98555b	0.07438155
61	0x3d23da40	0.04000306
62	0xbdc024cb	-0.09382018
63	0x3d1783d7	0.036990967
64	0xbd7e9e35	-0.062162597
65	0xbce674d1	-0.028131874
66	0x3c1632ba	0.009167368
67	0xbb8bbb1b	-0.004264248
68	0xbb154db4	-0.002278191
69	0xbd30f9fd	-0.043207157
70	0x3be4ab91	0.00697846
71	0xbbfaa848	-0.007649455
72	0xbd3695a1	-0.04457629
73	0xbcd4ea2e	-0.025990572
74	0x3d832e6d	0.064053394
75	0xbdacda09	-0.084400244
76	0xbc9afa5e	-0.018918213
77	0xbcca0d3a	-0.02466451
78	0x3dbf4856	0.09339969
79	0xbd5ab69c	-0.053396806
80	0x3d8ed885	0.069748916
81	0xbdb59743	-0.088667415
82	0xbdb540a9	-0.088502236
83	0x3ce9ebf9	0.028554903
84	0xbbacaa19	-0.0052693007
85	0xbdf93059	-0.12167425
86	0x3d8f4e40	0.06997347
87	0x3cd50247	0.026002062
88	0xbd91af01	-0.071134575
89	0x3d5613fb	0.05226515
90	0x3dc46405	0.0958939
91	0x3c17f871	0.009275542
92	0xbd8fb543	-0.07016995
93	0x3bfd96be	0.007738917
94	0xbba98be1	-0.0051741456
95	0xbd419c36	-0.047268115
96	0x3cdb0e12	0.026740108
97	0x3cf8f666	0.03039093
98	0xbd5a538c	-0.053302333
99	0xbb6b2890	-0.0035882331
100	0x3d1d1df7	0.038358655
101	0x3db60951	0.08888496
102	0xbca5f894	-0.020260133
103	0xbd4adcd6	-0.04952701
104	0xbd04787a	-0.032341458
105	0xbdc00d0d	-0.09377489
106	0x3da6df32	0.0814804
107	0x3c7ada90	0.015310898
108	0xbcd6e5ae	-0.026232567
109	0x3d66ad4c	0.056317613
110	0x3db46ff7	0.08810418
111	0x3d39d097	0.045364942
112	0x3cb43848	0.021999493
113	0x3dcbf970	0.09959686
114	0x3bccd36b	0.006250789
115	0xbcab9332	-0.020944212
116	0xbcf930f1	-0.030418845
117	0xbd70a0dc	-0.058747157
118	0x3daf7e72	0.085690394
119	0x3c666607	0.014062411
120	0x3db4f98e	0.08836661
121	0x3da7a446	0.081856295
122	0x3d13531f	0.035967942
123	0x3d74c95f	0.059762355
124	0x3d7c8ba2	0.0616566
125	0x3db0322b	0.08603319
126	0xbcea2e1d	-0.028586442
127	0x3d5ebf3e	0.0543816
128	0x3d7c4934	0.06159325
129	0xbd6fb4ef	-0.05852216
130	0xbd8d7bee	-0.06908403
131	0xbdc61fa0	-0.09674001
132	0x3d151a51	0.03640205
133	0xbc10827a	-0.008820171
134	0xbd7c79c5	-0.061639566
135	0x3d002363	0.031283747
136	0x3d56e371	0.052463
137	0xbc53ddf5	-0.012931337
138	0xbd87aeb6	-0.0662512
139	0xbd90a4ec	-0.07062706
140	0xbda0621c	-0.07831213
141	0x3c8d69fa	0.017262448
142	0x3ca2b723	0.019862717
143	0xbd8694c3	-0.06571343
144	0xbd7f91db	-0.062394958
145	0xbb81b953	-0.00395886
146	0xbda283ad	-0.079352714
147	0xbd925bd8	-0.07146424
148	0xbcd860d2	-0.026413355
149	0x3b8cc8b1	0.004296385
150	0xbcf1f5d8	-0.029536173
151	0xbd3faa48	-0.046793252
152	0x3dc9e6f1	0.09858502
153	0x3cb6f6f2	0.02233455
154	0xbd09bdab	-0.033628147
155	0xbd5bd600	-0.053670883
156	0xbccfa94a	-0.025349278
157	0xbc88d123	-0.016701287
158	0xbd785cbe	-0.06063532
159	0xbc99c24d	-0.018769408
160	0x3da44881	0.080216415
161	0x3d974190	0.07385552
162	0x3ac85aa0	0.0015285797
163	0xbda1ede3	-0.079067014
164	0x3c3084e3	0.01077387
165	0x3d92840f	0.071540944
166	0xbd586970	-0.052834928
167	0xbcba960b	-0.022776624
168	0xbdd8ec06	-0.10591893
169	0x3c95579e	0.018230256
170	0xbcf33ddc	-0.029692583
171	0xbde948ef	-0.11390864
172	0xbd458639	-0.048223708
173	0xbd504762	-0.050849326
174	0xbd6360ba	-0.055512168
175	0xbcf8b14a	-0.030357976
176	0xbb5aa28e	-0.003336105
177	0xbc84e2d5	-0.016221443
178	0xbd717cc4	-0.058956876
179	0x3d69f36f	0.057116922
180	0xbce12c05	-0.02748681
181	0x3dc35f17	0.09539621
182	0x3d3efa6e	0.046625547
183	0xbcc3de75	-0.023909787
184	0xbd7b5c75	-0.06136747
185	0x3cc1af61	0.023643197
186	0x3a0d6163	0.0005393235
187	0x3cb199d3	0.021679794
188	0xbd533fe8	-0.051574618
189	0xbd93b717	-0.07212656
190	0x3da3fb46	0.08006911
191	0x3c97ba4c	0.01852145
192	0x3dbd6137	0.09247058
193	0x3966b8f2	0.00022003407
194	0xbd0ad59b	-0.033895116
195	0xbd27469f	-0.040838834
196	0x3d8717da	0.06596346
197	0xbac76352	-0.0015212095
198	0xbda15114	-0.078767926
199	0xbd495c39	-0.049160216
200	0x3da0815b	0.078371726
201	0x3dc65eea	0.09686072
202	0xbbee4453	-0.0072713285
203	0x3cf47176	0.029839259
204	0xbcba8c97	-0.022772117
205	0x3c0e1a33	0.008673239
206	0x3d576edf	0.05259597
207	0x3d872b48	0.06600052
208	0x3d123027	0.035690453
209	0xbbcc73aa	-0.006239374
210	0xbcba1283	-0.022713905
211	0xbd43079f	-0.04761469
212	0xbd98f11b	-0.07467862
213	0xbd29987d	-0.04140519
214	0xbbfb06a6	-0.0076607047
215	0xbc36fc53	-0.011168557
216	0xbd8e6b4e	-0.069540605
217	0x3b8a97a2	0.004229502
218	0xbd28925d	-0.041155208
219	0x3cffce52	0.03122631
220	0x3dda4166	0.10657005
221	0x3d9e4aa8	0.07729083
222	0xbd340761	-0.04395235
223	0xbcf869f4	-0.03032396
224	0x3c3533f1	0.011059747
225	0x3d59472b	0.053046387
226	0xbd58b61e	-0.052908055
227	0xbdbec357	-0.09314602
228	0x3c756a8b	0.014979015
229	0x3c82f0e0	0.015983999
230	0x3dd04073	0.10168543
231	0x3db078fb	0.08616825
232	0xbd15b47b	-0.036549073
233	0xbc97920f	-0.018502263
234	0x3d302cda	0.043011524
235	0xbd829d95	-0.06377713
236	0xbd3a0635	-0.045416076
237	0x3c971414	0.018442191
238	0xbdea2d96	-0.11434476
239	0x3d6044ec	0.05475323
240	0xbd3772ea	-0.044787325
241	0xbd3ce30c	-0.046114966
242	0x3cfbf0e4	0.030754514
243	0x3da07895	0.07835499
244	0xbc3abca8	-0.011397518
245	0x3c710e78	0.014712922
246	0xbc3eb5aa	-0.011639992
247	0xbdfcf762	-0.12351872
248	0xbd7dbb09	-0.06194595
249	0x3d1f917c	0.038957104
250	0xbd983c63	-0.07433393
251	0xbda9fbe9	-0.08300001
252	0x3d5785d0	0.052617848
253	0x3d09ed6f	0.0336737
254	0x3dcc8b35	0.09987489
255	0xbbbf0d31	-0.00583043

convx.bias f4 [16]
0	0x3d36bcda	0.044613697
1	0xb9596a93	-0.00020734435
2	0xb942d1af	-0.00018579395
3	0x3cc38e56	0.023871582
4	0xbd83d6dd	-0.06437466
5	0x3d35fd2a	0.04443089
6	0x3d729635	0.05922528
7	0xbd29554a	-0.041341104
8	0xbe0681b9	-0.13135423
9	0x3c0939d9	0.008375608
10	0xbba08930	-0.0048991665
11	0x3b80f58c	0.0039355215
12	0x3b98dd60	0.004665062
13	0x3bb67063	0.0055675968
14	0x3d5bb16d	0.053636003
15	0x3ab21019	0.001358512

conv2.weight f4 [32, 32, 3, 3]
0	0xbcf42dee	-0.029807057
1	0xbc5eef75	-0.013606896
2	0xbc90cd87	-0.017676128
3	0x3bd7eb25	0.0065893107
4	0xbc686994	-0.014185328
5	0xbb8074f8	-0.0039201938
6	0x3d01cc34	0.031688884
7	0x3c3cb78a	0.0115183685
8	0x3b12b5c9	0.0022386184
9	0x3ab056de	0.0013453623
10	0x3c4377a6	0.011930382
11	0x3dabac96	0.083825275
12	0xbc913e02	-0.017729763
13	0x3d843cce	0.0645691
14	0xbcba2ae5	-0.022725532
15	0x3d600354	0.054690674
16	0xbcebaf71	-0.02877018
17	0x3c13f981	0.009031654
18	0x3b8bebdd	0.0042700605
19	0x3cc94b36	0.024571996
20	0x3caab591	0.02083853
21	0x3b8e2757	0.004338186
22	0x3b52ee76	0.003218559
23	0x3c85cc69	0.016332822
24	0xbc31384f	-0.010816648
25	0x3a596e1e	0.0008294302
26	0xbb16246f	-0.00229099
27	0x3cad4e4f	0.021155505
28	0xbc8fa1a3	-0.01753313
29	0xbd4e9344	-0.050433412
30	0xbc16aec9	-0.0091969455
31	0x3b5194e0	0.0031979606
32	0x3b8a1fb9	0.0042152074
33	0xbd68197a	-0.05666492
34	0xbd38685c	-0.0450214
35	0x3d127e43	0.035764944
36	0x3ce0c97f	0.02743983
37	0x3c58f9b8	0.013243131
38	0xbc8f05d5	-0.017458836
39	0xbd8368d9	-0.064164825
40	0x3c92613a	0.017868627
41	0xbd8b781a	-0.06810017
42	0xbcb91d92	-0.022597108
43	0xbd0a4346	-0.033755563
44	0x3cafba69	0.021451192
45	0x3ca0441b	0.019563725
46	0x3d18d7ea	0.037315287
47	0x3c940346	0.018067967
48	0xbc9a4789	-0.018832939
49	0x3c24f437	0.010067991
50	0x3d902b0a	0.07039459
51	0x3d67e0e5	0.05661096
52	0x3c093658	0.008374773
53	0xbd197c0d	-0.03747182
54	0x3d7dd16f	0.06196731
55	0x3b913832	0.004431748
56	0x3b4b770a	0.0031046295
57	0x3ca2d445	0.019876609
58	0xbc8e3a29	-0.017361717
59	0x3d0c9bb9	0.034328196
60	0xbca54e64	-0.020178981
61	0xbd5b05fe	-0.05347251
62	0x3c9a595c	0.018841438
63	0xbb8c945e	-0.0042901477
64	0x3c096d45	0.008387868
65	0xbcaecd94	-0.021338262
66	0xbc16ec0c	-0.009211551
67	0xbc03924c	-0.008030485
68	0x3d031316	0.032000624
69	0xbcab310b	-0.020897409
70	0x3b9a3b22	0.004706756
71	0xbb5d4f38	-0.0033769142
72	0x3b07ca77	0.0020720044
73	0x3b69f728	0.0035700295
74	0x3d012b4e	0.03153544
75	0x3b2e7d44	0.0026624957
76	0xbd1b5286	-0.037920497
77	0xbd7af7a2	-0.061271317
78	0x3cf3b410	0.029748946
79	0x3c0b702d	0.0085106315
80	0xbb4fffde	-0.0031738202
81	0xbd58572f	-0.05281752
82	0xbb9be621	-0.004757658
83	0xbc82ce31	-0.01596746
84	0x3d071c59	0.03298602
85	0xbca13b75	-0.019681672
86	0xbd11e665	-0.035620112
87	0x3d03ab70	0.032145917
88	0x3d0da571	0.034581605
89	0x3d4fcbd6	0.050731502
90	0xbcb09716	-0.021556418
91	0x3cef3f26	0.029204916
92	0x3d28194a	0.041039743
93	0x3d18af7b	0.037276726
94	0x3c2a57dc	0.010396924
95	0xbcd80dd2	-0.026373778
96	0xbd48033e	-0.048831217
97	0xbcfd06ba	-0.030886997
98	0xbcfe002a	-0.031005938
99	0xbc9907e7	-0.018680526
100	0xbbaa8f85	-0.005205097
101	0x3d83c8a8	0.064347565
102	0xbcb08bbc	-0.021551006
103	0x3d0e98f2	0.03481383
104	0x3d29375b	0.041312557
105	0x3d482d0b	0.04887108
106	0x3c7995c7	0.015233464
107	0x3b2a6d5d	0.0026005127
108	0x3d843450	0.0645529
109	0xbd428d93	-0.047498297
110	0x3c9d398c	0.01919248
111	0x3d4a1dec	0.049344942
112	0x3c71c1ff	0.014755725
113	0x3ba7981a	0.0051145675
114	0xbcd1b276	-0.025597792
115	0x3d287bc0	0.041133642
116	0xbb9ce27b	-0.0047877408
117	0x3cc581d9	0.024109768
118	0xbc5d84ce	-0.013520433
119	0x3c96882f	0.018375484
120	0x3cd91f13	0.026504075
121	0xbd03979e	-0.032127015
122	0xbcc3c5c7	-0.023898019
123	0x3d1669a7	0.03672185
124	0xbcb6406c	-0.022247516
125	0xbcf9c843	-0.030491
126	0xbd37bf8d	-0.04486041
127	0x3c0e4810	0.008684173
128	0xbd1ed5ea	-0.038778223
129	0xbc36c9bf	-0.011156498
130	0xbd4bc665	-0.04974975
131	0x3c0fd3ee	0.008778555
132	0xbcaf2d48	-0.021383896
133	0xbd7ac8ac	-0.061226532
134	0xbd133894	-0.03594263
135	0xbb270c87	-0.0025489645
136	0xbc7999ce	-0.015234424
137	0xbc082631	-0.008309887
138	0x3c4864cb	0.012231062
139	0x3adaec10	0.0016702432
140	0x3cf8452b	0.03030642
141	0x3c9128d2	0.01771966
142	0x3cc7a2c1	0.0243696
143	0x3cf6b8a3	0.030117339
144	0x3bdfc707	0.006829146
145	0xbd09fc63	-0.03368796
146	0xbc63a557	-0.013894401
147	0x3b4e2ac2	0.003145859
148	0x3d18dc81	0.037319664
149	0xbd0c4fc9	-0.034255777
150	0x3ab0004b	0.0013427822
151	0x3dc25698	0.09489173
152	0x3d819ef8	0.06329149
153	0x3c54febe	0.013000188
154	0xbd89b942	-0.06724788
155	0xbd3b131e	-0.04567253
156	0xbcb87ad9	-0.022519516
157	0xbca7674a	-0.020434994
158	0xbbc64dc4	-0.006051751
159	0x3ca610ad	0.020271624
160	0x3a7a9706	0.00095592474
161	0x3c275de6	0.010215258
162	0xbc97b8b2	-0.018520687
163	0xbcd07a83	-0.025449043
164	0x3cef8790	0.029239446
165	0xbd57ffc5	-0.052734155
166	0xbcac19c2	-0.021008376
167	0xba1d2317	-0.00059943035
168	0xbd11eca4	-0.03562607
169	0xbc55cf4e	-0.013049914
170	0xbd050b7a	-0.032481648
171	0xbd5ba078	-0.05361983
172	0x3d2ca5e6	0.0421504
173	0xbc304e2a	-0.010760823
174	0xbd70a662	-0.058752425
175	0xbd1e8fbb	-0.03871129
176	0x3d492a30	0.0491125
177	0xbce1f556	-0.027582806
178	0xbcfdeef2	-0.030997727
179	0xbcc044c1	-0.023470284
180	0xbd46f2fd	-0.048571575
181	0xbd4af338	-0.049548358
182	0xbd302584	-0.043004528
183	0x3c02d0c5	0.007984345
184	0xbc73d3ea	-0.014882067
185	0xbc3b4633	-0.011430311
186	0x3c60bd2e	0.013716979
187	0xbd4e7138	-0.050400943
188	0x3d19e3b5	0.037570674
189	0x3c881688	0.016612306
190	0x3d3d6824	0.046241894
191	0xbd1c7569	-0.03819791
192	0xbc11ee96	-0.008906981
193	0x3d5f9949	0.054589543
194	0xbd75230e	-0.059847884
195	0xbc4a1b33	-0.012335586
196	0x3c287c12	0.010283487
197	0xbce5ad7e	-0.02803683
198	0x3c8510f7	0.016243441
199	0xbd6b4a6f	-0.057444032
200	0x3ba96c5f	0.0051703895
201	0xbce75298	-0.028237626
202	0x3d084942	0.03327299
203	0xbd208d4f	-0.039197262
204	0x3cfa31f5	0.0305414
205	0xbc1c8459	-0.0095530385
206	0x3c03a30c	0.008034479
207	0x3cb8f0b3	0.022575712
208	0xbbf49f33	-0.007465267
209	0x3c59678d	0.013269317
210	0x3b9aa7e9	0.0047197235
211	0xbd55427f	-0.05206537
212	0x3d4679fe	0.048456185
213	0xbd7405f1	-0.05957598
214	0x3d3d4028	0.046203762
215	0xbd5d310b	-0.05400185
216	0x3cbe0a69	0.023198323
217	0x3ca6f08f	0.02037838
218	0xbc2b1e37	-0.0104442155
219	0xbba45597	-0.005015086
220	0xbd303393	-0.043017935
221	0x3abfe849	0.001464137
222	0x3cd1c902	0.025608543
223	0xbd4413b0	-0.047870338
224	0xbc8276fd	-0.015925879
225	0xbc36ec62	-0.0111647565
226	0xbd38308c	-0.044968173
227	0xbc1141ac	-0.008865755
228	0xbc8c3ab2	-0.017117832
229	0x3d682b93	0.05668218
230	0x3d0ad98b	0.03389887
231	0xbd54e06f	-0.05197185
232	0xbb81224b	-0.0039408556
233	0x3c6f60ac	0.014610451
234	0xbb2afb1d	-0.0026089617
235	0x3bd9be23	0.0066449805
236	0x3bd3ff96	0.006469677
237	0xbc4b215a	-0.012398088
238	0xbc41d195	-0.011829753
239	0xbc3c1e10	-0.011481777
240	0xbcf898df	-0.030346332
241	0xbca290f9	-0.019844519
242	0xbc1a0ffa	-0.009403223
243	0xbcd90c36	-0.02649508
244	0x3d080233	0.033205222
245	0xbd68e4bd	-0.056858767
246	0xbbd3d68e	-0.006464786
247	0x3b56cd41	0.003277615
248	0x3d2ada73	0.041712236
249	0x3cdfe6d9	0.027331756
250	0x3b37aa24	0.0028024996
251	0xbcdaba99	-0.026700305
252	0xbd4498f9	-0.04799745
253	0xbcfd5b66	-0.030927371
254	0xbd0806be	-0.033209555
255	0x3ccfded9	0.025374817

conv2.bias f4 [32]
0	0xba68669c	-0.00088653876
1	0x3d359650	0.044332802
2	0x3d68b425	0.056812424
3	0x3d8f5951	0.06999458
4	0x3d63707a	0.055527188
5	0xbd9bac14	-0.07601181
6	0x3c1be2c9	0.009514519
7	0x3d86f172	0.06589021
8	0xbc1e643c	-0.009667452
9	0xbcef5985	-0.02921749
10	0xbda0a69a	-0.07844277
11	0xbcde0574	-0.02710221
12	0x3daaf213	0.08346953
13	0x3dd61248	0.104527056
14	0xbd2df567	-0.042470362
15	0xbce6eeb7	-0.02819
16	0x3d7e1cbd	0.062039126
17	0x3cbaabe7	0.022787048
18	0x3d2cabb5	0.04215594
19	0x3bb85cc4	0.005626293
20	0x3d96eac4	0.07368997
21	0x3d74af14	0.05973728
22	0xbc472cd6	-0.012156686
23	0x3d959ff6	0.07305901
24	0xbd856097	-0.06512564
25	0x3c1c8db6	0.009555271
26	0x3d8c2db6	0.06844656
27	0x3c1164b6	0.008874109
28	0xbdb896b7	-0.090131216
29	0x3d1142a8	0.03546396
30	0xbd38e894	-0.04514368
31	0x3dd6bc66	0.10485153

conv3.weight f4 [16, 32, 3, 3]
0	0xba27bb64	-0.0006398468
1	0xbc58c221	-0.013229878
2	0x3d245c36	0.040127
3	0x3d260c49	0.04053906
4	0x3b84e95f	0.0040561403
5	0x3d230096	0.03979548
6	0xbc6a0e26	-0.0142856
7	0x3d2d6667	0.042333987
8	0xbcbeb37d	-0.023278946
9	0xbc4b4b1d	-0.012408045
10	0x3ac45edf	0.0014981887
11	0x3d108b58	0.03528914
12	0xbbc17f69	-0.005905081
13	0xbd05b7d4	-0.032646015
14	0x3cedf36d	0.029046739
15	0xbb55300d	-0.0032529861
16	0x3c82673b	0.015918365
17	0xbc992eed	-0.018699134
18	0xbc2e32c7	-0.010632223
19	0xbcc85ee7	-0.024459315
20	0x3d567266	0.052355193
21	0xbd1aeb63	-0.03782214
22	0x3c068123	0.0082094995
23	0xbd2c3f62	-0.042052634
24	0xbb9f80dc	-0.004867656
25	0x3d77cc5b	0.060497623
26	0x3d585c72	0.052822538
27	0x39703ce8	0.00022910873
28	0xbc819da5	-0.015822241
29	0xbb4e0ec4	-0.0031441906
30	0x3d2f52c6	0.04280355
31	0xbcb1dede	-0.021712717
32	0xbc7b4474	-0.015336145
33	0xbd52b4c6	-0.05144193
34	0x3c60f15a	0.013729418
35	0xbd67fe54	-0.05663903
36	0xbcd3c4c2	-0.025850657
37	0xbc5e167a	-0.0135551635
38	0xbd32e53d	-0.04367565
39	0xbd9121c8	-0.070865214
40	0xbce110a3	-0.027473753
41	0xbc1faa27	-0.009745157
42	0xbb2a4211	-0.002597932
43	0xbc14aa6e	-0.009073837
44	0x3cf2255e	0.029558834
45	0xbbe6e981	-0.007046879
46	0x3d235abd	0.039881457
47	0xbc1607f7	-0.009157172
48	0x3cfbcf5b	0.030738523
49	0xbd3c27ae	-0.04593628
50	0xbd5eccac	-0.05439441
51	0xbc87281d	-0.01649862
52	0xbd4c22ce	-0.04983788
53	0x3a39b2c7	0.000708383
54	0x3d59199d	0.053002942
55	0xbd1a30c4	-0.037644163
56	0x3d180165	0.037110705
57	0xbc320b5b	-0.010866965
58	0xbd13ca0b	-0.036081355
59	0xbd0b7794	-0.034049585
60	0xbcafa166	-0.021439265
61	0xbb3658c2	-0.00278239
62	0x3cb31893	0.021862304
63	0xbcc759dd	-0.024334842
64	0x3c93150e	0.017954376
65	0x3c6bb591	0.0143865505
66	0xbca94df0	-0.020667046
67	0xbd1225ce	-0.035680585
68	0x3d2aa912	0.041665144
69	0x3d4b6f3b	0.049666625
70	0x3d7f9f98	0.06240806
71	0x3d907d95	0.07055203
72	0x3a93406e	0.0011234412
73	0x3d409f17	0.04702672
74	0xbc813da2	-0.01577646
75	0xbc815a9f	-0.015790282
76	0x3d5192f3	0.051165532
77	0x3ccc27c1	0.0249213
78	0x3d02f3a2	0.031970628
79	0x3c355e4c	0.011069845
80	0xbb1d0506	-0.0023959293
81	0xbaade083	-0.0013265762
82	0xba45b313	-0.0007541638
83	0xbc5a3a96	-0.013319632
84	0xbcd2177f	-0.02564597
85	0xbcf92bad	-0.030416334
86	0xbd22b7c7	-0.039726045
87	0xbc9779b9	-0.01849066
88	0xbcf3a26c	-0.029740535
89	0xbd10bc70	-0.035335958
90	0x3b8ad16a	0.00423639
91	0x3bc2d5fb	0.0059459186
92	0x3ccdd18b	0.025124332
93	0x3d19fc8a	0.037594356
94	0x3d7e1c66	0.0620388
95	0x3c80785e	0.015682396
96	0xbd2d9b2b	-0.042384308
97	0xbd052617	-0.03250703
98	0xbd3894ed	-0.0450639
99	0x3c89f22a	0.016839106
100	0x3d0290d0	0.031876385
101	0x3d08c477	0.03339049
102	0x3d309f09	0.043120418
103	0x3aff69c3	0.0019486476
104	0x3cac3e2c	0.02102574
105	0x3d7c2206	0.061555885
106	0x3d1cafd4	0.03825362
107	0x3dab3ca7	0.08361178
108	0x3d099113	0.03358562
109	0xbd037ec1	-0.032103304
110	0x3c3758d0	0.011190608
111	0xbcc353ac	-0.023843609
112	0xbd043ab4	-0.032282546
113	0x3cd1f16b	0.025627812
114	0x3d67f5fb	0.05663107
115	0x3d089ffa	0.03335569
116	0x3d6a58ed	0.057213712
117	0xbc7c6811	-0.015405671
118	0x3c1326ef	0.00898145
119	0xbcf2ca17	-0.02963738
120	0x3d0fb39c	0.0350834
121	0xbd004c85	-0.031322975
122	0x3c442f19	0.01197412
123	0xbd0e606b	-0.03475992
124	0xbd137f36	-0.03600999
125	0x3d254a90	0.04035431
126	0xba83d79e	-0.0010058766
127	0x3c99c8b1	0.018772455
128	0x3d230f2f	0.039809402
129	0x3cfe64a1	0.031053843
130	0xbc9cbc22	-0.019132677
131	0xbbad2fda	-0.0052852454
132	0xbd5a5df6	-0.053312264
133	0x3d06b46e	0.032886915
134	0x3c4284e7	0.011872507
135	0x3d5a818c	0.0533462
136	0x3ccf7fa2	0.025329415
137	0xbb9ba5fa	-0.0047500106
138	0x3cd0cb09	0.02548744
139	0xbb64d0ad	-0.003491442
140	0x3ab7cbbc	0.001402251
141	0x3d9c1b2c	0.0762237
142	0x3ce53292	0.027978215
143	0x3d6cd827	0.057823326
144	0xbc5f7ef3	-0.013641107
145	0x3d374cd8	0.04475102
146	0xbd10bf5f	-0.035338756
147	0x3ceb2ff7	0.028709395
148	0xbc9cbe28	-0.019133642
149	0xba00d9c7	-0.0004915264
150	0x3d4aa020	0.049469113
151	0xbc952a64	-0.01820869
152	0xbce8fb8e	-0.028440263
153	0xbc74ad27	-0.014933861
154	0x3d825e76	0.06365673
155	0xbb390c6c	-0.0028236164
156	0x3d53a74b	0.051673215
157	0xbd23952e	-0.03993719
158	0xbc9d3584	-0.019190557
159	0x3d0ea9f1	0.034830038
160	0xbc5e689a	-0.013574744
161	0x3a853ce5	0.0010165243
162	0x3c760787	0.015016443
163	0xbc99008b	-0.018677017
164	0xbcaff6cd	-0.021479988
165	0xbc33ac05	-0.010966306
166	0xbbafb501	-0.0053621535
167	0xbd80b995	-0.06285397
168	0x3c375c7d	0.0111914845
169	0x3c21bca4	0.009871636
170	0xbd10aeb3	-0.035322856
171	0xbd72e923	-0.059304368
172	0x3bc7e0ce	0.006099797
173	0xbd2dbe52	-0.04241783
174	0xbd63f597	-0.055654135
175	0xbd237f3b	-0.03991626
176	0xbd4645fc	-0.048406586
177	0xbd78bc25	-0.060726304
178	0xbcf573de	-0.029962476
179	0xbd0d1428	-0.03444305
180	0x3ca92a94	0.020650186
181	0xbcd0bdc8	-0.02548112
182	0x3c96db6f	0.018415181
183	0x3bfff61f	0.0078113223
184	0x3ce165b8	0.027514324
185	0xbcd7360a	-0.026270885
186	0x3c7a7ee3	0.015289041
187	0x3d6d5690	0.05794388
188	0x3c5d0e4a	0.013492176
189	0xbd371589	-0.044698272
190	0x3ab05649	0.0013453449
191	0xbc852d1e	-0.016256865
192	0xbc982409	-0.01857187
193	0x3c74d81d	0.014944104
194	0x3c7e226b	0.015511136
195	0x3ba6c368	0.005089212
196	0xbce1d5ce	-0.02756777
197	0x3d3326e2	0.043738253
198	0x3d23e398	0.040011972
199	0x3cf5bda3	0.029997652
200	0x3cd034f1	0.02541587
201	0x3cd6e262	0.026230995
202	0xbc746a86	-0.014917975
203	0xba6e25b2	-0.00090845965
204	0x3e00a08d	0.12561245
205	0x3d9d24d4	0.0767304
206	0x3ddea966	0.10872154
207	0xbc123ef6	-0.008926144
208	0x3cdc6e82	0.026908163
209	0xbcd27304	-0.02568961
210	0x3ba62e48	0.005071435
211	0x3cc7c3b6	0.024385314
212	0x3d10816b	0.035279673
213	0x3d648831	0.055793945
214	0x3d09b31b	0.033618074
215	0xbc8bf713	-0.017085588
216	0xbc759196	-0.014988324
217	0x3d3f9682	0.046774395
218	0x3d8f949b	0.07010766
219	0x3caddd77	0.021223767
220	0x3ce76053	0.028244173
221	0xbd2cc75f	-0.042182323
222	0x3bb01960	0.0053741187
223	0xbc93b3e3	-0.018030113
224	0xbcd82f80	-0.026389837
225	0xbd312e16	-0.04325684
226	0x3d377424	0.044788495
227	0x3d44a069	0.04800454
228	0xbd49edcc	-0.049299046
229	0x3c18b679	0.009320849
230	0x3d0281a3	0.031861912
231	0xbcafc929	-0.021458225
232	0xbd2f3e6b	-0.042784136
233	0xbcb6cab5	-0.022313455
234	0x3cfd043f	0.030885814
235	0x3c0362c5	0.008019154
236	0xbcdfb24b	-0.027306696
237	0x3d3c3978	0.045953244
238	0x3d447458	0.047962517
239	0x3d8a91cf	0.06766092
240	0x3df2fc16	0.11864488
241	0x3d8a4cc9	0.06752927
242	0x3ddbe3d6	0.10736816
243	0x3c432473	0.011910546
244	0x3b161a71	0.0022903944
245	0x3d5879c8	0.052850515
246	0x3d29993e	0.04140591
247	0xbc0d5431	-0.00862603
248	0xbc61bac8	-0.013777442
249	0x3ce9b63a	0.028529275
250	0x3c506786	0.012719994
251	0x3da89c38	0.08232921
252	0xbd662ec9	-0.05619696
253	0x3c868ef7	0.016425593
254	0xbc912b76	-0.01772092
255	0xbd1a81c6	-0.037721418

conv3.bias f4 [16]
0	0x3d89dda0	0.06731725
1	0x3cb94a96	0.022618573
2	0x3d8d8094	0.0690929
3	0xbb8fc408	-0.0043873824
4	0xbda1c5dd	-0.078990676
5	0x3dbf75db	0.09348651
6	0x3de9c6e8	0.114148915
7	0x3d908d24	0.070581704
8	0x3b60dcaf	0.0034311225
9	0xbbf84cee	-0.00757753
10	0x3c8cd4de	0.017191347
11	0x3d5055d2	0.050863095
12	0x3ce10f17	0.027473016
13	0x3ca7d3ed	0.020486796
14	0x3c595042	0.013263764
15	0x3cea748a	0.028620023

conv4.weight f4 [2, 16, 5, 5]
0	0x3d1a10db	0.03761373
1	0xbabe34c0	-0.001451157
2	0xbcd34e72	-0.025794242
3	0xbc968d2f	-0.018377868
4	0xbd0737cc	-0.033012196
5	0xbd0aa90b	-0.03385262
6	0x3c4b4e1b	0.0124087585
7	0xbccc47f0	-0.024936646
8	0xbbb47ca2	-0.0055080215
9	0x3c5ab964	0.013349865
10	0xbc9406e0	-0.018069685
11	0xbcde5263	-0.027138894
12	0xbd18e90c	-0.037331626
13	0xbd493610	-0.049123824
14	0xbcc96462	-0.024583999
15	0xbd50c8ee	-0.05097287
16	0xbd07ed47	-0.03318527
17	0xbd1c19c1	-0.0381105
18	0x3d1c010d	0.03808694
19	0xbd0f65c0	-0.035009146
20	0x3b7ce2e6	0.003858739
21	0x3bb5195d	0.005526705
22	0xbcab833a	-0.020936597
23	0xbd6f511b	-0.058426958
24	0xbd4708aa	-0.048592247
25	0xbcbcca83	-0.023045784
26	0xbca22322	-0.019792143
27	0xbd3dd3e1	-0.04634464
28	0x3d2d5f15	0.042327005
29	0xbc9e8a7b	-0.019353142
30	0xbba6476f	-0.0050744335
31	0xbd15688b	-0.036476653
32	0x3b3912e9	0.002824003
33	0xbd31d271	-0.043413583
34	0xbcb428d7	-0.02199213
35	0x3bf7abbe	0.007558315
36	0xbcad244d	-0.021135474
37	0x3b658183	0.0035019822
38	0x3b5959b0	0.003316503
39	0x3cd15e90	0.025557786
40	0x3cd25c87	0.025678886
41	0x3d2c8a04	0.04212381
42	0x3d37b35a	0.044848777
43	0x3cb85131	0.022499653
44	0xbd3e10af	-0.04640263
45	0xbd22b513	-0.039723467
46	0x3d500efa	0.050795533
47	0x3c8b1e8a	0.016982336
48	0x3d0dd605	0.034627933
49	0xbc05fe4c	-0.008178305
50	0x3cdd1ed3	0.026992237
51	0x3d86964d	0.06571636
52	0x3c8646b7	0.016391141
53	0x3cf5b0e3	0.029991573
54	0x3d8b43e0	0.068000555
55	0x3d4b4797	0.04962882
56	0xbcc79dee	-0.024367299
57	0xbc57a060	-0.013160795
58	0xbceec3c8	-0.02914609
59	0x3d774be3	0.060375106
60	0x3d85c9d2	0.06532635
61	0x3c04ccb2	0.008105444
62	0xbced771b	-0.028987458
63	0x3d4cad0b	0.049969714
64	0x3cb5837e	0.022157427
65	0xbc1e94e7	-0.009679056
66	0xbcb9f204	-0.02269841
67	0x3d55ebd3	0.052226853
68	0x3d558627	0.05212989
69	0x3d6c3e25	0.057676453
70	0x3c3465dd	0.011010614
71	0x3d7645ef	0.060125288
72	0x3d2eddc7	0.042691972
73	0xbb4457ca	-0.0029959553
74	0x3d1a02c7	0.037600305
75	0x3d29a975	0.041421372
76	0x3d5e78af	0.05431431
77	0x3d4fa5b9	0.050695155
78	0xbd0a128f	-0.033709105
79	0x3d41169c	0.047140703
80	0x3d56f87c	0.052483067
81	0xbc78db6c	-0.015189033
82	0x3cee86c8	0.029117003
83	0x3d155eff	0.03646755
84	0xbcde07c0	-0.027103305
85	0xbcce8d2c	-0.0252138
86	0xbbe19184	-0.006883802
87	0x3bc9f4b7	0.0061632055
88	0xbbdc9b10	-0.006732352
89	0x3d25788b	0.04039816
90	0x3c3c718a	0.011501679
91	0x3ba4a7e0	0.005024895
92	0xbc90dbcf	-0.017682938
93	0x3d3de1df	0.046357986
94	0x3d245293	0.04011781
95	0x3d240dd8	0.040052265
96	0x3cdcdab5	0.026959756
97	0x3d5c0905	0.05371954
98	0x3b446631	0.0029968137
99	0x3bcb16f5	0.006197805
100	0x3d9831c7	0.07431369
101	0x3d9ac6dd	0.075574614
102	0x3db10e96	0.0864536
103	0x3d6e7fab	0.058227222
104	0x3df06679	0.11738295
105	0x3c9fb272	0.019494269
106	0x3c73517b	0.014850969
107	0x3d495e1a	0.049162008
108	0x3c868bfa	0.016424168
109	0x3d5092c6	0.050921224
110	0x3d2b1edd	0.04177748
111	0x3d40604f	0.046966847
112	0x3cd0d2f6	0.025491219
113	0x3d7bc7da	0.06146989
114	0x3d940380	0.0722723
115	0x3d1ff2b9	0.039049838
116	0x3b015c2d	0.001973878
117	0x3d666fa0	0.056258798
118	0x3d44e2f4	0.048068002
119	0x3d1855bf	0.03719115
120	0x3c5bc727	0.013414181
121	0x3d4fd3b7	0.050739016
122	0x3d4a5238	0.049394816
123	0x3ca89f94	0.020583905
124	0x3d8b90eb	0.0681475
125	0xbe222703	-0.15835194
126	0xbdb2b1b9	-0.08725304
127	0xbd8c713f	-0.068575375
128	0xbdb5ac58	-0.088707626
129	0xbdaeef8d	-0.085417844
130	0xbdb5806a	-0.08862384
131	0xbcf9cece	-0.03049412
132	0xbd62acf0	-0.055340707
133	0xbcb09b16	-0.021558326
134	0xbd63018d	-0.0554214
135	0xbceec8b0	-0.02914843
136	0xbd5f1702	-0.0544653
137	0xbcee36ff	-0.029078959
138	0xbd37b48c	-0.044849917
139	0xbd97dc00	-0.074150085
140	0xbd9a9418	-0.07547778
141	0xbc284299	-0.010269784
142	0xbcc2228f	-0.02369812
143	0xbd41da71	-0.047327463
144	0xbd961f0b	-0.0733014
145	0xbd26baf6	-0.040705644
146	0xbd57967d	-0.05263375
147	0xbda4bfc1	-0.08044387
148	0xbd4d0928	-0.05005756
149	0xbd8feb5d	-0.07027314
150	0x3b427b8e	0.0029675695
151	0xbd4fc6ca	-0.05072669
152	0xbd40343e	-0.046924822
153	0xbcc80392	-0.024415765
154	0x3cc70773	0.024295544
155	0x3cae8302	0.021302704
156	0x3d06845e	0.03284108
157	0xbd043a9f	-0.032282468
158	0xbd044bd7	-0.03229889
159	0xbc9b9bb4	-0.018995143
160	0x3c2971ba	0.010342056
161	0xbbc839b2	-0.0061103934
162	0x3a0b0012	0.00053024397
163	0xbc0fd68a	-0.008779177
164	0x3c84c263	0.016205972
165	0xbcdd52c8	-0.027017012
166	0xbc11ebf6	-0.008906355
167	0xbd02ce7f	-0.03193521
168	0xbc79d125	-0.015247618
169	0x3bc9d76f	0.006159715
170	0xbd0f3bea	-0.034969248
171	0xbc25ce04	-0.010119919
172	0xbd038fcf	-0.03211957
173	0xbd2e8337	-0.042605605
174	0xbc9ed3b6	-0.019388061
175	0xbdb9a64c	-0.09064922
176	0xbd46ba36	-0.04851743
177	0xbd6ec5c4	-0.058294073
178	0xbd349288	-0.044085056
179	0xbba24a63	-0.0049527152
180	0xbd39e6a9	-0.04538599
181	0xbc84a59b	-0.016192248
182	0xbd874e68	-0.06606752
183	0xbd60c43c	-0.054874644
184	0xbd39f1d3	-0.045396637
185	0xbd7b49a2	-0.06134952
186	0xbd679f84	-0.05654861
187	0xbc953beb	-0.018217048
188	0xbd6b1660	-0.057394385
189	0xbd208a3c	-0.03919433
190	0xbd64959a	-0.055806734
191	0xbceefa22	-0.029172007
192	0xbd2629de	-0.04056727
193	0xbd8c92be	-0.06863926
194	0xbdc06220	-0.09393716
195	0xbd851e92	-0.064999714
196	0xbdcfba06	-0.10142903
197	0xbd88036a	-0.06641276
198	0xbd927e98	-0.07153052
199	0xbe20cea5	-0.15703829
200	0xbd59fd62	-0.05322016
201	0x3d0bc442	0.034122713
202	0x3d0e3c7b	0.034725647
203	0xbcbd7ef9	-0.023131834
204	0x3cc4ecd0	0.024038702
205	0x3cb6feb9	0.022338258
206	0x3c572a7e	0.0131326895
207	0x3d33cbcd	0.04389553
208	0x3cfb2060	0.030655086
209	0x3d0dab36	0.034587108
210	0xbca795f1	-0.02045724
211	0xbb9acd94	-0.004724214
212	0xbce57a18	-0.02801232
213	0x3cc66731	0.024219127
214	0xbbfd485f	-0.0077295746
215	0xbd08dea8	-0.033415467
216	0xbcedb44b	-0.029016634
217	0xbd438b23	-0.047740113
218	0xbc3e40bc	-0.011612114
219	0x3ba9083f	0.0051584537
220	0xbd05f138	-0.032700747
221	0x3c8f9887	0.017528785
222	0xbcce9e3e	-0.02522194
223	0xbd50b78f	-0.050956305
224	0x3cea108f	0.028572349
225	0x3bee9151	0.0072805067
226	0x3c845e57	0.016158266
227	0xbbb87ea7	-0.0056303325
228	0x3ca0849d	0.019594485
229	0xbc0489b6	-0.0080894735
230	0x3d5d4bd8	0.05402741
231	0x3d45b692	0.048269816
232	0x3ca1e098	0.019760415
233	0x3b0aac1d	0.0021159716
234	0x3d3d3c6f	0.046200212
235	0xbc3ad6c0	-0.011403739
236	0x3d1257e2	0.035728343
237	0xbcbce942	-0.023060445
238	0x3d3b345d	0.045704234
239	0xbc050ae5	-0.008120273
240	0x3da565e7	0.08076077
241	0x3c06c4d9	0.008225643
242	0x3b67639c	0.0035307175
243	0xbc890b43	-0.016729003
244	0x3d250483	0.040287506
245	0x3ca84165	0.020538995
246	0x3d693813	0.056938242
247	0xbb937305	-0.0044997954
248	0x3bd5c86a	0.0065241354
249	0x3d7e5040	0.06208825
250	0x3d2e6bbc	0.042583212
251	0xbce80039	-0.028320419
252	0xbc5d704d	-0.013515544
253	0xbb84e0df	-0.004055127
254	0xbc6d9b63	-0.014502379
255	0x3d3ced95	0.046125013

conv4.bias f4 [2]
0	0x3cd3f2e8	0.025872663
1	0xbc63f1b3	-0.013912606
