weights/model.pt (torch_old, 43364 bytes, 8 tensors)

conv1.weight f4 [16, 3, 3, 3]
0	0xbdd5ca0b	-0.10438927
1	0x3e382137	0.1798142
2	0xbccfdf38	-0.025374994
3	0xbdf7073d	-0.120619275
4	0x3d7d0308	0.06177047
5	0xbd8414f5	-0.0644931
6	0xbd47f14d	-0.048814107
7	0xbdc1a745	-0.09455732
8	0xbdadfb12	-0.084951535
9	0x3dbcadc1	0.092128284
10	0xbc84324f	-0.01613727
11	0xbe3eddef	-0.18639348
12	0xbe1b3c39	-0.15159692
13	0x3a068b3c	0.0005132442
14	0xbded1a7a	-0.11577316
15	0x3e0415d6	0.12898955
16	0x3ddba75b	0.1072528
17	0xbe3dc683	-0.18532757
18	0x3d70f9b2	0.058831878
19	0x3d8cdd92	0.06878199
20	0x3e1107ef	0.14163183
21	0xbcae1e97	-0.02125482
22	0xbe0bebd2	-0.13664177
23	0xbd907d4f	-0.07055151
24	0x3c95bbe5	0.018278072
25	0x3e12e2d0	0.14344335
26	0xbe129dae	-0.14317963
27	0xbdeec5d6	-0.11658828
28	0x3db372ae	0.08762108
29	0x3df3b186	0.11899094
30	0xbe35af4f	-0.17742656
31	0xbdef2621	-0.116771944
32	0xbdd49013	-0.103790425
33	0x3d2e75d6	0.042592846
34	0x3d86d73b	0.06584021
35	0xbd8993a4	-0.06717613
36	0xbe16962c	-0.14705724
37	0x3ad7b925	0.0016458376
38	0x3d9cda8a	0.076588705
39	0x3d85967e	0.06522845
40	0x3af2a8ef	0.0018513481
41	0x3e0d3027	0.137879
42	0x3de6ca5e	0.11269067
43	0xbdc6a42b	-0.09699281
44	0x3c15c742	0.009141745
45	0x3e2ab411	0.16670252
46	0xbdcb2db8	-0.099208295
47	0x3d0254e9	0.031819258
48	0x3cc68e55	0.024237791
49	0x3d8f4599	0.069956966
50	0x3e1cf150	0.15326428
51	0xbe238e48	-0.15972245
52	0xbd883788	-0.06651217
53	0xbdb1191d	-0.08647368
54	0xbdfaf292	-0.12253298
55	0xbd5f0a1a	-0.054452993
56	0xbdf868ea	-0.12129386
57	0x3dd6ff0b	0.10497864
58	0x3e402efe	0.18767926
59	0x3e3ecb44	0.18632227
60	0x3dd532fe	0.104101166
61	0x3e379f25	0.17931803
62	0xbc0adced	-0.008475524
63	0xbd386cd8	-0.045025676
64	0xbdb3fd30	-0.08788526
65	0xbde91752	-0.11381401
66	0x3e14820b	0.14502732
67	0x3d379312	0.04481799
68	0x3d2ab361	0.041674975
69	0xbe4c278c	-0.19936961
70	0xbd4f0794	-0.050544336
71	0x3e0d00bf	0.13769816
72	0x3dbfc031	0.093628295
73	0xbc833586	-0.016016733
74	0xbe275768	-0.16341937
75	0x3cb27542	0.021784429
76	0xbe203d36	-0.1564835
77	0x3e3202c5	0.17383869
78	0xbde11f8c	-0.10992345
79	0xbb8eb896	-0.0043555005
80	0xbdd59a1d	-0.104297854
81	0x3dbe17f7	0.09281915
82	0xbe098c27	-0.1343237
83	0x3ceeb4e5	0.029138992
84	0x3e2d79a7	0.16940938
85	0xbdac9b1d	-0.08428023
86	0x3d574c8e	0.052563243
87	0x3d680c02	0.056652077
88	0xbde60595	-0.112315334
89	0xbd73736c	-0.059436247
90	0xbd81c9d5	-0.063373245
91	0x3cc18da8	0.023627117
92	0x3cd7c987	0.026341213
93	0xbe2a42f3	-0.16627102
94	0x3d6048f4	0.054757074
95	0x3c353f12	0.0110624
96	0x3d2be9b7	0.041970935
97	0x3dcfc9a0	0.10145879
98	0xbe29b366	-0.16572341
99	0x3e1c92dd	0.15290399
100	0x3d45ea84	0.048319355
101	0xbbfc3c08	-0.007697586
102	0x3df1bce6	0.11803608
103	0xbdd48e93	-0.103787564
104	0xbd88354d	-0.06650791
105	0xbe1e4018	-0.15454137
106	0xbe3d129d	-0.18464132
107	0xbd1b3ddd	-0.037900794
108	0xbe32a50c	-0.17445773
109	0x3dab3f1c	0.083616465
110	0x3cca748e	0.02471378
111	0x3dc4de81	0.09612752
112	0xbd01d899	-0.031700704
113	0x3df5fa87	0.12010675
114	0xbd92d763	-0.07169988
115	0x3c21002c	0.009826701
116	0x3b1c087b	0.0023808766
117	0xbe131c07	-0.1436616
118	0xbcbeed58	-0.023306534
119	0xbdb4d499	-0.08829612
120	0xbd204d3b	-0.039136153
121	0x3cf6f497	0.030145926
122	0xbddc899a	-0.10768433
123	0xbe0006b2	-0.12502554
124	0x3de7f4fa	0.113260224
125	0x3d6b4105	0.057435054
126	0x3dc47612	0.095928326
127	0x3d90f2cd	0.070775606
128	0xbddb3b0b	-0.10704621
129	0x3e2bfca8	0.167956
130	0x3dc80c99	0.09768028
131	0xbdd4bacc	-0.10387191
132	0x3e36e13d	0.17859359
133	0x3e0335a3	0.1281343
134	0xbdfefa15	-0.12450043
135	0xbe2f4324	-0.17115456
136	0x3b98f8c7	0.0046683284
137	0x3d9e540b	0.07730874
138	0xbe33cf22	-0.17559484
139	0xbe1b6786	-0.1517621
140	0x3e0de7a4	0.13857895
141	0x3e344cc5	0.1760741
142	0xbe215d2e	-0.15758201
143	0x3df5e9d7	0.12007492
144	0x3da9abdc	0.08284733
145	0xbde74d02	-0.11293985
146	0x3cd02337	0.025407417
147	0xbdf0dec7	-0.117612414
148	0xbd8e093e	-0.069353566
149	0x3e1bfff5	0.15234359
150	0xbdcb5afc	-0.09929463
151	0xbe35cb04	-0.17753226
152	0xbdfc4b87	-0.12319093
153	0x3e17eee5	0.14837225
154	0xbdb7f772	-0.08982743
155	0x3e23f4fc	0.16011423
156	0x3e33f850	0.17575192
157	0xbdca33dd	-0.098731734
158	0xbe08159c	-0.13289493
159	0x3e2bc9fc	0.1677627
160	0x3db12ea9	0.08651478
161	0xbda33ef4	-0.07970992
162	0x3da06336	0.07831423
163	0x3dfe88ac	0.12428412
164	0x3dc6f2eb	0.09714302
165	0x3c0ccd3c	0.008593854
166	0xbdd74b67	-0.10512429
167	0xbde89c36	-0.1135792
168	0x3ddaa8bc	0.10676715
169	0xbda542af	-0.080693595
170	0xbd8ad7a2	-0.0677941
171	0xbe469865	-0.19394071
172	0xbd809db3	-0.06280079
173	0x3ce05e01	0.027388575
174	0x3e048d2b	0.12944476
175	0xbd52897f	-0.051400658
176	0x3d0628ad	0.032753635
177	0x3d001766	0.031272314
178	0x3c30f812	0.010801332
179	0x3d25460a	0.040349998
180	0x3ac08bb6	0.0014690075
181	0xbc3f18d2	-0.0116636325
182	0x3e150050	0.145509
183	0xbd6c63bc	-0.0577123
184	0xbe1be625	-0.15224512
185	0x3e02182b	0.12704532
186	0x3cb57dca	0.022154707
187	0xbdf8cca4	-0.12148407
188	0x3db9dc7e	0.09075259
189	0x3d5faa14	0.05460556
190	0x3df450f8	0.11929506
191	0x3e279f80	0.16369438
192	0xbe1f2dc0	-0.15544796
193	0x3cf7bc8d	0.030241275
194	0xbe2ef6e1	-0.17086364
195	0x3dd36e11	0.10323728
196	0x3e06cec0	0.13164806
197	0xbe34dd87	-0.17662631
198	0xbe073efc	-0.1320762
199	0xbe1ed4d6	-0.15510878
200	0x3b053d64	0.002033078
201	0x3dcfc716	0.101453945
202	0x3e365631	0.17806317
203	0x3d51d476	0.05122801
204	0x3d7c9a71	0.061670724
205	0xbcd784ad	-0.026308382
206	0x3dd377e3	0.10325601
207	0xbe11f3ce	-0.1425316
208	0xbd827af4	-0.06371108
209	0xbde78eaf	-0.113065116
210	0xbd5ad7f7	-0.053428616
211	0xbdc4f331	-0.096166976
212	0xbe0e9c89	-0.13926901
213	0xbe2b3902	-0.16720966
214	0x3d08d76c	0.033408567
215	0xbe405117	-0.18780933
216	0x3e055e7e	0.13024327
217	0xbc28abc6	-0.01029486
218	0x3b884e54	0.004159728
219	0x3e387306	0.18012628
220	0xbe07f7be	-0.132781
221	0x3da31a1c	0.07963964
222	0xbda95e54	-0.08269945
223	0x3e25b325	0.1618162
224	0x3e0e6360	0.13905096
225	0xbd8ea75e	-0.069655165
226	0x3def7a67	0.11693268
227	0xbe1c9372	-0.15290621
228	0x3c402da7	0.011729634
229	0xbdc4d11d	-0.09610198
230	0x3c49c681	0.012315393
231	0xbe2e5924	-0.17026192
232	0xbe0a7153	-0.13519792
233	0xbdc105db	-0.09424945
234	0xbe097729	-0.13424362
235	0x3d745eac	0.0596606
236	0x3de89efc	0.11358449
237	0xbe055f40	-0.13024616
238	0xbe2bde6f	-0.1678407
239	0x3df95098	0.12173575
240	0xbc6bd5e1	-0.014394254
241	0x3db10d36	0.08645098
242	0x3e227902	0.15866473
243	0xbba9f08c	-0.005186146
244	0x3de8105a	0.11331244
245	0xbe28c198	-0.164801
246	0xbe2ecc0e	-0.17070028
247	0x3e16eeb5	0.14739497
248	0xbd06bcb6	-0.032894813
249	0xbe39d20d	-0.18146534
250	0xbd890b7a	-0.06691642
251	0xbe26e52d	-0.16298361
252	0x3d9e9cfb	0.077447854
253	0x3e022d2b	0.12712543
254	0x3dbd2922	0.09236361
255	0x3df09796	0.11747663

conv1.bias f4 [16]
0	0xbe070946	-0.13187131
1	0xbdac7022	-0.08419825
2	0x3e248aa3	0.1606851
3	0x3e1b70ce	0.1517975
4	0x3d114a42	0.03547121
5	0xbe373ee3	-0.17895083
6	0x3e3d7e8f	0.1850531
7	0xbe2eeb59	-0.17081966
8	0x3d3c79d5	0.046014626
9	0x3cafbf9f	0.021453677
10	0x3e33dd93	0.17564993
11	0xbe317e47	-0.17333327
12	0x3e2970d8	0.16546953
13	0x3d651efa	0.055937745
14	0xbdbd7e38	-0.0925259
15	0xbe03cb30	-0.12870479

conv2.weight f4 [32, 16, 3, 3]
0	0x3da4feb9	0.08056397
1	0xbc7044e3	-0.014664861
2	0x3d5a322e	0.05327051
3	0x3d1b7d26	0.037961148
4	0xbb8cf746	-0.004301938
5	0x3ce37b58	0.027768776
6	0x3d9797a9	0.07401974
7	0xbd83b0a0	-0.06430173
8	0x3d047e91	0.032347266
9	0x3ccd4896	0.025059026
10	0xbd8db05b	-0.06918403
11	0xbd977816	-0.073959514
12	0x3cb70f72	0.022346232
13	0x3bca9c82	0.006183208
14	0x3caf46e0	0.0213961
15	0xbc455a0b	-0.012045394
16	0xbd27af29	-0.04093853
17	0x3d3fc4fa	0.04681871
18	0xbd2ab6a7	-0.041678097
19	0xbd7e3fd8	-0.062072605
20	0xbda7ac4a	-0.081871584
21	0x3c7fe643	0.0156188635
22	0xbc3115de	-0.010808436
23	0x3d76ff6c	0.060302183
24	0xbd000c8d	-0.03126197
25	0xbd6ce910	-0.057839453
26	0x3d86189f	0.06547665
27	0x3c71cadd	0.014757839
28	0xbd853276	-0.06503765
29	0x3cfc2199	0.03077774
30	0xbd6227b7	-0.055213656
31	0x3aea4910	0.0017874558
32	0xbd0c671b	-0.034278017
33	0x3d4e254f	0.05032855
34	0x3d495bab	0.049159687
35	0xbda03bfe	-0.078239426
36	0x3d680954	0.05664952
37	0xbd9f4c21	-0.07778192
38	0xbc2476d5	-0.010038097
39	0xbd6eacf0	-0.058270395
40	0xbd856f38	-0.06515354
41	0x3d4cb909	0.04998115
42	0xbd6df5a8	-0.058095604
43	0x3cc7b53d	0.024378413
44	0xbbf9720d	-0.007612473
45	0xbce9b2ef	-0.028527705
46	0xbd168640	-0.036749125
47	0x3d064cf4	0.032788232
48	0x3d79df20	0.061003804
49	0x3d894fab	0.067046486
50	0xbda23834	-0.07920876
51	0x3d8eb9b1	0.069690116
52	0xbd36ba45	-0.044611234
53	0xbd4114c7	-0.047138955
54	0xbd902626	-0.07038526
55	0x3d4bfb70	0.049800336
56	0xbd528c9d	-0.05140363
57	0xbd4ca2cd	-0.049959946
58	0x3d8fce23	0.07021739
59	0xbd7fd23f	-0.062456366
60	0x3d91f801	0.07127381
61	0x3d55f418	0.05223474
62	0x3d216c60	0.039409995
63	0x3da28812	0.079361096
64	0xbd8bfd70	-0.06835449
65	0xbda6031a	-0.0810606
66	0xbd91b70a	-0.0711499
67	0x3c9802b2	0.018555973
68	0x3d7602e6	0.060061358
69	0x3d8db82b	0.06919893
70	0xbc9ba85d	-0.01900118
71	0xbd26934b	-0.040667813
72	0x3d949438	0.07254833
73	0xbc19baa8	-0.009382881
74	0xbd599b38	-0.053126544
75	0xbbe12e98	-0.0068720095
76	0x3d37c375	0.044864137
77	0xbbc4c6f5	-0.006005163
78	0x3cbbf8e3	0.022945827
79	0xbd1fd246	-0.03901889
80	0xbda04d74	-0.07827273
81	0x3d840deb	0.06447967
82	0x3d045911	0.032311503
83	0xbd131b3e	-0.035914652
84	0x3d8184d4	0.06324163
85	0xbd034a00	-0.032052994
86	0xbd0b4cbe	-0.034008734
87	0x3d3a5a68	0.045496374
88	0xbd9174fa	-0.0710239
89	0x3c084de0	0.008319348
90	0x3c4f2d29	0.012645044
91	0xbd9e7a5e	-0.077381834
92	0xbc605fd6	-0.013694724
93	0xbd9f7d22	-0.07787539
94	0x3cdff356	0.027337711
95	0x3b21513a	0.0024615065
96	0xbd30e046	-0.043182634
97	0xbd9526f2	-0.07282819
98	0xbc9cc3c6	-0.01913632
99	0x3cd0e95e	0.025501903
100	0xbd51946b	-0.051166933
101	0xbbbc0e17	-0.0057389843
102	0x3d623d4c	0.05523424
103	0x3be9e523	0.007137911
104	0xbd068a0b	-0.03284649
105	0xbc183841	-0.009290756
106	0x3d5396b1	0.051657382
107	0x3d9c33e6	0.07627086
108	0x3c50da96	0.012747427
109	0x3d97e614	0.07416931
110	0x3d41efe4	0.04734792
111	0xbd80a8b6	-0.06282179
112	0x3ce48536	0.027895551
113	0xbc87a058	-0.01655595
114	0xbd91d2a3	-0.07120254
115	0x3d3474e4	0.044056788
116	0xbc691809	-0.014226922
117	0x3b42f7f9	0.0029749854
118	0xbda10c73	-0.078637026
119	0xbd7f5917	-0.062340822
120	0x3bb747fc	0.005593298
121	0x3d01c6c4	0.0316837
122	0x3d1c0028	0.038086087
123	0xbd0cdff4	-0.034393266
124	0x396ef646	0.00022789193
125	0xbd68f566	-0.056874655
126	0xbd8cb8d5	-0.068711914
127	0xbd2ce578	-0.042211026
128	0x3d308df6	0.043104135
129	0xbca8de6c	-0.020613872
130	0xbb6e8ee9	-0.00364011
131	0xbd70b022	-0.058761723
132	0x3d3b5db1	0.045743648
133	0x3b3d1a4a	0.002885478
134	0x3d2fc862	0.04291571
135	0x3c8e1f77	0.017348988
136	0xbc9bc448	-0.019014493
137	0x3d927718	0.071516216
138	0xbcf5b42a	-0.029993135
139	0x3d9b302d	0.07577548
140	0xbc9fa8b9	-0.019489633
141	0xbc8bce7c	-0.017066233
142	0xbd80045b	-0.06250831
143	0x3d479ed5	0.04873546
144	0xbd96906e	-0.073517665
145	0xbd964b1f	-0.07338547
146	0xbb279ae1	-0.0025574493
147	0xbc575e73	-0.013145077
148	0xbd1bd091	-0.0380407
149	0x3d949e2a	0.0725673
150	0xbd56a46e	-0.052402906
151	0x3cf2e479	0.02964996
152	0xbd8fc026	-0.07019071
153	0x3c648e56	0.013949951
154	0x3d0f3a5a	0.034967758
155	0x3da2f66e	0.07957159
156	0x3da7e15a	0.08197279
157	0xbd84e12a	-0.06488259
158	0xbc933cd0	-0.017973334
159	0xbd39f70e	-0.045401625
160	0x3d4c8b68	0.049937636
161	0xbd566338	-0.052340716
162	0x3d5a666d	0.053320337
163	0xbc07f900	-0.008299112
164	0xbce78ab4	-0.028264381
165	0xbd047519	-0.032338236
166	0xbc579f08	-0.013160475
167	0xbcd6b26c	-0.026208125
168	0x3cd14ba9	0.025548773
169	0xbccd6b1b	-0.025075486
170	0x3c9dbd16	0.019255202
171	0x3d289aa1	0.04116309
172	0xbc9fe52b	-0.019518455
173	0xbc265a0e	-0.010153307
174	0x3d327a44	0.043573633
175	0x3da78d2f	0.081812255
176	0x3c549aea	0.0129763875
177	0x3c63c73c	0.013902482
178	0xbc84ef93	-0.01622752
179	0x3cc4ae75	0.024008969
180	0xbc2f5f1c	-0.010703828
181	0xbbe5bde3	-0.0070111617
182	0xbd9e6c09	-0.0773545
183	0x3d8b28ba	0.06794877
184	0xbb96a3d0	-0.0045971647
185	0xbbcbe326	-0.0062221466
186	0xbd15cff9	-0.03657529
187	0x3d3a53db	0.045490127
188	0xbc956449	-0.018236296
189	0x3d5f479f	0.054511663
190	0x3d9ada5f	0.07561182
191	0xbc80cd38	-0.015722856
192	0xbd94f70b	-0.07273682
193	0x3c8a9d0a	0.016920585
194	0x3d7be534	0.061497882
195	0xbca0aebd	-0.019614572
196	0x3b57ab91	0.0032908658
197	0x3ca49176	0.020088892
198	0xbcfb40b9	-0.03067051
199	0xbcdbdc4e	-0.026838448
200	0x3d4b5680	0.04964304
201	0xbd896cb1	-0.06710184
202	0xbc13f835	-0.009031345
203	0xbb8a90e3	-0.0042286976
204	0xbd16e14b	-0.03683595
205	0xbda3ea52	-0.080036774
206	0xbd959457	-0.07303684
207	0x3d9487c2	0.07252456
208	0xbda28770	-0.07935989
209	0xbd07e403	-0.033176433
210	0xbd9b2143	-0.075747035
211	0xbda0bc01	-0.07848359
212	0x3ca0857a	0.019594897
213	0xbd8835d8	-0.06650895
214	0xbd8cdf14	-0.06878486
215	0xbc545207	-0.01295901
216	0x3d17067f	0.03687143
217	0x3d2eabbe	0.042644255
218	0xbda1d068	-0.079010785
219	0x3c80b183	0.015709644
220	0x3ccb7d8f	0.024840144
221	0x3d8f2460	0.0698936
222	0xbcff8827	-0.031192852
223	0xbd1e0ae3	-0.0385846
224	0xbd5f2f15	-0.05448826
225	0xbd6b83b4	-0.05749865
226	0xbcf09490	-0.029367715
227	0x3d23ca27	0.03998771
228	0x3d10d4ab	0.035359066
229	0xbd3263db	-0.04355226
230	0xbadee63f	-0.0017005875
231	0xbd9926ea	-0.074781254
232	0xbd3b8565	-0.04578151
233	0xbd7abac8	-0.061213285
234	0x3b098c7d	0.0020988279
235	0x3d971f64	0.07379034
236	0xbcdb49c9	-0.026768582
237	0xbcbece13	-0.023291623
238	0xbda75a68	-0.081715405
239	0xbd53b163	-0.05168284
240	0xbc964da7	-0.018347574
241	0xbd6a66ce	-0.05722695
242	0x3d83dcb4	0.0643858
243	0xbd949d4c	-0.072565645
244	0xbd27bcb0	-0.04095143
245	0x3d0c6d69	0.03428403
246	0x3c43dab0	0.011953995
247	0xbc9e0733	-0.019290542
248	0x3ca165ba	0.019701827
249	0x3d9ef7c2	0.077621
250	0xbd1fe413	-0.039035868
251	0x3c3da34d	0.0115745785
252	0x3d8944b8	0.0670256
253	0x3cda5653	0.02665249
254	0xbcb036f2	-0.021510575
255	0x3bdf1f87	0.0068091783

conv2.bias f4 [32]
0	0x3d8eafea	0.06967147
1	0x3d45a182	0.04824973
2	0x3c1cc1e3	0.009567711
3	0x3bc1db14	0.0059160087
4	0xbbc043d5	-0.005867461
5	0x3a7dc246	0.0009680133
6	0x3cb62412	0.022233997
7	0x3d7ffacd	0.06249504
8	0xbd3e759d	-0.046498884
9	0xbd44a639	-0.048010085
10	0x3d669e35	0.05630322
11	0xbd93b7b5	-0.07212774
12	0xbbb34a92	-0.005471536
13	0xbd31d037	-0.04341146
14	0xbd100529	-0.03516117
15	0xbc3e3826	-0.0116100665
16	0x3d85e709	0.06538207
17	0xbd9e1675	-0.07719127
18	0xbd940e64	-0.07229307
19	0x3d6ee825	0.05832686
20	0x3c178387	0.009247667
21	0x3d7fb4e9	0.06242839
22	0x3cd63b15	0.02615122
23	0xbd149de5	-0.036283392
24	0x3c9131c5	0.017723927
25	0xbcc6b6bd	-0.024257058
26	0x3d2fcf0f	0.042922076
27	0xba326cbb	-0.0006806363
28	0x3d9267bf	0.07148694
29	0xbd159c2d	-0.036525894
30	0xbc6d3404	-0.0144777335
31	0xbd41c969	-0.04731122

conv3.weight f4 [16, 32, 3, 3]
0	0xbcbf0f02	-0.023322586
1	0xbbecaa38	-0.00722244
2	0xbc143d36	-0.009047797
3	0x3c798f99	0.01523199
4	0x3c2bb42b	0.010479967
5	0x3d247f01	0.040160183
6	0x3d0ef46f	0.03490108
7	0xbcafca9a	-0.021458913
8	0xbc53fe39	-0.012939029
9	0xbc53d20a	-0.012928495
10	0x3d5cb2e6	0.05388155
11	0x3caddc62	0.02122325
12	0x3d2a7ed0	0.041624844
13	0x3cfd8169	0.030945497
14	0xbb0761db	-0.0020657692
15	0x3c91dda6	0.017805886
16	0x3d328cf9	0.043591473
17	0x3c89f7ff	0.016841887
18	0x3d3ca757	0.046058025
19	0x3b1fe0ab	0.0024395387
20	0xbce94ead	-0.028479898
21	0x3c3d5cc3	0.011557761
22	0x3bcaa4da	0.0061842026
23	0xbb4672e2	-0.0030280878
24	0xbc3c6fb9	-0.011501246
25	0xbc442fc0	-0.011974275
26	0x3bf01f30	0.0073279366
27	0xbd6ea05f	-0.05825841
28	0x3c4dd394	0.012562651
29	0xbd3de666	-0.046362303
30	0x3bda6599	0.0066649434
31	0xbc463992	-0.012098687
32	0x3d0c9b90	0.034328043
33	0x3d128c58	0.035778373
34	0x3cc8c523	0.024508065
35	0x3d5263bd	0.05136465
36	0x3d63df58	0.05563292
37	0x3d2ead09	0.042645488
38	0x3c5ce65a	0.0134826545
39	0x3d2596e3	0.0404271
40	0xbd6a1c2c	-0.057155773
41	0x3d56e491	0.05246407
42	0x3cd6f5f6	0.02624033
43	0x3d1ca33b	0.038241606
44	0xbd069eba	-0.032866217
45	0x3d6e2279	0.058138344
46	0x3bd57291	0.0065139015
47	0x3b1696b2	0.0022978005
48	0x3cbb20bf	0.022842763
49	0x3b6e16e2	0.0036329557
50	0xbd1e6799	-0.038673017
51	0xbc5d5653	-0.013509351
52	0x3ce55eb9	0.027999269
53	0xbd341c02	-0.043972023
54	0x3ce27104	0.02764178
55	0xbd4c2c36	-0.04984685
56	0x3cc27d15	0.023741284
57	0xbbbb5b83	-0.005717696
58	0xbbce758c	-0.006300634
59	0xbced27a4	-0.028949566
60	0xbd5ace2b	-0.053419273
61	0x3ce51439	0.027963744
62	0x3d211bba	0.039333083
63	0xbd5d67e9	-0.054054175
64	0x3cd6f6ca	0.026240725
65	0xbd6b6d81	-0.057477478
66	0x3cd5219e	0.026017006
67	0xbcd97395	-0.026544372
68	0xbd4d9785	-0.05019333
69	0x3b3525d2	0.002764095
70	0x3d4c27a1	0.04984248
71	0xbd58d314	-0.052935675
72	0xbd5620ea	-0.052277483
73	0x3d587f4b	0.05285577
74	0x3c61fa2d	0.013792557
75	0xbccb2e4e	-0.024802353
76	0xbd04d586	-0.032430194
77	0x3cb0234f	0.021501211
78	0x3cf14d93	0.029455936
79	0x3d2e3cbf	0.0425384
80	0xbcf64c00	-0.030065536
81	0xbba5f69e	-0.0050647995
82	0x3caf8f24	0.02143056
83	0xbd221151	-0.039567295
84	0x3c17f2b4	0.0092741735
85	0x3d210236	0.03930875
86	0xb97ec7e5	-0.00024297794
87	0x3b5c26e0	0.0033592507
88	0x3d4fbf23	0.05071939
89	0xbce9c657	-0.028536959
90	0xbd60c36a	-0.05487386
91	0xbc24d0ee	-0.010059578
92	0x3cc34a73	0.023839211
93	0xbbf02384	-0.0073284525
94	0xbca0001b	-0.0195313
95	0xbd0dac9a	-0.034588434
96	0xbd5f0b73	-0.05445428
97	0xbd5a8596	-0.053350054
98	0x3c9c1b7c	0.019056074
99	0x3d1a306b	0.03764383
100	0x3b69bbd3	0.003566493
101	0x3aeacd4e	0.0017913969
102	0x3d38932b	0.045062225
103	0xbd640d89	-0.05567697
104	0x3c6114d8	0.01373788
105	0x3d4ff05b	0.05076633
106	0x3cf4ea85	0.029896984
107	0xbd68e233	-0.056856345
108	0xbd08c464	-0.033390418
109	0xbc2ecbe1	-0.010668726
110	0xbd08307c	-0.033249363
111	0xbc937ba7	-0.018003298
112	0xbd19be00	-0.037534714
113	0xbc9127bd	-0.017719144
114	0x3d439c42	0.04775644
115	0xbc613305	-0.013745074
116	0x3d2da55a	0.04239402
117	0xbd8306d6	-0.06397788
118	0xbc0926a2	-0.008371027
119	0xbd466e63	-0.048445117
120	0xbd2ae694	-0.041723803
121	0x3d1e396b	0.038628977
122	0xbc833375	-0.016015748
123	0x3d3cc732	0.046088405
124	0x3d01b2db	0.03166471
125	0xbd5508e3	-0.05201043
126	0xbd410448	-0.047123224
127	0xbd5deae7	-0.0541791
128	0xbd0c34e8	-0.034230143
129	0x3d2cf4c3	0.04222561
130	0xbd6537ec	-0.055961534
131	0xbd18247f	-0.03714418
132	0x3d373f78	0.044738263
133	0xbd3012c3	-0.042986643
134	0x3d67a540	0.05655408
135	0xbd6f1d0a	-0.058377303
136	0x3d415e7d	0.04720925
137	0x3d3d5a10	0.04622847
138	0xbcd18ea2	-0.025580708
139	0xbd2778e7	-0.040886786
140	0x3ce7539c	0.02823811
141	0xbd439b09	-0.047755275
142	0x3ce37880	0.02776742
143	0xbccfdbe0	-0.0253734
144	0xbd2354a9	-0.03987566
145	0x3cc031d9	0.02346127
146	0x3d261ffc	0.040557846
147	0xbc68d2d1	-0.014210419
148	0xbd34304d	-0.043991376
149	0x3c86fe51	0.01647869
150	0xbd6e7222	-0.058214314
151	0xbb957268	-0.0045607574
152	0xbbb1bc6d	-0.0054240734
153	0x3c440f01	0.011966468
154	0x3c667299	0.014065408
155	0xbd704026	-0.058654927
156	0x3d255eed	0.04037373
157	0xbb0e2c3e	-0.002169385
158	0x3c191c02	0.0093450565
159	0xbc80d618	-0.015727088
160	0xbd133ed1	-0.03594858
161	0x3cbcf111	0.023064168
162	0x3ca17a77	0.019711716
163	0x3c4275db	0.011868919
164	0x3cff8d3e	0.03119528
165	0x3d0b7a2b	0.034052055
166	0x3d04d955	0.032433826
167	0x3d21d6d5	0.03951152
168	0x3d34549e	0.04402601
169	0x3d2b3303	0.041796695
170	0xbc97ac42	-0.018514756
171	0xbca348d1	-0.019932183
172	0xbb40130a	-0.0029308223
173	0x3b594195	0.0033150662
174	0xbd23400b	-0.039855998
175	0xbd7a4d1c	-0.061108693
176	0x3c240aa0	0.010012299
177	0x3d16cb63	0.03681506
178	0x3d00e4c3	0.031468164
179	0xbd6c7e4d	-0.057737637
180	0xbd75b80a	-0.059989966
181	0xbcc7d9fc	-0.024395935
182	0xbcb169ea	-0.02165695
183	0xbc51555d	-0.0127767
184	0x3c9baea5	0.019004175
185	0x3c15ec72	0.009150611
186	0x3cbfb6fe	0.023402687
187	0xbd549c52	-0.05190689
188	0xbbd636e8	-0.006537307
189	0x3d601481	0.054707054
190	0xbcfabb83	-0.03060699
191	0x3c2e11d4	0.010624368
192	0xbd6b3ce9	-0.057431135
193	0x3d2301f9	0.039796803
194	0x3bae4b34	0.0053190235
195	0xbcd26b74	-0.025686003
196	0xbd415520	-0.047200322
197	0x3c2b89d9	0.010469877
198	0xbd6b2426	-0.05740752
199	0x3cb5b797	0.022182269
200	0xbc93b296	-0.018029492
201	0xbc55c041	-0.013046325
202	0xbc082e0c	-0.00831176
203	0xbc38fbaa	-0.01129047
204	0xbd5992c3	-0.05311848
205	0x3d2eef34	0.04270859
206	0xbd67c4bc	-0.056584105
207	0xbd067a53	-0.0328315
208	0xbc30e08c	-0.010795724
209	0x3d5c8034	0.0538332
210	0x3cd98520	0.026552737
211	0x3cdce25c	0.026963405
212	0xbcc340ea	-0.023834664
213	0x3ba3df32	0.005000972
214	0xbd03eb00	-0.032206535
215	0x3d2edeab	0.04269282
216	0xbbc54427	-0.0060200873
217	0x3cf1e8da	0.029529978
218	0x3b02f308	0.0019981284
219	0xbd2d4ec4	-0.042311445
220	0xbd3e7c4b	-0.046505254
221	0x3d0f3dee	0.03497117
222	0xbd4c70be	-0.049912207
223	0xbd4d02f7	-0.050051656
224	0xbc136a0f	-0.008997454
225	0x3c93d501	0.018045904
226	0xbb9b76f1	-0.0047444035
227	0x3c80bb97	0.01571445
228	0x3c71fe90	0.014770165
229	0x3d537776	0.0516276
230	0xbcc2284a	-0.023700852
231	0x3d48400f	0.048889216
232	0xbbc0bf8c	-0.005882209
233	0xb9b9bdeb	-0.0003542745
234	0xbd332dc7	-0.04374483
235	0xbd3fbc96	-0.04681071
236	0x3d1c8a18	0.038217634
237	0xbc404100	-0.011734247
238	0x3d417cd1	0.047238175
239	0x3bdc8828	0.0067300983
240	0x3c4411f5	0.011967172
241	0xbd64c922	-0.055855878
242	0xbc9d8d8a	-0.01923253
243	0xbc82482a	-0.015903551
244	0x3d66547c	0.056232914
245	0xbd0e55e8	-0.034749895
246	0x3be7b3bf	0.007070988
247	0xbd050113	-0.032471728
248	0x3c9570d6	0.01824228
249	0x3cf4a8b8	0.029865608
250	0xbc41d33e	-0.011830149
251	0x3acfd791	0.001585709
252	0x3c0ad992	0.008474724
253	0xb975d4e0	-0.00023444323
254	0xbd1e73fd	-0.038684834
255	0xbd4a3680	-0.04936838

conv3.bias f4 [16]
0	0x3ce0ef3c	0.027457826
1	0x3d11b57b	0.035573464
2	0x3d5c7496	0.053822123
3	0xbcb48b58	-0.0220391
4	0x3cd8cf5d	0.026466066
5	0xbd6d931f	-0.058001634
6	0x3c54a86b	0.012979607
7	0x3c2d0df4	0.010562409
8	0xbd6e030b	-0.05810837
9	0x3d665025	0.056228776
10	0x3cf74715	0.030185262
11	0xbd1fced3	-0.039015602
12	0x3d5adcca	0.053433217
13	0xbcfedeba	-0.031112064
14	0xbc2db151	-0.010601358
15	0x3d400e95	0.046888907

conv4.weight f4 [2, 16, 5, 5]
0	0xbce2891f	-0.027653275
1	0x3cb96a53	0.022633707
2	0xbc6e9f1d	-0.014564303
3	0xbd00beb3	-0.031431865
4	0xbcf89c45	-0.030347953
5	0xbcce6774	-0.025195815
6	0xbc595408	-0.0132646635
7	0x3d38e096	0.045136057
8	0x3d06642c	0.032810375
9	0x3c709305	0.01468349
10	0x3d0e749d	0.03477918
11	0xbc3ddc69	-0.011588194
12	0xbd31984e	-0.04335814
13	0xbd0f6515	-0.03500851
14	0xbba55dbf	-0.005046576
15	0xbbae62ae	-0.005321822
16	0x3d3df707	0.04637816
17	0x3d086ac8	0.03330496
18	0xbd0b4ace	-0.034006886
19	0x3d4ad224	0.049516812
20	0x3d527a51	0.05138618
21	0xbd34c5dc	-0.044134006
22	0xbcfd3d94	-0.030913152
23	0x3c5ae026	0.013359105
24	0x3ba6445c	0.005074067
25	0x3d130530	0.03589362
26	0xbba690a7	-0.005083162
27	0xbd05e2d9	-0.032687042
28	0x3bf0bc03	0.0073466315
29	0xbd466929	-0.048440132
30	0xbd45cae1	-0.048289184
31	0x3b02d79b	0.0019964937
32	0x3b776bd7	0.0037753487
33	0xbc6fa0bc	-0.014625724
34	0xbd0a20a6	-0.033722542
35	0xbb182727	-0.0023216696
36	0xbc548de5	-0.012973283
37	0xbd016ecb	-0.0315998
38	0x3d0997d0	0.033592045
39	0x3ba2153d	0.0049463795
40	0xbb57373b	-0.0032839316
41	0x3d349d22	0.044095166
42	0xbc0d9143	-0.00864059
43	0xbd4109c5	-0.047128458
44	0xbd464e9a	-0.048414804
45	0xbcbcc900	-0.023045063
46	0x3d23096d	0.03980391
47	0xbcc609b2	-0.024174545
48	0xbcbdf292	-0.023186956
49	0x3d2a60ce	0.041596226
50	0xbb6ec4d3	-0.0036433234
51	0x3d20b448	0.03923443
52	0xbd344920	-0.04401505
53	0x3d002de9	0.031293783
54	0x3cec585d	0.028850729
55	0x3d19f9de	0.037591808
56	0x3d15421c	0.03644
57	0x3cafc971	0.02145836
58	0xbcaadac2	-0.020856265
59	0x3d111ad1	0.035425965
60	0xbbd07cc0	-0.0063625276
61	0xbce4d574	-0.027933814
62	0xbc16688b	-0.009180198
63	0xbcbc50d9	-0.02298777
64	0xbc34fd02	-0.01104665
65	0x3d2adddc	0.041715488
66	0x3cc241d6	0.023713034
67	0x3d04cc92	0.032421656
68	0xbccfe5c7	-0.025378121
69	0x3d26af11	0.0406943
70	0x3cb303ae	0.02185234
71	0xbd55ff3f	-0.052245375
72	0xbd0e2c4e	-0.03471022
73	0x3d04d8d7	0.032433357
74	0x3cb98c03	0.02264977
75	0xbd4bd56e	-0.04976409
76	0x3cda6ce7	0.026663257
77	0xbd48398d	-0.04888301
78	0x3c53f91b	0.012937809
79	0x3d30864c	0.043096825
80	0x3a9b63f3	0.0011855349
81	0xbd03973c	-0.03212665
82	0x3d2999c2	0.0414064
83	0x3ae04e6d	0.0017113216
84	0xbd1b5abf	-0.03792834
85	0xbd092aa6	-0.03348794
86	0xbd478591	-0.048711363
87	0x3a840f48	0.0010075355
88	0x3bc6e30b	0.006069546
89	0x3d19b892	0.037529536
90	0xbcdb9483	-0.026804214
91	0x3c997d20	0.018736422
92	0xbb49d678	-0.0030798
93	0x3d3335f9	0.043752644
94	0x3d1fe058	0.03903231
95	0xba0fcf0d	-0.000548587
96	0xbaa79c62	-0.0012787695
97	0x3d425dd2	0.047452755
98	0x3d012ea7	0.03153863
99	0xbc7e14eb	-0.015507917
100	0x3d184aa7	0.03718057
101	0xbd1b9d18	-0.037991613
102	0xbcd282a8	-0.025697067
103	0x3c11d04d	0.00889976
104	0x39fd9f04	0.00048374396
105	0xbbd82eb6	-0.0065973653
106	0xbd446834	-0.04795094
107	0xb9e4f0f3	-0.0004366707
108	0xbc877dd2	-0.016539488
109	0x3d218357	0.039431896
110	0xbc8e2908	-0.01735355
111	0xbcc7496c	-0.024327002
112	0xbc71a778	-0.0147494
113	0xbd3453a5	-0.044025082
114	0x3d42345d	0.04741322
115	0xbd36bfaa	-0.04461638
116	0x3d351b37	0.044215407
117	0x3c3ec29a	0.011643076
118	0xbca0f483	-0.019647842
119	0xbd06efbb	-0.03294347
120	0x3c0e96aa	0.008702913
121	0xbaea4388	-0.0017872909
122	0xbc78d0fa	-0.015186543
123	0xba18484c	-0.0005809113
124	0x3acf6c2f	0.0015825088
125	0x3d173f02	0.036925323
126	0xbd470e51	-0.048597638
127	0x3c0cc96d	0.0085929455
128	0x3cfb0bb9	0.030645238
129	0x3ab2cec3	0.0013641942
130	0x3cca0b36	0.024663549
131	0xbc373179	-0.011181229
132	0xbcefb087	-0.02925898
133	0x3d2bcfa8	0.041946083
134	0xbd024426	-0.031803273
135	0x39c66d84	0.00037847098
136	0x3c46d888	0.012136586
137	0x3c9060f3	0.017624354
138	0xbd1d0a3d	-0.038339842
139	0x3d1ce4ba	0.03830407
140	0x3d0b7dda	0.03405557
141	0x3c9ec75c	0.019382171
142	0xbb7eb46f	-0.003886487
143	0x3d0af1ad	0.033921886
144	0x3c440dcc	0.01196618
145	0xbd278f55	-0.040908176
146	0x3d057097	0.032578077
147	0x3d4ffce2	0.050778277
148	0x3d2beee5	0.041975874
149	0x3c81cd57	0.015844984
150	0xbcc9accd	-0.02461853
151	0x3d00798f	0.031365927
152	0x3c85bd97	0.016325755
153	0x3d27f88a	0.04100851
154	0x3cc6cd0b	0.024267694
155	0xbcddb643	-0.027064448
156	0xbc96a552	-0.018389378
157	0xbd1363cb	-0.035983842
158	0xbd0f74d6	-0.035023533
159	0x3c8440d4	0.016144194
160	0x3c968a79	0.018376576
161	0x3d3f442e	0.04669588
162	0xbd0fa2c7	-0.035067346
163	0x3d0a9dba	0.033841826
164	0x3cf92b9d	0.030416304
165	0xbd32ac5d	-0.04362141
166	0xbd2e04b2	-0.042484947
167	0xbcda4e3d	-0.026648635
168	0xbb3a42f2	-0.002842125
169	0xbc30475e	-0.010759203
170	0xbce4ff19	-0.027953671
171	0x3d07cadb	0.033152442
172	0x3ccc958f	0.024973659
173	0x3c71f1b8	0.014767103
174	0x3b97ea1c	0.0046360623
175	0xbbde2094	-0.006778786
176	0x3cf0b7e3	0.029384559
177	0x3ce33f2b	0.027740082
178	0xbca5a8da	-0.020222116
179	0x3b3a3096	0.0028410307
180	0xbc9cdf28	-0.019149378
181	0x3c1f34ee	0.009717209
182	0x3ce1febd	0.027587289
183	0xbd0a71b7	-0.033799853
184	0x3c77b1a2	0.015118035
185	0xbcba0ab9	-0.022710191
186	0x3d231b02	0.03982068
187	0xbcace694	-0.021106042
188	0xbd09751a	-0.033558942
189	0x3cbee20d	0.023301149
190	0xbd00c676	-0.031439267
191	0xbc503dff	-0.0127100935
192	0xbcf91def	-0.030409781
193	0xbd02a4b0	-0.03189534
194	0x3b21a84e	0.0024666968
195	0xbd03c935	-0.032174308
196	0xbd05f299	-0.032702062
197	0x3cbd4cf2	0.02310798
198	0x3c95b262	0.018273536
199	0x3c87f2b0	0.016595215
200	0xbd0ec5f0	-0.034856737
201	0x3b0e55d2	0.0021718633
202	0x3b95a6c0	0.0045669973
203	0x3c1069e0	0.008814305
204	0xbd133500	-0.035939217
205	0xbca2d4f4	-0.019876935
206	0xbc08306f	-0.008312329
207	0xbd1b90fd	-0.03798007
208	0x3d1ed8b8	0.038780898
209	0xbc737a34	-0.014860678
210	0x3d05a549	0.03262833
211	0xbd3917a7	-0.045188572
212	0xbd375851	-0.04476196
213	0xbc8eacac	-0.01741632
214	0xbd28c0cf	-0.0411995
215	0xbc351fb6	-0.011054924
216	0x3cf43a1c	0.029812865
217	0x3ce33cd9	0.027738975
218	0x3d2ae5a5	0.041722912
219	0xba2e010c	-0.0006637729
220	0x3caa93ca	0.020822424
221	0x3b8b93d9	0.004259568
222	0xbc74b36c	-0.014935356
223	0x3cc975c4	0.024592288
224	0x3d3e0b81	0.04639769
225	0x3d24b23d	0.040209044
226	0x3cb5e238	0.022202596
227	0xbd159901	-0.03652287
228	0x3cf8e347	0.030381812
229	0xbce48007	-0.02789308
230	0xbc2a16ab	-0.010381381
231	0x3d27c9b4	0.040963843
232	0x3c186c8a	0.0093032215
233	0xbc52311e	-0.012829093
234	0x3d07506a	0.033035673
235	0x3c935d92	0.017988954
236	0xbd296075	-0.041351754
237	0x3cec70c7	0.02886237
238	0x3d2198f4	0.039452508
239	0x3c8e0bcc	0.01733961
240	0x3cdf67f2	0.027271245
241	0x3cbd7cdf	0.023130832
242	0x3c6e2951	0.014536218
243	0x3d420a85	0.047373313
244	0x3b11f452	0.002227087
245	0xbcca7182	-0.024712328
246	0xbd05c064	-0.03265418
247	0xbd1090de	-0.035294406
248	0x3cdf1e28	0.02723606
249	0xbd2f26fb	-0.042761784
250	0x3c739e7a	0.014869327
251	0xbce2a62b	-0.027667126
252	0x3c1623df	0.009163826
253	0xbc89effe	-0.01683807
254	0xbccc831d	-0.024964863
255	0x3d25ae5c	0.040449485

conv4.bias f4 [2]
0	0xbd8567c7	-0.065139346
1	0x3d230d46	0.03980758
