models/Adam.model.weights.pt (torch, 68991 bytes, 10 tensors)

conv1.weight f4 [16, 3, 3, 3]
0.1570978 -0.06372057 0.12300806 0.14614528 0.024562256 -0.0014290293 -0.062958196 -0.04943306
-0.050117556 -0.020857943 -0.0782629 -0.13106453 0.055147238 0.14915022 0.11836974 -0.056611635
0.011423335 -0.0065076593 -0.11408253 0.107252315 -0.03927958 -0.08518253 -0.06799298 -0.022633089
-0.10323255 -0.034461606 -0.07090515 0.05540028 0.08610045 -0.11532301 0.17027058 -0.031834435
0.16955888 0.016355729 0.11701544 -0.123103306 -0.12139014 -0.17387438 0.13704827 0.025666237
-0.14575218 0.037700783 0.10407082 -0.122081086 0.0359546 -0.15334785 -0.053064164 0.16418022
0.004336667 0.09053609 0.12658139 0.031320136 -0.12654768 -0.18394156 -0.028429069 -0.06932426
0.18384205 0.15398648 0.18789563 0.081753574 0.1456527 0.03513897 -0.119096994 0.09205612
-0.004044538 -0.033420835 0.10161122 0.17340522 0.1408954 -0.0030080525 0.10356978 -0.022832533
-0.060489263 0.15793811 0.019547885 0.1807637 -0.17967185 0.18628764 -0.17146818 -0.11826689
-0.11157276 -0.07251935 0.10635717 -0.18082102 0.16088596 -0.036704388 -0.043515522 0.17503677
-0.092980646 0.12512477 0.12726319 0.0835767 0.08129662 -0.039679 -0.048353866 -0.06110796
0.015610262 -0.17591782 -0.17355837 -0.020324634 0.1306292 -0.107616164 -0.060084302 -0.04972661
0.05903285 0.15603858 0.092099324 -0.19347188 0.13442083 0.03678996 0.17073913 0.053012077
0.05927445 0.05515907 0.14854029 -0.046162482 0.021583844 -0.11773767 -0.0061955764 0.1603499
-0.0685932 0.012340367 -0.1655634 -0.13236798 -0.18084776 -0.17133678 -0.1621868 0.15831514
-0.17325816 0.17533989 0.11629379 -0.036172614 -0.09934669 0.13099355 0.18461663 0.12507506
-0.04519672 0.07655776 -0.04745278 0.16596678 -0.033424012 -0.16698277 -0.13605598 0.12801655
-0.0035242124 -0.024799818 -0.022589708 -0.16941139 0.026563585 -0.06945505 -0.1304504 0.1073771
0.1575838 0.030464271 0.10206568 -0.061692424 0.026113933 -0.07531203 0.13230777 -0.15814348
-0.089349344 0.11987655 0.11028006 -0.0029941788 -0.059679173 -0.011855679 0.11375269 0.01222268
0.10967154 -0.09801141 0.022640234 -0.1341585 -0.044083215 0.13043587 -0.061472517 0.02341505
0.05143363 -0.07011394 -0.117850095 0.032826014 -0.07174457 0.045160107 0.034902945 0.11825958
-0.050169647 0.048067622 -0.09515476 -0.08783615 0.024720315 -0.17502828 -0.18416478 0.10843081
0.09903366 -0.07941106 -0.16500932 -0.042270344 0.1747374 -0.047350753 -0.09767669 0.18909115
-0.0028399646 0.03891342 -0.10517971 -0.0051598563 0.090568654 0.02501508 0.16682157 -0.09064647
0.016218448 0.017439917 -0.021169225 -0.046537634 0.07279866 0.19280952 -0.039392613 0.12611495
0.050097562 -0.01044214 0.028582208 0.097486064 -0.0630838 0.08591726 0.17849511 -0.012985001
0.07266484 0.06620497 0.16368823 0.031525116 -0.18050571 -0.16495505 0.16681142 -0.08202046
0.12062948 -0.16125293 -0.005053619 0.12631847 0.15164514 -0.12476015 0.1584705 -0.08407394
0.10042352 -0.005127924 -0.1922054 -0.049679425 -0.12642537 0.11129186 -0.14421882 0.001982994
0.0798833 -0.041334435 0.02542931 -0.024147112 -0.18835361 -0.12160046 0.014633742 -0.1065828
00000000: 3fde 203e ee7f 82bd a6eb fb3d 1ca7 153e
00000010: c936 c93c 444e bbba 3af0 80bd 527a 4abd
00000020: 1148 4dbd 47de aabc 4d48 a0bd c835 06be
00000030: 12e2 613d d6ba 183e d66b f23d 9ae1 67bd
00000040: f128 3b3c 343e d5bb 1aa4 e9bd 1aa7 db3d
00000050: a0e3 20bd 2e74 aebd e73f 8bbd 0769 b9bc
00000060: 966b d3bd 9d27 0dbd b836 91bd 67eb 623d
00000070: 6f55 b03d 782e ecbd 695b 2e3e d364 02bd
00000080: d8a0 2d3e 73fc 853c caa5 ef3d 961d fcbd
00000090: 659b f8bd 200c 32be 6256 0c3e 0042 d23c
000000a0: 0f40 15be 236c 1a3d 1523 d53d a605 fabd
000000b0: 2145 133d 3807 1dbe cf59 59bd dc1e 283e
000000c0: 991a 8e3b fc6a b93d 8d9e 013e 8b49 003d
000000d0: b795 01be 2d5b 3cbe 14e4 e8bc e1f9 8dbd
000000e0: 1741 3c3e a2ae 1d3e b667 403e 6b6e a73d
000000f0: fb25 153e e1ed 0f3d 20e9 f3bd eb87 bc3d
00000100: 0b88 84bb 49e4 08bd 8b19 d03d 2391 313e
00000110: e246 103e bf22 45bb 651c d43d 4b0b bbbc
00000120: 97c3 77bd 87ba 213e e322 a03c 1f1a 393e
00000130: e6fb 37be 30c2 3e3e 5b95 2fbe e935 f2bd
00000140: 4280 e4bd 0685 94bd cad1 d93d 2529 39be
00000150: 4abf 243e 5757 16bd 553d 32bd d73c 333e
00000160: a36c bebd b520 003e 4851 023e 432a ab3d
00000170: d87e a63d 7286 22bd b40e 46bd 574c 7abd
00000180: 2fc2 7f3c cd23 34be 49b9 31be d97f a6bc
00000190: a9c3 053e dd65 dcbd f51a 76bd 21ae 4bbd
000001a0: 6ecc 713d 94c8 1f3e 929e bc3d 7e1d 46be
000001b0: 9da5 093e 12b1 163d 3dd6 2e3e 3123 593d
000001c0: c4c9 723d 7aee 613d f21a 183e df14 3dbd
000001d0: 9ad0 b03c 7320 f1bd 4304 cbbb c432 243e
000001e0: 977a 8cbd 402f 4a3c 7489 29be 798b 07be
000001f0: 2830 39be e972 2fbe 4c14 26be 5d1d 223e
00000200: 966a 31be 4d8c 333e 702b ee3d bc29 14bd
00000210: 4776 cbbd 2c23 063e 240c 3d3e ad13 003e
00000220: 3220 39bd 51ca 9c3d d95d 42bd 32f3 293e
00000230: 9ee7 08bd 88fd 2abe 4252 0bbe c516 033e
00000240: 79f6 66bb fd28 cbbc 0d0e b9bc 2e7a 2dbe
00000250: e09b d93c 733e 8ebd ca94 05be 86e8 db3d
00000260: a65d 213e 3590 f93c d007 d13d 32b1 7cbd
00000270: e3ec d53c 323d 9abd b07b 073e 5df0 21be
00000280: cafc b6bd d681 f53d 83da e13d fc39 44bb
00000290: 2672 74bd 523e 42bc 2cf7 e83d a341 483c
000002a0: 799b e03d 35ba c8bd 0378 b93c d960 09be
000002b0: 9a90 34bd fb90 053e 9bca 7bbd ebd0 bf3c
000002c0: 12ac 523d e697 8fbd 645b f1bd 9274 063d
000002d0: d1ee 92bd cef9 383d 64f6 0e3d 1432 f23d
000002e0: b07e 4dbd 8ee2 443d 80e0 c2bd 70e3 b3bd
000002f0: 4282 ca3c 9d3a 33be b195 3cbe f910 de3d
00000300: 29d2 ca3d 44a2 a2bd 34f8 28be ab23 2dbd
00000310: 5cee 323e ddf2 41bd b70a c8bd 1ca1 413e
00000320: b31e 3abb ae63 1f3d 7668 d7bd 0314 a9bb
00000330: 0f7c b93d 6dec cc3c 46d3 2a3e dba4 b9bd
00000340: 8ddc 843c 28de 8e3c 156b adbc 3f9e 3ebd
00000350: 7717 953d dc6f 453e 265a 21bd 4724 013e
00000360: 1a33 4d3d 8215 2bbc 3c25 ea3c c6a6 c73d
00000370: 1432 81bd 63f5 af3d 6cc7 363e 0bbf 54bc
00000380: 4ed1 943d 7996 873d e39d 273e 7b20 013d
00000390: 7dd6 38be fae9 28be 9dd0 2a3e 58fa a7bd
000003a0: 970c f73d 7d1f 25be d498 a5bb a159 013e
000003b0: dd48 1b3e 4082 ffbd 1746 223e f52e acbd
000003c0: d9aa cd3d 2508 a8bb 7ed1 44be a77c 4bbd
000003d0: a775 01be fdec e33d 19ae 13be 1ef5 013b
000003e0: db99 a33d 4c4e 29bd 2151 d03c 2ad0 c5bc
000003f0: c5df 40be a909 f9bd 5dc2 6f3c 1548 dabd

conv1.bias f4 [16]
0.18671535 0.1225963 -0.06963141 0.12991534 0.22266716 -0.054780167 -7.454364e-05 -0.101753876
0.21856019 0.12901816 -0.05934248 0.18807448 0.0881466 0.055816226 0.21539184 -0.00079111825
00000000: 4f32 3f3e c513 fb3d ea9a 8ebd 8708 053e
00000010: dc02 643e 2b61 60bd 5054 9cb8 5664 d0bd
00000020: 3ece 5f3e 561d 043e 1a11 73bd 9996 403e
00000030: 3486 b43d 8e9f 643d ae8f 5c3e 0c63 4fba

convx.weight f4 [16, 3, 5, 5]
0.0045955535 -0.07662438 -0.026157174 -0.09146763 -0.059421234 0.08206172 0.050520517 -0.038895614
0.03070924 -0.065473504 0.08939745 -0.0709701 -0.07694725 -0.041126695 -0.011422667 0.10090362
0.038171653 0.014662449 -0.041567933 -0.08024157 0.07109191 0.035038203 -0.044051662 0.04308814
0.05656303 -0.026925385 0.0060954024 -0.087101676 0.045045745 0.014734486 -0.024468524 0.01676353
-0.046709727 0.029874407 -0.031015385 0.052014332 -0.028207954 0.03948193 -0.017608492 -0.010551348
-0.076379016 -0.020328123 0.057559963 0.010291271 -0.07923357 -0.0047352426 -0.056784872 0.048473947
-0.06252985 0.02558019 -0.03894293 0.09717355 -0.096950024 -0.09920606 0.01433942 0.065769754
0.020294916 -0.030021168 -0.023136808 -0.099282816 0.006847804 -0.053420674 -0.06761296 -0.02627943
-0.05662244 -0.0040426883 -0.103902906 0.07044841 -0.09861529 0.03928922 -0.05123254 0.0901641
0.011072178 0.07153518 -0.06847963 -0.014929673 -0.05061283 -0.043410767 0.062174503 -0.07144595
0.025728304 0.092345275 -0.012353831 0.05372144 0.095128916 0.08717031 -0.022117872 -0.038870603
0.062671445 0.019195346 -0.06776769 -0.050461292 0.00096028217 -0.08517595 0.019500922 0.009108667
0.0858333 0.044294268 0.00042531424 -0.046542693 -0.019188704 0.07874134 0.10318881 -0.062451493
-0.045979444 0.035784736 0.037872903 0.07192593 0.055199046 -0.05954136 0.00040006026 0.022651346
0.10241152 -0.08628879 0.08798292 -0.07798274 0.111150526 0.09027815 -0.046735425 -0.062723435
0.11711249 -0.036108848 0.04297435 -0.07072737 0.06194243 0.11090357 0.019115146 0.05973426
0.02359657 0.02267252 -0.04473388 -0.02795321 0.10718241 -0.07757508 0.047988683 -0.10208841
0.110323526 -0.091876164 0.04674797 0.062270388 -0.008994452 0.09341335 0.07416815 0.023831131
-0.08323571 -0.104475796 -0.08606995 0.049816016 0.03282567 0.0645946 0.09202891 0.073931254
-0.0011805668 0.062986754 -0.057022 0.038951267 -0.1030321 -0.11159166 0.071497336 0.102374636
-0.022111254 -0.018534789 0.10543131 -0.052428763 0.010323239 0.031551804 0.06100197 0.080927745
-0.07429424 0.041853327 0.0797514 0.06922961 -0.004124589 0.026321594 0.10041292 0.092349716
-0.11396692 0.07588787 -0.11068017 0.1065575 -0.04288121 -0.08239954 0.07599462 -0.03755184
-0.022395436 0.07710738 0.03013296 -0.10187914 -0.1068455 0.048077628 0.09929658 0.082678415
0.042424276 -0.006866435 0.09301558 -0.058812715 -0.03840398 0.08917934 -0.04408915 0.082942024
0.08417503 0.06354222 -0.00013143528 -0.08982867 0.10296175 0.03130585 0.08355823 -0.020464832
0.104887545 -0.046860747 0.060303483 0.017404309 0.0335452 -0.024313949 0.092504516 -0.033166233
-0.09611057 0.06584704 -0.031445 -0.09043875 0.11385426 -0.092842385 -0.07965595 -0.11304425
0.08271886 -0.035371765 0.024599463 0.118457705 -0.07408335 -0.05164725 0.09439687 -0.00031905298
-0.077345 -0.09608239 0.016708685 -0.039357774 -0.0022149738 -0.08914582 0.051435214 0.045758773
-0.09910655 -0.047390047 0.015184635 -0.09947889 0.03430579 0.01370767 -0.04547738 -0.0053715673
-0.079996526 -0.04606967 0.026912244 0.06784379 0.037906233 -0.018650562 0.054756064 0.014885023
00000000: 4c96 963b 3eed 9cbd 9247 d6bc 6153 bbbd
00000010: ae63 73bd fa0f a83d 9aee 4e3d 0251 1fbd
00000020: f291 fb3c f916 86bd 0316 b73d c658 91bd
00000030: 8596 9dbd 7774 28bd 2326 3bbc 8fa6 ce3d
00000040: e159 1c3d c53a 703c 2343 2abd b155 a4bd
00000050: a398 913d 3884 0f3d 846f 34bd 317d 303d
00000060: a3ae 673d a092 dcbc f1bb c73b 5d62 b2bd
00000070: e381 383d ea68 713c 3772 c8bc ac53 893c
00000080: b352 3fbd 2cbb f43c fa13 febc fb0c 553d
00000090: 5e14 e7bc ceb7 213d af3f 90bc 90df 2cbc
000000a0: 9a6c 9cbd 2a87 a6bc ffc3 6b3d b89c 283c
000000b0: 3645 a2bd 182a 9bbb 4197 68bd 9e8c 463d
000000c0: a60f 80bd 8c8d d13c 9f82 1fbd ed02 c73d
000000d0: bc8d c6bd 8c2c cbbd e3ef 6a3c 4bb2 863d
000000e0: 8641 a63c f4ee f5bc 6789 bdbc ca54 cbbd
000000f0: 8b63 e03b a3cf 5abd aa78 8abd f647 d7bc
00000100: efec 67bd 8778 84bb 0ccb d4bd 4247 903d
00000110: d0f6 c9bd bced 203d 36d9 51bd f5a7 b83d
00000120: 1568 353c 0981 923d 0c3f 8cbd 969b 74bc
00000130: 664f 4fbd 7dcf 31bd b1aa 7e3d 4152 92bd
00000140: 2ac4 d23c 851f bd3d b967 4abc 030b 5c3d
00000150: f3d2 c23d 5986 b23d 8a30 b5bc c836 1fbd
00000160: e359 803d 8f3f 9d3c c9c9 8abd 80b0 4ebd
00000170: 72bb 7b3a ba70 aebd 66c0 9f3c 853c 153c
00000180: 5fc9 af3d e86d 353d b6fc de39 8da3 3ebd
00000190: a131 9dbc 2443 a13d a854 d33d 23cd 7fbd
000001a0: f154 3cbd 0493 123d 9e20 1b3d e74d 933d
000001b0: 6518 623d a4e1 73bd 2ebf d139 518f b93c
000001c0: 22bd d13d 2db8 b0bd 6430 b43d 6ab5 9fbd
000001d0: e3a2 e33d c0e3 b83d a56d 3fbd 2575 80bd
000001e0: acd8 ef3d dfe6 13bd df05 303d 83d9 90bd
000001f0: 58b7 7d3d 6921 e33d 5e97 9c3c e9ab 743d
00000200: 984d c13c b8bb b93c df3a 37bd 21fe e4bc
00000210: 7482 db3d afdf 9ebd c88f 443d ba13 d1bd
00000220: 4df1 e13d 9229 bcbd cd7a 3f3d 3c0f 7f3d
00000230: 775d 13bc 804f bf3d 79e5 973d 8139 c33c
00000240: 7c77 aabd 68f7 d5bd 7145 b0bd e10b 4c3d
00000250: 3674 063d 2c4a 843d a779 bc3d 4569 973d
00000260: 40bd 9aba 33ff 803d e78f 69bd 5d8b 1f3d
00000270: 7e02 d3bd 2b8a e4bd 326d 923d cba9 d13d
00000280: a922 b5bc 45d6 97bc 5fec d73d 8bbf 56bd
00000290: cd22 293c 773c 013d 34dd 793d 72bd a53d
000002a0: 9427 98bd 656e 2b3d b454 a33d 41c8 8d3d
000002b0: 8f27 87bb 62a0 d73c 4aa5 cd3d d921 bd3d
000002c0: 7d67 e9bd 196b 9b3d 49ac e2bd d23a da3d
000002d0: 35a4 2fbd 17c1 a8bd 11a3 9b3d f5cf 19bd
000002e0: a276 b7bc 79ea 9d3d 66d9 f63c 03a6 d0bd
000002f0: d0d1 dabd 0ced 443d 015c cb3d 4d53 a93d
00000300: 14c5 2d3d d5ff e0bb f47e be3d 9ae5 70bd
00000310: 7e4d 1dbd a8a3 b63d d396 34bd 82dd a93d
00000320: f563 ac3d 6c22 823d e4d1 09b9 18f8 b7bd
00000330: 9cdd d23d 903a 003d 9420 ab3d dda5 a7bc
00000340: 48cf d63d 0ef1 3fbd c900 773d 7b93 8e3c
00000350: b166 093d 0c2e c7bc 0273 bd3d 51d9 07bd
00000360: 9ed5 c4bd d0da 863d 79cc 00bd f437 b9bd
00000370: 6c2c e93d 2624 bebd a922 a3bd be83 e7bd
00000380: 8168 a93d fce1 10bd d084 c93c f499 f23d
00000390: 03b9 97bd 118c 53bd 2553 c13d 9146 a7b9
000003a0: 0e67 9ebd d8c6 c4bd a7e0 883c 9e35 21bd
000003b0: 1829 11bb 1592 b6bd bbad 523d 8d6d 3b3d
000003c0: 60f8 cabd 111c 42bd fac8 783c 97bb cbbd
000003d0: 3a84 0c3d 2396 603c 7d46 3abd f903 b0bb
000003e0: 38d5 a3bd 8db3 3cbd 1177 dc3c aff1 8a3d
000003f0: 9143 1b3d 10c9 98bc e547 603d 50e0 733c

convx.bias f4 [16]
0.03665446 -0.07046539 0.041170124 -0.006170003 -0.060409017 -0.059599455 -0.08548378 0.020796552
-0.04540605 -0.03799389 -0.0021621077 -0.07674538 0.08332451 -0.021646388 -0.0060855453 -0.026290826
00000000: fd22 163d 2950 90bd 01a2 283d bd2d cabb
00000010: 726f 77bd 8f1e 74bd 1f12 afbd 885d aa3c
00000020: b2fb 39bd 7b9f 1bbd 26b2 0dbb af2c 9dbd
00000030: 0aa6 aa3d c453 b1bc 4169 c7bb dc5f d7bc

conv2.weight f4 [32, 32, 3, 3]
-0.0009288211 -0.018812291 0.0032811454 -0.011849329 -0.00376414 0.006082411 -0.007032763 -0.024565542
0.00010565024 0.028260557 0.00091304566 -0.01715014 -0.053544573 0.032416683 0.03164449 -0.006242704
-0.030269267 -0.004499865 -0.016841708 -0.022828002 -0.027560884 0.049852908 0.06142683 0.032471042
0.05763942 -0.010734588 -0.018153192 0.04991264 0.040973913 -0.02303004 0.03562506 0.019410118
-0.058381032 0.018313115 -0.00063307316 -0.042247977 -0.04844509 0.0060281735 0.019825215 0.012370549
0.040184032 -0.00070851174 0.0013808421 -0.0387758 -0.03716867 0.056831047 0.025752349 0.012166237
0.004656495 0.012512893 -0.037623398 0.025897425 0.023967098 0.018450757 0.020481817 -0.010585243
-0.025231345 0.030226123 0.01605204 0.008274437 0.01629568 -0.0060845725 -0.024154037 0.061846007
-0.043022063 0.026964445 0.00855336 -0.045612127 -0.004055379 0.054394312 -0.018350545 -0.0005361424
-0.00460846 0.040296625 -0.031155039 0.019048104 0.028916964 0.016142538 -0.04380452 -0.006004584
-0.023340156 0.048016753 -0.013258781 0.04560357 -0.031662535 0.008600617 -0.037916906 -0.004303185
0.022942219 0.0073324903 0.017086072 -0.0076980186 0.012688332 -0.021613248 0.022442445 -0.008960255
0.0011260475 0.007318718 0.012313707 0.01404587 0.0049600825 0.04082752 0.012792365 0.011281733
0.006365899 0.018415809 -0.020732677 -0.005006963 0.059674576 0.006972516 -0.024903312 0.017123453
0.026667962 0.029037755 -0.007666392 -0.015117649 0.008278961 0.0047556246 0.025585363 0.019603137
0.036411412 0.01310704 0.0071980106 0.013261304 0.0344643 0.024193993 0.0356799 0.026561296
-0.0129471775 -0.053254962 -0.009381548 -0.04382404 0.0011329225 -0.022950646 0.015962005 0.047925834
0.053974066 0.028214224 0.005954905 -0.015380589 -0.018379848 0.011259542 0.035452504 0.009144453
-0.031521108 -0.033769 0.030373644 0.029503396 0.01621513 -0.018931475 0.0013372634 0.038000785
0.045687087 0.050270144 -0.00073171133 -0.013093179 -0.034513876 -0.034751955 -0.012323837 0.044584353
-0.03402025 -0.036283255 -0.03391771 -0.04609528 0.009582837 0.039238192 0.02506292 0.027420465
0.022161568 -0.038265586 -0.0039180336 -0.018934859 0.0054924395 0.018428521 -0.0022414569 -0.034858767
0.017977968 -0.049467605 -0.020598426 -0.03126379 0.04160302 0.02720902 0.0040860674 0.04208433
0.07103486 0.022994561 0.019485421 0.05293715 -0.042640638 0.0045138504 0.02639485 0.055610932
0.044104353 0.024422675 -0.025728405 0.0042121005 -0.04910962 0.030071713 0.05968216 0.030393431
-0.01461928 -0.00850923 -0.010624265 0.03173615 -0.015676811 -0.030234614 0.04564203 0.046572458
-0.016756255 0.003945517 -0.0118472 -0.005953621 -0.022949671 0.019938296 -0.0058259764 -0.007676046
0.036535867 0.031173225 0.040405013 0.028479367 0.020270932 -0.05652335 0.008063637 0.008215919
0.029136362 -0.022493731 -0.004307844 -0.0026311968 -0.02150494 -0.048728984 -0.011931621 -0.022460166
-0.03247885 -0.009009903 0.049176313 0.054868884 0.03613586 0.05006797 -0.013056323 -0.03560724
0.012953355 0.033602264 -0.012300806 -0.037575867 0.037290495 0.015109323 -0.025797518 -0.004552948
-0.04434048 0.041607335 -0.0040856553 0.02635079 -0.009721172 0.024320316 -0.010790589 -0.004602636
00000000: 217c 73ba 3c1c 9abc 7c08 573b b023 42bc
00000010: caaf 76bb f64e c73b 1873 e6bb ad3d c9bc
00000020: 8a90 dd38 af82 e73c 7559 6f3a 737e 8cbc
00000030: 8e51 5bbd 5bc7 043d a79d 013d 998f ccbb
00000040: 41f7 f7bc 9b73 93bb 9ff7 89bc ca01 bbbc
00000050: 5dc7 e1bc 9032 4c3d b39a 7b3d 5b00 053d
00000060: 5017 6c3d 20e0 2fbc 01b6 94bc 3271 4c3d
00000070: 43d4 273d 7fa9 bcbc 95eb 113d f801 9f3c
00000080: f320 6fbd 6305 963c d2f4 25ba 370c 2dbd
00000090: 5c6e 46bd fc87 c53b 7d68 a23c d8ad 4a3c
000000a0: 0398 243d 6bbb 39ba 5ffd b43a 60d3 1ebd
000000b0: 2d3e 18bd acc7 683d 97f6 d23c e654 473c
000000c0: 8395 983b e102 4d3c fe1a 1abd d626 d43c
000000d0: a656 c43c 0b26 973c 7cc9 a73c ba6d 2dbc
000000e0: f7b1 cebc c69c f73c 917f 833c 8191 073c
000000f0: 857e 853c 1861 c7bb b0de c5bc 3d52 7d3d
00000100: e737 30bd 8ae4 dc3c 6423 0c3c c8d3 3abd
00000110: fce2 84bb 92cc 5e3d e253 96bc e88b 0cba
00000120: 9002 97bb 130e 253d da38 ffbc c50a 9c3c
00000130: 45e3 ec3c 5b3d 843c 5e6c 33bd 1ac2 c4bb
00000140: db33 bfbc 37ad 443d 5c3b 59bc cfca 3a3d
00000150: 93b0 01bd 9ae9 0c3c c24e 1bbd bb01 8dbb
00000160: 52f1 bb3c 6345 f03b 17f8 8b3c a93f fcbb
00000170: b9e2 4f3c 440e b1bc 38d9 b73c 09ce 12bc
00000180: e297 933a dbd1 ef3b 6ebf 493c a620 663c
00000190: 3088 a23b c23a 273d 1197 513c 05d7 383c
000001a0: 0899 d03b c0dc 963c 93d7 a9bc 7311 a4bb
000001b0: 546d 743d b479 e43b 0802 ccbc 7c46 8c3c
000001c0: c576 da3c 96e0 ed3c 5b36 fbbb 04b0 77bc
000001d0: 7ba4 073c 12d5 9b3b 6598 d13c c296 a03c
000001e0: 2224 153d e9be 563c 4add eb3b f145 593c
000001f0: 702a 0d3d 7b32 c63c 1625 123d 1397 d93c
00000200: 6620 54bc e021 5abd 10b5 19bc d680 33bd
00000210: 927e 943a fe02 bcbc c0c2 823c e14d 443d
00000220: e913 5d3d 8421 e73c 5d21 c33b defe 7bbc
00000230: 5691 96bc f179 383c a536 113d 9ed2 153c
00000240: 471c 01bd 5d51 0abd 26d2 f83c 1bb1 f13c
00000250: 98d5 843c 2e16 9bbc 1d47 af3a b6a6 1b3d
00000260: 6222 3b3d 11e8 4d3d 51d0 3fba c684 56bc
00000270: 6c5e 0dbd 1158 0ebd ebe9 49bc 159e 363d
00000280: d158 0bbd c09d 14bd 4ced 0abd 68ce 3cbd
00000290: 5501 1d3c 3ab8 203d c150 cd3c e2a0 e03c
000002a0: 2d8c b53c 60bc 1cbd d962 80bb 471d 9bbc
000002b0: ecf9 b33b 69f7 963c 68e5 12bb 11c8 0ebd
000002c0: 8846 933c 8b9e 4abd 08be a8bc 760e 00bd
000002d0: ee67 2a3d 73e5 de3c 6be4 853b 9e60 2c3d
000002e0: ba7a 913d 175f bc3c e49f 9f3c a0d4 583d
000002f0: f3a7 2ebd ece8 933b 033a d83c 4ac8 633d
00000300: c4a6 343d 1012 c83c 60c4 d2bc a905 8a3b
00000310: 2b27 49bd f458 f63c 4875 743d a5fb f83c
00000320: b485 6fbc 4c6a 0bbc 6611 2ebc c4fd 013d
00000330: a86c 80bc 95ae f7bc 23f3 3a3d c3c2 3e3d
00000340: 6a44 89bc 6549 813b c21a 42bc 9816 c3bb
00000350: f300 bcbc a355 a33c d5e7 bebb 5787 fbbb
00000360: a2a6 153d fe5e ff3c ba7f 253d 904d e93c
00000370: 3a0f a63c 0785 67bd 581d 043c 109c 063c
00000380: 61af ee3c c644 b8bc d128 8dbb 2870 2cbb
00000390: 212b b0bc 0b98 47bd d87c 43bc 62fe b7bc
000003a0: 8b08 05bd 469e 13bc 1a6d 493d 32be 603d
000003b0: 3203 143d 1214 4d3d 30ea 55bc e6d8 11bd
000003c0: 4f3a 543c 87a2 093d 5289 49bc 27e9 19bd
000003d0: ebbd 183d 188d 773c 5155 d3bc e530 95bb
000003e0: 5d9e 35bd 746c 2a3d f6e0 85bb 9ddd d73c
000003f0: 8d45 1fbc 663b c73c 03cb 30bc b6d1 96bb

conv2.bias f4 [32]
-0.011348739 0.027241727 -0.03663863 0.031484272 -0.034024935 -0.009451602 0.057148453 -0.009605533
-0.013048541 0.021937601 -0.05915866 0.07043635 0.0731644 0.0039114156 -0.055898193 0.0775521
-0.045038864 0.03530508 0.07041174 0.002544698 -0.016461017 0.0635429 0.0013309512 0.022042105
0.005388338 -0.024409715 -0.01515156 0.08467878 -0.011689881 0.0039173746 -0.00059926725 0.01099643
00000000: 10f0 39bc 0b2a df3c 6312 16bd a7f5 003d
00000010: bb5d 0bbd e4da 1abc 7f14 6a3d 8760 1dbc
00000020: 8cc9 55bc 7cb6 b33c 5a50 72bd ef40 903d
00000030: 38d7 953d 552b 803b 81f5 64bd a3d3 9e3d
00000040: ac7a 38bd 0f9c 103d 0834 903d f3c4 263b
00000050: 41d9 86bc c822 823d 5073 ae3a a591 b43c
00000060: a890 b03b e2f6 c7bc 403e 78bc 116c ad3d
00000070: ea86 3fbc 525d 803b 2518 1dba 5f2a 343c

conv3.weight f4 [16, 32, 3, 3]
0.00396783 0.007900086 0.036138613 -0.02291233 0.028897425 0.014619734 0.025952538 -0.004565103
0.05386926 0.039969273 -0.034098268 -0.04763143 0.04755586 -0.049276948 -0.048905496 0.046546727
0.047338825 -0.050738923 0.014016519 -0.059185974 -0.023788346 0.041721437 0.015575457 0.024748014
-0.039080486 0.025114344 -0.05277518 0.00704549 -0.036783107 -0.041607596 -0.005812263 0.0062429197
0.019579383 0.06271352 0.007814631 0.013088883 -0.005295166 0.041023355 0.01818336 0.04558731
-0.024653617 -0.0077520646 -0.029001692 0.028208021 -0.04074562 -0.033325534 0.0137463445 -0.0112395715
-0.05674456 0.037941903 0.018674906 0.0025196741 -0.0049655223 0.0055623306 0.003868115 -0.016675899
0.004493661 0.06518655 -0.01062883 0.084186815 0.06354697 0.0745891 0.023383975 0.00072394294
0.002841678 0.0036114273 0.0007283514 0.003198485 0.006584143 -0.0035263202 -0.0022227685 -0.0011871469
-0.022408461 -0.02526588 0.022310384 0.012391234 -0.035937086 -0.014815743 -0.043374337 0.010794045
0.043485213 0.025952548 -0.04922782 -0.03463054 -0.015001168 0.032340895 0.04798815 -0.021742769
0.006059594 -0.03922023 -0.007342524 -0.029325025 0.014806884 -0.029783783 0.0014167147 -0.049524844
0.011940723 0.0053713513 0.00050697103 0.025003832 0.025354927 0.07135695 0.047492813 0.045608893
0.050609842 0.054590274 0.06973469 0.0050138906 0.055907477 0.06456306 0.0005775662 0.04493844
0.06221039 0.00035423314 0.08045715 0.023629386 0.06273209 -0.009877838 -0.046411216 0.036978956
-0.041741222 -0.028492663 -0.05409598 0.027441688 -0.034798775 -0.034900825 -0.032616418 -0.042650525
-0.028274158 -0.0017845252 0.046255406 0.011935386 -0.059981305 -0.05304871 0.05004072 0.012255231
0.0009881272 0.02270497 0.010910589 0.035241254 -0.008761217 0.044647135 0.011972663 0.017193792
-0.036227457 -0.069825925 0.016704634 -0.033517927 0.009391193 -0.057148103 -0.01601267 -0.013942682
-0.031215 0.033829145 0.024847 -0.014819033 -0.018239774 -0.037860956 -0.021868851 0.054918095
0.021493739 0.015228168 0.055994377 0.028746458 0.011225945 -0.036190107 0.04946093 -0.01551781
0.040014613 0.010834479 -0.0009384902 -0.046146985 -0.020826794 -0.033883948 0.03754528 -0.045592938
-0.048323955 -0.009105369 0.01170911 -0.06464145 -0.042826023 -0.014013956 -0.03197092 -0.047759622
-0.06857765 0.005488059 -0.06505288 -0.069374375 -0.050230816 0.02896678 0.068782926 0.028763674
0.060629778 0.08902833 0.066556334 0.045173567 -0.00015801494 0.049104724 0.0017193436 -0.040740293
-0.0070499415 0.042350482 -0.053713754 -0.053438473 0.03411476 0.039048098 -0.051353093 0.027491033
-0.008790665 -0.0043351804 0.032002583 -0.013568496 0.00834681 0.024403345 0.0033730199 0.056438927
-0.015899058 -0.003685926 0.021400437 -0.008358383 0.011786621 0.015681366 0.03291161 -0.007385619
0.0009749473 0.018297039 -0.007383791 -0.05220353 0.045015123 0.054198254 -0.002661014 -0.0055192043
0.052118886 -0.022579469 0.011053101 0.0072945673 0.0074930564 -0.014448166 -0.027307319 -0.008750942
-0.005747569 -0.016606007 -0.013220027 0.08958761 0.005908859 0.0024115508 0.025916133 0.039940767
0.022001363 0.041578546 0.05916263 0.03297352 -0.006193709 0.015327963 0.010187274 -0.0027255698
00000000: 9204 823b 5d6f 013c 1506 143d a4b2 bbbc
00000010: 4bba ec3c 9c87 6f3c 6b9a d43c dc96 95bb
00000020: 03a6 5c3d d2b6 233d a0aa 0bbd 2d19 43bd
00000030: efc9 423d a0d6 49bd 2151 48bd c8a7 3e3d
00000040: 5be6 413d 9ed3 4fbd 8ba5 653c fe6c 72bd
00000050: c7df c2bc 19e4 2a3d 3430 7f3c 59bc ca3c
00000060: dc12 20bd 99bc cd3c ca2a 58bd dbdd e63b
00000070: e2a9 16bd ba6c 2abd cc74 bebb 6891 cc3b
00000080: f164 a03c f26f 803d f008 003c c172 563c
00000090: 1283 adbb 1b08 283d 45f5 943c c2b9 3a3d
000000a0: 62f6 c9bc 0805 febb f594 edbc 8214 e73c
000000b0: e1e4 26bd 5b80 08bd 5938 613c 2e26 38bc
000000c0: fc6c 68bd f868 1b3d 1efc 983c 1e21 253b
000000d0: d2b5 a2bb 3644 b63b 3380 7d3b e59b 88bc
000000e0: 903f 933b 8780 853d 8b24 2ebc 236a ac3d
000000f0: ea24 823d 2cc2 983d c08f bf3c fdc6 3d3a
00000100: 723b 3a3b b2ad 6c3b d6ee 3e3a ac9d 513b
00000110: cbbf d73b d619 67bb deab 11bb 0a9a 9bba
00000120: f391 b7bc 64fa cebc 44c4 b63c 9a04 4b3c
00000130: c432 13bd bbbd 72bc 4aa9 31bd 82d9 303c
00000140: 8d1d 323d 709a d43c 1ca3 49bd c1d8 0dbd
00000150: 75c7 75bc e377 043d 398f 443d e41d b2bc
00000160: 8f8f c63b 64a5 20bd 8e99 f0bb 093b f0bc
00000170: 9398 723c 1ffd f3bc 0fb1 b93a 90da 4abd
00000180: 06a3 433c 2902 b03b 40e6 043a d6d4 cc3c
00000190: 23b5 cf3c 9823 923d d387 423d 64d0 3a3d
000001a0: 444c 4f3d 0d9a 5f3d 10d1 8e3d 904b a43b
000001b0: 3dff 643d a339 843d d067 173a 5f11 383d
000001c0: 52d0 7e3d 5eb8 b939 b8c6 a43d 6a92 c13c
000001d0: af79 803d a8d6 21bc b019 3ebd 3f77 173d
000001e0: d8f8 2abd 7269 e9bc bf93 5dbd 64cd e03c
000001f0: 2989 0ebd 2bf4 0ebd cb98 05bd 51b2 2ebd
00000200: 359f e7bc bbe6 e9ba 4f76 3d3d a38c 433c
00000210: f5ae 75bd 9b49 59bd 7ff7 4c3d 2aca 483c
00000220: 0c84 813a c6ff b93c 54c2 323c 2259 103d
00000230: 358b 0fbc eadf 363d fd28 443c ffd9 8c3c
00000240: 3e63 14bd e500 8fbd 28d8 883c 184a 09bd
00000250: 85dd 193c 2114 6abd 012d 83bc d96f 64bc
00000260: 9ab6 ffbc 6e90 0a3d f08b cb3c 88cb 72bc
00000270: 946b 95bc 1714 1bbd 4e26 b3bc ccf1 603d
00000280: a313 b03c 917f 793c 5c5a 653d b17d eb3c
00000290: 07ed 373c 143c 14bd 8b97 4a3d 6a3e 7ebc
000002a0: 5de6 233d 1983 313c 0305 76ba 9f04 3dbd
000002b0: f49c aabc e5c9 0abd 14c9 193d a9bf 3abd
000002c0: 57ef 45bd b02e 15bc 91d7 3f3c bd62 84bd
000002d0: 576a 2fbd cb9a 65bc f0f3 02bd 989f 43bd
000002e0: 7072 8cbd 2dd5 b33b 723a 85bd 2714 8ebd
000002f0: d4be 4dbd be4b ed3c 10de 8c3d cca1 eb3c
00000300: ee56 783d 7c54 b63d b04e 883d eb07 393d
00000310: d0b0 25b9 0922 493d 995b e13a 4bdf 26bd
00000320: 3203 e7bb b377 2d3d f402 5cbd 4de2 5abd
00000330: ebbb 0b3d e6f0 1f3d 9f57 52bd e034 e13c
00000340: b906 10bc 210e 8ebb 2415 033d 664e 5ebc
00000350: 0fc1 083c 86e9 c73c e20d 5d3b 812c 673d
00000360: be3e 82bc 948f 71bb f84f af3c 99f1 08bc
00000370: ac1c 413c 3576 803c 53ce 063d 1003 f2bb
00000380: 9b93 7f3a ace3 953c baf3 f1bb 5ed3 55bd
00000390: c761 383d fdfe 5d3d 6864 2ebb 71da b4bb
000003a0: 9d7a 553d 94f8 b8bc 1118 353c 4407 ef3b
000003b0: 5088 f53b 00b8 6cbc 99b3 dfbc 1c60 0fbc
000003c0: 1a56 bcbb 5209 88bc d098 58bc b579 b73d
000003d0: 1a9f c13b 1c0b 1e3b 124e d43c ee98 233d
000003e0: 343c b43c 444e 2a3d 8454 723d 3e0f 073d
000003f0: 99f4 cabb 2322 7b3c 86e8 263c 799f 32bb

conv3.bias f4 [16]
0.032913666 -0.00075543666 0.068625286 0.05830789 0.033639047 -0.049960595 0.025395865 0.0072736465
0.020951929 -0.019201726 0.0062076827 -0.02521221 0.009680796 -0.011792923 -0.041974954 -0.029105932
00000000: 7bd0 063d 7f08 46ba 6a8b 8c3d 41d4 6e3d
00000010: 19c9 093d 7ba3 4cbd fd0a d03c c557 ee3b
00000020: 61a3 ab3c f04c 9dbc d169 cb3b d689 cebc
00000030: 349c 1e3c 1b37 41bc eeed 2bbd 906f eebc

conv4.weight f4 [2, 16, 5, 5]
0.027385758 0.03214873 0.074022576 0.076040946 0.03514747 0.0057150507 0.023746535 0.07994901
-0.0058160997 0.009936273 0.052817535 0.011413359 -0.01148604 0.051009245 0.0025028978 0.06479555
0.032266147 0.06617574 0.06328978 0.0046845837 0.06349971 0.056123674 0.05663233 0.052383006
0.027246997 0.04564812 -0.022519052 0.03996374 0.00071337615 0.04689486 0.030128196 0.03020103
0.0031261588 0.0015306704 0.008597965 0.008276052 0.0028056211 -0.03874917 0.003117835 0.047919232
-0.006841184 0.024636805 0.049045667 -0.0049190065 0.018822461 -0.038867693 0.035307698 0.011187066
0.012852183 -0.047399733 0.032099154 0.06056003 0.063610114 0.042972337 0.0017777589 0.0052945153
0.04224935 0.049965166 0.042467028 0.058139894 0.026914822 0.06973913 0.049240265 0.04124156
0.046516825 0.068957135 0.06779861 0.009467028 0.050524984 0.05788569 0.055193547 0.038361974
0.079563834 0.050603975 0.08178703 0.048362922 0.04875719 0.02996374 0.033353705 0.06277343
-0.0027659994 0.05224763 0.03408076 0.045462392 0.019106725 0.052579716 -0.0013031588 0.061520282
0.068463884 0.042607855 -0.007008938 0.055301823 0.0119454665 0.021196146 0.040285118 0.0585476
0.05167762 0.056395244 0.033424325 0.012542348 -0.026286423 -0.08214695 -0.06914004 -0.030770851
-0.038432002 -0.08677581 -0.041603066 -4.1421404e-07 -0.06289373 -0.015685044 -0.026204681 -0.023329755
-0.015581534 -0.054566476 -0.02736055 -0.020117112 -0.046287194 0.0043452666 -0.0149274245 0.00073893106
-0.028496185 -0.024963487 0.014179217 -0.060940072 -0.04382816 -0.013291936 0.040139306 -0.04305787
0.028256927 -0.008258179 0.022159489 -0.018913181 0.032688223 -0.017548643 -0.041860364 0.04278931
0.02251854 0.016067432 -0.019192541 -0.007259531 0.0018082388 -0.048870057 0.015737591 0.034873318
-0.045966823 0.043037653 -0.012904516 -0.03277705 -0.03193774 0.013753648 -0.044622168 0.0032295086
0.037203167 -0.023622481 -0.030754559 -0.035868652 0.012128404 -0.0073252562 0.03062053 0.024271864
0.010515665 -0.023049992 -0.007524035 0.021365486 -0.028709825 -0.007310557 0.0029269243 0.0115778465
-0.045009762 0.017415537 0.011226598 0.00087508117 -0.010155545 0.046056192 0.04976199 0.0057026087
0.0058466364 -0.019245079 0.00901273 0.04857825 -0.012272621 -0.023385867 0.036337763 -0.02631684
-0.02712959 0.011724885 0.02277478 -0.011973001 0.050448127 -0.036509756 -0.020839764 -0.005180676
0.010205888 0.051056348 0.05332854 0.053960487 0.024286529 -0.015339911 -0.0392497 0.009639912
-0.005078963 0.02223046 0.043452714 0.031704187 -0.010135215 -0.019287491 -0.019925896 0.03673869
0.039008312 -0.03340837 -0.054817196 -0.031108543 0.018652607 0.014478998 -0.013674407 -0.039908245
-0.051894724 -0.002719428 -0.011758224 0.038213093 -0.038036868 -0.05449781 0.03653482 -0.014341147
-0.029806854 0.028228665 0.037393384 -0.037719112 0.000589382 0.048220675 -0.012185633 -0.021812007
0.04502279 0.004677908 0.004637863 0.04295481 0.003739583 0.018164039 0.011163536 -0.019692
-0.047121435 -0.009958484 0.045493685 0.0052474975 0.039749093 0.01947603 -0.011825533 -0.035465475
0.028519813 -0.032734834 -0.017871745 -0.003477609 0.058534604 0.053665787 -0.019454282 0.06427473
00000000: 1958 e03c 63ae 033d 2699 973d 5bbb 9b3d
00000010: cbf6 0f3d 5245 bb3b 1888 c23c 4ebc a33d
00000020: fb94 bebb c0cb 223c 3357 583d 19ff 3a3c
00000030: f22f 3cbc 12ef 503d a807 243b 88b3 843d
00000040: 8229 043d 2587 873d 129e 813d 2381 993b
00000050: 230c 823d f0e1 653d 4df7 673d 908f 563d
00000060: 1835 df3c 86f9 3a3d e079 b8bc 05b1 233d
00000070: dd01 3b3a d314 403d 68cf f63c 2768 f73c
00000080: 3ee0 4c3b c7a0 c83a 7bde 0c3c 4798 073c
00000090: 83de 373b 73b7 1ebd 9754 4c3b f546 443d
000000a0: 032c e0bb 20d3 c93c 1ce4 483d 9e2f a1bb
000000b0: 9031 9a3c bb33 1fbd ce9e 103d f549 373c
000000c0: f691 523c 3926 42bd 677a 033d cb0d 783d
000000d0: 0546 823d c303 303d b103 e93a 9d7d ad3b
000000e0: a80d 2d3d 46a8 4c3d e8f1 2d3d 1924 6e3d
000000f0: 797c dc3c 64d3 8e3d 29b0 493d e9ec 283d
00000100: 6d88 3e3d 6639 8d3d ffd9 8a3d 981b 1b3c
00000110: 49f3 4e3d 8c19 6d3d a112 623d 7221 1d3d
00000120: 5df2 a23d 1d46 4f3d f57f a73d 3318 463d
00000130: 9fb5 473d 8476 f53c e59d 083d 5b8f 803d
00000140: c545 35bb 9c01 563d 4498 0b3d c636 3a3d
00000150: b585 9c3c d45d 573d c1ce aaba b1fc 7b3d
00000160: cb36 8c3d 9385 2e3d 3cab e5bb 2a84 623d
00000170: ebb6 433c 8aa3 ad3c 0202 253d 9ccf 6f3d
00000180: e9ab 533d b3fe 663d f2e7 083d 6c7e 4d3c
00000190: a056 d7bc a93c a8bd 4b99 8dbd 2713 fcbc
000001a0: e06a 1dbd 84b7 b1bd fa67 2abd 2561 deb4
000001b0: 6ece 80bd ec7d 80bc 33ab d6bc 0b1e bfbc
000001c0: b149 7fbc 1981 5fbd 3b23 e0bc a4cc a4bc
000001d0: a497 3dbd bd62 8e3b 2892 74bc d3b4 413a
000001e0: d570 e9bc 3a80 ccbc f24f 683c 4c9c 79bd
000001f0: 2885 33bd 6cc6 59bc 1d69 243d 735d 30bd
00000200: 127b e73c 504d 07bc d187 b53c d1ef 9abc
00000210: 16e4 053d 2cc2 8fbc c675 2bbd d843 2f3d
00000220: cd78 b83c d99f 833c ad39 9dbc 5ce1 edbb
00000230: 6d02 ed3a f82b 48bd 1fec 803c 53d7 0e3d
00000240: b547 3cbd 4048 303d 776d 53bc 3a41 06bd
00000250: 26d1 02bd fb56 613c bcc5 36bd 2aa6 533b
00000260: 5962 183d ef83 c1bc fcf0 fbbc 02eb 12bd
00000270: 37b6 463c b408 f0bb e8d7 fa3c cad5 c63c
00000280: e549 2c3c 56d3 bcbc 2e8c f6bb ac06 af3c
00000290: de30 ebbc 668d efbb a4d1 3f3b 02b1 3d3c
000002a0: 285c 38bd 07ab 8e3c c4ef 373c b465 653a
000002b0: 7163 26bc 6ba5 3c3d 3ad3 4b3d f3dc ba3b
000002c0: 2495 bf3b dba7 9dbc 21aa 133c fdf9 463d
000002d0: 1a13 49bc b893 bfbc e8d6 143d 6a96 d7bc
000002e0: e03e debc bb19 403c 2d92 ba3c 682a 44bc
000002f0: b2a2 4e3d 418b 15bd 27b8 aabc a9c2 a9bb
00000300: 9936 273c 7620 513d 076f 5a3d ac05 5d3d
00000310: 8bf4 c63c 4054 7bbc 4bc4 20bd b9f0 1d3c
00000320: 6e6d a6bb a71c b63c 79fb 313d 40dc 013d
00000330: 2c0e 26bc cd00 9ebc a23b a3bc 4f7b 163d
00000340: 2ec7 1f3d 37d7 08bd ff87 60bd 58d7 febc
00000350: 5acd 983c 5239 6d3c 9f0a 60bc d476 23bd
00000360: 908f 54bd 6e38 32bb 91a5 40bc 5585 1c3d
00000370: 8ccc 1bbd 1839 5fbd 89a5 153d 21f7 6abc
00000380: 812d f4bc cd3f e73c ce29 193d 5b7f 1abd
00000390: c280 1a3a 0b83 453d 40a6 47bc 18af b2bc
000003a0: d169 383d 2349 993b 37f9 973b 62f1 2f3d
000003b0: cb13 753b c0cc 943c 44e7 363c 1e51 a1bc
000003c0: 6802 41bd e928 23bc 9657 3a3d 33f3 ab3b
000003d0: f2cf 223d 328c 9f3c e1bf 41bc 3f44 11bd
000003e0: 62a2 e93c f614 06bd c467 92bc 99e8 63bb
000003f0: fbc1 6f3d a8d0 5b3d 965e 9fbc 78a2 833d

conv4.bias f4 [2]
0.032740768 0.0024690784
00000000: 2f1b 063d 43d0 213b
